Assets/Learning/AIRollABall/results/TestParameters/AIRollABall/AIRollABall-3499968.pt (torch, 574872 bytes, 42 tensors)

network_body._body_endoder.seq_layers.0.weight f4 [128, 47]
0	0x3e062c6b	0.13102882
1	0x3e398ce7	0.18120156
2	0x3e8bd429	0.27310303
3	0xbd8f7f24	-0.07006672
4	0x3de32937	0.110918455
5	0x3dab7818	0.083725154
6	0xbdc032e2	-0.09384705
7	0xbd9f7e3e	-0.07787751
8	0x3dc4288b	0.095780455
9	0x3d394222	0.045229085
10	0xbc969b8d	-0.01838472
11	0x3d6bc901	0.05756474
12	0x3d9a2674	0.075268656
13	0xbe236977	-0.159582
14	0x3e5ecb26	0.21757182
15	0x3c9416ac	0.018077217
16	0x3df9729b	0.121800624
17	0xbda274f0	-0.0793246
18	0xbc6b0c7c	-0.014346238
19	0xbe80c237	-0.25148174
20	0x3e116919	0.14200248
21	0x3da7d98a	0.08195789
22	0xbdcf591b	-0.101244174
23	0xbe3b9c1d	-0.18321271
24	0x3da0f364	0.07858923
25	0x3e1f0126	0.15527782
26	0x3cd4b26e	0.025963988
27	0xbe55640f	-0.2083895
28	0x3db89a73	0.09013834
29	0x3dd58c7e	0.104271874
30	0xbe063478	-0.13105953
31	0x3d7448f8	0.0596399
32	0xbe28660d	-0.1644518
33	0xbd35b7cb	-0.04436473
34	0xbe395dbf	-0.18102168
35	0xbb90bcce	-0.0044170385
36	0xbe1c2326	-0.15247783
37	0xbe8c3121	-0.27381232
38	0xbca4d6fc	-0.020122044
39	0x3d20d264	0.039263144
40	0x3de340dc	0.11096355
41	0x3e2e507a	0.17022887
42	0xbd6152c6	-0.05501058
43	0x3d2db49e	0.042408578
44	0xbebd56a9	-0.3698018
45	0xbcc3a1bf	-0.023880837
46	0x3d4d6aaa	0.05015055
47	0x3e1a25f7	0.15053545
48	0x3db07d2e	0.08617626
49	0x3d4a739f	0.04942667
50	0x3dd5d0a5	0.104401864
51	0xbd94e993	-0.07271113
52	0xbe289d73	-0.16466312
53	0x3ec5b6e1	0.38616088
54	0xbd25b5f6	-0.040456735
55	0x3dc4af9b	0.096038066
56	0xbd40eb54	-0.047099426
57	0x3e72d13e	0.23712632
58	0x3d7fedc5	0.062482614
59	0xbe97f2ce	-0.29677433
60	0xbe8331d5	-0.25623956
61	0x3bab5c61	0.0052295183
62	0xbc8752fb	-0.01651906
63	0xbd84d2a4	-0.06485489
64	0x3d8f9a0d	0.07011805
65	0xba82dbbf	-0.0009983702
66	0x3d5f00b0	0.054444015
67	0x3e849f0c	0.25902593
68	0x3d5dd16a	0.05415479
69	0x3e223949	0.15842165
70	0x3d964d14	0.0733892
71	0x3e1d6eae	0.15374252
72	0xbcb1377e	-0.021632906
73	0x3d93e1b5	0.072207846
74	0xbd9f4a15	-0.07777802
75	0x3e03a019	0.12854041
76	0x3dfd0066	0.123535916
77	0xbd60328a	-0.054735698
78	0xbd0bc006	-0.034118675
79	0x3e3cd2d0	0.18439794
80	0xbd26135c	-0.040545806
81	0x3e20b71a	0.15694848
82	0x3e8c7044	0.27429402
83	0x3da10d2a	0.07863839
84	0xbe1813b5	-0.14851268
85	0xbc0477cf	-0.008085205
86	0xbe71d2a4	-0.2361551
87	0xbd1cd50c	-0.038289115
88	0xbc531fdd	-0.012886015
89	0xbec05500	-0.3756485
90	0xbc16a6de	-0.009195058
91	0x3d811722	0.0630324
92	0xbcf347da	-0.029697347
93	0xbdc15b06	-0.094411895
94	0x3eced955	0.40400186
95	0xbd6491eb	-0.05580322
96	0xbda59988	-0.080859244
97	0x3e1e4d4a	0.15459171
98	0xbe4edbbd	-0.20201011
99	0x3c3858b4	0.011251617
100	0xbe6e7892	-0.23288181
101	0xbe733adc	-0.23752922
102	0xbdada4bd	-0.08478687
103	0xbd837274	-0.064183146
104	0x3d28ad9b	0.041181188
105	0xbea63534	-0.32462466
106	0xbdcf6e5d	-0.10128472
107	0xbd54f60a	-0.051992454
108	0x3ca818f8	0.020519719
109	0x3dd0c395	0.10193554
110	0xbdcec6b7	-0.100964956
111	0xbe208168	-0.15674365
112	0xbcac2095	-0.02101163
113	0xbeafa9d7	-0.34309265
114	0x3d8f2aa3	0.06990554
115	0x3e466b0f	0.19376777
116	0x3df659b4	0.12028828
117	0x3d652483	0.055943023
118	0x3e06eba9	0.13175835
119	0x3ded7b1b	0.11595746
120	0x3e8077a9	0.25091293
121	0xbd912ab6	-0.070882246
122	0xbddf3a83	-0.10899832
123	0x3df82afa	0.12117572
124	0x3dc99f73	0.09844866
125	0xbcd547b6	-0.026035171
126	0xbe4aceba	-0.19805422
127	0x3c940862	0.018070403
128	0x3e3f16e9	0.18661083
129	0x3e51059f	0.204123
130	0x3eaac7e3	0.33355626
131	0xbe630ff6	-0.22174057
132	0xbdb0e31e	-0.08637069
133	0x3d68aa62	0.056803115
134	0x3d2a2ce1	0.041546706
135	0x3e3d00ea	0.1845738
136	0x3dbdcc26	0.09267454
137	0x3ba40178	0.005005058
138	0x3be4c354	0.0069812927
139	0x3ec39ee1	0.38207152
140	0x3e888888	0.26666665
141	0xbdd938f9	-0.1060657
142	0x3e248826	0.16067562
143	0x3d8adcc5	0.0678039
144	0xbd738b89	-0.059459243
145	0xbd6d4cde	-0.057934634
146	0x3caa532d	0.020791614
147	0x3d251603	0.040304195
148	0x3e4c0b48	0.19926178
149	0xbe81508f	-0.25256774
150	0x3dd738a2	0.10508849
151	0x3e30eb79	0.17277326
152	0x3dcc9fb5	0.09991399
153	0xbd818525	-0.063242234
154	0xbc000958	-0.007814728
155	0xbcf1cb46	-0.029515874
156	0xbbacb57a	-0.005270657
157	0xbdf828ce	-0.12117158
158	0x3b3a5c27	0.0028436275
159	0xbe6aa05d	-0.22912736
160	0x3d0bba47	0.034113195
161	0xbdaaffbe	-0.0834956
162	0x3dabfcab	0.08397802
163	0x3da5eea5	0.081021585
164	0xbd9b0d70	-0.075709224
165	0xbe9e41f5	-0.30909696
166	0xbe16dabe	-0.14731881
167	0x3d559b24	0.052149907
168	0x3e23974e	0.15975687
169	0x3d146b44	0.03623511
170	0xbd747966	-0.059686087
171	0xbba5cfe8	-0.0050601847
172	0x3df011ad	0.117221214
173	0xbc9cf302	-0.019158844
174	0x3c2b4657	0.010453782
175	0xbe0dfc15	-0.13865693
176	0xbd2b3f0d	-0.041808177
177	0xbda6a711	-0.08137334
178	0xbde3a672	-0.11115731
179	0xbdd982c8	-0.10620648
180	0xbd8232ed	-0.063573696
181	0xbd37999f	-0.04482424
182	0xbd2f9226	-0.042863987
183	0xbec2d427	-0.38052484
184	0x3d4543fc	0.048160538
185	0x3f0660a5	0.5249122
186	0x3e3bbe3d	0.18334289
187	0xbdc3eb22	-0.095663324
188	0x3d3dd0db	0.04634176
189	0xbe298106	-0.16553125
190	0x3e7f949e	0.24959037
191	0xbe02319c	-0.12714237
192	0xbc19696e	-0.009363515
193	0xbe43437a	-0.19068709
194	0x3dd6f84e	0.10496579
195	0x3c8be0e5	0.017075012
196	0x3e0d43d0	0.137954
197	0x3e814318	0.252465
198	0xbd63c494	-0.055607393
199	0x3e05352d	0.13008566
200	0x3e237b3e	0.15964982
201	0x3e1d8461	0.1538253
202	0xbe0b9161	-0.13629676
203	0xbd6a8873	-0.057259034
204	0x3e4b6c46	0.19865522
205	0xbe0ae2a4	-0.13563019
206	0xbe945e07	-0.28977987
207	0x3dd3d9e6	0.10344295
208	0x3e7f9eff	0.24962996
209	0x3d407a0c	0.046991393
210	0x3dceb015	0.10092179
211	0xbcacd280	-0.021096468
212	0x3d87dcb2	0.06633891
213	0x3e0bdd75	0.13658698
214	0x3827fea2	4.0053048e-05
215	0x3ec831f0	0.391006
216	0x3c8ed8f3	0.017437434
217	0xbd45d402	-0.04829789
218	0xbd0246fa	-0.03180597
219	0xbd399dbd	-0.045316447
220	0x3c644b93	0.013934034
221	0x3daf7a0f	0.08568203
222	0xbd47349d	-0.04863416
223	0x3dda7aaa	0.106679276
224	0x3deb87a0	0.11500478
225	0x3e0f12f9	0.13972081
226	0xbe5774c2	-0.21040633
227	0xbd36a4db	-0.044590812
228	0xbd1b62df	-0.037936088
229	0xbed114a9	-0.40836075
230	0x3dd994b0	0.10624063
231	0xbd840b2c	-0.06447443
232	0x3ea6fa7b	0.32612976
233	0xbe0d0bba	-0.13774005
234	0xbe64c73e	-0.2234163
235	0x3e95ac4e	0.2923302
236	0xbe86b9d9	-0.26313666
237	0xbe2a18ec	-0.1661107
238	0xbd455117	-0.048173036
239	0xbd76386d	-0.060112406
240	0xbd792b06	-0.060832046
241	0x3d9b5bad	0.07585845
242	0xbdee5ce9	-0.11638815
243	0x3ce6a8b8	0.028156623
244	0x3d368af6	0.044566117
245	0x3ed49f6a	0.41527873
246	0xbd9b278b	-0.075759016
247	0xbdad1d9e	-0.08452915
248	0xbd2d192d	-0.042260338
249	0x3e3e3495	0.18574746
250	0xbde5e1ad	-0.11224685
251	0xbe4e760b	-0.20162217
252	0x3de6b470	0.112648845
253	0xbe154f1a	-0.14580956
254	0xbe0f2ea9	-0.13982643
255	0x3c4d5005	0.012531285

network_body._body_endoder.seq_layers.0.bias f4 [128]
0	0xbcd32255	-0.025773207
1	0xbcbf9a1b	-0.023388913
2	0x3c1141e2	0.008865805
3	0xbbdb0190	-0.006683536
4	0xba916066	-0.0011091351
5	0xbce6fa44	-0.028195508
6	0xbd288cf9	-0.041150067
7	0xbd44e7e2	-0.048072703
8	0xb8e68124	-0.00010991309
9	0xbb92aa3e	-0.004475861
10	0xbb137cf1	-0.002250489
11	0xbd4decfe	-0.05027484
12	0xbc9b48bc	-0.01895558
13	0x3caeb9c0	0.021328807
14	0xbd3070da	-0.043076374
15	0x3d37ed3e	0.044903986
16	0xbd2175b4	-0.03941889
17	0xbce82277	-0.028336747
18	0x3cc21d9f	0.023695765
19	0xbd69d0b8	-0.057083815
20	0xbbd4bf5a	-0.0064925374
21	0xbbfbd81f	-0.0076856758
22	0xbd4db95c	-0.0502256
23	0xbbdd1062	-0.0067463377
24	0x3c26ff75	0.010192742
25	0x3d1c8556	0.038213097
26	0xbcab27c2	-0.020892981
27	0xbcb89c05	-0.022535333
28	0x3da89389	0.08231265
29	0xb95d7b08	-0.00021122035
30	0x3c45f9b0	0.012083456
31	0xbd479e63	-0.048735034
32	0xbacad98a	-0.0015476209
33	0xbc20e4e3	-0.009820196
34	0x3c162e97	0.009166381
35	0xbd05a748	-0.032630235
36	0x3c21a410	0.009865776
37	0xbb93372c	-0.004492661
38	0xbca87b5d	-0.020566637
39	0xbd7ed79e	-0.062217347
40	0xbba8efa4	-0.0051555205
41	0xbd811934	-0.06303635
42	0x3d2bd043	0.04194666
43	0x3bcdfede	0.006286486
44	0x3b3d2dda	0.002886644
45	0xbc9ac004	-0.018890388
46	0x3d2e2d4c	0.042523667
47	0x3ca05656	0.019572418
48	0xbcdc3d6a	-0.026884753
49	0xbc5412c6	-0.012943929
50	0xbcb1f877	-0.021724923
51	0xbcda44e3	-0.026644176
52	0xbd22de16	-0.03976258
53	0x3c249843	0.010046068
54	0x3c786a72	0.015162097
55	0x3cb27e72	0.02178881
56	0x3d12955f	0.035786983
57	0xbd18ce08	-0.03730586
58	0xbcb136de	-0.021632608
59	0x3c53247f	0.012887119
60	0xbcf31065	-0.029670903
61	0xbc875fee	-0.016525235
62	0xbd188f29	-0.037245903
63	0xbb676b79	-0.0035311861
64	0xbc355ec7	-0.01106996
65	0xbca9966b	-0.020701608
66	0x3d0fb12a	0.035081066
67	0xbd077034	-0.03306599
68	0x3d40fcf4	0.047116235
69	0xbc629421	-0.013829262
70	0xbd376e20	-0.044782758
71	0x3b77ad88	0.0037792642
72	0xbcd2ef2a	-0.025748808
73	0xbca86b7c	-0.020559065
74	0xbd8d119f	-0.068881266
75	0xbc97467d	-0.018466229
76	0x3c6d5ee9	0.01448796
77	0xbc0a49c5	-0.00844044
78	0x3d16547b	0.03670166
79	0x3d77dc47	0.060512807
80	0x3c3121e1	0.0108113
81	0x3c199466	0.00937376
82	0x3b12fc57	0.0022428238
83	0x3cd4eaf0	0.025990933
84	0xbc3d9696	-0.011571547
85	0x3d10c406	0.035343193
86	0xbc747c6e	-0.0149222445
87	0xb96fb393	-0.00022859713
88	0x3bf9b9b2	0.0076210136
89	0xbbb1d560	-0.0054270476
90	0xbd189d14	-0.037259176
91	0x3c6016d5	0.013677319
92	0xbd1ae67c	-0.037817463
93	0x3c2fee94	0.010738034
94	0xbd16c698	-0.036810488
95	0xbd25c882	-0.040474422
96	0xbd4f76c1	-0.050650362
97	0x3a812793	0.0009853713
98	0x3cc3af65	0.023887346
99	0xbd315ab4	-0.043299392
100	0x3cd1db71	0.025617333
101	0x3b5e7a35	0.0033947353
102	0xbcdc590d	-0.026897931
103	0xbcf8288b	-0.03029277
104	0xbc2ea771	-0.010660038
105	0x3d7af899	0.061272237
106	0x3cbd9f36	0.023147207
107	0xbbec16d8	-0.0072048716
108	0xbd4aff79	-0.049560044
109	0xbd4cd632	-0.05000896
110	0xbd0fbfeb	-0.035095137
111	0xbd05aa15	-0.032632906
112	0xbd20205d	-0.039093364
113	0x3bb1b94d	0.005423701
114	0xbbc0dd1c	-0.0058857333
115	0x3cd173c1	0.025567891
116	0x3d184d7c	0.03718327
117	0x3c7c919c	0.015415575
118	0xbc909937	-0.017651184
119	0xbc0d4f4e	-0.008624865
120	0x3bab3de5	0.0052258843
121	0x3cdf184d	0.027233267
122	0xbc1176df	-0.008878439
123	0x3c17462f	0.009233042
124	0xbc34e029	-0.011039772
125	0xbc973fc6	-0.018463027
126	0xba8e8984	-0.0010874723
127	0xbd19ccca	-0.037548818

network_body._body_endoder.seq_layers.2.weight f4 [128, 128]
0	0x3cbc13df	0.022958694
1	0xbcd817d1	-0.026378544
2	0x3e4939e3	0.19650988
3	0x3d9a4d0b	0.07534226
4	0x3ce5ae2d	0.028037155
5	0xbcca32e0	-0.024682462
6	0x3dede040	0.11615038
7	0x3d97d4ee	0.0741366
8	0x3e420a1d	0.1894917
9	0xbd5ae961	-0.053445224
10	0xbcb338d8	-0.021877691
11	0xbd50bcd6	-0.050961338
12	0x3b9c0199	0.0047609326
13	0x3d7ee9bf	0.062234636
14	0x3ce03d56	0.027372997
15	0x3c522eb5	0.012828519
16	0x3d6de04f	0.058075245
17	0x3e102f19	0.14080466
18	0xbde61078	-0.1123361
19	0xbdb8bd4a	-0.09020479
20	0x3dcb828b	0.099370085
21	0x3d9aea78	0.075642526
22	0xbde26117	-0.11053675
23	0xbd1899f1	-0.037256185
24	0xbd2e63a4	-0.042575493
25	0xbdaea917	-0.08528345
26	0x3de1defc	0.11028859
27	0xbbd6d01e	-0.006555571
28	0xbdcea899	-0.10090751
29	0xbd34dbaf	-0.04415482
30	0xbd1810be	-0.03712534
31	0x3c83cb05	0.016088018
32	0x3d3956b8	0.045248717
33	0xbd97b7b6	-0.07408087
34	0xbe1a944d	-0.15095635
35	0xbdd95bc7	-0.10613208
36	0xbdad14c5	-0.08451227
37	0x3cc949b8	0.024571285
38	0x3db01a1c	0.0859873
39	0x3d7a4a6a	0.061106123
40	0x3e16c4d8	0.14723527
41	0x3ae781df	0.0017662606
42	0x3c60ad45	0.013713186
43	0xbd07617e	-0.03305196
44	0x3d451468	0.048115164
45	0xbd818f81	-0.06326199
46	0xbd8beba1	-0.06832052
47	0x3ce7987f	0.028270958
48	0xbd14ff48	-0.036376268
49	0xbe7a2c3d	-0.24430938
50	0x3d251dfd	0.040311802
51	0x3d593f8f	0.05303913
52	0x3e63e66f	0.22255872
53	0xbde01221	-0.10940958
54	0x3d9e84dd	0.077401854
55	0x3d816f6b	0.063200794
56	0x3d85cf2f	0.06533658
57	0x3e687d4e	0.2270405
58	0x3d41c8ff	0.047310825
59	0xbe254797	-0.1614059
60	0xbaeec55d	-0.0018216778
61	0x3dc021bf	0.093814366
62	0x3a085240	0.00052002445
63	0x3dd58bba	0.10427041
64	0xbdea923e	-0.11453675
65	0x3e22d6a2	0.15902188
66	0xbde4672f	-0.11152493
67	0xbe2352d9	-0.15949573
68	0xbdf0fde9	-0.117671795
69	0x3db01dae	0.08599411
70	0x3d729028	0.05921951
71	0x3d10c89f	0.035347577
72	0x3e01f8df	0.12692593
73	0xbccd4de9	-0.025061565
74	0xbdb2eb49	-0.08736283
75	0xbd806bda	-0.06270571
76	0xbd81fdd1	-0.0634724
77	0x3e51098a	0.20413795
78	0xbca28f11	-0.01984361
79	0x3ca71c8c	0.020399354
80	0x3c9122d3	0.0177168
81	0x3c0a475c	0.008439865
82	0x3cf903d1	0.030397328
83	0xbe03088a	-0.12796226
84	0xbe154523	-0.14577155
85	0x3dd5b64d	0.10435162
86	0xbd59fa37	-0.05321714
87	0x3dbe4f26	0.0929244
88	0xbe0706e4	-0.13186222
89	0xbbf50ebc	-0.007478563
90	0xbdb80f78	-0.089873254
91	0x3dc2369e	0.09483074
92	0xbd0203c6	-0.03174188
93	0xbe0d7a07	-0.13816081
94	0xbc48cd2e	-0.01225595
95	0xbdd11ccf	-0.10210573
96	0xbbe4922c	-0.006975433
97	0xbdc6e3dd	-0.0971143
98	0xbd9463e8	-0.07245618
99	0xbce16494	-0.02751378
100	0xbe0d1206	-0.13776407
101	0x3be4a751	0.0069779535
102	0xbe35ef89	-0.17767157
103	0xbc381c40	-0.011237204
104	0xbe0c5591	-0.13704516
105	0x3df89aca	0.12138899
106	0xbc37a1ef	-0.011208042
107	0xbde62241	-0.11237002
108	0x3d76b73d	0.060233343
109	0xbd67a3a7	-0.056552555
110	0x3cb2030e	0.021729972
111	0x3dabe9c1	0.083941944
112	0xbba9b63d	-0.005179195
113	0xbda76adc	-0.08174679
114	0x3d9ef213	0.07761016
115	0xbd706ba2	-0.058696397
116	0x3d90e612	0.070751324
117	0x3def0c2e	0.11672245
118	0x3d489e18	0.048978895
119	0xbc42a387	-0.011879808
120	0xbe18373a	-0.14864817
121	0xba698c5b	-0.0008909159
122	0x3bd15e91	0.006389447
123	0x3dad4d82	0.08462049
124	0x3d608ae0	0.05481994
125	0xbd527fdb	-0.051391464
126	0xbddf94f5	-0.10917083
127	0x3e3f6ae9	0.18693127
128	0x3d655b94	0.05599554
129	0xbe66794d	-0.2250721
130	0x3d0dda7c	0.03463219
131	0x3c869701	0.016429426
132	0x3e26d809	0.16293348
133	0x3d87d22e	0.066318855
134	0x3df01706	0.11723141
135	0x3e0a6325	0.13514383
136	0x3e0aabb9	0.1354207
137	0x3db0dfae	0.086364135
138	0x3d3a3e0f	0.04546934
139	0xbe15b3d8	-0.14619386
140	0x3c61dcfe	0.013785599
141	0x3e09deb5	0.13463862
142	0xbe13aebe	-0.14422128
143	0x3d77fdd7	0.060544815
144	0xbd1f45b8	-0.03888485
145	0x3e0eb614	0.13936645
146	0x3e608cf5	0.21928771
147	0xbde80eb7	-0.11330932
148	0x3db1bbb1	0.086783774
149	0xbcc10b78	-0.023565039
150	0x3e16088f	0.14651702
151	0xbd147dc4	-0.036252752
152	0x3d5c8090	0.053833544
153	0x3d26d55a	0.04073081
154	0x3ce6c6a0	0.028170884
155	0x3e03ad96	0.12859187
156	0xbe20dff7	-0.15710436
157	0x3ba214e3	0.0049463375
158	0xbcf1682e	-0.029468622
159	0xbd478961	-0.048715
160	0x3bdf7cd0	0.0068202987
161	0xbdb65679	-0.08903212
162	0x3e518cda	0.20463887
163	0xbe3f0cb5	-0.18657191
164	0x3d076222	0.03305257
165	0xbd34165d	-0.04396664
166	0x3ba05cc2	0.00489387
167	0xba928f07	-0.0011181541
168	0xbe270e19	-0.16313972
169	0xba6fc8b8	-0.0009147036
170	0x3dca3240	0.09872866
171	0x3e292644	0.16518503
172	0xbdb7600b	-0.089538656
173	0x3ccd8266	0.025086593
174	0x3d885c69	0.06658251
175	0xbdefca84	-0.11708549
176	0xbd494c87	-0.049145248
177	0xbd575ed0	-0.052580655
178	0xbe35d48e	-0.17756864
179	0xbdfdc57e	-0.12391184
180	0xbc0d3693	-0.008618969
181	0x3e75e0ff	0.2401161
182	0x3e2b61d4	0.16736537
183	0x3db7c3a6	0.08972864
184	0xbd76a0e4	-0.06021203
185	0x3d3a5f6f	0.04550117
186	0x3d42bd14	0.0475436
187	0x3cdbd946	0.026837002
188	0x3b12eb14	0.002241795
189	0x3e047529	0.12935318
190	0xbd8bcd55	-0.06826273
191	0xbc04c1e3	-0.008102867
192	0xbd61c52c	-0.05511968
193	0x3d5b69fe	0.05356788
194	0x3c7c5b4e	0.015402628
195	0xbd412460	-0.04715383
196	0xbde043d7	-0.109504394
197	0xbcd6e491	-0.026232036
198	0xbd0b5b01	-0.034022335
199	0x3deb3a6e	0.11485754
200	0xbdc1806b	-0.09448322
201	0x3dd4ab40	0.10384226
202	0xbd9c1c4b	-0.07622584
203	0x3dd4609e	0.10369991
204	0xbcdbde62	-0.026839439
205	0x3dae4f13	0.08511176
206	0xbdcb25a0	-0.09919286
207	0xbe1f73df	-0.15571545
208	0x3d245884	0.040123478
209	0xbd5dbc2b	-0.05413453
210	0xbe188d41	-0.14897634
211	0xbc4af13f	-0.012386619
212	0x3c8cf68d	0.017207408
213	0x3d87c0a5	0.06628541
214	0x3d16a83f	0.036781546
215	0x3d15e607	0.036596324
216	0x3baf8aa9	0.0053571058
217	0x3c9bb934	0.01900921
218	0xbd86768f	-0.06565582
219	0xbc07ffc2	-0.0083007235
220	0xbc157e27	-0.009124315
221	0x3dfcc9cc	0.12343177
222	0xbe42e8cb	-0.19034116
223	0xbe03dc6d	-0.12877055
224	0xbd55e7fc	-0.05222319
225	0xbcffbf9d	-0.031219298
226	0xbe0335af	-0.12813447
227	0x3dd16d96	0.1022598
228	0x3c8a99c2	0.01691902
229	0x3e2cd13a	0.16876689
230	0xbd232270	-0.039827764
231	0x3e30cb57	0.17265068
232	0x3e061f5d	0.13097902
233	0xbd0e5cad	-0.03475635
234	0x3d15b109	0.036545787
235	0x3d8ec99a	0.06972046
236	0xbc77dea6	-0.015128767
237	0xbd492702	-0.049109466
238	0xbe3a8ebb	-0.1821851
239	0x3d841ce3	0.06450822
240	0x3ceef902	0.02917147
241	0x3d744bf4	0.059642747
242	0xbe095c5b	-0.13414137
243	0x3e2e8407	0.17042552
244	0xbd9862d2	-0.074407235
245	0xbca464ff	-0.02006769
246	0xbdcc4504	-0.09974101
247	0xbc16032b	-0.009156029
248	0x3dde1c57	0.10845249
249	0xbd02010b	-0.031739276
250	0xbd83a24c	-0.0642744
251	0x3df22af0	0.11824596
252	0xbe421a28	-0.1895529
253	0xbbfc8d6d	-0.007707289
254	0xbd3e38cb	-0.04644088
255	0x3bd0bbd7	0.0063700485

network_body._body_endoder.seq_layers.2.bias f4 [128]
0	0xbc1bd956	-0.009512266
1	0x3ca75da8	0.020430401
2	0xbbb7728f	-0.0055983732
3	0xbc448de1	-0.011996717
4	0x3c58fb12	0.013243454
5	0x3c89d223	0.016823834
6	0xbbaaf875	-0.0052176067
7	0xbd1980f7	-0.037476506
8	0xbccdd787	-0.025127186
9	0xbd26a30b	-0.040682834
10	0xbd040bff	-0.032238003
11	0xbcbd8ac7	-0.023137463
12	0x3ce58136	0.028015714
13	0xbc98196d	-0.018566811
14	0x3d255d7f	0.040372368
15	0xbcbfd155	-0.023415247
16	0x3c9e9fb4	0.019363262
17	0x3a934d89	0.0011238317
18	0xbc4dcaac	-0.012560528
19	0xbbdbea4a	-0.006711279
20	0xbc92a783	-0.017902141
21	0xbd083727	-0.033255722
22	0xbcb32324	-0.021867342
23	0x39eeeab5	0.00045569768
24	0x3d321983	0.04348136
25	0x3dd6c128	0.104860604
26	0xbbfbb8aa	-0.007681926
27	0x3d748aa8	0.059702545
28	0xbb0bb327	-0.00213165
29	0x3d5abb55	0.05340131
30	0xbc7f87fb	-0.015596385
31	0x3d5c59e1	0.053796653
32	0xbc90466c	-0.017611705
33	0xbcd31cd0	-0.025770575
34	0xbc22f69f	-0.009946494
35	0x3c097cc5	0.008391564
36	0x3c321a40	0.010870516
37	0x3bfc59b2	0.007701122
38	0x3aec416d	0.001802487
39	0x3c911d98	0.017714307
40	0xbcfa3f2d	-0.030547703
41	0x3d1658e9	0.036705885
42	0x3c56438f	0.013077631
43	0x3cbb961c	0.022898726
44	0x3d7bb291	0.06144959
45	0xbc835f3f	-0.016036628
46	0xbba5db31	-0.00506153
47	0x3ae074ae	0.0017124617
48	0x3c67a456	0.014138302
49	0x3da78efe	0.081815705
50	0xbcc67259	-0.024224447
51	0x3bd19d3b	0.006396917
52	0xbd12c6f5	-0.03583427
53	0xbd109a32	-0.035303302
54	0x3b986f32	0.0046519274
55	0x3d93d8d6	0.072190925
56	0x3bf23c09	0.0073924107
57	0x3c2dde63	0.010612103
58	0xbb0f1254	-0.0021830993
59	0x3d475ddf	0.048673507
60	0x3ce6d475	0.02817748
61	0xbcde05e5	-0.02710242
62	0x3ac66d6e	0.0015138814
63	0xbd21122b	-0.039323967
64	0x3c70b3aa	0.014691273
65	0xbcbec38f	-0.023286609
66	0x3d6f34c0	0.058399916
67	0xbb93ee5f	-0.0045145
68	0x3d43db12	0.047816344
69	0x3cc8a76a	0.024493892
70	0xbbc8802d	-0.0061187954
71	0xbd071975	-0.032983262
72	0x3b1f3dd5	0.002429833
73	0x3c41fd01	0.011840106
74	0xbad7187e	-0.0016410497
75	0xb90ea72b	-0.0001360445
76	0x3c2d98d7	0.010595522
77	0x3c06208a	0.008186469
78	0xb864a34a	-5.451151e-05
79	0xbba1f48a	-0.0049424814
80	0xbcc25b31	-0.023725124
81	0x3ca2dd92	0.019881044
82	0x3c2848f0	0.010271296
83	0xbc0b17a4	-0.008489523
84	0xbca38d95	-0.019964973
85	0x3cdcdccd	0.026960755
86	0xbcd766aa	-0.026294071
87	0xbbd14952	-0.0063869143
88	0x3d1d47f0	0.038398683
89	0x3dfbb9ed	0.12291322
90	0xbc25677a	-0.0100954715
91	0x3d0daf83	0.03459121
92	0xbbc03513	-0.005865702
93	0xbc9880b0	-0.01861605
94	0x3c0b53e0	0.008503884
95	0xbb5685d0	-0.0032733567
96	0x3d1b3eed	0.037901808
97	0x3cda06d4	0.026614584
98	0xbc49ecf8	-0.012324564
99	0x3d285115	0.04109295
100	0xbc88e253	-0.016709482
101	0xbcb99609	-0.02265455
102	0x3d2d4d37	0.042309966
103	0xbcc14a9f	-0.023595152
104	0x3ced578c	0.02897241
105	0x3d0ebe79	0.034849618
106	0x3d58c31c	0.052920446
107	0x3b4e2e38	0.0031460654
108	0xbce4cbd2	-0.02792922
109	0xbce41417	-0.02784161
110	0x3d2459a8	0.040124565
111	0xbc09e7c7	-0.008417076
112	0x3dec3bc3	0.11534836
113	0x3ca3afd7	0.019981308
114	0x3cc2a9ab	0.023762545
115	0xbc209419	-0.009800934
116	0xbd11b6fb	-0.035574894
117	0xbd294428	-0.041324764
118	0x3d8f2da8	0.0699113
119	0xba05515b	-0.000508567
120	0xbbbcece7	-0.0057655456
121	0x3cef4027	0.029205395
122	0xbcd6a4f0	-0.026201695
123	0xbd18eab0	-0.03733319
124	0xbcdfd5c1	-0.027323605
125	0xbc12dc31	-0.008963631
126	0xbbfe0d1f	-0.007753029
127	0xbbd50ded	-0.006501904

action_model._continuous_distribution.log_sigma f4 [1, 3]
0	0xbe744971	-0.2385614
1	0xbe5ed75d	-0.21761842
2	0xbc51806e	-0.012786968

action_model._continuous_distribution.mu.weight f4 [3, 128]
0	0x3ca67028	0.020317152
1	0xbd19fac9	-0.037592683
2	0x3b0572f2	0.0020362702
3	0x3cedef3c	0.02904474
4	0x3c570609	0.0131239975
5	0xbbb2d16c	-0.005457094
6	0x3b5d6ddb	0.0033787403
7	0x3c58c9e9	0.013231733
8	0xbaa3be30	-0.0012492593
9	0x3cb50e30	0.022101492
10	0x3b6b784b	0.0035929854
11	0x3cb9b0e5	0.022667358
12	0xbbcd3c47	-0.006263289
13	0x3cf76244	0.030198224
14	0x3d60b095	0.0548559
15	0x3ce7bffb	0.028289786
16	0x3cd18183	0.025574451
17	0x3d09139e	0.033465974
18	0xbcd08ba4	-0.02545721
19	0x3d0dea5e	0.034647338
20	0xbc5e07be	-0.013551651
21	0x3c2d411a	0.010574603
22	0x3cda91cc	0.02668085
23	0xbc422b5f	-0.011851161
24	0xbe030623	-0.1279531
25	0x3e54635f	0.20741032
26	0xba311c10	-0.0006756196
27	0x3cac25a4	0.021014042
28	0x3c4cf10c	0.012508642
29	0xbdc2f83b	-0.095200025
30	0x3ba0bbc2	0.004905195
31	0xbcf5851c	-0.029970698
32	0x3d54f148	0.051987916
33	0x3aca12ab	0.001541694
34	0xbc0439bd	-0.0080704065
35	0x3b29f533	0.0025933504
36	0x3d224a26	0.039621495
37	0xbb812d21	-0.0039421474
38	0x3c6ab96b	0.014326434
39	0xbb939991	-0.0045043905
40	0xbba1a80c	-0.004933363
41	0xbd4281b1	-0.047486965
42	0x39f9dd86	0.0004765803
43	0x3cc7a9b2	0.02437291
44	0x3def8251	0.11694778
45	0xbcda21f2	-0.026627515
46	0x3c4ead59	0.0126145715
47	0x3d251bfd	0.040309895
48	0x3dd5b9eb	0.10435852
49	0x3e4a6fee	0.1976926
50	0xbbc4a082	-0.0060005793
51	0x3cb96b33	0.022634124
52	0x3c22fb89	0.009947666
53	0xb9fad027	-0.000478388
54	0x3c1dff25	0.009643351
55	0xbd157acc	-0.03649406
56	0xbb359094	-0.0027704583
57	0xbc2dd7e8	-0.010610558
58	0xbcc477ab	-0.023982843
59	0x3c0c330f	0.008557095
60	0xbd5b6029	-0.053558502
61	0x3c4c49fd	0.012468812
62	0x3ce016a6	0.02735455
63	0x3bcb3907	0.0062018665
64	0xbcd14ad2	-0.025548372
65	0x3c8868cc	0.016651534
66	0x3e104e88	0.14092457
67	0x3bca224a	0.0061686384
68	0x3cdb0103	0.02673388
69	0xbb32c5a1	-0.002727844
70	0xbcb376b5	-0.02190719
71	0x3c0c72da	0.008572305
72	0xbca2bdd6	-0.019865911
73	0x3d726584	0.059178844
74	0x3aca67e0	0.0015442334
75	0xbb99d3e8	-0.0046944506
76	0xbcb5b229	-0.02217968
77	0xbcdc32df	-0.026879726
78	0x3cba19cb	0.022717377
79	0x3c698e1a	0.014255071
80	0x3cc700d2	0.024292383
81	0x3af2e59c	0.0018531564
82	0x3c051f0d	0.008125079
83	0x3be6bd4b	0.0070416084
84	0xbb3d6a1b	-0.0028902355
85	0x3bdd3e0c	0.0067517813
86	0xbc862098	-0.016372964
87	0xbcf70177	-0.030152066
88	0x3c807a81	0.015683414
89	0x3bdf066f	0.006806187
90	0xb9b3083e	-0.0003414768
91	0xbba2ed26	-0.004972118
92	0x3bc172d7	0.0059035826
93	0xbb2697c4	-0.002542005
94	0x3d235347	0.03987434
95	0xbc03ee39	-0.008052402
96	0x3d8f5dee	0.070003375
97	0x3bd0dc07	0.0063738856
98	0x3cb71048	0.02234663
99	0x3d9ce50b	0.07660874
100	0xbc33b57b	-0.010968561
101	0xbc858a51	-0.016301306
102	0xbc0efa49	-0.008726665
103	0x3d8ab021	0.06771875
104	0xbc1e02f0	-0.009644255
105	0x39a880e5	0.0003213949
106	0x3c05605d	0.008140651
107	0xbd05a758	-0.032630295
108	0x3ce0dadd	0.027448112
109	0xbb810442	-0.003937275
110	0x3cb4a7ba	0.022052635
111	0x3c115996	0.008871457
112	0xbe027ce0	-0.12742949
113	0xbc2d1db0	-0.01056616
114	0x3d4314a0	0.04762709
115	0xbc99c9d8	-0.018773004
116	0x3bbf1b8e	0.005832142
117	0x3c257aeb	0.010100107
118	0xbdf83524	-0.12119511
119	0xbce128f7	-0.027485354
120	0xbc9fe111	-0.0195165
121	0xbc933e63	-0.017974084
122	0xbc67e69f	-0.014154105
123	0x3b4fc18e	0.003170106
124	0xbcacf9d8	-0.021115229
125	0xbcc7af40	-0.024375558
126	0xbc7931a7	-0.015209592
127	0xbccdd07f	-0.025123833
128	0x3cf8f4de	0.0303902
129	0xbc993c87	-0.01870562
130	0x3d49a5e3	0.049230468
131	0x3d136f36	0.03599473
132	0xbc9352bb	-0.017983785
133	0xbd047407	-0.032337215
134	0xbae255a6	-0.0017267957
135	0x3d1a6245	0.037691373
136	0x3cade6b9	0.021228181
137	0x3b969965	0.004595923
138	0x3cddfaa3	0.027097052
139	0x3c30fd95	0.010802646
140	0xbcfd61a3	-0.030930346
141	0x3c971b8c	0.018445753
142	0xbd305377	-0.04304835
143	0x3d3c7def	0.046018537
144	0xbcce1553	-0.025156653
145	0xbc04d399	-0.008107089
146	0x3c637567	0.013882971
147	0x3cd1a73d	0.02559244
148	0x3cb97c7f	0.022642372
149	0x3d0219e7	0.031762984
150	0x3b9c15ac	0.0047633257
151	0xbae05f4d	-0.0017118246
152	0xbcacff8f	-0.021117954
153	0x3e170e6c	0.14751595
154	0x3ba9d657	0.005183022
155	0xbda52abc	-0.080647916
156	0x3b0b914f	0.0021296327
157	0xbbdd3ac7	-0.0067513916
158	0x3d2117d7	0.039329376
159	0x3e224456	0.1584638
160	0xbc17cb40	-0.009264767
161	0xba8d3f74	-0.0010776357
162	0x3d243421	0.040088776
163	0x3d0f3a9a	0.034967996
164	0xbd383bd9	-0.04497895
165	0xbb64e60e	-0.0034927162
166	0x3d11b9e8	0.035577685
167	0xbc821e2b	-0.015883526
168	0x3bb3b125	0.0054837638
169	0xbc4beea0	-0.012447029
170	0xbc227cc9	-0.009917446
171	0xbd113970	-0.035455167
172	0x3cf94606	0.030428898
173	0x3cfde9fd	0.030995363
174	0x3c5f67ae	0.013635559
175	0x3ccd876d	0.02508899
176	0x3c686d56	0.014186224
177	0x3c08524e	0.008320404
178	0x3cf2617a	0.029587496
179	0xbb9e34c3	-0.004828067
180	0x3d011072	0.031509824
181	0x3b38a756	0.0028175912
182	0xbcabfb1c	-0.020993762
183	0x3e45dcb3	0.19322471
184	0x3d3f28ed	0.04666989
185	0x3a9d1fd3	0.0011987634
186	0x3cded9c9	0.027203457
187	0xbd5582f6	-0.052126847
188	0x3d888fcf	0.06668054
189	0x3cf0defb	0.0294032
190	0xbc8e9dfb	-0.017409315
191	0x3c2428cf	0.010019495
192	0xbc2b38d5	-0.0104505615
193	0x3d62f869	0.055412684
194	0x3d7450cf	0.059647378
195	0xbb388045	-0.0028152626
196	0xbd585287	-0.05281308
197	0xbcfa2760	-0.030536354
198	0x3d1403ca	0.036136426
199	0x3c368839	0.011140876
200	0xbc7c17c5	-0.0153865265
201	0x3dbe5094	0.09292713
202	0xbb139d1b	-0.0022524062
203	0x3d0682fe	0.032839768
204	0x3db1f370	0.0868901
205	0x3d511148	0.05104187
206	0xbb5078ec	-0.0031810356
207	0xbbe87afe	-0.00709474
208	0x3d17de35	0.037077148
209	0xbc30ed45	-0.010798757
210	0xbd0687b9	-0.03284428
211	0xbbcec459	-0.0063100276
212	0x3bcda3f9	0.0062756506
213	0xbcabb23a	-0.020959008
214	0x3ba71a62	0.0050995806
215	0xb9d03b04	-0.00039716822
216	0xbd236daf	-0.039899524
217	0xbde1d655	-0.11027209
218	0x39de0d93	0.00042353253
219	0xbc9e88d1	-0.019352349
220	0xbb3047be	-0.002689823
221	0x3c76f024	0.015071902
222	0x3cd3c46e	0.0258505
223	0xbd0eea96	-0.034891687
224	0xbc32765c	-0.010892477
225	0xbc8e3645	-0.017359862
226	0xbb8fd7c1	-0.0043897335
227	0x3dcc1b8c	0.09966192
228	0x3cb38d61	0.021918
229	0x3cc72e3d	0.02431404
230	0xbcdede02	-0.027205471
231	0x3c9dfa40	0.019284368
232	0xbc3e73d8	-0.011624299
233	0xbd17fe11	-0.03710753
234	0xbd9b505c	-0.07583687
235	0x3c214dd1	0.009845213
236	0x3b9f0c6f	0.004853777
237	0x3d53466b	0.051580828
238	0x3e062366	0.13099441
239	0x39c6a1f4	0.00037886167
240	0xbd035995	-0.032067854
241	0xbc6d846e	-0.014496906
242	0xbcfee029	-0.031112747
243	0xbc2f5235	-0.010700752
244	0x3ba7f682	0.0051258216
245	0x3cb3614d	0.021896983
246	0x3dd52c5b	0.10408851
247	0xbcf4b0a4	-0.029869385
248	0x3afd3811	0.0019319077
249	0xbcadb268	-0.021203235
250	0x3c81f918	0.015865847
251	0x3ca66b5a	0.020314861
252	0x3d0292d7	0.03187832
253	0x3cb47d1c	0.022032313
254	0x3c4b350b	0.012402783
255	0x3c799b88	0.015234835

action_model._continuous_distribution.mu.bias f4 [3]
0	0xbc36e210	-0.011162296
1	0xbd10ab6e	-0.035319738
2	0xbc2b4e01	-0.010455609

action_model._discrete_distribution.branches.0.weight f4 [2, 128]
0	0xbc3ca0f7	-0.011512986
1	0x3b82fcaa	0.003997405
2	0x3c16817e	0.009186147
3	0xbd3e5510	-0.04646784
4	0x3c430086	0.01190198
5	0xbcd3b2ff	-0.025842188
6	0x3b9ad9e2	0.0047256807
7	0xbb7cff38	-0.003860427
8	0xbc68bd47	-0.0142052835
9	0x3b90973c	0.00441256
10	0xbb960faf	-0.0045795063
11	0xbc6a9115	-0.014316817
12	0xbc9fa6ba	-0.019488681
13	0xbade1222	-0.001694266
14	0x3c6e3d01	0.014540912
15	0xbc0f4f73	-0.0087469695
16	0xbc728272	-0.014801608
17	0xbc6a1070	-0.014286146
18	0xbc912c60	-0.017721355
19	0x3c40c5ff	0.011765956
20	0x3c3d426d	0.011551482
21	0xbc53fd03	-0.012938741
22	0x39f018b9	0.00045794787
23	0x3ba42369	0.005009104
24	0x3c210e0c	0.009830009
25	0xbcba4521	-0.022738041
26	0x3a0109be	0.0004922411
27	0x3d185c64	0.037197486
28	0xbcf404ea	-0.0297875
29	0xbcb73719	-0.02236514
30	0xbc11318f	-0.008861913
31	0x3c9a0e8b	0.018805763
32	0x3c25095b	0.010073031
33	0xbc6e07b8	-0.0145282075
34	0xbc570255	-0.013123115
35	0x3c2b9c0c	0.010474216
36	0x3d17745e	0.03697621
37	0xbb8f305e	-0.0043697795
38	0xbbf7f303	-0.007566811
39	0x3c1d0a64	0.009584997
40	0xbcc77754	-0.024348892
41	0xb9c88968	-0.00038249348
42	0xbbcd4bf6	-0.0062651588
43	0xbb83a470	-0.004017405
44	0x3c35c9ac	0.011095446
45	0xbc6d8f34	-0.014499474
46	0x3c09abfc	0.008402821
47	0x3c8a2935	0.016865352
48	0xbbf09355	-0.007341782
49	0xbc5096be	-0.012731252
50	0xbc734f95	-0.014850517
51	0xbbced7fa	-0.0063123675
52	0xba1ce4d4	-0.0005985026
53	0xbc138f59	-0.009006345
54	0x3c9e953c	0.01935827
55	0x3c897e75	0.016783932
56	0x3c172080	0.009224057
57	0x3c0c4b69	0.008562901
58	0xbc240af4	-0.010012377
59	0x3c256a9c	0.010096218
60	0xbd2516ae	-0.040304832
61	0xbc24193e	-0.010015784
62	0xbbaf6f8f	-0.005353875
63	0x3c6cfc10	0.014464393
64	0x3bae119c	0.005312158
65	0x3b01a6d7	0.0019783282
66	0x3cbac6fb	0.02279996
67	0xbc5027e6	-0.012704825
68	0x3c00ea75	0.007868399
69	0x3ac92b2c	0.0015347949
70	0xba86273c	-0.0010235081
71	0xbb11a5e0	-0.0022224113
72	0x3ab7fa8b	0.001403646
73	0xbc3ea475	-0.011635889
74	0xbb1c4030	-0.002384197
75	0x3bb129f1	0.005406611
76	0xbc2390ed	-0.0099832835
77	0xbb58df2f	-0.0033092012
78	0xbb4eb2e6	-0.0031539737
79	0x3bf7b282	0.0075591216
80	0xbcab8e75	-0.020941952
81	0x3d0ada62	0.033899672
82	0xb985f6af	-0.0002555153
83	0xbbcf0055	-0.0063171783
84	0xbc7cfa7b	-0.015440579
85	0xbc6dc43c	-0.014512118
86	0xbc18eb22	-0.009333404
87	0xbbeef5b6	-0.0072924746
88	0x3c661634	0.01404338
89	0x3c7f8ee1	0.01559803
90	0xbc5fe89f	-0.013666301
91	0x3c0466f7	0.008081189
92	0xbc9e67bc	-0.019336574
93	0xbcc4dbd2	-0.0240306
94	0xbcd0d04d	-0.02548995
95	0x3c4470a3	0.011989745
96	0xbcd99f02	-0.026565079
97	0x3c4039ad	0.011732501
98	0x3c13aa48	0.009012766
99	0x3c98b4b1	0.018640848
100	0x39af2416	0.00033405487
101	0xbcd2a432	-0.02571306
102	0x3c15f5a9	0.009152808
103	0x3bad8619	0.0052955267
104	0x3c82a6ba	0.015948642
105	0x3c4590b8	0.012058429
106	0x3d054882	0.032539852
107	0xbc7b264c	-0.015328955
108	0xb9da2046	-0.00041604246
109	0xbb8160d6	-0.0039483113
110	0x3ca02b8e	0.019552018
111	0x3ad46507	0.0016204425
112	0xbd2ad766	-0.041709326
113	0x3cfbc1fb	0.030732146
114	0xbd0da76b	-0.03458349
115	0x3c2a9fbd	0.010414061
116	0xb9736d27	-0.00023214948
117	0x3c8fac1a	0.01753812
118	0xbcad6252	-0.021165047
119	0x3c2190d9	0.0098611945
120	0xbc73567c	-0.014852162
121	0xbb8c4669	-0.0042808545
122	0xbc001e1b	-0.007819678
123	0xbc81358d	-0.015772605
124	0xbb748987	-0.0037313418
125	0xbaf687d5	-0.0018808792
126	0xbbdb5335	-0.0066932687
127	0xbd01d520	-0.031697392
128	0x3c7b9346	0.015354937
129	0x3c3e1f91	0.011604206
130	0xbb8a21d9	-0.0042154607
131	0x3d4dc358	0.050235122
132	0xbb0b65cd	-0.0021270395
133	0x3cabfe39	0.020995246
134	0x3b9c1410	0.004763134
135	0xbb0c9692	-0.0021452052
136	0x3c8cfdb7	0.017210824
137	0x3b942384	0.0045208354
138	0x3c50a737	0.01273518
139	0x3c5183ea	0.012787798
140	0xbabdf7bb	-0.0014493385
141	0xbc38144b	-0.011235307
142	0xbc46ed07	-0.012141473
143	0x3d0481a4	0.032350197
144	0x3ca5c040	0.020233274
145	0xbba1e67c	-0.004940806
146	0x3b4bc24a	0.0031091147
147	0x3b4ac55d	0.0030940392
148	0x3c6747ec	0.014116269
149	0x3c169c5a	0.009192551
150	0x3adce073	0.0016851559
151	0xbbdd6e77	-0.006757553
152	0x3bcc7ed5	0.0062407055
153	0x3cbe9e55	0.023268858
154	0x3b08d067	0.002087617
155	0xbcb1ac6a	-0.021688659
156	0x3cc99305	0.024606237
157	0x3cf84ec8	0.030311003
158	0x3c3d85d6	0.0115675535
159	0x3a164cd4	0.0005733494
160	0x3c9d6f3a	0.019218076
161	0xbbd0e683	-0.0063751354
162	0x3c9c3069	0.019066053
163	0xbb515d14	-0.0031946348
164	0xbcd9dbea	-0.026594121
165	0xbaff7f6f	-0.0019492934
166	0x3c43aefa	0.011943573
167	0xbbd4da09	-0.0064957184
168	0x3c3b6869	0.011438468
169	0xbbc2f6f2	-0.0059498483
170	0x3acfad31	0.0015844462
171	0x3927348c	0.00015945936
172	0xbc84bc6e	-0.016203132
173	0x3c227af6	0.0099170115
174	0xbc414a6a	-0.011797527
175	0x3b3b1e09	0.0028551838
176	0x3c39f129	0.011349001
177	0xbbcab08a	-0.006185596
178	0x3bb93e99	0.005653214
179	0x3acc5efc	0.0015592272
180	0xbbe66809	-0.007031445
181	0x3c625069	0.013813117
182	0xbca67203	-0.020318037
183	0xbbc07548	-0.005873356
184	0xbc1e974c	-0.009679627
185	0x373c479c	1.1222346e-05
186	0x3c2ccdc6	0.010547107
187	0xbcefbc47	-0.029264582
188	0x3d15eb6e	0.036601476
189	0x3c137f01	0.009002448
190	0xbbe225b8	-0.006901469
191	0xbc9781fa	-0.018494595
192	0xbc47f8b1	-0.012205289
193	0x3ccbbebe	0.024871226
194	0xbccdd358	-0.02512519
195	0xbab7df61	-0.0014028364
196	0xbc95e887	-0.018299354
197	0x3c6bf1b9	0.014400893
198	0xbbad1295	-0.005281756
199	0x3cde9d30	0.027174562
200	0xbc8a0dd5	-0.016852299
201	0x3c3c2040	0.011482298
202	0xbb723b01	-0.0036961439
203	0xbbf7f9f4	-0.0075676385
204	0x3bcb513d	0.0062047527
205	0x3c8a5713	0.016887223
206	0x3acd1034	0.0015645088
207	0xbb820550	-0.0039679185
208	0x3be2e7b3	0.0069245934
209	0xbc61752f	-0.013760849
210	0xbcb663dd	-0.022264415
211	0x3c1ff830	0.009763762
212	0x3c6c802e	0.014434857
213	0xbacc6015	-0.00155926
214	0xbc340f30	-0.010989949
215	0x3c1a6db6	0.009425571
216	0xbcab572a	-0.020915587
217	0xbc9e275c	-0.019305877
218	0xbbc3cb61	-0.0059751724
219	0xbb90e37d	-0.00442165
220	0xbbb54053	-0.0055313497
221	0x3cee528a	0.029092092
222	0x3d07c110	0.033143103
223	0x3b00e8fd	0.0019670122
224	0x3c25d1f6	0.010120859
225	0xbab42933	-0.0013745188
226	0xbc87cd41	-0.016577365
227	0xbc23ee76	-0.010005584
228	0x3c144494	0.009049553
229	0x3c276df9	0.010219091
230	0xbc1b31db	-0.009472336
231	0x3a7000cb	0.00091553916
232	0xbc0b6f37	-0.008510402
233	0xbcc2e403	-0.023790365
234	0xbd10e128	-0.035370976
235	0x3c3e6f37	0.011623195
236	0xbc83b7f4	-0.016078927
237	0x3b28bd3c	0.0025747558
238	0xbc286733	-0.010278511
239	0xbb183b5a	-0.0023228736
240	0x3cecf6f4	0.02892635
241	0xbca1e215	-0.019761125
242	0x3cbcc5b3	0.02304349
243	0xbc7eda14	-0.015554924
244	0xbbb0e2bb	-0.005398122
245	0x3bdc11d0	0.0067159906
246	0x3ca0158c	0.019541524
247	0xbc4a2876	-0.012338748
248	0x3beb2b3e	0.0071767857
249	0xbc3a4b6b	-0.01137052
250	0x3c4b107d	0.012394068
251	0x3cb24f1d	0.02176624
252	0xbb51f1d5	-0.0032035012
253	0x3b3c1cc0	0.002870366
254	0x39ad78ac	0.0003308704
255	0xbaffec96	-0.0019525464

action_model._discrete_distribution.branches.0.bias f4 [2]
0	0x3c299af1	0.010351882
1	0xbc299af4	-0.010351885

exp_avg f4 [128, 47]
0	0x38a70469	7.964002e-05
1	0x37535472	1.25962415e-05
2	0xb73cd5b7	-1.1255433e-05
3	0x378ec4bc	1.701933e-05
4	0x374417b1	1.16880265e-05
5	0x38385f36	4.395769e-05
6	0x37086656	8.130059e-06
7	0xb4ac98b8	-3.2148614e-07
8	0x36aec617	5.208665e-06
9	0x37162afc	8.950705e-06
10	0x389c3681	7.448812e-05
11	0xb59a52e1	-1.1498015e-06
12	0x37844633	1.5768315e-05
13	0x3706edf9	8.04243e-06
14	0x37ac03ad	2.050571e-05
15	0x371edf9c	9.469597e-06
16	0x372994f0	1.0107862e-05
17	0x38290c1a	4.030401e-05
18	0x381b74d8	3.70637e-05
19	0x3851ef08	5.00521e-05
20	0xb757453a	-1.2831117e-05
21	0x37a91a99	2.0158755e-05
22	0x36ac7014	5.139047e-06
23	0x38b29f11	8.51733e-05
24	0x38d65766	0.000102205944
25	0xb7619233	-1.3445085e-05
26	0x37cccf75	2.44153e-05
27	0x37d1fed6	2.5033409e-05
28	0x388084cc	6.128251e-05
29	0x38d793a7	0.00010279501
30	0xb7619233	-1.3445085e-05
31	0x37cccf75	2.44153e-05
32	0x37d1fed6	2.5033409e-05
33	0x388084cc	6.128251e-05
34	0x38d793a7	0.00010279501
35	0x39da5c90	0.00041649165
36	0x388d7604	6.745386e-05
37	0xba7b5ca9	-0.00095886976
38	0xb7f79104	-2.9512223e-05
39	0x3739c10a	1.1071805e-05
40	0x38a94fc8	8.0734084e-05
41	0x37e21318	2.695019e-05
42	0x37e03bd6	2.6730744e-05
43	0xb869fc60	-5.578657e-05
44	0x36f1a933	7.202057e-06
45	0x3680cae5	3.8383173e-06
46	0xb8d2b7f0	-0.00010047841
47	0xb5b61c55	-1.3568302e-06
48	0xb6751b6b	-3.6523804e-06
49	0xb73f5e5e	-1.1406459e-05
50	0x3762c648	1.3516816e-05
51	0x36cf5488	6.1789215e-06
52	0xb83efa1d	-4.5532466e-05
53	0x3677c24a	3.691896e-06
54	0x3800050d	3.0522282e-05
55	0xb5867fac	-1.0020935e-06
56	0xb6e3edb2	-6.7927986e-06
57	0x3753b7f4	1.261941e-05
58	0xb783217b	-1.5632007e-05
59	0xb79f878f	-1.9017401e-05
60	0x37a2b13e	1.939444e-05
61	0x371d08e8	9.360003e-06
62	0xb7b744ac	-2.1847278e-05
63	0x378a61a2	1.6496346e-05
64	0xb806a2cf	-3.2099717e-05
65	0x381a3c3d	3.6772562e-05
66	0x37baec9f	2.2283113e-05
67	0x37fbbbcb	3.000898e-05
68	0x36657d3a	3.419655e-06
69	0xb740415c	-1.14593095e-05
70	0xb7bd268a	-2.2548502e-05
71	0xb78a0bdb	-1.6456403e-05
72	0xb546f1fa	-7.411287e-07
73	0x370037d2	7.642391e-06
74	0xb70005ec	-7.630773e-06
75	0xb5cce4ea	-1.5265807e-06
76	0x366a39c6	3.4902346e-06
77	0xb546f1fa	-7.411287e-07
78	0x370037d2	7.642391e-06
79	0xb70005ec	-7.630773e-06
80	0xb5cce4ea	-1.5265807e-06
81	0x366a39d2	3.4902373e-06
82	0x39c09e48	0.00036739022
83	0x35c2cbbc	1.4513421e-06
84	0xb7ae1670	-2.0752865e-05
85	0xb7de5c47	-2.6507432e-05
86	0x369b771e	4.633227e-06
87	0x3743c306	1.1668313e-05
88	0xb70a9da8	-8.262148e-06
89	0xb86db347	-5.667217e-05
90	0x37a319ad	1.944307e-05
91	0x368fd566	4.286575e-06
92	0xb70eb23e	-8.50536e-06
93	0xb744d475	-1.1731977e-05
94	0x38385f97	4.3958044e-05
95	0xb6579339	-3.2123191e-06
96	0xb7a167f9	-1.9241112e-05
97	0xb6b3509b	-5.3439994e-06
98	0xb7cfe51a	-2.4783007e-05
99	0x380a14c0	3.292109e-05
100	0xb7959315	-1.7830675e-05
101	0xb81e58ac	-3.7752718e-05
102	0xb6bccb9b	-5.6265394e-06
103	0xb7f292fc	-2.8917093e-05
104	0x37518ffc	1.2490895e-05
105	0xb74a9d7b	-1.20768045e-05
106	0x368dee90	4.2299e-06
107	0x371038c0	8.596282e-06
108	0x375209ea	1.2519284e-05
109	0xb6a3773c	-4.8716593e-06
110	0x34430bca	1.8165079e-07
111	0xb724a980	-9.8146265e-06
112	0x3802adca	3.115627e-05
113	0x377680b8	1.4692712e-05
114	0xb8a6509e	-7.930513e-05
115	0xb65f10e0	-3.3239412e-06
116	0xb78e7ade	-1.6984934e-05
117	0x38edf59f	0.00011346791
118	0x38e16fcb	0.00010749659
119	0xb8398cec	-4.423868e-05
120	0xb649ecd8	-3.0089195e-06
121	0x3747b2e2	1.1902974e-05
122	0x384e7b73	4.92292e-05
123	0x38a45b6c	7.837158e-05
124	0xb8398cec	-4.423868e-05
125	0xb649ecd8	-3.0089195e-06
126	0x3747b2e2	1.1902974e-05
127	0x384e7b73	4.92292e-05
128	0x38a45b6a	7.8371566e-05
129	0xb917f0c4	-0.00014490174
130	0x37342b5c	1.0738931e-05
131	0xb9f07492	-0.0004586322
132	0xb8731ee6	-5.796449e-05
133	0x37374875	1.092452e-05
134	0x37faf05e	2.9914252e-05
135	0x375e99de	1.3268056e-05
136	0x385778ae	5.1372386e-05
137	0xb84d1980	-4.8899557e-05
138	0xb80a3051	-3.2946762e-05
139	0xb6876e39	-4.036145e-06
140	0xb8acb519	-8.235331e-05
141	0xb7cf38b3	-2.4702726e-05
142	0xb6dec0dc	-6.6385674e-06
143	0xb708db6b	-8.157319e-06
144	0xb69ae7e1	-4.616552e-06
145	0xb7f7d1ed	-2.9542449e-05
146	0x34157300	1.3918543e-07
147	0xb7b2c53e	-2.1311102e-05
148	0xb7d39859	-2.5224103e-05
149	0x36c24837	5.7900575e-06
150	0x3705f365	7.9840875e-06
151	0xb74622f6	-1.180986e-05
152	0x36da6a01	6.5092468e-06
153	0xb6d263bf	-6.2700997e-06
154	0xb815f0a3	-3.574848e-05
155	0xb7c81459	-2.3851333e-05
156	0xb7fceec1	-3.015192e-05
157	0xb6f9a9bc	-7.440538e-06
158	0x380a6848	3.2998883e-05
159	0xb82ffac3	-4.195679e-05
160	0xb7ea8b38	-2.7959803e-05
161	0xb843264e	-4.6527297e-05
162	0xb7b0cd1f	-2.1076352e-05
163	0x361bf260	2.323788e-06
164	0x37735e79	1.4505925e-05
165	0x36bea248	5.6813333e-06
166	0xb77b3a1c	-1.49742955e-05
167	0xb78518ce	-1.5866386e-05
168	0xb79dfe18	-1.883418e-05
169	0x35b20350	1.3262998e-06
170	0xb7828a7e	-1.5561698e-05
171	0xb77b3a1c	-1.49742955e-05
172	0xb78518ce	-1.5866386e-05
173	0xb79dfe18	-1.883418e-05
174	0x35b20350	1.3262998e-06
175	0xb7828a81	-1.5561704e-05
176	0xba8975a1	-0.0010487327
177	0xb805cb62	-3.1899086e-05
178	0x39a6dd41	0.00031826834
179	0x3800cb6f	3.070704e-05
180	0xb6fec2a4	-7.592449e-06
181	0xb58cee90	-1.0500244e-06
182	0x378aba4d	1.6537635e-05
183	0x388616a2	6.3938336e-05
184	0xb7f460aa	-2.913208e-05
185	0xb86d18be	-5.6528246e-05
186	0x3614b315	2.2157958e-06
187	0x380e2bf2	3.3896365e-05
188	0x37b175cd	2.11549e-05
189	0xb709011a	-8.166093e-06
190	0x382b6ee4	4.0872852e-05
191	0x37fdcf71	3.0256548e-05
192	0x3846e2f3	4.741824e-05
193	0x382eaa7d	4.1643612e-05
194	0xb7d189fc	-2.4978995e-05
195	0x38cefd1e	9.869992e-05
196	0xb72a3b38	-1.0146578e-05
197	0x381cfb2b	3.7427217e-05
198	0x38b37e28	8.5588836e-05
199	0xb7548078	-1.2666096e-05
200	0x381456e4	3.5366873e-05
201	0xb80ae746	-3.3117154e-05
202	0x370e6b1a	8.488796e-06
203	0x36c0e140	5.7482684e-06
204	0x3760cad0	1.3398661e-05
205	0x39085f06	0.0001300537
206	0xb8a12410	-7.6837954e-05
207	0xb70f6357	-8.546594e-06
208	0x384e626a	4.9205883e-05
209	0x37a12c93	1.9213452e-05
210	0x3834edc2	4.3136773e-05
211	0xb827bbba	-3.9990737e-05
212	0xb7a7a102	-1.9982926e-05
213	0x38af27d5	8.3520696e-05
214	0x38073e31	3.224443e-05
215	0xb88a0001	-6.5803535e-05
216	0x37e1defc	2.6925925e-05
217	0xb71d3ecb	-9.372549e-06
218	0x38af27d5	8.3520696e-05
219	0x38073e31	3.224443e-05
220	0xb88a0001	-6.5803535e-05
221	0x37e1defc	2.6925925e-05
222	0xb71d3ecc	-9.37255e-06
223	0x3ac522d0	0.0015040282
224	0x383c123d	4.483968e-05
225	0xbadc35cf	-0.0016800704
226	0x370b6f68	8.310984e-06
227	0xb82cb269	-4.1174153e-05
228	0x38ca51b7	9.647331e-05
229	0xb6fe6e36	-7.58262e-06
230	0x379fa8f0	1.9032945e-05
231	0x380208c8	3.1002593e-05
232	0x38e55eed	0.00010937252
233	0x37a71ef2	1.9922361e-05
234	0x38b18fc6	8.4667976e-05
235	0x374fe2a6	1.2390932e-05
236	0x3597df67	1.1315395e-06
237	0xb6203144	-2.3870534e-06
238	0x3764e36e	1.3642812e-05
239	0x37e6830c	2.747916e-05
240	0xb8533cfe	-5.0363124e-05
241	0x3829350a	4.0342136e-05
242	0x3800acf0	3.067864e-05
243	0x2fd86000	3.9358383e-10
244	0x3620da80	2.3969042e-06
245	0x37caf076	2.419225e-05
246	0xb7466b8e	-1.1826762e-05
247	0xb80404e8	-3.147582e-05
248	0x38345f02	4.3003827e-05
249	0x37a5fdfb	1.9787802e-05
250	0x36a29de1	4.8463558e-06
251	0x36dc694b	6.5687686e-06
252	0xb7b3fa62	-2.1455056e-05
253	0x38195e62	3.6565943e-05
254	0x38224218	3.8685364e-05
255	0x38a215ac	7.728799e-05

exp_avg_sq f4 [128, 47]
0	0x31d2ecd3	6.138728e-09
1	0x31191e09	2.2281503e-09
2	0x319bbf8a	4.532869e-09
3	0x313db87f	2.7607994e-09
4	0x31afcbf8	5.116359e-09
5	0x31e4f034	6.6629813e-09
6	0x311e567e	2.3041191e-09
7	0x31700ec2	3.4932985e-09
8	0x3145824c	2.8741338e-09
9	0x31a064db	4.668079e-09
10	0x31e3c8fa	6.629418e-09
11	0x3106f9cd	1.9641562e-09
12	0x319170aa	4.232864e-09
13	0x3143899e	2.845446e-09
14	0x31b5956f	5.284782e-09
15	0x32025848	7.587069e-09
16	0x31225f9f	2.3628457e-09
17	0x3178e154	3.6216834e-09
18	0x31228b88	2.3653417e-09
19	0x3195ec03	4.363302e-09
20	0x3201c132	7.552716e-09
21	0x30d03b6d	1.5150882e-09
22	0x315e5176	3.2351557e-09
23	0x318f9802	4.179129e-09
24	0x31e01ff6	6.5228916e-09
25	0x3206b472	7.840855e-09
26	0x3109b7f8	2.0040698e-09
27	0x3141e7ac	2.8216887e-09
28	0x31446414	2.8578642e-09
29	0x31b0401a	5.1295617e-09
30	0x3206b472	7.840855e-09
31	0x3109b7f8	2.0040698e-09
32	0x3141e7ac	2.8216887e-09
33	0x31446414	2.8578642e-09
34	0x31b04019	5.129561e-09
35	0x37119194	8.6765685e-06
36	0x3213d0c0	8.60399e-09
37	0x36a7832d	4.9922587e-06
38	0x31efdb66	6.980758e-09
39	0x304fafd1	7.555601e-10
40	0x31efd2eb	6.979794e-09
41	0x3153ea88	3.0837857e-09
42	0x32061cf4	7.80641e-09
43	0x3180bc48	3.7466954e-09
44	0x323950de	1.0786804e-08
45	0x2f1820a4	1.3835916e-10
46	0x321aa746	9.002013e-09
47	0x3203046d	7.62621e-09
48	0x317acf35	3.6497572e-09
49	0x312a4d70	2.4782274e-09
50	0x3128ffaf	2.4592557e-09
51	0x31864dcd	3.908758e-09
52	0x31d507e5	6.2000134e-09
53	0x317124d3	3.5091048e-09
54	0x316c857e	3.4418401e-09
55	0x311b5a5b	2.260683e-09
56	0x3189183d	3.9899803e-09
57	0x32052fa6	7.752453e-09
58	0x316df3df	3.4626664e-09
59	0x3142992b	2.8317781e-09
60	0x31261e74	2.417349e-09
61	0x3187ceb6	3.9525174e-09
62	0x31c3296f	5.6799574e-09
63	0x316d2df3	3.4514158e-09
64	0x3186d723	3.9243715e-09
65	0x3152a7f5	3.0654494e-09
66	0x31b087de	5.1377205e-09
67	0x31f7edd9	7.2156863e-09
68	0x316f95f1	3.486431e-09
69	0x31423f8e	2.8266842e-09
70	0x313c388d	2.7389746e-09
71	0x319ea947	4.61765e-09
72	0x31cf119b	6.0264944e-09
73	0x3165db3b	3.3448504e-09
74	0x316283f8	3.2962344e-09
75	0x31654128	3.3360923e-09
76	0x31bb26a1	5.446808e-09
77	0x31cf119b	6.0264944e-09
78	0x3165db3b	3.3448504e-09
79	0x316283f8	3.2962344e-09
80	0x31654128	3.3360923e-09
81	0x31bb26a2	5.4468083e-09
82	0x37542dfd	1.2646892e-05
83	0x320cb0a6	8.189238e-09
84	0x37332597	1.06779835e-05
85	0x3200099c	7.4527655e-09
86	0x31042a32	1.9232513e-09
87	0x31bd9774	5.517842e-09
88	0x318647b2	3.908064e-09
89	0x3212f09d	8.553028e-09
90	0x31241240	2.3875515e-09
91	0x321812ba	8.851822e-09
92	0x2e59e1cd	4.954064e-11
93	0x323bc316	1.092919e-08
94	0x32ae64d1	2.0302112e-08
95	0x31ea0786	6.8111516e-09
96	0x320375fb	7.652029e-09
97	0x31e823fb	6.756179e-09
98	0x32548d63	1.2372172e-08
99	0x329c5cf5	1.8203062e-08
100	0x31f42361	7.1053567e-09
101	0x3224ad77	9.585498e-09
102	0x31e1e724	6.5746395e-09
103	0x325b866b	1.2778041e-08
104	0x32b825cb	2.1437605e-08
105	0x31b0a350	5.1408406e-09
106	0x321b39f0	9.035361e-09
107	0x31e99da2	6.7991133e-09
108	0x325afe20	1.2747051e-08
109	0x3293e28d	1.7216076e-08
110	0x31e421a1	6.6394965e-09
111	0x322f6a22	1.02104725e-08
112	0x32013bec	7.522413e-09
113	0x326ed208	1.3901179e-08
114	0x32acce9b	2.0117389e-08
115	0x31cd8be0	5.982187e-09
116	0x320be299	8.142387e-09
117	0x3218605d	8.869475e-09
118	0x328073fe	1.4953908e-08
119	0x3291fdb0	1.6995585e-08
120	0x31e7f0f3	6.7503776e-09
121	0x321b835f	9.052058e-09
122	0x321fc5c6	9.299987e-09
123	0x3289849c	1.6009203e-08
124	0x3291fdb0	1.6995585e-08
125	0x31e7f0f3	6.7503776e-09
126	0x321b835f	9.052058e-09
127	0x321fc5c6	9.299987e-09
128	0x3289849b	1.6009201e-08
129	0x380c179e	3.3400596e-05
130	0x32d580fb	2.4855117e-08
131	0x37774cb9	1.4740211e-05
132	0x329dcd39	1.837053e-08
133	0x314cc95f	2.9800373e-09
134	0x3280d4f6	1.4998005e-08
135	0x32173d7d	8.803338e-09
136	0x32a66c0c	1.9374077e-08
137	0x31fcd710	7.358615e-09
138	0x330886ad	3.1787454e-08
139	0x2f6acd18	2.135504e-10
140	0x32b65625	2.1226763e-08
141	0x32daebc7	2.548576e-08
142	0x31c7d011	5.8153167e-09
143	0x325a80d9	1.2718567e-08
144	0x321360f4	8.578571e-09
145	0x329b24ce	1.8061112e-08
146	0x32d3cbab	2.465625e-08
147	0x31c2f606	5.6741127e-09
148	0x326681c8	1.3417271e-08
149	0x32089b6b	7.95158e-09
150	0x329083da	1.6823765e-08
151	0x32d94fcb	2.529841e-08
152	0x31bd0c95	5.5020544e-09
153	0x3249f78f	1.1756028e-08
154	0x320adb5e	8.0825355e-09
155	0x3298b656	1.7778046e-08
156	0x32c9dadc	2.3499005e-08
157	0x31c71dfb	5.7950706e-09
158	0x3266447c	1.34033336e-08
159	0x3210096f	8.384048e-09
160	0x32971588	1.7588505e-08
161	0x32d7863e	2.509034e-08
162	0x31c02d13	5.59306e-09
163	0x325de1b9	1.29152165e-08
164	0x32081855	7.921774e-09
165	0x3299f719	1.7923911e-08
166	0x32ce46d2	2.4013762e-08
167	0x31c8bd31	5.8422747e-09
168	0x324c2655	1.18830785e-08
169	0x32227ed7	9.458481e-09
170	0x329eb82d	1.8477374e-08
171	0x32ce46d2	2.4013762e-08
172	0x31c8bd31	5.8422747e-09
173	0x324c2655	1.18830785e-08
174	0x32227ed7	9.458481e-09
175	0x329eb82d	1.8477374e-08
176	0x37c85171	2.3879782e-05
177	0x330dcbb6	3.3014395e-08
178	0x386df0b8	5.672939e-05
179	0x32aecd62	2.0349663e-08
180	0x30bfa4ae	1.3943884e-09
181	0x32a32869	1.8994074e-08
182	0x3226ab2d	9.701393e-09
183	0x32cc7b5d	2.3804825e-08
184	0x3222ca1b	9.4755945e-09
185	0x329cd487	1.8257436e-08
186	0x2f0d2258	1.2836077e-10
187	0x33689829	5.4155098e-08
188	0x33cc99df	9.527479e-08
189	0x33730dcf	5.6590405e-08
190	0x3343ae52	4.556052e-08
191	0x3331b5f0	4.1376495e-08
192	0x3399b2c8	7.157138e-08
193	0x33b89cbf	8.5966796e-08
194	0x3384f1f4	6.19074e-08
195	0x335f50a4	5.1994576e-08
196	0x33277b93	3.8995108e-08
197	0x339becd4	7.260829e-08
198	0x33e3da99	1.0610274e-07
199	0x335c5c95	5.1306944e-08
200	0x334e7a23	4.8074195e-08
201	0x3317d8d2	3.5354624e-08
202	0x3396f7f2	7.03002e-08
203	0x33e0b590	1.0463839e-07
204	0x3376d46f	5.7469546e-08
205	0x3341fb89	4.5165084e-08
206	0x3326da69	3.884853e-08
207	0x339a9700	7.1986506e-08
208	0x33fa8a5f	1.1666702e-07
209	0x33543fda	4.941817e-08
210	0x332cc701	4.0227864e-08
211	0x3309f655	3.2121836e-08
212	0x3383acf6	6.131624e-08
213	0x33deadfa	1.0369327e-07
214	0x3367a86b	5.3937054e-08
215	0x333afbf6	4.3535657e-08
216	0x331e21e0	3.681805e-08
217	0x33976490	7.049778e-08
218	0x33deadfa	1.0369327e-07
219	0x3367a86b	5.3937054e-08
220	0x333afbf6	4.3535657e-08
221	0x331e21e0	3.681805e-08
222	0x3397648f	7.049777e-08
223	0x39284352	0.00016046807
224	0x3434806e	1.6810529e-07
225	0x39baf09c	0.00035655953
226	0x33e7af21	1.07886315e-07
227	0x32c0099a	2.2356108e-08
228	0x338816b8	6.337126e-08
229	0x334c887c	4.7621583e-08
230	0x33d10320	9.732889e-08
231	0x330558d1	3.1047254e-08
232	0x34205977	1.4933708e-07
233	0x30dedf29	1.6216052e-09
234	0x34699069	2.1752352e-07
235	0x32ba57eb	2.169323e-08
236	0x317e7700	3.7029508e-09
237	0x32640b38	1.32738975e-08
238	0x322069ab	9.337252e-09
239	0x32945583	1.7268354e-08
240	0x32bb6dce	2.1819599e-08
241	0x31b7af96	5.345963e-09
242	0x325479f3	1.2367752e-08
243	0x32193933	8.918778e-09
244	0x328994b9	1.601653e-08
245	0x32c604fa	2.3052497e-08
246	0x3185bdad	3.892373e-09
247	0x32419208	1.1267282e-08
248	0x320319fd	7.631113e-09
249	0x3287b57f	1.5798603e-08
250	0x32bfea54	2.2341887e-08
251	0x31ae6657	5.075701e-09
252	0x326344b7	1.3228763e-08
253	0x31df08de	6.4911623e-09
254	0x327986ce	1.4524359e-08
255	0x32d4c7c4	2.4770891e-08
