Assets/Learning/AIRollABall/results/TestParameters/AIRollABall/AIRollABall-8051176.pt (torch, 574872 bytes, 42 tensors)

network_body._body_endoder.seq_layers.0.weight f4 [128, 47]
0.19223507 0.41439426 0.045467958 0.014861218 0.02520206 0.3472623 0.023174176 0.11812531
-0.059510425 -0.08453725 0.19411203 0.14143106 0.032733217 0.25095415 0.23900805 0.103530414
0.24170333 0.020440126 -0.0070205093 -0.076499015 -0.12543388 -0.16856429 0.09902389 0.04274956
-0.13621645 0.24183951 0.055181738 -0.11161737 -0.032074485 0.4191446 0.29159907 -0.17318389
-0.013320784 -0.0015642788 0.049723115 0.012255008 0.08811406 -0.018750422 -0.056761425 -0.31100383
0.098927915 0.24792768 0.0022020212 -0.2830798 -0.27187636 0.1278883 0.56069845 0.11319962
-0.008886097 -0.023609487 0.4658068 0.029047545 -0.064312905 0.009439103 0.059266403 -0.074575
-0.2726843 0.05673983 -0.14336523 0.06503501 0.045220118 0.23669422 0.19919895 0.13696395
-0.1886357 -0.18339953 -0.012835631 0.06873936 0.10303773 0.023724861 0.09136677 -0.022925457
-0.13128527 -0.045932118 -0.21978268 -0.004967963 0.0393176 0.08640533 0.16951029 0.11113801
-0.05433946 -0.033421323 -0.19560635 0.047496084 0.051911972 0.09195981 -0.010585958 -0.0013559011
-0.14117146 0.065509565 -0.23393407 -0.1290429 -0.102703564 0.39075193 -0.11013002 0.2427911
0.18525797 0.047552947 0.04324029 0.020811815 -0.13044049 0.18497463 -0.019810336 0.046950907
-0.058942933 0.009690828 0.42067063 0.051405296 -0.27334508 -0.15058856 -0.12340036 0.05126496
0.031052262 -0.012352214 0.009355683 0.23723564 0.23300451 -0.16717227 -0.06308437 -0.052426763
0.09022983 -0.2476084 0.10213687 0.0035003729 0.014001257 -0.06972517 0.016153593 -0.1585693
0.08295995 -0.20571932 0.09861044 0.11627876 0.044241328 -0.066801555 0.1352129 -0.26702532
0.047706835 0.06442005 0.4646272 0.047691185 0.35496196 -0.14960124 -0.42194903 -0.05916193
0.07572726 0.021526579 -0.14222582 0.06386275 -0.04070675 0.013517539 -0.14803155 -0.14728361
0.23568755 0.20224193 -0.15573463 0.06716048 0.011152439 0.067324415 -0.15638693 -0.06319309
-0.23642759 -0.0031921284 0.16634013 0.014489538 -0.14538296 -0.286672 -0.0871397 0.13851349
-0.04866608 -0.044858158 0.27774376 -0.12631068 -0.034585997 0.047730852 0.04112654 -0.26299006
-0.06808882 -0.016633313 0.09873471 -0.0018511851 0.017604033 0.18249425 0.023647428 0.011136262
0.12092443 -0.07860064 0.3458458 0.11656739 -0.08987713 -0.13806655 -0.26729095 -0.061387036
-0.23175941 0.09084111 -0.020650318 -0.24819373 -0.09144081 0.030928012 0.18677196 -0.03153711
-0.05742982 -0.0910331 0.19302237 -0.13853276 0.16748668 -0.016762616 0.114166915 -0.14676286
0.017049884 0.061177686 -0.28164437 0.18174303 0.12532927 0.14385317 -0.050258785 0.07656365
0.20560741 -0.15234461 0.011648759 -0.04172396 -0.01260746 0.013660363 -0.10955334 -0.09253922
-0.21072541 -0.06927756 0.1389351 -0.12580743 0.14368026 -0.0025067213 0.27175847 0.24527861
0.22100697 0.027601557 -0.24144532 -0.29696122 0.120434724 -0.096464396 0.018551162 -0.027508011
-0.03745641 -0.016902048 0.22567125 -0.14640218 0.25379395 -0.07407673 -0.0411746 0.09962651
-0.12785925 0.15187348 -0.10405637 0.0903908 0.23562652 -0.054033075 -0.07801666 0.17487957
00000000: 45d9 443e 7c2b d43e 9c3c 3a3d 777c 733c
00000010: 8d74 ce3c 5dcc b13e c5d7 bd3c afeb f13d
00000020: 34c1 73bd de21 adbd 4ec5 463e 4ed3 103e
00000030: 4413 063d 107d 803e 87be 743e c107 d43d
00000040: 1481 773e 0d72 a73c 4d0c e6bb 84ab 9cbd
00000050: bd71 00be 1e9c 2cbe 0acd ca3d 2a1a 2f3d
00000060: 537c 0bbe c7a4 773e 3f06 623d a697 e4bd
00000070: 8960 03bd 1f9a d63e 794c 953e 1e57 31be
00000080: 6b3f 5abc 7d08 cdba 77aa 4b3d 3bc9 483c
00000090: 2575 b43d 7c9a 99bc ab7e 68bd e53b 9fbe
000000a0: b89a ca3d c1e0 7d3e c94f 103b d6ef 90be
000000b0: 6133 8bbe 27f5 023e ef89 0f3f 34d5 e73d
000000c0: fe96 11bc af68 c1bc 3b7e ee3e 1ef5 ed3c
000000d0: 7cb6 83bd 78a6 1a3c 54c1 723d c7ba 98bd
000000e0: 479d 8bbe 0668 683d 56ce 12be 1331 853d
000000f0: bb38 393d f85f 723e cffa 4b3e 4740 0c3e
00000100: b829 41be 16cd 3bbe 8a4c 52bc 39c7 8c3d
00000110: 7205 d33d a45a c23c 801e bb3d 2bce bbbc
00000120: a56f 06be 5123 3cbd b60e 61be 4bca a2bb
00000130: 7e0b 213d 47f5 b03d 1b94 2d3e 539c e33d
00000140: 0e93 5ebd cce4 08bd 084d 48be 418b 423d
00000150: a6a1 543d 6d55 bc3d ba70 2dbc 7eb8 b1ba
00000160: 408f 10be e129 863d 6a8c 6fbe d223 04be
00000170: 3f56 d2bd a310 c83e d98b e1bd 3b9e 783e
00000180: 44b4 3d3e e1c6 423d bb1c 313d 8a7d aa3c
00000190: 3192 05be fd69 3d3e 4949 a2bc 984f 403d
000001a0: 256e 71bd 47c6 1e3c 2462 d73e 5c8e 523d
000001b0: e3f3 8bbe e333 1abe 54b9 fcbd 35fb 513d
000001c0: 5061 fe3c f160 4abc 9448 193c e6ed 723e
000001d0: bc98 6e3e 352f 2bbe 6132 81bd 72bd 56bd
000001e0: 6bca b83d 0e8d 7dbe 232d d13d 8366 653b
000001f0: 8765 653c 12cc 8ebd 8a54 843c fe5f 22be
00000200: e8e6 a93d 16a8 52be 45f4 c93d 8f23 ee3d
00000210: 6536 353d 41cf 88bd 4075 0a3e 8bb7 88be
00000220: 3e68 433d a9ee 833d 9ee3 ed3e d557 433d
00000230: 93bd b53e 1131 19be b409 d8be c853 72bd
00000240: e516 9b3d 8258 b03c a5a3 11be 79ca 823d
00000250: 1fbc 26bd ab78 5d3c 9595 17be 84d1 16be
00000260: 1458 713e 8218 4f3e e678 1fbe 6f8b 893d
00000270: b8b8 363c 62e1 893d e523 20be 616b 81bd
00000280: 131a 72be 0733 51bb 1155 2a3e 8765 6d3c
00000290: 45df 14be acc6 92be 4d76 b2bd 7bd6 0d3e
000002a0: 1556 47bd 30bd 37bd 6e34 8e3e 9657 01be
000002b0: 0caa 0dbd 6d81 433d 4e74 283d a2a6 86be
000002c0: 2772 8bbd 9642 88bc 6c35 ca3d 77a3 f2ba
000002d0: 5536 903c c6df 3a3e 40b8 c13c de74 363c
000002e0: 3aa7 f73d 5ff9 a0bd b312 b13e e2ba ee3d
000002f0: 8011 b8bd 5161 0dbe 5cda 88be f970 7bbd
00000300: 5752 6dbe e70a ba3d db2a a9bc 7f26 7ebe
00000310: 5245 bbbd be5c fd3c 2641 3f3e 0f2d 01bd
00000320: 883b 6bbd 906f babd a8a7 453e 88db 0dbe
00000330: a181 2b3e c151 89bc 58d0 e93d 0149 16be
00000340: 33ac 8b3c 7495 7a3d b133 90be d81a 3a3e
00000350: 5156 003e 3f4e 133e 28dc 4dbd 67cd 9c3d
00000360: c08a 523e 3a00 1cbe 70da 3e3c bee6 2abd
00000370: 858f 4ebc b7cf 5f3c 805d e0bd 3485 bdbd
00000380: 67c8 57be 65e1 8dbd 0145 0e3e aad3 00be
00000390: eb20 133e ce47 24bb ed23 8b3e 512a 7b3e
000003a0: a74f 623e a91c e23c 713d 77be 4d0b 98be
000003b0: 7ba6 f63d 208f c5bd 9bf8 973c 7b58 e1bc
000003c0: e46b 19bd 2a76 8abc 5d16 673e 74ea 15be
000003d0: 48f1 813e 8ab5 97bd b3a6 28bd fc08 cc3d
000003e0: 89ed 02be b984 1b3e 821b d5bd d01e b93d
000003f0: 1448 713e c951 5dbd 33c7 9fbd a113 333e

network_body._body_endoder.seq_layers.0.bias f4 [128]
0.07428714 0.014973564 0.017844215 -0.054797743 -0.036131438 0.038006335 0.067414954 -0.085846364
-0.0061985757 0.07352986 0.07713535 -0.05464313 -0.05071432 0.0009830073 -0.038821787 -0.0186524
0.05081115 -0.01269843 -0.0022819447 0.09015587 -0.03912327 -0.0020118782 0.02643706 -0.019815315
-0.0045014606 -0.08316502 -0.020212544 0.01106267 0.013370747 -0.05576753 0.014840491 -0.022826469
-0.0025952586 0.0036596505 -0.028332835 -0.024705365 -0.07548304 -0.07258114 -0.012619614 -0.059491333
-0.0061790203 -0.029904887 -0.043853536 -0.021120824 -0.083960764 0.035645522 -0.030247658 -0.030027995
0.001572046 -0.035637405 -0.017547242 -0.09947249 -0.051089756 0.029790645 0.007169302 -0.037008807
0.07115973 -0.0036796748 -0.08404677 -0.023084339 -0.0038192899 0.001659996 -0.032274276 0.0026726176
0.10162747 0.054920252 -0.06397255 0.05165222 -0.017134015 0.018264145 -0.042583965 0.07342592
-0.04030303 -0.03915715 -0.012908898 -0.01797038 0.10105698 0.053707782 -0.028196167 -0.022229828
0.011762048 -0.097888626 0.010993683 -0.04695401 -0.021727525 0.00048651622 -0.073220335 0.039004907
-0.007713999 -0.023269325 0.0069328602 0.0018595894 -0.006277065 -0.0063968217 -0.08038441 0.0014577187
-0.011724812 -0.056842495 -0.045237586 0.04210536 -0.07325968 0.0065017333 -0.018443905 0.0378945
0.02829293 0.017787473 -0.015011688 -0.054580726 -0.09020373 -0.008013964 0.022212472 -0.048316974
0.06899119 -0.054928184 -0.016919466 -0.009401218 0.02599655 0.07089559 -0.033830993 -0.0036728692
-0.004678564 -0.06315829 -0.01415686 -0.03448967 -0.009850623 -0.045319065 -0.0163203 0.0001222187
00000000: db23 983d ae53 753c 082e 923c 9973 60bd
00000010: 8ffe 13bd 88ac 1b3d da10 8a3d 38d0 afbd
00000020: 6c1d cbbb d396 963d 23f9 9d3d 7ad1 5fbd
00000030: d2b9 4fbd 40d8 803a 9803 1fbd ebcc 98bc
00000040: 5a1f 503d 130d 50bc ae8c 15bb a4a3 b83d
00000050: b93f 20bd b7d9 03bb 8992 d83c ba53 a2bc
00000060: fd80 93bb 6c52 aabd c794 a5bc 3340 353c
00000070: fa10 5b3c 7e6c 64bd 8825 733c 93fe babc
00000080: 3715 2abb bfd6 6f3b 431a e8bc e862 cabc
00000090: da96 9abd 6ca5 94bd 7fc2 4ebc 2fad 73bd
000000a0: 6179 cabb 18fb f4bc c49f 33bd 9405 adbc
000000b0: 9ff3 abbd 0a01 123d f0c9 f7bc 45fd f5bc
000000c0: 1c0d ce3a 87f8 11bd 3cbf 8fbc 3cb8 cbbd
000000d0: 7e43 51bd 830b f43c 77ec ea3b 8c96 17bd
000000e0: 31bc 913d b326 71bb b720 acbd 5e1b bdbc
000000f0: 0d4d 7abb 3994 d93a 0832 04bd 1527 2f3b
00000100: 1022 d03d 0ff4 603d 0a04 83bd 4791 533d
00000110: a25c 8cbc b09e 953c 866c 2ebd 5460 963d
00000120: ca14 25bd 3f63 20bd d87f 53bc 9e36 93bc
00000130: f6f6 ce3d b1fc 5b3d a6fb e6bc 541b b6bc
00000140: 9bb5 403c d579 c8bd d91e 343c d952 40bd
00000150: ecfd b1bc 1a13 ff39 8bf4 95bd 9cc3 1f3d
00000160: b7c5 fcbb 509f bebc 0c2d e33b 77bd f33a
00000170: d6af cdbb 6e9c d1bb 95a0 a4bd ec10 bf3a
00000180: 6d19 40bc add3 68bd 0c4b 39bd ac76 2c3d
00000190: 2c09 96bd 7e0c d53b ac17 97bc 4337 1b3d
000001a0: 93c6 e73c 09b7 913c 95f3 75bc 0a90 5fbd
000001b0: bcbc b8bd 004d 03bc eef6 b53c 05e8 45bd
000001c0: 414b 8d3d 60fc 60bd b19a 8abc 9107 1abc
000001d0: b8f6 d43c b531 913d 5e92 0abd 85b4 70bb
000001e0: a44e 99bb 2259 81bd 2df2 67bc 0a45 0dbd
000001f0: 8264 21bc 7ca0 39bd 26b2 85bc d527 0039

network_body._body_endoder.seq_layers.2.weight f4 [128, 128]
-0.072862506 0.072217174 0.05167498 -0.06521634 -0.07775464 0.036028985 -0.049284115 0.0011539998
-0.074150346 0.009671941 0.09195827 0.048073895 0.0077151344 -0.042260665 -0.09570489 0.051064197
0.0037755007 -0.20753546 0.016801152 0.28124306 -0.112132795 0.034005366 -0.14311631 -0.09855862
0.013390926 0.025674894 -0.14997731 -0.094164334 -0.013836752 0.03671621 -0.13562657 -0.12892412
0.0647092 -0.0013005362 -0.17653432 0.10046549 -0.01958666 -0.010820937 -0.16553628 -0.022383125
-0.12385643 -0.19157098 0.018705241 0.02932331 -0.09637279 0.017251853 -0.046825238 -0.07433394
0.017157758 -0.09416875 -0.04454772 0.14376391 0.018544827 -0.13056561 -0.2832158 0.06539988
0.17935342 -0.027856879 -0.22800139 0.020061143 -0.07380304 0.03865734 0.044218212 0.12233415
0.21270277 0.12680095 0.03148148 0.107114516 -0.2040621 0.008128845 0.10223912 -0.065802194
-0.10434214 0.04924979 0.087054335 0.061370682 -0.07526406 0.01319567 0.17705278 -0.06550352
-0.041102383 -0.0913231 0.091402784 0.06765952 0.020163158 -0.0009783823 -0.02050187 0.06113627
0.17134617 -0.1040908 0.14112245 -0.013372144 -0.0047688643 -0.19104725 -0.1066591 0.1141174
0.017811064 -0.039018057 -0.13034075 -0.16242526 0.0851718 0.119791985 -0.14321034 -0.054446757
-0.12153203 0.08591045 0.024445334 0.047739048 0.12794456 0.057827696 -0.006072749 -0.17292221
-0.04302051 -0.10452784 0.024929559 -0.07711062 -0.00023165876 -0.16473217 0.049011707 0.06150585
-0.042639397 -0.12401935 -0.09960145 0.00407246 0.0012633818 -0.12649253 0.046456728 -0.19119766
0.055481646 -0.045551058 -0.11150095 0.047036853 -0.09698284 0.073704936 -0.1441562 -0.2583812
0.042413544 0.068576604 -0.012947134 -0.039440237 0.028934682 0.09259736 0.07444596 0.044649012
-0.058188207 -0.028901467 0.12485442 -0.14134218 0.0070990003 0.053358912 0.108051 -0.094553925
0.10374349 -0.011998167 -0.048993547 -0.15849611 -0.14642836 0.0237414 -0.20248967 -0.003982463
-0.053001653 -0.111904144 0.07786082 -0.015638229 -0.025945632 0.09699245 0.038983174 -0.13495854
-0.043387324 -0.14540793 0.013755962 -0.027915461 -0.078733005 -0.007862343 -0.00036799005 0.12419417
-0.070468664 0.14808483 -0.09490187 -0.09666865 -0.0014154499 0.02789853 -0.094671644 0.06435756
0.012001382 0.059010208 0.025002258 0.027746156 0.102786064 -0.054276217 -0.008503301 0.06261756
0.167595 0.123820655 0.14188352 0.07537569 0.06494444 -0.020838385 0.09510444 0.02262824
-0.12320774 -0.092099674 -0.1389512 -0.03727171 0.22109166 -0.01652586 0.0645308 -0.15562303
0.018315155 -0.08014947 -0.085035734 0.19439964 0.07481618 -0.08250922 -0.008926347 -0.029608084
0.026423745 -0.25839993 0.06725486 -0.0759676 0.19768114 0.03673941 -0.040508717 -0.11219355
-0.13659291 0.025820168 -0.019780114 0.04242747 0.17156158 -0.00922722 0.012870956 0.06435001
0.17728256 -0.06814924 -0.091224305 -0.015278505 -0.12327761 -0.18836889 0.13228829 0.0129755335
0.025058616 -0.04039297 -0.26400343 -0.015100106 -0.033068944 -0.06143392 0.18002616 -0.17470182
0.055945273 -0.09672374 0.18719192 -0.014940134 -0.08197211 0.119413875 0.055709668 -0.006128748
00000000: f038 95bd 99e6 933d 25a9 533d 2590 85bd
00000010: d33d 9fbd 2193 133d 24de 49bd cf41 973a
00000020: 23dc 97bd 1077 1e3c 9e54 bc3d 22e9 443d
00000030: 3dcf fc3b 8519 2dbd ed00 c4bd b128 513d
00000040: 646e 773b 2d84 54be 92a2 893c 17ff 8f3e
00000050: e1a5 e5bd 3649 0b3d 158d 12be 1ad9 c9bd
00000060: 9d65 5b3c 2854 d23c a793 19be 3bd9 c0bd
00000070: 8bb3 62bc bd63 163d b1e1 0abe af04 04be
00000080: 4286 843d c176 aaba 6ac5 34be dac0 cd3d
00000090: 3474 a0bc 4d4a 31bc 5882 29be d15c b7bc
000000a0: 71a8 fdbd 2f2b 44be bc3b 993c 7037 f03c
000000b0: 195f c5bd c253 8d3c d2cb 3fbd 653c 98bd
000000c0: 6d8e 8c3c 8cdb c0bd ac77 36bd d936 133e
000000d0: 52eb 973c feb2 05be a901 91be 5ff0 853d
000000e0: 6ca8 373e 1c34 e4bc 3279 69be 4457 a43c
000000f0: 0c26 97bd 2957 1e3d 281e 353d 548a fa3d
00000100: c1ce 593e 1cd8 013e b9f2 003d db5e db3d
00000110: a8f5 50be d92e 053c be62 d13d 4dc3 86bd
00000120: 55b1 d5bd 26ba 493d 8b49 b23d d35f 7b3d
00000130: 0b24 9abd a732 583c 534d 353e b626 86bd
00000140: f95a 28bd 9b07 bbbd 6231 bb3d 1391 8a3d
00000150: 352d a53c 103d 80ba 8af3 a7bc 076a 7a3d
00000160: 5f75 2f3e 8f2d d5bd 6782 103e d616 5bbc
00000170: 2244 9cbb e4a1 43be 1670 dabd 62b6 e93d
00000180: 82e8 913c 66d1 1fbd 0c78 05be cf52 26be
00000190: 8d6e ae3d 8055 f53d bba5 12be 9003 5fbd
000001a0: c9e5 f8bd d1f1 af3d 9541 c83c 058a 433d
000001b0: e603 033e bcdc 6c3d e9fd c6bb 8512 31be
000001c0: 4636 30bd b112 d6bd 1339 cc3c 2cec 9dbd
000001d0: 6de9 72b9 8daf 28be 80c0 483d 8fed 7b3d
000001e0: a6a6 2ebd dbfd fdbd d8fb cbbd 4572 853b
000001f0: 0f98 a53a 4287 01be 6949 3e3d 52c9 43be
00000200: b940 633d bf93 3abd 9c5a e4bd b7a9 403d
00000210: f09e c6bd 9df2 963d af9d 13be 8a4a 84be
00000220: d3b9 2d3d e471 8c3d 3720 54bc 168c 21bd
00000230: 6d08 ed3c afa3 bd3d 2077 983d e2e1 363d
00000240: c256 6ebd c5c2 ecbc adb3 ff3d 01bc 10be
00000250: bb9e e83b e08e 5a3d d849 dd3d 7da5 c1bd
00000260: 7877 d43d f693 44bc 75ad 48bd ce4c 22be
00000270: 51f1 15be 537d c23c 7459 4fbe 527f 82bb
00000280: 4318 59bd 002e e5bd 7e75 9f3d be1b 80bc
00000290: ef8b d4bc faa3 c63d d2ac 1f3d 9232 0abe
000002a0: e8b6 31bd d1e5 14be b060 613c f7ae e4bc
000002b0: c53e a1bd 0fd1 00bc caee c0b9 8359 fe3d
000002c0: e051 90bd 8da3 173e e95b c2bd 37fa c5bd
000002d0: 9e86 b9ba 758b e43c 35e3 c1bd e5cd 833d
000002e0: 72a1 443c b0b4 713d 89d1 cc3c e84b e33c
000002f0: 8081 d23d bd50 5ebd 6e51 0bbc a33d 803d
00000300: 069e 2b3e af95 fd3d ea49 113e 925e 9a3d
00000310: 9701 853d 43b5 aabc 1ec6 c23d dc5e b93c
00000320: 5754 fcbd c19e bcbd 3949 0ebe 38aa 18bd
00000330: da65 623e 3e61 87bc b928 843d a55b 1fbe
00000340: aa09 963c 6825 a4bd 3727 aebd b310 473e
00000350: 3a39 993d 98fa a8bd d03f 12bc a78c f2bc
00000360: 9c76 d83c ff4c 84be ebbc 893d e794 9bbd
00000370: ed6c 4a3e 107c 163d 78ec 25bd bbc5 e5bd
00000380: 03df 0bbe d184 d33c e809 a2bc 6dc8 2d3d
00000390: d7ad 2f3e c42d 17bc b4e0 523c f0c9 833d
000003a0: 8f89 353e d491 8bbd cfd3 babd b252 7abc
000003b0: f978 fcbd c6e3 40be 9576 073e 5597 543c
000003c0: ba47 cd3c 1973 25bd 752b 87be 6f66 77bc
000003d0: 4d73 07bd 22a2 7bbd c758 383e 09e5 32be
000003e0: df26 653d 1917 c6bd 3daf 3f3e 77c7 74bc
000003f0: fee0 a7bd 438f f43d d22f 643d aad3 c8bb

network_body._body_endoder.seq_layers.2.bias f4 [128]
0.07513944 -0.014419975 -0.0033187543 -0.008297302 -0.009876736 -0.026342638 -0.03510887 -0.006967893
0.0011480873 -0.013396688 -0.011292943 0.027932825 0.00064674113 -0.021929903 0.08735816 0.015160486
-0.024520244 0.00012850075 -0.010080697 0.0408348 -0.030397383 0.005205073 -0.009248425 0.01942377
0.019927667 0.011598138 0.009171817 0.03920662 -0.039999396 -0.014133927 0.16207331 -0.04180969
0.03429901 -0.020840535 -0.025134679 0.012013453 -0.03204002 -0.020844277 0.062921196 0.032083534
-0.029790489 -0.008019634 0.0060968013 0.0061903945 -0.0038612743 -0.022747103 -0.001269255 0.01307741
-0.016526658 0.09289576 0.07975573 0.056100085 0.02063322 -0.016090304 -0.013648883 -0.009817626
0.0445512 -0.016215198 0.04287838 0.136882 0.006099256 -9.0861184e-05 -0.0031625766 0.014875176
0.06346324 -0.0004896861 0.03509441 0.037268423 -0.012059432 0.038516037 0.0610076 0.049235776
0.0058462326 0.026679713 -0.0119474325 0.025800418 0.0051097707 -0.0077818534 -0.010358288 0.024981057
0.027766773 0.0031940613 -0.010367533 0.09300041 0.021321867 -0.034795575 0.10592102 0.20031579
-0.0102030765 0.008861041 0.038288187 -0.002755099 -0.03207989 0.118335664 -0.020168368 -0.018675044
0.0131446645 -0.0063039935 -0.023789627 -0.036511265 0.03952171 0.028713848 0.010886822 0.0133476
0.031867687 0.037938002 0.012550615 -0.014501684 0.017578956 -0.0068727345 -0.015461365 -0.0034721054
-0.007487282 0.03676425 -0.0048148027 0.037582465 -0.0009319669 0.01348441 -0.018141197 -0.003244615
-0.016681075 -0.007714986 -0.0047572902 -0.0017692442 -0.016397564 -0.025180347 0.058950912 0.033430167
00000000: b5e2 993d c241 6cbc 757f 59bb 68f1 07bc
00000010: 09d2 21bc 84cc d7bc 52ce 0fbd ec52 e4bb
00000020: 6b7b 963a c87d 5bbc 0906 39bc 61d3 e43c
00000030: 108a 293a 57a6 b3bc d6e8 b23d b063 783c
00000040: aede c8bc 28be 0639 8229 25bc 6442 273d
00000050: ef03 f9bc 518f aa3b b586 17bc 991e 9f3c
00000060: 593f a33c 1e06 3e3c 6445 163c 1f97 203d
00000070: 68d6 23bd fd91 67bc 8cf6 253e a340 2bbd
00000080: 1e7d 0c3d c5b9 aabc 3ee7 cdbc 13d4 443c
00000090: 653c 03bd 9ec1 aabc d4dc 803d 066a 033d
000000a0: 2f0b f4bc c864 03bc adc7 c73b cbd8 ca3b
000000b0: 6f0d 7dbb 2258 babc 215d a6ba a242 563c
000000c0: ea62 87bc 2240 be3d f956 a33d 34c9 653d
000000d0: 0007 a93c d0cf 83bc 919f 5fbc 1cda 20bc
000000e0: 527b 363d bcd5 84bc 3da1 2f3d cc2a 0c3e
000000f0: 45dc c73b ba8c beb8 3b43 4fbb 03b7 733c
00000100: 04f9 813d 475e 00ba 28bf 0f3d c6a6 183d
00000110: ed94 45bc fec2 1d3d 1be3 793d 74ab 493d
00000120: c191 bf3b 6a8f da3c 2abf 43bc 665b d33c
00000130: dd6f a73b ebfe febb cfb5 29bc 13a5 cc3c
00000140: 2577 e33c 7553 513b 96dc 29bc 0077 be3d
00000150: 32ab ae3c ce85 0ebd 1fed d83d 951f 4d3e
00000160: ce2a 27bc e62d 113c 13d4 1c3d e48e 34bb
00000170: 3466 03bd f859 f23d 2238 a5bc 68fc 98bc
00000180: b85c 573c bb91 cebb 77e2 c2bc d68c 15bd
00000190: 84e1 213d 4e39 eb3c a45e 323c e4af 5a3c
000001a0: b187 023d e164 1b3d 18a1 4d3c 7998 6dbc
000001b0: be01 903c ad34 e1bb aa51 7dbc 438c 63bb
000001c0: e057 f5bb 1c96 163d 7ec5 9dbb 12f0 193d
000001d0: 3d4f 74ba b7ed 5c3c d99c 94bc 9ba3 54bb
000001e0: c0a6 88bc fecd fcbb 0be3 9bbb fce5 e7ba
000001f0: 2f54 86bc 0447 cebc 8376 713d 12ee 083d

action_model._continuous_distribution.log_sigma f4 [1, 3]
-0.36480004 -0.35667256 -0.043023825
00000000: 12c7 babe c99d b6be c039 30bd

action_model._continuous_distribution.mu.weight f4 [3, 128]
0.020622214 -0.05662057 -0.025113834 0.007876045 -0.034338083 -0.01895879 0.030088216 0.03075326
0.025066487 0.011113214 -0.039900422 0.041088805 -0.015470476 -0.019265588 0.029722512 0.04862438
0.022841267 -0.0058936235 -0.006953591 -0.1514866 -0.03532166 -0.0124204215 0.03181988 0.013025681
0.039286364 0.004179921 0.013875498 0.039326567 -0.009735701 -0.031827062 0.10820686 0.015024214
-0.12497082 -0.025860032 0.045445982 0.00073614734 0.031149492 0.012749804 -0.02026032 -0.12741075
-0.03131257 0.060346212 -0.034981485 -0.019036805 0.01530703 0.012898387 0.013160102 -0.029392906
-0.032520376 -0.0045049526 -0.2528536 0.08134146 0.015147474 -0.056586202 0.021859346 -0.0019003475
-0.04441274 -0.021044714 -0.011299982 0.11895434 0.02660854 0.016351951 -0.0070641623 0.02347555
0.071034245 0.006849662 -0.09354374 -0.026153129 0.0016754693 0.04766632 0.10404307 0.042044275
0.0017220948 -0.0014241241 -0.008928997 0.03196745 0.010933406 -0.008176122 -0.039400775 0.04467404
-0.028011944 0.0028357885 -0.015390153 0.12806 0.021938004 0.0017575925 0.053750966 0.16762504
0.0075417696 -0.007556706 -0.122297116 -0.0016223831 -0.006673556 -0.10571775 0.019049194 0.04562006
-0.015142366 -0.049305514 0.026146194 -0.016971903 0.025570737 -0.1345579 -0.027595507 -0.016034773
-0.10117002 -0.12326104 -0.09389147 0.0028625512 -0.0071378197 0.021203034 -0.026379237 0.0008143807
-0.020264758 0.023959238 -0.014185971 0.007626393 -0.044957235 0.024049569 -0.008568295 -0.011554283
-0.0044051413 0.015863473 -0.010049889 0.028203275 0.007991715 -0.016796468 -0.13733967 -0.021685436
-0.14241603 0.015898325 -0.0014513878 -0.017345378 -0.009138699 -0.013157945 -0.013305613 -0.030574426
-0.031732548 -0.0638141 -0.03446059 0.036806244 -0.0045425026 -0.02859626 0.0992658 0.02194517
-0.035050593 0.023562903 0.00397434 -0.011702498 0.005174821 -0.025243249 -0.035162866 0.0024504515
-0.015590767 -0.03457985 0.016320558 -0.027172465 -0.053787306 0.04226921 -0.15245312 -0.011970477
0.036704414 -0.0040787896 -0.00988848 0.0059277085 -0.014135845 -0.012543202 -0.1985431 -0.079999246
-0.016055461 -0.030607028 0.027539805 -0.014534215 -0.015143035 -0.036132175 0.017179996 -0.019438047
-0.03002186 0.14135088 -0.015942011 -0.01028926 -0.07267198 -0.035955332 0.002444588 -0.011681347
0.020219635 -0.013160547 -0.20634258 0.16503114 -0.019112004 0.020760862 0.0010507149 0.037818786
0.0046522655 -0.03192329 -0.026577855 0.0051585934 0.00047397625 0.015476552 -0.03795989 -0.02137521
0.08339591 -0.094031185 -0.0018045625 0.036886796 -0.011909223 0.008689372 0.010330262 0.021629518
0.05001645 -0.0025721304 -0.0056996956 0.0077883345 0.005155628 -0.01165305 0.12684743 0.023482539
0.014150797 0.041964043 -0.009332375 0.06364511 -0.016381351 0.16494545 0.01892264 -0.016313115
-0.09044266 -0.05067955 0.008042934 -0.02604774 0.0056847394 -0.011999985 0.012269133 -0.047958255
0.019096058 -0.014126701 -0.0054727835 0.0071901577 0.034895495 -0.016127532 -0.026438346 0.029225012
0.0011707993 0.0257167 -0.016392427 0.0404613 0.022321828 0.0032518927 -0.015948456 0.009208827
0.009781114 0.027659122 0.0009840436 -0.022326406 -0.007815073 -0.031983923 0.10916936 0.052886635
00000000: ebef a83c f9ea 67bd 87bb cdbc 870a 013c
00000010: 17a6 0cbd 774f 9bbc 907b f63c 43ee fb3c
00000020: 3c58 cd3c 3314 363c a06e 23bd bc4c 283d
00000030: e177 7dbc ded2 9dbc a07c f33c 5c2a 473d
00000040: 9c1d bb3c 4c1f c1bb f3da e3bb 4e1f 1bbe
00000050: 72ad 10bd 067f 4bbc 9055 023d aa69 553c
00000060: bdea 203d b8f7 883b 0f56 633c e514 213d
00000070: 7d82 1fbc 185d 02bd 8f9b dd3d 1f28 763c
00000080: b4f0 ffbd 6bd8 d3bc 9125 3a3d 03fa 403a
00000090: 382d ff3c 8ee4 503c f8f8 a5bc f777 02be
000000a0: 9c41 00bd 972d 773d bf48 0fbd 13f3 9bbc
000000b0: 56ca 7a3c c253 533c 789d 573c 64c9 f0bc
000000c0: 1634 05bd 489e 93bb 0776 81be 5a96 a63d
000000d0: 1c2d 783c efc6 67bd 5f12 b33c 1515 f9ba
000000e0: 22ea 35bd f765 acbc 8f23 39bc 559e f33d
000000f0: 27fa d93c 87f4 853c 7d7a e7bb cc4f c03c
00000100: 677a 913d 2173 e03b dc93 bfbd 163f d6bc
00000110: 6c9b db3a c23d 433d 8814 d53d 9e36 2c3d
00000120: eab7 e13a ada9 baba ee4a 12bc 4df0 023d
00000130: 0722 333c 24f5 05bc b562 21bd 20fc 363d
00000140: 4e79 e5bc a3d8 393b fb26 7cbc 2922 033e
00000150: 54b7 b33c 055f e63a f929 5c3d e6a5 2b3e
00000160: f320 f73b 3f9e f7bb e976 fabd 25a6 d4ba
00000170: d8ad dabb 8c82 d8bd 0e0d 9c3c 1adc 3a3d
00000180: b017 78bc 94f4 49bd 8b30 d63c a908 8bbc
00000190: b979 d13c 8cc9 09be f90f e2bc 5b5b 83bc
000001a0: 3a32 cfbd 4970 fcbd 2c4a c0bd a499 3b3b
000001b0: 5fe4 e9bb fcb1 ad3c 4519 d8bc 2a7c 553a
000001c0: 4702 a6bc 2a46 c43c 466c 68bc d2e6 f93b
000001d0: 1425 38bd 9a03 c53c 0962 0cbc 2d4e 3dbc
000001e0: 0159 90bb 1df4 813c 4aa8 24bc 8e0a e73c
000001f0: afef 023c bf98 89bc c5a2 0cbe a8a5 b1bc
00000200: 82d5 11be 343d 823c 7e3c beba e517 8ebc
00000210: 7bba 15bc 6c94 57bc c9ff 59bc 3877 fabc
00000220: fdf9 01bd f8b0 82bd 8c26 0dbd 25c2 163d
00000230: 46d9 94bb b442 eabc de4b cb3d 5bc6 b33c
00000240: 3691 0fbd fd06 c13c 2e3b 823b d6bb 3fbc
00000250: 8b91 a93b eeca cebc f006 10bd c197 203b
00000260: 6b70 7fbc 9aa3 0dbd b1b2 853c ca98 debc
00000270: 1450 5cbd 7b22 2d3d ac1c 1cbe d21f 44bc
00000280: 5e57 163d 5ea7 85bb 4b03 22bc 393d c23b
00000290: 089a 67bc 0182 4dbc e24e 4bbe a5d6 a3bd
000002a0: be86 83bc 97bb fabc 289b e13c eb20 6ebc
000002b0: 7e1a 78bc 55ff 13bd 10bd 8c3c 8a3c 9fbc
000002c0: 67f0 f5bc 49be 103e d298 82bc 4994 28bc
000002d0: 0cd5 94bd e645 13bd 6235 203b 1f63 3fbc
000002e0: a6a3 a53c 569f 57bc 784b 53be ecfd 283e
000002f0: c790 9cbc af12 aa3c 24b8 893a dfe7 1a3d
00000300: 0872 983b ffc1 02bd cdb9 d9bc 6b09 a93b
00000310: 0480 f839 5d91 7d3c d47b 1bbd 101b afbc
00000320: 7acb aa3d 6c93 c0bd 1287 ecba 9c16 173d
00000330: e71e 43bc de5d 0e3c 4240 293c 6330 b13c
00000340: 0dde 4c3d 3091 28bb 83c4 babb 4935 ff3b
00000350: 8bf0 a83b 6fec 3ebc 4be4 013e 745e c03c
00000360: bfd8 673c 7de2 2b3d d1e6 18bc 5e58 823d
00000370: 2f32 86bc 76e7 283e a703 9b3c 15a3 85bc
00000380: 003a b9bd 5c95 4fbd 83c6 033c 1262 d5bc
00000390: 0d47 ba3b 969b 44bc 7904 493c e06f 44bd
000003a0: 566f 9c3c ae73 67bc 0955 b3bb 6a9b eb3b
000003b0: 94ee 0e3d e31d 84bc 3b95 d8bc 4b69 ef3c
000003c0: 8175 993a d4ab d23c 6949 86bc c0ba 253d
000003d0: 44dc b63c b51d 553b 56a6 82bc 9fe0 163c
000003e0: f740 203c 6295 e23c 06fb 803a dee5 b6bc
000003f0: cb0a 00bc 9301 03bd 2f94 df3d a89f 583d

action_model._continuous_distribution.mu.bias f4 [3]
0.014285311 0.01703131 0.00069317187
00000000: f00c 6a3c 3f85 8b3c fab5 353a

action_model._discrete_distribution.branches.0.weight f4 [2, 128]
-0.01820702 -0.002745776 -0.0033930312 -0.008826007 0.03368711 0.013338072 -0.002210163 -0.012931501
0.026252186 0.006217653 0.030575087 -0.017619977 -0.0013264017 -0.0024928716 0.0068560825 -0.0036096005
0.012903719 0.0041235485 0.002108405 0.008193375 -0.0140665565 0.01284298 -0.0037989065 0.004462789
0.0019792195 -0.0014705939 -0.0013549088 -0.019683827 -0.011518785 0.0054922705 -0.009761931 0.020175768
-0.026249282 -0.012348678 -0.004904566 0.006744546 -0.003376756 0.011779866 0.0014756253 -0.008648557
0.007656638 -0.009418267 0.008991 -0.0064024506 -0.006523915 0.0025588607 0.010670085 0.0096087605
-0.013914486 -0.035186555 -0.012590215 0.0060030683 -0.039647613 -0.014959337 -0.0018457568 0.020151395
-0.013467383 0.017052975 -0.03192331 -0.014218307 -0.017042616 -0.0053232783 -0.0047112936 -0.004699914
-0.022613294 -0.02208625 0.016960947 -0.005654381 0.010396125 0.0052952976 -0.007828676 -0.012231783
0.009302021 0.00034375742 0.0018849521 0.01280414 -0.0047862097 0.022588465 -0.010596797 0.004079101
-0.011289496 0.0013327928 -0.0062224832 0.0009259448 -0.0051012523 0.012438132 0.009500487 -0.00882064
0.002206945 -0.01194459 0.052611064 0.0036593992 0.0063759726 -0.041839857 -0.0009551918 -0.0007524589
0.0053280075 -0.019324567 0.010308403 -0.0024674428 -0.0069116275 0.010865334 0.014851528 0.015185531
0.018501159 -0.009573631 -0.0026771848 0.007989088 0.011327765 -0.0012075767 -0.015681645 0.012704698
-0.003294506 0.012753637 0.0044770585 0.0008382094 -0.0025147395 -0.0020692141 -0.001429742 -0.0081131235
0.006780187 0.014234721 0.006553713 -0.008771818 0.0019585076 0.0012957152 -0.044014502 -0.014986453
0.008958359 -0.008347931 -0.011580376 -0.015397531 -0.01306974 -0.022168186 0.009225596 0.006205519
-0.0145765785 -0.0011640218 -0.015908366 0.028527364 -0.0047644596 -0.027646046 0.009669253 0.011802925
0.008518607 -0.026407486 0.007141122 0.011074824 0.0064764465 -0.0047741127 0.012147415 -0.0020321524
-0.0015245785 0.001611685 -0.0072991424 0.013885424 -0.0049678385 -0.013160091 0.016723352 -0.017586034
-0.011942521 -0.0036764494 0.003570054 -0.007836122 0.0013515011 -0.0010128247 0.0008996938 -0.011272376
-0.01374604 0.0004059392 0.007365146 0.00950323 -0.0069548427 -0.01763647 -0.013792333 -0.02280494
0.017481742 0.03464735 -0.0022810006 0.0036795281 0.037835028 0.015108672 -0.010656592 -0.006608103
0.0088010775 -0.006258815 0.0121798385 0.006357826 0.015558475 -0.0026675488 0.0043834215 -0.00010269772
0.032940213 0.020707417 -0.0006252526 0.004946279 -0.0035832021 0.00029047753 0.0021848544 0.020415772
0.004531182 0.008799001 -0.012769552 -0.0019231762 -0.0053906525 -0.0119447 -0.012732953 0.003372754
-0.008998656 0.012198993 0.0038067766 -0.0014251756 -0.0049809436 -0.012948993 -0.016689802 0.0029638524
-0.006610094 0.014797413 -0.03897572 0.004463234 -0.0025962067 0.057853002 -0.005135641 -0.005131079
-0.001591811 0.031959455 0.012967641 0.0074016643 0.0041122306 -0.0041900473 0.0012685311 -0.015192168
-0.011835996 -0.0018796213 -0.00668566 0.019605644 -0.0012126263 -0.005991029 0.012983888 -0.01042871
-0.0014069673 0.011384888 -0.005420244 0.009470127 0.006691896 0.0042559574 -0.0047391877 0.017696664
-0.0051112785 -0.006264327 0.02282055 0.017750772 0.015756782 -0.00039282185 0.051504105 0.014233391
00000000: e326 95bc 7af2 33bb 9e5d 5ebb f59a 10bc
00000010: 7ffb 093d ee87 5a3c 62d8 10bb a5de 53bc
00000020: d30e d73c 74bd cb3b 9b78 fa3c c557 90bc
00000030: a8da adba 725f 23bb fda8 e03b 0c8f 6cbb
00000040: 1f6a 533c d51e 873b 2b2d 0a3b 813d 063c
00000050: 6a77 66bc 5d6b 523c 13f7 78bb 963c 923b
00000060: cbb5 013b f1c0 c0ba 3297 b1ba fa3f a1bc
00000070: 49b9 3cbc 81f8 b33b 82f0 1fbc a747 a53c
00000080: bc08 d7bc 1c52 4abc 7bb6 a0bb 5a01 dd3b
00000090: 914c 5dbb 5700 413c c569 c13a adb2 0dbc
000000a0: 89e4 fa3b 134f 1abc fd4e 133c a6cb d1bb
000000b0: 91c6 d5bb 8fb2 273b 95d1 2e3c 106e 1d3c
000000c0: 96f9 63bc c71f 10bd 3047 4ebc 63b5 c43b
000000d0: 8965 22bd 0218 75bc 52ed f1ba 8a14 a53c
000000e0: 4ca6 5cbc aeb2 8b3c 04c2 02bd e7f3 68bc
000000f0: f59c 8bbc e56e aebb 3261 9abb bc01 9abb
00000100: 843f b9bc 39ee b4bc aff1 8a3c 6348 b9bb
00000110: 8254 2a3c 2d84 ad3b d943 00bc d167 48bc
00000120: 8167 183c 573a b439 7f10 f73a 75c8 513c
00000130: a3d5 9cbb 720b b93c 309e 2dbc fba9 853b
00000140: 94f7 38bc 1bb1 ae3a f9e5 cbbb 1bbb 723a
00000150: 6828 a7bb 4fc9 4b3c eea7 1b3c 7284 10bc
00000160: 65a2 103b 3eb3 43bc b37e 573d 88d2 6f3b
00000170: 89ed d03b 4560 2bbd d665 7aba a940 45ba
00000180: 9196 ae3b 8e4e 9ebc 93e4 283c d2b4 21bb
00000190: ef7a e2bb 8404 323c d353 733c bccc 783c
000001a0: be8f 973c b8da 1cbc b573 2fbb aae4 023c
000001b0: 1798 393c 8d47 9eba cb76 80bc 5e27 503c
000001c0: a4e8 57bb a1f4 503c 4ab4 923b 48bb 5b3a
000001d0: 54ce 24bb a79b 07bb 2e66 bbba e8ec 04bc
000001e0: 552c de3b bf38 693c 88c0 d63b acb7 0fbc
000001f0: 4e5a 003b fdd4 a93a 8d48 34bd bd89 75bc
00000200: 15c6 123c c3c5 08bc 9ebb 3dbc ed45 7cbc
00000210: 7622 56bc 0e9a b5bc f426 173c ab57 cb3b
00000220: 9ad2 6ebc 1792 98ba 4352 82bc 38b2 e93c
00000230: 2f1f 9cbb f679 e2bc c96b 1e3c 0e61 413c
00000240: a191 0b3c 8354 d8bc 1300 ea3b 2e73 353c
00000250: 5f38 d43b 2970 9cbb f405 473c dc2d 05bb
00000260: 5ed4 c7ba 2d3f d33a a52d efbb b07f 633c
00000270: 40c9 a2bb 6c9d 57bc 69ff 883c 9610 90bc
00000280: 90aa 43bc 96f0 70bb 91f7 693b 1463 00bc
00000290: da24 b13a c2c0 84ba 6ed9 6b3a c6af 38bc
000002a0: 1237 61bc 3dd4 d439 5357 f13b 70b3 1b3c
000002b0: 73e5 e3bb 5c7a 90bc 3df9 61bc 6dd1 babc
000002c0: df35 8f3c 61ea 0d3d d77c 15bb 3d24 713b
000002d0: e7f8 1a3d 5d8a 773c fd98 2ebc c988 d8bb
000002e0: 6532 103c bf16 cdbb f28d 473c 4f55 d03b
000002f0: f9e8 7e3c 0bd2 2ebb cea2 8f3b 6b5f d7b8
00000300: 51ec 063d 9aa2 a93c fee7 23ba 6514 a23b
00000310: 28d4 6abb 3c4b 9839 c62f 0f3b fa3e a73c
00000320: 4f7a 943b af29 103c 6237 51bc 1613 fcba
00000330: 12a4 b0bb b4b3 43bc e09d 50bc 6c09 5d3b
00000340: 196f 13bc 49de 473c 1d7b 793b f5cc baba
00000350: 2f37 a3bb 0328 54bc 0db9 88bc 313d 423b
00000360: 7d99 d8bb d970 723c 01a5 1fbd 5240 923b
00000370: 1f25 2abb 45f7 6c3d e148 a8bb 9c22 a8bb
00000380: 50a4 d0ba ebe7 023d 3b76 543c a989 f23b
00000390: e4bf 863b aa4c 89bb d744 a63a 92e8 78bc
000003a0: c4eb 41bc a05d f6ba 6213 dbbb 049c a03c
000003b0: fdf0 9eba 6550 c4bb 60ba 543c 2edd 2abc
000003c0: fd69 b8ba ae87 3a3c 4d9c b1bb 9728 1b3c
000003d0: b147 db3b 8f75 8b3b 304b 9bbb 98f8 903c
000003e0: 837c a7bb fc44 cdbb 29f2 ba3c 116a 913c
000003f0: 5e14 813c a8f3 cdb9 f8f5 523d 2b33 693c

action_model._discrete_distribution.branches.0.bias f4 [2]
-0.006462961 0.0064629586
00000000: 3fc7 d3bb 3ac7 d33b

exp_avg f4 [128, 47]
0.00016262614 -0.00010947896 0.00022515815 0.00014321003 0.00031402035 0.00021321088 3.8189104e-05 0.00012284619
9.532184e-05 0.000143462 0.0002770912 -0.00015810177 0.00024514348 7.94153e-05 0.0002198318 0.00014899863
0.0001821471 0.00017451671 -4.686707e-05 6.4044645e-05 0.00024288913 -0.000104050494 0.000178088 0.00017184298
0.00023983902 0.00047074148 3.189046e-05 -0.00014366364 7.1402625e-05 3.9748054e-05 0.00047074148 3.189046e-05
-0.00014366364 7.1402625e-05 3.974802e-05 -5.7840603e-05 0.0002897772 0.003283903 9.859771e-05 4.896882e-05
0.00014101621 -1.6015121e-05 0.00043984613 9.9502504e-05 4.8510312e-05 1.1641485e-05 -3.281621e-05 8.342441e-05
-6.893898e-05 4.0250365e-05 2.3254064e-05 3.814658e-05 9.236195e-06 -1.3889627e-05 0.00011119816 -1.8874953e-05
2.9934698e-05 9.1786285e-05 -4.3242476e-06 7.184975e-05 -6.800564e-05 1.6806212e-05 -1.0211601e-05 6.6864035e-05
6.5397235e-06 2.4849815e-05 4.3998392e-05 7.988549e-05 -5.4864184e-05 7.507994e-05 -1.0091235e-05 5.2666608e-05
7.3423376e-05 -5.7009136e-05 4.770042e-05 2.86049e-05 3.6128313e-05 7.3423376e-05 -5.7009136e-05 4.770042e-05
2.86049e-05 3.6128302e-05 -0.0041484903 6.804148e-05 -0.0010013566 2.1467005e-05 -1.3917488e-05 -4.7092362e-07
-1.829907e-05 -6.085977e-05 1.0806112e-06 -0.00014795462 -3.2321987e-06 -7.3594354e-05 2.3998842e-05 5.00377e-05
-2.472191e-05 5.6336057e-06 -2.9756504e-05 5.6590055e-05 2.191113e-05 6.237195e-05 -8.734393e-05 -3.7886108e-05
2.830861e-05 1.16782285e-05 6.34246e-05 -4.0022034e-05 3.3525856e-05 4.7414134e-05 3.4249355e-05 -4.1436637e-05
2.0790105e-05 2.2511274e-05 1.7094544e-05 -2.570808e-05 3.837484e-05 2.6847421e-05 5.2330433e-05 -4.397187e-06
-2.0499541e-05 4.6146895e-05 3.9795705e-05 8.152431e-05 -4.397187e-06 -2.0499541e-05 4.6146895e-05 3.9795705e-05
8.152431e-05 -0.0018054135 6.723536e-05 0.0034226067 -6.782662e-05 7.788447e-06 -8.007511e-05 1.9415909e-06
0.00013488156 -8.318665e-05 -7.0689974e-05 -1.9042911e-05 5.9987404e-05 -3.6712452e-05 -2.7785733e-05 -1.7929187e-05
4.183753e-06 -3.4573527e-06 -6.2979634e-05 -3.627455e-05 3.2625496e-05 -1.866868e-05 -1.0420119e-05 -3.1633743e-05
-2.4335253e-05 -2.6695056e-05 -1.7086319e-06 -1.2952454e-05 -4.492603e-05 -3.784436e-05 1.3068751e-05 -1.8486697e-05
-2.9903877e-05 -9.923424e-06 -1.5331698e-05 -3.136287e-05 -2.8022427e-05 -4.2289732e-05 -2.442548e-05 -1.9031484e-05
-1.4256637e-05 -2.516167e-05 -4.927912e-05 -2.442548e-05 -1.9031484e-05 -1.4256637e-05 -2.516167e-05 -4.927913e-05
0.00033764838 -4.36817e-05 -0.0022169307 -1.9065346e-05 -1.8368497e-05 -2.6724882e-05 -2.0618936e-05 -1.8283114e-05
-8.950503e-06 1.056095e-05 -4.4163717e-06 -7.3047886e-05 -2.235503e-05 3.6708192e-05 -1.8420678e-07 -1.7609178e-05
-8.657978e-06 8.610867e-06 3.5296267e-05 -2.9480705e-05 -2.7611366e-05 -3.1162097e-05 -6.562828e-05 2.1888227e-06
-5.487207e-06 5.8132377e-05 4.6785703e-05 5.9723017e-05 -4.0849787e-05 -1.5409783e-05 -1.8527315e-05 -2.9912819e-05
-5.5022057e-05 6.680589e-05 3.7074942e-06 -2.8903973e-05 -9.606902e-07 -8.072961e-05 3.4738165e-05 4.26834e-05
-1.2471903e-05 5.8815504e-06 -8.072961e-05 3.4738165e-05 4.26834e-05 -1.2471903e-05 5.8815426e-06 -0.0020225707
9.813066e-06 0.0024060057 -5.8483096e-05 -1.5349315e-05 -0.000116645075 -1.5936675e-05 -7.43697e-05 -7.710482e-05
-3.0853942e-05 -4.730255e-06 8.849304e-05 -9.7495446e-05 -4.9381222e-05 -2.8196932e-06 -9.2064816e-05 -0.000101545185
-5.4990982e-05 3.3314245e-05 -9.148043e-05 -0.00013113406 -0.00017733664 -0.00019138934 1.6303266e-06 -1.7830971e-05
-2.468735e-05 -4.8500506e-06 -4.9536648e-05 -3.835491e-06 -5.221349e-05 -0.00014306325 -0.00014871568 -0.00012251745
00000000: 9f86 2a39 1298 e5b8 6e18 6c39 a62a 1639
00000010: 19a3 a439 5c91 5f39 3d2d 2038 46d0 0039
00000020: 86e7 c738 4a6e 1639 8d46 9139 1fc8 25b9
00000030: 9a86 8039 c48b a638 a682 6639 843c 1c39
00000040: bdfe 3e39 79fe 3639 2293 44b8 b54f 8638
00000050: 0eb0 7e39 af35 dab8 22bd 3a39 c030 3439
00000060: 4c7d 7b39 dacd f639 1fc2 0538 6aa4 16b9
00000070: febd 9538 26b7 2638 dacd f639 1fc2 0538
00000080: 6aa4 16b9 febd 9538 1db7 2638 e099 72b8
00000090: 3ded 9739 c036 573b 3ec6 ce38 df63 4d38
000000a0: c0dd 1339 3658 86b7 269b e639 00ac d038
000000b0: 8d77 4b38 cc4f 4337 23a4 09b8 24f4 ae38
000000c0: 5593 90b8 80d2 2838 b911 c337 94ff 1f38
000000d0: 28f5 1a37 7e07 69b7 0f33 e938 a755 9eb7
000000e0: 461c fb37 637d c038 0119 91b6 0aae 9638
000000f0: 409e 8eb8 11fb 8c37 7e52 2bb7 5b39 8c38
00000100: cc6f db36 9274 d037 ea8a 3838 3288 a738
00000110: f81d 66b8 3c74 9d38 864d 29b7 57e6 5c38
00000120: e0fa 9938 181d 6fb8 f011 4838 8ef4 ef37
00000130: 7b88 1738 e0fa 9938 181d 6fb8 f011 4838
00000140: 8ef4 ef37 7888 1738 0ff0 87bb 7eb1 8e38
00000150: f43f 83ba 0b14 b437 287f 69b7 40d3 fcb4
00000160: f480 99b7 ae43 7fb8 8509 9135 4424 1bb9
00000170: c0e8 58b6 ab56 9ab8 1f51 c937 92df 5138
00000180: e661 cfb7 4e08 bd36 9b9d f9b7 1c5b 6d38
00000190: cbcd b737 b0cd 8238 6a2c b7b8 e6e7 1eb8
000001a0: 4778 ed37 9ced 4337 d302 8538 55dd 27b8
000001b0: 1d9e 0c38 8ade 4638 f7a6 0f38 40cc 2db8
000001c0: 6966 ae37 98d6 bc37 4166 8f37 aea7 d7b7
000001d0: acf4 2038 6636 e137 607d 5b38 8c8b 93b6
000001e0: 6ef6 abb7 da8d 4138 50ea 2638 08f8 aa38
000001f0: 8c8b 93b6 6ef6 abb7 da8d 4138 50ea 2638
00000200: 08f8 aa38 a0a3 ecba b600 8d38 d04d 603b
00000210: 243e 8eb8 20ab 0237 ffed a7b8 474c 0236
00000220: fe6e 0d39 7e74 aeb8 643f 94b8 57be 9fb7
00000230: fc9a 7b38 b2fb 19b8 6815 e9b7 a366 96b7
00000240: 2a62 8c36 de04 68b6 ef13 84b8 8025 18b8
00000250: 5cd7 0838 af9a 9cb7 12d2 2eb7 79ae 04b8
00000260: 8f23 ccb7 32ef dfb7 2554 e5b5 5e4e 59b7
00000270: f56e 3cb8 12bb 1eb8 dc41 5b37 e113 9bb7
00000280: 16da fab7 c87c 26b7 929c 80b7 a08b 03b8
00000290: b411 ebb7 4160 31b8 52e5 ccb7 cda5 9fb7
000002a0: ca2f 6fb7 4612 d3b7 0db1 4eb8 52e5 ccb7
000002b0: cda5 9fb7 ca2f 6fb7 4612 d3b7 10b1 4eb8
000002c0: 6606 b139 de36 37b8 ed49 11bb 85ee 9fb7
000002d0: 0c16 9ab7 3f2f e0b7 d4f6 acb7 b05e 99b7
000002e0: 1e2a 16b7 ef2e 3137 5830 94b6 4931 99b8
000002f0: 1087 bbb7 1ff7 1938 60ca 45b4 6cb7 93b7
00000300: bb41 11b7 6477 1037 140b 1438 554d f7b7
00000310: f59e e7b7 0cb4 02b8 eaa1 89b8 b0e3 1236
00000320: c01e b8b6 2ad3 7338 c43b 4438 1a7f 7a38
00000330: 2056 2bb8 4244 81b7 1b6b 9bb7 4aed fab7
00000340: 7cc7 66b8 241a 8c38 44ce 7836 cf76 f2b7
00000350: 10f1 80b5 614d a9b8 d2b3 1138 f406 3338
00000360: 6a3e 51b7 225a c536 614d a9b8 d2b3 1138
00000370: f406 3338 6a3e 51b7 115a c536 1b8d 04bb
00000380: cca2 2437 14ae 1d3b bf4b 75b8 67c2 80b7
00000390: 599f f4b8 c0af 85b7 eef6 9bb8 56b3 a1b8
000003a0: 2b69 01b8 95b8 9eb6 5795 b938 7876 ccb8
000003b0: af1e 4fb8 f639 3db6 ec12 c1b8 a8f4 d4b8
000003c0: 1ea6 66b8 e6ba 0b38 2fd9 bfb8 0881 09b9
000003d0: 71f3 39b9 afaf 48b9 98d1 da35 b893 95b7
000003e0: ae17 cfb7 9ebd a2b6 92c5 4fb8 9eb2 80b6
000003f0: cfff 5ab8 4003 16b9 90f0 1bb9 0778 00b9

exp_avg_sq f4 [128, 47]
6.824294e-07 1.1716902e-07 3.928654e-07 2.3097246e-07 5.017087e-07 8.985378e-07 9.8490545e-08 2.9809098e-07
1.5821354e-07 3.709171e-07 5.59036e-07 1.2734078e-07 3.511253e-07 3.4444517e-07 6.1793406e-07 8.3612105e-07
1.2395259e-07 3.1057226e-07 1.6614867e-07 3.8224672e-07 5.590973e-07 9.399417e-08 4.4718203e-07 2.884539e-07
5.8102074e-07 7.4699017e-07 9.3232565e-08 3.518096e-07 2.442478e-07 4.780393e-07 7.4699017e-07 9.323259e-08
3.518096e-07 2.442478e-07 4.780393e-07 0.0008222284 8.793136e-07 0.00078498415 5.670228e-07 1.15760885e-08
5.5241827e-07 2.474268e-07 5.653006e-07 2.7395038e-07 8.7648306e-07 5.8156813e-09 8.0092383e-07 5.4751634e-08
8.632705e-09 2.9016705e-08 2.049686e-08 3.9108198e-08 5.6755788e-08 1.0760523e-08 2.9307996e-08 1.7925897e-08
3.6604412e-08 5.3035535e-08 7.628079e-09 2.7731208e-08 2.19965e-08 4.193644e-08 5.8368183e-08 9.508972e-09
2.8710465e-08 1.7097195e-08 3.572055e-08 5.581467e-08 7.853916e-09 2.7457325e-08 1.9716218e-08 4.0365368e-08
5.5582497e-08 9.001916e-09 2.7621631e-08 1.8247393e-08 3.7375248e-08 5.5582497e-08 9.001916e-09 2.7621638e-08
1.8247393e-08 3.7375244e-08 0.000111056 6.883714e-08 3.3827026e-05 4.8810108e-08 1.2638064e-09 4.2403098e-08
2.1190028e-08 4.9763692e-08 2.3105892e-08 1.07177804e-07 4.005833e-10 3.8785043e-08 1.0178152e-07 2.0783798e-08
5.858963e-08 4.058481e-08 7.59688e-08 1.050502e-07 2.1565361e-08 5.7018745e-08 5.627521e-08 8.6604466e-08
1.2238573e-07 2.2846812e-08 5.058614e-08 3.208999e-08 5.8962772e-08 9.200075e-08 1.7614529e-08 6.488459e-08
4.9408865e-08 8.5447525e-08 1.26736e-07 1.7974168e-08 6.774484e-08 2.742859e-08 6.152272e-08 1.1386283e-07
2.2992245e-08 4.7123244e-08 5.0685212e-08 7.738938e-08 1.1386283e-07 2.2992234e-08 4.7123248e-08 5.0685212e-08
7.738938e-08 6.5643115e-05 1.18620875e-07 0.0001033123 1.1624171e-07 2.8955531e-09 9.2587854e-08 5.4988547e-08
9.047526e-08 6.318765e-08 1.02167014e-07 1.6670794e-09 1.627187e-07 1.0042485e-08 1.5952247e-09 5.3532836e-09
3.5383696e-09 7.309869e-09 1.0234208e-08 2.2918811e-09 5.4971134e-09 3.3930039e-09 7.160375e-09 1.0000209e-08
1.9038502e-09 5.2808353e-09 3.3824898e-09 7.140397e-09 1.0298793e-08 1.913839e-09 5.35059e-09 3.713631e-09
7.213427e-09 1.0696112e-08 1.9994266e-09 5.4328577e-09 3.420378e-09 7.0473125e-09 1.008008e-08 1.9673516e-09
5.1432525e-09 4.099309e-09 7.328539e-09 1.008008e-08 1.9673514e-09 5.1432556e-09 4.099309e-09 7.328539e-09
1.2277434e-05 1.245027e-08 1.9530207e-05 1.0025368e-08 2.7817787e-10 8.271972e-09 3.8913375e-09 9.941203e-09
4.0082826e-09 1.0083724e-08 2.9943655e-11 1.7291994e-08 4.4562153e-08 5.781013e-09 1.8071933e-08 1.1609056e-08
2.3767605e-08 4.0622403e-08 7.0618085e-09 1.7580383e-08 1.3633815e-08 2.6325278e-08 4.3826866e-08 6.4336154e-09
1.647456e-08 1.3152388e-08 2.5145066e-08 3.3536857e-08 7.997605e-09 2.3161263e-08 1.3913855e-08 2.6999706e-08
3.660907e-08 7.1101582e-09 1.6436074e-08 1.7086679e-08 2.9520624e-08 3.4052295e-08 6.445116e-09 2.2251648e-08
1.5370455e-08 2.8323095e-08 3.4052295e-08 6.4451124e-09 2.225165e-08 1.5370455e-08 2.8323097e-08 6.259139e-05
4.610799e-08 4.3849348e-05 3.3489037e-08 8.5465385e-10 2.9454085e-08 1.3914297e-08 3.6098943e-08 1.6358705e-08
5.7140667e-08 2.2622744e-10 4.269506e-08 1.7173133e-07 2.864285e-08 8.3312734e-08 5.980114e-08 1.10014675e-07
1.7685085e-07 2.2601805e-08 8.323723e-08 5.9522627e-08 1.14866765e-07 1.4722545e-07 4.361089e-08 8.365894e-08
5.796105e-08 1.10038656e-07 1.643278e-07 2.8249733e-08 9.095786e-08 5.0189275e-08 1.03653484e-07 1.5453881e-07
00000000: 3130 3735 5a9e fb33 02eb d234 3a01 7834
00000010: 29ad 0635 0c33 7135 c081 d333 5009 a034
00000020: 68e1 2934 7522 c734 a910 1635 2bbb 0834
00000030: 4b82 bc34 2fec b834 1be0 2535 cd71 6035
00000040: d417 0534 babc a634 9966 3234 9737 cd34
00000050: e014 1635 d7d9 c933 3b14 f034 cddc 9a34
00000060: 71f7 1b35 c684 4835 2537 c833 58e0 bc34
00000070: 2921 8334 9c52 0035 c684 4835 2937 c833
00000080: 58e0 bc34 2921 8334 9c52 0035 d08a 573a
00000090: f809 6c35 65c7 4d3a 8335 1835 2de0 4632
000000a0: e549 1435 15d6 8434 29bf 1735 7413 9334
000000b0: 7547 6b35 46d3 c731 11ff 5635 0f28 6b33
000000c0: 0a4f 1432 6940 f932 1211 b032 ebf7 2733
000000d0: a6c3 7333 48dd 3832 f7c0 fb32 77fb 9932
000000e0: fa36 1d33 30c9 6333 a50c 0332 9235 ee32
000000f0: d1f2 bc32 9a1d 3433 7fb0 7a33 e75c 2332
00000100: fb9e f632 21dd 9232 296b 1933 e1b8 6f33
00000110: e3ed 0632 4cdb eb32 6c5c a932 315e 2d33
00000120: 9ab9 6e33 d8a6 1a32 9c44 ed32 71be 9c32
00000130: 8586 2033 9ab9 6e33 d8a6 1a32 a044 ed32
00000140: 71be 9c32 8486 2033 bce6 e838 9ed3 9333
00000150: 7ee1 0d38 48a3 5133 3cb2 ad30 b31e 3633
00000160: 5d05 b632 c2bb 5533 657a c632 9f29 e633
00000170: 1639 dc2f 9b94 2633 fb92 da33 0e88 b232
00000180: fba3 7b33 784f 2e33 4a24 a333 f597 e133
00000190: bb3e b932 c6e4 7433 3fb3 7133 4ffb b933
000001a0: 2269 0334 ac40 c432 0d44 5933 51d3 0933
000001b0: 413e 7d33 f291 c533 c24e 9732 ae56 8b33
000001c0: 9f35 5433 467f b733 ed14 0834 9d65 9a32
000001d0: 1f7b 9133 1b9c eb32 791e 8433 c184 f433
000001e0: 7b80 c532 8e64 4a33 fbb0 5933 4331 a633
000001f0: c184 f433 7580 c532 8f64 4a33 fbb0 5933
00000200: 4331 a633 e1a9 8938 84bc fe33 5ea9 d838
00000210: 8ea0 f933 1cfb 4631 b6d4 c633 8c2c 6c33
00000220: 4d4b c233 c7b1 8733 e966 db33 241f e530
00000230: c7b7 2e34 5187 2c32 fb3e db30 fbef b731
00000240: a827 7331 4a2a fb31 86d2 2f32 337f 1d31
00000250: 1fe1 bc31 5b2a 6931 5307 f631 62cd 2b32
00000260: e3d4 0231 b872 b531 6471 6831 9957 f531
00000270: 92ee 3032 9d84 0331 4ad8 b731 e332 7f31
00000280: fad9 f731 00c2 3732 4966 0931 ecab ba31
00000290: ed0b 6b31 d124 f231 a92c 2d32 0432 0731
000002a0: 87b8 b031 e7d9 8c31 83ce fb31 a92c 2d32
000002b0: 0332 0731 8eb8 b031 e7d9 8c31 83ce fb31
000002c0: 2dfb 4d37 dee4 5532 cdd4 a337 093c 2c32
000002d0: 0eee 982f 851c 0e32 91b4 8531 e0c9 2a32
000002e0: 3ab9 8931 b03c 2d32 8fb1 032e 7f89 9432
000002f0: 9b64 3f33 54a2 c631 9a3c 9b32 2b71 4732
00000300: 8429 cc32 ce78 2e33 53a4 f231 ac03 9732
00000310: 273a 6a32 e621 e232 263c 3c33 ae0e dd31
00000320: f183 8d32 d0f4 6132 96fe d732 2a0a 1033
00000330: d765 0932 28f4 c632 c809 6f32 fbec e732
00000340: 193c 1d33 9d4d f431 4f2f 8d32 01c6 9232
00000350: 8a94 fd32 e540 1233 d773 dd31 e423 bf32
00000360: fd07 8432 254b f332 e540 1233 cf73 dd31
00000370: e523 bf32 fd07 8432 264b f332 7f43 8338
00000380: 4508 4633 e1ea 3738 96d5 0f33 ebec 6a30
00000390: 3802 fd32 ba0b 6f32 350b 1b33 2c85 8c32
000003a0: d46a 7533 5dbd 782f b75f 3733 2665 3834
000003b0: 4b0a f632 a9e9 b233 066c 8033 3541 ec33
000003c0: 64e4 3d34 e525 c232 27c0 b233 d2a5 7f33
000003d0: acac f633 0615 1e34 ae4e 3b33 fda7 b333
000003e0: d9f0 7833 644e ec33 1572 3034 d2a9 f232
000003f0: 9d54 c333 b18f 5733 1b98 de33 4eef 2534

exp_avg f4 [128]
0.00045156488 8.976091e-05 5.631942e-05 -8.499526e-05 -1.3277759e-05 -0.00024359021 -0.00025133244 8.3657214e-05
4.9820024e-05 0.00032011658 -0.0002313043 3.229945e-05 -7.5070755e-05 -0.0002253279 -4.3177628e-05 -7.6168835e-06
-0.00013141528 0.00022224229 -7.5798016e-06 -0.0011491261 -0.00027049374 7.275015e-05 0.00011123342 -7.576683e-05
-0.00010890614 7.7330515e-06 -0.00010534356 -0.00010077697 -0.00021236844 8.607059e-05 -8.7187465e-05 0.00015577505
5.934927e-05 -3.6075668e-05 9.92894e-05 -0.00019221414 8.9601635e-05 -3.145546e-06 8.100942e-06 -0.000118898635
1.2488989e-05 1.7389108e-05 6.367107e-05 -0.00012754908 -5.9708556e-05 9.3122864e-05 -1.8937582e-05 -0.00011012796
-0.00010326231 0.000114115835 -6.255128e-05 -3.9353436e-05 5.8128622e-05 -0.00010085451 0.00015531592 -3.3875815e-05
-4.5815603e-05 0.00023788585 -0.00015548267 4.3565167e-05 0.00012503128 0.00017301495 3.1673848e-05 -1.1178363e-05
-0.00045806126 -0.00025367123 7.318662e-05 -6.9058864e-05 0.00015315853 0.00029882637 0.000111929236 -5.1663927e-05
1.3060389e-06 6.286992e-05 -6.418959e-05 5.8263005e-05 0.0009414052 -0.00021567203 0.00018651836 -6.0799222e-05
-8.3980805e-05 6.162697e-05 -5.269292e-05 0.00016401923 3.6580015e-05 -8.795688e-05 7.4334166e-05 -4.086917e-05
5.9014244e-05 2.6431999e-06 -0.00017905349 3.416776e-05 -1.2417704e-05 3.6952046e-05 -3.3449076e-05 8.067855e-06
6.4114116e-05 -2.2038033e-05 0.00013740023 -1.7112292e-05 -1.1530351e-05 -0.00010157075 0.00011226667 -0.00010281339
0.0004691928 -0.00027009053 0.00010876881 -4.4498884e-06 -1.1776188e-05 -0.00017277528 -0.00014398734 3.0693765e-05
-0.00018082684 8.413135e-07 5.0876963e-05 0.00018092366 0.00010923312 0.00015137358 4.4831562e-05 -0.00017897834
3.9839135e-05 -7.850132e-05 5.421804e-05 5.1813866e-05 -0.00021571852 0.00011834791 8.772206e-06 9.704509e-05
00000000: 03c0 ec39 063e bc38 8438 6c38 7c3f b2b8
00000010: 8ac3 5eb7 406c 7fb9 45c5 83b9 2071 af38
00000020: d8f5 5038 52d5 a739 468a 72b9 4579 0738
00000030: 4e6f 9db8 ff45 6cb9 a019 35b8 8894 ffb6
00000040: 85cc 09b9 b609 6939 0056 feb6 469e 96ba
00000050: 0ed1 8db9 7091 9838 fd45 e938 02e5 9eb8
00000060: 8a64 e4b8 34bd 0137 e5eb dcb8 3958 d3b8
00000070: 38af 5eb9 cc80 b438 6ad8 b6b8 8c57 2339
00000080: cbed 7838 f44f 17b8 9739 d038 178d 49b9
00000090: 83e8 bb38 1218 53b6 48e9 0737 3859 f9b8
000000a0: cd87 5137 d3de 9137 2587 8538 b2be 05b9
000000b0: 936f 7ab8 f54a c338 26dc 9eb7 80f4 e6b8
000000c0: 888e d8b8 7951 ef38 f62d 83b8 6e0f 25b8
000000d0: 22cf 7338 da81 d3b8 4ddc 2239 e115 0eb8
000000e0: 212a 40b8 ff70 7939 1009 23b9 beb9 3638
000000f0: d41a 0339 596b 3539 89d9 0438 b48a 3bb7
00000100: f127 f0b9 2dff 84b9 c47b 9938 b2d3 90b8
00000110: 2e99 2039 ccab 9c39 8dbb ea38 b8b1 58b8
00000120: 284b af35 08d9 8338 869d 86b8 6d5f 7438
00000130: a2c8 763a 0526 62b9 2494 4339 ab02 7fb8
00000140: da1e b0b8 ba3d 8138 9802 5db8 94fc 2b39
00000150: 7e6d 1938 7e75 b8b8 dae3 9b38 f06a 2bb8
00000160: 1086 7738 d461 3136 4ec0 3bb9 5a4f 0f38
00000170: a255 50b7 f5fc 1a38 ac4b 0cb8 2c5b 0737
00000180: 0175 8638 51de b8b7 1813 1039 5e8c 8fb7
00000190: 7b72 41b7 6202 d5b8 b670 eb38 859d d7b8
000001a0: fefd f539 f09a 8db9 cf1a e438 4050 95b6
000001b0: 5892 45b7 032b 35b9 4ffb 16b9 2ebd 0038
000001c0: 569c 3db9 a0d6 6135 b964 5538 53b6 3d39
000001d0: 1614 e538 09ba 1e39 8609 3c38 22ac 3bb9
000001e0: f218 2738 13a1 a4b8 2d68 6338 b752 5938
000001f0: 8032 62b9 8d31 f838 562c 1337 b084 cb38
