Assets/Learning/AIRollABall/results/TestParameters/AIRollABall/AIRollABall-6499936.onnx (onnx, 100320 bytes, 9 tensors)

network_body._body_endoder.seq_layers.0.weight f4 [128, 47]
0	0x3e419144	0.1890307
1	0x3ed7b353	0.42129
2	0x3d4f88ef	0.0506677
3	0x3c0784e1	0.008271427
4	0x3cbab553	0.02279154
5	0x3eb0d82b	0.34539923
6	0x3cdeac38	0.02718173
7	0x3df9ed47	0.1220346
8	0xbd87c6a3	-0.06629684
9	0xbdb90480	-0.090340614
10	0x3e413ade	0.18870112
11	0x3e17532a	0.14777818
12	0x3ce7718d	0.028252387
13	0x3e82b033	0.25525054
14	0x3e7537e7	0.23947106
15	0x3ddd2dac	0.10799727
16	0x3e76efde	0.2411494
17	0x3c46b43c	0.012127932
18	0xbbca0173	-0.0061647235
19	0xbda5e3f1	-0.08100117
20	0xbdfe1e9c	-0.12408182
21	0xbe2d9d30	-0.16954494
22	0x3dbce147	0.09222656
23	0x3d3ff510	0.04686457
24	0xbe0d9222	-0.13825276
25	0x3e78f94f	0.24313854
26	0x3d5880da	0.052857257
27	0xbde1d40d	-0.110267736
28	0xbd143a96	-0.036188684
29	0x3ed50d29	0.41611603
30	0x3e95f6cb	0.2928985
31	0xbe33b868	-0.17550814
32	0xbc4422c7	-0.011971182
33	0xbbba1294	-0.005678484
34	0x3d3f433e	0.046694987
35	0x3c3ea68e	0.011636389
36	0x3db3ad11	0.08773244
37	0xbc967765	-0.018367479
38	0xbd970cfb	-0.07375523
39	0xbe924cfd	-0.28574362
40	0x3db49a14	0.088184506
41	0x3e80cd52	0.25156647
42	0xbc170ddc	-0.009219613
43	0xbe95ca22	-0.29255778
44	0xbe879ef4	-0.2648846
45	0x3e06414d	0.13110848
46	0x3f0b06cd	0.5430725
47	0x3de8539d	0.11344073
48	0xbc907b6c	-0.017636977
49	0xbc194b06	-0.009356266
50	0x3eebee96	0.46080464
51	0x3cf40610	0.029788047
52	0xbd88ce66	-0.066799924
53	0x3ca264c5	0.019823441
54	0x3d849cdf	0.06475233
55	0xbda4a886	-0.08039956
56	0xbe8ad31e	-0.27114195
57	0x3d55df66	0.052215002
58	0xbe0930ce	-0.13397524
59	0x3d87eaf5	0.06636611
60	0x3d457231	0.048204605
61	0x3e76e474	0.24110585
62	0x3e532576	0.20619759
63	0x3e059d58	0.13048303
64	0xbe44543e	-0.19172761
65	0xbe3b7263	-0.18305354
66	0xbc5c1b48	-0.013434239
67	0x3d97e9c8	0.07417637
68	0x3ddbb29d	0.10727427
69	0x3c9d42d0	0.019196898
70	0x3db77661	0.08958126
71	0xbccb50c4	-0.024818785
72	0xbdfc224d	-0.1231123
73	0xbd7575ad	-0.059926677
74	0xbe60db99	-0.2195877
75	0xbb900271	-0.0043948223
76	0x3d1bfcdf	0.038082954
77	0x3dc1b23f	0.09457826
78	0x3e1f3f70	0.15551543
79	0x3de4028f	0.111333005
80	0xbd5c3a01	-0.053766254
81	0xbd0df36a	-0.034655966
82	0xbe487f90	-0.19579911
83	0x3d4547ed	0.048164297
84	0x3d5f54ae	0.054524116
85	0x3d906115	0.07049767
86	0x3c34f755	0.011045297
87	0xbbf41013	-0.0074482053
88	0xbe09a806	-0.13443002
89	0x3d4bb2f2	0.049731202
90	0xbe7a705d	-0.24456926
91	0xbe03c3f1	-0.12867714
92	0xbdb66cf0	-0.08907497
93	0x3ec0fada	0.37691385
94	0xbddb06f4	-0.106946856
95	0x3e816e3b	0.25279412
96	0x3e3b8e20	0.18315935
97	0x3d2c736f	0.042102274
98	0x3d24861d	0.040166963
99	0x3cb26cb4	0.02178035
100	0xbdff1426	-0.12455015
101	0x3e434d6e	0.19072506
102	0xbce401d4	-0.027832903
103	0x3d3b5b4a	0.045741357
104	0xbd6f2109	-0.058381114
105	0x3c1067a8	0.008813776
106	0x3edcce87	0.43126318
107	0x3d30b31e	0.04313957
108	0xbe8d241e	-0.27566618
109	0xbe1909ad	-0.14945097
110	0xbe001b15	-0.12510331
111	0x3d4aa08e	0.049469523
112	0x3d0b163c	0.03395675
113	0xbc20ad29	-0.00980691
114	0x3c1f2a85	0.009714727
115	0x3e7e0f7b	0.24810593
116	0x3e6d271a	0.23159447
117	0xbe2c7239	-0.16840447
118	0xbd786270	-0.060640752
119	0xbd5746c9	-0.05255774
120	0x3db0ccdc	0.08632824
121	0xbe7cdbac	-0.24693173
122	0x3ddd1112	0.107942715
123	0x3c0a3f4e	0.008437945
124	0x3c634024	0.013870273
125	0xbd96c9a1	-0.073626764
126	0x3c89df3f	0.016830085
127	0xbe1c6e04	-0.15276343
128	0x3db4038c	0.08789739
129	0xbe540317	-0.20704304
130	0x3dcad2d3	0.09903493
131	0x3def654e	0.11689244
132	0x3d3030a6	0.043015145
133	0xbd6f9089	-0.05848745
134	0x3e1294d1	0.14314581
135	0xbe899425	-0.26870838
136	0x3d41eee8	0.04734698
137	0x3d9bd875	0.07609645
138	0x3ee729ba	0.45149022
139	0x3d32ff65	0.043700594
140	0x3eb76429	0.35818604
141	0xbe16178c	-0.1465742
142	0xbede1d5c	-0.43381774
143	0xbd74fb68	-0.059810072
144	0x3da64ebe	0.08120488
145	0x3cdc2e9d	0.026877696
146	0xbe0d1567	-0.13777696
147	0x3d645727	0.055747177
148	0xbd4130b6	-0.047165595
149	0x3cad4cd2	0.021154795
150	0xbe133fbc	-0.14379781
151	0xbe13d74d	-0.144376
152	0x3e6997f7	0.22811876
153	0x3e4ec88e	0.20193693
154	0xbe1a0fc2	-0.15045074
155	0x3d8e5cfe	0.069513306
156	0x3c5a22fc	0.013314005
157	0x3d70ad58	0.058759063
158	0xbe1900c3	-0.14941697
159	0xbd87eb42	-0.06636669
160	0xbe71ec4a	-0.23625293
161	0xb7c6ee96	-2.371454e-05
162	0x3e1bbae2	0.15208009
163	0x3cd09be2	0.025464956
164	0xbe1a7ec5	-0.15087421
165	0xbe918e2b	-0.28428778
166	0xbdb6dca9	-0.08928806
167	0x3e101da2	0.14073804
168	0xbd292cb6	-0.041302405
169	0xbd4be947	-0.049783017
170	0x3e8f398e	0.27973598
171	0xbe038aba	-0.12845889
172	0xbd048d36	-0.03236123
173	0x3d61aacb	0.05509452
174	0x3d144837	0.036201682
175	0xbe85a182	-0.26099783
176	0xbd8ce9dc	-0.06880543
177	0xbc859fb0	-0.016311496
178	0x3dc6f008	0.09713751
179	0x3c21441c	0.009842899
180	0x3ac42c8f	0.0014966893
181	0x3e4651ca	0.19367138
182	0x3ce26ef3	0.027640795
183	0x3c45dc41	0.012076438
184	0x3dee01db	0.11621448
185	0xbd9ae940	-0.0756402
186	0x3ea11c7f	0.31467053
187	0x3df0ee2c	0.11764178
188	0xbda0981b	-0.07841512
189	0xbe0f1acb	-0.13975064
190	0xbe8ce635	-0.27519384
191	0xbd7fa3e9	-0.062412176
192	0xbe6f47df	-0.2336726
193	0x3dc722f6	0.09723465
194	0xbc9b7c33	-0.018980121
195	0xbe8083ac	-0.25100458
196	0xbdb9ad0e	-0.09066211
197	0x3d0604e3	0.032719504
198	0x3e42170f	0.18954109
199	0xbd11a2dc	-0.035555705
200	0xbd40e407	-0.047092464
201	0xbdc079ba	-0.093982175
202	0x3e47e86e	0.19522259
203	0xbe0cdeda	-0.13756886
204	0x3e2d7393	0.1693862
205	0xbc4928da	-0.012277806
206	0x3de90e02	0.11379625
207	0xbe1425d6	-0.14467558
208	0x3c884c4c	0.016637944
209	0x3d68dd81	0.056851868
210	0xbe89da47	-0.26924345
211	0x3e3a3071	0.18182541
212	0x3e060c33	0.13090591
213	0x3e091d9e	0.13390204
214	0xbd0ae579	-0.03391025
215	0x3dbb9745	0.09159712
216	0x3e4c1a9e	0.19932029
217	0xbe1818b0	-0.14853168
218	0x3ade7f6f	0.0016975234
219	0xbccfdff7	-0.02537535
220	0x3b1efb84	0.0024258802
221	0x3bf1991f	0.00737299
222	0xbdd88e4a	-0.105740145
223	0xbdc1df62	-0.09466435
224	0xbe545bfb	-0.20738213
225	0xbd8ca138	-0.068666875
226	0x3e209fd1	0.15685965
227	0xbe076a03	-0.13224034
228	0x3e15e749	0.1463901
229	0x3b9fd4b1	0.0048776497
230	0x3e8ee53c	0.27909267
231	0x3e848138	0.25879836
232	0x3e57bf92	0.21069172
233	0x3d287248	0.041124612
234	0xbe6a995f	-0.22910069
235	0xbe953d77	-0.29148456
236	0x3dfa4572	0.12220277
237	0xbdce0fa7	-0.10061579
238	0x3c0d5038	0.008625083
239	0xbd11139c	-0.03541909
240	0xbd2631c0	-0.04057479
241	0xbba29283	-0.004961313
242	0x3e680a99	0.22660293
243	0xbe2197e0	-0.15780592
244	0x3e7fb22f	0.24970315
245	0xbd99aa91	-0.07503236
246	0xbd2da1cd	-0.042390633
247	0x3dc88673	0.09791269
248	0xbe05b024	-0.13055474
249	0x3e18b260	0.14911795
250	0xbddeae79	-0.10873122
251	0x3dc23fcc	0.094848245
252	0x3e6e116a	0.2324883
253	0xbd5c9f89	-0.053863082
254	0xbd9ee565	-0.07758597
255	0x3e308c01	0.17240907

network_body._body_endoder.seq_layers.0.bias f4 [128]
0	0x3d9679bc	0.07347438
1	0x3c866dc7	0.016409768
2	0x3c9ce212	0.019150767
3	0xbd5caeff	-0.053877827
4	0xbd06b611	-0.032888476
5	0x3d1083b5	0.035281856
6	0x3d873e50	0.06603682
7	0xbd99ead1	-0.07515491
8	0xbb9cb28f	-0.004782028
9	0x3d897634	0.067119986
10	0x3d98c61a	0.0745966
11	0xbd5ea144	-0.054353014
12	0xbd3eafd6	-0.04655441
13	0x3a691007	0.0008890633
14	0xbd15de14	-0.036588743
15	0xbc91e4bd	-0.017809266
16	0x3d47ee1c	0.048811063
17	0xbc8e7c0d	-0.017393136
18	0xbbeba879	-0.0071917144
19	0x3db10a3c	0.0864453
20	0xbd239fcd	-0.03994732
21	0xbba693cd	-0.005083537
22	0x3cc6a554	0.024248756
23	0xbcc56eec	-0.024100743
24	0xbbcb0bf4	-0.0061964933
25	0xbda129f2	-0.078693286
26	0xbca0a5b0	-0.019610256
27	0x3c15070b	0.009095917
28	0x3c5c4f4b	0.013446639
29	0xbd5f1cb8	-0.054470748
30	0x3c55aa59	0.013041102
31	0xbcc9f46f	-0.024652688
32	0xbb0c0c20	-0.0021369532
33	0x3b5dbf77	0.0033836046
34	0xbcf8f7c6	-0.030391585
35	0xbcc0f78e	-0.023555543
36	0xbd96e7cd	-0.07368431
37	0xbd8acc59	-0.067772575
38	0xbc39a2cf	-0.0113303205
39	0xbd70ca60	-0.05878675
40	0xbbaebf81	-0.0053328876
41	0xbce0157d	-0.027353996
42	0xbd329d09	-0.04360679
43	0xbc8bd3ab	-0.017068705
44	0xbda3a4ae	-0.079903945
45	0x3d001a4c	0.03127508
46	0xbce9d6e0	-0.028544843
47	0xbcd24855	-0.025669256
48	0x38205ebe	3.823521e-05
49	0xbd0f0510	-0.034916937
50	0xbc86f5a8	-0.01647456
51	0xbdbc9128	-0.09207374
52	0xbd581767	-0.052756693
53	0x3d002776	0.031287633
54	0x3c3d2afa	0.011545891
55	0xbd1d1acb	-0.03835563
56	0x3d874b96	0.06606214
57	0xbb682ca4	-0.0035426999
58	0xbdaf30a9	-0.08554203
59	0xbcca0cc8	-0.024664298
60	0xbbde61ce	-0.0067865616
61	0x39d789f6	0.00041110785
62	0xbcf05134	-0.029335596
63	0x3a416f5d	0.000737896
64	0x3dc650f6	0.09683411
65	0x3d608f6e	0.054824285
66	0xbd829a0e	-0.0637704
67	0x3d3f10b8	0.046646804
68	0xbc8020a4	-0.015640564
69	0x3c87254d	0.016497279
70	0xbd22bce5	-0.039730925
71	0x3d8e3159	0.06943006
72	0xbd1f481a	-0.03888712
73	0xbd086283	-0.033297073
74	0xbc29f396	-0.010373017
75	0xbc812b3b	-0.015767684
76	0x3dc85410	0.09781659
77	0x3d55d945	0.052209157
78	0xbcd344d5	-0.025789658
79	0xbcbca4be	-0.023027774
80	0x3c66a19e	0.0140766185
81	0xbdb93840	-0.09043932
82	0x3c0313e5	0.008000349
83	0xbd415405	-0.047199268
84	0xbc9e50cd	-0.019325638
85	0x3a888a3b	0.0010417172
86	0xbd93355f	-0.07187914
87	0x3d21c370	0.039493024
88	0xbb9c67d0	-0.0047731176
89	0xbc8dbb20	-0.017301142
90	0x3bf7d25c	0.0075629186
91	0x38adc3f1	8.28578e-05
92	0xbc063ad6	-0.0081927385
93	0xbb56cec0	-0.0032777041
94	0xbd9bf9c3	-0.07615998
95	0x3b32537f	0.0027210412
96	0xbc07403e	-0.008255063
97	0xbd53fcdd	-0.05175482
98	0xbd33a0a0	-0.043854356
99	0x3d002d98	0.03129348
100	0xbd91bf5d	-0.07116578
101	0x3bab48a9	0.0052271676
102	0xbc7fb5ed	-0.015607339
103	0x3d07da00	0.033166885
104	0x3ccbb4c6	0.024866473
105	0x3c7d8d7d	0.015475628
106	0xbc454753	-0.012040931
107	0xbd45e1e7	-0.04831114
108	0xbdb88e35	-0.09011499
109	0xbc3a0b86	-0.011355286
110	0x3c6ede09	0.0145793045
111	0xbd3f8d81	-0.046765808
112	0x3d86993f	0.06572198
113	0xbd5304ea	-0.05151836
114	0xbc95d074	-0.018287875
115	0xbb9723a8	-0.004612405
116	0x3cc451fd	0.023964876
117	0x3d9119cb	0.07084998
118	0xbd170418	-0.03686914
119	0x3a484925	0.0007640294
120	0xba99348b	-0.0011688633
121	0xbd7c48e2	-0.061592944
122	0xbc201716	-0.009771129
123	0xbcf9bdf3	-0.030486083
124	0xbc5dc6e0	-0.013536185
125	0xbd3e208e	-0.046417765
126	0xbc731def	-0.01483868
127	0xbb1c3cc1	-0.0023839923

network_body._body_endoder.seq_layers.2.weight f4 [128, 128]
0	0xbda470aa	-0.080293015
1	0x3d8f674f	0.070021264
2	0x3d596101	0.053071026
3	0xbd813b8d	-0.063101865
4	0xbd914e9b	-0.07095071
5	0x3cf0633b	0.029344192
6	0xbd5b621f	-0.053560372
7	0xbaca8c86	-0.0015453256
8	0xbda123ad	-0.07868133
9	0x3c38dad1	0.011282639
10	0x3da96799	0.08271713
11	0x3d3df872	0.046379514
12	0x3beb06c9	0.0071724397
13	0xbd2d8d85	-0.04237129
14	0xbdd00471	-0.10157097
15	0x3d47eca6	0.04880967
16	0xb8d635de	-0.00010214349
17	0xbe54a5a6	-0.20766315
18	0x3cb357e1	0.02189249
19	0x3e8d11bc	0.27552593
20	0xbde8fcef	-0.11376368
21	0x3d1186cf	0.035528954
22	0xbe13b15b	-0.14423124
23	0xbdcde6eb	-0.1005381
24	0x3be9d3a9	0.0071358276
25	0x3cd7288b	0.02626445
26	0xbe19e47c	-0.15028566
27	0xbdc620de	-0.09674238
28	0xbc7a120f	-0.015263095
29	0x3d16c95e	0.036813132
30	0xbe0d5229	-0.13800873
31	0xbdf21d03	-0.1182194
32	0x3d8b98d8	0.06816262
33	0xbbb1fafa	-0.00543153
34	0xbe35faea	-0.17771497
35	0x3dce119f	0.10061955
36	0xbc9d0e2e	-0.0191718
37	0xbca3616f	-0.01994392
38	0xbe1f0eec	-0.15533036
39	0xbcbae9e2	-0.022816602
40	0xbde54eb2	-0.111966506
41	0xbe45e20d	-0.19324513
42	0x3ccb4b47	0.024816168
43	0x3ce8e629	0.028430061
44	0xbdc39ecd	-0.09551773
45	0x3c680294	0.014160771
46	0xbd4a6998	-0.04941711
47	0xbd9b68c6	-0.07588343
48	0x3c305d2c	0.010764401
49	0xbdb26c43	-0.087120555
50	0xbd19a505	-0.03751089
51	0x3e0e6007	0.13903819
52	0x3c825a88	0.01591231
53	0xbe0cfc9e	-0.13768241
54	0xbe8ea165	-0.2785751
55	0x3d743e93	0.059629988
56	0x3e3a136e	0.18171474
57	0xbcd7ff20	-0.02636677
58	0xbe69b773	-0.22823887
59	0x3c7e6932	0.01552801
60	0xbd97f73f	-0.07420205
61	0x3d39c832	0.045356937
62	0x3d2994a8	0.041401535
63	0x3df4f798	0.11961287
64	0x3e54a42e	0.20765755
65	0x3e007701	0.12545396
66	0x3ce1a2c5	0.027543435
67	0x3ddb44c8	0.10706478
68	0xbe4d2ef3	-0.20037441
69	0x3ca121ad	0.019669378
70	0x3dd41b88	0.10356814
71	0xbd841156	-0.06448619
72	0xbdd21491	-0.10257829
73	0x3d5f5686	0.054525875
74	0x3dca98ab	0.098924
75	0x3d72811a	0.059205152
76	0xbda4f9dc	-0.080554694
77	0x3b862164	0.004093336
78	0x3e350d87	0.17680942
79	0xbd8727f0	-0.06599414
80	0xbd304a46	-0.043039583
81	0xbdb2f514	-0.08738151
82	0x3db5d65f	0.08878779
83	0x3d8c17b2	0.06840457
84	0x3cca0fca	0.024665732
85	0xbb26b5fe	-0.0025438066
86	0xbc9e196d	-0.019299233
87	0x3d7da7fb	0.061927777
88	0x3e2e0ffd	0.16998287
89	0xbdd3c229	-0.103397675
90	0x3e0e75c7	0.13912116
91	0xbc24034e	-0.0100105535
92	0xbb403261	-0.0029326903
93	0xbe3cfcf0	-0.18455863
94	0xbde700d0	-0.11279452
95	0x3dec9485	0.11551765
96	0x3c74907b	0.014927025
97	0xbd2adefe	-0.04171657
98	0xbe0ab393	-0.13545065
99	0xbe17dd0d	-0.14830418
100	0x3dae5703	0.0851269
101	0x3de7fdee	0.1132773
102	0xbe0e5fa2	-0.13903669
103	0xbd7e048a	-0.062016048
104	0xbdf89611	-0.12137998
105	0x3da14c01	0.07875825
106	0x3caee17d	0.021347756
107	0x3d490b96	0.049083315
108	0x3e0300ca	0.1279327
109	0x3d4eda1d	0.050500978
110	0xbc5bf9d4	-0.013426263
111	0xbe319b22	-0.17344335
112	0xbd4088d2	-0.047005482
113	0xbdd5e239	-0.10443539
114	0x3c9530d5	0.018211761
115	0xbda4b938	-0.0804314
116	0xba557f06	-0.0008144233
117	0xbe2421b4	-0.16028482
118	0x3d53278d	0.05155139
119	0x3d6a9221	0.057268266
120	0xbd33c32f	-0.043887313
121	0xbdf79c4b	-0.120903574
122	0xbdb82958	-0.08992261
123	0x3bf42993	0.007451245
124	0xbb839795	-0.0040158727
125	0xbdfd6397	-0.12372511
126	0x3d389f57	0.045073833
127	0xbe3a84bd	-0.18214698
128	0x3d361deb	0.044462126
129	0xbd3bb354	-0.045825318
130	0xbde60cf8	-0.11232942
131	0x3d401810	0.046897948
132	0xbdc6b810	-0.09703076
133	0x3d833f2a	0.06408532
134	0xbe156463	-0.14589076
135	0xbe7e65ef	-0.24843572
136	0x3d10498f	0.0352264
137	0x3d88b019	0.06674213
138	0xbc97351b	-0.01845794
139	0xbd17fb96	-0.037105165
140	0x3ce3b4cb	0.02779617
141	0x3db8f5ae	0.09031235
142	0x3d87d8dc	0.066331595
143	0x3d3dda5f	0.046350833
144	0xbd721d1a	-0.059109785
145	0xbd03f275	-0.032213647
146	0x3e000a25	0.1250387
147	0xbe0a480e	-0.13504049
148	0x3be7a037	0.0070686596
149	0x3d5c7205	0.053819675
150	0x3dbe2bbb	0.09285685
151	0xbdc3172d	-0.09525905
152	0x3dda37e0	0.106551886
153	0xbc3cd9f1	-0.011526571
154	0xbd3e46a6	-0.046454094
155	0xbe1c00fa	-0.15234748
156	0xbe1a92a6	-0.15095004
157	0x3ca9ac45	0.020712027
158	0xbe4d94ff	-0.20076369
159	0x39a36537	0.00031165194
160	0xbd5375f3	-0.051626157
161	0xbe04ea92	-0.12980106
162	0x3d7f4a38	0.06232664
163	0xbc79ac4b	-0.015238832
164	0xbd27afff	-0.040939327
165	0x3dba7b41	0.0910554
166	0x3d29befe	0.04144191
167	0xbe0a0a01	-0.13480379
168	0xbd2c6705	-0.042090435
169	0xbe183c5e	-0.14866778
170	0x3c990a9a	0.018681813
171	0xbd35d7b3	-0.04439516
172	0xbda24c43	-0.07924702
173	0xbc289bf3	-0.010291087
174	0xbb5ca07e	-0.0033664997
175	0x3df3a799	0.11897201
176	0xbd935556	-0.07194011
177	0x3e1d2197	0.15344845
178	0xbdc3affe	-0.09555052
179	0xbdd6d361	-0.10489536
180	0xbbc83707	-0.0061100754
181	0x3d082f04	0.033247963
182	0xbdb8d7e5	-0.090255536
183	0x3d7ba720	0.06143868
184	0x3b81408a	0.0039444612
185	0x3d70ae7b	0.058760148
186	0x3cdd1688	0.026988283
187	0x3c8068df	0.015675006
188	0x3dc7f632	0.09763755
189	0xbd5bde24	-0.053678647
190	0xbc8874ab	-0.016657194
191	0x3d81d072	0.06338586
192	0x3e27392b	0.16330402
193	0x3df216ea	0.11820777
194	0x3e141644	0.14461619
195	0x3d9347da	0.07191439
196	0x3d78eff0	0.060775697
197	0xbcb6805e	-0.022278007
198	0x3dbf24ed	0.09333215
199	0x3c187fdd	0.009307829
200	0xbdf96879	-0.1217813
201	0xbdbf9afb	-0.09355732
202	0xbe137a6a	-0.14402166
203	0xbd337bf3	-0.04381938
204	0x3e565e3a	0.20934382
205	0xbca89245	-0.02057756
206	0x3d831ae1	0.06401611
207	0xbe1f3842	-0.15548804
208	0x3c912a81	0.017720463
209	0xbd982b0c	-0.074300855
210	0xbdb02b36	-0.08601992
211	0x3e41a778	0.1891154
212	0x3d98fce3	0.07470109
213	0xbdac3ae5	-0.08409671
214	0xbc1a7839	-0.009428077
215	0xbce90730	-0.02844581
216	0x3cee3722	0.029079024
217	0xbe8431f9	-0.25819376
218	0x3d8e53d2	0.06949581
219	0xbd9fa5f1	-0.07795323
220	0x3e480d42	0.19536307
221	0x3d215b42	0.03939367
222	0xbd707530	-0.05870551
223	0xbde40c8d	-0.11135206
224	0xbe200417	-0.1562656
225	0x3caca1c1	0.021073224
226	0xbd22d76d	-0.039756227
227	0x3d4126b0	0.047156036
228	0x3e2cfec2	0.16894057
229	0xbc1646b0	-0.009172127
230	0x3c713560	0.014722198
231	0x3d70f65b	0.058828693
232	0x3e203122	0.15643743
233	0xbd858404	-0.065193206
234	0xbdbedca1	-0.093194254
235	0xbc805e45	-0.015669951
236	0xbdf96fd6	-0.12179534
237	0xbe3e7b35	-0.18601687
238	0x3e0de925	0.13858469
239	0x3c1b4646	0.009477204
240	0x3cc3a361	0.023881616
241	0xbd309dc4	-0.043119207
242	0xbe8c1e76	-0.2736699
243	0xbc80247e	-0.0156424
244	0xbd070df1	-0.03297228
245	0xbd884175	-0.0665311
246	0x3e377cd1	0.17918707
247	0xbe38e02d	-0.18054266
248	0x3d631319	0.055438135
249	0xbdc506e7	-0.09620457
250	0x3e3b90ba	0.18316928
251	0xbc95f00b	-0.018302938
252	0xbda63a29	-0.08116562
253	0x3df1aeea	0.1180094
254	0x3d5ac5a2	0.053411134
255	0xbb25199a	-0.0025192262

network_body._body_endoder.seq_layers.2.bias f4 [128]
0	0x3d8e9cd0	0.06963503
1	0xbc97aa6d	-0.018513883
2	0xbab9b2b1	-0.0014167634
3	0xbbf7e46e	-0.0075650727
4	0xbc1f8f61	-0.009738774
5	0xbd0431e8	-0.032274157
6	0xbd13a39a	-0.036044694
7	0xbbd66557	-0.0065428424
8	0x3a3a7148	0.0007112217
9	0xbc566c69	-0.01308737
10	0xbc795bb1	-0.015219615
11	0x3ce42f3f	0.02785456
12	0xbb060814	-0.0020451592
13	0xbcaf715c	-0.021416359
14	0x3db8769b	0.09006997
15	0x3c6de7d7	0.014520607
16	0xbccf527d	-0.025307888
17	0x3a82d14f	0.0009980592
18	0xbbcca61c	-0.0062453877
19	0x3d1d85b1	0.038457576
20	0xbd01e1a5	-0.031709332
21	0x3b8e9f96	0.00435252
22	0xbc1b6cd3	-0.009486395
23	0x3cb1dd83	0.02171207
24	0x3c9906d3	0.018680012
25	0x3c1e3612	0.009656446
26	0x3c2145e8	0.009843327
27	0x3d235d08	0.039883643
28	0xbd220906	-0.039559387
29	0xbc668855	-0.01407059
30	0x3e205665	0.15657957
31	0xbd33257c	-0.04373692
32	0x3cea821d	0.028626496
33	0xbca577cb	-0.020198723
34	0xbcd02dcc	-0.025412463
35	0x3c8adff1	0.016952487
36	0xbd08092b	-0.03321187
37	0xbc9ad093	-0.018898284
38	0x3d7bdc71	0.061489526
39	0x3cf332d7	0.029687328
40	0xbcf58aa4	-0.029973336
41	0xbc02d7fa	-0.007986063
42	0x3ba035a2	0.004889206
43	0x3a838d99	0.0010036706
44	0xbb22e151	-0.0024853537
45	0xbc993ba2	-0.018705193
46	0x3b0edf35	0.0021800522
47	0x3c3092fa	0.010777229
48	0xbc82fe40	-0.015990376
49	0x3dbac4ab	0.09119543
50	0x3d9c293c	0.07625052
51	0x3d5c5cfb	0.05379961
52	0x3c9bdf98	0.019027516
53	0xbc997969	-0.01873465
54	0xbc4738c0	-0.012159526
55	0xbc0390b9	-0.00803011
56	0x3d34c8c5	0.04413678
57	0xbc93d702	-0.01804686
58	0x3d261ea2	0.040556557
59	0x3e0bf24c	0.13666648
60	0x3bab09a9	0.0052196574
61	0x3a101232	0.00054958754
62	0xb9f3328b	-0.0004638623
63	0x3c7887bc	0.01516908
64	0x3d77f586	0.060536884
65	0xbb981fe7	-0.004642475
66	0x3d04ba8f	0.03240448
67	0x3d08e1bb	0.0334184
68	0xbbddb455	-0.006765882
69	0x3d1712c9	0.03688315
70	0x3d6e3b82	0.05816222
71	0x3d4693ac	0.048480675
72	0x3bccbfd6	0.0062484546
73	0x3ccc7fce	0.024963286
74	0xbc701b16	-0.014654895
75	0x3cdd61c8	0.027024165
76	0x3b383625	0.0028108445
77	0xbbe5deca	-0.007015084
78	0xbc31597b	-0.010824556
79	0x3cc7a71c	0.024371676
80	0x3cdcba75	0.026944378
81	0x3bab30d6	0.0052243276
82	0xbc06ed48	-0.008235283
83	0x3db88774	0.09010211
84	0x3cb00de9	0.021491008
85	0xbd1d0fa2	-0.038344987
86	0x3dd949ab	0.10609754
87	0x3e4f4535	0.20241244
88	0xbc265324	-0.010151658
89	0x3c36ebb6	0.011164596
90	0x3d0c7d88	0.034299403
91	0xbb5d42cb	-0.0033761736
92	0xbd06ad24	-0.032879964
93	0x3de593ca	0.11209829
94	0xbcaaa319	-0.020829724
95	0xbca0635b	-0.019578626
96	0x3c37a58a	0.011208901
97	0xbc1823f7	-0.009285918
98	0xbcc66060	-0.024215877
99	0xbd0d7428	-0.034534603
100	0x3d17923c	0.037004694
101	0x3cdab5ec	0.026698075
102	0x3c2a48cf	0.0103933355
103	0x3c35d4fa	0.011098141
104	0x3cfd7bc6	0.030942809
105	0x3d10da1f	0.035364266
106	0x3c3f362f	0.011670633
107	0xbc547b52	-0.012968855
108	0x3c9b186d	0.018932546
109	0xbbf4fdec	-0.007476559
110	0xbc627c17	-0.013823531
111	0xb9ed56e3	-0.00045268898
112	0xbbf7f89f	-0.0075674797
113	0x3d171cdd	0.03689276
114	0xbc0e271a	-0.008676315
115	0x3d12308d	0.035690833
116	0xbaf27c40	-0.0018500164
117	0x3c4dbce2	0.01255724
118	0xbcb9348c	-0.022608064
119	0xba1ee6aa	-0.00060615933
120	0xbc96727d	-0.01836514
121	0xbc05c2f5	-0.008164157
122	0xbb7f4ae1	-0.0038954543
123	0xbb8badc8	-0.0042626597
124	0xbca276aa	-0.019831974
125	0xbcc895e0	-0.024485528
126	0x3d57eb28	0.052714497
127	0x3cedf8be	0.029049274

action_model._continuous_distribution.log_sigma f4 [1, 3]
0	0xbea6c08c	-0.32568777
1	0xbe9bc83d	-0.30426207
2	0xbd51e53c	-0.051244006

action_model._continuous_distribution.mu.weight f4 [3, 128]
0	0x3c938a7a	0.018010367
1	0xbd6b3145	-0.057420034
2	0xbcca677c	-0.024707548
3	0x3bc09c9a	0.0058780434
4	0xbd05e36e	-0.032687597
5	0xbc5bf738	-0.013425641
6	0x3cca4a7b	0.024693718
7	0x3cf25c1d	0.029584939
8	0x3cf247a9	0.029575186
9	0x3c32d281	0.010914446
10	0xbd191700	-0.03737545
11	0x3d1d2eba	0.03837464
12	0xbc75f291	-0.015011446
13	0xbc93630d	-0.017991567
14	0x3d016bfe	0.03159713
15	0x3d39f58e	0.045400195
16	0x3ca7b207	0.020470632
17	0xbbc0cc01	-0.005883694
18	0xbb3e6032	-0.0029049036
19	0xbe16b3fd	-0.14717098
20	0xbd0ac899	-0.03388271
21	0xbc1e405e	-0.009658901
22	0x3cf26699	0.029589938
23	0x3c539b1e	0.012915401
24	0x3d0a2c72	0.033733793
25	0x3b703fcb	0.0036659117
26	0x3c3f3879	0.011671179
27	0x3d1dfb5a	0.038569786
28	0xbc26274e	-0.010141207
29	0xbcf4e4d8	-0.029894277
30	0x3dd66756	0.104689285
31	0x3c6cb3f1	0.014447198
32	0xbdeda31f	-0.116033785
33	0xbcd137d7	-0.025539322
34	0x3d274860	0.040840507
35	0xb93d8c80	-0.00018076785
36	0x3ceefd4e	0.02917352
37	0x3c3369c5	0.01095051
38	0xbca8e533	-0.020617103
39	0xbe035c60	-0.12828207
40	0xbceef61a	-0.029170085
41	0x3d63ae93	0.05558641
42	0xbd00f0a8	-0.031479508
43	0xbc8dfba7	-0.017331911
44	0x3c735342	0.014851393
45	0x3c63f48e	0.013913287
46	0x3c43ae15	0.01194336
47	0xbcd0556e	-0.025431361
48	0xbcfb054f	-0.03064218
49	0xba5979da	-0.00082960504
50	0xbe789449	-0.24275316
51	0x3d9a22ab	0.07526144
52	0x3c8c7715	0.017146626
53	0xbd58848b	-0.052860778
54	0x3ca6c15b	0.020355871
55	0xbc0a028b	-0.008423458
56	0xbd239eff	-0.039946552
57	0xbcc86af0	-0.024465054
58	0xbc416ecf	-0.011806204
59	0x3df01650	0.11723006
60	0x3cb68d10	0.02228406
61	0x3c6a5a06	0.01430369
62	0xbbd7db61	-0.0065874313
63	0x3cb46c37	0.022024257
64	0x3d833a3e	0.06407593
65	0x3bf38d47	0.007432613
66	0xbdb6c22f	-0.08923756
67	0xbc9b9a8a	-0.018994588
68	0x3a7a6ce8	0.00095529715
69	0x3d42b0ca	0.04753188
70	0x3dc74194	0.09729305
71	0x3d1fa448	0.03897503
72	0xb98b1b0d	-0.000265323
73	0xba3fee04	-0.0007321539
74	0xbc090b33	-0.0083644865
75	0x3ce718fd	0.028210158
76	0x3bffea04	0.0078098793
77	0xbc0c1625	-0.008550202
78	0xbd1e0d5c	-0.03858696
79	0x3d2e6eb5	0.042586047
80	0xbcbe5bba	-0.023237098
81	0x3ab0832d	0.0013466828
82	0xbc817e32	-0.015807245
83	0x3dfebb00	0.12438011
84	0x3c9fabe9	0.019491153
85	0x3b372ae7	0.0027949156
86	0x3d5aa877	0.053383317
87	0x3e28b647	0.16475783
88	0x3baa5758	0.0051984005
89	0xbbdcf1c2	-0.006742687
90	0xbdeb4d58	-0.114893615
91	0xb904801c	-0.00012636225
92	0xbb9d019d	-0.004791452
93	0xbdce9d97	-0.100886516
94	0x3c964874	0.018345095
95	0x3d2aecca	0.041729726
96	0xbc6cc177	-0.0144504225
97	0xbd3300d3	-0.043701958
98	0x3cb14618	0.021639869
99	0xbc765028	-0.015033759
100	0x3ca3e4d1	0.02000657
101	0xbe069afa	-0.13145056
102	0xbcd98b36	-0.026555639
103	0xbc6d137b	-0.014469977
104	0xbdc58de6	-0.096462056
105	0xbdfad0e0	-0.12246871
106	0xbdbc5c41	-0.091972835
107	0x3a9be6d2	0.0011894351
108	0xbbd97870	-0.0066366717
109	0x3c9efe14	0.019408263
110	0xbcda0a46	-0.026616227
111	0x3a79cdae	0.0009529245
112	0xbc967e27	-0.018370701
113	0x3cda1984	0.026623495
114	0xbc7cf80a	-0.0154399965
115	0x3b6b6271	0.003591683
116	0xbd28fcd4	-0.04125674
117	0x3cb1a390	0.021684438
118	0xbc078d9d	-0.008273509
119	0xbc27b6a0	-0.010236412
120	0xbbd98594	-0.006638238
121	0x3c1ea181	0.00968206
122	0xbc3ed237	-0.011646799
123	0x3cb963cc	0.022630595
124	0x3bd5fdaf	0.0065304856
125	0xbc8e6de6	-0.017386388
126	0xbe077144	-0.13226801
127	0xbc95385d	-0.018215353
128	0xbe07fed8	-0.13280809
129	0x3c645710	0.013936773
130	0x3b3396c8	0.0027403105
131	0xbc7fffd8	-0.015624963
132	0xbbf86709	-0.007580642
133	0xbc2b1dd4	-0.010444123
134	0xbc362f2d	-0.011119646
135	0xbcf48013	-0.029846227
136	0xbcc7f09d	-0.024406726
137	0xbd760f82	-0.060073383
138	0xbcfcaf2a	-0.030845243
139	0x3d160e35	0.036634643
140	0xbb95bd61	-0.004569695
141	0xbcd4f220	-0.02599436
142	0x3dd1c452	0.10242523
143	0x3caaaaf0	0.020833462
144	0xbd003527	-0.03130069
145	0x3cb8989e	0.022533711
146	0x3c5c3c30	0.013442084
147	0xbca2448d	-0.019808078
148	0x3b6521c1	0.0034962746
149	0xbcae4e1d	-0.021277482
150	0xbd047fa8	-0.032348305
151	0x3be0d8e5	0.0068617933
152	0xbc6456c0	-0.013936698
153	0xbd07a6a3	-0.0331179
154	0x3c787be5	0.0151662575
155	0xbd03a605	-0.03214075
156	0xbd45fc5f	-0.048336383
157	0x3d282f19	0.04106054
158	0xbe0f4159	-0.13989772
159	0xbc39b053	-0.011333543
160	0x3cf36cef	0.02971503
161	0xbb65d298	-0.003506815
162	0xbbf4474f	-0.0074547897
163	0x3c09e43e	0.008416234
164	0xbc4c63f0	-0.012474999
165	0xbc77e42b	-0.015130083
166	0xbe468353	-0.19386034
167	0xbd97f06a	-0.07418902
168	0xbc4bff81	-0.012451054
169	0xbcf18eda	-0.029487062
170	0x3cdf510d	0.027260328
171	0xbc4538ee	-0.012037499
172	0xbc8071d0	-0.01567927
173	0xbd10d3dd	-0.0353583
174	0x3c80ea45	0.015736708
175	0xbc91361d	-0.017725999
176	0xbce97873	-0.028499817
177	0x3e0c845a	0.13722363
178	0xbc9cb1b7	-0.01912771
179	0xbbfa6b4b	-0.007642185
180	0xbd8fdb2f	-0.07024228
181	0xbcf1ebda	-0.029531408
182	0x3b0b5de2	0.0021265675
183	0xbc2936cd	-0.010328007
184	0x3c995774	0.018718459
185	0xbbcac722	-0.0061882893
186	0xbe477736	-0.19479069
187	0x3e240a39	0.16019525
188	0xbc87fab1	-0.016599031
189	0x3c97230c	0.018449329
190	0x3b38e2c6	0.002821134
191	0x3d11727b	0.035509568
192	0x3b9d3be4	0.0047983993
193	0xbccd579f	-0.025066195
194	0xbcf86ba8	-0.030324772
195	0x3b75d3f5	0.003751037
196	0x3c39b7e8	0.011335351
197	0x3c6cf40d	0.014462483
198	0xbd0b6dde	-0.034040324
199	0xbca72b1a	-0.020406295
200	0x3da23cac	0.079217285
201	0xbdaf8a3b	-0.08571287
202	0xba990289	-0.0011673729
203	0x3d161ac4	0.03664662
204	0xbc466eef	-0.01211141
205	0x3c0c6b6f	0.008570536
206	0x3c2fb675	0.0107246535
207	0x3cb7a62f	0.02241811
208	0x3d43cfd8	0.047805637
209	0xbb793fc5	-0.0038032394
210	0xbbaf0efc	-0.0053423624
211	0x3c309191	0.010776893
212	0x3b906b26	0.0044073043
213	0xbc0ecde4	-0.00871608
214	0x3e01b2bc	0.12665838
215	0x3d0ba0ea	0.034089006
216	0x3c5a9127	0.013340271
217	0x3d1f11f8	0.038835496
218	0xbbf3786d	-0.0074301274
219	0x3d771688	0.06032422
220	0xbc77d255	-0.015125831
221	0x3e1d31cf	0.15351032
222	0x3c90cd6a	0.017676074
223	0xbc6c4a97	-0.0144220805
224	0xbdb07955	-0.08616892
225	0xbd590cdb	-0.052990776
226	0x3bde171f	0.0067776586
227	0xbcca79d4	-0.024716295
228	0x3bf31e01	0.007419348
229	0xbc20743d	-0.009793338
230	0x3c36696a	0.011133531
231	0xbd25160a	-0.04030422
232	0x3cbf76f9	0.02337216
233	0xbc277622	-0.010221036
234	0xbbd5aa3c	-0.0065205377
235	0x3c29e751	0.010370092
236	0x3d0cdecd	0.034392167
237	0xbc78fbc6	-0.015196746
238	0xbce2c261	-0.027680578
239	0x3cef9b70	0.029248923
240	0x3aa6de90	0.0012731124
241	0x3ccf69fd	0.025319094
242	0xbc819bc2	-0.015821341
243	0x3d13c9e0	0.036081195
244	0x3caf3981	0.021389725
245	0x3bd39f1b	0.006458176
246	0xbc61ad88	-0.013774283
247	0x3c00b32a	0.007855216
248	0x3c170d34	0.009219456
249	0x3cc80dd3	0.024420654
250	0x3b25fd5e	0.002532802
251	0xbcae4746	-0.02127422
252	0xbbd6adc4	-0.006551476
253	0xbcef732d	-0.029229725
254	0x3dc02ca2	0.09383513
255	0x3d44b6bc	0.04802583

action_model._continuous_distribution.mu.bias f4 [3]
0	0x3c6b6431	0.014367149
1	0x3c8b2292	0.016984258
2	0x3914de6a	0.00014197236

action_model._discrete_distribution.branches.0.weight f4 [2, 128]
0	0xbcc4e068	-0.024032786
1	0xbae8f37d	-0.001777276
2	0xbb3e5a69	-0.0029045588
3	0xbc3c1e0f	-0.011481776
4	0x3ce0f499	0.027460383
5	0x3c67c329	0.014145651
6	0x3ab638cc	0.0013902425
7	0xbc4ede9a	-0.012626315
8	0x3cb7821b	0.022400906
9	0x3b97089d	0.004609181
10	0x3cb9a2fd	0.022660727
11	0xbc5352d1	-0.012898163
12	0xbb3f5e4b	-0.002920049
13	0xbb46ca28	-0.0030332897
14	0x3b6a9416	0.0035793833
15	0xbb7ebd97	-0.0038870329
16	0x3c256e17	0.010097048
17	0x3b7be817	0.0038437897
18	0x3b805493	0.003916332
19	0x3be15715	0.006876836
20	0xbc5d5e8a	-0.013511309
21	0x3c2cb1a5	0.010540401
22	0xbb351d91	-0.002763603
23	0x3c4703cf	0.012146904
24	0xbbb0ecc3	-0.005399318
25	0xbb83252e	-0.004002235
26	0x3a7684a1	0.00094039185
27	0xbcb22bec	-0.02174946
28	0xbc3c765e	-0.01150283
29	0x3c0d58b4	0.0086271055
30	0xbc62ed47	-0.013850517
31	0x3ca1649c	0.019701295
32	0xbcd77b43	-0.026303893
33	0xbc4a3059	-0.012340629
34	0xbb45ddaa	-0.0030191937
35	0xba5dd7dc	-0.00084626465
36	0xbb6ed309	-0.0036441705
37	0x3c3972c9	0.011318871
38	0xbb45f30a	-0.0030204677
39	0xbc5723bf	-0.013131081
40	0x3c05f447	0.008175916
41	0xbc5dfa36	-0.0135484245
42	0x3c2e5295	0.010639806
43	0xbbe2c235	-0.006920124
44	0xbbd73bf2	-0.0065684253
45	0x3b9765c5	0.004620286
46	0x3c242ce8	0.010020472
47	0x3b82ab56	0.00398771
48	0xbc684526	-0.0141766425
49	0xbcdf8f7d	-0.0272901
50	0xbc2e9dec	-0.010657769
51	0x3a7c0c0d	0.0009614833
52	0xbd175a3d	-0.036951292
53	0xbcaecd65	-0.021338174
54	0xbbb16365	-0.00541346
55	0x3c4c3df0	0.012465939
56	0xbc4badd9	-0.012431585
57	0x3c4db18d	0.012554538
58	0xbcfe243b	-0.031023135
59	0xbc937ede	-0.01800483
60	0xbcb4bc3d	-0.022062415
61	0xbb768e50	-0.0037621446
62	0xbbb67d61	-0.0055691455
63	0xbb87f9de	-0.0041496595
64	0xbcbc8ed5	-0.023017326
65	0xbca6f4f5	-0.020380476
66	0x3c2638f6	0.0101454165
67	0xbc1ce897	-0.009576938
68	0x3c4aaf3f	0.0123708835
69	0x3c07d253	0.008289891
70	0xbbde6c32	-0.0067878
71	0xbc9afccf	-0.018919377
72	0x3c62656a	0.013818124
73	0xb9aece8c	-0.00033341756
74	0x389c95b7	7.466546e-05
75	0x3b432f30	0.0029782765
76	0xbb157742	-0.002280668
77	0x3c790590	0.01519908
78	0xbc28a90a	-0.010294208
79	0x3aadd6ee	0.0013262907
80	0xbc0db03c	-0.008647975
81	0xbb3fb284	-0.002925069
82	0xbbb71cb1	-0.005588137
83	0x3a0cca9f	0.0005370769
84	0xbae2ec59	-0.0017312869
85	0x3c461489	0.012089857
86	0x3a3d2db6	0.00072165893
87	0xbc441da5	-0.011969958
88	0xbad96eb4	-0.0016588778
89	0xbc2d8528	-0.010590829
90	0x3d67e348	0.056613237
91	0x3c39d027	0.011341131
92	0x3c052a34	0.008127738
93	0xbd1be25e	-0.038057677
94	0xba5a2fd7	-0.0008323169
95	0xbb235c22	-0.0024926742
96	0x3bac4079	0.005256709
97	0xbc3407cd	-0.010988188
98	0x3c2c2bfe	0.010508535
99	0x3b22e13c	0.0024853488
100	0xbbca99bf	-0.0061828787
101	0x3be7a849	0.0070696217
102	0x3c6d774a	0.014493773
103	0x3c53c72e	0.012925906
104	0x3c8e070e	0.017337348
105	0xbc0be53b	-0.0085385395
106	0xbb929147	-0.004472885
107	0x3c075d32	0.008261966
108	0x3c0ae46b	0.008477311
109	0xbb57b88b	-0.0032916393
110	0xbcbc48b4	-0.022983886
111	0x3c30cf58	0.010791622
112	0x3b5182bf	0.00319688
113	0x3c947011	0.018119844
114	0x3aa25270	0.0012384187
115	0x3abb35e3	0.0014283027
116	0xb9818885	-0.00024706512
117	0xbb63485d	-0.0034680583
118	0xb9ada7fa	-0.00033122284
119	0x3a702217	0.0009160353
120	0x3bdfb532	0.00682702
121	0x3c50b62f	0.012738748
122	0x3a79cf03	0.00095294433
123	0xbaab5518	-0.0013071625
124	0x3b353fea	0.0027656504
125	0xb8095fda	-3.2752614e-05
126	0xbd33dc10	-0.04391104
127	0xbb2db8f2	-0.002650794
128	0x3c7238ff	0.014784097
129	0xbc18a3e3	-0.009316417
130	0xbc45bc50	-0.012068823
131	0xbc50c2c3	-0.012741747
132	0xbbe03c49	-0.006843124
133	0xbcbc37b1	-0.022975774
134	0x3bb853a9	0.0056252074
135	0x3bc157aa	0.005900343
136	0xbc2fb912	-0.010725277
137	0x39e90461	0.00044444486
138	0xbc02f93d	-0.007993993
139	0x3cc303f2	0.023805592
140	0xbb4fcd7a	-0.0031708167
141	0xbcde0cb5	-0.027105669
142	0x3c541b43	0.012945953
143	0x3c45ecac	0.012080353
144	0x3c398dae	0.011325283
145	0xbcd609c4	-0.026127703
146	0x3baec20c	0.005333191
147	0x3c4b0518	0.012391351
148	0x3bc206aa	0.0059212046
149	0xbb21f8cd	-0.0024714947
150	0x3c360fa9	0.011112132
151	0xbc1f310d	-0.009716284
152	0x3bbfd291	0.005853959
153	0x3b87c4bf	0.004143327
154	0xbc1d3214	-0.009594459
155	0x3c82abda	0.015951086
156	0xbba34f26	-0.0049838005
157	0xbc857ce7	-0.01629491
158	0x3caa7db3	0.020811891
159	0xbc8c2d8c	-0.017111562
160	0xbc42c564	-0.011887882
161	0xbb717785	-0.003684492
162	0x3adcd0f7	0.0016846944
163	0xb9809cac	-0.00024530792
164	0x3ad431d4	0.0016189166
165	0xba10a997	-0.0005518435
166	0x3bb0cf1f	0.0053957845
167	0xbbde7d6a	-0.006789853
168	0xbc69b913	-0.014265317
169	0x3b94a394	0.0045361016
170	0x3bbb502a	0.0057163434
171	0x3c242ec1	0.010020913
172	0xbbe27008	-0.006910328
173	0xbca15d74	-0.019697882
174	0xbc57548d	-0.013142717
175	0xbc8cc53d	-0.017183894
176	0x3c915bb3	0.01774392
177	0x3cdb24af	0.02675089
178	0xbb8a110a	-0.004213457
179	0x3c0ee312	0.00872113
180	0x3d0fed9a	0.035138704
181	0x3cb00698	0.02148752
182	0xbbe849c5	-0.007088872
183	0x3a8d377f	0.0010773985
184	0x3bfe73ca	0.007765268
185	0xbae6bc6d	-0.0017603763
186	0x3c38ce32	0.01127963
187	0x3c263492	0.01014437
188	0x3ca893c8	0.02057828
189	0xbb8a90d4	-0.0042286906
190	0x3babbf03	0.005241276
191	0xba2b2b14	-0.00065295515
192	0x3d0893f6	0.03334423
193	0x3c9ba956	0.019001644
194	0x3bcad7c9	0.0061902744
195	0x3c114e9e	0.008868841
196	0xbbb61f68	-0.005557943
197	0xbb313794	-0.0027041184
198	0x3a95f1ae	0.0011439824
199	0x3cde0802	0.027103428
200	0x377d606c	1.5102425e-05
201	0x3c1b41ef	0.009476169
202	0xbc338e7c	-0.010959264
203	0x3c017a44	0.007902686
204	0xbc015f10	-0.0078962
205	0xbb95446f	-0.004555277
206	0xbc55930c	-0.013035547
207	0x3bc8b8ef	0.0061255614
208	0xbc3eb665	-0.011640166
209	0x3c86d07a	0.016456831
210	0x3b4fe893	0.0031724318
211	0xba87d48b	-0.0010363025
212	0xbc08d23d	-0.008350906
213	0xbc4e734d	-0.012600732
214	0xbc019d06	-0.007910972
215	0x3bc850fb	0.0061131692
216	0xbb33d971	-0.0027442838
217	0x3c5c42c8	0.013443656
218	0xbd300993	-0.04297788
219	0xbb52ed5b	-0.0032184932
220	0xbb8e7959	-0.004347962
221	0x3d5d7961	0.054070834
222	0xbbac4f88	-0.0052585043
223	0xbb5e3927	-0.0033908577
224	0xbac74c9a	-0.0015205324
225	0x3cc1852c	0.023623072
226	0x3c512ed8	0.012767516
227	0x3b207d48	0.0024488736
228	0x3b5dbd4e	0.0033834758
229	0xb9cebbb3	-0.0003943123
230	0x3ad529a7	0.0016263024
231	0xbc53e30b	-0.012932549
232	0xbc2eda50	-0.010672167
233	0xbb3f0499	-0.0029147028
234	0xbba03c24	-0.004889982
235	0x3c9e5fc5	0.019332776
236	0x3ad6ac8c	0.0016378327
237	0xbb80060b	-0.0039069704
238	0x3ca62f18	0.020286128
239	0xbc0b8527	-0.008515633
240	0xbc016811	-0.0078983465
241	0x3bc5387e	0.0060186973
242	0xbb0ef956	-0.0021816096
243	0x3c117d7f	0.008880018
244	0x3b90f90e	0.004424221
245	0x3bb94bff	0.0056548114
246	0xbbbf4a30	-0.0058377013
247	0x3c0e0213	0.008667487
248	0xbba90569	-0.0051581156
249	0xbb9c3ff0	-0.004768364
250	0x3ce8d3ed	0.028421367
251	0x3c28872c	0.010286134
252	0x3c74ef67	0.014949656
253	0x3a754611	0.0009356449
254	0x3d52897c	0.051400647
255	0x3af8bd97	0.0018977401

action_model._discrete_distribution.branches.0.bias f4 [2]
0	0xbbc38f8a	-0.005968039
1	0x3bc38f80	0.0059680343
