Assets/Learning/AIRollABall/results/TestParameters/AIRollABall/AIRollABall-0.onnx (onnx, 98833 bytes, 7 tensors)

network_body._body_endoder.seq_layers.0.weight f4 [128, 47]
00000000: 4759 e83d f02b 9b3d 35c3 9a3e 0ec8 093e
00000010: bbbb 90bd 0906 143e 3d9e b03e ed08 4d3d
00000020: f553 ae3d 9fea fa3d 7f29 d83c aff3 c93d
00000030: 226d 0cbd 3cbf 3d3d a75e 17bd ddd7 a2bc
00000040: d274 50bb a0d8 473e ab1c b6bc f0e2 3d3e
00000050: cbf0 2c3c a42f 17be d713 76bd fcdd 0fbc
00000060: 091b 4dbc 9bef fc3d a8a3 82be 5433 41bd
00000070: 5f85 54be fa3c 3abe ba81 80bd 2000 92bd
00000080: 82b7 5c3e 10b0 913d 5e96 31be 5b2f 9fbd
00000090: d884 4fbd 0706 a0bd 38a0 833b be11 78bd
000000a0: 6948 0dbe 445b 513e 615a 053d b21f cebd
000000b0: 94d1 043e 135b 1f3e fe2d 2b3e 178b c03b
000000c0: 66e3 cbbd 6fc8 b9bd 58de ac3d 184b 2b3e
000000d0: d26c a03d 32d8 a9bd 2caa 893c 11a5 3bbe
000000e0: ad29 e4bb ec5e e7bd a264 4d3e 8295 583b
000000f0: 11a0 04be 91d9 18be b7fe 2bbd adba 25be
00000100: ac8b 3f3e ee4d 9b3e d6aa 523d 2be7 afbd
00000110: f24c b13c 9392 80be 1003 32be 1920 5cbe
00000120: 74fc 7ebd 4a0e 393e d234 a3be 0bf9 9cbd
00000130: 9437 7b3e 3652 37bc a1b6 de3b c89d 1c3e
00000140: ae23 b23d f8a7 dabc da1f 96bc b989 40be
00000150: a7e4 cabd 6bf6 2f3d a8d2 ad3c 1d53 933a
00000160: 680e 4dbd bae0 edbd 8160 8d3d 881d 2fbd
00000170: 7b65 733d f774 293e ce78 173e a83c 57bd
00000180: 3a94 9f3d c774 d13d 31f7 823e b5ad f2bd
00000190: 1c24 4fbd d60a 65bd 5310 ba3d cd25 5d3d
000001a0: dc57 533d aceb fd3d 0bfe 4dbd 9bde 09be
000001b0: 68c2 cabd 63d3 0abd 1097 8ebe 7d20 4e3e
000001c0: a11a 8cbc a6e6 b03d 3a1a 453e 67cb 0e3e
000001d0: 066f 32be f28f 253d d8bd 23be e3a3 acbc
000001e0: c11d 843d e7f8 43be 4e24 e83e f9f6 eabd
000001f0: 21f5 44bb 67ee 8abd b7ad 78bd 1b8c 1ebe
00000200: 1ed6 073e 5a4a 7bbd bb07 01bd b439 90be
00000210: 6bc6 f0bd 28b4 1abc 4f8a 983c 1a02 a93c
00000220: 0f81 f63d c390 933c 9327 79bd a774 483d
00000230: 90bd 5bbd 16ce 83ba 0f3b 9a3d 0a18 fdbd
00000240: d693 1e3e d890 943d 0b34 e3bd 3f3b 46bd
00000250: a5e2 a53d 0125 05bb 1e94 acbd 1f8e 80be
00000260: f043 8e3d 0ce6 5f3d d53d 02be 35e5 113e
00000270: 21f5 823e 7174 84be 3587 07be 621e d6bc
00000280: 41ef 673e fa36 b33e 5245 d83d 74fa 0e3d
00000290: 05a7 03bd 1d56 8e3e b65c ef3d 0631 c53c
000002a0: 5383 a7bc d2b7 923d afa5 4c3e e9a4 893e
000002b0: 6d70 8ebd 067b 623e a4e7 13be 0f1c ae3d
000002c0: 5f0a c53c 07fa 1e3e 17bf 6c3d 6c83 19be
000002d0: adc3 1b3d 09ea 78be 13b5 09be a783 053d
000002e0: ab27 933e 6f85 323d 2526 b03c fe90 f83d
000002f0: 87f9 47bd 4631 c2bc b9b9 dbbc 4992 95bc
00000300: b2fd c83c 335b ac3d b509 253e 6c27 4bbd
00000310: f59a 13be 9bc3 eebd 4e8b 62bd 47a5 10be
00000320: df2d 4dbe 0178 0abd f868 073e 73da 1abd
00000330: 1d49 883e 73c9 9f3d b7bb ffbe f0e5 37bc
00000340: 119e 033d 56cb 9cbc d37d 1a3e 91b2 553e
00000350: e6ad 9f3e 71d0 32be 7a51 ac3d 4e37 b9bd
00000360: 8a3d 11be 0cb2 a6be 0987 7cbe 7d41 873d
00000370: bda8 c5bd 3df6 afbd c1d7 b1bd 7de9 22bd
00000380: 07c0 09be c0d0 bcbd 79cd 03bd 3cbe 5e3d
00000390: f445 4e3e 448a b0bd 48b5 613d 045b 3e3e
000003a0: 3133 2b3e 2162 b3bd 6312 393e 860c 9b3d
000003b0: 0b5d ce3d f457 303d 6a4e 253d 4b21 60bb
000003c0: 59b6 013e 1a1b bcbc 928b 4d3e 0168 043e
000003d0: 4a79 523c b1d1 503e 480a 49be 7357 4f3e
000003e0: 7521 8cbe 278c 1dbe 9118 663e 8705 65be
000003f0: 4442 8a3e 4f34 02be 2203 0dbe 290f f2bd
0.11345153 0.0757674 0.30227056 0.13455221 -0.07067057 0.14455427 0.34495726 0.05005734
0.08512107 0.12251782 0.026386974 0.09860932 -0.034283765 0.046324953 -0.036955502 -0.019878322
-0.0031807912 0.1951623 -0.022230467 0.18543601 0.010555456 -0.14764267 -0.060077514 -0.008780953
-0.012518653 0.123503886 -0.25515485 -0.04716809 -0.20754002 -0.18187323 -0.062747434 -0.0712893
0.21554378 0.071136594 -0.17342517 -0.07772704 -0.0506638 -0.078136496 0.0040169023 -0.060563795
-0.13797154 0.20444971 0.032556895 -0.10064639 0.12970573 0.15562086 0.16716763 0.005875956
-0.09955482 -0.09071433 0.08440846 0.16727865 0.07833256 -0.08293189 0.016804777 -0.18324687
-0.006962976 -0.11297402 0.2005792 0.0033048098 -0.12951685 -0.14926745 -0.041990962 -0.16184492
0.18705624 0.30332893 0.051432453 -0.08589014 0.021643136 -0.25111827 -0.17383981 -0.2149662
-0.062252477 0.18071857 -0.31876236 -0.07664689 0.2453292 -0.011189034 0.0067966734 0.15294564
0.086982116 -0.026691422 -0.018325735 -0.18802537 -0.09906893 0.042959612 0.021218613 0.001123998
-0.050062567 -0.11615129 0.06903172 -0.042752773 0.05942295 0.16548525 0.14792177 -0.05254808
0.07791944 0.10227352 0.25579217 -0.11849538 -0.050571546 -0.055918537 0.09085145 0.053991128
0.05159746 0.123984665 -0.050291102 -0.13463823 -0.09900361 -0.033893 -0.27849627 0.20129581
-0.017102541 0.08637743 0.19248286 0.1394478 -0.17425165 0.04042048 -0.15990388 -0.021074241
0.064509876 -0.19137917 0.45340198 -0.114728875 -0.0030053335 -0.06783753 -0.060712542 -0.15483133
0.13265273 -0.061350204 -0.031501513 -0.28169024 -0.11756595 -0.009442367 0.018620638 0.020630885
0.12036335 0.018013364 -0.060828757 0.048939373 -0.053647578 -0.0010055925 0.07530796 -0.12358101
0.15486082 0.07254189 -0.11093911 -0.048396345 0.0809987 -0.0020316245 -0.084266886 -0.2510843
0.06946552 0.05466275 -0.127189 0.14247592 0.25577644 -0.25870088 -0.13235171 -0.026137535
0.22649862 0.3500288 0.10560097 0.03490682 -0.032141704 0.27800074 0.11687605 0.024071228
-0.020448362 0.07163967 0.19985078 0.2688363 -0.06955037 0.22117242 -0.14443833 0.085014455
0.024052797 0.15525065 0.057799425 -0.1499154 0.038028408 -0.24308027 -0.1344798 0.032596257
0.28741202 0.043584283 0.021502564 0.1213703 -0.048821952 -0.023705136 -0.026821958 -0.01825823
0.024535034 0.08415832 0.16116984 -0.049598143 -0.1441458 -0.116584025 -0.055308633 -0.14125548
-0.2003703 -0.03380585 0.13223636 -0.037805986 0.2661828 0.07802095 -0.49947903 -0.011224255
0.032133166 -0.019139927 0.1508706 0.20868899 0.3118736 -0.17462327 0.08413978 -0.09043752
-0.14183632 -0.32557714 -0.24660887 0.06604288 -0.09651325 -0.08591888 -0.0868373 -0.039773453
-0.13452159 -0.092195034 -0.032178376 0.05438064 0.20143872 -0.08620122 0.055104524 0.18589407
0.16718747 -0.08758951 0.1807342 0.07570748 0.1007634 0.04305263 0.040357985 -0.0034199532
0.12667216 -0.022962142 0.20072773 0.129303 0.0128463 0.20392491 -0.19632828 0.20248203
-0.27369276 -0.15385495 0.22470309 -0.2236539 0.27003682 -0.12715267 -0.13770726 -0.11819298

network_body._body_endoder.seq_layers.0.bias f4 [128]
00000000: 0000 0000 0000 0000 0000 0000 0000 0000
00000010: 0000 0000 0000 0000 0000 0000 0000 0000
00000020: 0000 0000 0000 0000 0000 0000 0000 0000
00000030: 0000 0000 0000 0000 0000 0000 0000 0000
00000040: 0000 0000 0000 0000 0000 0000 0000 0000
00000050: 0000 0000 0000 0000 0000 0000 0000 0000
00000060: 0000 0000 0000 0000 0000 0000 0000 0000
00000070: 0000 0000 0000 0000 0000 0000 0000 0000
00000080: 0000 0000 0000 0000 0000 0000 0000 0000
00000090: 0000 0000 0000 0000 0000 0000 0000 0000
000000a0: 0000 0000 0000 0000 0000 0000 0000 0000
000000b0: 0000 0000 0000 0000 0000 0000 0000 0000
000000c0: 0000 0000 0000 0000 0000 0000 0000 0000
000000d0: 0000 0000 0000 0000 0000 0000 0000 0000
000000e0: 0000 0000 0000 0000 0000 0000 0000 0000
000000f0: 0000 0000 0000 0000 0000 0000 0000 0000
00000100: 0000 0000 0000 0000 0000 0000 0000 0000
00000110: 0000 0000 0000 0000 0000 0000 0000 0000
00000120: 0000 0000 0000 0000 0000 0000 0000 0000
00000130: 0000 0000 0000 0000 0000 0000 0000 0000
00000140: 0000 0000 0000 0000 0000 0000 0000 0000
00000150: 0000 0000 0000 0000 0000 0000 0000 0000
00000160: 0000 0000 0000 0000 0000 0000 0000 0000
00000170: 0000 0000 0000 0000 0000 0000 0000 0000
00000180: 0000 0000 0000 0000 0000 0000 0000 0000
00000190: 0000 0000 0000 0000 0000 0000 0000 0000
000001a0: 0000 0000 0000 0000 0000 0000 0000 0000
000001b0: 0000 0000 0000 0000 0000 0000 0000 0000
000001c0: 0000 0000 0000 0000 0000 0000 0000 0000
000001d0: 0000 0000 0000 0000 0000 0000 0000 0000
000001e0: 0000 0000 0000 0000 0000 0000 0000 0000
000001f0: 0000 0000 0000 0000 0000 0000 0000 0000
0.0 0.0 0.0 0.0 0.0 0.0 0.0 0.0
0.0 0.0 0.0 0.0 0.0 0.0 0.0 0.0
0.0 0.0 0.0 0.0 0.0 0.0 0.0 0.0
0.0 0.0 0.0 0.0 0.0 0.0 0.0 0.0
0.0 0.0 0.0 0.0 0.0 0.0 0.0 0.0
0.0 0.0 0.0 0.0 0.0 0.0 0.0 0.0
0.0 0.0 0.0 0.0 0.0 0.0 0.0 0.0
0.0 0.0 0.0 0.0 0.0 0.0 0.0 0.0
0.0 0.0 0.0 0.0 0.0 0.0 0.0 0.0
0.0 0.0 0.0 0.0 0.0 0.0 0.0 0.0
0.0 0.0 0.0 0.0 0.0 0.0 0.0 0.0
0.0 0.0 0.0 0.0 0.0 0.0 0.0 0.0
0.0 0.0 0.0 0.0 0.0 0.0 0.0 0.0
0.0 0.0 0.0 0.0 0.0 0.0 0.0 0.0
0.0 0.0 0.0 0.0 0.0 0.0 0.0 0.0
0.0 0.0 0.0 0.0 0.0 0.0 0.0 0.0

network_body._body_endoder.seq_layers.2.weight f4 [128, 128]
00000000: cc90 a1bd a216 763c 2a7c 2a3d 4727 b1bd
00000010: 687d bb3d edde 83bd 94b8 3abd 387f 67bc
00000020: 7220 3e3e db2b eb3d 3e12 323e 9278 b43d
00000030: 5df0 bc3b 2804 28be 82d4 81bd 6416 fd3c
00000040: 9e98 aa3c 88ce b0bd 9120 0bbe 27b3 e03d
00000050: 53dc 863d a56e d63d 7c74 913d efea b43d
00000060: 6f20 f63b e45f 003d d5cb 823d b8c9 62bc
00000070: 95a7 c43d 0f09 c8bd c1f0 3fbd bf44 113c
00000080: 8aa4 92bc 463b 08bc 1ffd 483d 32ce 04bd
00000090: f10b db3c a0e7 233d dce0 58bd 5f3a e73d
000000a0: 9587 b23c a535 673d 25b1 4abd 9fc8 3b3d
000000b0: f2c3 5d3d 5aa5 aebb d2ca 15bd 1d30 24be
000000c0: b267 f63c 0113 32be b6be e63c 168a 02be
000000d0: bd2e 3d3d 5cf9 23bd 6f16 c5bc c3fc 9d3d
000000e0: 2487 a8bd 4052 223d 01d3 19be 6013 b83d
000000f0: 56e4 0ebd 4d0f 843d a004 003e a180 d03d
00000100: d03a 40be 6150 3cbd d45d 4b3d eafe 53bd
00000110: fd1a eebc baaa 4dbd e3e5 5fbd 4a8d 473d
00000120: 209a 17bb 069c 7a3c 20a5 d8bc b914 e13d
00000130: fdab 65bb 1c00 96bd 615d d7bd 9d50 c33c
00000140: 0a2a 87bc 088a 023e e77c f4bb 95f3 d2bc
00000150: b6a1 20bc 8d62 d83d 72df 153d 993d ea3d
00000160: 5212 1abe 407d 4a3d b0ea f0bd 1437 803b
00000170: b931 733d bbe4 6fbc 2862 8e3d 24f9 d5bd
00000180: 119c f6bd 3123 f9bc 6d6a 98bd 3c9a 3c3e
00000190: deea b43b 564f 0cbe 9d16 ba3d ffd5 53be
000001a0: c475 e0bd af70 df3b ef48 443d d422 c23d
000001b0: 87b4 3abe 198b 093e 42e3 b4bc fa6a 8ebd
000001c0: 98a9 163d c148 ffbc 9064 6cbd 6ab9 143e
000001d0: 9619 ef3c ea59 95bd 9a28 373d 61d9 8f3c
000001e0: d1c7 333d eb8e 903e 9805 c6bd 9c90 afbc
000001f0: 6dd5 b83d 8350 68be 267f 9b3c fedc 293e
00000200: ee09 013e 2b65 f93d 81fe c0bd 2f22 73be
00000210: fe1e 81bd b687 ad3d c2f9 153d ecf3 323d
00000220: d89d 5cbc f0bb e63a 8546 c33c f1ce 31bd
00000230: 46c0 31bd 05fe 3f3e 88da 6d3d 6943 c6bc
00000240: a1a5 bcbd 96e1 113e 1b34 15bd a92a 58be
00000250: 243e 6c3d 8909 613d 0a91 debd 1883 293e
00000260: ca22 163d 8287 5dbd b59d 65bc 9692 12be
00000270: e086 113b b6e9 833d 43a2 2ebd 5eb7 4e3d
00000280: 408b a4bd 9bb0 5cb8 fb67 fabd f6c1 b23d
00000290: ca70 913d fba6 ef3d e216 d1bc aa80 47bd
000002a0: facf aa3c 775e 12be b2e6 cf3d 1225 513e
000002b0: 3ddb 443e 12c8 f03c d209 203d a497 8bbd
000002c0: 88f7 31be da14 12bd b64a 4e3d 0239 003e
000002d0: 35d9 9a3d 5c48 a6bd 4404 5dbc e151 d6bd
000002e0: c9ba ee3d f776 063e 4ca1 633d e524 0dbd
000002f0: dc8f 0fbc b900 71bd 3a3a 53bd 71e3 773d
00000300: 653e 02be 7556 7e3c 705a 73bd 1b71 b73b
00000310: 01b1 bb3d 4123 b6bd 0260 38bc 9861 6d3e
00000320: e356 363c 9d17 a53c 5d18 21be 7e4a eb39
00000330: 0319 b6bd 0c11 723c f00d 47bd 2aa8 72bd
00000340: a80c 9b3d 5492 d2bc 7c64 423e dd3d e6bc
00000350: a8e1 ca3c 399a 50bd d419 8fbd 90d5 46bc
00000360: aafa 013d 66f1 303e 3637 c3bd b88f d83d
00000370: 3636 7c3e 609c 25bd e442 123e 49e9 03bb
00000380: 3901 113e 72ed df3c 6569 06be aa18 4abd
00000390: 45b3 993b 5aac 213d a29e 0bbe b321 4ebc
000003a0: bb44 8a3c 9314 a03d 582f 353c 0191 15be
000003b0: cfdc 33be d716 c2bd a6a0 223d 87aa 4c3d
000003c0: 9399 24be 4f81 d6bd e615 b5bb 5ab3 5d3d
000003d0: 828d 67bd 7a05 bebc c135 9f3d 2347 49bd
000003e0: 8fa2 bfbd 5d9b 72bd 0def ddbc e0bb 88bd
000003f0: d4f4 953d f020 903d 6b34 373c 625b 0bbe
-0.07888946 0.0150200445 0.04162232 -0.0865007 0.09154779 -0.06439004 -0.045586184 -0.014129452
0.18567064 0.11482974 0.17389771 0.088120595 0.005765958 -0.16407835 -0.06339361 0.030894466
0.020824727 -0.08633143 -0.13586642 0.109716706 0.06584992 0.104703225 0.07102296 0.088338725
0.0075111906 0.03134145 0.06386534 -0.013842039 0.09602276 -0.09767353 -0.04686046 0.008866488
-0.017900724 -0.008314913 0.04906952 -0.032423206 0.026739093 0.040015817 -0.052948818 0.1129043
0.021793166 0.056447644 -0.049485344 0.045845624 0.054141946 -0.00532977 -0.036570378 -0.16033979
0.030078743 -0.17390062 0.02816711 -0.12747988 0.04618715 -0.04003273 -0.024058549 0.07714226
-0.08228901 0.03962922 -0.15021898 0.089880705 -0.034885727 0.06448231 0.12501764 0.10180784
-0.18772435 -0.045975093 0.04965003 -0.051756777 -0.029065603 -0.050211646 -0.054662596 0.048718728
-0.0023132637 0.015295988 -0.026445925 0.10990281 -0.003504514 -0.073242396 -0.105158575 0.02384215
-0.016499538 0.12747967 -0.0074611786 -0.025750915 -0.00980418 0.10565672 0.036590047 0.1143753
-0.15046051 0.049435854 -0.11763513 0.003912816 0.05937359 -0.014641936 0.069523156 -0.104479104
-0.12041486 -0.030412288 -0.07442174 0.1841821 0.0055211624 -0.1370214 0.090863444 -0.20687102
-0.10959962 0.006818853 0.047921117 0.09479299 -0.18232928 0.13431968 -0.022081021 -0.06953998
0.03678283 -0.031162621 -0.05771309 0.14523855 0.029187005 -0.0729254 0.044716455 0.017559709
0.04389173 0.28234038 -0.09669036 -0.02143126 0.09025083 -0.22686963 0.018981528 0.16588208
0.12601444 0.121774994 -0.09423543 -0.23743509 -0.063047394 0.084731504 0.03661514 0.043689653
-0.013465367 0.0017603617 0.023837337 -0.043410245 -0.043396257 0.18749245 0.058069736 -0.024202066
-0.09211279 0.1424621 -0.036426645 -0.21110024 0.05767645 0.054940734 -0.10867508 0.16553915
0.03665427 -0.05408431 -0.014014651 -0.1431373 0.0022205636 0.06441061 -0.042635214 0.05046784
-0.08034372 -5.2616564e-05 -0.12226864 0.08728401 0.07101591 0.11701771 -0.025523607 -0.048706688
0.020851124 -0.14293848 0.101514235 0.20424297 0.19224258 0.029392276 0.039071865 -0.068160325
-0.17379582 -0.035664417 0.05036422 0.12521747 0.0756096 -0.0811927 -0.013489787 -0.10464836
0.1165672 0.13131319 0.055573747 -0.034459013 -0.008762326 -0.05883858 -0.0515692 0.06051964
-0.12719114 0.015523543 -0.05941242 0.0055982 0.0916462 -0.08893443 -0.011253359 0.2318176
0.011129114 0.020152861 -0.1573195 0.00044878194 -0.08891489 0.014774572 -0.048597276 -0.059242405
0.07570773 -0.02570454 0.18983644 -0.02810567 0.024765804 -0.05092833 -0.06987348 -0.012135878
0.031733193 0.17279586 -0.09532015 0.10574287 0.24630055 -0.040432334 0.14283329 -0.0020128062
0.14160623 0.027334902 -0.13126142 -0.049339928 0.00469056 0.039471008 -0.13634732 -0.012581277
0.016878476 0.07816424 0.011058651 -0.14606096 -0.175647 -0.094770126 0.039703988 0.049967315
-0.16074209 -0.104738824 -0.005526292 0.05412612 -0.056531437 -0.02319597 0.077739246 -0.049140107
-0.093571775 -0.059230197 -0.027091527 -0.06676459 0.07322088 0.07037532 0.011181931 -0.13609079

action_model._continuous_distribution.log_sigma f4 [1, 2]
00000000: 0000 0000 0000 0000
0.0 0.0

action_model._continuous_distribution.mu.weight f4 [2, 128]
00000000: fbf2 55bb 7a1a f03c fca3 8f3c fd62 adbb
00000010: fc5f 963c 12dc 5b3c e782 6e3c 0976 03bc
00000020: 50e1 b73c b711 1b3b 9d97 873b daf4 713c
00000030: 14b1 42bb 4103 883c 5fb9 87bc 860a b73a
00000040: 3f29 09bd db54 983c bb4d afbc 0afa 74bc
00000050: 0af8 c2bc 9f16 c83b 2ad6 d03c 4bbd 523c
00000060: 6b97 92bc 329f ae3b bff1 a43c 87d0 9ebc
00000070: 6a84 fc3b 42be 623c a0e4 4dbc 370f c5bc
00000080: 75a3 d4bc 349c 3bb9 630f 33bd af75 6bbc
00000090: a3e5 ad3c 42cd efbc 9e05 9a3c 370b 7b3c
000000a0: a72e 833b a420 84bc 4bd4 c8bb 5ce6 89bb
000000b0: 59af 42bc 466a 91bc 7a1d ee3c 601b 343c
000000c0: d50c e0bc ea3d 24bc aac8 8aba c714 5fbc
000000d0: 1f36 763c 18b9 6d3c 1a9a 213c 2f0f d3bc
000000e0: 37b1 873b fdf6 80bc bf8f 683c dd2e bbbb
000000f0: 16e3 28bc d728 803b 0a84 5a3c 67eb 0a3b
00000100: 488b f43b ab4a a6bc bf85 c1bc 56b7 2abc
00000110: fe14 9c39 b301 ffbc 36a0 afbc ab82 cd3a
00000120: af5a c6ba f3e9 4d3c ae4c a7bb 6a1a 41bc
00000130: 0338 d5bc 35a8 d3bb d200 5e3c 4b33 2736
00000140: dfba c63c e7ba c53c 3613 103c 56c6 33ba
00000150: ab5f c43c d28a 393c b983 9ebb f01c 353c
00000160: ad40 fbba 33e7 dfbb 08fb af3b 0374 2ebc
00000170: bb95 9cbc 66d0 043c 5aa0 18bd 9781 be3c
00000180: 0380 253c 50dc 8b3b e897 bbbb 6324 0dbc
00000190: 4156 4bbb d222 15bc 627e 513b ee45 8f3c
000001a0: 45ca cfbb 3920 bebb 6a36 643c 8548 293c
000001b0: 1265 9a3c e5ce 72ba 50f2 053d 43b5 9dba
000001c0: 2275 d23c 33e9 0bba 050b 1cbc 2741 5ebb
000001d0: 7583 dfba 43d0 98bc 1b02 febc 4e2c acba
000001e0: 70d3 8c3c ac60 c4bc 70aa 23bc 4110 12bd
000001f0: 5356 9fbc 6a73 643a f84c 10bd 4b8a 52bc
00000200: 3a1b 8ebc ebaa 6fbc 143e cabb a188 adbc
00000210: 1960 15bb 1fbb 753c 5053 a6bb 0bcf 373c
00000220: 2ac0 5bb9 b113 233c 905a 023c 101e 273a
00000230: 9777 f4bc 77d3 e8bb 9567 debb 4b8f fcba
00000240: 3aff 4dbd 3715 f73c bd60 143c 3b7b 90bc
00000250: a022 90bc e73f 2bbc 118a 883b a7b9 b33c
00000260: b965 3e3c 0d17 6b3c 7c83 063d 1ffa b63c
00000270: 285b 63bc 2731 083d 0a3b 1dbc b295 023d
00000280: 8ef7 26bc 0e82 47bc 5387 91bc e392 08bd
00000290: 4a67 e2bb 5896 f13b 0888 69bb 0d2c cf3c
000002a0: f13f 293c d855 753c 1774 d43b a70a 2b3b
000002b0: 8a0e 2dbb f485 09bd ff72 3ebc 3649 23bd
000002c0: 47e3 29bc 1712 ddbc 6203 853c 64f6 90bc
000002d0: 30e6 de3c 3058 d7bc 9ad9 b7bc 2474 45bc
000002e0: 432a 24bc f47a 383c 2a92 d83b 1670 8cbc
000002f0: 5d4f b03c 5b30 5f3c 97a1 ac3c 0bab 423c
00000300: 9bcc ccbc 9bc8 2f3c 5602 a33c d341 e83b
00000310: f6cc ae3c 1830 b8bb 6653 a1bc ade5 f93b
00000320: 6bf4 f3bc 07f4 813b 5333 f63b ce24 21bd
00000330: 57b7 f33c 6fef e1bb 0f67 96bc 1bf1 6bbc
00000340: 5290 91bb 6814 a9bc 9d31 f13c c2f0 2e3d
00000350: 80e7 f63c 9229 a13c f01d d9bb d312 46bc
00000360: 2faa dc3b d378 763c 6f23 5d3c c676 8aba
00000370: 4d6a f3ba 330c b5bc 210a c53c 8397 a23b
00000380: fa95 d63c f576 6c3c ab92 fa3a 6ba3 e13c
00000390: 6197 873c 832c 8c3c c7cc eb3b abac 0a3c
000003a0: 7864 54bb 7abc 96bc b8b7 82bb ca55 b7bc
000003b0: 09de 373c 5baa 183d 7b28 b6bc d5c1 4dbc
000003c0: adf9 bf3a 040d 033d 7fd4 2cbc b8a1 b4ba
000003d0: 9b01 b3bc 60eb 6abc 480c 1a3c be75 b8bc
000003e0: 6a64 a53b 9e64 b13c b3e0 3f3b 4f98 b0bc
000003f0: 228e 5c3c f386 623b 1365 06bc 878f 823c
-0.0032646048 0.0293095 0.017534249 -0.0052913413 0.018356316 0.013419168 0.014557577 -0.008023747
0.022446305 0.0023661682 0.0041379468 0.01476785 -0.0029707598 0.016603114 -0.016567884 0.0013964928
-0.0334866 0.01859515 -0.02139937 -0.014952192 -0.023799915 0.0061062123 0.025492746 0.012862514
-0.017894467 0.005329036 0.020134805 -0.019386543 0.0077062147 0.013839306 -0.0125667155 -0.024055107
-0.025956849 -0.000178919 -0.043715846 -0.01437132 0.021227663 -0.02927268 0.018801507 0.015322498
0.004003364 -0.016128846 -0.006128823 -0.004208369 -0.011882626 -0.01775087 0.02906679 0.010992855
-0.027349869 -0.010024527 -0.0010588367 -0.013615794 0.015027552 0.014509462 0.009863401 -0.025764076
0.0041409987 -0.015742773 0.014194428 -0.0057123736 -0.010308048 0.0039111185 0.013337145 0.002119744
0.0074628927 -0.020299276 -0.023623345 -0.010419687 0.0002977028 -0.03112874 -0.0214387 0.0015679201
-0.0015133227 0.012567985 -0.0051055765 -0.011786083 -0.026027685 -0.006459261 0.01355 2.4914796e-06
0.024259029 0.024136974 0.008793643 -0.00068578625 0.0239714 0.011324601 -0.00483748 0.0110542625
-0.0019169055 -0.006832981 0.0053705014 -0.010647777 -0.019114366 0.008106327 -0.0372623 0.023255153
0.010101321 0.0042682067 -0.0057248957 -0.008614632 -0.0031026753 -0.00910254 0.00319662 0.0174894
-0.006341251 -0.005802181 0.013928989 0.010332231 0.018847022 -0.0009262397 0.03270179 -0.001203217
0.025690619 -0.00053371786 -0.009524112 -0.0033913346 -0.0017052727 -0.018653994 -0.031006863 -0.0013135762
0.017190665 -0.023971878 -0.009989366 -0.035660032 -0.019450342 0.0008714708 -0.035229653 -0.012850354
-0.017346967 -0.014628152 -0.006171951 -0.021183314 -0.0022792874 0.014998226 -0.0050758496 0.0112187965
-0.00020957054 0.009953425 0.007956162 0.0006375024 -0.029842181 -0.0071052867 -0.0067872503 -0.0019268779
-0.05029223 0.030161483 0.009056267 -0.017636886 -0.017594635 -0.010452247 0.0041668494 0.021939112
0.011620932 0.014348757 0.032840237 0.022336064 -0.013876714 0.03325 -0.009596596 0.03188104
-0.010190858 -0.012177004 -0.017764723 -0.033343207 -0.0069092857 0.0073726587 -0.003563406 0.02528956
0.010330186 0.01497408 0.0064835656 0.0026098879 -0.002640637 -0.033575013 -0.011624097 -0.03986474
-0.010369129 -0.026986165 0.016236965 -0.017695613 0.027209371 -0.026287168 -0.022442628 -0.012051616
-0.010019842 0.011259783 0.006609221 -0.01714329 0.021522218 0.013622369 0.021073146 0.0118816
-0.024999907 0.01072898 0.019898575 0.007087925 0.021337967 -0.0056209676 -0.019693088 0.0076262564
-0.029779634 0.003965858 0.0075134425 -0.03934174 0.02975051 -0.006894998 -0.018359689 -0.014400746
-0.004442253 -0.020639613 0.029442603 0.042710073 0.030139685 0.019673143 -0.0066258833 -0.012089449
0.0067341547 0.015043455 0.013497218 -0.0010563962 -0.0018571109 -0.022100544 0.024052681 0.0049619093
0.026194561 0.014432658 0.0019117197 0.027543744 0.016551675 0.017111069 0.007196042 0.008464019
-0.0032408517 -0.01840042 -0.003989186 -0.022379775 0.011222371 0.03727184 -0.0222361 -0.01255842
0.0014646553 0.031994835 -0.01054871 -0.0013781106 -0.021851351 -0.014338344 0.009402342 -0.022517081
0.0050473707 0.021654423 0.0029278218 -0.021557001 0.0134616215 0.00345653 -0.008202809 0.01593758

action_model._continuous_distribution.mu.bias f4 [2]
00000000: 0000 0000 0000 0000
0.0 0.0

action_model._discrete_distribution.branches.0.weight f4 [1, 128]
00000000: 8c30 9a3b 1820 83bc 50ad 5d3b 4871 22bb
00000010: d53a 8b3b 89d1 88b9 dbb6 243c f8a6 a5ba
00000020: 4828 81b8 d397 993b 4de5 8a3c 42c3 e1bb
00000030: 7fbf 90b7 6cfa 29bc 315e cabb fe71 15bb
00000040: 3ef2 45bb 62b5 b5b9 6795 a63b dbfe 433c
00000050: 3893 d03a c3d3 7dbb 199c aabb 12fc 5d3c
00000060: 5fa8 8b3c a04e 293b c60a 193c 3f66 eb3b
00000070: 1f47 81bb 7661 1bbc c2b3 5d3b dabc 993b
00000080: 1b7f 76bb 5dff 2b3c d626 123c 83ec 87bc
00000090: 73f8 4f3b 1b0c 83bb b78f 343b bb22 64bc
000000a0: 853f 2bbb 9fcf f9bb ddd7 3e3a 73ef 87bb
000000b0: a4e6 8c3b a522 dc3b ebe6 af39 97bb 98bb
000000c0: 675d 82bb ef61 de3b 8b29 2d3c 3b35 bfba
000000d0: 8799 ee3b dd52 e239 5a60 eeb9 0413 4bb9
000000e0: d893 9aba 9536 a83c 4c86 1c3b d099 4e3c
000000f0: 4339 18bb 4f8c ccbb faaa f93a 8a0a 783c
00000100: b867 a43a 0dc8 59bc 31ee 46bc dfb6 92bb
00000110: aba5 99ba 88fa 7e3b bf27 8b3b d354 15bc
00000120: 736e 0bbb 2d9e 263b 1d5e 4fbb 971e ceba
00000130: 1d7d f2bb 029e 1cbc 942a 863c c5d2 77bb
00000140: 5d57 84bc 176e 8abc afec 98bc fb76 cd3a
00000150: 5f85 d8bb 309c ed3b 831e 30bb 481d 793b
00000160: 7b58 51bb 8f58 87bc 8d90 ebba a38d 233c
00000170: 5ec2 913b 4f0a f6ba b74b d33a e35c 823c
00000180: bb9f 23b9 1f76 bf3b 2a09 6d3c cbd6 1cbc
00000190: 4654 a1bb 222d f23b 8bcf 8eba f230 6ebb
000001a0: f966 87bb eb7a ea3b 3830 15bc 26a4 853c
000001b0: f39f 86bb b5c6 d03b c549 fdbb 510b a1bc
000001c0: 2207 fa3b ae0e bc3b fbb6 cdbb 90b8 7c3b
000001d0: 63ab 56bc 5f64 05b9 98e3 f73b 277c 85bc
000001e0: 8459 243c 21f7 c137 83a3 7abc e2fe 36bc
000001f0: a265 2b3b 8f0b f23b 9690 9cbb e535 ce3b
0.0047054943 -0.016006514 0.0033825226 -0.002478676 0.0042489567 -0.00026096057 0.010053362 -0.0012638262
-6.158702e-05 0.0046872883 0.016955042 -0.0068897316 -1.725531e-05 -0.010374647 -0.0061757793 -0.002280354
-0.0030204202 -0.0003465815 0.005083728 0.011962618 0.0015913015 -0.0038730956 -0.0052065966 0.013548868
0.017048059 0.0025834218 0.0093409475 0.0071838195 -0.003945246 -0.009483686 0.0033829068 0.0046917023
-0.0037612382 0.010497895 0.008920392 -0.01659227 0.003173378 -0.003999246 0.002755148 -0.013924296
-0.002613039 -0.0076236273 0.0007280091 -0.0041484176 0.0042999554 0.006717997 0.00033550648 -0.0046610343
-0.0039784196 0.006786577 0.010568987 -0.0014588007 0.0072814855 0.00043167817 -0.00045466685 -0.00019366672
-0.0011793328 0.02053384 0.0023883758 0.012609914 -0.002322749 -0.006242312 0.0019048147 0.015139231
0.0012543118 -0.013292325 -0.01214175 -0.0044773663 -0.0011722347 0.0038906652 0.0042466815 -0.009114462
-0.002127555 0.002542387 -0.003164179 -0.0015725669 -0.0074001686 -0.009559156 0.016377725 -0.0037814837
-0.01615494 -0.016898198 -0.018667547 0.0015675718 -0.006607696 0.007251285 -0.0026873655 0.0038011838
-0.0031943608 -0.01652172 -0.0017972157 0.009982499 0.004448219 -0.0018771383 0.0016120587 0.015913432
-0.00015604396 0.0058429386 0.014467517 -0.009572695 -0.0049233763 0.007390634 -0.0010895593 -0.0036345092
-0.0041321483 0.0071557662 -0.0091057345 0.016313624 -0.004108423 0.006371344 -0.0077297413 -0.019658716
0.007630245 0.0057390546 -0.0062779165 0.0038562156 -0.013102385 -0.0001272126 0.007564973 -0.016294552
0.010031108 2.3122471e-05 -0.015297773 -0.011169167 0.0026153107 0.007386632 -0.004777978 0.006293046
