Assets/Learning/AIRollABall/results/TestParameters/AIRollABall/AIRollABall-1013184.pt (torch, 574872 bytes, 42 tensors)

network_body._body_endoder.seq_layers.0.weight f4 [128, 47]
00000000: 7f21 ad3e 1e4f ca3d c10d a4bd e21b 503e
00000010: 5169 063e 6e08 423e 3f26 8a3e 7353 11be
00000020: 2668 78be 09de 3fbd be1e e4bd 832a 783e
00000030: 2716 4d3e 2b74 24be 882f 0c3e 42e4 423e
00000040: d4fc d13d 8f52 0e3e 993f 023d 8472 1ebd
00000050: 4812 3ebe 9cdb 0abe ae0b a5bd ab81 793d
00000060: 6076 a9bd 63be 80bd 2b50 5cbd bf0b 00be
00000070: 23fe d43c a46e bbbd 347a 593d ba17 c4bd
00000080: 05f8 283e d719 3ebe 5089 203c d837 683d
00000090: 092f d4bd e98d 8ebd 7c53 40bd d2cc 21be
000000a0: a390 15be 75b1 bf3c d321 8d3d 9b23 003e
000000b0: 653e f7bd c404 453e d3da 07be 1fd4 0bbe
000000c0: d4a2 5a3d d613 b5bc 20b4 503c 2088 033e
000000d0: e54d 043d 6ee4 fb3b 2a87 82be 6119 56be
000000e0: a5a5 813c 3bc4 113b ded2 a5bd c658 80bd
000000f0: e7cc 3abe f720 a8bd e548 f53d ffc0 aabd
00000100: cf24 ab3d f6fd 7ebe 0c69 d0bd b29e ca3c
00000110: 965a 1dbe 1057 853e 2a8b 763e 7ba9 823d
00000120: 1a0d a1be 5a15 3e3e 11bd 15bc b44e 823d
00000130: e08f 47be 9fdf 0bbe 0321 623d f231 313d
00000140: 501f 563d e2d8 90be b335 1fbd b2a4 8abe
00000150: f82b 02bd b5e5 303e ebfd 553e 1da5 2b3e
00000160: 6996 133e 15f3 56be c984 79bd 15ff 043e
00000170: 2f32 90bd ff70 2a3e bc93 7a3d a836 0bbe
00000180: a370 abbd b792 0c3d 8afd a3ba 3805 a8bd
00000190: 09f4 d83d 1b65 bf3d 9ebc 6e3e 6a6b 33be
000001a0: 5b01 a33e 3fb1 073e f0c9 ffbd c253 e7bc
000001b0: b034 80be 6f5c 983d e124 3dbe 5db5 883d
000001c0: 49c7 d9bd b64e a93c 5cb1 c53d 3d62 5bbe
000001d0: bb77 d33d ecaf f7bc e86b 61bd ebfd 2bbe
000001e0: 9ace a1be 63a8 123e 05bc 493e 918e 09be
000001f0: 64f2 f53d bfdc 09be 63e5 ed3d 85de 5cbe
00000200: 1540 9dbe 5191 0dbd 42fb acbd da6f 5fbe
00000210: 4f64 a33e aac4 0fbe 57fa 08be 696a b93c
00000220: 1c63 12be 47ab b83d f1d7 423e 6935 a43d
00000230: 799f 19be aadf 1c3c 153c 043e 9047 ccbd
00000240: 42cf 413e 6dd6 7e3c 6616 d9bd a66f 143d
00000250: e7fb adbd 07f5 1fbe f839 59bd 1aa5 703d
00000260: 2940 b73d 1103 51be 292c 7fbc 3b8f 91be
00000270: 29a0 4fbe 9320 b3be e30f 4c3e 8eb1 65bb
00000280: a644 bcbd ff1c 983b 9f5a d7bd 0d0c ae3d
00000290: 50de 88be beed 143e 57f7 9bbe 2de2 4f3e
000002a0: c23a 7f3b 2e37 003e 2a6f 09be e303 cabd
000002b0: 9c76 833d a038 22be 4e6f df3d 00a8 473c
000002c0: 6028 203e 3d68 0fbd e137 813c 649b ac3e
000002d0: 4c8b 68be dc50 963e 25d6 c9bc d6c7 d83d
000002e0: b522 27be a60f cdbd b569 69be 0c81 2abe
000002f0: 3b14 393d a2e2 163d fadc 3c3d d356 0b3e
00000300: 2120 80bc 6c44 fa3d 7ec1 5cbe d45c 983c
00000310: 6aff adbd 7428 00be fb2b db3d f256 a03d
00000320: 0229 373b 1465 b03d 012d afbc b0df 55be
00000330: 9186 99ba 1918 b0bd bc14 923d f945 b7bd
00000340: f284 88be 0058 94bc 3cfd ae3d 8d2b ac3d
00000350: 69a4 c8bd 7e97 cb3d 028b 833d 338d 8abd
00000360: 0a91 c9bd 82d7 853c 83f9 473e acea b2bd
00000370: cdab a3bd 38ff 48bd dde5 f6bc 65f0 2ebe
00000380: 97eb 1d3e 8379 653e 30da 163d 763e 96ba
00000390: a37a ac3d 5bc3 7a3e 82d8 b2bd 714c cabd
000003a0: 9523 5b3e d427 733d 0fd6 3d3e 3188 a6be
000003b0: da8d 133e d94a 553d b1f3 a3bd 2845 293e
000003c0: 29e3 5b3e df1e 1ebe 08e9 293e 1508 68bd
000003d0: f91e e2bd 1e9e afbd ca57 22be 56a0 37be
000003e0: 5237 9dbe 782e 13bd 45ca 27bd c5d8 babd
000003f0: fd78 933d b54c 2d3e ab66 b2bd 6a33 02be
0.33814618 0.09878372 -0.08010436 0.20323136 0.13126113 0.18948528 0.26982304 -0.1419199
-0.2425848 -0.04684261 -0.11138676 0.24234967 0.20027982 -0.1605994 0.13690007 0.19032386
0.10253301 0.13898681 0.031798933 -0.03868343 -0.18561661 -0.13560337 -0.08058868 0.060914677
-0.08274531 -0.062863134 -0.05378739 -0.12504481 0.026000088 -0.091519624 0.053095058 -0.09574838
0.16500862 -0.18564545 0.009798363 0.05669388 -0.10360534 -0.06960661 -0.046954617 -0.15800789
-0.14605956 0.023400048 0.06891217 0.12513582 -0.12072448 0.19240099 -0.13267069 -0.13655137
0.05337794 -0.022104185 0.012738258 0.12844896 0.03230085 0.007687143 -0.25493747 -0.20908119
0.015826056 0.0022242207 -0.0809686 -0.06266932 -0.18242227 -0.082094125 0.11976794 -0.08337592
0.0835663 -0.24901566 -0.10176286 0.024733875 -0.15366587 0.26042986 0.24076524 0.06379982
-0.31455308 0.18562832 -0.009139315 0.06362668 -0.19488478 -0.13659523 0.055207264 0.043260522
0.052275956 -0.28290468 -0.03886957 -0.27078778 -0.031780213 0.17275126 0.20897643 0.16762204
0.14412846 -0.20991166 -0.06091765 0.12987931 -0.07040822 0.16644667 0.061176047 -0.13595068
-0.08371093 0.034319606 -0.0012511474 -0.082041204 0.10593421 0.09345456 0.23314139 -0.17521444
0.31836972 0.13251208 -0.124896884 -0.028238181 -0.25040197 0.07439505 -0.184711 0.06675217
-0.10633714 0.020667415 0.09652969 -0.21424194 0.10325571 -0.030235253 -0.055034548 -0.16796081
-0.31602937 0.14322047 0.1970063 -0.13433291 0.12009123 -0.13463114 0.11616018 -0.2156926
-0.30712953 -0.034562413 -0.08446361 -0.21820012 0.31912467 -0.14039865 -0.13376747 0.022633748
-0.1429562 0.090170436 0.19027688 0.08018 -0.1500224 0.00957481 0.12913544 -0.09974587
0.18926719 0.015554053 -0.10599975 0.03623929 -0.08495312 -0.15620814 -0.0530338 0.058751203
0.089477845 -0.20411326 -0.015574493 -0.2842959 -0.2027594 -0.3498579 0.19927935 -0.0035048458
-0.09192781 0.0046421285 -0.105153315 0.08498392 -0.2673211 0.14543816 -0.30462143 0.20301123
0.0038944934 0.1252105 -0.13421312 -0.098640226 0.06419107 -0.15841913 0.109099016 0.01218605
0.15640402 -0.03501152 0.015773715 0.33712304 -0.22709388 0.29358566 -0.024638245 0.10584991
-0.16321833 -0.1001275 -0.2279423 -0.1665079 0.04518531 0.036837228 0.046109177 0.1360734
-0.01564032 0.12220082 -0.21558186 0.018598951 -0.08495982 -0.12515432 0.10701748 0.078290835
0.0027948027 0.08613029 -0.021383764 -0.20886111 -0.0011713078 -0.08598346 0.07132861 -0.08948893
-0.2666393 -0.018108368 0.085443944 0.08406744 -0.09796984 0.09941004 0.06422998 -0.06765213
-0.09842117 0.016338114 0.19528775 -0.08736166 -0.07991753 -0.04907152 -0.030138904 -0.1708389
0.15421902 0.22409634 0.036829174 -0.0011462707 0.084218286 0.24488585 -0.08732702 -0.09877861
0.21400292 0.059364155 0.18538688 -0.3252578 0.14409581 0.052073333 -0.08005465 0.16530287
0.21473373 -0.15441464 0.165928 -0.056648333 -0.11041064 -0.0857508 -0.15853801 -0.17932257
-0.3070627 -0.035932988 -0.040964384 -0.09123377 0.07200811 0.16923793 -0.087109886 -0.12714925

network_body._body_endoder.seq_layers.0.bias f4 [128]
00000000: 1a31 ef3b e5f2 9fbb 74fe 95bc bf69 a4bc
00000010: 3508 b0bc 3a1b d33b d68f babc f10f f73b
00000020: e074 1abc 417e 89bc d273 b63b 2c17 06bc
00000030: f6eb eabc b54b 0cbd 812e b23a 147a 0abd
00000040: 46bc 56bc e88f 13bd d59e 783b 2683 493c
00000050: 2543 ca3b cdd4 01bb 35c4 3d3c ddd0 8d3b
00000060: ce13 8c39 a335 febb 483a 36bc ba55 88bc
00000070: c8bf f0ba ee53 77bc a900 783c 9e26 ca3b
00000080: 89ae 843a b378 61bb b3f9 96bc 8e79 caba
00000090: e8ef 163c 4ad4 2e3c ad8f 7bbc 7172 a9bc
000000a0: 193f 81bc f5cf a13c 7c45 3d3c 523a 1c3c
000000b0: d91f 343b 558f eebb be83 2cbb 4cd2 323c
000000c0: cece 823b 2792 713c 11f1 43bc 68bf 88bc
000000d0: d38e ad3a 1f4b 3dbd 2287 523c 5216 a2bb
000000e0: 1f3f 1c3c c419 41bc c15d 063c 4692 afbc
000000f0: 93e2 3d3c 9efd 8f3b 39e6 bebb 6522 f53c
00000100: e009 e3bb d162 a9bc 7a85 3dbc 4c64 54ba
00000110: e657 a2bb b868 023c a8f4 083c f264 6fbc
00000120: f7e0 eb3c 9626 dd3b 9b84 53bb 721a 553c
00000130: 3e1c 4f3b 3c5a 3b3c 0eca 1a3c 7c15 efbb
00000140: 8ef5 7a3c 1caf b1bc b433 733b 5efd b23b
00000150: 0ce7 073b 023a c83c fce2 583c e156 23bc
00000160: f2e3 763c 2d6f 593c d5d3 f43b 5aea 813b
00000170: 9953 54bb 7dd7 693c 734d c6bc 5c8d 8cba
00000180: 7cc0 9cbc 0ac7 67bc 1928 d2bb 65e8 d73b
00000190: bd99 01bd c479 efbb 8b94 4bbb 9573 d13b
000001a0: 4b60 04bc da18 f9bb 22c1 4b3c 58a9 c6ba
000001b0: 9519 4f3a 5797 8bbc 3c75 9abb 2c64 86bc
000001c0: f83f bb3b f062 383b fdbb 42bb dbdd 183c
000001d0: 72c4 3dbc 34ad 76bc 4b36 783c 39aa a73b
000001e0: ce3e 87bc f35b ee3b ada5 ddbc 50e9 deba
000001f0: 4082 0dbc bc6a 3fbb d7d6 c4bb a329 2abc
0.0072995545 -0.00488125 -0.01830981 -0.020069955 -0.021488288 0.0064424546 -0.022773664 0.007539742
-0.009427279 -0.016783835 0.005568006 -0.008184236 -0.028676968 -0.034251887 0.0013594182 -0.03380783
-0.013106411 -0.03602591 0.0037936468 0.012299335 0.006172555 -0.0019810677 0.011582424 0.004327877
0.00026717637 -0.007757859 -0.011122294 -0.01664244 -0.0018367702 -0.015095694 0.015136876 0.0061691543
0.0010122816 -0.0034404218 -0.018429613 -0.0015447603 0.009212472 0.010670731 -0.015354079 -0.020684453
-0.015777158 0.019752482 0.011552211 0.009535389 0.0027484803 -0.00728027 -0.0026323642 0.0109143965
0.003991938 0.014744318 -0.01195933 -0.016692832 0.0013241417 -0.04621422 0.012849601 -0.0049465084
0.009536534 -0.011785928 0.008201064 -0.021432053 0.011589664 0.004394247 -0.0058257845 0.029923627
-0.0069286674 -0.020677002 -0.011567468 -0.00081021036 -0.004954326 0.007959537 0.008359112 -0.01461147
0.028793795 0.0067489846 -0.0032275084 0.013006793 0.0031602527 0.011435088 0.009447588 -0.0072962623
0.015317334 -0.021689944 0.0037109675 0.0054623326 0.002073708 0.024441723 0.013237711 -0.009969444
0.015068995 0.013271135 0.0074715414 0.0039647045 -0.003239846 0.014272568 -0.024206853 -0.0010723281
-0.019134752 -0.014146576 -0.0064134714 0.006588983 -0.031640757 -0.0073082168 -0.003106388 0.0063919523
-0.008079599 -0.0076018395 0.012436183 -0.001515667 0.00079002354 -0.017039938 -0.0047136825 -0.016405188
0.005714413 0.0028135143 -0.00297141 0.009330238 -0.011582481 -0.015055943 0.015149663 0.0051167277
-0.01650944 0.007274145 -0.02705654 -0.0017006788 -0.008637011 -0.0029207906 -0.006007056 -0.0103859035

network_body._body_endoder.seq_layers.2.weight f4 [128, 128]
00000000: 8379 9f3d adad 353e a443 9e3d 3d7a f63d
00000010: 97d9 13be ea49 92bd f21b 92bc dea2 b8b9
00000020: 5395 01bd f083 e43b 0bf3 7bbd ae48 b33c
00000030: 245f 463d 53b0 3e3d 4d5c eb3c 6a5b a9bd
00000040: 5ee2 fc3c 7e68 883d 62a8 ec3d 664a c63d
00000050: 6317 1db9 81dd 4c3d ad6b 8cba c627 933d
00000060: c0b7 893d 0ac6 c0bd ab5d 1d3b 793b 19bd
00000070: 53c8 98bc 970f 04bd d835 a3bd a2b5 fd3d
00000080: d7c0 ef3b 1045 03bc 558e bdbc 8120 9abc
00000090: bfe1 013d 5cc5 803c 59a4 dbbd b154 3b3d
000000a0: c373 1f3d b984 93bb e02e 463d 4a3b d7bb
000000b0: b8e9 813d 055f 113e 9808 663d 888f c3bd
000000c0: b3d2 febc 3e5d 233e e450 37bd 1f7d 7fbd
000000d0: 1835 123d 4131 8abb b16b 833c 5dd2 c43d
000000e0: 48ad da3d 0807 05bd 553a a03d 8a9b 0eba
000000f0: 32cb 39bd 2383 bcbc 4697 0d3c 9ab1 b1bc
00000100: a233 82bd 288a 3a3e 98d4 c8bd 622b 76bd
00000110: ce0a 98bd f1b7 98bd 5d83 b93d 79df 413d
00000120: 5cc9 073e a940 823d 2a6e be3d f469 073c
00000130: 477f d5bc 08be 0c3d 70a1 ac3c 55b9 d4bd
00000140: 67f6 72bd 89c3 bf3d c042 ddbc bcd4 9fbd
00000150: 6714 3a3d c96f 9abd af0a 23bc 460a acbd
00000160: 5ea9 0cbd 7602 a23a 6bd5 ce3b b224 efbc
00000170: fe4e 21bc ba05 52bc 9058 b73d 1e20 1abd
00000180: 86b5 573d 1647 35bc a551 c13d d64d 1bbe
00000190: 3c86 b9bd 8d01 4abd 9715 99bd 353a d5bc
000001a0: d1b6 cb3c ff8c 593c df9c d23d f9c4 483e
000001b0: c3ce 003d b674 2fbd 1829 c33d eb2d 123e
000001c0: 4b6f 10bd 25dd 803d 96a3 4ebd cc72 b0b9
000001d0: 8cf9 063d 5b52 9dbd d25e fab9 ab45 dcbb
000001e0: 0193 1d3e fdea ba3d dcff 5a3d 211d 02bd
000001f0: 0dd8 be3d 6fba 6d3e f784 e13c 0d48 153d
00000200: caa4 073c eae5 bd3c 66c8 c03d 6d84 61bc
00000210: cc2c f7bd c066 753d 4048 a5bd adf8 563c
00000220: 2b8e ba3d b47a ea3c fae9 03bd 819e 04be
00000230: a7c2 f3bd efa5 e3bd a7f5 853d 5a37 aebc
00000240: fdea dbbd 29d0 d0bc c865 433d e74f 5ebd
00000250: b780 bd3c b79a 343c a6d3 4c3e 5270 773d
00000260: 665b 083e 9230 d73d c713 1abd 954a 37bc
00000270: cc83 583d 928f 37bd bd82 fa3d a606 43bd
00000280: c3f0 053e f101 ac3d d4ab 753d 0991 623d
00000290: ba40 8b3d 8ee4 eebc 4823 85bd c586 363d
000002a0: 0f90 333e 71a6 2b3d 3ed6 a73d 1b6b 44bd
000002b0: 1b3c 2f3e 6676 8f3d 6c17 98bd 3544 f93d
000002c0: 51c8 cc3c e40f ab3d ef9c 58bd fbad b8bb
000002d0: a4de 813e cbb1 b13d 17f2 f13b 2542 103e
000002e0: f3da 6dbd 556e 343d c388 323d 8493 103e
000002f0: ef8d 3f3d 5983 ca3d 3c5c 84bc b247 c8bc
00000300: e4df 153e 6074 b83c a187 2a3d 72e8 443e
00000310: 8b60 8d3b d938 a5bd e860 b1bc dc53 b73d
00000320: 6e0b b9bd 6a98 21bd c3d5 99bd 26cc 0f3e
00000330: 6bf5 c13d 7d60 a5bd ec89 6c3d b5b3 693b
00000340: 7d78 ae3d 3790 d33d f0cb 653e 0ba5 d33b
00000350: 01c0 dd3c 95e0 3e3d ccdb 11be 271c d43d
00000360: 6599 3e3e 3a6a 313d 7a12 133d b47a 98bc
00000370: e95c 25be 9f89 893d 6457 fcbc 94c0 99bc
00000380: c429 983c ea04 e03d 7167 0abe 1683 14bd
00000390: 4be3 053c 24ea 933c 2417 6bbc 48f5 c03d
000003a0: a00b 80bd 744d 24be 973f 8c3d ac09 d33d
000003b0: 6a88 b0bd eccb f93d 4904 4ebd 3118 9dbd
000003c0: 457b 973c 9088 12be d40a 21bd 622b 6fbd
000003d0: d39b 02bd 6cd1 90bd 5a9a 4d3d f6b7 f5bd
000003e0: c494 c83d 48a2 a63d 22fe 903d 8cb3 ab3a
000003f0: 16d7 1e3d d039 043e 05a9 b1bb 55ae c1bd
0.077868484 0.17742033 0.07727745 0.12035034 -0.14438473 -0.07143004 -0.017835591 -0.0003521656
-0.031636547 0.006973736 -0.06151108 0.021885242 0.048430577 0.046554875 0.028730536 -0.08269389
0.030869659 0.06660555 0.11555554 0.09682159 -0.00014981399 0.05001593 -0.0010713242 0.071853206
0.06724501 -0.09412773 0.002401213 -0.037410233 -0.01865021 -0.03224143 -0.07969254 0.12388159
0.0073166895 -0.008012071 -0.023139158 -0.018814327 0.03170943 0.015719108 -0.10724706 0.045735065
0.03892876 -0.0045019058 0.048384547 -0.006568347 0.063434064 0.14196403 0.05616054 -0.09548861
-0.031106329 0.15953538 -0.044754878 -0.062375184 0.035695165 -0.0042172973 0.016042562 0.09610436
0.10677582 -0.03247741 0.07823626 -0.0005440047 -0.045359798 -0.02301175 0.008642023 -0.021691132
-0.063575044 0.18216765 -0.09806174 -0.060099967 -0.07423936 -0.07456959 0.09058259 0.04733226
0.13260406 0.06359989 0.09298356 0.008265007 -0.026061667 0.034360915 0.021073073 -0.10386912
-0.05931702 0.09363467 -0.027009368 -0.07804248 0.045429613 -0.075408526 -0.009951278 -0.08400397
-0.03434121 0.0012360353 0.0063120625 -0.029192302 -0.009845493 -0.012818748 0.08952439 -0.037628286
0.05266335 -0.0110643115 0.094394006 -0.15166411 -0.09058806 -0.049317885 -0.07474821 -0.026028732
0.024867447 0.013278245 0.10283827 0.19606389 0.031447183 -0.042835914 0.095293224 0.14275329
-0.035262387 0.0629218 -0.050448976 -0.00033654866 0.03295283 -0.07681724 -0.00047754362 -0.0067221723
0.15388109 0.09126852 0.053466663 -0.03176606 0.09318552 0.2321565 0.027529223 0.036445666
0.008279035 0.02318092 0.09413223 -0.013764483 -0.12069091 0.059912443 -0.08070421 0.013120812
0.09109148 0.028622963 -0.03220556 -0.1295109 -0.11902361 -0.11115634 0.06540995 -0.021266628
-0.1073818 -0.025489883 0.047704488 -0.05427542 0.023132665 0.011023215 0.20002612 0.06040985
0.13316116 0.10507311 -0.037616517 -0.011187215 0.052860066 -0.044814654 0.122319676 -0.047613762
0.13080125 0.08398808 0.05997832 0.055314098 0.06799455 -0.029161718 -0.0650087 0.04456212
0.17535423 0.041906778 0.0819516 -0.047953706 0.17112772 0.070050046 -0.07426342 0.121712126
0.024997862 0.0835264 -0.05288404 -0.0056359745 0.25365174 0.086764894 0.0073835957 0.14087732
-0.058070134 0.044050533 0.043587457 0.14118773 0.046766218 0.09888334 -0.016157262 -0.02444825
0.14636189 0.02251643 0.041633252 0.19229296 0.0043144873 -0.080674835 -0.021652654 0.08951542
-0.09035383 -0.039451994 -0.07511475 0.1404272 0.09470638 -0.08075044 0.05774872 0.0035660092
0.08519075 0.10330241 0.22441077 0.0064588836 0.027069094 0.046600897 -0.14244002 0.10356932
0.18613203 0.043314196 0.035906292 -0.018613197 -0.16148724 0.06715702 -0.03080339 -0.018768586
0.018574603 0.10938437 -0.13516022 -0.036257826 0.008171867 0.018055983 -0.014348779 0.09421784
-0.06252217 -0.16045171 0.06848066 0.10304579 -0.08619769 0.12197098 -0.050297055 -0.0767063
0.018491397 -0.14309907 -0.039316967 -0.058390982 -0.031886887 -0.07071194 0.05019603 -0.119979784
0.09794 0.081364214 0.07079722 0.0013099774 0.03877934 0.12912679 -0.00542176 -0.09457079

network_body._body_endoder.seq_layers.2.bias f4 [128]
00000000: a53d 4abc 950e f7bb ee0c 243c c06d 08bc
00000010: dddf aabc a861 203c 27ae 85bc 32bc a1bb
00000020: a8f3 1dbc d99a 9cb9 45e3 08bb 4beb a53b
00000030: 1631 0d3c ebc5 5dbc 6f4e bdba 9a06 453c
00000040: cf5e b9bb 737b 59bb 761f 963c c6c8 00bc
00000050: 276d 2e3c a0a3 263c 85a0 b9ba c777 66bc
00000060: 4d9c 943a 1d24 27bc 1ee8 e7bc b1aa 4ebc
00000070: 16c7 00bc 4016 55bc efe2 d9ba a053 8fbc
00000080: 8554 aebc 4a50 2c3c a77b f43b 3f64 b3bb
00000090: 59c1 223c 31c1 a2bb 4a72 153c 90c8 c43c
000000a0: 3b24 cebb c212 5f3c c9fd 2f3c 61fd 253c
000000b0: 1226 a7bb 3295 27bc 9ad8 5dbc 9262 dd3b
000000c0: d957 0e3c 3ae6 20bd 41e2 17bc e1b3 f8bb
000000d0: 4d5c b23b 807a f23c 90d8 753b d6fb e43b
000000e0: a58e cebb 9978 bcbb 2078 843c 41e1 68bb
000000f0: c6a6 55bb 6044 8fbc 5203 1c3c 5803 dcbc
00000100: 2983 c03c d989 11bc 3feb 3fba e964 553b
00000110: 885f 58ba 8205 f83a 2422 453b b688 7c3b
00000120: b190 53bc 3f8f 57bb 5482 0c3b d85e 4c3c
00000130: 2ddd 923b a1e9 58bc add9 72bc 0834 83bc
00000140: 8387 1dbc 61e4 d8bb d619 33bc 985c 763b
00000150: 715c 833b 8454 48ba e279 d1bc bd45 243b
00000160: 668c c83b d680 4ebc ef67 06bc a3df bfbb
00000170: fb42 c0ba 0b87 a4bc 690c 5bbb 8823 7a3c
00000180: 498a 82bb e436 7839 b542 ac3c db9a 9fbc
00000190: e083 053c 4cb9 f6b9 b43e 953c 6efc a73b
000001a0: a6c4 9e39 b221 3dbb 3ea1 2abb 7196 063c
000001b0: 0aa6 9c3b 0c27 78bc 31e4 443c 78ca c03b
000001c0: 6d71 2cbc 4d14 dabb e7d5 813a df66 f5bb
000001d0: 7d95 683b a254 82bc 6c7e 0b3c 705d bf3b
000001e0: 445c e33b 313a d2bb a7e1 633c 6025 81bc
000001f0: 7ca4 ad3b d2ae 0bbc 1f34 b53c 2c05 853c
-0.012343799 -0.00753958 0.010012848 -0.008326948 -0.0208587 0.009788908 -0.016318394 -0.0049357647
-0.009640612 -0.0002987001 -0.0020887416 0.0050634495 0.00861766 -0.013535957 -0.0014442931 0.0120255
-0.005657054 -0.0033185154 0.018325549 -0.007860368 0.010646141 0.010170847 -0.0014162218 -0.014066643
0.0011338085 -0.010201481 -0.028308924 -0.012613938 -0.007859966 -0.013005793 -0.0016623418 -0.01749593
-0.021280536 0.010517189 0.0074610296 -0.0054745967 0.009933793 -0.004966878 0.009121487 0.024021417
-0.00629094 0.013615312 0.010741659 0.010131211 -0.005100974 -0.010228442 -0.013540411 0.0067561353
0.008687937 -0.03928206 -0.009270252 -0.0075898026 0.005443132 0.029599428 0.0037513115 0.006988029
-0.0063036256 -0.005751681 0.016170561 -0.0035534652 -0.0032600625 -0.017488658 0.009522276 -0.026857063
0.023500042 -0.008882963 -0.0007321126 0.0032561368 -0.00082539814 0.001892254 0.0030080164 0.0038533635
-0.012912915 -0.0032891778 0.0021439986 0.012473784 0.0044819326 -0.013239295 -0.014822406 -0.016016021
-0.009614828 -0.0066190218 -0.010931453 0.0037591811 0.0040088226 -0.00076419883 -0.025570814 0.0025065981
0.0061202524 -0.012603959 -0.008203491 -0.005855517 -0.0014668399 -0.020083925 -0.0033424145 0.01526726
-0.00398377 0.00023671571 0.021027902 -0.01948302 0.008149117 -0.00047058833 0.018218376 0.0051265275
0.00030282623 -0.0028859195 -0.002603605 0.008214579 0.0047805356 -0.015146028 0.012017296 0.005883511
-0.01052509 -0.006655252 0.0009905667 -0.00748907 0.0035489493 -0.015909497 0.008514028 0.005839996
0.006938489 -0.0064156284 0.01390878 -0.015764892 0.005299149 -0.008525567 0.02211958 0.016237818

action_model._continuous_distribution.log_sigma f4 [1, 3]
00000000: 42c4 85bd 0a47 c1bd 0ab7 aebb
-0.06531574 -0.09437378 -0.0053318786

action_model._continuous_distribution.mu.weight f4 [3, 128]
00000000: 2170 423c 0d18 d2bc 1482 a93c acf1 7b3d
00000010: a8c7 12bc 665a 21bd c37d a4bc f53e f53a
00000020: 4142 333d 066b 903c 24dc 503c 60ad b43c
00000030: 60bb d43c d34d ccbc 6113 ccbc 73b2 b73c
00000040: 171f 27bc 431d 5abc 5214 fbbc 7269 bf3c
00000050: a96f e9bc 566e 1ebd 1041 00bd c7ce 2bbc
00000060: 57d4 053d f44c 4bbc dd3f 393c 9a6b ab3c
00000070: 52b9 91bb 89ef 9cbb 5dc4 8cbb 85f7 a93a
00000080: fc4e a83c 2679 27bc 0385 f73b 29b1 d13b
00000090: 6192 663c ed59 eeba 0ca1 35bb 900f 89bc
000000a0: 5d5e 55bc ecde cbbc ac3f a63c f8c6 883c
000000b0: f9de 45bb 4343 ce3c 90ea ac3c 28be a6bc
000000c0: 1b31 2f3c a534 0a3d 74a6 443c a85b a2bb
000000d0: e194 613c 8fad 353c d617 8cbb 2f6e 023a
000000e0: 3440 ab3a 5328 c6bc d611 9d3c 62d1 26ba
000000f0: 8824 1ebc 0c0f c5ba 6188 09bd e182 a43c
00000100: 2e45 be3c 969f 8cbc 9c37 16bd 8ff4 c53c
00000110: a76d 60bc 1c23 9fbc 982c d5b9 ee31 523c
00000120: ecfc 6e3c 88bd 523c 8693 20bc 3519 00bd
00000130: b481 a1bc 160c a6bc 4c62 183d b39f 68ba
00000140: 11c2 0d3c 0737 06bc 114d 8f3c 2211 c93c
00000150: 0df3 673b 4d21 a83c ae2a 9a3c 5906 7ebc
00000160: b2c2 c9bc 98e3 753c ad30 063b f472 203d
00000170: aa3d 513c efea f53b 5b71 71bb 2c9c 8abc
00000180: 31f0 a33c 0950 993b 29c7 a03c 28f7 123d
00000190: a56d b43b 8cc7 dc3c 8375 843d cee8 693d
000001a0: 0255 06bd 6b21 2ebc 48c3 893c 85cb ff3b
000001b0: b198 27bb 3fe6 f93c e3ca 0abd 4fc2 f6ba
000001c0: 16cc 0b3c 7ef0 9cbc 57da a8ba 3bc4 57bc
000001d0: 99f6 f7bc 4d00 d43c b316 653c 6f66 163d
000001e0: d328 a4bc 9364 febc 836b a8bc e7c9 2d3b
000001f0: 32f9 a23c 3aa8 14bc 3e22 73bd 85f1 adbc
00000200: bba9 d23b 7e7e e0bc 5f17 9c3a 840b ed3c
00000210: 2bfe 28bc ae7c bfbb 3c62 bdbc 74f0 9f3a
00000220: 0957 823c 7e95 673c 852b 683a ca41 83bc
00000230: a54c 843c ea5e 14bb fcac d4bc dd7c 87bb
00000240: 2623 29bc e0c5 d6bc 8781 7c3c fec9 6dbb
00000250: 5da4 923c 7514 0abb fc9b 16bc 1a6e 0abd
00000260: f2ba 623d 951c bbbc 09d0 c0bc d0a5 c4bc
00000270: 0518 d2bc 4bfb 6cbc 54da 55bb 9a94 2abd
00000280: 1cf1 1739 7335 523d cb39 4cbc 7b29 163d
00000290: 6c2f 1a3d f72e babc d900 cb3c 1af4 673d
000002a0: e20a 26bc e1cb 363d 0059 d33b 4606 103c
000002b0: ee14 74bc d8c7 fdbc 1a58 dcbb 17cc debb
000002c0: 44e2 693b cbee 19bc 4f98 25bc 60d5 143c
000002d0: 9883 1bbc ee24 813d 3128 933c 075c f63c
000002e0: 577b 62bc 23f5 ebbc db3e 123d 901c 8bbc
000002f0: f71c ee3b 540b f7ba b3d0 53bd 2ecd cfbb
00000300: 4380 323c 5630 533c f291 66bc 12ed b63c
00000310: 7100 d8bc 38eb 16bc edcf b53c 95ea 533c
00000320: e50a 46bb 4e53 93bc a8e3 0fbc c234 4cbc
00000330: 79e3 513d 74ea 29bc 1628 c93a 643f e0bc
00000340: 69c7 15bd c34b 78bc 5dcc babc e946 ed3c
00000350: e069 c43b 572e 7cbb 4473 6fbc e865 773b
00000360: 61bd 97bc 952e 323b f9d0 70bc 8c34 98bb
00000370: 34b8 003c 4521 d8bc 9595 fcbc a7c7 9d3b
00000380: 87e1 8cbc 9406 f43c b521 07bd a4b1 86bc
00000390: 2e78 a03c bb04 c63c 9359 0a3c 7f5e a0bc
000003a0: cde2 3cbd 14b1 46bc 37f9 a6bc 6bf3 1e3c
000003b0: 12b0 8b3a e9ca 92bc fb66 58bd f707 4d3c
000003c0: fb36 13bc 44e9 383b 2569 2abb fa2e 09bc
000003d0: c5f4 8f3a 571d de3c 213f bf3c 0214 5e3c
000003e0: 4f6c 8c3c 2e16 14bd 1c3c 943c 8876 d0bc
000003f0: ae38 80bd 9da7 473c ac0f 90bc a1c2 8ebb
0.011867554 -0.025646234 0.020691909 0.061509773 -0.008958735 -0.03939285 -0.0200795 0.0018710779
0.043764357 0.017629158 0.012747798 0.022055328 0.025968254 -0.024939453 -0.024911584 0.022423958
-0.0102002835 -0.013312641 -0.030649338 0.02336571 -0.028495627 -0.038679443 -0.03131205 -0.010486311
0.032673206 -0.012408484 0.01130673 0.020925332 -0.0044471407 -0.004789297 -0.0042958693 0.0012967443
0.020545475 -0.010221755 0.007553698 0.006399293 0.014072985 -0.0018184759 -0.00277144 -0.016731054
-0.013022986 -0.02488657 0.020294033 0.016696438 -0.0030192717 0.025178557 0.021107942 -0.020354345
0.01069286 0.033741612 0.012002576 -0.004954774 0.013768406 0.011088743 -0.0042753024 0.0004975525
0.0013065399 -0.02418915 0.019173544 -0.0006363598 -0.009652264 -0.0015034392 -0.033577327 0.02008194
0.023226347 -0.01716594 -0.036674127 0.024164466 -0.013698018 -0.019425921 -0.0004065975 0.012829287
0.014586668 0.012862571 -0.009800797 -0.03127404 -0.019715168 -0.020269435 0.03720312 -0.00088738947
0.008652226 -0.0081918305 0.017492803 0.024544302 0.0035392672 0.020523692 0.01881918 -0.015504443
-0.02462897 0.015007876 0.002047579 0.039172128 0.0127710495 0.007504813 -0.0036841247 -0.016920172
0.020011993 0.0046787304 0.019626217 0.035880238 0.0055062347 0.02695062 0.06467726 0.057106785
-0.032795914 -0.010628085 0.01681675 0.007806244 -0.002557319 0.030505298 -0.033884894 -0.0018826219
0.008532545 -0.019157644 -0.0012882453 -0.013169344 -0.030268954 0.02587905 0.013982463 0.036718782
-0.020038998 -0.031053817 -0.020559078 0.0026518048 0.019894216 -0.009073311 -0.059358828 -0.02123333
0.006428925 -0.027404066 0.0011908821 0.028936155 -0.010314505 -0.0058437204 -0.02311813 0.0012202398
0.015910642 0.014134763 0.00088565826 -0.016022582 0.016149828 -0.002263958 -0.025961392 -0.004134758
-0.010323321 -0.026217401 0.015411741 -0.0036283727 0.01790064 -0.0021069322 -0.009192463 -0.033796407
0.055354066 -0.022840777 -0.023536699 -0.024004847 -0.025646219 -0.01446421 -0.0032631354 -0.041645624
0.00014490302 0.051320504 -0.012464951 0.036660653 0.03764288 -0.022727473 0.024780678 0.056629278
-0.010134431 0.044628028 0.0064498186 0.008790558 -0.014897568 -0.030979082 -0.0067243697 -0.0067992317
0.0035687843 -0.009395312 -0.010107114 0.009084076 -0.009491824 0.06305872 0.0179635 0.030073179
-0.013823352 -0.028803414 0.035704475 -0.016981393 0.0072666365 -0.001884798 -0.051712703 -0.006341598
0.010894838 0.012889942 -0.014072882 0.02232984 -0.026367398 -0.009211354 0.022193873 0.012934347
-0.0030218896 -0.017984059 -0.008782305 -0.01246375 0.051242325 -0.010370839 0.001534703 -0.027373977
-0.036567125 -0.015154782 -0.022802526 0.028964477 0.0059940666 -0.003847977 -0.014614884 0.003774995
-0.01852292 0.002718841 -0.01469826 -0.004644936 0.007856417 -0.026383052 -0.030833045 0.00481506
-0.017197384 0.029788293 -0.03299113 -0.016442128 0.019588556 0.024172178 0.008444208 -0.01957631
-0.04611473 -0.01212718 -0.020382507 0.00970159 0.0010657331 -0.01791902 -0.052832585 0.012514106
-0.008985276 0.002821521 -0.0026002612 -0.0083730165 0.0010982981 0.0271136 0.023345532 0.013554575
0.01714149 -0.036153965 0.018095069 -0.025447145 -0.06260811 0.012185958 -0.017585598 -0.0043566977

action_model._continuous_distribution.mu.bias f4 [3]
00000000: 82ac 3dbc 2cff 653c 4558 1dbc
-0.011576774 0.0140378885 -0.009603565

action_model._discrete_distribution.branches.0.weight f4 [2, 128]
00000000: 9ad3 94bc a00c 1a3c a752 cb3c c80c 80bc
00000010: 36f7 cbba 52a5 ac3a 3488 cebc b081 72bc
00000020: b3ee 2b3b 4c03 a13c efa9 f7b9 3d18 96bc
00000030: 99a3 f13b 40c8 56bc 2445 d4bc b9c3 c63c
00000040: fd5b 073c 43c2 5b3b 3a1a d43c b513 c8bc
00000050: 8c55 35bc ff2b b4bc 5445 b0bc 18b1 17bc
00000060: 69a0 3c3d e15c dabc da8d cabc 4731 38bc
00000070: 35a9 81b8 35f4 b2bc 49c9 353c 63ad b0bb
00000080: 9e80 d3bc 62d3 93bb 831b 713c 2b6f 70bb
00000090: 8496 fdbb cdb2 bb3b a27c 8a3c eb2e 0c3c
000000a0: d4ae e0bb da38 0f3c 4677 9abb e867 cc3c
000000b0: 0d26 19bc 1451 05bc 90d3 72bc 26f7 a83c
000000c0: 8e14 8f3c 1cb6 77bc 090b a5bc 2feb 9ebb
000000d0: 5eb0 a73b 9801 ba3c c764 62bc 87ac 913c
000000e0: 35af 7abb 3dd2 8abc 4859 1f3d 7ce5 fb3b
000000f0: 348e 043b 69c2 48bc 18d2 3d3c 5611 96bb
00000100: 871b 1f3a cba1 aabc 10c4 97bc cb2c 2abc
00000110: 3c06 ee3b 882f 133c a31a 923b 324e 8ebb
00000120: c037 d1ba 206a 7c3b 3dd2 44bc b5f6 da3b
00000130: 31c0 e8bb a7d9 e439 7d56 c4bb 158e 27bc
00000140: ea02 833b e187 673b 1838 8bb9 0111 093c
00000150: 2488 363c e61f 80bc dc47 8e3b 69d0 f93c
00000160: 4781 9e3c fc34 36bc dabf aebc ab77 a8bc
00000170: 99b2 8e3c e290 f5bb b484 043c c351 893b
00000180: 2293 943b 09c6 3d3c ff84 153c f2e2 95bc
00000190: 9739 4e3c c47d 353b 1ae0 953c 3be6 363c
000001a0: cdfb d2ba 2111 0bbc 4ed3 403c ff9b 4d3c
000001b0: 6b09 053c f422 debc 39d1 b73b ee49 be3a
000001c0: f1da fe3b 3635 a33b 3a02 8cbc 197f 87bc
000001d0: 1f00 c33b eb1a 6dbb 5963 113b 0bca ae3c
000001e0: aaae 53bc 665e 44bc 2dc6 13bc df75 97bb
000001f0: f46d 80bc c5ef f2bb 35ab 22bc 08de c1ba
00000200: ae2e 293c 9958 01b9 1a00 513b 2fdf 023c
00000210: 0394 13bc cb28 d73b 6006 0f3d 7463 c23c
00000220: a0be b2bc 78c0 88bc 651b 68bc 7976 003c
00000230: a9c8 cebc dd42 e23c 5add ee3c 08e1 4cbc
00000240: de0b a7bc a4cd 6cbc 4f05 30bc 4f46 5cbc
00000250: e084 a73c cbc3 b43c 961a cf3c b31e 213c
00000260: 7767 2bbd f6c5 953c 90e9 4a3b 6bd0 c13c
00000270: 0d41 843b 3306 6eba 6927 6abc 9437 073c
00000280: 5b6b 843c 9964 58bb 555b 8bbc 3a93 5f3b
00000290: c69b eb39 41af c83a 0b09 3dbc bc67 abbb
000002a0: 5068 04ba cebe 13bc 5027 993a cbea e8bc
000002b0: 6b41 9d3c 284d dc3c 41b7 b73c a2d7 f4bc
000002c0: 0453 8ebc 6900 933c a328 843a 9274 0d3c
000002d0: 098e 74bc 8425 f0bc e6b3 7dbc a8d7 3b3c
000002e0: ad4b ea3b 09e9 4c3c d9e8 c9bc 5a35 50bb
000002f0: 7322 9dbb a3cb 4b3c 512f 10bb 7287 c33c
00000300: 69d4 2ebc d364 f93c 6d50 a13c 5f81 a13a
00000310: 39e8 ccba c90d f6bb 6c26 8bbc 024e 9d3b
00000320: 4154 8a3c 1eb1 d5b9 1877 bdbb 0c65 383b
00000330: a030 ab3b 3f1e 253c 921e 85bb 09d7 973c
00000340: 444c abbc 6412 11bc 3448 b63b 5522 af3a
00000350: 0a4a d4bb 3676 9e3c dbf5 8b3c c6f9 923b
00000360: 1b92 08bc 0d30 733b ebb9 9e3b f2e4 413c
00000370: d2af 4dbc 3f06 293a 864f 4537 1229 12bc
00000380: 9d8a be3a 19b7 623b b69a ccbb fc57 65ba
00000390: a9a7 3dbc cfd7 a93a 1235 13bc 0a67 cd3b
000003a0: 79fe bbbb 77e6 5bbc 9f61 29bc 7206 92bb
000003b0: c17d 47ba eeef cc3c 1a95 693b 384b 9b3b
000003c0: f31d 8bbb 7221 8b3b f13c 48bc 5db1 b53c
000003d0: c081 21bc 72cc e7bb e60b 7a3b 03ec fbbc
000003e0: 5d43 cc3b 5088 773c 4653 5fbc 7004 e6ba
000003f0: 280b b23c 451e 78bb 5a9a c23c ade6 883b
-0.018167306 0.009402424 0.024819685 -0.015631095 -0.0015561345 0.0013171828 -0.025211431 -0.014801428
0.0026234805 0.019654892 -0.00047238122 -0.018322105 0.0073742387 -0.013109267 -0.025911875 0.02426325
0.008261678 0.0033532537 0.025891412 -0.02442346 -0.011067759 -0.021993635 -0.021517433 -0.009258531
0.046051417 -0.026655616 -0.024725843 -0.011242217 -6.1827166e-05 -0.021844963 0.011095353 -0.005391763
-0.025818165 -0.004511283 0.014716032 -0.0036687355 -0.00773889 0.005728102 0.016905133 0.008556108
-0.0068567786 0.008741582 -0.0047139255 0.02495189 -0.009347451 -0.008137006 -0.014820948 0.020625662
0.017465856 -0.015119102 -0.020146864 -0.0048498134 0.00511746 0.022705838 -0.0138179725 0.017782463
-0.0038251404 -0.016945953 0.038903505 0.007687269 0.0020226361 -0.012253382 0.011585735 -0.0045797033
0.00060694705 -0.020829102 -0.018526107 -0.010386656 0.007263927 0.0089835 0.0044587418 -0.0043428177
-0.0015962049 0.0038515404 -0.012013015 0.006682242 -0.007102989 0.00043649712 -0.0059917555 -0.010226746
0.00399815 0.0035328793 -0.0002655394 0.00836587 0.011140857 -0.01564021 0.0043420624 0.030494886
0.019348754 -0.011121031 -0.021331716 -0.020564875 0.017419146 -0.007494078 0.0080882795 0.004190655
0.004534141 0.01158286 0.009125947 -0.018296693 0.012586973 0.002769337 0.018295337 0.01116329
-0.0016096771 -0.008487971 0.011769129 0.012549399 0.008119921 -0.027116276 0.005609658 0.0014517882
0.0077775647 0.0049807085 -0.017090905 -0.016540097 0.005950942 -0.0036179374 0.002218446 0.021336576
-0.012920061 -0.011985397 -0.009019417 -0.0046222056 -0.01567743 -0.0074138367 -0.009928514 -0.0014790902
0.010326071 -0.00012335404 0.003189093 0.007987781 -0.009007457 0.006566142 0.03491819 0.023729064
-0.021819413 -0.016693339 -0.014166688 0.007840746 -0.025242167 0.027619774 0.029158283 -0.0125048235
-0.0203914 -0.014453325 -0.010743453 -0.013444497 0.020449102 0.022066018 0.025281232 0.009833979
-0.04184672 0.018282872 0.0030961968 0.023658952 0.004036075 -0.0009079903 -0.014291623 0.008252997
0.016164472 -0.0033018945 -0.017011324 0.0034114853 0.00044938753 0.0015311019 -0.011537801 -0.005230872
-0.0005050944 -0.009017659 0.001168469 -0.02843227 0.019196233 0.02689226 0.02242625 -0.029887978
-0.01737357 0.017944532 0.0010082911 0.00863375 -0.014926442 -0.029314764 -0.015484786 0.011464991
0.0071501345 0.012506732 -0.024647163 -0.0031770081 -0.0047953664 0.0124386875 -0.002200086 0.023868296
-0.01067076 0.030443585 0.01969167 0.0012321881 -0.0015633173 -0.0075089675 -0.016986094 0.004800559
0.016885879 -0.00040758488 -0.0057820193 0.00281364 0.0052243024 0.010078012 -0.004062482 0.018535154
-0.02091039 -0.008854482 0.0055628065 0.0013361672 -0.0064785527 0.019343477 0.017085006 0.0044853417
-0.0083356155 0.0037107498 0.0048439405 0.01183437 -0.012554126 0.0006447769 1.17606305e-05 -0.008920925
0.001453716 0.0034593998 -0.006244029 -0.00087487674 -0.011575618 0.0012957993 -0.008984821 0.0062683867
-0.0057371226 -0.013421646 -0.010338216 -0.0044563347 -0.00076099864 0.025016751 0.003564185 0.0047391914
-0.0042455136 0.0042459304 -0.012221561 0.0221793 -0.009857595 -0.0070739323 0.0038154065 -0.030752188
0.0062336163 0.015108183 -0.013630694 -0.001754893 0.021733835 -0.003785984 0.023755241 0.0041778893

action_model._discrete_distribution.branches.0.bias f4 [2]
00000000: 592e 643c 572e 64bc
0.013927066 -0.013927064

exp_avg f4 [128, 47]
00000000: 107e 8b37 e7c1 0e37 188a c735 f4b4 84b7
00000010: ca95 7bb6 b0a7 81b6 ec23 6eb6 acf8 0135
00000020: 7e34 6937 1fea 9837 76ea 2c38 d6df 4336
00000030: 3a47 edb7 bfd1 cab6 51f0 f4b7 8ff0 d0b7
00000040: a5df 8236 c015 1038 e4c0 0d36 e417 8537
00000050: 2e9c aa36 c3b7 8137 aa89 7537 8ec9 e4b7
00000060: 04da 36b7 deb7 d636 2f32 6e37 967d 08b7
00000070: d934 0737 6976 ca36 deb7 d636 2f32 6e37
00000080: 967d 08b7 d934 0737 7876 ca36 d480 7f39
00000090: 4462 9e35 6366 01ba 32e6 5237 5161 a7b6
000000a0: 6b1a 14b7 f459 d135 e495 e8b6 c864 7cb7
000000b0: 10a5 0137 43f6 f5b5 602f d0b5 7266 5136
000000c0: 83ff 12b7 908c 7eb4 3031 7836 d48f 2e36
000000d0: bdbd 48b6 eab4 5b36 003e 4332 8817 5fb5
000000e0: 70d0 f6b2 b45d fb35 911c f4b6 c84f 2337
000000f0: 3441 46b6 5391 4d36 6a3c 6137 56c6 8eb7
00000100: 1cff ca36 4512 e3b5 8ee4 1f34 cfaf f836
00000110: 56e8 afb6 4a61 32b7 2207 9b36 5cdb 8fb4
00000120: cc99 24b5 0ad4 8eb6 69a7 f135 5a37 9335
00000130: 719e 5936 cc99 24b5 0ad4 8eb6 69a7 f135
00000140: 5a37 9335 709e 5936 1ee2 8938 d887 d435
00000150: 3a47 1e3a c53c 82b7 65f9 0bb6 fecc a735
00000160: 8e4d 8936 101c 0e37 7a41 f7b6 e058 4937
00000170: 73d0 3b33 0684 3137 2b29 d3b7 efb1 0737
00000180: 4315 2fb7 cb18 0037 3c6f d7b6 0efb e5b6
00000190: 5b06 9cb6 46b6 a9b3 4cb7 08b7 f88e 72b7
000001a0: 9301 e8b7 fcaa 31b7 14a3 9a37 3419 0d36
000001b0: d89e d936 a76a c837 3348 b5b7 ee48 ebb7
000001c0: a1f1 fa36 86f6 cdb6 0031 8ab6 1ed0 41b7
000001d0: ab0f 98b7 2852 6737 7c9f e935 004d 8b35
000001e0: 8ad2 f5b6 6a4b beb5 e6b9 14b7 0660 05b7
000001f0: 004d 8b35 8ad2 f5b6 6a4b beb5 e6b9 14b7
00000200: 0a60 05b7 5ebf 9339 90f7 d9b6 5a77 0a3a
00000210: 5166 38b7 9623 e3b4 0fc5 8937 8e57 1fb7
00000220: 3bca e237 3642 9736 f6f8 db35 0c6e 1cb5
00000230: e914 1b37 3bc9 4937 3205 7c37 6f2e dc36
00000240: 38ea 3db7 f875 a7b6 e176 c437 0c0e fd36
00000250: f390 1bb6 d1b7 5ab7 6d38 d5b7 000c fdb6
00000260: 1909 5037 a8c1 2cb5 ad00 b837 604a a137
00000270: 7a6a e636 d338 4137 0c4e 7336 1e11 07b7
00000280: c01d d6b3 7320 0cb7 1298 fc36 d837 0ab5
00000290: 9754 e037 836e d137 acb6 7bb6 dfd9 e036
000002a0: c653 4f35 9cc8 8037 d66f 6c37 acb6 7bb6
000002b0: dfd9 e036 c653 4f35 9cc8 8037 db6f 6c37
000002c0: ac48 833a 011e 8736 c162 303a 4acc ecb7
000002d0: 588e b4b6 13e3 abb5 c8ad 2d36 3454 21b8
000002e0: 8acf d8b7 1f03 4937 d83e 8435 78c5 5137
000002f0: 3673 1438 79f7 8835 afd6 a1b7 b269 6937
00000300: 4c4a ca36 f5d8 cc36 2e54 b537 2016 0c34
00000310: b0dc 4736 c01e c636 adb8 3837 9832 2ab4
00000320: 8868 8737 b2d0 c336 eed3 a437 e9f2 9237
00000330: e9d5 6337 5509 8c36 6ade 89b6 a835 7f36
00000340: bd49 d236 ac7e b337 522d 3f36 903c c734
00000350: f4f9 8537 d437 f7b4 99eb b436 c0ec 1338
00000360: 82cf a2b6 333f 3137 d437 f7b4 99eb b436
00000370: c0ec 1338 82cf a2b6 383f 3137 3152 a5b9
00000380: 4e49 9937 b82e b239 95d1 5d37 1006 01b6
00000390: 294c 4c37 5a24 0cb7 ea0e 10b7 f4a7 b236
000003a0: 3f6c 5eb7 5aab 0436 6ec4 4c36 489b f8b5
000003b0: f88a 67b7 0c0a 87b6 28e3 d5b6 31bd 85b7
000003c0: da39 1bb7 796b 5f37 641e 02b7 a312 b0b7
000003d0: 1dd5 bcb7 3d6d a2b7 a817 05b7 3017 7135
000003e0: 3283 7436 f44f 7336 20ea 0db4 8e9f 9eb7
000003f0: 1ad2 bbb6 5a1d f7b5 3e15 38b7 8e0d 83b7
1.6628794e-05 8.509006e-06 1.4866846e-06 -1.5819889e-05 -3.7489103e-06 -3.864021e-06 -3.5485673e-06 4.841811e-07
1.3900104e-05 1.8228833e-05 4.1226354e-05 2.9187554e-06 -2.8285769e-05 -6.044487e-06 -2.9198973e-05 -2.4907551e-05
3.9003376e-06 3.435253e-05 2.1122914e-06 1.586596e-05 5.0845765e-06 1.5463569e-05 1.463519e-05 -2.7273574e-05
-1.0898806e-05 6.399102e-06 1.419759e-05 -8.135472e-06 8.058932e-06 6.033854e-06 6.399102e-06 1.419759e-05
-8.135472e-06 8.058932e-06 6.0338607e-06 0.00024366687 1.1800516e-06 -0.0004936216 1.2570572e-05 -4.988317e-06
-8.827638e-06 1.5597893e-06 -6.9315884e-06 -1.5043835e-05 7.727431e-06 -1.8325594e-06 -1.5510996e-06 3.1203058e-06
-8.761769e-06 -2.370673e-07 3.698351e-06 2.601174e-06 -2.9912765e-06 3.2738849e-06 1.1364591e-08 -8.3108216e-07
-2.8732956e-08 1.8728228e-06 -7.2750922e-06 9.734133e-06 -2.9542252e-06 3.063197e-06 1.3425111e-05 -1.7020076e-05
6.0497678e-06 -1.6918135e-06 1.4891177e-07 7.4114428e-06 -5.242454e-06 -1.0632279e-05 4.6201903e-06 -2.679543e-07
-6.1318565e-07 -4.2566144e-06 1.8004622e-06 1.0968463e-06 3.2427745e-06 -6.1318565e-07 -4.2566144e-06 1.8004622e-06
1.0968463e-06 3.2427743e-06 6.574787e-05 1.5834767e-06 0.0006037835 -1.5525506e-05 -2.085778e-06 1.250213e-06
4.0919467e-06 8.470393e-06 -7.368796e-06 1.2001226e-05 4.3728914e-08 1.0580761e-05 -2.517233e-05 8.088055e-06
-1.0435763e-05 7.635167e-06 -6.4204487e-06 -6.8539584e-06 -4.649902e-06 -7.902831e-08 -8.148909e-06 -1.44576115e-05
-2.7657288e-05 -1.05898325e-05 1.843417e-05 2.1025307e-06 6.485596e-06 2.3891522e-05 -2.1610502e-05 -2.8048144e-05
7.47871e-06 -6.138175e-06 -4.118425e-06 -1.15521525e-05 -1.8127108e-05 1.3787801e-05 1.7406269e-06 1.0378717e-06
-7.326079e-06 -1.4178052e-06 -8.86477e-06 -7.949775e-06 1.0378717e-06 -7.326079e-06 -1.4178052e-06 -8.86477e-06
-7.949779e-06 0.00028180605 -6.495924e-06 0.0005282067 -1.0991077e-05 -4.2307937e-07 1.6423435e-05 -9.497524e-06
2.703547e-05 4.5078586e-06 1.6389229e-06 -5.827467e-07 9.2435885e-06 1.2027386e-05 1.502158e-05 6.5619165e-06
-1.1319811e-05 -4.990721e-06 2.3420378e-05 7.541623e-06 -2.3181171e-06 -1.3036611e-05 -2.5417854e-05 -7.5413845e-06
1.2399884e-05 -6.43568e-07 2.1934824e-05 1.922733e-05 6.8669297e-06 1.1516927e-05 3.625525e-06 -8.050612e-06
-9.970563e-08 -8.352205e-06 7.5278886e-06 -5.149027e-07 2.6742271e-05 2.4966203e-05 -3.7508244e-06 6.7010837e-06
7.7235416e-07 1.5352205e-05 1.4092735e-05 -3.7508244e-06 6.7010837e-06 7.7235416e-07 1.5352205e-05 1.409274e-05
0.0010016165 4.0268064e-06 0.00067285827 -2.8228522e-05 -5.380989e-06 -1.280658e-06 2.5880163e-06 -3.846381e-05
-2.584585e-05 1.198126e-05 9.853056e-07 1.25033475e-05 3.539325e-05 1.0204814e-06 -1.9292665e-05 1.3912491e-05
6.0287184e-06 6.104931e-06 2.161608e-05 1.3046565e-07 2.9781768e-06 5.9044396e-06 1.1010253e-05 -1.585089e-07
1.614193e-05 5.835748e-06 1.9649011e-05 1.751767e-05 1.3580059e-05 4.1734115e-06 -4.1088106e-06 3.8029193e-06
6.267072e-06 2.1397449e-05 2.8487598e-06 3.7110703e-07 1.5971229e-05 -4.6047955e-07 5.391845e-06 3.526802e-05
-4.8521333e-06 1.0564737e-05 -4.6047955e-07 5.391845e-06 3.526802e-05 -4.8521333e-06 1.0564741e-05 -0.0003153249
1.8273156e-05 0.00033985614 1.3221424e-05 -1.9226027e-06 1.217708e-05 -8.353114e-06 -8.586541e-06 5.3243657e-06
-1.3257434e-05 1.9769273e-06 3.0512706e-06 -1.8522633e-06 -1.3801029e-05 -4.024483e-06 -6.374339e-06 -1.5942935e-05
-9.25219e-06 1.3316859e-05 -7.75568e-06 -2.0989513e-05 -2.2510585e-05 -1.9362773e-05 -7.932926e-06 8.981324e-07
3.64352e-06 3.625636e-06 -1.3216822e-07 -1.8909366e-05 -5.5974933e-06 -1.8411477e-06 -1.09722005e-05 -1.5622729e-05

exp_avg_sq f4 [128, 47]
00000000: 913a 4331 d664 f630 c982 7730 15a3 7530
00000010: c30d c630 cd43 3b31 eff5 0931 55ce 7e30
00000020: 22ef 4630 e9e5 b130 ddbd 1c31 db1c f230
00000030: 0d45 b830 81f4 9630 cd34 f730 ab1f 3031
00000040: 4db1 ea30 d8e3 b530 f434 6530 b2e1 bd30
00000050: ab8d 0531 1429 f630 651d ba30 6eae b630
00000060: 6285 0831 9134 1531 f99b e730 acb1 cd30
00000070: e222 9730 79ce fe30 9134 1531 f99b e730
00000080: acb1 cd30 e222 9730 79ce fe30 af75 9836
00000090: f70a 5131 1128 a136 bb24 2b31 56fc 7830
000000a0: 8890 5131 4d49 f730 dd7e 4631 9732 be30
000000b0: d816 8e31 0933 a42d 35f3 6631 29f8 1b30
000000c0: a796 1730 6965 442f 39b3 5b2f eddf bd2f
000000d0: b1be 2930 8c51 1030 6ac3 402f d44c 5a2f
000000e0: 025e a12f 6302 1b30 e190 0530 e860 702f
000000f0: 91dd 8f2f 0278 ce2f 44eb 1a30 f062 2930
00000100: 4991 812f 7b57 2f2f c265 972f 740e f22f
00000110: 6a67 1630 341d a02f 2253 982f f670 d92f
00000120: b63a b42f 2bf4 3a30 0b2b 8d2f 5688 662f
00000130: 7983 c12f b63a b42f 2bf4 3a30 0b2b 8d2f
00000140: 5688 662f 7983 c12f 85b1 9d35 2c86 5730
00000150: 2fae 2b36 f40a 2730 3523 9c2f e17e ed2f
00000160: e33a f02f e7c0 4830 3f35 362f 4aea 5130
00000170: 8785 b32b de6e 9f30 396f ea30 91d5 d030
00000180: 48c4 2b30 c709 3030 2597 8c30 3ba8 d530
00000190: 3197 dd30 d384 4a30 ab9a 5230 6d12 9d30
000001a0: 528c ff30 a383 cf30 9631 2030 3024 3d30
000001b0: 2958 9030 8208 d430 197b df30 001f 5d30
000001c0: e354 3c30 9b28 9130 9098 f330 bd63 e230
000001d0: 5db5 2e30 4606 3b30 2bfa 8730 7e88 c630
000001e0: d2ce e030 9c38 6230 32fe 3230 009c 9530
000001f0: 7e88 c630 d2ce e030 9c38 6230 32fe 3230
00000200: 029c 9530 197d 4036 0fc1 2431 3128 e136
00000210: 594a f530 3b39 4630 9e00 e230 277b a530
00000220: 73fe 0231 b5b8 5230 e579 1c31 a23c c22c
00000230: 85e7 5e31 c056 d331 3634 8e31 c0df 0f31
00000240: 858d eb30 2b2c 4931 989d ac31 4f4f 9731
00000250: ff9d 2431 3c56 1231 60eb 7231 6dcf de31
00000260: 8a03 8931 5bef 0431 1383 1231 0abd 5531
00000270: 9156 9831 01b6 7f31 a8a9 6531 db0b 2f31
00000280: 8f6f 8d31 c9c1 b531 4d63 8c31 c438 3531
00000290: ba9c 0331 cbea 6531 8a34 8d31 4f09 9931
000002a0: b84b 2331 e1b4 3931 1c42 8f31 8a34 8d31
000002b0: 4f09 9931 b84b 2331 e1b4 3931 1c42 8f31
000002c0: 1e4e 7737 f3c8 0232 82b3 3937 e809 a031
000002d0: e072 2231 5fd2 bc31 2d46 5031 2d9a be31
000002e0: 356c 8931 3d87 1832 7442 5f2d 0231 0532
000002f0: d2f4 1d31 71fd ba30 77fd 8f30 a6f7 5930
00000300: 0ff0 a630 04a5 1131 37cd be30 e5d0 8c30
00000310: 40bb 6330 3cc1 af30 74c7 1831 b0e3 a830
00000320: 79b5 8f30 0afc 7230 347c be30 5a72 0931
00000330: 1a71 cb30 d008 9b30 4460 5830 a447 b430
00000340: 60b7 0b31 9235 a930 11e2 9930 5a55 6730
00000350: 7446 c130 c36d 0731 faff c330 5f53 8f30
00000360: 8e74 6d30 2346 b330 c36d 0731 faff c330
00000370: 5f53 8f30 8e74 6d30 2346 b330 2d49 4436
00000380: b2f3 3231 14b1 1136 3381 1131 2972 7130
00000390: 1dfc 1e31 fe95 c030 8563 2331 8d2c c430
000003a0: 8d45 6231 6c83 bd2d a70c 2d31 1cac bc30
000003b0: 0d8b a530 1b20 2030 fb24 1330 372d 7830
000003c0: 8705 ca30 bdb8 a130 8361 2c30 a35a 2430
000003d0: d6e1 7830 7789 bf30 cd9c 9930 e5e8 2e30
000003e0: 531f 3a30 16a4 8530 42d1 ca30 9aee 9030
000003f0: 2b33 3530 f526 2a30 a85d 8130 1e7a bd30
2.8409526e-09 1.7927515e-09 9.0043933e-10 8.9362234e-10 1.4410307e-09 2.7250622e-09 2.007592e-09 9.2697877e-10
7.237181e-10 1.2943789e-09 2.2808913e-09 1.7616019e-09 1.3407387e-09 1.0983429e-09 1.7986622e-09 2.5629372e-09
1.7076133e-09 1.323424e-09 8.3384966e-10 1.3815706e-09 1.9434576e-09 1.7910531e-09 1.3541636e-09 1.3291819e-09
1.9866424e-09 2.1712234e-09 1.6851792e-09 1.496621e-09 1.099661e-09 1.8539615e-09 2.1712234e-09 1.6851792e-09
1.496621e-09 1.099661e-09 1.8539615e-09 4.543653e-06 3.0419736e-09 4.8028382e-06 2.4904654e-09 9.0580465e-10
3.049566e-09 1.7992449e-09 2.8884906e-09 1.3838698e-09 4.135341e-09 1.8667306e-11 3.3607652e-09 5.674133e-10
5.514757e-10 1.7862124e-10 1.9981607e-10 3.4538009e-10 6.175283e-10 5.250278e-10 1.7531723e-10 1.985428e-10
2.9352526e-10 5.6392063e-10 4.8591003e-10 2.1862301e-10 2.616898e-10 3.7556452e-10 5.6359206e-10 6.162244e-10
2.3568195e-10 1.5947237e-10 2.7539043e-10 4.4029813e-10 5.471664e-10 2.912458e-10 2.7707708e-10 3.9552334e-10
3.2783526e-10 6.801339e-10 2.5678334e-10 2.0966814e-10 3.5199912e-10 3.2783526e-10 6.801339e-10 2.5678334e-10
2.0966814e-10 3.5199912e-10 1.1749077e-06 7.8407214e-10 2.5582374e-06 6.076981e-10 2.840125e-10 4.3200202e-10
4.3697587e-10 7.3033707e-10 1.657172e-10 7.63667e-10 1.2755776e-12 1.1600283e-09 1.7057352e-09 1.5194691e-09
6.248837e-10 6.404232e-10 1.0229299e-09 1.5545604e-09 1.6122838e-09 7.3675926e-10 7.661735e-10 1.142849e-09
1.8593573e-09 1.5098646e-09 5.8278127e-10 6.8809225e-10 1.0502436e-09 1.5427448e-09 1.6260372e-09 8.0443385e-10
6.8514633e-10 1.0561679e-09 1.7723938e-09 1.6472012e-09 6.3558564e-10 6.803912e-10 9.893645e-10 1.444519e-09
1.6356927e-09 8.229877e-10 6.5117256e-10 1.0885515e-09 1.444519e-09 1.6356927e-09 8.229877e-10 6.5117256e-10
1.0885517e-09 2.8683046e-06 2.3974882e-09 6.7102014e-06 1.7847227e-09 7.211331e-10 1.644384e-09 1.2040332e-09
1.9062127e-09 7.666004e-10 2.2770277e-09 5.5205432e-12 3.2436855e-09 6.1507706e-09 4.1386796e-09 2.0936426e-09
1.7138723e-09 2.9274456e-09 5.023775e-09 4.4036947e-09 2.3954951e-09 2.1294815e-09 3.534943e-09 6.484632e-09
3.987627e-09 1.9344586e-09 2.1320303e-09 3.1103036e-09 4.4336237e-09 3.721084e-09 3.3420324e-09 2.547259e-09
4.116323e-09 5.289824e-09 4.0858255e-09 2.6371234e-09 1.9152098e-09 3.345735e-09 4.109613e-09 4.4539443e-09
2.3762663e-09 2.702386e-09 4.1693635e-09 4.109613e-09 4.4539443e-09 2.3762663e-09 2.702386e-09 4.1693635e-09
1.4740535e-05 7.6126865e-09 1.1068654e-05 4.657739e-09 2.3639402e-09 5.4954366e-09 3.0307874e-09 5.5472555e-09
3.9995265e-09 8.878314e-09 1.2690838e-11 7.752762e-09 2.2985671e-09 1.3605314e-09 1.0476658e-09 7.929607e-10
1.2146318e-09 2.1194078e-09 1.3882645e-09 1.0245712e-09 8.2848217e-10 1.2787846e-09 2.2232287e-09 1.2288321e-09
1.0456197e-09 8.8397256e-10 1.385962e-09 2.0001125e-09 1.4802339e-09 1.1280239e-09 7.8717144e-10 1.3117085e-09
2.0331399e-09 1.2311594e-09 1.1196467e-09 8.41586e-10 1.4062622e-09 1.9707478e-09 1.426087e-09 1.0428315e-09
8.638573e-10 1.3043898e-09 1.9707478e-09 1.426087e-09 1.0428315e-09 8.638573e-10 1.3043898e-09 2.924887e-06
2.6040934e-09 2.1709757e-06 2.1173718e-09 8.783752e-10 2.3135336e-09 1.4012469e-09 2.3776192e-09 1.4273539e-09
3.2926863e-09 2.1545175e-11 2.5182005e-09 1.3727717e-09 1.2044851e-09 5.8253286e-10 5.353084e-10 9.028613e-10
1.4699005e-09 1.1766798e-09 6.271181e-10 5.9791655e-10 9.0542807e-10 1.3936149e-09 1.1176781e-09 6.3631794e-10
6.771092e-10 9.72366e-10 1.4756909e-09 1.0545194e-09 6.592013e-10 6.1901e-10 9.412604e-10 1.3786268e-09

exp_avg f4 [128]
00000000: d4d5 3137 4a6d e534 a854 96b7 6c8b aa37
00000010: 2406 0138 0269 d0b7 3bad 88b7 a017 2ab6
00000020: 22dd 1cb7 044d 8835 1368 25b6 3688 2db7
00000030: 3e3d 3937 d7d1 a6b7 0de5 e8b7 a759 62b7
00000040: 3df1 ae36 a334 3236 46e0 7bb6 0b3a 1638
00000050: c852 08b7 6d9b f5b7 be0f b736 d5d0 3a37
00000060: c4c0 c135 1029 2bb7 9f8e 2138 340d 66b6
00000070: 0ec1 95b6 731e 33b8 096b df35 de1b ee36
00000080: 92e5 6436 8a7a 9237 dc0a 94b6 86ad d636
00000090: 5c06 4bb7 cf89 1038 2a14 63b7 8b4e 2638
000000a0: 4532 e137 1aa1 ca37 e677 b4b7 2b8e dc36
000000b0: 96ad 53b6 7bca 85b7 fabf 5437 58d7 fa36
000000c0: 4fd8 04b8 803e a0b6 cabd 4237 05f3 5538
000000d0: be36 adb7 0b6f 3437 65c9 e037 0b20 11b6
000000e0: d424 0136 301e fd35 f569 e2b7 f28d ec37
000000f0: 428c aa37 519f 7537 9bb0 c0b6 b044 0537
00000100: ea74 0f37 867f fe37 44bd 2738 76f7 b036
00000110: a7ff acb6 bde0 80b7 59e6 62b6 a2e2 6cb7
00000120: 8927 26b8 1abc 34b8 97d3 2cb8 174b bcb7
00000130: 304f 99b6 a5ea 76b6 9a6c d137 12b3 9d36
00000140: 875e 5ab6 7728 b537 9b40 5537 96f7 b6b6
00000150: bc21 d1b7 3613 b0b7 7079 1db6 928c ab37
00000160: 342a 2eb8 74c2 c0b6 40ab b837 1498 2538
00000170: d1b7 9e37 c285 2038 342a 87b7 fcf5 0db7
00000180: cfbf c1b7 1908 7437 6ad5 7cb7 e699 0838
00000190: bf03 ba37 c80b 2fb7 b227 a2b6 5b60 adb6
000001a0: 85ba c4b7 6607 83b7 f4b3 10b7 7e55 cfb6
000001b0: 7a96 9237 bd94 19b7 64de e534 b885 f6b7
000001c0: 0c82 01b8 702a 24b7 87ac 4d37 bfdd 90b7
000001d0: 40f5 5934 dc0d f736 d737 8f37 3676 d9b6
000001e0: b033 08b7 9cbd ae37 60e9 47b5 4846 3636
000001f0: 2ec3 bbb6 9960 11b8 588b 6136 24f6 63b8
1.0599808e-05 4.2734092e-07 -1.7920815e-05 2.0330503e-05 3.0761716e-05 -2.484443e-05 -1.629313e-05 -2.5345726e-06
-9.349811e-06 1.0155204e-06 -2.4647495e-06 -1.0343318e-05 1.1041118e-05 -1.9886456e-05 -2.7763215e-05 -1.34915235e-05
5.213688e-06 2.6554706e-06 -3.753246e-06 3.5816844e-05 -8.125506e-06 -2.9278652e-05 5.4556576e-06 1.1135086e-05
1.4435723e-06 -1.0201955e-05 3.8518217e-05 -3.4280356e-06 -4.4630206e-06 -4.2705284e-05 1.6645946e-06 7.096197e-06
3.4108275e-06 1.7461618e-05 -4.412008e-06 6.397898e-06 -1.2101224e-05 3.446062e-05 -1.3534949e-05 3.9650633e-05
2.6845499e-05 2.4155295e-05 -2.1513504e-05 6.5730615e-06 -3.154249e-06 -1.5949123e-05 1.2680883e-05 7.47565e-06
-3.1672706e-05 -4.7756475e-06 1.160749e-05 5.1009487e-05 -2.0648698e-05 1.075469e-05 2.6796662e-05 -2.1625335e-06
1.9243935e-06 1.8858755e-06 -2.699064e-05 2.819949e-05 2.0330892e-05 1.4640232e-05 -5.7426055e-06 7.94341e-06
8.550685e-06 3.0338542e-05 3.999217e-05 5.274017e-06 -5.1557613e-06 -1.5363441e-05 -3.3810704e-06 -1.4119463e-05
-3.9614304e-05 -4.3090527e-05 -4.1205054e-05 -2.2446313e-05 -4.568974e-06 -3.6793438e-06 2.4965313e-05 4.699811e-06
-3.2539554e-06 2.1595724e-05 1.27108315e-05 -5.4528455e-06 -2.493045e-05 -2.098978e-05 -2.346551e-06 2.0450247e-05
-4.1524137e-05 -5.744683e-06 2.2014254e-05 3.94807e-05 1.8920664e-05 3.8271544e-05 -1.6112906e-05 -8.461528e-06
-2.309671e-05 1.4545419e-05 -1.507006e-05 3.2568256e-05 2.2174672e-05 -1.0433556e-05 -4.8325974e-06 -5.167019e-06
-2.3451876e-05 -1.5619862e-05 -8.624967e-06 -6.1790333e-06 1.7474627e-05 -9.1541415e-06 4.2816384e-07 -2.9387753e-05
-3.0877112e-05 -9.7850425e-06 1.2259122e-05 -1.7269396e-05 2.0298921e-07 7.362787e-06 1.707293e-05 -6.4808655e-06
-8.118266e-06 2.083071e-05 -7.447288e-07 2.7161022e-06 -5.595756e-06 -3.4660658e-05 3.3608721e-06 -5.4350254e-05
