Assets/Learning/AIRollABall/results/TestParameters/AIRollABall/AIRollABall-7999943.onnx (onnx, 100320 bytes, 9 tensors)

network_body._body_endoder.seq_layers.0.weight f4 [128, 47]
000000 27 64 44 3e ed d2 d3 3e 13 40 3c 3d 9b 36 79 3c
       0.1917883 0.4137186 0.045959543 0.015210773
000010 b6 4f d2 3c 7e b8 b1 3e 1d 9f bd 3c d6 3a f2 3d
       0.025672775 0.3471107 0.02314716 0.11827628
000020 90 f8 73 bd d2 9b ad bd a9 ca 46 3e c6 a9 0f 3e
       -0.05956322 -0.08476986 0.19413246 0.14029607
000030 ab 02 05 3d a2 d6 80 3e 15 2b 75 3e 82 0a d4 3d
       0.032473247 0.25163752 0.23942216 0.10353567
000040 2b e7 77 3e 22 5c a2 3c e1 e2 dc bb 32 46 9d bd
       0.24209277 0.019819323 -0.0067409133 -0.07679404
000050 73 44 00 be b3 b9 2d be 21 08 cb 3d 5f a2 2f 3d
       -0.12526111 -0.1696537 0.0991366 0.04287946
000060 92 4c 0b be 77 79 78 3e 1f 64 61 3d 12 02 e7 bd
       -0.13603428 0.24265085 0.055027124 -0.11279692
000070 29 e6 03 bd 4a 5c d6 3e d9 b6 95 3e a8 7f 31 be
       -0.03220192 0.41867286 0.29241064 -0.17333853
000080 dd 92 6d bc cd bc dd ba de bb 49 3d 98 77 45 3c
       -0.014500347 -0.0016917229 0.04925143 0.012052439
000090 8f 65 b4 3d 42 b7 99 bc 47 c7 67 bd 78 d9 9e be
       0.08808433 -0.018764142 -0.05658653 -0.3102529
0000a0 d5 51 cb 3d 7f 72 7d 3e 5d b1 09 3b aa 17 91 be
       0.099277176 0.24750708 0.0021010258 -0.28338367
0000b0 01 5b 8b be cb b7 02 3e c9 70 0f 3f 28 a4 e8 3d
       -0.27217868 0.12765424 0.5603147 0.11359435
0000c0 bb b7 27 bc dc 04 c0 bc c8 6e ee 3e 96 d8 ec 3c
       -0.010236676 -0.023439817 0.46568894 0.02891187
0000d0 99 23 84 bd f0 ae 18 3c 02 e0 74 3d 26 63 99 bd
       -0.06452102 0.009319052 0.059783943 -0.07489614
0000e0 5a a2 8b be 99 8b 69 3d 0f ca 12 be e3 3a 85 3d
       -0.27272302 0.057017896 -0.14334892 0.065053724
0000f0 33 e0 36 3d 92 45 72 3e f4 86 4b 3e a3 ba 0c 3e
       0.044647407 0.23659351 0.198757 0.13743071
000100 2a 10 41 be 0a 96 3b be ee 9c 4d bc fe 2e 8d 3d
       -0.18853822 -0.18318954 -0.012549622 0.06893729
000110 b5 4c d1 3d 82 bf c7 3c 22 e7 b9 3d 0c 97 bb bc
       0.10219709 0.02438331 0.09077288 -0.022899173
000120 7d 83 06 be 40 ab 3f bd c0 a4 60 be 9f 90 9c bb
       -0.13136096 -0.046794176 -0.21937847 -0.0047779824
000130 63 ea 21 3d 96 cd b0 3d 23 b2 2c 3e 3a 70 e4 3d
       0.03953017 0.086329624 0.16864829 0.11154218
000140 d6 cb 5d bd e7 05 08 bd 63 6b 48 be e6 53 42 3d
       -0.05414947 -0.033208754 -0.19572215 0.047443293
000150 71 f8 54 3d 16 d3 bb 3d 07 d9 31 bc 8c 33 a4 ba
       0.051994745 0.09171121 -0.010854966 -0.0012527569
000160 71 89 10 be 29 92 84 3d 8d d5 6f be 7b 6a 04 be
       -0.1411493 0.0647319 -0.23421307 -0.12931244
000170 4b cf d2 bd 09 f8 c7 3e de 3f e2 bd fe a3 78 3e
       -0.10293444 0.39056423 -0.11047338 0.24281308
000180 f8 7a 3c 3e 63 58 41 3d 8e 7b 2c 3d ed bf a0 3c
       0.18406284 0.047203433 0.04211002 0.019622767
000190 c5 70 05 be ee bc 3d 3e a7 17 a8 bc f3 45 3e 3d
       -0.130313 0.18529102 -0.02051909 0.046453428
0001a0 46 ce 72 bd 62 a1 1f 3c 6b 1a d7 3e 37 ad 4d 3d
       -0.05927875 0.0097430665 0.42012343 0.05021402
0001b0 d3 67 8c be 84 4a 1b be 38 76 fc bd 08 93 4f 3d
       -0.27422962 -0.15165144 -0.12327236 0.05067733
0001c0 17 49 fe 3c f0 6b 4e bc da c6 16 3c 50 9d 72 3e
       0.031040711 -0.0125989765 0.009202683 0.23692822
0001d0 14 7b 6d 3e 57 b1 2b be e3 07 83 bd 24 6d 5a bd
       0.23191482 -0.16766869 -0.06397989 -0.05332674
0001e0 e6 72 b6 3d 63 0d 7d be 56 76 d0 3d 9f 93 4d 3b
       0.08908634 -0.24712138 0.10178821 0.0031368507
0001f0 b5 a6 56 3c 97 23 91 bd d7 51 88 3c 66 bb 22 be
       0.0131012695 -0.07086866 0.016640587 -0.158918
000200 52 28 a9 3d bb a4 52 be 7e 50 c8 3d 5d ed ee 3d
       0.082596436 -0.20570652 0.09780978 0.11666367
000210 67 73 33 3d 34 6c 89 bd 7f ec 0a 3e 76 ad 88 be
       0.043811228 -0.06710091 0.13566779 -0.2669484
000220 5d a0 46 3d d3 59 82 3d 25 82 ed 3e a9 0d 3e 3d
       0.048492778 0.06364789 0.46388355 0.046399746
000230 a5 b3 b5 3e 65 76 19 be c2 78 d8 be f4 16 73 bd
       0.3548862 -0.1498657 -0.4227963 -0.05934806
000240 89 51 9b 3d a3 0f b1 3c 9e 10 12 be 3c cb 80 3d
       0.07583911 0.021613901 -0.14264151 0.06288764
000250 d5 87 24 bd 30 3b 56 3c f3 b3 17 be 85 14 17 be
       -0.040168602 0.013075635 -0.14814739 -0.14753921
000260 7f 4d 70 3e eb db 4e 3e fb 40 1f be f1 7e 89 3d
       0.23467062 0.2020108 -0.15552132 0.06713665
000270 0a a0 33 3c 1c e3 86 3d 0a 89 1f be a6 aa 82 bd
       0.010963449 0.065862864 -0.1557962 -0.06380205
000280 de 8b 72 be ec 48 5d bb 2a 1b 2a 3e c0 4f 68 3c
       -0.23686168 -0.0033765389 0.16611925 0.01417917
000290 74 52 15 be 41 f2 92 be f0 e7 b2 bd e9 4a 0d 3e
       -0.14582235 -0.2870045 -0.08735645 0.13798107
0002a0 ea 11 48 bd 86 87 38 bd eb f2 8d 3e 69 90 01 be
       -0.04884521 -0.04505112 0.27724394 -0.12652744
0002b0 49 d8 0f bd 98 c5 42 3d f8 a9 27 3d 25 e8 86 be
       -0.035118375 0.04755172 0.04093358 -0.26348987
0002c0 6a a0 8c bd 99 34 8b bc 94 79 c8 3d fe 59 23 bb
       -0.06866534 -0.016992854 0.09788814 -0.0024925466
0002d0 51 cb 88 3c 5b e1 3a 3e 88 94 bc 3c f7 8f 37 3c
       0.016698511 0.18250029 0.023020044 0.0112037575
0002e0 0f 78 f7 3d 61 e6 a1 bd d9 84 b0 3e f1 21 ed 3d
       0.12083446 -0.079052694 0.34476355 0.115787394
0002f0 57 a1 b7 bd 72 11 0d be 45 e2 88 be 9f 82 7b bd
       -0.0896632 -0.13776186 -0.2673513 -0.061403867
000300 15 61 6d be e6 2d ba 3d ae 4b a3 bc 73 52 7e be
       -0.23181565 0.09090786 -0.019933548 -0.2483614
000310 92 60 bb bd f2 d9 fd 3c 99 0c 3f 3e 26 09 fe bc
       -0.09149279 0.030987713 0.1865715 -0.031010222
000320 93 ee 6a bd 6a a0 b9 bd 89 07 46 3e 85 6c 0d be
       -0.05735643 -0.090638 0.19338812 -0.13810928
000330 d9 2a 2b 3e a4 b3 86 bc f6 ee e8 3d da 74 16 be
       0.16715564 -0.016443081 0.11373703 -0.14693013
000340 f2 cd 89 3c 54 05 80 3d 95 54 90 be f1 24 3a 3e
       0.016821835 0.06251016 -0.2818953 0.18178155
000350 8a 88 00 3e fb d0 12 3e 50 e4 4b bd 09 33 9e 3d
       0.12552086 0.14337532 -0.049778283 0.07724578
000360 e7 73 52 3e 00 ed 1b be 11 06 37 3c e6 ee 28 bd
       0.20552026 -0.15227127 0.01117088 -0.041243456
000370 7c 62 43 bc da 61 5e 3c 0f 37 e0 bd 4a 85 be bd
       -0.011925336 0.013573134 -0.109480016 -0.093027666
000380 bf 96 57 be ee 80 8c bd fb 23 0e 3e 0a 6a 01 be
       -0.21053599 -0.06860529 0.13880913 -0.12638107
000390 6d 43 12 3e f9 ee 37 bb 79 2a 8b 3e 47 3a 7a 3e
       0.14283533 -0.0028066023 0.27180842 0.24436294
0003a0 ae e8 61 3e 85 48 e0 3c f4 66 76 be 7f 1b 98 be
       0.22061417 0.02737833 -0.24062711 -0.29708478
0003b0 ba d3 f5 3d 13 31 c9 bd 20 10 97 3c 58 1d eb bc
       0.12003274 -0.09823813 0.018440306 -0.028700516
0003c0 57 58 1f bd 63 a4 85 bc 12 0e 67 3e a5 6f 16 be
       -0.038902607 -0.016313737 0.22563961 -0.14691027
0003d0 1a c9 81 3e b6 50 99 bd 00 b3 28 bd d1 1d ca 3d
       0.2534874 -0.074860975 -0.041186333 0.09868968
0003e0 36 2d 03 be 01 fd 1a 3e 2e 71 d6 bd b4 d5 b7 3d
       -0.12810215 0.15135576 -0.10470806 0.089763075
0003f0 5a f9 70 3e 5f ce 60 bd de 15 a1 bd 8e 07 33 3e
       0.2353262 -0.05488431 -0.07865499 0.1748335

network_body._body_endoder.seq_layers.0.bias f4 [128]
000000 7e fe 97 3d 13 b2 74 3c 6b e9 8a 3c 3c 41 62 bd
       0.074215874 0.014935034 0.016957005 -0.055237994
000010 9f 62 13 bd 99 9e 17 3d f2 25 87 3d 77 f4 ad bd
       -0.035982724 0.037016485 0.06599034 -0.084938936
000020 14 f4 a6 bb ce 6b 98 3d 85 f4 9a 3d c0 73 5f bd
       -0.0050950143 0.07442437 0.0756617 -0.054553747
000030 b7 19 50 bd 19 e8 6c 3a b4 f5 21 bd 5d e1 96 bc
       -0.050805774 0.0009037271 -0.03954096 -0.018418008
000040 94 73 4b 3d 6f ec 4a bc 14 ef 0d bb c4 b5 b8 3d
       0.04967077 -0.012385472 -0.0021657394 0.09019044
000050 ef 08 23 bd 0e ed eb ba 24 f1 dd 3c 5b 3b 9c bc
       -0.03980344 -0.0017999725 0.027092524 -0.019071272
000060 ba be 8d bb 8f 45 ab bd af 51 ae bc 23 4d 2a 3c
       -0.004325715 -0.083628766 -0.021279184 0.010394367
000070 8c 30 59 3c 0e 1c 5e bd 57 dd 74 3c 21 ce ba bc
       0.013256203 -0.054225974 0.01494535 -0.022803368
000080 20 35 64 bb 94 83 96 3b 44 9a e6 bc 4f f4 c6 bc
       -0.0034821704 0.004593322 -0.028149731 -0.024286417
000090 c6 f2 99 bd 8a 13 95 bd bc 3d 53 bc 39 3e 73 bd
       -0.075170085 -0.072791174 -0.012893137 -0.059385512
0000a0 63 60 e0 bb 34 da fb bc 27 74 37 bd fb ec b0 bc
       -0.0068474277 -0.030743696 -0.044788506 -0.021597376
0000b0 3b fa aa bd 4b 93 11 3d 4a e5 f3 bc 25 fe f4 bc
       -0.08348509 0.03554086 -0.02977242 -0.029906342
0000c0 c9 ea eb 3a ae 5e 12 bd 29 0e 98 bc ea 0d cb bd
       0.0017999049 -0.035734825 -0.01856144 -0.09914763
0000d0 12 b6 4e bd 05 eb eb 3c fa 14 dc 3b 7c 63 18 bd
       -0.050466605 0.02879859 0.006716368 -0.03720425
0000e0 ab 3d 93 3d ff 56 5f bb 81 38 ad bd 46 0a c0 bc
       0.071894966 -0.0034078953 -0.08458043 -0.023442399
0000f0 f3 03 4a bb 2b f7 08 3b 5e 92 03 bd 9b cb 53 3b
       -0.0030825108 0.0020899277 -0.03212201 0.0032317403
000100 b9 f5 d0 3d f1 6e 5e 3d 71 17 82 bd da 0c 55 3d
       0.10203118 0.05430502 -0.06352127 0.05201421
000110 1d 1b 89 bc dc 57 97 3c cc d2 2c bd cb 49 94 3d
       -0.016736561 0.018474512 -0.04219322 0.072406374
000120 b2 29 24 bd 74 06 22 bd 49 eb 5d bc 59 c8 91 bc
       -0.040078826 -0.039556935 -0.013544866 -0.017795729
000130 45 82 cf 3d b5 89 5a 3d 6d 71 e5 bc eb 7d b3 bc
       0.10132269 0.053353984 -0.028008187 -0.021910628
000140 14 2a 33 3c b4 be c7 bd 3c 94 39 3c 9b d2 3d bd
       0.010935325 -0.097531706 0.011326846 -0.046343427
000150 89 1a ba bc 3d 8b cd 39 8c 01 96 bd 25 34 1d 3d
       -0.022717731 0.00039204388 -0.07324514 0.038379807
000160 6f c4 01 bc 31 43 c2 bc d9 3a d8 3b d1 26 2f 3b
       -0.007920369 -0.02371368 0.006598812 0.0026726017
000170 4f 2d 9e bb a0 8d aa bb ca 17 a6 bd 90 f3 4d 3a
       -0.0048271785 -0.0052048713 -0.08110006 0.0007856423
000180 3e bf 4d bc 55 54 62 bd 25 a6 39 bd d6 c4 2a 3d
       -0.012557803 -0.055256207 -0.045324463 0.041691624
000190 3e f3 94 bd 1b 84 b7 3b ab 2b 94 bc b8 21 1b 3d
       -0.07272957 0.005600465 -0.018087229 0.037873954
0001a0 c5 51 eb 3c 07 57 8e 3c da 2d 78 bc 64 82 5e bd
       0.028725514 0.017375482 -0.015147651 -0.05432357
0001b0 95 34 b9 bd df 7b ed bb 5d 5b b6 3c e1 2f 45 bd
       -0.09043232 -0.0072474326 0.022260362 -0.048141364
0001c0 bb 09 8a 3d b3 e5 5d bd 70 a5 84 bc 43 37 11 bc
       0.06740137 -0.054174136 -0.016192168 -0.008863273
0001d0 54 31 d7 3c 80 0a 90 3d 16 13 06 bd 45 b1 81 bb
       0.026268639 0.07033253 -0.032733046 -0.0039578998
0001e0 f7 52 96 bb 12 37 81 bd 17 f5 69 bc 2b ca 0a bd
       -0.004587527 -0.06309332 -0.014279625 -0.03388421
0001f0 ec 9f 23 bc c0 11 39 bd 78 43 87 bc e8 f3 bd 39
       -0.009986859 -0.045182943 -0.016511664 0.00036230613

network_body._body_endoder.seq_layers.2.weight f4 [128, 128]
000000 f3 dd 94 bd 85 e0 92 3d f7 a8 53 3d 01 a4 85 bd
       -0.07268896 0.0717173 0.05167481 -0.06525422
000010 27 e5 a0 bd 5b 4e 18 3d 4d 5d 46 bd 8f d7 3b 3a
       -0.07856207 0.0371841 -0.048428822 0.00071656046
000020 4b 9d 96 bd a1 a3 24 3c ff e9 be 3d 98 4e 42 3d
       -0.0735422 0.010048778 0.09321975 0.047438234
000030 ea 73 f5 3b 94 23 30 bd 46 84 c2 bd 8b 15 51 3d
       0.0074906247 -0.04300268 -0.094978854 0.051045936
000040 0f 97 a4 3b 15 9d 53 be 05 79 7f 3c ae e2 8f 3e
       0.0050228904 -0.20665391 0.015592818 0.2810263
000050 38 e2 e5 bd bf b3 08 3d 30 01 12 be 9e 96 c9 bd
       -0.112247884 0.033374544 -0.14258265 -0.09843181
000060 7f b3 4d 3c 1e f3 d2 3c 1c 00 1a be 21 d7 c1 bd
       0.012555002 0.025750693 -0.15039104 -0.09464861
000070 3f 13 68 bc 2a 6c 19 3d 16 b9 0b be c7 9b 04 be
       -0.014164745 0.03745667 -0.13644823 -0.1295005
000080 59 fd 85 3d 97 63 e2 b9 10 22 34 be b6 b1 ce 3d
       0.06542463 -0.0004318028 -0.17591119 0.100924894
000090 b5 e4 9f bc c8 00 2f bc c3 62 2a be e6 f6 b9 bc
       -0.019518236 -0.010681339 -0.16639237 -0.022700738
0000a0 28 37 fd bd c9 50 43 be c4 d7 9a 3c 42 4e f2 3c
       -0.12364036 -0.19073786 0.018901713 0.029578332
0000b0 10 07 c5 bd ab 66 8d 3c 90 f7 40 bd 2d 8a 96 bd
       -0.09620488 0.01726087 -0.047111094 -0.07350574
0000c0 55 3f 90 3c 33 28 c3 bd 3d 3f 38 bd 58 7d 13 3e
       0.017608324 -0.09529152 -0.044982184 0.14403284
0000d0 e3 a8 9b 3c 44 9b 05 be 05 06 91 be a0 44 87 3d
       0.01900143 -0.1304751 -0.28324905 0.06604886
0000e0 f7 ed 37 3e 95 d0 e2 bc 99 2f 69 be 5d 0d ab 3c
       0.1796187 -0.02768735 -0.22772063 0.020880396
0000f0 b7 f3 95 bd cc 53 1b 3d a4 ec 31 3d 7e 83 fa 3d
       -0.073218755 0.03792171 0.04343857 0.122321114
000100 29 d6 59 3e e3 2c 03 3e e8 e3 f6 3c 89 c4 db 3d
       0.21273102 0.12810092 0.030137971 0.107308455
000110 cd 96 51 be 2b 61 ec 3b 63 b8 d0 3d 5a 89 86 bd
       -0.20467682 0.0072137318 0.10191419 -0.065691665
000120 19 21 d5 bd e7 9f 49 3d 6d e4 b1 3d 0c 42 7c 3d
       -0.104067035 0.04922476 0.08686147 0.061586425
000130 7b 36 9a bd b6 5b 68 3c 9a 71 35 3e 19 0a 86 bd
       -0.075299226 0.014182022 0.17719117 -0.06544895
000140 cd 06 29 bd d3 7c bb bd df a7 bc 3d 1f 04 8b 3d
       -0.04126625 -0.09154668 0.09211706 0.067878954
000150 24 b0 a9 3c fe f6 f0 b9 59 ad a6 bc e5 d0 7c 3d
       0.020713873 -0.0004596039 -0.02034633 0.061722655
000160 ed 06 2f 3e 5a 04 d6 bd 78 cd 10 3e b0 5f 6d bc
       0.17092486 -0.10450049 0.1414088 -0.014488146
000170 0d 50 8f bb 21 6b 43 be 06 d6 da bd 1a 44 e9 3d
       -0.0043735565 -0.19083835 -0.10685353 0.113899425
000180 5f af 94 3c ec d5 1c bd 21 13 05 be 43 27 26 be
       0.01815003 -0.03828995 -0.12995578 -0.16225915
000190 fd 06 b0 3d 6a 78 f4 3d dd 57 13 be b4 7f 5d bd
       0.08595083 0.1193703 -0.14388986 -0.054076865
0001a0 87 8c f9 bd 7b 4a b0 3d af 2b c4 3c b3 ad 44 3d
       -0.121850066 0.08607956 0.023946611 0.048017215
0001b0 d0 a6 02 3e fc a0 70 3d e0 3e d2 bb 31 d5 31 be
       0.12758946 0.058747277 -0.0064161867 -0.17366482
0001c0 5f 09 2b bd e7 1d d7 bd eb 23 d1 3c b9 90 9e bd
       -0.041756984 -0.1050375 0.025529822 -0.077424474
0001d0 19 d4 31 39 e8 15 28 be 0d f4 4a 3d 3f 28 7e 3d
       0.00016959048 -0.16414607 0.04954915 0.0620501
0001e0 ca 6c 2e bd c8 02 fe bd 52 9b cd bd 94 5e 4b 3b
       -0.042584218 -0.12402874 -0.100393906 0.0031031715
0001f0 27 6d 92 3a 4b ec 00 be 22 09 3e 3d 6b ba 44 be
       0.0011171446 -0.12590139 0.04639543 -0.19211738
000200 54 64 67 3d f5 6f 3a bd 06 23 e4 bd de c0 3f 3d
       0.056492165 -0.045516927 -0.11139493 0.04681479
000210 5d 71 c9 bd ea 5f 98 3d cf f1 12 be 9e b4 84 be
       -0.098360755 0.07440169 -0.14350055 -0.2591905
000220 bf bb 2e 3d 6a 64 8c 3d 37 26 45 bc bd 5a 24 bd
       0.042659517 0.0685509 -0.012033037 -0.040125597
000230 03 67 ec 3c 0a cd bb 3d 88 40 99 3d a2 4b 36 3d
       0.028857714 0.091699675 0.074830115 0.044505723
000240 8a d1 6e bd 13 1d ed bc 09 e1 fd 3d e4 9c 0f be
       -0.0583053 -0.028944528 0.12396438 -0.14024693
000250 41 cf e9 3b e5 0f 57 3d 98 20 dd 3d e1 26 c2 bd
       0.0071353023 0.052505393 0.107972324 -0.09480072
000260 7c 55 d3 3d c0 53 48 bc 8c 7b 4a bd 1f 59 22 be
       0.10319039 -0.012226999 -0.04943423 -0.1585431
000270 91 c6 15 be cc 61 c3 3c 86 28 50 be 62 a5 8f bb
       -0.14626528 0.023850344 -0.20327958 -0.004383729
000280 1c d3 58 bd 49 ef e3 bd 4a 81 9f 3d a7 65 81 bc
       -0.052935705 -0.111296244 0.07788332 -0.015795542
000290 9e 7b d4 bc f0 22 c7 3d fa 84 1b 3d 05 65 0a be
       -0.025937852 0.09723461 0.037968613 -0.13515098
0002a0 dd 96 35 bd 27 c7 14 be 01 6a 62 3c c4 a2 e2 bc
       -0.044333328 -0.14529096 0.013819219 -0.027665503
0002b0 61 d2 a1 bd 7e b3 06 bc 01 25 97 b9 10 a9 fe 3d
       -0.07901455 -0.008221505 -0.00028828534 0.1243459
0002c0 87 35 90 bd 1d 7c 16 3e 30 78 c3 bd d3 58 c5 bd
       -0.070414595 0.14695783 -0.09544408 -0.096360825
0002d0 c0 02 b0 ba 9f 83 e9 3c fc 93 c3 bd 78 d7 83 3d
       -0.0013428554 0.028505145 -0.0954971 0.06437582
0002e0 ba 2a 45 3c 4e 37 72 3d 74 8d ca 3c 92 74 e7 3c
       0.012034113 0.059134774 0.024725653 0.028253827
0002f0 3e 31 d2 3d f7 0c 63 bd f5 18 1c bc a1 88 80 3d
       0.102632985 -0.055432286 -0.009527435 0.0627606
000300 2b 65 2b 3e b6 04 fe 3d f1 66 10 3e 96 b6 9a 3d
       0.16737811 0.12403242 0.14101769 0.07554357
000310 3d 04 82 3d 24 6a b2 bc 92 ed c2 3d 97 13 c3 3c
       0.06348465 -0.021779127 0.09517969 0.023813052
000320 2b c9 fc bd 40 42 bb bd 21 84 0e be 65 2e 18 bd
       -0.12343057 -0.091434956 -0.1391759 -0.03715362
000330 e2 b5 62 3e 7a 02 86 bc 43 15 84 3d 54 81 1f be
       0.22139695 -0.016358603 0.06449368 -0.15576679
000340 19 ee 96 3c 66 20 a7 bd 0b 12 ae bd b2 15 47 3e
       0.01842408 -0.081604764 -0.08499535 0.1944187
000350 5e 42 99 3d af 80 a8 bd 31 8f 15 bc a5 df f2 bc
       0.07483362 -0.082276694 -0.009128378 -0.029647658
000360 09 90 d5 3c 7f 70 84 be 33 2a 89 3d 11 2b 9c bd
       0.026069658 -0.25867078 0.06697502 -0.07625402
000370 e8 6d 4a 3e 24 d7 15 3d 03 6d 25 bd 17 d0 e5 bd
       0.19768488 0.036582127 -0.040387165 -0.112213306
000380 e4 79 0b be 01 e5 d3 3c 49 88 a2 bc 45 78 28 3d
       -0.13620716 0.025866034 -0.019840376 0.041130323
000390 0f b8 2f 3e c6 62 18 bc 3d 0c 41 3c 26 e3 84 3d
       0.17160057 -0.009300893 0.011782703 0.064886376
0003a0 b5 83 35 3e ac 39 8b bd 12 6a ba bd 68 30 80 bc
       0.17726023 -0.067981094 -0.091022626 -0.015648082
0003b0 71 a2 fc bd e1 1f 41 be 84 7a 08 3e 63 e2 4a 3c
       -0.12335671 -0.18859817 0.13327986 0.012383076
0003c0 40 ef cf 3c 98 e8 27 bd 96 01 87 be 18 75 75 bc
       0.025382638 -0.040993303 -0.26368397 -0.014981531
0003d0 3a 6b 07 bd 1c 45 76 bd 6c 46 38 3e b6 ce 32 be
       -0.033061244 -0.0601245 0.17995614 -0.17461666
0003e0 c6 c8 64 3d 3b 2d c7 bd 48 c7 3d 3e 3a 97 82 bc
       0.055855535 -0.09725424 0.18533051 -0.015941251
0003f0 c8 8b a7 bd fc 62 f4 3d 1a a8 63 3d cd d9 e6 bb
       -0.08180958 0.11932942 0.055580236 -0.007045007

network_body._body_endoder.seq_layers.2.bias f4 [128]
000000 ac 1d 9b 3d 36 98 5f bc 77 60 f7 ba a0 3d 05 bc
       0.07574019 -0.01364713 -0.0018873353 -0.008132368
000010 7c b8 22 bc 09 4e d3 bc e6 dd 10 bd 60 38 ed bb
       -0.00993168 -0.025794046 -0.03536787 -0.0072393864
000020 06 5b 8a 3a 65 c7 57 bc f6 11 33 bc 1f 95 e1 3c
       0.0010555692 -0.013170098 -0.010929575 0.027536927
000030 a1 53 36 3a 23 04 b2 bc 7a fc b0 3d c2 bf 6e 3c
       0.00069552107 -0.021730488 0.08641906 0.014572086
000040 f6 f8 c7 bc 65 ef 8a 39 8b ec 1f bc 5c 9a 2a 3d
       -0.024410706 0.00026499774 -0.009760986 0.041651115
000050 c3 18 f7 bc 7e 28 b2 3b a9 2f 1d bc 2e 42 98 3c
       -0.030163174 0.005436956 -0.009593883 0.018586244
000060 d7 6c 9e 3c 90 e8 3d 3c 27 95 0f 3c 08 4f 1c 3d
       0.019339008 0.011591092 0.008763588 0.038161308
000070 91 29 21 bd a2 ae 65 bc a0 6b 25 3e af 48 2c bd
       -0.03934628 -0.0140186865 0.16154337 -0.042061504
000080 e6 a0 10 3d 46 24 a7 bc 43 91 cb bc ec c0 3f 3c
       0.035309695 -0.020403039 -0.02484954 0.011703711
000090 75 e8 03 bd cf 51 ad bc 11 5c 82 3d d0 49 0e 3d
       -0.03220411 -0.021157173 0.063652165 0.03473836
0000a0 27 e3 eb bc 47 80 01 bc 8b 5d cd 3b ce 6e ec 3b
       -0.028794838 -0.007904119 0.0062672547 0.0072153574
0000b0 e9 8d 8c bb 0a fc ba bc e8 b6 7e ba 62 9f 59 3c
       -0.004289378 -0.02282526 -0.0009716586 0.013282629
0000c0 dc b7 84 bc 4c 7f bd 3d 4b 09 a5 3d 56 ad 61 3d
       -0.016200952 0.092527956 0.08058413 0.055096947
0000d0 a7 96 a8 3c 9f ec 6f bc 93 9d 69 bc a3 7d 1e bc
       0.02057965 -0.014643817 -0.01425876 -0.009673509
0000e0 9a 80 38 3d 25 d9 7f bc 30 89 30 3d 6d 27 0b 3e
       0.04504452 -0.015615736 0.043099582 0.13589258
0000f0 88 2c ce 3b 95 d0 a3 b9 62 da 2e bb 2e d6 70 3c
       0.0062919296 -0.00031245188 -0.002668046 0.014699502
000100 60 78 7f 3d 5c b1 22 ba e0 8c 11 3d 01 c6 1e 3d
       0.062370658 -0.0006206238 0.03553474 0.03876305
000110 a4 89 46 bc 78 d2 18 3d ce 30 77 3d 8a 0e 48 3d
       -0.012117777 0.037310094 0.06034928 0.04884199
000120 e2 aa bd 3b ee 18 dc 3c 8a c4 3c bc f1 fc cd 3c
       0.005788193 0.026867356 -0.011521468 0.025145026
000130 50 ca 89 3b 1d b5 03 bc 76 35 22 bc 21 a7 c4 3c
       0.0042050257 -0.008038786 -0.009900441 0.024005475
000140 0e 4d e3 3c 77 29 58 3b a5 80 22 bc 06 cd ba 3d
       0.027746703 0.00329837 -0.009918367 0.09121136
000150 6f 6a a6 3c 39 35 0d bd 88 e1 d7 3d 38 cc 4b 3e
       0.020314423 -0.034474585 0.105410635 0.19902122
000160 ba 3b 2c bc 54 29 16 3c b5 ea 1f 3d 83 7d 3c bb
       -0.010512287 0.009165127 0.039042193 -0.0028761334
000170 ef 26 04 bd 87 b2 f2 3d d6 3d a6 bc 49 f5 9a bc
       -0.032263692 0.11850458 -0.020293158 -0.01891579
000180 c0 37 57 3c dc ef a4 bb cc 44 c8 bc 24 f3 13 bd
       0.01313585 -0.0050334763 -0.024446867 -0.03612055
000190 1d a7 1d 3d 16 7d ed 3c de fc 37 3c ff 3d 62 3c
       0.03848945 0.02899031 0.011229722 0.013808726
0001a0 8e 8c 04 3d 61 77 24 3d d4 27 5b 3c ee 91 71 bc
       0.032360606 0.04015291 0.013376195 -0.014744265
0001b0 79 0a 90 3c 61 61 ea bb 99 33 69 bc 64 00 6d bb
       0.017583119 -0.0071527218 -0.014233493 -0.0036163563
0001c0 6f c1 f1 bb 31 8f 11 3d 26 9f a3 bb 72 7a 19 3d
       -0.0073777954 0.03553695 -0.004993337 0.03747029
0001d0 c1 f3 1f ba 28 ab 49 3c bc f2 95 bc 39 44 26 bb
       -0.0006101691 0.012308873 -0.018304221 -0.0025370254
0001e0 78 03 8a bc db 9c ea bb 0f 50 95 bb b2 61 2b bb
       -0.016847357 -0.007159812 -0.004556663 -0.002615076
0001f0 89 d8 87 bc d5 b0 ca bc 32 7d 70 3d a2 63 0a 3d
       -0.016582744 -0.024742523 0.058713146 0.033786424

action_model._continuous_distribution.log_sigma f4 [1, 3]
000000 77 4b ba be 29 52 b6 be a8 b8 2c bd
       -0.363857 -0.35609558 -0.04216829

action_model._continuous_distribution.mu.weight f4 [3, 128]
000000 03 3c a0 3c 48 c7 67 bd dd 88 d3 bc 1c 61 07 3c
       0.019559866 -0.056586534 -0.025822097 0.008262899
000010 34 96 0b bd 00 5a 92 bc fe 49 fa 3c e1 08 fb 3c
       -0.03407879 -0.017865181 0.03055286 0.030643882
000020 93 2a c7 3c 0f c5 33 3c 79 98 20 bd a8 9a 28 3d
       0.024312293 0.010972275 -0.03920791 0.041163117
000030 2e 7e 7f bc 4c 99 9d bc 3f 04 f8 3c aa 41 46 3d
       -0.015594048 -0.019238137 0.030275462 0.048402466
000040 a2 5a b9 3c 4c 9e be bb 07 1a d1 bb 7f e6 1a be
       0.022626225 -0.0058172103 -0.0063812765 -0.1512699
000050 79 e0 0f bd 78 f5 52 bc 10 66 00 3d 01 d2 4c 3c
       -0.035126183 -0.012875907 0.031347334 0.012501241
000060 b2 f3 21 3d 2d eb 80 3b da a9 5e 3c 62 79 1c 3d
       0.039539047 0.003934285 0.0135903 0.038201697
000070 60 d5 11 bc a8 b5 01 bd 4e fa da 3d 4d ba 7a 3c
       -0.00890097 -0.03166738 0.10692273 0.015303207
000080 8f 55 ff bd 73 b3 d4 bc b8 e4 3e 3d ff cb a6 3a
       -0.12467491 -0.025964474 0.046604842 0.001272559
000090 99 c3 ff 3c 5d 69 52 3c 4c 57 a3 bc 51 75 04 be
       0.031221198 0.012842503 -0.019939087 -0.12935378
0000a0 5a 50 02 bd c9 d3 78 3d 2f 6f 0e bd 43 df 9f bc
       -0.03181491 0.06074885 -0.034774 -0.01951564
0000b0 6f 2a 7b 3c 2b d4 48 3c a0 0b 6a 3c 5e a4 f0 bc
       0.015329941 0.012257616 0.014284998 -0.029375251
0000c0 28 c0 04 bd 25 e4 9a bb b5 4d 81 be 47 bb a4 3d
       -0.032409817 -0.004726904 -0.25254598 0.08043533
0000d0 0f a0 78 3c 19 9c 66 bd 38 0e b5 3c 72 f0 4a ba
       0.01517488 -0.05630121 0.022101507 -0.00077415176
0000e0 e6 7d 35 bd 73 a9 aa bc e3 07 3e bc b8 38 f3 3d
       -0.04430952 -0.020832753 -0.01159856 0.118760526
0000f0 b1 7b de 3c f9 79 84 3c 1d 48 d0 bb 33 82 bf 3c
       0.02715859 0.016171442 -0.006356253 0.023377514
000100 b9 a2 90 3d de b6 e7 3b e2 ed bd bd dc 35 d2 bc
       0.07062287 0.00707136 -0.09273888 -0.025660448
000110 a6 0c 23 3b fb f5 41 3d 07 c1 d3 3d 5a 79 2e 3d
       0.0024879365 0.047353726 0.103395514 0.0425962
000120 f8 fe d7 3a b0 e1 c7 ba e3 7c 12 bc 94 40 04 3d
       0.0016479185 -0.0015249755 -0.008940908 0.03228815
000130 e0 3c 3f 3c 77 c4 f1 bb 13 c4 21 bd 2a ac 36 3d
       0.011672229 -0.0073781568 -0.03949363 0.044597782
000140 71 24 e9 bc 1e 00 48 3b e2 68 79 bc c7 78 01 3e
       -0.02845976 0.0030517648 -0.01522276 0.12643729
000150 0c dc b0 3c 2f fc c1 3a 42 e8 5c 3d ae 94 2a 3e
       0.021589302 0.0014799888 0.053932436 0.1665828
000160 7c 3b f5 3b 6b 7e f7 bb 47 ff f8 bd e7 b9 18 bb
       0.0074838977 -0.007552912 -0.12158065 -0.0023304166
000170 5d 34 db bb 41 49 db bd 1e e1 98 3c d9 16 3d 3d
       -0.006689592 -0.107073314 0.018662032 0.046164367
000180 c0 e8 7c bc 98 b1 4e bd 16 d0 d3 3c 94 f6 8c bc
       -0.015436351 -0.050462335 0.025856059 -0.017207421
000190 9d 49 cf 3c 79 87 09 be b1 97 e0 bc 6e ec 82 bc
       0.025303656 -0.13430585 -0.027416082 -0.01598188
0001a0 10 05 d0 bd e7 04 fe bd af da c0 bd 9f 72 7b 3b
       -0.101572156 -0.12403279 -0.094167106 0.003836788
0001b0 ab fc d9 bb 1d 9a ae 3c ac dc d9 bc e9 d3 58 3a
       -0.006652435 0.021313721 -0.026594482 0.0008271323
0001c0 f1 37 a7 bc 2c b4 bf 3c c8 8c 6b bc 5a 85 01 3c
       -0.020412417 0.023401342 -0.014376827 0.007905329
0001d0 6b 8c 37 bd 99 c1 c2 3c b8 9d 11 bc fa 78 48 bc
       -0.044811647 0.023773955 -0.008887701 -0.012235874
0001e0 c3 dd 4e bb 1f 0a 97 3c fd 72 1d bc 67 b9 e7 3c
       -0.0031565286 0.018437443 -0.009609935 0.028286649
0001f0 b8 ca fa 3b ae 09 8a bc 9b 60 0c be 14 3c b6 bc
       0.0076535605 -0.016850319 -0.13708727 -0.022245444
000200 e7 84 12 be 9d 87 7f 3c fd dc a1 ba a6 f8 8e bc
       -0.1430851 0.015596298 -0.0012349185 -0.01745255
000210 fc fe 11 bc ca ab 52 bc d5 46 67 bc d4 f3 fa bc
       -0.008910891 -0.0128583405 -0.014116009 -0.030633844
000220 ff 02 05 bd 5c c1 82 bd d7 96 0c bd 62 1d 16 3d
       -0.03247356 -0.063845366 -0.03432354 0.036649115
000230 f5 81 8c bb 91 30 ea bc 1b 3f cb 3d 2e e8 b2 3c
       -0.004287953 -0.028587611 0.09924146 0.021839228
000240 46 4b 11 bd 26 ef c1 3c 20 3f 8e 3b 35 86 4d bc
       -0.035472177 0.023673605 0.004341021 -0.0125442045
000250 00 cc a3 3b 93 33 cd bc a6 d1 0f bd de ca 52 3b
       0.004998684 -0.025049007 -0.035112046 0.0032164375
000260 97 f7 76 bc 46 63 0c bd cc 61 85 3c c7 ae e3 bc
       -0.015073678 -0.034274362 0.016281985 -0.027793301
000270 2f 5f 5c bd ae 11 2d 3d 1c 55 1c be 61 c1 3f bc
       -0.05380171 0.04225319 -0.15266842 -0.01170382
000280 00 c3 11 3d a4 30 85 bb d6 42 1d bc 8e 99 c1 3b
       0.035586357 -0.0040646363 -0.009598454 0.0059081977
000290 38 16 69 bc 3c ee 51 bc 83 a7 4b be 78 ca a7 bd
       -0.014226489 -0.012813147 -0.1988812 -0.08192915
0002a0 20 d9 79 bc 28 4c fb bc 16 26 de 3c af 81 72 bc
       -0.015249521 -0.030675963 0.02711777 -0.014801427
0002b0 11 4e 7b bc 5c d6 12 bd ff 2f 8f 3c 2a bd 9e bc
       -0.015338437 -0.03584896 0.017478941 -0.01937731
0002c0 6b 02 fa bc 2e f0 10 3e 4b ac 81 bc f9 df 32 bc
       -0.030518731 0.14154121 -0.015829226 -0.010917657
0002d0 69 cc 93 bd 58 a3 15 bd 84 1d 22 3b 9a da 42 bc
       -0.072167225 -0.03653273 0.002473683 -0.011892939
0002e0 e4 65 a8 3c 2e e5 55 bc b1 71 53 be 90 43 29 3e
       0.020556398 -0.013055129 -0.20648839 0.1652968
0002f0 b7 8a 9d bc 5e 1c ab 3c 7c 59 62 3a 69 ee 1a 3d
       -0.019231183 0.02088755 0.000863455 0.037825022
000300 fa 97 99 3b 85 96 02 bd 09 81 d5 bc 39 07 8a 3b
       0.0046873065 -0.031881828 -0.026062505 0.004212287
000310 9d ea 83 3a 98 01 7a 3c 11 9a 1a bd 3e 66 b4 bc
       0.0010064427 0.015259169 -0.037744585 -0.02202141
000320 f2 d4 aa 3d ab 89 c0 bd 4c 16 e0 ba 4f ab 19 3d
       0.08341397 -0.09401258 -0.0017096489 0.03751689
000330 6a 3a 39 bc 42 2c 0c 3c 74 fd 26 3c 1e 07 b1 3c
       -0.011305431 0.008555474 0.010192264 0.021609839
000340 90 9a 49 3d 6d 63 2d bb 20 db b9 bb 3b 4e ef 3b
       0.049219668 -0.0026456967 -0.0056718737 0.007303027
000350 bc 60 a7 3b 3d 69 3c bc ae 49 02 3e 16 58 c1 3c
       0.005107967 -0.0114997 0.12723419 0.023601573
000360 b0 98 67 3c 5a e4 2b 3d e6 f4 0e bc 23 e8 82 3d
       0.014135525 0.04196582 -0.0087253805 0.06391933
000370 c8 23 87 bc 81 72 27 3e 62 35 9d 3c 91 cb 83 bc
       -0.016496554 0.16352274 0.019190494 -0.016088279
000380 7e 26 b8 bd ee 0e 4d bd d9 a3 fe 3b 31 30 d3 bc
       -0.08991717 -0.050063066 0.007770997 -0.025779815
000390 d9 9e c6 3b 8a de 3a bc e3 2a 49 3c 4c 3c 42 bd
       0.0060614166 -0.0114055965 0.012278291 -0.047420785
0003a0 85 4a a0 3c 26 62 7e bc d5 40 a8 bb c2 82 e0 3b
       0.019566784 -0.01552633 -0.0051346817 0.006851525
0003b0 94 ea 0e 3d 9c 89 82 bc a2 a1 dc bc f9 8f f0 3c
       0.03489168 -0.015934758 -0.026932541 0.029365527
0003c0 ff 16 8f 3a 68 5f d3 3c 54 e4 84 bc b8 fb 25 3d
       0.0010916888 0.02580233 -0.016222157 0.04052326
0003d0 c4 94 b2 3c c0 fd 6a 3b 94 2e 7e bc 30 d9 14 3c
       0.021799453 0.0035856813 -0.015514035 0.009084985
0003e0 8b c4 23 3c 9f 32 e7 3c 67 2a 3b 3a c5 bb b3 bc
       0.00999559 0.02822238 0.00071398023 -0.021940121
0003f0 5c dd f8 bb d6 91 01 bd f9 ee dc 3d da 5b 59 3d
       -0.0075947475 -0.03163322 0.10787768 0.053066112

action_model._continuous_distribution.mu.bias f4 [3]
000000 06 ae 5e 3c 6f 6c 8a 3c 74 a9 e2 38
       0.013591295 0.016897408 0.00010808083

action_model._discrete_distribution.branches.0.weight f4 [2, 128]
000000 ce 5e 91 bc 98 bd 3c bb 05 ff 6b bb e5 0e 19 bc
       -0.017745402 -0.002879953 -0.0036010158 -0.00934193
000010 4d 46 0a 3d d2 95 58 3c f6 dc 10 bb 29 9f 52 bc
       0.03375845 0.013219314 -0.002210436 -0.01285533
000020 c8 c8 dd 3c 31 70 c9 3b 7b 44 fb 3c e2 7b 94 bc
       0.027073279 0.0061474075 0.030672302 -0.018125478
000030 6b bc eb ba c7 c8 23 bb e9 d0 e7 3b 78 b3 7e bb
       -0.001798523 -0.0024991499 0.0070744646 -0.0038864296
000040 6b 4d 4a 3c f5 0d 8a 3b 32 82 ab 3a 34 b9 0a 3c
       0.012347559 0.0042130896 0.0013085066 0.008467007
000050 be 45 5f bc 45 5b 55 3c 22 4e 89 bb b0 41 a3 3b
       -0.013627468 0.013022249 -0.0041902224 0.004982196
000060 2a 91 34 3b 7f 77 e0 ba a0 df cb ba c0 4f 9a bc
       0.0027552345 -0.0017125456 -0.0015554316 -0.018836856
000070 1f c0 3c bc 9e 97 bd 3b 7f d5 16 bc 52 4c a1 3c
       -0.011520415 0.0057858964 -0.009206175 0.019689713
000080 e1 62 d9 bc 99 e0 46 bc 17 0d b9 bb 02 7a d6 3b
       -0.026536407 -0.012138509 -0.0056473124 0.006545306
000090 c0 6b 7e bb 25 84 3e 3c e6 04 86 3a c0 6f 04 bc
       -0.0038821548 0.011628185 0.0010224849 -0.008083284
0000a0 22 ea fc 3b 50 bd 19 bc 43 bc 16 3c c1 56 e1 bb
       0.0077183405 -0.0093835145 0.0092001585 -0.006876797
0000b0 51 ef c6 bb 95 c9 21 3b 16 02 29 3c b8 27 17 3c
       -0.006071009 0.0024686803 0.010315439 0.009225778
0000c0 12 f6 5b bc a4 f6 0f bd b4 3d 4c bc 59 b4 d3 3b
       -0.013425367 -0.035147324 -0.012465883 0.006460708
0000d0 5c 36 22 bd 33 89 67 bc 49 2b bf ba fb 56 a2 3c
       -0.039602622 -0.014131832 -0.0014585044 0.019816866
0000e0 1d d2 65 bc 17 25 8b 3c f7 e6 03 bd 29 db 6d bc
       -0.014027146 0.01698546 -0.032202687 -0.014517584
0000f0 66 2f 90 bc d1 19 b1 bb d5 28 b5 bb cb 81 a6 bb
       -0.017600726 -0.005404689 -0.005528549 -0.0050813905
000100 fe c8 b1 bc 4e 17 b4 bc 2d 91 91 3c b1 eb b7 bb
       -0.021702286 -0.021983769 0.01776942 -0.0056128134
000110 71 b3 2a 3c ca 61 c0 3b bd 83 f1 bb f3 78 3e bc
       0.010418759 0.0058710324 -0.0073704408 -0.011625516
000120 e5 d6 1e 3c ba 07 52 39 81 b7 b0 3a bf 76 49 3c
       0.00969479 0.00020030039 0.0013482423 0.012296378
000130 80 8c 9b bb 82 b7 bc 3c 98 c7 2c bc 9c a9 92 3b
       -0.0047469735 0.023036722 -0.010545634 0.0044757854
000140 2d 4e 3b bc ff 32 c7 3a bd 2e dc bb 56 e0 b3 3a
       -0.011432213 0.0015197693 -0.006719439 0.0013723474
000150 20 82 9e bb a8 41 48 3c 7a 43 15 3c d4 cd 0b bc
       -0.0048372895 0.012222685 0.009110326 -0.00853296
000160 9a b0 01 3b 7d 39 50 bc c6 1d 58 3d 48 a6 8d 3b
       0.00197891 -0.012709019 0.05276277 0.004322801
000170 b3 6b d1 3b 8d 6c 27 bd 53 08 ca ba e1 33 bb ba
       0.0063910126 -0.040875006 -0.0015413858 -0.0014282429
000180 cc c2 b9 3b 40 52 9a bc 39 20 1f 3c e0 c5 10 bb
       0.0056689736 -0.018838048 0.009712272 -0.00220906
000190 80 4a e2 bb 94 f5 3b 3c a4 d4 67 3c 35 aa 7e 3c
       -0.0069058537 0.011472125 0.014149819 0.01554351
0001a0 c5 8d 92 3c e2 aa fe bb 92 98 30 bb d4 cc ef 3b
       0.017889867 -0.0077718357 -0.0026946408 0.0073181186
0001b0 65 7a 2c 3c b4 4c d8 ba 99 fd 7e bc b2 be 4f 3c
       0.010527228 -0.0016502352 -0.015563392 0.012679743
0001c0 e0 31 58 bb 06 8e 55 3c 55 80 83 3b c1 42 e0 39
       -0.0032988712 0.013034349 0.004013101 0.00042774345
0001d0 c6 05 0c bb 44 97 b7 ba e0 39 fd ba 99 5e 04 bc
       -0.0021365746 -0.0014006873 -0.0019319616 -0.008079194
0001e0 eb b7 d0 3b 70 9b 5e 3c 18 35 cd 3b 67 be 0d bc
       0.006369581 0.013586864 0.006262433 -0.0086513525
0001f0 f6 76 e9 3a 40 19 93 3a 26 d2 32 bd 6c 3f 75 bc
       0.0017811942 0.0011222735 -0.043657444 -0.014968734
000200 e6 35 0b 3c f9 92 06 bc 43 53 3a bc fd d1 73 bc
       0.008496737 -0.008213752 -0.01137239 -0.014881608
000210 b0 4d 57 bc 02 a1 b4 bc 18 28 17 3c b1 d8 c8 3b
       -0.013141081 -0.02204943 0.009225868 0.0061293473
000220 88 46 7c bc 1c 5d 8f ba 23 1e 83 bc 55 d6 ed 3c
       -0.015397675 -0.0010937783 -0.016005581 0.029032866
000230 c0 a6 8c bb ca 6c e2 bc d4 d7 1a 3c 22 ea 45 3c
       -0.004292339 -0.027639765 0.0094508715 0.012079747
000240 55 ae 14 3c 4b 10 d9 bc 0f 1b 02 3c 7b f7 30 3c
       0.009074767 -0.026497027 0.007941022 0.010801191
000250 0d d5 c5 3b ef 4f a2 bb 3e 6f 4d 3c 0b 38 27 bb
       0.0060373605 -0.0049533765 0.012538729 -0.0025515582
000260 8d c5 16 bb bb f5 f2 3a 8e 9b e8 bb 39 9f 55 3c
       -0.0023005933 0.0018536368 -0.0070986217 0.01303845
000270 90 bb a2 bb fa 6c 5c bc eb 71 84 3c 40 15 8c bc
       -0.004966207 -0.013453716 0.016167602 -0.017099977
000280 3e f6 3e bc ad b6 7e bb 62 52 8d 3b d5 3e fa bb
       -0.011655388 -0.0038866207 0.0043127993 -0.0076368847
000290 38 63 f3 3a ad be 61 ba 95 51 b1 3a b3 f2 41 bc
       0.0018568998 -0.0008611482 0.0013528342 -0.011837649
0002a0 d9 39 62 bc d2 9b c2 39 c6 7c ea 3b fd 78 23 3c
       -0.013807737 0.0003711866 0.0071559874 0.009977576
0002b0 b3 bc f2 bb 3a bd 8f bc be 29 5c bc 42 ae b7 bc
       -0.0074077486 -0.017546285 -0.0134376865 -0.02242196
0002c0 20 34 8b 3c 3e c1 0d 3d c4 a2 1d bb 55 26 53 3b
       0.016992629 0.03460812 -0.0024053315 0.0032218893
0002d0 ba c9 1a 3d 8e fb 69 3c 3d f1 34 bc 96 92 cd bb
       0.037790038 0.014281167 -0.011043844 -0.006273578
0002e0 36 5e 19 3c 5b e0 ca bb aa 21 4c 3c da 23 da 3b
       0.009360841 -0.006191296 0.012459198 0.006657106
0002f0 ed 06 84 3c 39 7c 29 bb 70 6a aa 3b 2c 29 92 39
       0.016116584 -0.0025861396 0.0052006766 0.00027877965
000300 08 31 03 3d af cb a8 3c 02 ec bb ba b6 b7 a0 3b
       0.03202918 0.020604936 -0.0014337304 0.0049047126
000310 e2 4f 6c bb ad 8e 95 b9 a9 4f e2 3a 92 47 a2 3c
       -0.0036058356 -0.00028525796 0.0017266172 0.019809518
000320 91 9b 87 3b 63 83 12 3c 42 6c 48 bc 64 85 b9 ba
       0.004138418 0.008942458 -0.012232842 -0.0014154133
000330 35 ed b1 bb d9 0b 4b bc 78 74 51 bc 27 0a 43 3b
       -0.0054298886 -0.012392961 -0.012784116 0.002976069
000340 80 18 11 bc 0c ce 44 3c 53 06 8d 3b c1 4f f5 ba
       -0.008855939 0.012012016 0.0043037324 -0.0018715785
000350 77 dd ab bb 5c a0 50 bc d7 86 85 bc cf 62 2f 3b
       -0.0052449065 -0.012733545 -0.016299648 0.0026761775
000360 9e 20 d1 bb 18 f7 7e 3c 14 44 20 bd 9c 06 79 3b
       -0.006382062 0.015561841 -0.039127424 0.0037998324
000370 72 21 2b bb 8d 03 69 3d 87 13 95 bb b7 fd 91 bb
       -0.0026112464 0.056888152 -0.004549447 -0.004455294
000380 33 55 fd ba c4 e9 00 3d 95 3a 5e 3c 30 12 ea 3b
       -0.001932776 0.031472936 0.013563772 0.0071432814
000390 75 8f 86 3b c0 2e 9d bb 22 1f 01 3b 0b c6 7e bc
       0.004106457 -0.004796833 0.0019702394 -0.015550147
0003a0 d7 e7 37 bc e8 43 71 bb fa 80 da bb 24 1b a6 3c
       -0.0112247085 -0.0036814157 -0.0066682072 0.020276614
0003b0 ce 0d d8 b9 1b cf b5 bb 60 ca 52 3c 82 74 2a bc
       -0.00041209016 -0.0055483705 0.012865633 -0.010403754
0003c0 88 d7 b7 ba 49 ee 35 3c 58 68 a2 bb 37 e2 21 3c
       -0.0014026025 0.011104175 -0.0049562864 0.009880594
0003d0 6b e3 ce 3b 17 1b 6b 3b 40 d6 8a bb 72 b1 90 3c
       0.0063137314 0.00358743 -0.0042369664 0.017662738
0003e0 19 08 9a bb 67 0a b8 bb 07 55 bd 3c 6d 6d 90 3c
       -0.0047006723 -0.0056164744 0.023111833 0.017630303
0003f0 38 88 82 3c 78 09 66 b9 91 7f 51 3d da e8 68 3c
       0.015934095 -0.00021938037 0.051147047 0.014215672

action_model._discrete_distribution.branches.0.bias f4 [2]
000000 c5 f7 d0 bb c0 f7 d0 3b
       -0.0063771927 0.0063771904
