Assets/Learning/AIRollABall/results/TestParameters/AIRollABall/AIRollABall-9565.onnx (onnx, 99867 bytes, 8 tensors)

network_body._body_endoder.seq_layers.0.weight f4 [128, 47]
000000 dc 70 13 3e 91 b1 b9 3d da 9b 61 3d e2 9f 19 bd
       0.14398521 0.09067071 0.055080272 -0.03750599
000010 de 7a f2 bd 84 fe cf 3d 06 21 89 be 43 10 d3 bd
       -0.11839841 0.10155967 -0.26783007 -0.10305836
000020 ad b2 68 be 91 df fd bc ca e0 4d 3e 6a 38 6a 3d
       -0.2272441 -0.030990394 0.20105281 0.057182707
000030 e0 b8 10 bd 7b 48 1d 3d 29 1c b1 bd 09 46 45 be
       -0.03533256 0.0383992 -0.08647949 -0.19264998
000040 8e ee c6 bd 0b 63 b4 be f1 80 2c 3e 7a 93 2c 3d
       -0.097134694 -0.35231814 0.16846062 0.042132832
000050 9f 29 81 be 95 cd 72 bc df 3a 36 3d 1b a8 d8 bd
       -0.25227067 -0.014819522 0.044489738 -0.105789386
000060 a4 66 54 be 1c 72 4b 3e 1e 3f 56 3e 48 41 d6 bd
       -0.2074228 0.19867748 0.20922515 -0.1046167
000070 01 fc 2d be 53 79 86 be 34 d4 a6 bb 0a 16 dd 3d
       -0.16990663 -0.26264438 -0.0050912146 0.10795219
000080 26 15 54 be 38 59 27 be ee 87 4e 3d f9 cd 54 3e
       -0.20711192 -0.16342628 0.0504226 0.20781697
000090 18 76 fa 3d 86 d6 51 be 65 a1 9b bd 9e df f5 bd
       0.12229556 -0.2049199 -0.07599143 -0.12005542
0000a0 6e c4 cf 3a 19 37 35 bc 57 ed cb 3d 8c 7b 23 be
       0.0015851387 -0.0110605 0.09957378 -0.15965098
0000b0 27 3d 16 bd 8b 91 1f be 78 95 45 bd db fe 26 be
       -0.036679413 -0.15582864 -0.048238248 -0.16308157
0000c0 e3 04 51 be 84 e4 60 be 8a 05 ae 3c 8f 12 00 bd
       -0.2041202 -0.21962172 0.021242876 -0.0312677
0000d0 d6 34 e0 3d 53 6d 7e be 3c ac 04 3e b8 dd 04 3d
       0.10947578 -0.24846391 0.12956327 0.03243801
0000e0 94 6d b6 be fe b9 41 3e 1a 82 2b be a1 9c 3d 3e
       -0.35630476 0.18918607 -0.16748849 0.1851678
0000f0 c2 53 23 bb ca 6a 48 3e 69 71 3c be 9a b5 87 3d
       -0.002492175 0.19571987 -0.18402638 0.066264346
000100 a4 de bc be c7 e2 8e 3e 40 8d 99 3e c9 bc 0d 3e
       -0.3688861 0.27907392 0.29990578 0.13841547
000110 bb f7 4c 3c 73 67 9f 3d e5 5d ba bd 40 63 a8 3d
       0.012510235 0.07783403 -0.0909994 0.082220554
000120 9e 4e 91 3e 04 fb c1 3d 58 a3 cc 3d 55 16 8a 3c
       0.28380293 0.094717056 0.09992093 0.016856352
000130 dc fe 83 be da 15 06 3c a7 a9 5a be 15 d5 00 be
       -0.2578038 0.008183921 -0.2135378 -0.12581284
000140 b9 00 a4 3d 68 e4 8b 3e ab 0f 80 be 1c ca 3a be
       0.0800795 0.27322698 -0.25011954 -0.18241161
000150 ab 44 e1 3d 37 86 d7 bc 54 1c 8a be 3b 95 9c be
       0.109994255 -0.026309116 -0.26974738 -0.30582604
000160 40 b0 d8 bb 99 69 9b bd 2f 51 ff 3d ba b0 86 3d
       -0.0066128075 -0.075885005 0.124666564 0.06576677
000170 6e 6b 5c 3e e3 bc 83 bd 7e 47 f8 3d 0e 68 69 be
       0.21525356 -0.06432512 0.12123011 -0.227936
000180 a6 22 08 3e 6f d3 79 be 47 42 95 3c bf 04 05 be
       0.13294467 -0.24397062 0.01822008 -0.12990092
000190 44 8e e2 bd 4e ee fa 3c 3a 4c 90 3d 05 e6 c5 3d
       -0.11062291 0.03063121 0.07045789 0.09663013
0001a0 ed 16 c3 3d 18 d2 05 be b6 20 a3 3d e3 fb c9 bd
       0.09525857 -0.13068426 0.079652235 -0.09862497
0001b0 4e e1 9a 3d 8e e6 32 3c 55 1b 20 3d 0c 81 7c be
       0.07562505 0.010919226 0.039088566 -0.24658602
0001c0 00 92 aa bd e0 85 40 bc 90 54 6d 3e 8c 66 ca 3e
       -0.083286285 -0.011750668 0.2317679 0.39531362
0001d0 e1 39 46 be 84 68 0b 3d f3 e1 e3 bd 77 d3 84 3d
       -0.19358017 0.03403522 -0.11127081 0.06485646
0001e0 94 4c 09 3d f5 f1 05 be 54 1e 62 3e a0 b2 c6 3d
       0.033520296 -0.1308058 0.22081882 0.09702039
0001f0 a1 36 80 3e 76 fd 05 bd c7 6c 08 3e 92 e7 8c 3d
       0.2504168 -0.032712422 0.13322745 0.06880106
000200 e2 e9 0a 3e 23 bf 4d 3d d7 f4 ce bc 1a 94 a2 3d
       0.13565782 0.05023111 -0.025263233 0.079384044
000210 dd c2 17 3d 4f 23 5e 3d 46 8b 6d bd c2 7f 40 bd
       0.03705107 0.05423289 -0.05799415 -0.04699684
000220 9c 75 cb bd a7 73 07 bb 45 b5 4b 3d ff 1b e6 3c
       -0.099345416 -0.00206683 0.04973342 0.028089521
000230 7e c8 19 3b e6 d6 33 3e ea 87 ea ba a1 16 86 be
       0.002346545 0.17562446 -0.0017893289 -0.2618914
000240 e6 44 cd 3d 2c 78 82 3e 0e 6f 79 3e a3 13 1e 3e
       0.10022907 0.2548231 0.2435877 0.15437178
000250 22 7e 9f 3e be 83 cd bb 4e d8 8b bc 05 b4 5b 3e
       0.3115092 -0.0062718084 -0.017070916 0.21455391
000260 16 ca 44 be bc 54 32 3e 7a 5d bc bc 68 74 2d be
       -0.19217715 0.17415136 -0.022993792 -0.16938937
000270 ee cd ec 3c 19 c6 bc 3d 3a a9 c5 bd 6f 6c bd 3c
       0.028906789 0.09217472 -0.09651418 0.023122994
000280 af 3b 52 3e 55 32 71 be 9f f4 9f 3d 7b f7 34 bc
       0.2053058 -0.23554356 0.0781033 -0.011045332
000290 26 ad 2a 3d cd 1f 45 3e 7d c4 5d bd 1f f2 fd bc
       0.041669033 0.19250412 -0.054142464 -0.030999241
0002a0 0e fb 6a bd 95 85 86 bd df d5 9a 3d dc ba e6 3c
       -0.05736833 -0.065684475 0.07560324 0.028165273
0002b0 68 f8 18 be b9 5e 80 be 3a 4b 01 3e 1d 83 54 3d
       -0.1493851 -0.25072268 0.12626353 0.051882852
0002c0 c9 40 22 3e a1 55 10 3e 54 0c 7f be 22 71 eb 3d
       0.15845026 0.14095165 -0.24907047 0.11496188
0002d0 c9 2a 10 3d 52 be 1e be 86 ae 3a be ae 1e dc bb
       0.035197053 -0.15502289 -0.18230638 -0.0067175245
0002e0 11 4b 8a bc d5 cc 32 3e 8a b8 33 be 31 7a 50 be
       -0.016881498 0.1746095 -0.17550865 -0.20359112
0002f0 89 b1 21 be 52 f6 6f bd ea 7a 1d bd 6e 39 8e be
       -0.1579038 -0.05858452 -0.038447298 -0.2777819
000300 9e c6 8a 3e 08 14 99 3d 0f 37 78 3d 84 18 b0 bc
       0.27104658 0.07474524 0.060599383 -0.021496065
000310 d3 c6 35 3d cd 6f 3e 3e 0b 47 bf 3c 0e 2d 00 be
       0.044379067 0.18597336 0.023349306 -0.12517187
000320 f3 d4 bf bb 95 81 c5 3d 45 1c 33 3c 56 29 89 be
       -0.005854243 0.096438564 0.010932033 -0.2678935
000330 c5 9e cf 3c ea 81 2b be 9e 69 22 be 80 ea 9d bd
       0.025344262 -0.16748777 -0.15860602 -0.07710743
000340 37 1f 32 3e e0 e9 44 be 1e 24 93 be 2c aa 10 3e
       0.1739472 -0.19229841 -0.28738493 0.14127415
000350 e1 fc 1c bc 70 62 fb bd 50 36 77 bc 24 a7 6c bc
       -0.009581775 -0.12274635 -0.015088633 -0.014444146
000360 78 d5 42 be f5 bf c2 bd a5 c9 a9 bd 83 de b6 be
       -0.19026744 -0.09509269 -0.08290414 -0.35716638
000370 48 44 d6 bd 90 e1 20 be af d6 04 bd bf 91 ad be
       -0.10462242 -0.15711045 -0.0324313 -0.33900258
000380 4d cc d1 bc 66 20 bf bd fc d9 52 bc 00 b6 1a bd
       -0.025610114 -0.093323514 -0.012869354 -0.037771225
000390 1e 67 ea 3d 52 02 17 be 17 1c cc 3d 5a 3e ab 3c
       0.11445449 -0.14746979 0.09966295 0.020903755
0003a0 c2 5f e9 bc 5b 8d 1e bd 21 a1 89 3e d6 2d 98 3e
       -0.028488044 -0.038709026 0.26880744 0.2972247
0003b0 33 92 a2 bd 7c 5c 5a bd 1f 3f bc 3d b2 32 b7 3d
       -0.079380415 -0.053310856 0.09191727 0.08945216
0003c0 de 72 3d 3e 93 f8 f9 3d be 13 96 bd bf 8c 12 be
       0.1850085 0.12205615 -0.07327984 -0.14311503
0003d0 47 5c 2d 3c 9b da 8b 3d 28 59 1b 3e 26 00 3a bd
       0.010581083 0.06828805 0.15170729 -0.045410298
0003e0 03 4e 3a bd 2f a1 61 bb 6f 94 8a bd 09 88 05 be
       -0.045484554 -0.0034428348 -0.06766593 -0.13040175
0003f0 7f 14 99 3d 95 e3 80 3d d8 eb a5 3e 47 45 fd 3a
       0.074746124 0.06293408 0.32406497 0.0019323014

network_body._body_endoder.seq_layers.0.bias f4 [128]
000000 00 00 00 00 00 00 00 00 00 00 00 00 00 00 00 00
       0.0 0.0 0.0 0.0
000010 00 00 00 00 00 00 00 00 00 00 00 00 00 00 00 00
       0.0 0.0 0.0 0.0
000020 00 00 00 00 00 00 00 00 00 00 00 00 00 00 00 00
       0.0 0.0 0.0 0.0
000030 00 00 00 00 00 00 00 00 00 00 00 00 00 00 00 00
       0.0 0.0 0.0 0.0
000040 00 00 00 00 00 00 00 00 00 00 00 00 00 00 00 00
       0.0 0.0 0.0 0.0
000050 00 00 00 00 00 00 00 00 00 00 00 00 00 00 00 00
       0.0 0.0 0.0 0.0
000060 00 00 00 00 00 00 00 00 00 00 00 00 00 00 00 00
       0.0 0.0 0.0 0.0
000070 00 00 00 00 00 00 00 00 00 00 00 00 00 00 00 00
       0.0 0.0 0.0 0.0
000080 00 00 00 00 00 00 00 00 00 00 00 00 00 00 00 00
       0.0 0.0 0.0 0.0
000090 00 00 00 00 00 00 00 00 00 00 00 00 00 00 00 00
       0.0 0.0 0.0 0.0
0000a0 00 00 00 00 00 00 00 00 00 00 00 00 00 00 00 00
       0.0 0.0 0.0 0.0
0000b0 00 00 00 00 00 00 00 00 00 00 00 00 00 00 00 00
       0.0 0.0 0.0 0.0
0000c0 00 00 00 00 00 00 00 00 00 00 00 00 00 00 00 00
       0.0 0.0 0.0 0.0
0000d0 00 00 00 00 00 00 00 00 00 00 00 00 00 00 00 00
       0.0 0.0 0.0 0.0
0000e0 00 00 00 00 00 00 00 00 00 00 00 00 00 00 00 00
       0.0 0.0 0.0 0.0
0000f0 00 00 00 00 00 00 00 00 00 00 00 00 00 00 00 00
       0.0 0.0 0.0 0.0
000100 00 00 00 00 00 00 00 00 00 00 00 00 00 00 00 00
       0.0 0.0 0.0 0.0
000110 00 00 00 00 00 00 00 00 00 00 00 00 00 00 00 00
       0.0 0.0 0.0 0.0
000120 00 00 00 00 00 00 00 00 00 00 00 00 00 00 00 00
       0.0 0.0 0.0 0.0
000130 00 00 00 00 00 00 00 00 00 00 00 00 00 00 00 00
       0.0 0.0 0.0 0.0
000140 00 00 00 00 00 00 00 00 00 00 00 00 00 00 00 00
       0.0 0.0 0.0 0.0
000150 00 00 00 00 00 00 00 00 00 00 00 00 00 00 00 00
       0.0 0.0 0.0 0.0
000160 00 00 00 00 00 00 00 00 00 00 00 00 00 00 00 00
       0.0 0.0 0.0 0.0
000170 00 00 00 00 00 00 00 00 00 00 00 00 00 00 00 00
       0.0 0.0 0.0 0.0
000180 00 00 00 00 00 00 00 00 00 00 00 00 00 00 00 00
       0.0 0.0 0.0 0.0
000190 00 00 00 00 00 00 00 00 00 00 00 00 00 00 00 00
       0.0 0.0 0.0 0.0
0001a0 00 00 00 00 00 00 00 00 00 00 00 00 00 00 00 00
       0.0 0.0 0.0 0.0
0001b0 00 00 00 00 00 00 00 00 00 00 00 00 00 00 00 00
       0.0 0.0 0.0 0.0
0001c0 00 00 00 00 00 00 00 00 00 00 00 00 00 00 00 00
       0.0 0.0 0.0 0.0
0001d0 00 00 00 00 00 00 00 00 00 00 00 00 00 00 00 00
       0.0 0.0 0.0 0.0
0001e0 00 00 00 00 00 00 00 00 00 00 00 00 00 00 00 00
       0.0 0.0 0.0 0.0
0001f0 00 00 00 00 00 00 00 00 00 00 00 00 00 00 00 00
       0.0 0.0 0.0 0.0

network_body._body_endoder.seq_layers.2.weight f4 [128, 128]
000000 73 84 a8 ba f8 83 59 3c cf 8b 6f bd f2 c7 09 3d
       -0.0012856856 0.013276093 -0.05848294 0.03363795
000010 6d ef 7d 3d 43 e8 94 3d 51 90 1d 3c 4a 4b f4 3d
       0.061995912 0.07270863 0.009616927 0.11928423
000020 21 21 a7 bc 3d 98 5c bd 3c 96 b3 3d a2 7c ad bd
       -0.02040154 -0.053856123 0.08768889 -0.084710374
000030 cc 8d 6e bd 50 7e 20 be 2d c2 6d 3c 4f bf 1e 3d
       -0.058240697 -0.15673184 0.014511627 0.038756665
000040 18 7c f5 3d 57 8e 53 be cf 4a 35 bc 54 f5 b1 3c
       0.1198656 -0.20659767 -0.011065199 0.021723427
000050 49 5d 0c 3d 9b f5 00 3e 74 c5 83 bc 81 2d 61 bc
       0.03426865 0.12593691 -0.016085364 -0.013743759
000060 86 d8 09 3d 9b 6b 48 3e 92 8b 89 bd aa ce 99 bd
       0.03365376 0.19572298 -0.06716074 -0.07510121
000070 cf ab 05 3c bd d4 6f bd c4 04 a2 3b ff ae 02 be
       0.008158638 -0.058552492 0.0049444158 -0.12762068
000080 ee 37 38 3e 95 e1 03 bd aa 01 05 be e6 79 36 3e
       0.17990085 -0.032197554 -0.12988916 0.17819938
000090 be e0 81 3d ae 0f 07 be d0 29 43 bd be 3a 27 be
       0.06341694 -0.13189575 -0.047647297 -0.16331002
0000a0 a0 43 14 be cd b4 ac 3d 7b a3 02 3e f2 bc c2 3d
       -0.14478922 0.084329225 0.12757675 0.09508695
0000b0 dd 7e 67 3a 77 de bf 3d ec eb 89 3d d1 69 c5 bd
       0.0008830855 0.09368604 0.06734452 -0.096393235
0000c0 94 fc c5 3d c2 44 3e bd 50 4b 2a be 66 04 65 3d
       0.09667316 -0.04645229 -0.16630292 0.055912398
0000d0 d7 a1 34 3e 1d 61 6b bd 75 64 c2 3d 94 96 e7 3c
       0.17639862 -0.05746566 0.09491817 0.028270043
0000e0 22 e3 92 3d 88 63 37 bc 5b 6d d0 bc c9 2c 84 3b
       0.071722284 -0.011193164 -0.02544277 0.004033659
0000f0 df cd 1f be 55 7c 95 3c 4f da 27 bd 00 67 3b be
       -0.15605877 0.018247763 -0.04097968 -0.1830101
000100 6a 10 1c 3e 24 12 28 3e 48 67 b6 3d 85 a2 34 bd
       0.15240636 0.1641317 0.08906418 -0.044100303
000110 5b 11 46 bc f1 ae 2c 3c b7 99 3d bd 4c 71 9b bd
       -0.012089099 0.010539756 -0.046289172 -0.07589969
000120 2f f5 2c bc 90 4b 2f 3d 87 ea 30 3d ed 18 3e bd
       -0.010556503 0.04279667 0.043192413 -0.04641049
000130 5d ef 63 3d 57 a5 6b bc 74 20 db bd e1 36 22 3e
       0.055648196 -0.014382682 -0.10699549 0.15841247
000140 fd 49 3a be fc 23 a9 bc 21 a5 01 be f6 6e bc 3b
       -0.18192287 -0.020647041 -0.12660648 0.0057505323
000150 ca 2b 3f 3e 13 2d c2 bd 84 eb b7 bd cc 5e b2 bc
       0.18669048 -0.094812535 -0.08980468 -0.021773718
000160 ed 78 cd bc 12 9a 02 be 2e 41 4b 3d 4e 11 32 bb
       -0.025082076 -0.12754086 0.049622707 -0.002717096
000170 53 40 a7 bd 9c 60 01 3d e5 26 16 be ce 75 78 3d
       -0.08166566 0.031586275 -0.14663275 0.060659222
000180 d4 0f 9f 3d 24 01 7a bd 01 fc 45 be a4 23 6a 3d
       0.07766691 -0.061036244 -0.19334413 0.057162896
000190 12 02 04 bd 01 47 0c bc 6e 70 24 ba be 6b 7c 3d
       -0.032228537 -0.0085618505 -0.0006272857 0.06162619
0001a0 8b b5 8e 3d b5 da 0b be b4 72 1a 3e 6f 18 1d 3c
       0.0696822 -0.13657649 0.15082818 0.009588345
0001b0 88 78 bb bd b3 e4 e0 3d 8b 37 0b 3e 9c a5 78 3d
       -0.09153849 0.10981121 0.13595407 0.060704812
0001c0 54 e0 c6 bb 9e 60 0b 3e 3d 2b 87 3b 15 ad ce bd
       -0.0060692225 0.13611075 0.0041250275 -0.100916065
0001d0 48 bb 2e 3e b5 f2 df 3c ab 71 1b bd 55 ad 01 3e
       0.1706363 0.027337411 -0.0379502 0.12663777
0001e0 57 60 12 be 40 c6 88 bd 55 ff 3b be 28 f6 b0 bd
       -0.14294563 -0.06678438 -0.1835912 -0.086407006
0001f0 99 2b 98 bc c4 70 87 bd 9e 5f 16 3d c4 5e c5 3c
       -0.018575476 -0.06613305 0.03671228 0.02409304
000200 13 e5 dc 3d 84 09 d4 3d e9 61 2b 3b 5b f5 0b be
       0.1078588 0.103533775 0.0026150888 -0.13667814
000210 be ce b7 bd f5 18 af bd 40 b2 db bd 9d 33 07 be
       -0.0897498 -0.08549682 -0.10727358 -0.13203283
000220 33 3a c0 3d 3d 44 3a 3c 7a ad 85 bd a2 49 8b bd
       0.093861006 0.011368808 -0.06527229 -0.06801154
000230 9f 5b 1c 3c 23 ef b0 bc 40 ec 55 3d bf 38 38 be
       0.009543329 -0.021598404 0.05222726 -0.17990397
000240 50 37 d2 3d d6 ea 4f 3d 95 8d aa bb e3 c3 0b 3c
       0.10264456 0.050761066 -0.005204866 0.00853059
000250 ac 08 f2 bd b5 33 1c bd 16 50 e0 bd 75 6f 24 be
       -0.1181806 -0.03813525 -0.10952775 -0.16058142
000260 1d 5a 5f bb 18 a4 f5 bd ac 1b b9 bc 25 b4 f3 bd
       -0.0034080811 -0.11994189 -0.022596203 -0.11899594
000270 75 ce db bd 43 d5 00 3d 25 df 80 3d 64 91 93 3d
       -0.10732738 0.031453382 0.062925614 0.072054654
000280 26 17 fa 3c 6e b9 e6 bc 21 a2 bf 3b 72 fd fd bb
       0.030528616 -0.028164592 0.0058481847 -0.0077511603
000290 1c 20 c5 3d 22 12 34 3d 34 74 d2 3c ad 21 e2 3d
       0.09625265 0.043962605 0.025690176 0.110415794
0002a0 40 88 9f 3d e5 10 3e bd 49 1e 09 3e 8f 2c a7 3c
       0.077896595 -0.04640283 0.13390459 0.02040699
0002b0 91 16 2d 3d 63 59 70 3d 56 a9 02 be 4b 86 9e bd
       0.04225785 0.058678996 -0.12759909 -0.07740458
0002c0 a4 f0 bd bd 68 ff f0 3c bb 76 04 be 96 32 80 3c
       -0.09274414 0.029418662 -0.12935917 0.015649121
0002d0 b0 8d 7d 3d b3 8d c0 3c c4 f3 2d 3d a8 df 3a bd
       0.0619027 0.023505067 0.0424688 -0.04562345
0002e0 31 7a 4e bd e5 3d 74 3d 5f 90 11 bd 5d 20 a3 bc
       -0.0504095 0.05962934 -0.035538074 -0.019912893
0002f0 3b 88 af 3d 89 86 6c bd 0b 95 1a bd 4f b9 d8 3d
       0.08570906 -0.05774549 -0.037739795 0.1058222
000300 ef 07 3e 3c 79 73 34 3c 23 88 05 ba d6 4f 8f 3d
       0.011598571 0.011013859 -0.00050938333 0.06997649
000310 cc 47 7f 3c 66 9c 88 bd 37 8b 05 be f0 a8 0a be
       0.015581083 -0.06670456 -0.13041387 -0.13541007
000320 18 8b a3 3d d5 5e 12 3e ae a7 61 bd 6a 72 e6 bd
       0.079855144 0.14293988 -0.055091552 -0.112522915
000330 12 3d 07 3e 4b 9b 28 3d d5 61 52 bc 56 31 1b bd
       0.1320689 0.041163724 -0.012840708 -0.037888847
000340 27 89 36 bc 83 6f 2e 3d b2 f0 63 3d 53 fa 52 bb
       -0.011141098 0.042586815 0.055649467 -0.0032192662
000350 c1 8c 9d 3d d5 b0 c8 bc ef b1 32 bd 58 69 97 bc
       0.07692862 -0.024498383 -0.043626722 -0.018482849
000360 11 fc 0b 3d 39 bf 16 3c a4 b1 38 be 97 27 67 3d
       0.034175936 0.0092008645 -0.18036515 0.05643424
000370 b2 42 b3 3d af 1d 58 bd 8f 9d b8 bd 60 62 20 be
       0.087529555 -0.052762683 -0.09014427 -0.15662527
000380 7e a7 d4 bc a7 3e fa 3d 33 2f 16 3d 40 d9 7c bb
       -0.025958773 0.12218981 0.036666106 -0.003858164
000390 3d 1c 53 be cd 85 5c be 55 44 79 bc a2 ca 66 bd
       -0.20616241 -0.21535416 -0.0152140455 -0.05634559
0003a0 d9 6e c6 bd f6 e9 b3 bc 12 77 03 be 29 25 a0 3d
       -0.09689111 -0.021962147 -0.1283839 0.07819588
0003b0 37 8e c9 3c 2f fb 06 bd 11 36 28 be 33 5b c7 bc
       0.024603946 -0.03295439 -0.16426875 -0.02433548
0003c0 4c bc d7 3c b0 f0 2e 3e 64 e7 73 3e 6b 04 34 bd
       0.026334904 0.17084002 0.23818737 -0.043949526
0003d0 b7 51 12 3d b7 a6 03 3d 6f 0b 96 bc eb 20 9b 3c
       0.03572246 0.032141414 -0.018315999 0.018936595
0003e0 95 82 5a bd 74 93 07 be 84 0a 0e 3d 02 1f ab bc
       -0.05334719 -0.13239843 0.034677997 -0.02088881
0003f0 99 82 b1 bb 1f 79 ad 3d 7d a4 11 bd d1 04 b0 bd
       -0.00541718 0.08470368 -0.03555726 -0.08594669

action_model._continuous_distribution.log_sigma f4 [1, 3]
000000 00 00 00 00 00 00 00 00 00 00 00 00
       0.0 0.0 0.0

action_model._continuous_distribution.mu.weight f4 [3, 128]
000000 24 f2 01 3d 1d 2c 13 3c 7b ed 5e 3b ef 95 a6 3c
       0.031725064 0.008982685 0.003401606 0.020335166
000010 f0 2e 4a 3c ec 30 a5 3b 8f 28 0f 3c 5c a7 28 3c
       0.012340292 0.0050412323 0.008737697 0.010293808
000020 ff 62 44 3c ee 0a b6 3c bf 2d 9c bb 87 9e 57 bb
       0.011986493 0.022222009 -0.0047661955 -0.0032900886
000030 5b e9 8c 3c c3 84 a3 3b 67 7b 82 3c af b8 8b 3c
       0.017201116 0.0049901917 0.015927983 0.017055837
000040 92 d3 ef 3b d9 9f 84 bc 4f 47 d9 3b 09 83 a7 bc
       0.0073189223 -0.016189503 0.006630815 -0.020448225
000050 23 2b 98 bb 67 3f 49 3b d3 67 39 3c 1c b3 82 bb
       -0.004643814 0.0030707957 0.0113162575 -0.0039886367
000060 89 35 0a 3d 4c f5 01 3c f4 4c 32 bc d5 85 79 bb
       0.03374246 0.0079320185 -0.010882605 -0.0038074155
000070 3c c4 42 bb 22 66 64 3c 1d e9 dd bb 6f cf db 3b
       -0.0029719016 0.013940366 -0.006772174 0.0067080776
000080 ec 06 1f bc a4 cc 8d 3c f1 2c b0 3b 15 bf c6 bb
       -0.00970624 0.017309494 0.005376451 -0.006065259
000090 47 9d 86 3a 58 09 8c 3b 98 23 96 3b bf 01 f3 bb
       0.0010270261 0.004273575 0.00458188 -0.0074159796
0000a0 aa 4d 64 3c 89 72 25 bb 27 1e 4e 3c b2 72 0e bc
       0.013934532 -0.002524527 0.012580431 -0.008694338
0000b0 0a 7f 3c 3c c8 28 7c bc aa 43 b9 bc f3 b0 2a 3d
       0.011504898 -0.015390582 -0.022615273 0.04167266
0000c0 50 34 1f bc 33 0b 08 bc 51 0a 0f 3c c8 2a e6 3b
       -0.009717062 -0.008303451 0.008730487 0.007024143
0000d0 0a 45 83 3a 3c 78 4a 3c 30 4a 4f 3d 12 ba c8 bb
       0.0010015082 0.012357768 0.05060786 -0.006125697
0000e0 f5 31 73 bc 99 de 33 3c 09 35 02 3d fa 16 17 bc
       -0.014843454 0.010978364 0.03178886 -0.009221787
0000f0 45 60 b5 ba 23 4d 0a 3c fa 7f ac 3c 54 15 99 3c
       -0.0013837895 0.008441242 0.021057118 0.018686928
000100 de 17 0a bc 7c 7a aa 3c 07 1f 95 3c 00 9d 09 3d
       -0.008428542 0.020810358 0.018203272 0.033596992
000110 38 65 b4 bc cf c1 3a bc 4a 4b 83 bc 7b b9 a5 3c
       -0.022020921 -0.011398747 -0.016027112 0.020230046
000120 68 95 41 bc 03 ff c0 38 cd bc e4 38 c3 6c 57 3c
       -0.011815406 9.202773e-05 0.00010907054 0.013148489
000130 e5 5f 81 3b 3b 0d 09 b8 af a4 14 3c 06 70 98 bc
       0.003948199 -3.2675667e-05 0.009072467 -0.018608104
000140 bb db c7 3b 64 4f 00 3c c8 62 0d 3b 93 b9 9f bc
       0.006099192 0.007831428 0.002157377 -0.019497668
000150 1c 6c 3e bc ab 27 b0 3b fd c3 cd bc 47 35 27 bc
       -0.011622455 0.0053758225 -0.025117869 -0.010205573
000160 10 55 ec bb 67 01 48 3c 0e 73 bd 3c a5 77 da 3c
       -0.0072122887 0.012207366 0.023126151 0.02666838
000170 1a 0e ea 3c 57 c1 9a bb 7b 29 ee bc 00 bc b2 3b
       0.028571177 -0.004722755 -0.029072514 0.0054545403
000180 7d de 0f bc 5c 19 82 ba 6a 85 d1 3c a9 5a c6 bb
       -0.008781073 -0.000992577 0.025576312 -0.006053288
000190 d0 c2 0e 3c 10 d5 a0 bc ea 8b da 3b 7f 0b 70 bb
       0.008713439 -0.019632846 0.006669511 -0.0036627946
0001a0 ab 72 db 3c d2 5c a8 bb b2 2f aa ba 3d 24 78 bc
       0.026788076 -0.005138018 -0.0012984185 -0.015145359
0001b0 13 36 b4 3c f2 da 7f 3c a3 f9 16 3c 13 4e c6 bb
       0.02199844 0.0156161655 0.0092147915 -0.0060517876
0001c0 ff db 04 bc 97 70 10 3c 7f 80 c4 3a e7 30 25 bd
       -0.008109092 0.008815906 0.0014991908 -0.04032984
0001d0 bf 5a 2f bc 75 32 a4 bc 75 60 43 3c aa 39 67 bc
       -0.010702788 -0.020043591 0.011924853 -0.014112869
0001e0 e5 b3 9a bc 20 93 36 3a af 9f eb 3b 9f 54 50 3b
       -0.018884609 0.00069646724 0.0071906666 0.003178872
0001f0 47 ff fe 3b 7d 7b aa bc 2f 26 8b bc 72 b7 1c bc
       0.0077818963 -0.020810837 -0.01698598 -0.009565221
000200 6e 83 95 bc e5 4a 55 3c 3f 4c d9 bc d2 00 03 3d
       -0.018251147 0.0130183445 -0.026525615 0.031983204
000210 60 49 a4 bc a4 0a 07 3c f7 0c da 3b 43 1b d7 3a
       -0.02005452 0.008242283 0.0066543776 0.0016411323
000220 36 a3 24 3c 3c a7 1c ba 1e 18 4a bc c8 fc 89 bb
       0.010048678 -0.00059758476 -0.012334852 -0.004211042
000230 df e2 81 3c 1f 1b b8 3b 28 8f eb bb 45 cb 70 b9
       0.01585525 0.0056184675 -0.0071886964 -0.00022963907
000240 88 5d 9d 3b d2 42 e2 3c 7c df 2b 3c b0 f9 a6 3c
       0.0048024096 0.027619753 0.010490295 0.020382732
000250 45 68 83 3c 12 92 70 3c bd 1e 3f 3b c6 d0 02 bc
       0.01604093 0.014683263 0.0029162609 -0.007984346
000260 b3 3d 2b 3d e6 3a aa bc 5a 36 07 bd fb 53 33 3c
       0.041806888 -0.020780038 -0.033010818 0.0109453155
000270 86 65 2f bc fb 09 be bc 7a 38 45 3b db 36 09 3c
       -0.010705357 -0.023198118 0.0030093477 0.008374895
000280 ba 37 7f 3c 5b 72 98 bc da 99 75 bb 03 c0 82 3c
       0.015577251 -0.018609216 -0.0037475736 0.015960699
000290 d8 46 64 bc 97 b5 02 3c df f3 2a 3d 6b 69 09 3d
       -0.013932906 0.007977865 0.04173648 0.0335478
0002a0 fc 16 45 3d 16 40 8d bc 9b 5e 6e 3c 03 6a a6 3c
       0.048117623 -0.017242473 0.014548923 0.020314222
0002b0 77 98 fb bc 47 6a 3a 3b 5f 83 8d 3b 94 75 15 bb
       -0.03071235 0.0028444694 0.004318639 -0.0022805678
0002c0 e0 d8 68 bc 77 1a 86 bc b2 fe f2 bb ed 29 06 3c
       -0.014211863 -0.016370041 -0.007415616 0.008188707
0002d0 98 a2 e7 3b cb 56 23 3b 1d 8b 57 bb 5a 4f c1 3b
       0.007068943 0.0024923559 -0.0032889314 0.005899352
0002e0 77 28 fd 3c b1 ea 8f bc 81 7c 3c bc d4 81 c4 bc
       0.030903084 -0.017567964 -0.011504293 -0.023987688
0002f0 81 e7 24 3d 4f 95 47 3b db bc d3 ba ca e4 68 3c
       0.04025984 0.0030453985 -0.0016154306 0.014214704
000300 b3 db 38 3b 72 4c ec bb 2f 83 89 ba 28 08 cb bc
       0.0028207123 -0.0072112614 -0.0010491366 -0.024784163
000310 05 11 26 3d af 64 58 3c 68 fa 27 bb 9b 18 2f 3c
       0.040543575 0.013207599 -0.0025631431 0.010687019
000320 07 b1 84 bc d3 77 37 3c bb 0f 2c 3d 52 33 23 3c
       -0.016197694 0.011198002 0.04200719 0.009960966
000330 3f f1 44 bc 8f 43 a9 ba 6f 64 ee 3c 88 b9 84 3d
       -0.012020408 -0.0012913811 0.029100625 0.064807
000340 0f 33 0c bb ff b5 82 bc 8f de d7 3c 68 16 6d bc
       -0.0021392738 -0.015955923 0.026351241 -0.014470674
000350 e5 b9 bf 3b f3 83 f7 bc f6 33 06 bd 1e 45 93 3b
       0.005851018 -0.030214285 -0.032764398 0.0044943234
000360 55 e7 9c bc 50 df 7e bc 5a dc 87 bb 3f 8d 38 bb
       -0.019153276 -0.015556172 -0.004146141 -0.002816036
000370 8b c5 31 3c 48 6f 54 bd 17 ba 1c bd c8 09 6f bc
       0.010850321 -0.05186394 -0.038263407 -0.014589734
000380 13 d0 4d bc 30 23 95 3c 0d e0 d9 bb 28 46 40 bc
       -0.012561816 0.018205255 -0.0066490234 -0.011735477
000390 b0 fe b7 3c a8 de 34 3b 7c 55 3f 3c 04 f7 c9 bb
       0.022460312 0.0027598534 0.011678096 -0.0061634798
0003a0 c8 dd e1 3c 3d ee 67 3c 35 74 bc ba 4a 34 a2 bb
       0.027571574 0.0141559215 -0.0014377894 -0.004950081
0003b0 2a 9b 49 3c 7a 06 69 bc 87 18 4f 3c cb 6a 2b 3c
       0.01230506 -0.014222736 0.012640125 0.010462473
0003c0 82 aa 95 bb 1a dc ba 3a 78 95 84 3b 4c 98 83 bb
       -0.0045674453 0.0014256269 0.0040461384 -0.004015958
0003d0 9b 23 34 bc 5d e0 99 ba 0f 00 91 3c 57 e3 8c bc
       -0.010994817 -0.0011739839 0.017700223 -0.017198248
0003e0 82 6d 5f bc 6f d2 25 bd c3 e6 a9 bc bb a8 97 bc
       -0.013636949 -0.04048389 -0.020739919 -0.018513074
0003f0 3f 11 aa bc 5a 9d 1e 3c bb be 45 bc cf fb 28 3c
       -0.020760177 0.00968107 -0.0120693995 0.010313942

action_model._continuous_distribution.mu.bias f4 [3]
000000 00 00 00 00 00 00 00 00 00 00 00 00
       0.0 0.0 0.0

action_model._discrete_distribution.branches.0.weight f4 [2, 128]
000000 8f 33 3d bc 16 5a c6 bb 36 50 1e 3c e2 94 ee ba
       -0.011547937 -0.0060532195 0.009662678 -0.001820233
000010 04 69 1e 39 8a 5d 57 3b 9d 07 56 3b 4f ad 2c bc
       0.00015107176 0.003286215 0.0032658346 -0.010539367
000020 83 f9 29 3b a3 de d7 ba 5d d1 ff 3b 2b 77 94 bb
       0.0025936074 -0.0016469549 0.0078069405 -0.0045308075
000030 68 04 81 bc e2 72 cc bb a0 87 0a bc 38 9e d3 bb
       -0.015749171 -0.006239281 -0.008455187 -0.00645807
000040 b5 46 c6 3a 93 75 94 3b 31 d3 0a bc 47 f8 8a 3a
       0.0015127274 0.0045306175 -0.0084732035 0.0010602557
000050 30 6d 2f 3b 77 6a 6d 3c df 3e 1c 3c 28 91 d1 3a
       0.0026767962 0.014490715 0.009536474 0.0015988695
000060 e3 6a 61 3c a2 57 c7 ba b7 3e b4 bb 33 40 23 3b
       0.013758394 -0.0015208612 -0.0055006403 0.0024910092
000070 fd 58 ab 3b 3a bf f4 ba 6f ef 9f 3b c3 20 a8 3b
       0.005229114 -0.0018672713 0.0048808376 0.0051308586
000080 5f e3 c1 3c c5 fb b7 bb 02 e1 e1 bb d0 60 68 3c
       0.02366799 -0.00561473 -0.006893278 0.014183238
000090 b5 f0 42 3c a3 68 0a bc df 42 95 bb 72 68 7a bb
       0.011898209 -0.008447799 -0.004555091 -0.0038209227
0000a0 3b 5a c2 39 3d b7 6b bc ef 7a bb ba 3b 30 6f ba
       0.0003706979 -0.014386949 -0.0014303605 -0.00091243134
0000b0 aa 38 83 3b 6a 27 1f bc f3 fc e9 b9 08 be ed ba
       0.0040045576 -0.009713987 -0.00044629685 -0.0018138299
0000c0 d9 37 c4 bb f4 d6 22 bb 7b d7 63 bc 39 32 1f 3c
       -0.005988103 -0.002484736 -0.013906355 0.009716564
0000d0 ff e0 3f 3c 2d bc 7e 3b 36 2a 4a 3c 1f 9c 8f 3a
       0.011711358 0.0038869486 0.012339165 0.0010956562
0000e0 43 26 45 3a 32 6c 14 3c a0 18 6b 3a 2b 86 d9 ba
       0.0007520655 0.009058999 0.0008968208 -0.0016595771
0000f0 67 19 24 bc 0e 27 cc bb 82 be 12 3c 8e aa 04 3c
       -0.010015822 -0.0062302416 0.008956553 0.008097304
000100 f3 29 00 bc 7b 16 4d 3b bb 7c c4 3b 37 5c 6b bc
       -0.0078225015 0.0031293917 0.0059963143 -0.014365247
000110 dd 68 3c bc 3f 8a 0f 3c 27 0c 40 bb 9b 21 9f 3c
       -0.011499611 0.008760988 -0.0029304118 0.019425204
000120 b3 35 19 38 c7 a9 80 3c 47 14 0d 3c 2a 34 16 bb
       3.6528054e-05 0.015705956 0.0086107915 -0.0022919276
000130 87 51 9b 3c 47 20 8d bc 2b 35 0f bc f6 b3 44 bc
       0.018959774 -0.017227305 -0.008740704 -0.012005797
000140 c8 e8 93 bc a5 78 73 bb 9a d8 eb bb 7b c9 be 3b
       -0.018055335 -0.0037150767 -0.007197452 0.005822358
000150 a5 1f 59 bb df a0 08 3c 6e b0 0b bc b0 85 c8 b9
       -0.0033130434 0.008339136 -0.008525951 -0.00038246578
000160 4d 27 40 bb 3f 13 ed bb b5 e3 cf bb d5 90 1b bc
       -0.00293203 -0.0072349603 -0.0063442835 -0.00949498
000170 97 15 fa 3b 23 3f f6 bb 2e ee 0d bc 87 17 07 bc
       0.0076319682 -0.0075148507 -0.0086627435 -0.008245355
000180 08 5e fb bb 68 c3 16 bc f0 9f d6 ba df ac b5 3b
       -0.0076711215 -0.009201862 -0.0016374569 0.0055442895
000190 06 bb b8 bb c4 e8 46 bc 9c 26 0c b9 4b 7d 03 3c
       -0.0056375293 -0.012140457 -0.00013365824 0.008025478
0001a0 b7 0d 8c 3b a8 1b a9 3b 4c 22 a8 3b b7 b6 80 3c
       0.004274096 0.0051607676 0.0051310416 0.015712125
0001b0 88 59 7e bb 7c 66 cc ba 6b b2 63 bb c3 4a 95 ba
       -0.003881069 -0.0015594508 -0.0034743797 -0.0011390079
0001c0 6c 61 26 bb 50 70 1e bb e9 4d 8c bc f9 89 09 bc
       -0.0025387658 -0.002417583 -0.017126994 -0.008394712
0001d0 68 cb 6f bb 60 bf b2 bb d5 27 50 bb 3b 56 20 3a
       -0.0036589745 -0.0054549426 -0.0031762023 0.0006116365
0001e0 b0 4e c1 bc 15 65 3a 3b c0 d7 4b 3b ed d8 22 b9
       -0.023597091 0.0028441597 0.0031103939 -0.00015530335
0001f0 67 86 c4 3c d9 1d 1c 3c 61 3f c6 3b 7b 82 c1 3b
       0.02398987 0.009528601 0.006050036 0.005905447
000200 2d ef 7f 3b 8c 29 03 bc e2 1b b7 bb 17 b8 87 3c
       0.0039052472 -0.008005511 -0.0055880407 0.016567273
000210 05 41 81 3c a1 2a c1 bb 9c 13 1e bc 91 50 26 ba
       0.015778074 -0.0058949743 -0.00964823 -0.0006344403
000220 44 ab 8b 3b 05 76 4d bc eb ad b9 3b 03 f2 d1 3a
       0.00426236 -0.012540345 0.0056664846 0.001601756
000230 03 6d 69 bb a3 55 98 bc 63 13 1b 3c b0 12 2b 3c
       -0.0035617955 -0.018595522 0.009465071 0.010441467
000240 c5 bb 75 3c 4b bf 09 bb b4 48 a5 bc 0a 40 a6 b7
       0.014998381 -0.002101856 -0.02017627 -1.9818563e-05
000250 0a fd e5 bb 1b dd 17 3c 0f 5a 83 3b db 45 ee 3b
       -0.00701869 0.009269024 0.0040085386 0.007271511
000260 1a 56 47 bc 6b ba 9b 3c 43 0f da 3b c7 9f 70 bc
       -0.012166524 0.01900979 0.0066546514 -0.014686531
000270 18 cc 88 3c c7 8e 71 bb 35 41 00 3c 4d 35 a9 bb
       0.016698882 -0.0036858784 0.007828047 -0.0051638247
000280 77 30 8e 3c 4b 46 e3 3a 35 20 5e 3b 27 2b 2b bc
       0.017357094 0.0017339675 0.0033893709 -0.0104473
000290 4a 49 93 3c d7 b8 df bb f8 a5 17 bb 2f 2a 28 bc
       0.017979283 -0.0068274545 -0.0023139697 -0.010263964
0002a0 8b a5 21 bc d9 08 bc 3b 91 3b 1e bc 3a e0 12 3b
       -0.009866129 0.0057383594 -0.009657756 0.0022411481
0002b0 77 7f 40 bb ea ea 3b 3c 70 a0 4d 3c 98 5c 78 3b
       -0.002937285 0.011469582 0.012550458 0.0037896987
0002c0 8d 86 9f bb 2b f5 84 b9 47 4a 89 bc 03 82 44 3c
       -0.0048683346 -0.00025359666 -0.016759051 0.011993888
0002d0 3c 8d a1 37 ea d9 21 3a f3 17 ff 3b 6e f0 00 3a
       1.9258463e-05 0.00061741343 0.0077848374 0.00049186393
0002e0 ad aa 66 bc 92 c3 50 3c f3 b4 8a 3b c2 b1 bc 3b
       -0.014078778 0.01274194 0.0042329966 0.005758495
0002f0 99 04 02 3c d8 16 63 bc ac 76 04 bc ff e9 61 3c
       0.0079356665 -0.013860427 -0.008084934 0.013788699
000300 c3 7f f6 bb df 24 37 3c ca d7 2f bc 65 02 6e bc
       -0.0075225546 0.011178224 -0.0107326 -0.014526938
000310 59 4a 91 3b 51 1f cb 3a d7 58 4c 3b 0b fa a3 bb
       0.0044339118 0.0015497004 0.0031180882 -0.0050041727
000320 80 8c 75 3c 63 33 3f bc fe 8d 8c 3b b8 64 3f 3c
       0.014987111 -0.011669966 0.0042893877 0.011681728
000330 b7 58 6f bc a9 8f b4 3b 23 85 1d 3c a1 6c 81 3b
       -0.014608554 0.0055102897 0.009614262 0.003949717
000340 bf e0 14 bc f0 7e b6 3a 70 52 d0 bb 57 be 4f 3c
       -0.009086787 0.0013923328 -0.0063574836 0.012679658
000350 17 79 8e bc e3 72 ca b9 58 b5 10 3c 09 c5 41 3a
       -0.017391725 -0.0003861404 0.008832298 0.0007391726
000360 77 88 51 3b c8 00 51 bb 18 1c c9 bc 0a 31 1a bc
       0.0031972209 -0.0031891335 -0.024549529 -0.009411106
000370 a3 ee fb bb 9f f6 ad 3b 7d 45 d6 bb e2 97 c5 ba
       -0.00768836 0.0053089405 -0.0065390454 -0.0015075172
000380 f6 a7 19 bc a7 68 ef bb c2 dd 3c bc a8 61 48 3c
       -0.009378424 -0.0073061767 -0.011527481 0.012230314
000390 f9 c4 45 3b f3 47 c1 bb 67 95 f9 3a a2 ee 44 3b
       0.003017722 -0.0058984696 0.0019041718 0.0030049463
0003a0 a3 7b af bb 8b 58 61 3b 8c 9e 30 bb ff e8 79 bc
       -0.005355315 0.003438505 -0.002694997 -0.0152533045
0003b0 b7 20 13 bc ce 5b 2d ba 73 0e 13 3a e8 1b 09 ba
       -0.008979968 -0.0006613106 0.0005609758 -0.00052302936
0003c0 bc d3 18 3c 60 f1 e8 b9 d2 31 42 3b ff 12 66 3c
       0.009327825 -0.00044430327 0.0029631746 0.014042615
0003d0 27 6a 8e 3c 17 3c 61 bb 5d ce 1e 3c 17 0b e2 3b
       0.017384602 -0.0034368092 0.0096927555 0.0068982947
0003e0 4b a7 b7 ba aa 8e f6 3b c1 f5 a2 bb c2 63 0a bc
       -0.0014011649 0.007524331 -0.004973144 -0.008446636
0003f0 cb 92 3e 3c cb fc 89 3b 40 1d 10 3c f1 eb 3c 3b
       0.011631678 0.0042110435 0.008796036 0.0028827155

action_model._discrete_distribution.branches.0.bias f4 [2]
000000 00 00 00 00 00 00 00 00
       0.0 0.0
