Assets/Learning/AIRollABall/results/TestParameters/AIRollABall/AIRollABall-5063.pt (torch, 192699 bytes, 13 tensors)

network_body._body_endoder.seq_layers.0.weight f4 [128, 47]
000000 93 4f 5f bc a8 7c 8f bd 13 f2 92 bd 39 5f 69 3e
       -0.013629812 -0.07006198 -0.07175078 0.22790231
000010 5a 05 e0 bd ed 2f 19 3e 84 7f 5f be cd 56 67 3d
       -0.10938521 0.14959688 -0.21825987 0.056479264
000020 50 8a 68 be ac 9a 58 be 95 76 8d be 4c 78 1d 3e
       -0.22709012 -0.21152753 -0.27629533 0.15377921
000030 d6 a4 3e 3e bf 54 e5 3c 41 68 6f 3c 45 ec 0c bd
       0.18617567 0.027994512 0.014612258 -0.03440501
000040 c7 77 99 3e c4 ab c0 bc ff ee 88 3e e8 22 60 bd
       0.29974195 -0.023519404 0.2674484 -0.05472079
000050 f7 8a e7 3c 92 37 05 be bc e8 92 37 28 6b ac bd
       0.028264506 -0.1300948 1.7512932e-05 -0.08418876
000060 4d 9d 84 3e 08 c7 59 3e 7f b3 17 be 20 46 01 be
       0.2590126 0.2126733 -0.14814566 -0.12624407
000070 50 f9 0e 3d 3f d6 18 be 50 7f 3a 3e aa 04 2a 3e
       0.03490573 -0.14925478 0.18212628 0.16603342
000080 d8 26 d5 3d b0 56 98 3d 9f 9f 51 bd f0 93 06 be
       0.104077995 0.07438409 -0.051177617 -0.13142371
000090 16 bf 95 bd 9a 31 d6 bc ad 1e 37 3c c1 de 1c be
       -0.073118374 -0.026146699 0.011176747 -0.15319349
0000a0 49 56 0a 3e 9e 24 e8 3e 86 d4 6e 3e 84 42 49 3e
       0.13509478 0.45340437 0.23323259 0.1965428
0000b0 06 4c af 3b 16 ef 5e be 9b 9f 07 bd 92 a5 ae 3d
       0.005349639 -0.21770892 -0.033111196 0.08527674
0000c0 cd cd 88 bd 0a a8 92 bb 65 ab 0e be fc 75 cc 3d
       -0.066798784 -0.004475598 -0.1393257 0.09983441
0000d0 b3 c3 ea 3d b8 a6 c8 bd 2d 66 24 bd 3f 1d 75 be
       0.11463108 -0.09797424 -0.040136505 -0.23936938
0000e0 7a 32 72 be 07 d1 2c 3d 67 52 f0 bc b0 da 42 3e
       -0.23652068 0.04219153 -0.029336167 0.19028735
0000f0 8c 2d b7 bb 4b 19 84 3e 73 55 09 be a4 36 53 be
       -0.0055901464 0.25800547 -0.13411503 -0.20626312
000100 8c d5 d5 bd 7c ea a2 3d 58 66 50 bd e7 bd 4f be
       -0.104411215 0.079548806 -0.050878853 -0.20287286
000110 25 1e 85 bd cc fe 08 3e a2 59 01 be 16 db 2f 3e
       -0.0649989 0.13378447 -0.12631848 0.17173418
000120 95 ae c3 be 9e ce 8a 3e e7 5e e0 bd 02 f4 92 bd
       -0.38219133 0.2711076 -0.10955601 -0.07175447
000130 64 92 4b bd c0 80 5a 3e 5c f3 87 3d 2e 80 20 3d
       -0.049700156 0.21338177 0.06638214 0.03918474
000140 d7 7d 1e bd 28 d9 df 3c 79 9f 43 be ea 8a 0f 3d
       -0.03869423 0.027325228 -0.19103803 0.03504459
000150 62 48 e6 bc ac 94 0a bd 58 89 7e 3e 4b 7a d1 bd
       -0.028110687 -0.03383319 0.2485708 -0.10228404
000160 22 e5 dc 3d 2b 9f cb bd 4c d2 c9 3c a1 f9 b1 3d
       0.10785891 -0.09942468 0.02463641 0.08690191
000170 0e d4 31 be cf c2 15 3e 90 b5 72 3d 91 5e 0b 3e
       -0.17366049 0.14625095 0.059255183 0.13610293
000180 fd d8 2c bd 7b 8e dd 3e 7a e5 a6 be c4 a8 97 3d
       -0.042199124 0.43272766 -0.32596952 0.07405236
000190 4a 82 1d 3e 91 b6 59 3a b1 88 59 be 2c 2c 4b bd
       0.15381733 0.00083050976 -0.2124355 -0.049602672
0001a0 0d 00 80 3d 30 2f d7 3d df 59 7b ba a3 7a 79 3a
       0.0625001 0.10507047 -0.0009588282 0.00095168705
0001b0 e9 35 55 bd ba 12 78 3e e0 84 e4 bc ec 48 7c 3c
       -0.052053366 0.24225894 -0.027895391 0.015398245
0001c0 7b e1 44 3e 93 aa 87 3d 29 2f 03 bd cd c7 0a 3e
       0.19226639 0.06624331 -0.032027397 0.1355278
0001d0 01 17 e7 b9 ca 09 4e be eb 16 ba bb df e5 af be
       -0.00044076893 -0.20120922 -0.0056790016 -0.34355065
0001e0 31 5f 10 3e 68 e8 da bd 05 74 f2 bc 6c ac f5 3c
       0.14098813 -0.10688859 -0.029596338 0.029989444
0001f0 3e 9c 2a be e4 42 17 bd 20 30 24 bd 8f c2 12 3d
       -0.16661164 -0.036929026 -0.040084958 0.035830077
000200 6d 4d 29 3e 03 be 63 bc 07 d6 c7 3d 09 d0 4d bb
       0.16533442 -0.013900283 0.09757619 -0.0031404516
000210 98 d2 02 be 56 71 68 be a2 16 cc 3d 76 d7 eb bc
       -0.12775648 -0.22699484 0.09965254 -0.028789263
000220 89 74 87 bc d2 ca 1b 3e 5e 32 5c 3e 7e af fa bb
       -0.01653506 0.15214089 0.21503589 -0.007650315
000230 bf b2 9e 3b 26 60 7a bd 05 24 80 3e 99 c9 86 3d
       0.0048430855 -0.06112685 0.2502748 0.065814205
000240 23 ba 30 bd cc 89 52 3d 1a 32 8a bd 96 89 60 bd
       -0.043146264 0.051400945 -0.06747837 -0.054818712
000250 e4 bf 93 be e2 e3 12 be d0 cd 61 3d 15 9d e0 3d
       -0.28857338 -0.14344743 0.05512792 0.10967461
000260 dd 50 ff 3d 77 5d 43 be d7 08 30 be d4 3f 2d be
       0.12466595 -0.19078623 -0.17190872 -0.1691888
000270 3e d9 2b be 6d 44 06 be 18 99 4c b9 bd b5 9f be
       -0.1678209 -0.1311204 -0.00019511988 -0.31193343
000280 3d 06 19 bd 79 a3 1d bd c6 c1 b2 3c be 88 a3 3d
       -0.037359465 -0.038485978 0.021820914 0.07985066
000290 d2 b7 25 bd 7e 51 19 be 62 d0 90 3d da 8f a6 bb
       -0.040458508 -0.14972493 0.07070996 -0.0050830664
0002a0 d1 e1 9c be c2 c3 97 3d 34 74 ab be 5e 7b 78 3e
       -0.30641034 0.07410385 -0.33487093 0.24265811
0002b0 96 35 55 3e d4 90 70 bd 0a 6f c6 3d 2e 78 87 3e
       0.20821223 -0.05873187 0.09689148 0.26458877
0002c0 3e d8 4f 3e b3 f1 8a 3e ad 4d 38 be 1b 00 17 3d
       0.20297334 0.27137527 -0.17998381 0.036865335
0002d0 47 29 82 be 65 88 bf bc a7 11 42 3e 50 34 8d bc
       -0.25422117 -0.023380468 0.18952046 -0.017236859
0002e0 03 3b bc bd 12 48 8c 3e 00 f0 44 be 5a e6 6e be
       -0.09190943 0.27398735 -0.19232178 -0.2333006
0002f0 32 78 84 3e 0f 58 ba 3d 9b 5b ad 3d eb aa 6d be
       0.25872952 0.09098827 0.08464738 -0.23209731
000300 1c 27 06 3e 56 63 0d 3e f3 cc 92 bd cc 26 eb bd
       0.13100857 0.13807425 -0.07167997 -0.11482009
000310 3c 13 d7 bc a4 b2 4c bc 25 b2 f2 bc f4 ba 58 be
       -0.026254289 -0.012493763 -0.029625962 -0.21165067
000320 69 c9 c4 3a 07 09 32 3c be 6d cf bd 67 32 c5 3b
       0.0015013638 0.01086641 -0.101283535 0.0060179713
000330 bc bf d7 bb 00 ff 3b 3c 0d 6d a2 3e c3 8c 75 bd
       -0.006584136 0.011474371 0.31723824 -0.059948694
000340 c8 ae 43 3d 5a a2 00 bc a1 e5 e9 3d 7b ad 5c be
       0.047774106 -0.007851208 0.11420751 -0.21550553
000350 fe e2 82 3d 71 20 c9 3b 17 7e 9b bd 75 5e 2c bd
       0.063909516 0.0061379005 -0.07592409 -0.04208227
000360 bd ef 72 be 7a 7f 45 3e 36 18 2a 3d 7c 2e 66 bc
       -0.23724265 0.1928691 0.041526996 -0.014049169
000370 42 64 56 3b 26 ef 26 3d ab ab 90 bd 32 1b a3 3c
       0.0032713567 0.040755413 -0.07063993 0.019910429
000380 7e 97 9c 3c eb fd 93 bd b2 28 40 be bd ba 2f 3e
       0.019115206 -0.072261654 -0.18765524 0.17161079
000390 10 85 00 3e 85 27 c3 be b8 40 14 3e 1a db 4b 3d
       0.1255076 -0.38116089 0.14477813 0.0497695
0003a0 ea 92 0a be 25 df 56 3d 47 c1 39 be 48 4b 86 bd
       -0.13532606 0.0524589 -0.18140136 -0.065573275
0003b0 47 21 57 3d c9 da b4 bd 54 a5 1f 3e e9 4d 80 3d
       0.05252197 -0.088307925 0.15590411 0.0626486
0003c0 65 ec cd bd 13 c4 be 3d 72 49 6c be 17 f1 4e be
       -0.10054854 0.09314742 -0.23074892 -0.20209156
0003d0 34 6a a8 3d 2f b7 13 bd 74 23 3c be eb 06 fe bc
       0.08223382 -0.03606337 -0.183729 -0.031009158
0003e0 5c 15 82 bd 78 f7 33 3d 09 04 cd bd 51 08 08 3d
       -0.0635173 0.043937176 -0.10010535 0.033211056
0003f0 d4 30 6a be fc ac 92 bd 5e 09 9c bd 8c 56 c2 bd
       -0.22870189 -0.071619004 -0.07618974 -0.09489164

network_body._body_endoder.seq_layers.0.bias f4 [128]
000000 00 00 00 00 00 00 00 00 00 00 00 00 00 00 00 00
       0.0 0.0 0.0 0.0
000010 00 00 00 00 00 00 00 00 00 00 00 00 00 00 00 00
       0.0 0.0 0.0 0.0
000020 00 00 00 00 00 00 00 00 00 00 00 00 00 00 00 00
       0.0 0.0 0.0 0.0
000030 00 00 00 00 00 00 00 00 00 00 00 00 00 00 00 00
       0.0 0.0 0.0 0.0
000040 00 00 00 00 00 00 00 00 00 00 00 00 00 00 00 00
       0.0 0.0 0.0 0.0
000050 00 00 00 00 00 00 00 00 00 00 00 00 00 00 00 00
       0.0 0.0 0.0 0.0
000060 00 00 00 00 00 00 00 00 00 00 00 00 00 00 00 00
       0.0 0.0 0.0 0.0
000070 00 00 00 00 00 00 00 00 00 00 00 00 00 00 00 00
       0.0 0.0 0.0 0.0
000080 00 00 00 00 00 00 00 00 00 00 00 00 00 00 00 00
       0.0 0.0 0.0 0.0
000090 00 00 00 00 00 00 00 00 00 00 00 00 00 00 00 00
       0.0 0.0 0.0 0.0
0000a0 00 00 00 00 00 00 00 00 00 00 00 00 00 00 00 00
       0.0 0.0 0.0 0.0
0000b0 00 00 00 00 00 00 00 00 00 00 00 00 00 00 00 00
       0.0 0.0 0.0 0.0
0000c0 00 00 00 00 00 00 00 00 00 00 00 00 00 00 00 00
       0.0 0.0 0.0 0.0
0000d0 00 00 00 00 00 00 00 00 00 00 00 00 00 00 00 00
       0.0 0.0 0.0 0.0
0000e0 00 00 00 00 00 00 00 00 00 00 00 00 00 00 00 00
       0.0 0.0 0.0 0.0
0000f0 00 00 00 00 00 00 00 00 00 00 00 00 00 00 00 00
       0.0 0.0 0.0 0.0
000100 00 00 00 00 00 00 00 00 00 00 00 00 00 00 00 00
       0.0 0.0 0.0 0.0
000110 00 00 00 00 00 00 00 00 00 00 00 00 00 00 00 00
       0.0 0.0 0.0 0.0
000120 00 00 00 00 00 00 00 00 00 00 00 00 00 00 00 00
       0.0 0.0 0.0 0.0
000130 00 00 00 00 00 00 00 00 00 00 00 00 00 00 00 00
       0.0 0.0 0.0 0.0
000140 00 00 00 00 00 00 00 00 00 00 00 00 00 00 00 00
       0.0 0.0 0.0 0.0
000150 00 00 00 00 00 00 00 00 00 00 00 00 00 00 00 00
       0.0 0.0 0.0 0.0
000160 00 00 00 00 00 00 00 00 00 00 00 00 00 00 00 00
       0.0 0.0 0.0 0.0
000170 00 00 00 00 00 00 00 00 00 00 00 00 00 00 00 00
       0.0 0.0 0.0 0.0
000180 00 00 00 00 00 00 00 00 00 00 00 00 00 00 00 00
       0.0 0.0 0.0 0.0
000190 00 00 00 00 00 00 00 00 00 00 00 00 00 00 00 00
       0.0 0.0 0.0 0.0
0001a0 00 00 00 00 00 00 00 00 00 00 00 00 00 00 00 00
       0.0 0.0 0.0 0.0
0001b0 00 00 00 00 00 00 00 00 00 00 00 00 00 00 00 00
       0.0 0.0 0.0 0.0
0001c0 00 00 00 00 00 00 00 00 00 00 00 00 00 00 00 00
       0.0 0.0 0.0 0.0
0001d0 00 00 00 00 00 00 00 00 00 00 00 00 00 00 00 00
       0.0 0.0 0.0 0.0
0001e0 00 00 00 00 00 00 00 00 00 00 00 00 00 00 00 00
       0.0 0.0 0.0 0.0
0001f0 00 00 00 00 00 00 00 00 00 00 00 00 00 00 00 00
       0.0 0.0 0.0 0.0

network_body._body_endoder.seq_layers.2.weight f4 [128, 128]
000000 40 a6 f7 bc 61 07 03 bd 30 cb 6d bd 19 15 4b 3c
       -0.030230641 -0.03198946 -0.058055103 0.012395167
000010 e8 93 25 3a e1 f6 cb 3d f2 84 09 3e c2 2d 99 ba
       0.000631629 0.09959198 0.13429621 -0.001168661
000020 d0 d5 1e 3d 8c 1e 57 3d 2b fa 65 be 32 dc b5 bc
       0.038778126 0.052519366 -0.22458713 -0.022199724
000030 30 b5 d4 bc 06 ca 10 3d cd 04 36 3d f7 8a f6 3d
       -0.025965303 0.035348915 0.044438172 0.12038224
000040 28 4a 1c bd af 59 ed bd 8e 51 7a ba 31 d6 6e 3d
       -0.03815666 -0.115893714 -0.0009548896 0.058309738
000050 93 5e 57 bd 57 dc db 3d d2 de f6 bc 94 c2 a5 3c
       -0.052580427 0.10735386 -0.030135546 0.020234384
000060 b7 7c 21 be 92 38 3c bc 6d b5 8b 3d 79 6c c5 bd
       -0.15770231 -0.011488097 0.068217136 -0.0963983
000070 94 90 c5 3c 26 54 89 bc b1 d6 b4 bd 8f fe af 3c
       0.024116792 -0.016763758 -0.08830012 0.021483688
000080 a1 81 ad bd bf 22 82 3d 18 ca 35 3d 3a 73 d4 bd
       -0.084719904 0.063542835 0.044382185 -0.1037354
000090 e9 27 bb 3d 68 0a 4b bd b1 7d a0 bc de bf 2b 3d
       0.09138472 -0.04957047 -0.019591184 0.041931026
0000a0 66 8d 07 bd 8d a9 b5 bd e4 55 7f be 13 65 66 bd
       -0.033093832 -0.0887023 -0.24935108 -0.056248736
0000b0 b7 33 c0 bc ee a3 e4 3d 5d 18 72 3c 43 70 a3 3d
       -0.02346216 0.111640796 0.0147763165 0.079803966
0000c0 b6 fa eb 3d b8 6d 7c bd 7a 1b 14 3d 86 00 90 3d
       0.11522429 -0.061628073 0.036159016 0.0703135
0000d0 72 42 93 3c 43 0f 9e 3d d5 e5 0c 3a ea 5b 0e 3e
       0.01797602 0.07717755 0.0005374824 0.1390225
0000e0 5f ef dd bd 65 9d 0d be 91 d4 a6 bd 96 e0 62 3d
       -0.10836672 -0.13829572 -0.081460126 0.055389963
0000f0 76 ed 02 be 71 eb 8f bd 30 81 6f 3c b0 8e bf bd
       -0.12785897 -0.07027329 0.014618203 -0.09353387
000100 0e 7d 1a be fc 16 36 bd b9 56 fe 3b 51 0a 52 bc
       -0.15086767 -0.044455513 0.007761803 -0.012819842
000110 d4 06 9d 3c 6b 22 43 3c 39 af 85 3d 56 0d b6 bc
       0.019168295 0.011910061 0.06527562 -0.022223156
000120 5d c3 1b 3d 95 84 09 3e de 07 34 be d2 9d 0a 3e
       0.03802811 0.13429482 -0.17581126 0.13536766
000130 bd e5 be bc 3d 2d 80 bd 3f dc 6e 3d bf ba 12 3d
       -0.023302907 -0.062586285 0.05831551 0.035822626
000140 89 72 94 bd 0e 27 18 bc 1f f8 94 bd ec 44 e9 3d
       -0.07248408 -0.009286655 -0.07273888 0.11390099
000150 cc e2 80 3d 09 99 05 be ac e9 62 3d 69 67 2c be
       0.06293258 -0.1304666 0.055398628 -0.16836323
000160 93 0f 19 3a 5d 8b c3 bd 57 42 af 3c bd cb a1 3c
       0.00058388076 -0.09548066 0.021393938 0.01975047
000170 e8 c1 c6 bd 85 3e e7 3c 34 74 1d 3e 4b 2d 2b 3e
       -0.097049534 0.028228054 0.15376359 0.16716497
000180 20 07 85 3d a1 9f a5 3d 25 c1 dd bd 49 08 4d bc
       0.064954996 0.080870874 -0.10827855 -0.012514182
000190 71 14 12 3e 5d c9 46 bd 68 e5 09 be d0 3b 4f 3b
       0.1426561 -0.04853188 -0.13466418 0.0031621344
0001a0 9b c8 34 bc ae ac 63 3d a8 7c fa 3d 4a 0a 15 bd
       -0.011034156 0.055584602 0.122308075 -0.036386766
0001b0 30 38 95 3d d7 8f d8 bd 8a 0d 84 bd 6d 2e ba bd
       0.072861075 -0.1057431 -0.06447895 -0.09090886
0001c0 1f 74 96 3d 51 d0 29 3c 2e d7 5c be f7 c5 fd 3b
       0.07346367 0.010364608 -0.2156646 0.0077445465
0001d0 4e 2d 11 3e b1 e3 47 bc 25 ce ce 3b 6e e5 f7 bd
       0.14177439 -0.012200282 0.0063111954 -0.12104307
0001e0 67 0e fb 3c 64 ed 79 b8 32 05 0f 3d e4 87 b0 bd
       0.030646516 -5.9587313e-05 0.034917064 -0.08619669
0001f0 1c 97 fc bd be 49 4d bd 74 0f 54 3e 93 e8 13 3e
       -0.12333509 -0.050119154 0.2070902 0.14444189
000200 2a f5 1d bd 40 d9 40 be 21 d7 fe bd 7a 4f ad bd
       -0.038563885 -0.18832874 -0.12443376 -0.084624246
000210 13 fb 92 bc 04 6c 00 be 44 6d 50 3e 4c 42 a9 bd
       -0.017941987 -0.12541205 0.20354182 -0.08264598
000220 35 a9 4c be 78 d6 f0 3c 2e bd c8 3d 0b 2e 34 bd
       -0.19986422 0.029399142 0.09801708 -0.043989222
000230 53 3a ce bd c2 c8 47 3d 21 47 d5 3d ec 68 59 3c
       -0.10069718 0.048775442 0.104139574 0.013269644
000240 13 93 82 be ab 97 06 be 50 b4 bc 3c 04 fe 21 3d
       -0.25502834 -0.13143794 0.023035198 0.03954889
000250 66 15 d8 bc 8a 11 33 bd 31 50 a3 3d 22 7c 51 be
       -0.026377391 -0.0437179 0.0797428 -0.20457509
000260 9f 43 01 bd 1a d4 1e 3d 55 d9 32 3d d1 47 ad 3d
       -0.03155863 0.038776495 0.043664295 0.084609635
000270 66 c7 6d 3d 36 4f 4c be 3f d1 c3 3d 6e 4d 11 3e
       0.05805149 -0.19952092 0.09561395 0.14189693
000280 23 a7 98 3c db 1b 26 3e de a1 e1 bc f2 c5 b1 bd
       0.018634384 0.16221564 -0.027543005 -0.08680333
000290 89 c1 22 bc 6c bc ab 3c ee 13 db 3d 77 4b d8 bd
       -0.009933838 0.02096387 0.10697161 -0.10561269
0002a0 e6 f3 12 3a 4b 74 bc bd dd 6d 3c 3e 11 0d 28 3e
       0.00056058017 -0.092018686 0.18401285 0.16411234
0002b0 5b 5a 61 3c c1 95 99 bd 83 51 bd 3d 7a b4 2e bd
       0.013754453 -0.074992664 0.09244063 -0.042652585
0002c0 fa 1a ac bc 76 0f 17 bc 5b 06 b3 bd 04 da cf bd
       -0.021008957 -0.009219995 -0.087414466 -0.10149005
0002d0 f3 65 2c 3d a6 21 95 bc 1e 12 1e be 55 9f 0d be
       0.042089414 -0.018204521 -0.15436599 -0.13830312
0002e0 d9 5d 99 bc c9 26 e2 ba d6 11 2a 3e 30 cd 1a be
       -0.018721508 -0.001725399 0.16608366 -0.15117335
0002f0 7d f9 56 3d 77 07 24 bd 10 c9 ac bc 26 4e 2b 3d
       0.052484024 -0.04004618 -0.021091968 0.041822575
000300 77 76 1e 3c 39 c5 8a bc dd d7 94 3d 87 ae 07 3d
       0.009671799 -0.016939746 0.07267735 0.033125427
000310 c7 eb 0e be 5f 4e b4 bb 36 55 ef bc f5 bd 2f bd
       -0.1395713 -0.0055025066 -0.029215436 -0.042905767
000320 f9 36 db 3d a9 9a e9 3d fe 9a 93 3d 63 b2 a2 bd
       0.107038446 0.11406452 0.07207297 -0.07944181
000330 f9 15 6a bd 24 5d e2 bd 21 ae ee 3d 0e da 02 be
       -0.05714986 -0.110529214 0.11654306 -0.12778494
000340 d7 42 c4 bc 9d c0 5b 3d e5 7e 09 3e 12 c9 57 3e
       -0.023957653 0.053650487 0.13427313 0.21072796
000350 87 31 d0 bd 40 0b 9b 3d 27 b6 48 be aa 5f 17 3e
       -0.101656966 0.07570505 -0.19600736 0.14782587
000360 9c 10 de 3b e9 fd 53 3c 25 40 78 bc 66 4d 3e bd
       0.0067768823 0.012938955 -0.015152012 -0.04646053
000370 6e 20 88 bd db 4f 12 3e 68 84 d3 3d 0d 01 91 3b
       -0.066468105 0.14288275 0.10327989 0.004425174
000380 5e 72 0e bd e6 78 60 bd 94 99 67 bd 58 ec cc bd
       -0.034777038 -0.054802798 -0.056542948 -0.100060165
000390 fc c3 03 3d 7f 54 57 bd 43 90 33 be a0 1a b0 bc
       0.032169327 -0.052570816 -0.175355 -0.02149707
0003a0 f8 ce 44 bb d7 cc c9 bc a4 01 24 3d b7 70 f9 3d
       -0.003003059 -0.024633808 0.040040627 0.12179702
0003b0 9c 43 9f 3d fb 86 cb bd 07 fc 12 3d 7f 58 13 be
       0.07776567 -0.09937855 0.035884883 -0.14389227
0003c0 b3 f5 29 be ff e9 39 3d 66 a7 3c 3e fb 1d 1f bc
       -0.16597633 0.04538917 0.18423232 -0.009711738
0003d0 0e e9 1e be 5e ca 10 3d e8 25 99 bd 37 19 ea 3c
       -0.15518591 0.035349242 -0.07477933 0.028576476
0003e0 e2 1b 2f 3d c1 5d 8c 3d 31 16 0b bc 07 28 1e 3e
       0.0427512 0.0685382 -0.008489178 0.15444957
0003f0 9d d2 cc bd 2d 50 f7 3d b4 d4 7d 3d 66 2a 88 3c
       -0.10001109 0.12075839 0.061970428 0.01662178

network_body._body_endoder.seq_layers.2.bias f4 [128]
000000 00 00 00 00 00 00 00 00 00 00 00 00 00 00 00 00
       0.0 0.0 0.0 0.0
000010 00 00 00 00 00 00 00 00 00 00 00 00 00 00 00 00
       0.0 0.0 0.0 0.0
000020 00 00 00 00 00 00 00 00 00 00 00 00 00 00 00 00
       0.0 0.0 0.0 0.0
000030 00 00 00 00 00 00 00 00 00 00 00 00 00 00 00 00
       0.0 0.0 0.0 0.0
000040 00 00 00 00 00 00 00 00 00 00 00 00 00 00 00 00
       0.0 0.0 0.0 0.0
000050 00 00 00 00 00 00 00 00 00 00 00 00 00 00 00 00
       0.0 0.0 0.0 0.0
000060 00 00 00 00 00 00 00 00 00 00 00 00 00 00 00 00
       0.0 0.0 0.0 0.0
000070 00 00 00 00 00 00 00 00 00 00 00 00 00 00 00 00
       0.0 0.0 0.0 0.0
000080 00 00 00 00 00 00 00 00 00 00 00 00 00 00 00 00
       0.0 0.0 0.0 0.0
000090 00 00 00 00 00 00 00 00 00 00 00 00 00 00 00 00
       0.0 0.0 0.0 0.0
0000a0 00 00 00 00 00 00 00 00 00 00 00 00 00 00 00 00
       0.0 0.0 0.0 0.0
0000b0 00 00 00 00 00 00 00 00 00 00 00 00 00 00 00 00
       0.0 0.0 0.0 0.0
0000c0 00 00 00 00 00 00 00 00 00 00 00 00 00 00 00 00
       0.0 0.0 0.0 0.0
0000d0 00 00 00 00 00 00 00 00 00 00 00 00 00 00 00 00
       0.0 0.0 0.0 0.0
0000e0 00 00 00 00 00 00 00 00 00 00 00 00 00 00 00 00
       0.0 0.0 0.0 0.0
0000f0 00 00 00 00 00 00 00 00 00 00 00 00 00 00 00 00
       0.0 0.0 0.0 0.0
000100 00 00 00 00 00 00 00 00 00 00 00 00 00 00 00 00
       0.0 0.0 0.0 0.0
000110 00 00 00 00 00 00 00 00 00 00 00 00 00 00 00 00
       0.0 0.0 0.0 0.0
000120 00 00 00 00 00 00 00 00 00 00 00 00 00 00 00 00
       0.0 0.0 0.0 0.0
000130 00 00 00 00 00 00 00 00 00 00 00 00 00 00 00 00
       0.0 0.0 0.0 0.0
000140 00 00 00 00 00 00 00 00 00 00 00 00 00 00 00 00
       0.0 0.0 0.0 0.0
000150 00 00 00 00 00 00 00 00 00 00 00 00 00 00 00 00
       0.0 0.0 0.0 0.0
000160 00 00 00 00 00 00 00 00 00 00 00 00 00 00 00 00
       0.0 0.0 0.0 0.0
000170 00 00 00 00 00 00 00 00 00 00 00 00 00 00 00 00
       0.0 0.0 0.0 0.0
000180 00 00 00 00 00 00 00 00 00 00 00 00 00 00 00 00
       0.0 0.0 0.0 0.0
000190 00 00 00 00 00 00 00 00 00 00 00 00 00 00 00 00
       0.0 0.0 0.0 0.0
0001a0 00 00 00 00 00 00 00 00 00 00 00 00 00 00 00 00
       0.0 0.0 0.0 0.0
0001b0 00 00 00 00 00 00 00 00 00 00 00 00 00 00 00 00
       0.0 0.0 0.0 0.0
0001c0 00 00 00 00 00 00 00 00 00 00 00 00 00 00 00 00
       0.0 0.0 0.0 0.0
0001d0 00 00 00 00 00 00 00 00 00 00 00 00 00 00 00 00
       0.0 0.0 0.0 0.0
0001e0 00 00 00 00 00 00 00 00 00 00 00 00 00 00 00 00
       0.0 0.0 0.0 0.0
0001f0 00 00 00 00 00 00 00 00 00 00 00 00 00 00 00 00
       0.0 0.0 0.0 0.0

action_model._continuous_distribution.log_sigma f4 [1, 2]
000000 00 00 00 00 00 00 00 00
       0.0 0.0

action_model._continuous_distribution.mu.weight f4 [2, 128]
000000 93 17 01 3d 6f 71 bd 3a 3a 7f 9a bc 0f 3d 3e 3c
       0.031516623 0.0014453362 -0.018859494 0.011611237
000010 5f 8d 7b 3a 37 24 c0 bc 07 94 7d bc 83 6a 6a bc
       0.0009595956 -0.023454769 -0.015477187 -0.014307621
000020 bd bb 88 bc 77 4a cc 3c 86 c3 40 bc a2 be a1 3c
       -0.016691083 0.024937851 -0.011765366 0.019744221
000030 a1 fc 9e bc 33 0d 7d bb 53 5c 27 bb ab d5 8e bc
       -0.019407572 -0.0038612604 -0.0025537207 -0.01743587
000040 63 71 b1 bb 30 57 5a 3c b6 f3 4a bc 12 eb 51 3c
       -0.005415128 0.013326451 -0.012387207 0.012812393
000050 6a f3 56 bc 0c e2 1d ba 00 e8 7b bc ab b5 d2 3b
       -0.013119558 -0.00060227583 -0.015375137 0.006430348
000060 ba cc ed bc dd e2 a0 ba f8 38 cf 39 5f 5b df ba
       -0.029028285 -0.0012274642 0.00039524562 -0.001704078
000070 7c e8 88 b9 30 b2 2e 3b 77 a6 3c 3c 43 3b 0e 3d
       -0.00026113156 0.00266565 0.011514298 0.034724485
000080 31 24 81 bc f7 f8 79 3c 45 39 8b bc 9c 09 22 bc
       -0.015764328 0.015257112 -0.016995082 -0.009889986
000090 8a e8 d3 ba f0 50 29 bd db f4 c2 bc 6e 4b b3 3c
       -0.0016167325 -0.041336954 -0.023798397 0.021886554
0000a0 7b 9c 73 3c 43 9c 22 bc 78 52 8a bc dd 8b 7c 3c
       0.014868851 -0.009924951 -0.016885027 0.015414205
0000b0 31 75 09 bc f7 f8 88 3c cb 2c cb bc 0f c2 c5 3b
       -0.008389757 0.016720278 -0.024801632 0.0060350965
0000c0 77 d0 27 bc 23 4d 67 bb 9b 53 1a 3b 73 74 fb bb
       -0.010242573 -0.003529378 0.0023548368 -0.007673794
0000d0 95 fc 95 3b 61 6b ac 39 62 3c b6 3c ee d8 85 bb
       0.0045772293 0.000328864 0.02224559 -0.004084698
0000e0 99 7e 80 bc 43 27 cd bc b3 d3 fe 3c ca cc da bc
       -0.015685366 -0.025043136 0.031106805 -0.02670898
0000f0 82 03 ea 3b 2d 3c 44 3c 1d c1 eb 3a 5b 22 98 bc
       0.0071415314 0.011977238 0.0017986629 -0.01857107
000100 e3 9f c5 bb 21 6f b2 3c 7c 5e 39 3d 0f 2c e7 3c
       -0.006031023 0.021781506 0.045256123 0.028219251
000110 02 41 e1 3c a2 2a 84 bc b3 3a 39 3d 1f 16 50 bc
       0.027496818 -0.01613361 0.045221996 -0.012700587
000120 7f 1c a3 bc 21 f9 c7 39 8b bc 12 bc eb 7b e1 bb
       -0.019911049 0.00038141853 -0.008956085 -0.0068812273
000130 b2 b1 e3 3c 23 63 8c bc 89 71 45 bd d7 b5 db 3b
       0.027794693 -0.017137116 -0.04820398 0.0067050266
000140 eb 21 d5 3c 44 df 23 bc bd 5a 58 bc 6b 41 1c 3c
       0.02601715 -0.010001961 -0.013205227 0.009537081
000150 1b cd 70 bc e3 dc 57 3c bc 3f 48 bc 90 69 ae 3c
       -0.014697338 0.013175222 -0.012222227 0.02129057
000160 12 36 79 3c 51 6c 3e ba c6 18 90 bc 33 9e b4 3b
       0.015210645 -0.0007264065 -0.017589938 0.005512023
000170 08 74 7f 3c 3f a9 c0 bc 1f 08 3c 3b d3 df c4 bc
       0.015591629 -0.023518203 0.0028691364 -0.024032509
000180 7d 6e f9 3c 36 84 1c bc 15 a7 7c ba 82 7a dc bc
       0.030448193 -0.009553006 -0.0009637934 -0.026913885
000190 bb c6 e0 bb d1 66 bd bc 87 1f 9a 3b 6b 77 f9 3c
       -0.006859628 -0.023120316 0.0047034654 0.03045245
0001a0 4c 82 11 3c b3 3e e5 ba e8 70 10 bc 6d 42 70 ba
       0.008881163 -0.0017489999 -0.008815981 -0.00091651717
0001b0 97 99 90 bc a5 02 3d 3c d3 f1 80 3c 83 a3 92 3c
       -0.017651362 0.011536275 0.01574031 0.017900234
0001c0 6a 70 fb ba b7 ba 8d 3c 32 79 cf 3c 28 06 d7 bc
       -0.0019183282 0.017300947 0.025326345 -0.026248053
0001d0 d7 2b a4 bc b3 63 b6 3b 64 82 09 3c 43 13 a1 3a
       -0.020040436 0.0055660843 0.008392904 0.0012289066
0001e0 13 7f 3a 3b 75 9d 5f 3c a6 91 9f 3c dd 6c d8 39
       0.002845709 0.0136483805 0.01947863 0.0004127984
0001f0 95 af f1 3a d3 48 7e bc a3 f9 87 bc 84 5b 13 3a
       0.0018439168 -0.015520292 -0.016598528 0.0005621242
000200 6f 0d 51 3b 86 f0 4a 3d 67 e3 a2 bc 57 9a b8 bb
       0.0031898876 0.049545787 -0.019883825 -0.005633633
000210 a7 52 a3 bc 5f d0 91 3b 5f af 70 3b 87 f1 3c ba
       -0.019936873 0.0044498886 0.0036725623 -0.0007207621
000220 ff ed ac 3c fd fd cd 3b 53 1a 63 bc 33 24 06 3c
       0.02110958 0.0062863813 -0.013861257 0.0081873415
000230 9a 83 74 bb 55 9e 3a 3c a5 42 cd 3c a7 6d 89 3c
       -0.0037309886 0.011390288 0.025056193 0.01677592
000240 36 b8 1b 3b 6f a6 dc 3c e2 12 f0 bc fc 34 b3 3c
       0.0023760921 0.02693483 -0.029305879 0.02187585
000250 c9 80 93 3c e7 40 1f bc 9e 40 35 3c 89 39 83 bb
       0.018005745 -0.009720064 0.011062769 -0.0040046615
000260 8b a5 a3 3c 2a eb 05 3d ed aa 16 bd bf 86 a6 3b
       0.019976398 0.032694973 -0.0367841 0.005081981
000270 9c 0e 27 bb 7c 15 8a bc 1f c6 c6 bc ff ec 9d bc
       -0.0025490886 -0.016855948 -0.024264393 -0.019278048
000280 cb 0b 98 3c 7b 8f 83 bc 3d 15 4d 3c 47 57 9e 3c
       0.01856031 -0.016059628 0.012517271 0.019328726
000290 ce 56 0a 3c 96 c3 ac 3c 45 af 6f bc 49 90 ac 3c
       0.008443547 0.021089356 -0.01462919 0.021064894
0002a0 3b d4 a3 ba 3a fb 68 3b 40 6d 4e bc e8 f3 cb bb
       -0.0012499163 0.0035550133 -0.012599289 -0.0062241443
0002b0 d1 11 c2 bb c0 2c d2 3c 48 c0 bd bc f0 8c 63 bc
       -0.005922534 0.025656104 -0.023162976 -0.013888583
0002c0 7a cf 9a bc 34 69 37 3c 73 02 0f bb d4 98 99 bc
       -0.01889776 0.011194516 -0.0021821528 -0.018749632
0002d0 a9 74 c3 bc e6 a2 8b 3c d5 7b 8f 3b 78 fe 05 bb
       -0.023859339 0.01704545 0.0043787756 -0.0020445865
0002e0 95 44 f4 bb 5f 38 0a bc 5f 8d 8e 3c 3b ef 41 3c
       -0.0074544647 -0.0084362915 0.017401395 0.011836822
0002f0 88 71 5c bb 33 58 84 bb db 61 7d bc d7 42 92 3c
       -0.0033637006 -0.0040388345 -0.015465225 0.017854137
000300 97 d0 0a bc 9f a4 ba bc 0f 28 34 bd c6 2e 1c bd
       -0.008472583 -0.022783576 -0.043983515 -0.038130544
000310 03 44 c6 bb e2 e2 ad bb 56 eb ca b9 d7 b4 76 3c
       -0.006050588 -0.0053065876 -0.0003870378 0.015057764
000320 3a 24 2c bb 0a e2 68 3a ec ba a3 bb f4 c4 00 bd
       -0.002626671 0.000888378 -0.004996648 -0.03143783
000330 58 09 ac bb aa 22 7d bc 31 79 27 3d 9b 96 2d 3c
       -0.0052501373 -0.015450159 0.04088706 0.010594989
000340 4f 55 a4 bb 6b 11 a2 3c fd d4 8d 3c 3e 14 06 3d
       -0.0050150524 0.019783696 0.017313475 0.03273415
000350 10 e3 ae 3b 36 f1 9c 3b bc e8 0a bc 91 e7 ac bc
       0.0053371266 0.004789497 -0.00847834 -0.021106513
000360 eb f6 29 3b b1 38 2a bc 9d 00 b6 3a 7e cd 0f bc
       0.0025934528 -0.010389493 0.0013885681 -0.0087770205
000370 1f 27 b2 bc 42 57 0e 3c 19 99 3a 3c 2f 33 91 bb
       -0.02174717 0.008687796 0.01138904 -0.0044311504
000380 51 9c b9 3a fd 5c a1 ba 18 fb 3b bb d2 96 a1 3b
       0.0014160966 -0.0012311038 -0.00286836 0.0049313093
000390 06 b8 c2 bb fd e9 ac bc 7b 0a 7b bc 22 a7 09 bc
       -0.0059423475 -0.021107668 -0.015322323 -0.008401664
0003a0 ff 9f 2e bc 17 5f ac 3c a3 30 4f bb 51 bb 12 bb
       -0.010658263 0.021041436 -0.0031614683 -0.0022389481
0003b0 9a 4f 3c 3c 5b 94 c2 3b 45 7c e6 3b 0a 08 0d 3c
       0.011493588 0.0059380955 0.007033857 0.008607874
0003c0 38 3e 69 3a 74 07 96 3b e5 48 fc bc d2 ad 63 bc
       0.0008897516 0.004578525 -0.030796478 -0.013896422
0003d0 17 3f 9d bc a5 30 11 bd b2 05 f1 bc 3b 19 ca 3c
       -0.019195123 -0.03544678 -0.029421661 0.024670234
0003e0 ce cc bf 3b 91 49 3f bc fe ad ac 3a 78 d7 09 3c
       0.005853272 -0.011675254 0.0013174412 0.008413188
0003f0 f3 f7 90 3c 52 01 28 3d 5a 15 53 bc a5 77 61 bc
       0.017696356 0.041016884 -0.012883509 -0.013761436

action_model._continuous_distribution.mu.bias f4 [2]
000000 00 00 00 00 00 00 00 00
       0.0 0.0

action_model._discrete_distribution.branches.0.weight f4 [1, 128]
000000 16 7c 18 3c 54 ea 9c 39 f0 59 b5 3b 7f 99 e4 bb
       0.009306928 0.00029929227 0.005534403 -0.006976306
000010 0e db bb 3b 51 34 a6 bb f0 3b ae bb 07 dc 9b bb
       0.0057329005 -0.0050721546 -0.0053172037 -0.004756454
000020 b3 f2 57 3b ca 69 13 bb 2e aa 2e bb db e9 b2 bb
       0.0032951056 -0.0022493475 -0.0026651728 -0.0054600067
000030 07 5a 18 bb 84 05 89 3c 9d 8b fc 3a fb bb 38 3c
       -0.002324702 0.016726263 0.0019267682 0.011275287
000040 53 50 c7 ba 8f b5 4e 3c 60 e3 4c bc 56 71 97 bc
       -0.0015206434 0.012616529 -0.012505382 -0.01848666
000050 16 16 8b bb 43 fa fa 3b 98 2a 8e bc 5a e7 4e 3c
       -0.004244576 0.007659228 -0.017354295 0.012628401
000060 d5 c7 d4 bb d1 48 b2 3b b5 8f 75 3b 8e 5b 4a 3b
       -0.0064935484 0.0054408093 0.003746969 0.0030877325
000070 c6 c8 33 bb 4d 2f 62 bc 6d 1b 23 3c f3 3a b9 3a
       -0.0027432903 -0.013805223 0.009955269 0.0014131948
000080 db ab 20 3c 8c 9b 0d 3c 43 87 11 3c df 18 2e 3b
       0.009806599 0.008643042 0.008882347 0.0026565117
000090 e1 5b 2b bb c7 20 59 3c 93 00 32 3c a4 6f 9d bc
       -0.0026147293 0.013252444 0.010864395 -0.019218273
0000a0 2a 5a ea bb 82 e2 55 bc 7e 68 ab bb b8 e7 1b 3c
       -0.0071518617 -0.013054492 -0.0052309623 0.009515695
0000b0 1c 04 45 bc 40 64 20 bb 72 38 7a 3c dd 14 f2 3b
       -0.0120249055 -0.0024473816 0.015272247 0.007387741
0000c0 f0 66 b2 3b 01 4e 1f 3b 2f bb af bc ab ed 47 3c
       0.0054444 0.0024307969 -0.02145156 0.012202661
0000d0 6d 1b 8b 38 df b1 7a bc c8 d1 e7 3b d7 2c 90 3b
       6.633145e-05 -0.015301197 0.0070745684 0.0043998766
0000e0 2f 7d f5 bb cf 47 38 3b cc fb 2d bc f9 8f 81 bc
       -0.0074917297 0.0028118973 -0.010619115 -0.015815722
0000f0 5a 5a 5e bb fa a4 c7 ba 79 e1 c9 39 9c c1 cb 3a
       -0.0033928365 -0.0015231662 0.00038505698 0.0015545371
000100 bf 8a 10 3b 7b 15 d3 3b 94 9c 08 3c d3 9a c8 bb
       0.0022055355 0.0064417697 0.008338112 -0.006121972
000110 03 98 d3 bb fb 5d 9b bb 28 e5 4d 3c 35 25 27 3c
       -0.00645733 -0.004741428 0.012566842 0.010201742
000120 8f 03 f4 3a 90 f9 e3 3b 77 52 29 bb 26 01 08 3c
       0.0018616783 0.0069572404 -0.0025836506 0.008301055
000130 ba 5b ff 3b 30 7a 09 3b b8 86 4c bc 4b 62 6f bb
       0.007792917 0.002097737 -0.012483291 -0.0036527093
000140 27 cf 9f 3a 52 2e 11 3c d3 cd 16 bc 8d fd d0 bb
       0.0012192474 0.008861141 -0.009204346 -0.006377882
000150 4a 64 1b 3c 4f 15 e9 3b 1f b4 00 3a a8 f6 03 bc
       0.00948436 0.007113136 0.00049096526 -0.008054413
000160 2b 68 1a 3b 47 e8 cb bc 2b df 0a 3b df cc aa bc
       0.0023560624 -0.024891032 0.0021190147 -0.020849643
000170 07 d6 ac 38 eb 01 3b bb d1 ed 30 3b 8c db 04 3a
       8.241465e-05 -0.0028535079 0.0026997218 0.00050681154
000180 bf 23 15 3b 23 9a 5b 3c 8b 48 cd bb 32 cb b1 3b
       0.0022756902 0.013403448 -0.0062647513 0.005425834
000190 6f 6b 02 3a 1d b1 33 bc d0 90 f6 bb 98 b3 79 3c
       0.00049751153 -0.01096752 -0.007524587 0.015240572
0001a0 fd ef 8e 3c 9d 92 b6 ba c1 d8 9d bb 58 89 8d ba
       0.01744842 -0.0013929192 -0.004817099 -0.0010798378
0001b0 e0 39 ac bb 60 67 25 bc 4a f3 05 3b 84 33 11 3c
       -0.0052559227 -0.010095447 0.00204392 0.00886238
0001c0 b7 9d 03 bc e1 50 9c 3c bd 5d e4 ba 7e 58 28 bc
       -0.008033208 0.019081535 -0.0017422956 -0.010275004
0001d0 fb 81 2d 3b 15 04 05 bb 1b 0d 07 3c 21 75 ba 3b
       0.002647518 -0.0020296623 0.008242871 0.0056902324
0001e0 ba 53 5f bc 7f aa 99 3b 1f d1 85 3b 57 24 e0 3b
       -0.013630802 0.004689514 0.004083767 0.0068402695
0001f0 af 34 06 3a df 2b bb 3a 6c bc 2e bb a7 a5 23 bc
       0.0005119545 0.0014280042 -0.00266626 -0.009988225

network_body._body_endoder.seq_layers.0.weight f4 [128, 47]
000000 db 7e 8e be a2 9e 26 bd c3 35 21 be a2 00 e9 bc
       -0.27831158 -0.040678628 -0.15743165 -0.028442685
000010 b6 27 99 3d c2 44 04 bd 97 c8 d1 bc 26 c1 75 3d
       0.074782774 -0.032292135 -0.025608344 0.059998654
000020 14 b9 51 bb ea 97 2c be b5 73 80 bd b0 78 4a 3e
       -0.0032001184 -0.16854826 -0.06272069 0.19772601
000030 15 94 92 3d 81 b9 2a 3e 19 2b 23 bd ca 05 10 3e
       0.07157151 0.16672327 -0.039836023 0.14064708
000040 87 7e 53 3d 68 3c 1d 3e 8f 06 ec 3d 55 5e b3 bc
       0.051634338 0.15355074 0.115246885 -0.021895567
000050 cf a0 6b bd 9f 4a 11 3e df 5c 0b bd 51 3f 8b be
       -0.057526406 0.14188622 -0.034024116 -0.27196744
000060 51 61 78 bd c1 0b 58 3d df 60 1f be 46 12 0b 3d
       -0.060639683 0.052745584 -0.15564297 0.033952974
000070 75 18 62 be 61 8d 86 bd df 2e 63 3e f3 0c 81 3d
       -0.22079642 -0.06569935 0.22185849 0.06301298
000080 e2 da 16 bd 18 8a 97 3d 80 60 bd 3d cf 3b c6 bd
       -0.036829837 0.07399386 0.092469215 -0.09679376
000090 3c e1 60 3e 80 a4 a9 be b3 55 03 be 58 13 3c bb
       0.2196092 -0.33133316 -0.1282566 -0.0028698053
0000a0 a8 da 11 3e 45 df 24 3e 44 00 d1 3c 07 a6 d2 3d
       0.14243567 0.16100796 0.025512822 0.102855735
0000b0 12 50 16 ba c1 03 cc bd 3f 7e 47 bd 4a 36 0a 3d
       -0.00057339773 -0.099616535 -0.048704382 0.03374318
0000c0 ba 86 bf bd f7 3c 11 be 92 b2 13 3e 87 23 80 3c
       -0.09351869 -0.14183412 0.14423588 0.01564194
0000d0 ae ab e4 bd 0c 57 08 3e dc 7a 34 3d 7a 9e 6a 3d
       -0.11165558 0.13314456 0.04406248 0.05728004
0000e0 87 e7 4d 3d 70 b8 49 bd 67 cf fb 3c 68 e6 85 bd
       0.05026963 -0.04924816 0.030738546 -0.06538087
0000f0 fe ca 4c be 99 07 e1 bd 59 27 cb bd b7 f6 0e 3e
       -0.1999931 -0.10987777 -0.09919614 0.13961302
000100 19 1f 83 3d cc 79 ed bd 65 e4 b4 3d 56 4b 6d bd
       0.06402416 -0.115954965 0.08832625 -0.057933174
000110 29 8c f9 bd ba 1b 18 be b5 be bb bc fb cf 5a 3d
       -0.121849366 -0.14854327 -0.022918085 0.053421002
000120 22 32 9c 3e 77 11 aa 3a 8e 94 b0 bd 49 dd 4c bd
       0.30506998 0.0012975176 -0.086220846 -0.05001572
000130 c3 a7 39 3d bf 71 1c bb 84 ea b8 bc af 69 2d 3e
       0.045326006 -0.002387151 -0.022572763 0.16934846
000140 66 3e 36 3e 36 a8 0f 3c a1 bf ed 3b 99 7a be 3c
       0.1779724 0.008768132 0.00725551 0.023251818
000150 4c 5c 85 bd 2e dc 87 be 40 87 a5 bd ca 77 63 3c
       -0.06511745 -0.2653517 -0.080824375 0.01388354
000160 1d 62 7c bd 6b d1 32 3c 34 8c 58 be 36 4b 4f bc
       -0.061617006 0.010914187 -0.21147233 -0.012652209
000170 99 c4 fa 3d 43 2d 0c 3d 4f 30 13 3e 79 9d 1b be
       0.12244529 0.034222852 0.14373897 -0.1519679
000180 82 9b 2a 3d a4 b6 f8 bd 33 ac 89 3d 02 c7 65 3d
       0.04165221 -0.12144211 0.067222975 0.05609799
000190 7c 95 12 be 1c ee 06 3e 33 dd 80 3e 19 72 a2 3e
       -0.14314836 0.13176769 0.25168762 0.31727675
0001a0 b0 d5 11 3e fd a2 19 be 2b 49 6d bd bc e3 3e 3e
       0.14241672 -0.15003581 -0.057931107 0.18641561
0001b0 dd 60 0f 3c cb 2f 9f 3d a4 67 82 3e e9 77 76 be
       0.008751121 0.07772788 0.25469697 -0.2406918
0001c0 65 0d 94 be fc 21 80 be c7 17 41 3d 61 4a 17 be
       -0.2891647 -0.25025928 0.047141816 -0.14774467
0001d0 96 0d 10 be 9e d5 f6 3d 60 d9 76 bd f8 27 1a be
       -0.14067683 0.12052463 -0.0602659 -0.1505431
0001e0 27 78 6f bd 65 ef 55 bc b6 7e 1e 3d c4 5c 33 be
       -0.058464196 -0.013057564 0.03869506 -0.17515856
0001f0 cb fb 76 3e d2 87 71 ba c4 98 96 3c 4b 93 8e 3d
       0.24119489 -0.0009213659 0.018383391 0.06961688
000200 fe f2 1e bc 63 64 6e 3d c1 28 8b 3e 84 e8 ab 3d
       -0.009701489 0.058201205 0.2717953 0.08393958
000210 36 0f 9b bc d8 fd 11 bc 1f 38 20 bd a7 4e 92 bd
       -0.018928152 -0.008910619 -0.03911602 -0.07143908
000220 02 d3 c7 bd d9 4b 4c 3d e1 85 c4 bc 2e 42 01 3d
       -0.097570434 0.04987702 -0.02398962 0.031557254
000230 66 77 53 3e aa ca c0 bd ba 8e 95 be 80 de 9d 3d
       0.20651016 -0.09413655 -0.29210454 0.07708454
000240 24 8b 12 bd 83 ca e8 bd 8c 4f d0 be a1 f0 12 bd
       -0.035777226 -0.11366751 -0.4068569 -0.035874013
000250 36 3d f2 bd f6 f8 2a 3d 8f 26 92 bb 6e 69 61 be
       -0.11828081 0.041741334 -0.004460163 -0.22012874
000260 3a 67 c2 bd 5e cd ea 3d 44 e0 21 3c ff 85 11 be
       -0.09492345 0.11464952 0.009880129 -0.14211272
000270 8a 11 38 3d 9d f9 ae bd 71 20 c0 3c 73 35 52 3d
       0.0449386 -0.08543704 0.02345297 0.051320504
000280 fb c6 9e bc 9d e2 e6 bd d3 41 c7 3c b6 99 eb bd
       -0.01938199 -0.11273692 0.02432338 -0.115039274
000290 37 f7 c5 3d 04 27 b9 3d 61 15 20 3d ad 0f 45 3d
       0.09666293 0.09040645 0.03908289 0.048110653
0002a0 21 69 1f 3d 84 4c ff bd 59 ae 50 bd 24 75 cb bb
       0.038918618 -0.12465766 -0.05094752 -0.0062090326
0002b0 cb 93 34 3e bd 7c 43 3d 3e 79 29 be 20 92 16 3e
       0.17634504 0.04772638 -0.16550156 0.1470418
0002c0 a9 49 a6 be 0a 92 d9 bd 76 fb 4a be f3 da 2f 3e
       -0.32478073 -0.10623558 -0.19822487 0.17173366
0002d0 60 eb de bd ed 76 c7 bd 1a 68 b2 bc 5e 8c 93 3d
       -0.10884738 -0.0973948 -0.021778155 0.07204507
0002e0 b7 75 61 bd f7 52 ca bd 8f 3d 4c 3e 7c 3a 47 bd
       -0.055043902 -0.098791055 0.19945358 -0.04863976
0002f0 1e f9 7e 3d 46 99 b9 bd f9 9f 13 3e 0c bb 2e 3e
       0.062249295 -0.09062438 0.14416493 0.1706354
000300 b4 0d 57 3e f9 7a 60 be f1 56 3e 3d 39 6f a6 3c
       0.21001321 -0.2192191 0.046469633 0.020316707
000310 3a 97 76 be 54 73 af 3c 27 b3 33 3d 1b 63 45 be
       -0.24081126 0.021417297 0.043872025 -0.19276087
000320 46 b9 e7 3d ed f3 34 be 73 c6 4c 3e 9b 23 17 3e
       0.11314635 -0.17671175 0.19997577 0.14759676
000330 ba f3 6c 3d 70 30 26 3e 2f 95 be 3c 3c a3 56 3e
       0.057849623 0.16229415 0.023264496 0.20960706
000340 3b 66 9d be 4b 72 13 be 96 ed 17 be 70 9e 97 bd
       -0.30742058 -0.14399068 -0.14836726 -0.074032664
000350 51 1b b1 3d 40 5d 63 3d 9a 2b f9 3d 1a 16 00 3d
       0.08647788 0.055508852 0.121665195 0.031271078
000360 55 90 ca bc 4b d3 9a 3c e6 08 41 be 62 da 11 3e
       -0.024727026 0.01889958 -0.1885105 0.14243463
000370 c1 f3 82 3c eb 9c b4 bd 8f fe 9a bc 54 2c 0e be
       0.015985372 -0.08818992 -0.018920211 -0.13884097
000380 eb 7c db bd 92 dd 03 be 86 8d d9 bd f0 0a f0 3d
       -0.107171856 -0.12877491 -0.106226966 0.11720836
000390 32 08 02 be e4 c9 f4 bc 90 1e 8f 3d f1 90 c2 bd
       -0.12698439 -0.029881425 0.06988251 -0.09500302
0003a0 76 1c 6b 3d e1 44 ff 3c 68 98 0d 3d 6e 06 46 3d
       0.05740019 0.031160774 0.034569174 0.048345976
0003b0 f1 e8 b8 be b9 07 9c 3d 92 3d c4 3d 1c 7c 10 3e
       -0.3611522 0.076186605 0.09582056 0.14109844
0003c0 15 d8 ff 3d 42 56 e0 bd 52 cd 34 3e b7 d3 b7 3e
       0.12492386 -0.10953952 0.17656448 0.35903713
0003d0 4f e7 c9 3d 04 e6 8f bd 85 ab ae bd db bc a4 bd
       0.09858572 -0.07026294 -0.085288085 -0.08043834
0003e0 b1 ca e8 bd 19 50 25 3d e6 d6 d3 3d 9c a3 b9 3d
       -0.11366785 0.04035959 0.10343723 0.09064409
0003f0 ac 19 f6 3d 35 d4 37 3e 76 14 eb bd 52 b4 1c 3b
       0.12016615 0.17952044 -0.11478512 0.002391119

network_body._body_endoder.seq_layers.0.bias f4 [128]
000000 00 00 00 00 00 00 00 00 00 00 00 00 00 00 00 00
       0.0 0.0 0.0 0.0
000010 00 00 00 00 00 00 00 00 00 00 00 00 00 00 00 00
       0.0 0.0 0.0 0.0
000020 00 00 00 00 00 00 00 00 00 00 00 00 00 00 00 00
       0.0 0.0 0.0 0.0
000030 00 00 00 00 00 00 00 00 00 00 00 00 00 00 00 00
       0.0 0.0 0.0 0.0
000040 00 00 00 00 00 00 00 00 00 00 00 00 00 00 00 00
       0.0 0.0 0.0 0.0
000050 00 00 00 00 00 00 00 00 00 00 00 00 00 00 00 00
       0.0 0.0 0.0 0.0
000060 00 00 00 00 00 00 00 00 00 00 00 00 00 00 00 00
       0.0 0.0 0.0 0.0
000070 00 00 00 00 00 00 00 00 00 00 00 00 00 00 00 00
       0.0 0.0 0.0 0.0
000080 00 00 00 00 00 00 00 00 00 00 00 00 00 00 00 00
       0.0 0.0 0.0 0.0
000090 00 00 00 00 00 00 00 00 00 00 00 00 00 00 00 00
       0.0 0.0 0.0 0.0
0000a0 00 00 00 00 00 00 00 00 00 00 00 00 00 00 00 00
       0.0 0.0 0.0 0.0
0000b0 00 00 00 00 00 00 00 00 00 00 00 00 00 00 00 00
       0.0 0.0 0.0 0.0
0000c0 00 00 00 00 00 00 00 00 00 00 00 00 00 00 00 00
       0.0 0.0 0.0 0.0
0000d0 00 00 00 00 00 00 00 00 00 00 00 00 00 00 00 00
       0.0 0.0 0.0 0.0
0000e0 00 00 00 00 00 00 00 00 00 00 00 00 00 00 00 00
       0.0 0.0 0.0 0.0
0000f0 00 00 00 00 00 00 00 00 00 00 00 00 00 00 00 00
       0.0 0.0 0.0 0.0
000100 00 00 00 00 00 00 00 00 00 00 00 00 00 00 00 00
       0.0 0.0 0.0 0.0
000110 00 00 00 00 00 00 00 00 00 00 00 00 00 00 00 00
       0.0 0.0 0.0 0.0
000120 00 00 00 00 00 00 00 00 00 00 00 00 00 00 00 00
       0.0 0.0 0.0 0.0
000130 00 00 00 00 00 00 00 00 00 00 00 00 00 00 00 00
       0.0 0.0 0.0 0.0
000140 00 00 00 00 00 00 00 00 00 00 00 00 00 00 00 00
       0.0 0.0 0.0 0.0
000150 00 00 00 00 00 00 00 00 00 00 00 00 00 00 00 00
       0.0 0.0 0.0 0.0
000160 00 00 00 00 00 00 00 00 00 00 00 00 00 00 00 00
       0.0 0.0 0.0 0.0
000170 00 00 00 00 00 00 00 00 00 00 00 00 00 00 00 00
       0.0 0.0 0.0 0.0
000180 00 00 00 00 00 00 00 00 00 00 00 00 00 00 00 00
       0.0 0.0 0.0 0.0
000190 00 00 00 00 00 00 00 00 00 00 00 00 00 00 00 00
       0.0 0.0 0.0 0.0
0001a0 00 00 00 00 00 00 00 00 00 00 00 00 00 00 00 00
       0.0 0.0 0.0 0.0
0001b0 00 00 00 00 00 00 00 00 00 00 00 00 00 00 00 00
       0.0 0.0 0.0 0.0
0001c0 00 00 00 00 00 00 00 00 00 00 00 00 00 00 00 00
       0.0 0.0 0.0 0.0
0001d0 00 00 00 00 00 00 00 00 00 00 00 00 00 00 00 00
       0.0 0.0 0.0 0.0
0001e0 00 00 00 00 00 00 00 00 00 00 00 00 00 00 00 00
       0.0 0.0 0.0 0.0
0001f0 00 00 00 00 00 00 00 00 00 00 00 00 00 00 00 00
       0.0 0.0 0.0 0.0

network_body._body_endoder.seq_layers.2.weight f4 [128, 128]
000000 8a 49 de bc 25 f0 30 3b a5 bc 07 3e d9 e0 91 bd
       -0.027134676 0.0026998606 0.13255556 -0.071229644
000010 7b 22 83 3d 6c 53 16 3e 42 12 75 bd 7b 58 57 3a
       0.06403061 0.1468026 -0.059831865 0.0008214784
000020 be 6f 58 bd 06 be 05 3e 3d 98 a6 3c 59 de 57 b9
       -0.05284094 0.1306077 0.020336265 -0.00020586829
000030 0d 00 91 3c 63 c3 27 3d fb 3f b4 3d ef aa 03 be
       0.01770022 0.04095782 0.08801266 -0.12858175
000040 c1 fb 2f 3d d5 e7 51 3d 0d a1 df bc c0 02 39 3b
       0.0429647 0.051246483 -0.027298475 0.00282304
000050 b3 38 b7 bd f6 63 eb 3d da 41 7b bd 1a 76 de b9
       -0.089463614 0.114936754 -0.061342098 -0.00042431132
000060 9d 4f 26 bd eb 15 be bd 51 eb df 3d 1b 86 ed 3c
       -0.04060327 -0.09281524 0.10933555 0.02899461
000070 2a b1 8c bd 3e 0a 0b 3e de 70 a5 bc 57 f7 e7 bc
       -0.06869729 0.13578126 -0.02019542 -0.028316183
000080 00 ee a7 bd 34 39 30 bd 14 8a 22 3c 97 e2 27 3e
       -0.08199692 -0.043023303 0.009920616 0.16395031
000090 1c fe c7 bd ed 16 92 3b e7 a1 1a be 7d 84 0a be
       -0.097652644 0.0044582994 -0.15100823 -0.13527103
0000a0 37 83 bc bd eb 2c 28 be f5 75 5a 3d d6 4c dd bc
       -0.09204715 -0.16423385 0.05333515 -0.027014177
0000b0 f0 6a 94 3c da ea 26 3e 88 d8 fe bc 52 a1 85 bd
       0.018117398 0.16300526 -0.03110911 -0.0652491
0000c0 1a 17 08 bd 67 92 16 bd e3 fc 77 bd e7 a8 a7 3d
       -0.033225156 -0.036760714 -0.060543906 0.081865124
0000d0 25 ee 19 3c cc 4d a6 3d dc 19 02 3d a2 6e f1 bc
       0.009395157 0.08120307 0.031762943 -0.0294717
0000e0 10 fd 0b bd 87 dd 68 3d 5d 72 b5 3d 66 fe 3b 3e
       -0.034176886 0.05685189 0.08859704 0.18358764
0000f0 a9 4f 7b 3d a2 02 c7 3d 2f f8 a8 3c 62 8e ab 3d
       0.061355267 0.09717299 0.020626156 0.08376767
000100 6d f2 24 3e 70 1b d5 3d 6f 4c 11 be 0c 1d 0f 3e
       0.16108103 0.10405624 -0.14189313 0.13975924
000110 e8 11 1b 3d 75 9f 18 3c a5 8f d3 bd bd 93 2c bd
       0.037858874 0.009315361 -0.103301324 -0.04213308
000120 82 54 85 bd 4a 67 7a bc 59 cf 18 3d b0 34 f8 bd
       -0.06510259 -0.015283415 0.037307117 -0.12119424
000130 be b7 af 3b 27 81 48 3d 1d d4 14 3d fd d9 0b bd
       0.00536248 0.048951294 0.0363351 -0.034143437
000140 51 87 35 be 00 2b ee bd a6 1c 2f be 40 ec 9b bc
       -0.177274 -0.11629295 -0.17100772 -0.019033551
000150 40 a8 93 3b 86 59 fc bc af 0f c5 bd 8a 19 f0 3d
       0.004506141 -0.030804407 -0.09622132 0.11723621
000160 f2 0a 85 bc d2 4a b5 bb 28 e5 83 3c 47 29 4e bd
       -0.01624057 -0.005532601 0.016100481 -0.050332334
000170 89 e2 f8 3d 7f 8f 2e be 6c f1 48 be de 78 ae 3c
       0.12152583 -0.17046927 -0.19623345 0.021297868
000180 af 62 d3 3d ef 37 83 bd 85 0f 26 be af fd 40 3d
       0.10321557 -0.06407153 -0.16216858 0.04711693
000190 ce 5b d7 bd d6 38 17 3d c7 17 b3 3d 13 68 84 3c
       -0.10515557 0.036919437 0.087447695 0.016162908
0001a0 53 f2 ad 3d 06 68 d6 bc 0b 5c c5 3d 05 04 fc bd
       0.08493485 -0.02617265 0.096366964 -0.12305454
0001b0 33 cc d0 bd 68 aa 45 bd 3c bd e5 3d 20 c2 4c 3d
       -0.10195198 -0.048258215 0.11217734 0.04998982
0001c0 b7 9b 40 be c2 bd f3 3c d2 d5 21 3d 50 b7 ab bd
       -0.188094 0.02975357 0.039510556 -0.083845735
0001d0 bb f7 06 3e 46 27 03 3e 8d 13 bd bc 67 9e c7 bd
       0.13180439 0.1280795 -0.023080612 -0.0974701
0001e0 14 df f0 3c f6 9f be 3c c9 7e ed 3b 04 13 73 3d
       0.029403247 0.023269635 0.00724778 0.059344307
0001f0 7e c6 e1 3c 4f c6 16 3d d1 2c 29 bc da 5e 07 3e
       0.027560469 0.036810216 -0.0103256265 0.13219777
000200 64 6d 5f 3d 8e fe b0 3d 2b 95 18 3e 74 bf 42 bd
       0.054547682 0.086423025 0.14900653 -0.047545865
000210 2d 22 b3 3d e5 fc f5 3c e2 af 02 3e ca db dc bc
       0.08746753 0.030027816 0.12762406 -0.026960272
000220 34 3d 20 3d 25 4b 01 bd 36 29 aa 3c 1c 6b 23 be
       0.039120868 -0.031565804 0.020771604 -0.15958828
000230 53 5b 40 3b 47 4d 69 3d 60 b6 33 be d5 25 9a 3d
       0.0029351308 0.056958463 -0.1755004 0.07526747
000240 82 1f 67 3d 0a 93 64 3e a7 f8 df 3d f9 19 9c 3d
       0.056426533 0.22321716 0.109360985 0.076221414
000250 07 82 14 3e 05 8b d3 bc 5c de 88 3d 4b b7 5d 3c
       0.14502726 -0.025823126 0.06683037 0.01353247
000260 91 48 46 bd 60 68 b5 bc 90 20 3c be c5 ad 0e 3c
       -0.04840905 -0.022144496 -0.18371797 0.008708422
000270 14 2b b9 bc ea 56 3b bd e6 83 81 3d fb c8 b0 bd
       -0.022603549 -0.045737185 0.06323986 -0.08632084
000280 93 2b 1a 3d ea 67 83 3d bc 06 3b 3e 0c 02 c6 3d
       0.037639212 0.064163044 0.18264288 0.09668359
000290 10 09 ef bc ec 00 8d 3c 15 c5 fb 3d 29 55 3f bd
       -0.029179126 0.017212354 0.1229345 -0.046712074
0002a0 a3 00 31 3d 6a 92 4a 3d d2 6f 2d 3c 75 34 7d 3d
       0.043213498 0.049456038 0.010585742 0.061817605
0002b0 06 5f 09 3e 88 e2 27 3d 69 a7 9c 3d 6d 03 07 bc
       0.13415155 0.04098752 0.076491185 -0.008240563
0002c0 7b d4 cf 3c 31 52 f6 bd 12 98 58 3d b8 58 22 3c
       0.025369873 -0.120273955 0.0528794 0.0099088475
0002d0 dc 71 c9 b8 f6 7f 41 3d 88 ef 96 3c 3e 26 f9 bd
       -9.605635e-05 0.047241174 0.018424764 -0.12165497
0002e0 4e 2c 23 bd 0a ac 69 bd 9f 38 7c 3d c2 85 10 3d
       -0.039837174 -0.057048835 0.061577436 0.03528381
0002f0 d0 0c a8 bd a5 e9 fe bd 08 36 0e 3d 5a 9b 1f be
       -0.08205569 -0.12446908 0.034719497 -0.15586606
000300 61 7d 86 3d cb 5b 96 3d 19 44 3a bc 36 7c 19 bd
       0.06566883 0.07341727 -0.011368775 -0.037471972
000310 24 80 6d 3d ca b9 3e 3d 47 c0 5a bd 1e 43 1a 3d
       0.057983533 0.0465639 -0.053406026 0.037661664
000320 03 ca 97 bd a4 eb bc 3d 58 dd 98 bd c2 ab 66 3d
       -0.074115776 0.092246324 -0.07464093 0.056316145
000330 7b 56 21 3e 98 06 57 bd 08 b6 51 be 1a 47 ee bd
       0.15755646 -0.052496523 -0.20479596 -0.11634655
000340 f1 75 fb bd 9d 11 a6 bc 4d d3 56 3e e7 fe 4b 3d
       -0.12278355 -0.02027207 0.20979042 0.04980364
000350 6f 6a b2 bc fd b4 97 bd dc 5a 0f 3e 5f 5d d0 3c
       -0.021779267 -0.07407568 0.13999504 0.025435148
000360 83 49 0f 3d 7b 48 54 bd c0 f7 1f 3d f3 23 13 be
       0.034982216 -0.051826935 0.039054632 -0.14369182
000370 03 d2 e4 3d e2 fa de bc 07 a9 35 be 7c 4f 67 3d
       0.11172869 -0.02721924 -0.1774026 0.056472287
000380 48 b0 2c 3e 45 02 0f 3e 4e 36 b5 3d a7 b9 08 3d
       0.16864121 0.1396571 0.088482484 0.033380177
000390 69 f7 11 3d ff ce 00 bd 4d cf 56 3b 0d 68 37 3d
       0.03563634 -0.031447407 0.003277737 0.044776965
0003a0 de 19 46 bd fb 5c 03 3e a3 4c a9 3a e9 5a 44 bd
       -0.048364513 0.12828438 0.0012916516 -0.04793826
0003b0 16 a3 dd bc 63 f2 5a 3d b5 ea 17 bd 77 24 4a bd
       -0.027055304 0.053453814 -0.03708907 -0.04935118
0003c0 79 bb f3 bb e8 c4 b0 3d 27 7c 89 3d 0b 9d f4 3c
       -0.00743812 0.08631307 0.06713133 0.02986004
0003d0 9f f4 ba bd 85 9a ba 3c f9 59 cc 3c 1a 11 9d bb
       -0.09128689 0.022778759 0.024945246 -0.0047932984
0003e0 3e 13 f9 3d fa e8 61 bc 1f 6d a8 3b 91 72 19 3e
       0.12161873 -0.013788456 0.0051399614 0.1498511
0003f0 ca 02 1b 3e 2a f9 a0 3c 49 b3 63 3d 59 5c a2 3d
       0.15137783 0.01965006 0.0555909 0.0792777

network_body._body_endoder.seq_layers.2.bias f4 [128]
000000 00 00 00 00 00 00 00 00 00 00 00 00 00 00 00 00
       0.0 0.0 0.0 0.0
000010 00 00 00 00 00 00 00 00 00 00 00 00 00 00 00 00
       0.0 0.0 0.0 0.0
000020 00 00 00 00 00 00 00 00 00 00 00 00 00 00 00 00
       0.0 0.0 0.0 0.0
000030 00 00 00 00 00 00 00 00 00 00 00 00 00 00 00 00
       0.0 0.0 0.0 0.0
000040 00 00 00 00 00 00 00 00 00 00 00 00 00 00 00 00
       0.0 0.0 0.0 0.0
000050 00 00 00 00 00 00 00 00 00 00 00 00 00 00 00 00
       0.0 0.0 0.0 0.0
000060 00 00 00 00 00 00 00 00 00 00 00 00 00 00 00 00
       0.0 0.0 0.0 0.0
000070 00 00 00 00 00 00 00 00 00 00 00 00 00 00 00 00
       0.0 0.0 0.0 0.0
000080 00 00 00 00 00 00 00 00 00 00 00 00 00 00 00 00
       0.0 0.0 0.0 0.0
000090 00 00 00 00 00 00 00 00 00 00 00 00 00 00 00 00
       0.0 0.0 0.0 0.0
0000a0 00 00 00 00 00 00 00 00 00 00 00 00 00 00 00 00
       0.0 0.0 0.0 0.0
0000b0 00 00 00 00 00 00 00 00 00 00 00 00 00 00 00 00
       0.0 0.0 0.0 0.0
0000c0 00 00 00 00 00 00 00 00 00 00 00 00 00 00 00 00
       0.0 0.0 0.0 0.0
0000d0 00 00 00 00 00 00 00 00 00 00 00 00 00 00 00 00
       0.0 0.0 0.0 0.0
0000e0 00 00 00 00 00 00 00 00 00 00 00 00 00 00 00 00
       0.0 0.0 0.0 0.0
0000f0 00 00 00 00 00 00 00 00 00 00 00 00 00 00 00 00
       0.0 0.0 0.0 0.0
000100 00 00 00 00 00 00 00 00 00 00 00 00 00 00 00 00
       0.0 0.0 0.0 0.0
000110 00 00 00 00 00 00 00 00 00 00 00 00 00 00 00 00
       0.0 0.0 0.0 0.0
000120 00 00 00 00 00 00 00 00 00 00 00 00 00 00 00 00
       0.0 0.0 0.0 0.0
000130 00 00 00 00 00 00 00 00 00 00 00 00 00 00 00 00
       0.0 0.0 0.0 0.0
000140 00 00 00 00 00 00 00 00 00 00 00 00 00 00 00 00
       0.0 0.0 0.0 0.0
000150 00 00 00 00 00 00 00 00 00 00 00 00 00 00 00 00
       0.0 0.0 0.0 0.0
000160 00 00 00 00 00 00 00 00 00 00 00 00 00 00 00 00
       0.0 0.0 0.0 0.0
000170 00 00 00 00 00 00 00 00 00 00 00 00 00 00 00 00
       0.0 0.0 0.0 0.0
000180 00 00 00 00 00 00 00 00 00 00 00 00 00 00 00 00
       0.0 0.0 0.0 0.0
000190 00 00 00 00 00 00 00 00 00 00 00 00 00 00 00 00
       0.0 0.0 0.0 0.0
0001a0 00 00 00 00 00 00 00 00 00 00 00 00 00 00 00 00
       0.0 0.0 0.0 0.0
0001b0 00 00 00 00 00 00 00 00 00 00 00 00 00 00 00 00
       0.0 0.0 0.0 0.0
0001c0 00 00 00 00 00 00 00 00 00 00 00 00 00 00 00 00
       0.0 0.0 0.0 0.0
0001d0 00 00 00 00 00 00 00 00 00 00 00 00 00 00 00 00
       0.0 0.0 0.0 0.0
0001e0 00 00 00 00 00 00 00 00 00 00 00 00 00 00 00 00
       0.0 0.0 0.0 0.0
0001f0 00 00 00 00 00 00 00 00 00 00 00 00 00 00 00 00
       0.0 0.0 0.0 0.0
