Assets/Learning/AIRollABall/results/TestParameters/AIRollABall/AIRollABall-26064.pt (torch, 574734 bytes, 42 tensors)

network_body._body_endoder.seq_layers.0.weight f4 [128, 47]
000000 34 77 0c 3e b9 c9 9a 3d 0b 69 0e 3e 82 74 00 3c
       0.13717347 0.07558007 0.13907258 0.007840278
000010 27 89 25 3d 05 c7 01 bd f1 3a c1 bd 55 07 47 bd
       0.040414 -0.03168394 -0.0943507 -0.048590977
000020 30 9f cb bc d9 75 2f 3e fb 65 d0 3d 79 6b 12 bd
       -0.02485618 0.17134799 0.10175701 -0.035747025
000030 07 09 23 3e 5a 52 af 3e f7 44 97 bd d4 22 31 3e
       0.15921412 0.34242517 -0.07386201 0.17298442
000040 e7 15 3c 3e f2 69 95 3e e2 4e 06 bb 33 cf 7a 3e
       0.1836773 0.29182392 -0.0020493795 0.24493103
000050 9b 89 9d bd 91 f1 bf 3d 63 0f 3e be fa 41 00 3e
       -0.07692262 0.09372247 -0.18560557 0.12525168
000060 ce ed d5 bd 6d 06 31 3e 48 f3 81 3e 89 36 79 bd
       -0.10445748 0.17287607 0.2538092 -0.060843024
000070 4c 29 17 3e 23 7b c6 bc 8e e2 ce 3c 92 a4 5a 3e
       0.14761847 -0.024228638 0.025254514 0.21351841
000080 51 6b bc bc 0a b1 75 bd 55 d6 ef 3d 08 ea 0d be
       -0.023000391 -0.05998329 0.117108025 -0.13858807
000090 c7 37 83 bd 48 8c 65 bc df 0b 7e 3d fa 70 81 3d
       -0.06407123 -0.014010496 0.06202304 0.06320377
0000a0 40 4b 37 3e 7f 07 16 be ed ea 9a bd 3c fd d0 bd
       0.178998 -0.14651297 -0.0756434 -0.102045506
0000b0 d2 0c b9 3d 28 42 65 3e fb 04 21 be 37 54 a3 3d
       0.090356484 0.22388518 -0.15724556 0.07975047
0000c0 18 ba e6 3d 13 32 f9 bb 58 ae 7a be e6 17 16 3e
       0.11265963 -0.0076048463 -0.2448057 0.14657554
0000d0 13 7d 14 bc c2 6b 05 3d 30 c6 12 be da 78 76 3e
       -0.009063023 0.03257347 -0.14333415 0.24069539
0000e0 d8 62 3c 3e d1 7f da bd 55 f8 45 bd 75 eb 12 be
       0.18397081 -0.1066891 -0.04833253 -0.14347632
0000f0 ba b3 f1 3d 12 08 3c 3d 00 4f 25 be b3 5e 0d 3e
       0.11801858 0.045906134 -0.16143417 0.13805656
000100 36 23 a2 3d ec 7a 27 3d e0 85 48 3c cb c8 fd 3d
       0.07916872 0.04088871 0.01223895 0.12391814
000110 17 06 32 3d 30 e9 3e 3e 44 71 00 be c2 13 13 3d
       0.04346284 0.18643641 -0.12543207 0.035907514
000120 fe 48 c5 3d d2 75 1a 3e 6d 14 7b 3c ba db 96 bd
       0.09633063 0.15084007 0.015324694 -0.07366128
000130 23 51 8c 3e 8a 70 48 be 8a 0d e3 3c 87 0a 4a 3c
       0.27405652 -0.1957418 0.027716417 0.0123316115
000140 1e f5 96 3e 72 98 9d 3d 41 98 88 be 17 13 42 3c
       0.29483885 0.07695092 -0.2667866 0.011845372
000150 16 a3 0c bd af bb cc bc 74 72 1c 3d 34 a7 bb bc
       -0.03433522 -0.024991838 0.03819509 -0.022906877
000160 98 ab eb bd fb 23 5a 3d 6a 7a ba ba ae b9 82 3e
       -0.11507338 0.05325697 -0.0014227156 0.25532287
000170 7d 1c 22 3e 37 53 c9 3d f3 8a ca bd ec 81 23 3e
       0.1583118 0.09830325 -0.09889784 0.1596753
000180 55 97 d7 bb 1e 06 eb 3c 54 c1 32 be 13 d2 4b bd
       -0.0065793195 0.02868944 -0.17456561 -0.04976089
000190 83 5a 0c 3d 0e 4f 0b 3e e5 d2 27 3e fd 81 3f 3e
       0.034266006 0.13604376 0.16389044 0.1870193
0001a0 30 74 87 bd a6 76 26 be 1a 20 a2 be 5d 97 4b 3e
       -0.06613958 -0.16256198 -0.31665117 0.1988196
0001b0 dd 7a f8 3c 03 23 78 3d be 3a c2 bc f7 3d 95 3d
       0.030332023 0.060580265 -0.023709651 0.072872095
0001c0 28 9d f9 3d b9 89 f2 3c c3 ae c4 bd ed 95 31 3e
       0.12188178 0.029606687 -0.09603646 0.17342348
0001d0 2b a9 88 be f2 92 16 3d ba 4a 11 bd 34 2b 0a be
       -0.26691565 0.03676123 -0.035471655 -0.13493043
0001e0 b9 27 94 3d 8a fc 99 3d 93 66 92 3d 35 f5 9e bd
       0.07234139 0.07518871 0.07148471 -0.07761613
0001f0 fb 6f 15 be c1 7e 96 bd 52 c5 44 3d 87 e1 04 be
       -0.14593498 -0.07348395 0.04803974 -0.12976657
000200 31 fa 03 3d fe 7a 51 3e d9 9c ec bd 05 82 5e 3c
       0.032221023 0.20457074 -0.11553354 0.013580804
000210 f8 aa 50 be 54 b3 47 3e bc 2a 09 3d 1e 57 a4 3d
       -0.2037772 0.19502002 0.03348802 0.08024429
000220 83 18 39 3e 30 0e 92 3e 5e 92 87 3d fc 50 bc 3d
       0.18075757 0.2852645 0.06619714 0.09195134
000230 6e 19 22 3e 75 1a bc bd 1e 9c 8b 3e 84 40 87 3e
       0.15830013 -0.09184734 0.27267545 0.2641641
000240 6d 66 03 be a1 fd ca bd bf 7a a7 bd 3a 51 31 be
       -0.12832041 -0.09911657 -0.08177709 -0.17316142
000250 78 f5 97 3d d4 7c ab 3b 80 2d 97 bb a0 c0 bf bc
       0.07419866 0.0052333865 -0.0046135783 -0.02340728
000260 e8 74 24 3e 93 db c1 bd 82 f8 5e 3e 49 c1 14 3e
       0.16060221 -0.094657086 0.21774486 0.14526857
000270 dc 2c 10 bd 11 e4 62 3e 9f e5 8e bd 6e 24 49 be
       -0.03519903 0.22157313 -0.069773905 -0.19642803
000280 08 43 b2 be 3b 70 b7 3b 7c c2 1d be a5 03 91 be
       -0.34816766 0.0055980957 -0.15406221 -0.28323093
000290 64 49 72 bd ec 9d 96 3e 0f 59 67 bd 59 df ce bd
       -0.059152022 0.2941736 -0.056481417 -0.10101194
0002a0 be 1a 8b 3d 9c 82 c0 3d e0 3f f8 bc ff ff 90 be
       0.0679221 0.09399912 -0.030303895 -0.2832031
0002b0 bf ba 31 ba 65 4d e1 bd 0d 74 1e bd bc ca 72 3c
       -0.00067798415 -0.1100109 -0.038684893 0.014818843
0002c0 16 8d da 3d 88 74 c3 bd 1d 43 2f bd 47 5e 57 3e
       0.10671441 -0.09543711 -0.042788614 0.21032058
0002d0 31 48 e9 3d ea 78 ed bd f0 59 34 bd ba 76 c7 3d
       0.113907225 -0.11595328 -0.044031084 0.09739442
0002e0 34 a3 4a 3e c0 c5 89 3e 9b a9 9f 3b 46 de 50 3e
       0.1978882 0.26908684 0.0048725135 0.2039729
0002f0 a4 8f 0c be a6 2a bc 3d 06 32 59 bc 90 f1 f8 3d
       -0.1372667 0.09187822 -0.013256555 0.121554494
000300 d0 62 b2 3d c8 08 b0 3d 75 05 b0 bd 6e 96 08 3d
       0.08710253 0.08595425 -0.08594791 0.033346586
000310 3b 5b 23 3e 9c e6 86 be 19 82 80 3d 81 87 38 be
       0.1595277 -0.26347816 0.06274814 -0.1802044
000320 e4 b2 9e 3a 7c ea 1a 3d ec bb aa bb 15 c4 ca 3d
       0.0012107757 0.037821278 -0.0052103903 0.09900681
000330 b4 61 08 3e 80 9a ab bd 69 a2 1d bc ef cf b2 bd
       0.13318521 -0.08379078 -0.009621241 -0.087310664
000340 84 df 59 bd 16 10 e0 bd c3 bd 0a 3e 15 cc 40 3c
       -0.053191677 -0.10940568 0.13548951 0.011767407
000350 ec 49 15 3e 13 96 1e 3e 75 e7 88 3e 19 f8 bf bd
       0.1457898 0.15486936 0.26739088 -0.09373493
000360 40 22 e5 bc 61 33 3a 3e 9c db c0 3d 70 85 29 3e
       -0.027970433 0.18183662 0.09416887 0.16554809
000370 e4 6e f3 3d 58 70 ca bd 4f d0 0d be 91 87 57 be
       0.11886385 -0.09884709 -0.13848995 -0.21047808
000380 e1 b7 b1 bd 80 b1 e2 3d 2f 64 ec bd 83 08 82 be
       -0.0867765 0.11069012 -0.11542546 -0.2539712
000390 7b b3 a6 be 16 d5 94 be bb 74 ef bd 97 fb 96 3d
       -0.32558808 -0.29068822 -0.116921864 0.07372206
0003a0 f2 dd 18 be db db a3 3d da 9c 5a bd d5 76 7c be
       -0.14928415 0.080009185 -0.05337224 -0.24654706
0003b0 b5 60 53 3d 1d d5 3b 3d 83 c6 d3 bc d0 ca 26 be
       0.0516059 0.045857538 -0.025851494 -0.16288304
0003c0 f7 07 2f bc d4 be fc bd 93 d9 ae bc 23 e4 56 be
       -0.010683051 -0.12341085 -0.021343982 -0.20985465
0003d0 3e c0 89 be fa b1 bb 3d 82 9c 8e 3d 62 66 2d 3e
       -0.26904482 0.09164806 0.06963445 0.16933587
0003e0 90 8d 9a 3c f0 f2 38 3d 22 e0 02 be 34 33 83 3b
       0.01886633 0.04515356 -0.12780812 0.0040039066
0003f0 b5 0c 4b 3d c9 c2 23 bb 0d 0a 10 be 5a 5d 9f bd
       0.049572665 -0.0024987927 -0.14066334 -0.07781477

network_body._body_endoder.seq_layers.0.bias f4 [128]
000000 4f 4f ed ba 21 0c 2e ba 2b 1a 9a ba 63 c1 b8 3a
       -0.0018105301 -0.00066393806 -0.0011757066 0.001409572
000010 38 f6 5d 3a a6 11 41 b9 85 64 e8 38 9e ec 9b ba
       0.00084671704 -0.00018412489 0.00011081345 -0.0011896079
000020 ca 4a 20 3a 45 fd 17 3a 7e 5c c0 ba af af eb b9
       0.000611466 0.0005797933 -0.0014676002 -0.00044953587
000030 00 bc 52 3a 5e 86 e3 b8 22 e5 55 3a 75 5a 05 bb
       0.00080388784 -0.00010849231 0.00081594486 -0.0020348106
000040 c2 a5 4d 3a b6 2d 21 3b 44 50 7d ba 44 cb ba b9
       0.0007844829 0.0024593896 -0.00096631446 -0.0003562813
000050 9d 40 6c 3a 62 df f3 3a e0 6f ab ba 4a 9f 2b ba
       0.00090123137 0.0018606002 -0.0013079606 -0.0006546868
000060 7a eb bb 3a 67 34 96 ba 1e e6 02 ba 39 ee 0e 39
       0.0014337145 -0.0011459709 -0.00049933966 0.0001363092
000070 61 8d 99 3a 56 e9 82 3a e3 aa ec 39 21 16 47 3a
       0.0011715108 0.0009987752 0.00045140748 0.0007594545
000080 96 19 9c b9 d6 dd b4 3a e8 75 98 b7 d7 57 b0 ba
       -0.00029773702 0.0013799022 -1.8174716e-05 -0.0013453913
000090 9a 15 c5 38 e6 9c b4 b8 ca 46 0a b9 2a e5 df ba
       9.3977156e-05 -8.6122935e-05 -0.00013187077 -0.0017081846
0000a0 6a 72 20 39 8f 69 da 3a 60 9d 6e 39 d2 61 04 b9
       0.00015301412 0.0016663539 0.00022756075 -0.00012624942
0000b0 2f b0 2d 3a e0 22 78 38 d9 b0 96 3a 39 14 0e 3a
       0.00066256797 5.9160287e-05 0.0011496797 0.00054198835
0000c0 0f df 55 3a ba df c6 b9 b4 37 89 38 b1 ee 29 b9
       0.00081585435 -0.00037932192 6.5430446e-05 -0.00016206015
0000d0 6d b5 d0 37 c4 01 06 ba 94 0a 31 ba 75 4e 8e ba
       2.4880015e-05 -0.00051119574 -0.00067535904 -0.0010857122
0000e0 a6 66 b7 b8 e4 43 8f ba 82 09 59 3a fc 66 b5 39
       -8.74524e-05 -0.0010930267 0.000827931 0.0003459974
0000f0 c7 e9 17 3a 50 88 b0 ba dd 99 a6 39 01 09 88 ba
       0.00057950284 -0.0013468359 0.00031776624 -0.001037866
000100 4f 51 b8 ba 3c c1 d3 3a 88 8a 00 b9 ec 0a 04 bb
       -0.0014062318 0.0016155611 -0.00012258638 -0.0020148112
000110 e5 cc 9a 37 f4 da 5d 39 ba 48 18 ba e9 c2 7f ba
       1.8453642e-05 0.00021157769 -0.0005809177 -0.0009756522
000120 3c 28 c2 3a fc ae ad ba 5d a5 9e ba 54 8b 54 3a
       0.0014813016 -0.0013251002 -0.0012103725 0.000810792
000130 a2 58 27 ba e4 c8 e7 39 ca 5a 5a ba 23 31 c6 ba
       -0.0006383752 0.0004420943 -0.00083295687 -0.0015120845
000140 0f bb c0 ba 7f 8b 7e 38 7c 5b 89 3a be 1a 42 3a
       -0.0014704185 6.0688235e-05 0.0010479535 0.00074044976
000150 82 11 8d 3a 44 5f 35 ba f2 66 42 38 8d 70 7f 3a
       0.0010762664 -0.0006918798 4.634908e-05 0.00097442494
000160 49 3d 75 3b af 20 ff 39 72 07 61 ba 2d b9 a6 ba
       0.0037420562 0.0004866174 -0.0008584178 -0.0012719982
000170 b9 25 d6 39 3f 8f 86 ba 71 ef 81 ba 46 35 89 b9
       0.00040845366 -0.0010266079 -0.0009913278 -0.00026170368
000180 5b 41 df ba 08 49 aa ba 8d 3d db 39 d5 88 25 3a
       -0.0017033027 -0.0012991736 0.00041816794 0.000631464
000190 d4 23 89 ba 79 af e3 3a e3 14 37 39 cc 7d f3 ba
       -0.0010462948 0.001737102 0.00017460021 -0.0018576919
0001a0 21 68 3a 3a a5 b8 c6 ba 1b 8a 06 bb 0f 6a c9 ba
       0.00071108533 -0.001516123 -0.0020529095 -0.0015366691
0001b0 d9 a1 c5 3a 2d 12 ce ba 1a 6e 00 39 9e fb ba 3a
       0.0015078142 -0.001572197 0.00012248047 0.0014265662
0001c0 9c ad 88 b9 82 18 c3 39 b8 85 08 ba 54 3d 6d 39
       -0.0002606929 0.00037211558 -0.0005207914 0.00022624928
0001d0 18 fe 0d 3a 1d 23 4f ba 28 ba 33 3a 81 a3 2b bb
       0.0005416586 -0.00079016556 0.00068560475 -0.0026189985
0001e0 65 46 48 b9 ad 72 9e b9 b8 c0 7a 39 bb 02 32 ba
       -0.0001909971 -0.00030221549 0.00023913651 -0.0006790568
0001f0 46 e1 19 39 fe 30 96 38 c8 e6 38 3b 3e 6d 05 3b
       0.00014675138 7.161683e-05 0.0028213728 0.0020359303

network_body._body_endoder.seq_layers.2.weight f4 [128, 128]
000000 22 30 39 be e1 f6 9d bd 39 9a 01 3e 2f 58 05 3e
       -0.18084767 -0.07713104 0.12656488 0.1302192
000010 26 23 b2 3d 56 6a 28 bd c3 90 80 3d d4 7d 35 3e
       0.0869811 -0.041117035 0.06277611 0.17723781
000020 70 41 1f 3d f6 48 7a bd ca 49 f8 bd 93 2a 3a 3d
       0.038880765 -0.061104737 -0.12123449 0.04545076
000030 01 e7 c3 3d 69 b4 94 bc 7d 84 35 3e b0 e9 2f 3c
       0.09565545 -0.018152433 0.17726322 0.010736868
000040 f9 6a 42 bd 48 d5 00 3e 73 dd b0 bd ec e8 ce 3d
       -0.0474653 0.1258136 -0.08635988 0.1010302
000050 07 a2 a0 bd 61 43 ce 3b 98 d5 32 3e 67 93 02 bd
       -0.07843404 0.0062946533 0.17464292 -0.031878855
000060 19 44 0a 3d a9 1b ce bd 9b e7 0e 3e 13 79 9e 3d
       0.03375635 -0.100638695 0.13955538 0.07737937
000070 29 69 2d bc 22 21 a8 bd 60 82 be 3c 16 e3 a2 bd
       -0.010584154 -0.082094446 0.023255527 -0.079534695
000080 57 0b 23 bd 3c 5c 8d bd 0d f1 43 bd fb 39 74 3d
       -0.039805736 -0.06902358 -0.047837306 0.059625607
000090 4c 11 fb 3d bc 3c 47 be 6d db ae 3c e6 29 53 3d
       0.122591585 -0.19456762 0.021344865 0.05155363
0000a0 82 f3 6b bd 0d 00 e7 bd a6 ee f8 bd 48 8e 4e 3d
       -0.057605274 -0.112793066 -0.121548936 0.05042866
0000b0 e3 fe 88 3d 51 da 0b 3e 00 c6 1f bd 95 c5 0d be
       0.06689241 0.136575 -0.039007187 -0.13844903
0000c0 76 96 d4 3d b7 ce a7 bb 4b 8d 8d bd 15 8d 6d 3b
       0.10380261 -0.005121078 -0.06911715 0.0036247422
0000d0 4c e9 fd 3d 6e cd 33 be de a4 4b bd cb a2 c0 3c
       0.123980135 -0.17558834 -0.049717776 0.023515126
0000e0 08 52 16 be 0f d5 2b bd 91 76 80 bc c4 5d 67 3d
       -0.1467973 -0.041951235 -0.015681537 0.056485906
0000f0 cb 27 68 bd 14 d6 5c bb 43 22 fc bd b6 7a 19 be
       -0.056678575 -0.0033696936 -0.123112224 -0.14988217
000100 f0 51 8a bd 1b ef f4 3c 86 3d 32 be 21 6b c1 bd
       -0.067539096 0.02989917 -0.17406282 -0.09444261
000110 9c b6 03 bd cd fb 90 3c 73 11 80 bd 71 80 8a 3d
       -0.03215657 0.017698193 -0.06253328 0.067627795
000120 37 f2 02 3d 34 04 64 bd ed 79 b7 3d bb 9c 92 bd
       0.031969275 -0.05566807 0.08958802 -0.071588
000130 b6 c3 03 3d e0 53 29 3d c9 da dc bd cc 0a 4d bd
       0.032169066 0.041339755 -0.107839175 -0.050059125
000140 e7 7f 94 3d 37 43 13 bd 61 3b 26 3e 88 65 bd bd
       0.07250958 -0.035952773 0.16233589 -0.09247881
000150 ad 32 3d bd a9 4e bc 3c c2 dc 35 3d 1d 89 f1 3d
       -0.046190906 0.022986727 0.044399984 0.117937304
000160 53 b9 37 3e 35 de c4 bd 05 81 f0 3d 04 3d af bd
       0.1794179 -0.09612695 0.117433585 -0.0855656
000170 6d 5e 47 bd 95 59 07 3e 2f 8c d3 3d e6 00 c7 bc
       -0.048674036 0.13217767 0.10329472 -0.02429242
000180 b5 96 e5 bb a9 78 a6 bd 12 18 10 be bb 86 f8 3c
       -0.007006491 -0.08128483 -0.14071682 0.030337682
000190 3a 89 9e 3d 53 2f 20 3d 6e 43 b0 bc c3 7b a4 3e
       0.07741018 0.039107632 -0.021516528 0.32125673
0001a0 3b 1f 6e 3d 23 42 8d 3d 85 74 30 3e 9c 89 1e 3d
       0.058135252 0.0689738 0.17231949 0.038705453
0001b0 4b 40 8b bc 03 d4 45 3d 7b 8b 56 bd 8a bb b2 3d
       -0.01699843 0.048297893 -0.052379113 0.087271765
0001c0 bc cc 73 3d 4e 2d 94 3d 5d e3 27 3d b0 97 43 bd
       0.05952142 0.07235204 0.040988315 -0.047752082
0001d0 ac 38 72 bd c2 09 45 3d ef 39 07 3d bb 07 00 be
       -0.059136078 0.04810501 0.033014234 -0.12502949
0001e0 e2 6c fe 3d f4 4c c4 3d f9 b8 7e bc 7a 88 1a 3c
       0.124231115 0.0958499 -0.015547031 0.009431953
0001f0 ef 16 b9 3d 23 4a 62 3d 49 d9 e0 bd 2b d0 3d 3d
       0.09037577 0.055246484 -0.10978944 0.046341103
000200 4b 6b a2 bd 9e 4e 10 bd 30 f2 a2 3d 87 9b 02 bd
       -0.07930621 -0.035231225 0.0795635 -0.031886604
000210 3b cc 4a bc ac 45 1c be 46 94 83 3d d1 52 47 bd
       -0.012377794 -0.15260953 0.06424765 -0.048662964
000220 6a f6 a6 3d 1d 7f 1e 3d 9c 50 86 bd 8b 38 11 3d
       0.081524685 0.038695443 -0.06558344 0.035454314
000230 82 5f 02 3d 18 75 a2 3a 9f 9a fb 3d 12 c2 c5 bd
       0.031829365 0.0012394516 0.12285351 -0.096561566
000240 a0 20 d4 3d 55 1f f9 bb 85 e6 57 3d 44 8f e3 bd
       0.10357785 -0.007602612 0.052710075 -0.1111131
000250 91 f2 8e bd 44 b1 8e 3c 76 df 18 3d 26 ba ed 3c
       -0.069798596 0.017418511 0.037322484 0.029019427
000260 13 59 8f bd 5d 11 60 bd 81 5a ba bd bf 04 d4 3d
       -0.069994114 -0.05470406 -0.090992935 0.10352468
000270 8e 38 c4 3d 14 0a de bd e9 e4 a3 3d 72 89 09 3d
       0.095810995 -0.10841766 0.080026455 0.033578344
000280 98 6e 91 3d 15 94 54 bc c2 a5 fd 3c 4f 6b fc 3b
       0.07101172 -0.012974759 0.030962829 0.007703222
000290 5f 8a 8c 3d 0c 67 85 3e 7d b1 be 3d 2b 35 16 be
       0.0686233 0.2605518 0.09311197 -0.1466872
0002a0 2a 03 91 bb 3d 67 3a 3d 90 0c e6 bd 8d fa 18 3c
       -0.004425426 0.045508612 -0.11232865 0.00933708
0002b0 fe c0 17 bb 2f 9c be bd 02 28 0c be 5d 84 c4 bd
       -0.0023155804 -0.093071334 -0.13687137 -0.09595559
0002c0 90 37 31 be 7f 33 60 3e 78 08 e9 bd 39 41 e5 3d
       -0.17306352 0.21894644 -0.113785684 0.11194081
0002d0 e2 cb 40 3d fd d0 c4 3d 09 4c 0c be 5c 32 8e 3e
       0.047069438 0.09610174 -0.1370088 0.27772796
0002e0 01 57 51 bd d9 1e a9 3d 63 80 4f 3c cc fa 6b 3d
       -0.051108364 0.08257837 0.012664887 0.057612225
0002f0 5f c8 9a 3a 1b f9 9b 3d 71 db 8b 3b 15 b0 c1 bd
       0.0011808983 0.076158725 0.004268103 -0.09457413
000300 f4 66 f1 bc a1 bf 27 be 79 44 1b be 09 c5 d9 3d
       -0.029468037 -0.16381694 -0.15162839 0.106332846
000310 a9 13 34 3d 79 9c 56 bd 4c 75 1c bc 30 df 37 3e
       0.043964062 -0.052395318 -0.00954945 0.17956233
000320 d7 46 8b bd fd f3 9b 3d a9 ce d1 bd 6e 3f c0 3c
       -0.06800621 0.076148964 -0.102444954 0.023467746
000330 32 b8 1c 3d c1 86 04 be fe 79 d8 bd af fc ef 3c
       0.0382616 -0.1294203 -0.10570143 0.029295294
000340 49 c5 d2 3b 62 5c 4d 3d a7 46 03 be 26 57 88 bd
       0.0064322096 0.05013693 -0.1281992 -0.06657247
000350 7d f9 f2 3d 56 f8 4e 3c 26 69 82 bc 01 1f b7 3c
       0.11863992 0.01263245 -0.01591928 0.022353651
000360 46 da dd 3d 36 8a ae bd 2a 9e 81 bd e1 82 2b 3e
       0.10832648 -0.085224554 -0.063289955 0.16749145
000370 cf ca a1 3d 18 09 18 be b5 89 9d 3d 82 30 49 be
       0.07900011 -0.14847219 0.07692281 -0.1964741
000380 03 b9 c7 bc 39 f9 1b 3c 70 9e 13 bc 60 cb 77 3d
       -0.024380213 0.0095198685 -0.009009942 0.060496688
000390 2a 3b d6 bc a7 32 61 3d 3c 15 24 3c 9c 78 03 3e
       -0.026151258 0.054979946 0.010014828 0.12838978
0003a0 f6 18 12 bd 3e cb 65 bd c7 bb a7 3d 96 e4 18 3e
       -0.035668336 -0.05610203 0.081901126 0.14930949
0003b0 a5 8a ce bd 75 52 1e 3e 5a 6d bc bd a8 74 1c bd
       -0.10085038 0.15461142 -0.09200545 -0.03819719
0003c0 1d d3 5e 3d e0 d5 68 bd 03 63 0c 3d ed ae 02 be
       0.054400552 -0.056844592 0.034274112 -0.12762041
0003d0 a2 b1 67 bd 97 f9 32 3e 8c 30 2f bd 14 b2 94 3d
       -0.05656589 0.17478023 -0.042770907 0.07260528
0003e0 d8 2f dc 3c 34 56 04 3d c9 4e 0e bd 0d 3b 12 bc
       0.026878282 0.032308772 -0.034743104 -0.008925212
0003f0 e1 da 08 3d 85 bd cb bc 10 42 c2 bc b2 6e 28 bd
       0.033411864 -0.024870643 -0.023713142 -0.041121192

network_body._body_endoder.seq_layers.2.bias f4 [128]
000000 7e b5 d9 39 e1 03 07 bb 52 bd e3 3a e0 aa 9c bb
       0.00041524688 -0.0020601677 0.0017375147 -0.004781112
000010 2a 47 53 39 06 48 db b9 77 ad 48 3a ff c8 68 bb
       0.00020149039 -0.00041824597 0.0007655243 -0.0035520194
000020 12 51 86 ba a8 4f eb b9 66 ef be bb 4f 11 c7 ba
       -0.001024755 -0.0004488204 -0.0058268784 -0.0015187653
000030 99 ce 3a ba e6 e3 98 b7 b7 ad b5 b9 14 ed a4 b9
       -0.00071261224 -1.8225935e-05 -0.00034652438 -0.00031457155
000040 39 c0 3f 3a f6 27 34 3b 6f e5 a7 3a 6d d7 07 ba
       0.0007314715 0.002748964 0.0012809465 -0.0005181942
000050 e5 ce 56 ba f2 75 45 ba 06 98 26 39 ec 63 8d ba
       -0.0008194282 -0.0007532529 0.00015887627 -0.0010787225
000060 1f 41 b3 3a 65 7b 41 bb c2 a5 00 3b 34 3d 94 38
       0.0013676024 -0.0029523012 0.001963005 7.06859e-05
000070 46 25 15 3a ee c6 bb b9 32 7c 8e b9 89 fe 40 3a
       0.0005689453 -0.00035815634 -0.00027176883 0.00073621474
000080 8c 7d d7 38 15 bb ce 3b 3a fc 05 ba 93 1d 52 3a
       0.00010275384 0.006308923 -0.0005111132 0.0008015271
000090 c6 6b 80 3a be eb 2f 39 47 ae 6c ba 9c d1 4c 3a
       0.0009797744 0.00016777121 -0.0009028655 0.00078132167
0000a0 9e 12 b0 ba 11 92 c7 ba cc 47 a1 ba 5e 28 80 ba
       -0.0013433283 -0.0015226026 -0.0012304722 -0.0009777655
0000b0 ce 86 0a ba 05 d9 77 b9 78 37 33 3b f7 6a 88 ba
       -0.00052843697 -0.00023636602 0.0027346294 -0.0010407855
0000c0 62 57 3e b9 be fc ef 39 d4 71 8a ba 9c b3 14 3a
       -0.00018152365 0.0004577394 -0.0010562488 0.0005672516
0000d0 2e 5d 45 39 96 75 32 3a 88 52 89 b8 1c 5a 28 ba
       0.00018822096 0.0006807683 -6.548042e-05 -0.0006422119
0000e0 c2 39 97 b7 bd 3c 02 39 57 0c 79 ba 9c c5 07 bb
       -1.8027498e-05 0.00012420393 -0.0009500435 -0.002071715
0000f0 f4 71 af ba 8b 22 c4 b9 dd b1 25 ba 3c 7b 58 b9
       -0.0013385401 -0.0003740977 -0.0006320754 -0.00020645274
000100 7e d2 aa 3a 46 b1 b5 3a 3e 37 d4 b9 07 8f 37 ba
       0.0013032702 0.0013862036 -0.0004047695 -0.0007002209
000110 e2 5f 10 3a 68 57 ec 39 dd cc ca b9 00 61 84 b7
       0.0005507452 0.0004507855 -0.00038681077 -1.5780795e-05
000120 3f ae 92 ba 97 41 28 3a 61 bf 9d 37 1e fd 58 38
       -0.0011190845 0.0006418465 1.8804976e-05 5.1734147e-05
000130 fd 74 58 3a 77 5e 8f 3a d2 b5 a4 ba ac 32 a4 ba
       0.00082571787 0.0010938187 -0.0012566394 -0.0012527308
000140 60 aa 41 3b f3 25 0f 3b e0 4e 34 ba fa cb d0 3a
       0.0029551014 0.0021842688 -0.00068782084 0.001592993
000150 b1 f8 96 b9 83 70 95 bb 64 18 73 3a 9c 71 c9 38
       -0.0002879552 -0.0045605316 0.0009273349 9.605588e-05
000160 3c 95 18 b9 8d 9f a0 bb 84 a3 b6 b9 48 58 98 ba
       -0.00014551444 -0.0049018324 -0.00034835574 -0.001162299
000170 63 69 4b bb a8 8a 3f b9 86 a7 8a 3b a1 40 ef ba
       -0.0031038157 -0.00018266833 0.004231396 -0.0018253514
000180 be fd a9 39 e9 10 de ba 2e 66 33 38 e0 f3 dc ba
       0.00032423245 -0.0016942295 4.2772088e-05 -0.0016857348
000190 8e 33 61 3b 23 e8 0f ba ef 25 72 bb f8 2f 0c b9
       0.0034363004 -0.0005489608 -0.003694888 -0.0001336931
0001a0 3f 88 81 ba d3 7d 87 b8 1d ac 05 3b 39 91 bc b9
       -0.0009882523 -6.460738e-05 0.0020396777 -0.00035966354
0001b0 09 ae 21 3b ff c7 56 ba 07 96 00 39 f1 fa f1 ba
       0.0024670383 -0.0008193254 0.00012262921 -0.0018461627
0001c0 28 1b 88 ba f0 e8 ed 39 fb ba 93 39 dd ef 67 3a
       -0.001038407 0.00045377715 0.00028177336 0.0008847693
0001d0 ec ee 94 ba e7 54 51 ba 71 28 c0 b9 43 1e 14 3b
       -0.0011362708 -0.0007985369 -0.00036651225 0.0022601045
0001e0 b0 a8 95 bb 28 2c 1b b8 5f 08 36 ba aa a8 10 3a
       -0.0045672283 -3.6996003e-05 -0.00069439964 0.0005518297
0001f0 c2 6f 82 ba 9a 8a 3f bb fa 5c b4 3a 19 3a 8f 39
       -0.0009951519 -0.00292269 0.0013760619 0.00027318372

action_model._continuous_distribution.log_sigma f4 [1, 3]
000000 58 68 99 39 91 3e 79 ba 6f a4 1a 3a
       0.00029260176 -0.00095079193 0.00058991363

action_model._continuous_distribution.mu.weight f4 [3, 128]
000000 5c 6e 6d bb d7 c6 8a 3b 07 67 81 bc a5 94 5b bb
       -0.003622911 0.0042351293 -0.015796198 -0.0033505347
000010 24 41 d8 3a 75 12 0d bd 68 61 71 bb 7d df a8 3a
       0.0016498906 -0.03444143 -0.003683174 0.0012883988
000020 3e fb 7a bc 05 85 bd bb cd b3 d1 bb 03 79 3e 3c
       -0.01531869 -0.0057836794 -0.0063996078 0.011625531
000030 d1 9f 27 3d d2 ad 38 bc 67 05 ff bc ff c7 3e 3c
       0.040923897 -0.011271911 -0.031130506 0.0116443625
000040 eb 42 62 bc ea af 3b bb 0d b3 34 bc 7c f3 16 3c
       -0.0138099 -0.0028638788 -0.011029017 0.009213325
000050 ef ff 01 3c 0a e3 81 bb 9e db 8d bc f1 40 b1 bc
       0.0079345545 -0.0039638327 -0.017316636 -0.021637412
000060 e6 8c 5d bc 81 6d a8 bb 76 bd fc bb f4 9e 07 3c
       -0.013522362 -0.005140007 -0.007713015 0.0082776435
000070 ce a2 4d bc c5 e6 e8 39 8c ea bf bc e3 b9 9e bc
       -0.012551023 0.00044422425 -0.02342727 -0.019375747
000080 d7 12 ab bc eb bf cf bc 14 3a 86 bc 9a c0 59 3c
       -0.020883007 -0.025360068 -0.016385116 0.013290549
000090 86 30 03 bb 4b 2c 74 bc 88 3b d9 bc 26 08 5c bc
       -0.0020017936 -0.014903138 -0.026517645 -0.013429677
0000a0 bf 3d 7e bc f7 16 15 3c 3a 51 0b bc f0 34 38 bc
       -0.015517651 0.0090997135 -0.008503253 -0.01124309
0000b0 b0 ad 89 bc 4f 03 68 3c de a8 f1 3b 69 04 4a 3c
       -0.016806453 0.014160945 0.007374867 0.012330153
0000c0 98 4b db bc 7f da 2d 3d f2 39 15 3a 56 f8 c1 bc
       -0.026769444 0.042444702 0.00056925335 -0.023677986
0000d0 0f 14 18 3d 72 ec 03 bc a3 f1 3f bc 37 22 93 3b
       0.037128504 -0.008051978 -0.0117153255 0.0044901627
0000e0 37 37 56 bb fc ac 19 bc 09 a1 ad 3c 90 ba 2a bc
       -0.003268672 -0.009379622 0.021194952 -0.0104204565
0000f0 f1 7f 20 3d d1 35 78 3c c4 46 78 bc 35 48 96 3c
       0.039184514 0.01514955 -0.015153591 0.018344978
000100 a3 70 05 bc b6 fb 8d 3c bd b8 b9 bb df a4 7e 3c
       -0.0081445305 0.01733194 -0.0056677745 0.015542238
000110 85 6b 40 bd 16 cf b8 3b 9f a6 68 3c e9 53 34 3d
       -0.04697754 0.005639921 0.014199882 0.044025335
000120 b4 51 ac bc 06 55 4d bc 16 b3 98 3c 0a 52 56 bc
       -0.021035053 -0.012532478 0.018640082 -0.013081083
000130 68 8c b6 bc 5e 8e 0d 3c d6 b2 e8 bb a1 ab 6c 3c
       -0.022283748 0.0086399 -0.007101397 0.014445216
000140 62 ac 41 bc b2 be 66 3c 90 85 88 bb 2c 37 4f 3c
       -0.011820884 0.014083551 -0.0041663125 0.012647431
000150 b9 81 e9 bc 19 f9 17 3c 65 d9 ae bb 6e 7f 97 bb
       -0.02850424 0.009275698 -0.005335974 -0.004623345
000160 7f 3c cb bc ba 94 9a 3a 5f 88 65 39 32 82 81 3c
       -0.02480912 0.0011793592 0.00021889944 0.015809152
000170 f3 5f 74 3b 72 d9 84 bc bf d5 9e 3b d4 32 9e ba
       0.0037288636 -0.016216967 0.004847258 -0.0012069591
000180 85 9f 29 bb e6 0e 04 3c 6a 7a be 3a 7a 17 4a bc
       -0.0025882435 0.008060193 0.0014532332 -0.012334699
000190 da 2f 6e 3c 59 e8 20 bc 25 f3 da bc 9a df c6 3c
       0.014537776 -0.009821021 -0.026727268 0.024276543
0001a0 09 3d 91 bc 30 71 d8 3c 7a 46 9b 3c 8e 8d 05 3c
       -0.0177293 0.02642116 0.018954504 0.008151425
0001b0 18 f7 35 bc 28 c8 b7 ba 2c 1e 44 3c 2d 15 20 3c
       -0.011106275 -0.0014021443 0.011970084 0.009770674
0001c0 af b6 a2 bc ce f2 59 bc 0f 55 89 3c 31 4a 35 3d
       -0.019862501 -0.013302518 0.016764192 0.044260208
0001d0 b9 58 03 bd f0 75 92 bc 95 ae 0d bc b8 ae f1 bc
       -0.032067034 -0.017878503 -0.008647581 -0.029502258
0001e0 5c 8d 31 b9 e2 c7 1c bd 99 70 87 3b 18 13 74 3c
       -0.00016932696 -0.03827656 0.0041332957 0.01489713
0001f0 46 3e 23 bd 48 a8 9d bc 22 b4 03 3d 60 be 63 3c
       -0.03985431 -0.019245282 0.03215421 0.013900369
000200 05 29 96 3a 67 b6 19 3c 81 d9 51 bc 8c db 58 3c
       0.0011456317 0.009381867 -0.012808205 0.013235938
000210 7a ec db bc 9d cd 87 3c 96 ba 16 bd f8 2b 1e 3d
       -0.02684616 0.016577536 -0.036799036 0.03861615
000220 0f e5 42 bc e3 91 b8 3b af d4 23 3c db 51 f8 3b
       -0.011895432 0.0056326254 0.009999438 0.0075781173
000230 bd 6e 89 3c 0a 17 92 3b bb c8 ae b9 b6 37 3d bc
       0.016776437 0.004458313 -0.00033337422 -0.011548927
000240 5b 7e bf bc a7 60 2b bd b4 49 0a bd 10 d8 ea 3a
       -0.02337568 -0.04184022 -0.033761695 0.0017917175
000250 40 ff 95 3b db b2 0d 3c b9 46 d4 3a 14 ef 47 3c
       0.0045775473 0.0086485995 0.0016195393 0.012202997
000260 6a 5a af bc 08 bd ab 3c f3 d4 70 bc 8c 1d d3 bc
       -0.021405417 0.02096416 -0.014699209 -0.025770925
000270 ab be 10 bd b2 71 bc 3a 8a 93 80 bc 98 09 9e bc
       -0.035338085 0.0014377146 -0.015695352 -0.019291684
000280 f5 35 b3 bb 55 f2 c8 bc e4 a0 d9 3c 44 29 91 bc
       -0.0054690787 -0.024529615 0.026565976 -0.017719872
000290 30 0c 03 bd d6 4b 82 bc 04 be 01 3d 29 f4 80 bc
       -0.031994045 -0.015905302 0.031675354 -0.015741425
0002a0 06 de ca 3c 50 84 fe 3c 6d 7b 23 3c 3b 4a 1f 3d
       0.024764072 0.03106895 0.0099781575 0.03888915
0002b0 2b 02 57 3c ac 76 c3 3a 6e a7 cb bc 5f 0a 05 3b
       0.0131230755 0.0014912686 -0.02486011 0.002030037
0002c0 07 e2 d2 b9 a7 76 4f 3c 25 37 a6 3c 3b 8a 04 bd
       -0.00040222725 0.012662566 0.020289967 -0.03235839
0002d0 df 26 70 bb 58 0f c3 bc c0 3e f2 bc 2a f9 7e 3c
       -0.0036644263 -0.023811027 -0.029570937 0.015562335
0002e0 2a 16 86 bc 62 d5 af 3b 13 eb 69 3c fe 14 90 3b
       -0.01636799 0.0053660134 0.0142772375 0.0043970337
0002f0 3e ba 3a 3d 10 ee d0 3c fe 10 87 bb b5 fa 8d ba
       0.04558777 0.025504142 -0.0041218987 -0.0010832163
000300 07 ac 32 bc 1d a2 a7 bc 93 4d 0f bc c3 9e 9f 3c
       -0.010905272 -0.020463044 -0.0087465225 0.019484883
000310 3b 95 21 3c e8 01 9d bc 30 c2 17 3c b0 f9 80 3b
       0.0098622395 -0.019165948 0.0092626065 0.003936015
000320 19 27 53 bb 58 b2 17 bd 46 6c 3c 3c 54 cc 82 bc
       -0.003221935 -0.037035316 0.011500424 -0.015966572
000330 76 e7 74 bc ba f3 0e bd 92 d3 0e 3c d8 7a 2d 3d
       -0.014947763 -0.034900405 0.0087174345 0.04235348
000340 91 11 a3 bc f5 ca b2 bb 30 08 4b 3b d3 dd 34 bc
       -0.019905837 -0.0054563233 0.0030980222 -0.011039215
000350 9f dc 3b 3d ff 1e bf 3b d2 8e e8 bc 7e 7b 80 bb
       0.045864698 0.0058325524 -0.028388415 -0.0039209714
000360 30 af bc bc 8c 33 9c 3c 9f 2b f9 bb 3b 5b b8 3b
       -0.023032755 0.019067548 -0.007604077 0.00562611
000370 2b b6 27 3d 47 09 54 3c 0d b4 b6 bc 6f 0a 3a 3c
       0.040945213 0.012941665 -0.022302652 0.011355027
000380 ba 24 db b9 6a 39 5f 3b d8 a0 3d 3a 6e 39 2e 3b
       -0.00041798298 0.003406132 0.00072337454 0.0026584524
000390 d7 58 bd bc 6f 57 46 bb 29 0c dc 3c 06 78 36 ba
       -0.023113651 -0.0030264517 0.026861267 -0.0006960634
0003a0 dc 83 b2 3c bf a1 98 ba 2f 91 79 bc 04 7d e5 3c
       0.021791391 -0.0011644884 -0.015232368 0.028013714
0003b0 c9 d4 a0 bc 18 2c df 3c b5 c9 aa 3b c9 e9 1f 3c
       -0.019632714 0.027242705 0.0052120336 0.009760329
0003c0 a8 a2 7d 3b 79 2c 4f bc 00 1c 21 bc af 91 75 bd
       0.0038701687 -0.01264488 -0.009833336 -0.059953388
0003d0 99 f6 cf 3c 1b 6f 3f 3c 6b b7 69 3b 4e 1a 97 bb
       0.025386142 0.011684204 0.0035662304 -0.00461129
0003e0 64 38 6d 3c 45 e9 cf 3b ca b1 4a bb 14 4b 31 bb
       0.014478777 0.0063449466 -0.0030928724 -0.0027052807
0003f0 2c 82 e5 bb e0 08 91 3c ca 78 57 3c c4 c9 7a bb
       -0.007004043 0.017704427 0.013151357 -0.0038267234

action_model._continuous_distribution.mu.bias f4 [3]
000000 a0 dd 17 39 4a ea f7 ba a0 b7 4d ba
       0.00014483044 -0.0018914428 -0.00078474917

action_model._discrete_distribution.branches.0.weight f4 [2, 128]
000000 93 0a 46 3b 0e 35 75 bb 8d a4 85 3c 37 67 f0 ba
       0.0030218705 -0.0037415656 0.016313815 -0.0018341307
000010 18 9c 95 3b 0b 38 b8 3b d4 3b e2 3a 2f e3 f2 39
       0.004565727 0.005621915 0.0017260262 0.00046327102
000020 08 78 ae bb d9 1c 7d bb 5d af 7c bc 59 3d 0c 3b
       -0.0053243674 -0.003862193 -0.015422669 0.002139887
000030 4e 18 65 ba 3f 1c 6b 3a 4d 6b 27 3b a4 50 f5 3b
       -0.00087392784 0.00089687476 0.0025546134 0.0074864198
000040 80 6d 91 bb b9 07 08 bc 2b 21 8d 3b e8 7b 00 3b
       -0.0044381022 -0.0083026225 0.0043069324 0.0019605104
000050 92 6a a2 bb 31 28 55 bb a3 61 92 3b 57 6c 9a 3b
       -0.004956552 -0.0032525177 0.0044672056 0.004712622
000060 19 52 94 3a c8 2c f5 bb bf 69 20 bb 31 90 49 bc
       0.0011315971 -0.007482145 -0.0024477092 -0.012302444
000070 ef e3 02 bc c2 f7 e8 3b 42 a4 ac 3b a0 69 f0 ba
       -0.007988914 0.007109613 0.0052686045 -0.0018342026
000080 88 c9 79 bb 67 4f d6 3a 7b 5d 3e bc ea 67 e5 3a
       -0.0038114507 0.0016350568 -0.011618967 0.0017502282
000090 8d b3 fa bb 41 d0 3e bb 8c b1 b6 ba 7e 22 99 3c
       -0.0076507987 -0.0029115828 -0.0013938411 0.018693205
0000a0 70 2c 53 bb b6 42 c1 3b 2f 52 94 bb 91 d0 09 3b
       -0.0032222532 0.005897845 -0.0045263986 0.0021028856
0000b0 e0 a1 0c 3b 77 12 23 bb 00 aa 98 bb 3a 5e 15 3b
       0.002145879 -0.0024882832 -0.0046589375 0.002279176
0000c0 c4 c7 0c 3c 83 2f 9b bb 41 8d b5 3b ec 02 25 3b
       0.00859255 -0.0047358884 0.0055405204 0.0025178744
0000d0 04 5b 72 bc 67 70 1a 3c 8f d4 8f bb d4 f4 29 3b
       -0.014792208 0.009426213 -0.0043893526 0.0025933282
0000e0 58 1c 35 bb 5f 8b bb 3a 44 d0 b6 b9 00 ea ae 3b
       -0.0027635302 0.0014308504 -0.00034868915 0.0053379536
0000f0 47 0a f8 3b 11 d4 86 3b b3 5d f0 bb 16 36 ed bb
       0.0075695845 0.0041146358 -0.0073353886 -0.0072391136
000100 44 9a c5 3b 29 20 30 3c 27 77 af 3b e2 db 4f bc
       0.006030353 0.010749855 0.0053547802 -0.0126867015
000110 f6 24 10 3c 6a 82 4c 3c 56 ac 73 bb 3e 21 a1 bc
       0.008797875 0.012482265 -0.0037181578 -0.019669171
000120 fa fa ab bb d4 36 ff 3b 60 8f d5 3b b7 9f 0a 3c
       -0.0052484246 0.0077885184 0.006517336 0.008460931
000130 ae 98 05 3c 27 57 3a 3c 53 35 89 bb 01 9a 49 3c
       0.008154077 0.011373318 -0.004187265 0.012304784
000140 29 7a 49 bc b0 50 16 3c 41 c7 2b b8 c2 13 93 bc
       -0.012297192 0.009174511 -4.0955147e-05 -0.017953757
000150 bb f7 c4 bb 6e 0d 1a 3b 8b 3a 6a 3b 32 9a 60 3c
       -0.006010977 0.002350654 0.003574046 0.013708638
000160 c1 cb da 3c 3d e2 67 3b d3 a3 f8 bb 36 12 eb 3b
       0.026708486 0.0035382651 -0.0075878887 0.007173802
000170 49 c6 a8 3b cc f7 c0 3b 87 cc ce bb ac 8f 6a bb
       0.0051505906 0.0058889147 -0.0063110027 -0.0035791202
000180 d2 5e 33 3b 4e 2c 98 bc 3a 81 07 bc 9d fb 19 3b
       0.002736975 -0.018575814 -0.008270556 0.002349592
000190 a3 ee 1c 3c b3 91 d9 3b 19 31 c7 bb 93 d7 2e bb
       0.00957838 0.006639683 -0.006078851 -0.0026678785
0001a0 39 33 9f bc 4e 5d 0c 3c 19 3d 1f 3c 26 b1 4e ba
       -0.019433605 0.008567167 0.009719157 -0.00078846735
0001b0 bc 8e 28 3b 15 c2 7e 3b 1f fa 70 ba a8 fa 13 bc
       0.0025719842 0.0038873006 -0.00091925444 -0.009031929
0001c0 e5 db 20 bc 65 67 17 bc 2c f3 5d 3c e7 4a f1 3b
       -0.009818052 -0.00924096 0.013546746 0.0073636654
0001d0 35 f3 1d bc e0 d2 bd 39 31 44 2a bb c1 7d 97 b9
       -0.009640505 0.00036206003 -0.0025980587 -0.00028894658
0001e0 fd 37 b9 3b c8 80 58 bc 46 97 2b bc 8c 26 76 3b
       0.0056524263 -0.013214298 -0.010473078 0.0037559597
0001f0 84 ee c4 bb 33 ea 0e bc 3f ca 15 3c 64 0b 90 3c
       -0.0060098786 -0.00872283 0.0091424575 0.017583556
000200 73 2b a2 ba 6b f1 96 3b 41 6b 88 bc 9c 83 38 bb
       -0.0012372568 0.004606416 -0.016652705 -0.0028154617
000210 ae bc 85 39 78 4b 0e bb 04 9f c5 ba 95 bc 89 39
       0.00025508314 -0.0021712463 -0.0015077298 0.0002627118
000220 bf 9b 0a 3c ba fb f0 3b 70 e9 a2 bb 7f 1b 0e 3b
       0.008459984 0.007354227 -0.0049716756 0.002168387
000230 ee 60 11 3b bf bc 21 bb 5c e3 48 3c ea a7 93 bb
       0.0022183019 -0.0024679152 0.012261238 -0.004506101
000240 07 5d c5 b9 86 96 f4 3b f6 c8 08 bc ba 43 9c 3c
       -0.0003764408 0.007464233 -0.008348694 0.019075263
000250 46 ce 26 3a 55 03 10 3c b3 ed 87 bb 34 e9 f4 3a
       0.00063631346 0.008789857 -0.004148209 0.0018685223
000260 0d c8 0a 3c 9e a4 8c 3c bd 2c af 3b 88 d6 02 bc
       0.008470547 0.01716834 0.0053459094 -0.007985719
000270 f7 19 82 bb 0e b0 12 bc 2c e6 a5 3b e2 b3 59 3c
       -0.0039703804 -0.0089531075 0.005062839 0.013287516
000280 e1 f0 97 bc 00 95 87 bb 47 fb 69 bc 0f 88 4d 3b
       -0.018547477 -0.004137635 -0.014281101 0.0031361615
000290 8f 19 cb 3b 1b b9 73 3c 8b 45 8c bb 11 c2 81 3c
       0.006198115 0.014875676 -0.004280751 0.015839608
0002a0 3a 37 b6 bb 71 f9 62 bb b1 39 de 3b 21 e7 1f bc
       -0.0055607827 -0.0034633542 0.0067817797 -0.009759695
0002b0 76 48 71 3b f2 64 5b bb 58 1c 99 3b 48 39 68 bb
       0.0036816872 -0.0033476916 0.0046725683 -0.0035434533
0002c0 fa 90 0b 3c 61 48 6a bb c4 48 e5 bb 7b 5f 34 bc
       0.008518452 -0.0035748708 -0.0069971997 -0.011009092
0002d0 9f 83 cc 3b 77 f7 bc 3b 3e 5e 83 bc d0 15 e2 3a
       0.0062412764 0.005766805 -0.01603615 0.0017248932
0002e0 21 45 26 bc 24 9b ab bb 64 a1 2b 3c 52 20 21 3c
       -0.010148318 -0.005237 0.01047549 0.009834366
0002f0 bd 17 65 bb a3 47 e2 bb f1 f9 ca b8 54 5a 3e 3b
       -0.0034956776 -0.0069055124 -9.678666e-05 0.002904554
000300 17 48 cf 3b 34 12 5e bc d0 74 e7 bb 65 c7 ab bb
       0.0063257325 -0.013554145 -0.0070634857 -0.0052422755
000310 fa 02 bc ba 77 54 4b 39 d9 10 fe ba bf 9f 56 bc
       -0.0014344149 0.00019391054 -0.0019383683 -0.01309961
000320 c0 98 c2 3b b9 aa 5b bc 09 f8 64 ba 06 4d 02 3c
       0.0059386194 -0.013407403 -0.000873447 0.007952934
000330 8a 1a fe bb fa d6 c5 bb a2 7c 93 3b 63 88 8f ba
       -0.0077546285 -0.00603759 0.0045009414 -0.0010950681
000340 a3 48 60 bc 3c ff fb ba 21 45 e0 3a 11 9c 96 bb
       -0.013689193 -0.0019225846 0.0017110446 -0.0045962413
000350 63 4e 89 bc 40 dc 74 3c 80 da 05 ba 9c 49 7c 3b
       -0.01676101 0.01494509 -0.00051061064 0.0038496023
000360 79 17 5b bc e2 fd 7a b9 48 8d 9b 3b 7c a1 41 bb
       -0.013372296 -0.00023936437 0.0047470666 -0.0029545715
000370 cd eb 57 bb e8 f4 72 bc 93 fc 8e 3c c3 58 4f bb
       -0.0032946945 -0.014828898 0.017454421 -0.00316386
000380 48 94 1e bb 26 e6 ac bb c4 5f 12 3c 27 5c 32 3c
       -0.002419727 -0.0052764593 0.008933965 0.010886229
000390 fe a6 9b 3c f0 a8 f7 3b a1 c5 84 bb 51 fb 0e 3c
       0.019000527 0.0075579807 -0.0040518795 0.008726911
0003a0 fe 96 8f ba 33 10 a9 bb fe 56 36 bc 67 1f f9 3a
       -0.0010955033 -0.005159402 -0.011129139 0.0019006551
0003b0 0b 93 12 3c 7b 46 e9 3b ee 82 55 bb d7 a7 58 3c
       0.008946191 0.0071189976 -0.003257926 0.01322361
0003c0 7f 4c b6 bb 88 9b 0e bc 7e ce 6c bb d9 c6 03 3b
       -0.0055633183 -0.008704074 -0.003613382 0.0020107536
0003d0 33 01 a1 3a 3a 34 69 3b 71 a3 1a 3c 30 0f 40 bc
       0.0012283683 0.0035584108 0.0094383815 -0.011722371
0003e0 58 2a 3f bc 2d dd fa 3b 39 77 15 3c 59 41 a5 3a
       -0.01166781 0.0076557607 0.009122663 0.0012607976
0003f0 89 f4 5d bb 9e ba 0b 3c 89 ad 47 bc 57 91 56 bb
       -0.0033867678 0.00852838 -0.01218737 -0.0032740438

action_model._discrete_distribution.branches.0.bias f4 [2]
000000 fe 49 0d 3a f3 49 0d ba
       0.0005389749 -0.00053897424

exp_avg f4 [128, 47]
000000 b4 98 33 37 10 98 87 b4 d8 cf 9d b4 7c f7 7d b5
       1.0704785e-05 -2.525635e-07 -2.9394755e-07 -9.460998e-07
000010 18 68 9c 34 30 15 02 b7 94 01 1f 37 4b 9e ae 36
       2.9133002e-07 -7.753537e-06 9.477506e-06 5.204032e-06
000020 76 65 1e 36 7c 25 a2 36 ff fb ab 34 2d 1c 4e 36
       2.3602893e-06 4.83234e-06 3.2034583e-07 3.0712793e-06
000030 29 e4 27 37 86 6c 96 b6 50 3f 92 b3 7a 5f 4a 37
       1.0007098e-05 -4.482982e-06 -6.810171e-08 1.2062368e-05
000040 8d 6e a5 b7 f6 86 5f 37 8a c1 5c 36 6c d2 07 37
       -1.9721012e-05 1.3323259e-05 3.289521e-06 8.09562e-06
000050 bf b4 86 b6 e2 7e 5f 37 60 c9 36 b7 9e 8a 36 37
       -4.014553e-06 1.3321378e-05 -1.0894932e-05 1.088032e-05
000060 11 c8 df 36 34 24 e1 36 15 bd 09 b6 64 96 32 35
       6.6692087e-06 6.709737e-06 -2.052465e-06 6.6529014e-07
000070 dc 74 81 36 cc ea 9d 36 34 24 e1 36 15 bd 09 b6
       3.858104e-06 4.7062986e-06 6.709737e-06 -2.052465e-06
000080 64 96 32 35 dc 74 81 36 d2 ea 9d 36 08 e4 a8 37
       6.6529014e-07 3.858104e-06 4.7063013e-06 2.0133346e-05
000090 ee 72 47 36 f6 ed 11 39 2a 05 98 36 65 b6 a6 b7
       2.9720209e-06 0.00013916925 4.530554e-06 -1.9873676e-05
0000a0 02 be 90 37 c0 3f db b5 f6 6e 8a 36 8b 98 7c 37
       1.7254617e-05 -1.6335325e-06 4.125638e-06 1.5055887e-05
0000b0 16 b8 01 b6 0f 21 a3 34 6f cb a4 36 c6 b9 73 36
       -1.932965e-06 3.038517e-07 4.9112637e-06 3.6317956e-06
0000c0 77 5f 65 b7 7a 2d e0 36 a6 a2 60 b6 fa 01 5d 35
       -1.3671691e-05 6.6810144e-06 -3.3473275e-06 8.233179e-07
0000d0 64 32 4a 36 a9 87 64 b7 94 4a 00 b5 84 76 76 36
       3.0129677e-06 -1.3621445e-05 -4.779224e-07 3.6725842e-06
0000e0 c6 30 bf 36 ee 01 c2 36 b8 3f 4f b7 9d 46 89 36
       5.6979216e-06 5.781875e-06 -1.2352997e-05 4.0911386e-06
0000f0 d2 1b ac b6 a0 21 ba b6 4c 3e a5 36 1d 31 4b b7
       -5.129238e-06 -5.5471464e-06 4.9246355e-06 -1.2111178e-05
000100 8b 56 4d 35 66 77 9c b5 c0 7a ea b3 ca 21 40 35
       7.649439e-07 -1.1657655e-06 -1.0918802e-07 7.1574743e-07
000110 ba 29 6a b7 f7 7d 87 37 13 e1 44 b7 c3 79 a6 b6
       -1.3957202e-05 1.6151911e-05 -1.1734915e-05 -4.9613604e-06
000120 e0 d6 19 b7 05 0b a7 b6 f7 92 81 b6 ca 77 29 37
       -9.16954e-06 -4.9782707e-06 -3.8616085e-06 1.01010755e-05
000130 50 b0 05 37 e0 d6 19 b7 05 0b a7 b6 f7 92 81 b6
       7.968469e-06 -9.16954e-06 -4.9782707e-06 -3.8616085e-06
000140 ca 77 29 37 50 b0 05 37 68 fe 05 3a 7e 45 95 b6
       1.01010755e-05 7.968469e-06 0.0005111457 -4.448636e-06
000150 20 24 f4 b8 93 4e 89 b7 7e dd aa 37 b0 12 5b 37
       -0.000116415555 -1.6368262e-05 2.036872e-05 1.3057768e-05
000160 6e c9 5c 37 e8 73 63 37 64 fb 38 b7 71 0f c8 36
       1.3159921e-05 1.3557241e-05 -1.1025786e-05 5.962262e-06
000170 04 97 30 34 96 84 27 b6 3e 32 9a 36 2c 27 08 b7
       1.6446216e-07 -2.4962114e-06 4.5954066e-06 -8.115352e-06
000180 ed 3a ad 37 9c a0 bc 36 dc cf 74 37 5b f6 70 36
       2.0650647e-05 5.621534e-06 1.4591929e-05 3.5906185e-06
000190 53 05 41 36 67 9d a6 36 4a da 3b 37 fa f1 90 37
       2.876234e-06 4.9655096e-06 1.1196893e-05 1.7278817e-05
0001a0 43 85 ea 36 33 f9 c5 36 3e 78 c2 36 ce b9 83 36
       6.989257e-06 5.900068e-06 5.7956486e-06 3.9257347e-06
0001b0 b0 11 1e 37 2e b2 e4 36 48 a6 7f 37 ed 1b 86 35
       9.421652e-06 6.8156724e-06 1.52379e-05 9.991905e-07
0001c0 8c 5a 4e b5 d3 74 5d 36 09 5b 41 37 a0 59 3d 37
       -7.6872743e-07 3.2999567e-06 1.1524892e-05 1.1286145e-05
0001d0 43 65 9d 36 50 a7 a3 b6 6e 8c 03 36 1d 48 35 37
       4.690753e-06 -4.8772563e-06 1.9602262e-06 1.0805231e-05
0001e0 c4 93 9d 37 0b 4f a1 b6 32 6a ee b5 ce 95 b2 b6
       1.8784667e-05 -4.8073757e-06 -1.7763289e-06 -5.322253e-06
0001f0 1d 48 35 37 c4 93 9d 37 0b 4f a1 b6 32 6a ee b5
       1.0805231e-05 1.8784667e-05 -4.8073757e-06 -1.7763289e-06
000200 cd 95 b2 b6 bc 7e f7 39 61 c5 83 37 16 fe 58 3a
       -5.3222525e-06 0.00047205936 1.5708329e-05 0.0008277608
000210 7e 0d 0f 37 a0 0c 2c 36 97 c6 86 35 52 d6 0b b6
       8.526606e-06 2.5637346e-06 1.0041575e-06 -2.0837365e-06
000220 24 a1 0a b6 da 84 a7 36 69 ce 42 37 12 e8 e0 34
       -2.0657399e-06 4.992454e-06 1.161136e-05 4.1892105e-07
000230 82 20 63 37 6f d0 3c b7 c1 44 a0 37 68 80 b0 b7
       1.3537823e-05 -1.1254203e-05 1.9105502e-05 -2.1040629e-05
000240 ee 42 14 b5 e0 43 f7 b6 e0 ff a0 36 c0 90 ce b6
       -5.523169e-07 -7.3690753e-06 4.7981594e-06 -6.1561295e-06
000250 13 1b 2c b7 d4 ac 2b b6 42 91 4b b7 7e 88 cb b6
       -1.0258303e-05 -2.5581585e-06 -1.2133563e-05 -6.065761e-06
000260 de 18 af b6 a0 93 d1 34 6e 5f 57 b6 7e 97 16 b6
       -5.2183013e-06 3.9036695e-07 -3.2093044e-06 -2.2439922e-06
000270 e8 8c 04 b6 a2 03 9f b7 cc 09 0e 37 6a 65 f4 b5
       -1.975155e-06 -1.8955969e-05 8.466141e-06 -1.8208932e-06
000280 10 2e d0 34 d6 1c c4 b7 15 4f cb 36 76 30 83 b6
       3.8776534e-07 -2.3378449e-05 6.059078e-06 -3.909746e-06
000290 f8 37 ec 36 1b c6 32 37 a8 71 b5 b6 0e 09 5e b7
       7.0398637e-06 1.0655752e-05 -5.4074517e-06 -1.3234339e-05
0002a0 c1 41 87 36 e0 4f d9 33 e0 32 e5 36 a8 71 b5 b6
       4.0309683e-06 1.0119379e-07 6.8306545e-06 -5.4074517e-06
0002b0 0e 09 5e b7 c1 41 87 36 e0 4f d9 33 dc 32 e5 36
       -1.3234339e-05 4.0309683e-06 1.0119379e-07 6.8306526e-06
0002c0 c9 58 ca b9 4d 9e 60 b7 ae ac 7b ba a5 8c 61 b7
       -0.00038594592 -1.3388298e-05 -0.00096006214 -1.3443791e-05
0002d0 0d 89 45 b7 1e b4 3d 37 e0 93 0a b6 5c 47 a2 b7
       -1.1774025e-05 1.1307215e-05 -2.0649677e-06 -1.9345134e-05
0002e0 fe a5 85 37 8d d8 41 b7 3c fd af 33 0c 66 4f b7
       1.5932132e-05 -1.1554116e-05 8.1951356e-08 -1.2361921e-05
0002f0 a4 45 9b 35 93 0e 04 37 2b eb 57 b7 58 ec 36 36
       1.1568668e-06 7.871206e-06 -1.2869753e-05 2.7257684e-06
000300 99 a6 20 b6 b5 b2 48 36 37 97 0e b6 ed c2 bc 36
       -2.393883e-06 2.9906344e-06 -2.1247668e-06 5.625529e-06
000310 0f e8 d5 b6 5c 00 03 b7 2a 76 9b b6 40 4e 64 37
       -6.37491e-06 -7.808292e-06 -4.633116e-06 1.3608078e-05
000320 1b 7e 1d b7 24 ae 68 35 9a 63 20 36 20 a2 b9 b7
       -9.38729e-06 8.6680143e-07 2.3899834e-06 -2.2129214e-05
000330 c7 79 a8 37 44 13 a8 b6 9b 3e 01 37 ee 47 c4 36
       2.0083868e-05 -5.009033e-06 7.703576e-06 5.849629e-06
000340 2c f2 a4 b5 c8 59 c3 35 92 b2 73 b7 24 6d 79 37
       -1.2289433e-06 1.4554762e-06 -1.4525505e-05 1.4866968e-05
000350 98 fc 43 37 aa 35 aa b6 8a b8 33 36 aa 93 c7 36
       1.1681717e-05 -5.072642e-06 2.6780494e-06 5.9478525e-06
000360 8f 8f 4c b6 d4 8b 98 b5 aa 35 aa b6 8a b8 33 36
       -3.048193e-06 -1.1365578e-06 -5.072642e-06 2.6780494e-06
000370 aa 93 c7 36 8f 8f 4c b6 f0 8b 98 b5 c8 16 01 ba
       5.9478525e-06 -3.048193e-06 -1.136561e-06 -0.0004924354
000380 4d c4 6b 36 80 76 12 b7 9d 78 01 38 55 74 93 b7
       3.513199e-06 -8.729869e-06 3.0868327e-05 -1.7577937e-05
000390 fe d9 bd b6 9a 04 9d b6 4c 4a 50 b7 ee e0 ad 37
       -5.6580166e-06 -4.6795003e-06 -1.2415065e-05 2.0727948e-05
0003a0 76 e1 88 b6 c1 82 24 b5 90 ef 9a 35 90 86 da 34
       -4.079363e-06 -6.1285033e-07 1.1543616e-06 4.070357e-07
0003b0 8a 3a 39 b7 45 26 88 37 f5 c3 8a b5 5a bc 29 36
       -1.1040489e-05 1.6230284e-05 -1.0338832e-06 2.5292597e-06
0003c0 6f df 2a b7 c6 3e 01 b6 bd ad 94 35 24 a0 7b 37
       -1.0184812e-05 -1.9259037e-06 1.1077424e-06 1.49980515e-05
0003d0 77 17 85 37 dc 13 82 36 2d a8 79 36 45 9f 31 b6
       1.5865762e-05 3.876614e-06 3.7201783e-06 -2.6467762e-06
0003e0 a6 cc a1 b5 80 6a 58 b3 0c 28 22 b6 f0 b1 87 36
       -1.2054995e-06 -5.038828e-08 -2.4163191e-06 4.044028e-06
0003f0 3b 70 b5 36 8b de 42 b6 02 d6 fd 35 70 53 bd 36
       5.4072857e-06 -2.903779e-06 1.8912253e-06 5.6423523e-06
