Assets/Learning/AIRollABall/results/TestParameters/AIRollABall/AIRollABall-3730448.pt (torch, 574872 bytes, 42 tensors)

network_body._body_endoder.seq_layers.0.weight f4 [128, 47]
0	0x3e050ab0	0.12992358
1	0x3e38095b	0.17972319
2	0x3e8ca5d1	0.27470258
3	0xbd86f59e	-0.065898165
4	0x3de99031	0.114044555
5	0x3da65340	0.081213474
6	0xbdbc9383	-0.09207823
7	0xbd9da3a9	-0.07697231
8	0x3dcdbc00	0.10045624
9	0x3d462b8b	0.04838137
10	0xbc99f955	-0.018795649
11	0x3d6c9d6e	0.057767324
12	0x3d9cd0ab	0.07656988
13	0xbe21e7ad	-0.15811034
14	0x3e5ebac0	0.21750927
15	0x3c9ce85f	0.019153772
16	0x3dfe5b85	0.124198
17	0xbda5e4ab	-0.081002556
18	0xbc5eba12	-0.013594167
19	0xbe80909d	-0.2511033
20	0x3e16c09a	0.14721909
21	0x3da872e8	0.08225042
22	0xbdcfce77	-0.10146802
23	0xbe4033e1	-0.1876979
24	0x3d990d62	0.07473256
25	0x3e224bad	0.1584918
26	0x3ce60b76	0.028081637
27	0xbe566248	-0.20935929
28	0x3db1de84	0.086850196
29	0x3dcf9744	0.101362735
30	0xbe02e9f1	-0.12784554
31	0x3d7cf577	0.06175753
32	0xbe296446	-0.16542158
33	0xbd432f93	-0.047652792
34	0xbe3c5858	-0.18393075
35	0xbb235aa3	-0.002492585
36	0xbe1ad195	-0.15119012
37	0xbe8c1272	-0.27357823
38	0xbc9f6d75	-0.019461373
39	0x3d1cd24f	0.038286503
40	0x3de3826c	0.111088604
41	0x3e304d47	0.17216979
42	0xbd65c045	-0.056091566
43	0x3d37e4e2	0.044896014
44	0xbebe1b48	-0.3713019
45	0xbc440809	-0.011964806
46	0x3d5729a2	0.05252994
47	0x3e16269f	0.1466317
48	0x3db28229	0.08716232
49	0x3d52750b	0.051381152
50	0x3dd7a0d5	0.10528723
51	0xbd943f73	-0.072386645
52	0xbe27e015	-0.16394074
53	0x3ec49a03	0.38398752
54	0xbd2aef31	-0.041732017
55	0x3dc37603	0.09543993
56	0xbd49d9be	-0.04927992
57	0x3e6dffa0	0.23242044
58	0x3d8803fc	0.06641385
59	0xbe978803	-0.29595956
60	0xbe83ae85	-0.25719085
61	0x3b959675	0.004565055
62	0xbc68b631	-0.014203594
63	0xbd7cf61d	-0.06175815
64	0x3d8407de	0.06446813
65	0xbb717614	-0.0036844062
66	0x3d4d88fb	0.050179463
67	0x3e82dada	0.25557595
68	0x3d6c055d	0.057622302
69	0x3e21964d	0.15779991
70	0x3d94fc07	0.07274633
71	0x3e1b6d6b	0.15178458
72	0xbcaf9d39	-0.021437274
73	0x3d9478c0	0.07249594
74	0xbda30c4f	-0.07961332
75	0x3e01c209	0.12671675
76	0x3df63e65	0.120236196
77	0xbd5f656d	-0.054540087
78	0xbd0a91f3	-0.033830594
79	0x3e3af1b4	0.18256265
80	0xbd2d8ba1	-0.04236949
81	0x3e1d561d	0.15364881
82	0x3e8db9e7	0.27680895
83	0x3d9def5f	0.07711672
84	0xbe16ec9a	-0.14738694
85	0xbc70815d	-0.01467928
86	0xbe7808b7	-0.24222074
87	0xbd179951	-0.03701145
88	0xbb907363	-0.0044082864
89	0xbec1c164	-0.37842858
90	0xbc4e8ad7	-0.012606344
91	0x3d852ffc	0.06503293
92	0xbcc34255	-0.02383534
93	0xbdbc73c0	-0.09201765
94	0x3eced4ab	0.40396628
95	0xbd5cf56e	-0.053944997
96	0xbda0a0d6	-0.07843177
97	0x3e1d7ad7	0.15378891
98	0xbe4ed3fa	-0.2019805
99	0x3c429bac	0.011877935
100	0xbe6e66c1	-0.23281385
101	0xbe6f8abd	-0.23392768
102	0xbdb0bff3	-0.086303614
103	0xbd831498	-0.06400412
104	0x3d26e718	0.040747732
105	0xbea46cec	-0.3211435
106	0xbdce9a54	-0.100880295
107	0xbd52f3c8	-0.05150202
108	0x3caaa8de	0.020832475
109	0x3dd149fd	0.1021919
110	0xbdc8d353	-0.09805932
111	0xbe22ae81	-0.1588688
112	0xbc9236ae	-0.017848339
113	0xbeae79cf	-0.34077308
114	0x3d943a45	0.072376765
115	0x3e487d27	0.19578992
116	0x3df8dd40	0.12151575
117	0x3d5ac563	0.0534109
118	0x3e0446c1	0.12917615
119	0x3def6944	0.1169
120	0x3e81cf99	0.25353697
121	0xbd8f590e	-0.06999408
122	0xbde23914	-0.11046043
123	0x3df62885	0.12019447
124	0x3dcb8d9c	0.09939119
125	0xbcbfc912	-0.023411307
126	0xbe49e5e8	-0.19716609
127	0x3c880e1d	0.016608292
128	0x3e3e15b4	0.18562967
129	0x3e515489	0.20442404
130	0x3eab38e2	0.33441836
131	0xbe64b377	-0.22334085
132	0xbdb8ea44	-0.090290576
133	0x3d56fc95	0.052486975
134	0x3d2bc6c7	0.041937616
135	0x3e3f5b8f	0.1868727
136	0x3db410ac	0.087922424
137	0x3b3f492f	0.0029187908
138	0x3c050598	0.008119009
139	0x3eca2da1	0.39487937
140	0x3e8a9720	0.27068424
141	0xbdd7f0d3	-0.105439804
142	0x3e2723ef	0.16322301
143	0x3d8d2511	0.068918355
144	0xbd80a952	-0.06282295
145	0xbd76ddf4	-0.060270265
146	0x3cab2445	0.020891318
147	0x3d24183f	0.040062185
148	0x3e4d3859	0.20041026
149	0xbe814071	-0.25244477
150	0x3dd74e43	0.10512974
151	0x3e320a34	0.17386705
152	0x3dcfd2f8	0.10147661
153	0xbd814eff	-0.063138954
154	0xbc146417	-0.009057066
155	0xbcff394a	-0.031155247
156	0xbbcc85fb	-0.0062415577
157	0xbdf7b010	-0.12094128
158	0x3aca0833	0.001541382
159	0xbe6545b1	-0.22389866
160	0x3d195f4f	0.03744441
161	0xbda8955c	-0.08231613
162	0x3dac5b96	0.08415906
163	0x3d9f870b	0.07789429
164	0xbd9358d0	-0.07194674
165	0xbe9dee24	-0.3084575
166	0xbe17037b	-0.14747421
167	0x3d5c5fb8	0.053802222
168	0x3e2578a0	0.16159296
169	0x3d10cb54	0.03535016
170	0xbd71d877	-0.059044328
171	0xbbaae76b	-0.0052155755
172	0x3df373f3	0.1188735
173	0xbc8de880	-0.017322779
174	0x3c1cc6ba	0.0095688645
175	0xbe0d53d2	-0.13801506
176	0xbd24840c	-0.040164992
177	0xbda5b800	-0.08091736
178	0xbde280be	-0.11059712
179	0xbdd944c4	-0.10608819
180	0xbd82acc2	-0.06380607
181	0xbd3b7084	-0.0457616
182	0xbd411059	-0.04713473
183	0xbec368ab	-0.38165793
184	0x3d3712de	0.044695728
185	0x3f07d38b	0.53057164
186	0x3e3f0bb8	0.18656814
187	0xbdc4767b	-0.09592911
188	0x3d3e5369	0.046466265
189	0xbe2a1e38	-0.1661309
190	0x3e7d4598	0.24733579
191	0xbe079e45	-0.13243969
192	0xbc679225	-0.014133965
193	0xbe45c89d	-0.19314809
194	0x3dd46986	0.103716895
195	0x3c63a797	0.013894937
196	0x3e0e1a83	0.13877301
197	0x3e8039d9	0.25044134
198	0xbd698cad	-0.057018925
199	0x3e048bf9	0.1294402
200	0x3e204aad	0.15653487
201	0x3e1b234e	0.15150186
202	0xbe0f4ba9	-0.13993706
203	0xbd7808d8	-0.06055531
204	0x3e48fe6f	0.19628309
205	0xbe08c692	-0.13356999
206	0xbe955a7a	-0.2917059
207	0x3dcf8841	0.1013341
208	0x3e7cedd0	0.24700093
209	0x3d3beb9b	0.045878988
210	0x3dc723c3	0.09723618
211	0xbca2fec0	-0.019896865
212	0x3d884a2b	0.066547714
213	0x3e08042e	0.13282844
214	0x3a6d5070	0.00090528186
215	0x3ec7c484	0.39017117
216	0x3c819a98	0.015820786
217	0xbd4a1174	-0.04933305
218	0xbd11ac0e	-0.035564475
219	0xbd361273	-0.04445119
220	0x3c569d17	0.013098977
221	0x3dac2a7a	0.08406539
222	0xbd4b7210	-0.049669325
223	0x3dd9638d	0.10614691
224	0x3de70881	0.11280919
225	0x3e0fa39e	0.14027259
226	0xbe56aaef	-0.20963643
227	0xbd2686f7	-0.040656056
228	0xbd29f5ef	-0.041494306
229	0xbed0ee37	-0.40806744
230	0x3dde09a1	0.1084168
231	0xbd7fc537	-0.062443938
232	0x3ea89aa4	0.3293048
233	0xbe181d4c	-0.14854926
234	0xbe6682d9	-0.22510852
235	0x3e95bbfe	0.2924499
236	0xbe86c443	-0.2632161
237	0xbe2adffb	-0.16687004
238	0xbd4b0a0e	-0.049570136
239	0xbd7af9d3	-0.061273407
240	0xbd78b238	-0.060716838
241	0x3d9d62e6	0.07684879
242	0xbdf2cdf0	-0.11855686
243	0x3cde8077	0.027160866
244	0x3d312b25	0.043254036
245	0x3ed42997	0.4143798
246	0xbd989479	-0.07450194
247	0xbda99926	-0.08281164
248	0xbd3d484e	-0.046211533
249	0x3e3dcded	0.18535586
250	0xbde6c629	-0.11268265
251	0xbe4c5c35	-0.19957049
252	0x3de53084	0.11190894
253	0xbe1811ec	-0.14850587
254	0xbe110d2d	-0.14165182
255	0x3c12aa6a	0.008951763

network_body._body_endoder.seq_layers.0.bias f4 [128]
0	0xbcc98dce	-0.02460375
1	0xbcc8d601	-0.024516108
2	0x3c28f062	0.010311218
3	0xbbc4cf86	-0.006006184
4	0xbb744ad5	-0.0037276049
5	0xbcef1c34	-0.029188253
6	0xbd2b154b	-0.041768353
7	0xbd49040f	-0.049076136
8	0x3b9dd302	0.004816414
9	0xbbd0359b	-0.0063540465
10	0xbb1ee833	-0.0024247288
11	0xbd471e50	-0.048612893
12	0xbc88f9d2	-0.016720686
13	0x3cba24c5	0.022722611
14	0xbd3e55f6	-0.046468697
15	0x3d2ce595	0.042211134
16	0xbd265fa3	-0.04061855
17	0xbce6a733	-0.028155899
18	0x3cd9cf2a	0.026588041
19	0xbd67aa3c	-0.056558833
20	0xbafe9410	-0.0019422788
21	0xbc44b629	-0.012006321
22	0xbd5b2ec1	-0.053511385
23	0xbbc97131	-0.0061475267
24	0x3c0abd17	0.008467934
25	0x3d1008d7	0.03516468
26	0xbc9ef6a6	-0.01940472
27	0xbcbb127b	-0.02283596
28	0x3da5b066	0.08090286
29	0xba1da233	-0.0006013244
30	0x3c652fc6	0.013988441
31	0xbd570f4b	-0.05250482
32	0xb99d0837	-0.00029951494
33	0xbc3364fd	-0.01094937
34	0x3b9a0d7f	0.004701316
35	0xbd06e86f	-0.03293651
36	0x3c093b0e	0.008375896
37	0xbbe8a643	-0.007099898
38	0xbcc0cfd8	-0.023536608
39	0xbd825609	-0.06364066
40	0xbb9da5c0	-0.0048110187
41	0xbd81bb76	-0.063345835
42	0x3d422e25	0.047407288
43	0x3b8ae653	0.0042388826
44	0x3bcfacaf	0.006337724
45	0xbc8de772	-0.017322276
46	0x3d374f49	0.044753347
47	0x3cd1a562	0.025591556
48	0xbce605e7	-0.028078986
49	0xbc4a0245	-0.012329643
50	0xbcc05398	-0.02347736
51	0xbcd4da48	-0.02598299
52	0xbd2402ae	-0.040041618
53	0x3c30f23c	0.010799941
54	0x3c9b457c	0.018954031
55	0x3c9b5871	0.01896307
56	0x3d0d56b0	0.0345065
57	0xbd13a327	-0.036044266
58	0xbcaa8e2b	-0.020819744
59	0x3c4d7744	0.012540642
60	0xbd09fe7c	-0.03368996
61	0xbc923104	-0.017845638
62	0xbd148aad	-0.036265064
63	0xbb3ffed1	-0.002929617
64	0xbc0d1207	-0.008610255
65	0xbc9c2820	-0.019062102
66	0x3d172db8	0.036908835
67	0xbd0c7fed	-0.034301687
68	0x3d4605a6	0.04834523
69	0xbc5daf20	-0.013530523
70	0xbd3698ac	-0.044579193
71	0x3bc7dc44	0.0060992558
72	0xbcdc194e	-0.026867535
73	0xbcaf32ff	-0.021386622
74	0xbd957d64	-0.07299307
75	0xbca35037	-0.01993571
76	0x3c0be2dd	0.008537975
77	0xbc0c8998	-0.008577727
78	0x3d2a583c	0.041588053
79	0x3d675c11	0.056484286
80	0x3c638067	0.013885594
81	0x3c50c40e	0.012742056
82	0x3b51c97c	0.0032010963
83	0x3cc0422a	0.02346905
84	0xbc211a44	-0.009832922
85	0x3d0a7663	0.03380431
86	0xbc90089b	-0.017582228
87	0xbb52dc40	-0.0032174736
88	0x3c160e1a	0.0091586355
89	0xbb828234	-0.0039828066
90	0xbd1d0760	-0.03833711
91	0x3c60b461	0.013714881
92	0xbd158529	-0.036503945
93	0x3c233646	0.00996167
94	0xbd103f5d	-0.035216678
95	0xbd1bc973	-0.038033914
96	0xbd4a25e7	-0.049352553
97	0x398f875e	0.00027375942
98	0x3ce26b00	0.027638912
99	0xbd3dce29	-0.046339188
100	0x3cb5536e	0.022134509
101	0x3bc0fee2	0.0058897594
102	0xbcd86e2f	-0.026419727
103	0xbd099541	-0.033589605
104	0xbc3b1823	-0.011419329
105	0x3d89d3c1	0.06729842
106	0x3c8d5403	0.017251974
107	0xbbdd1199	-0.0067464826
108	0xbd3e9639	-0.046529982
109	0xbd52fd4a	-0.051511087
110	0xbd11a474	-0.035557225
111	0xbcffec4e	-0.031240609
112	0xbd24fb3f	-0.04027867
113	0x3c16f594	0.009213824
114	0xbbe56865	-0.00700097
115	0x3cd033ee	0.025415387
116	0x3d2a3573	0.04155488
117	0x3c97111d	0.018440777
118	0xbca2865f	-0.019839464
119	0xbbc695a3	-0.0060603186
120	0x3b43257e	0.0029776986
121	0x3cd59894	0.026073731
122	0xbb928636	-0.0044715656
123	0x3c27375c	0.01020607
124	0xbc462766	-0.012094354
125	0xbca9d45d	-0.020731146
126	0xbadabac0	-0.0016687736
127	0xbd0dc9c7	-0.034616258

network_body._body_endoder.seq_layers.2.weight f4 [128, 128]
0	0x3cc236c3	0.023707753
1	0xbcc7dd0d	-0.024397397
2	0x3e4b3f2e	0.1984832
3	0x3d995f20	0.07488847
4	0x3ce29f58	0.027663872
5	0xbd0060ed	-0.031342436
6	0x3dece061	0.115662344
7	0x3d98a920	0.07454133
8	0x3e41c1c9	0.1892158
9	0xbd6168aa	-0.055031456
10	0xbcb57467	-0.022150232
11	0xbd4def34	-0.05027695
12	0x3b889d2d	0.0041691274
13	0x3d80df26	0.06292562
14	0x3cea5dc7	0.02860917
15	0x3c790a89	0.015200266
16	0x3d59609d	0.053070653
17	0x3e1249ff	0.1428604
18	0xbde21bfe	-0.11040495
19	0xbdc0e9f4	-0.09419623
20	0x3dcb1e53	0.09917893
21	0x3d9b5a23	0.075855516
22	0xbde165cd	-0.11005745
23	0xbd117960	-0.035516143
24	0xbd3ec697	-0.04657611
25	0xbdaf84ef	-0.08570277
26	0x3ddf687b	0.109086
27	0xbbb4a593	-0.005512902
28	0xbdca35dd	-0.09873555
29	0xbd30405c	-0.043030128
30	0xbd13c1e7	-0.03607359
31	0x3c81abd0	0.015828997
32	0x3d3230ad	0.043503452
33	0xbd94893d	-0.072527386
34	0xbe1908fd	-0.14944835
35	0xbdd6f64c	-0.10496196
36	0xbdb927e9	-0.090408154
37	0x3cc681bd	0.024231786
38	0x3db22abf	0.086995594
39	0x3d805699	0.06266517
40	0x3e175cf2	0.1478155
41	0x3ab30034	0.0013656677
42	0x3c4be863	0.012445542
43	0xbd099ae2	-0.033594973
44	0x3d485340	0.04890752
45	0xbd84dbe9	-0.06487257
46	0xbd89751a	-0.067117885
47	0x3cf118c2	0.02943075
48	0xbd0d3908	-0.034478217
49	0xbe7cc9df	-0.24686383
50	0x3d22eb4b	0.039775174
51	0x3d561041	0.052261595
52	0x3e62ea20	0.22159624
53	0xbddfb862	-0.1092384
54	0x3d9fce83	0.07803061
55	0x3d800479	0.06250853
56	0x3d88a229	0.066715546
57	0x3e63defe	0.22253034
58	0x3d3ff1ad	0.04686134
59	0xbe25cc6f	-0.16191266
60	0xbaeacccf	-0.0017913821
61	0x3dc02ea5	0.09383897
62	0x39facb44	0.0004783516
63	0x3dda449b	0.10657617
64	0xbdeb37b9	-0.11485238
65	0x3e23c1fc	0.15991968
66	0xbded9759	-0.11601133
67	0xbe23d3b7	-0.15998732
68	0xbdee5e7e	-0.11639117
69	0x3da95197	0.08267515
70	0x3d733fdd	0.059387077
71	0x3d191e6c	0.03738253
72	0x3e024b50	0.12724042
73	0xbcf0e1dc	-0.029404573
74	0xbdb3dde9	-0.087825604
75	0xbd7dfda4	-0.06200947
76	0xbd829f48	-0.06378037
77	0x3e534693	0.2063239
78	0xbc8f66be	-0.017505046
79	0x3caa427e	0.02078366
80	0x3c9fec0e	0.01952174
81	0x3c135a3f	0.008993684
82	0x3cfa68ec	0.030567609
83	0xbe02b9b8	-0.12766159
84	0xbe15fde5	-0.14647634
85	0x3dd9a298	0.106267154
86	0xbd5914aa	-0.052998222
87	0x3dbd7dca	0.09252508
88	0xbe082f70	-0.13299346
89	0xbc1f8da7	-0.009738362
90	0xbdc0111f	-0.093782656
91	0x3dc639bf	0.09678983
92	0xbcf98c9b	-0.030462554
93	0xbe0e7b68	-0.13914263
94	0xbc4cdea5	-0.0125042545
95	0xbdd162ec	-0.10223946
96	0xbbfe8db6	-0.007768358
97	0xbdd13187	-0.10214525
98	0xbd8eb3f6	-0.069679186
99	0xbce3af63	-0.027793592
100	0xbe0c8907	-0.13724147
101	0x3be28df8	0.0069138967
102	0xbe3a68cd	-0.18204041
103	0xbc3a0a86	-0.011355048
104	0xbe0b29c8	-0.13590157
105	0x3df9949e	0.121865496
106	0xbc3faafc	-0.011698481
107	0xbde43674	-0.111431986
108	0x3d7581f4	0.059938386
109	0xbd70a637	-0.058752265
110	0x3cc15a60	0.023602664
111	0x3db0632d	0.08612666
112	0xbb7c3549	-0.003848391
113	0xbda7b233	-0.08188286
114	0x3d9d657d	0.07685373
115	0xbd6c396e	-0.057671957
116	0x3d9483b8	0.07251686
117	0x3def716e	0.11691557
118	0x3d43bcc7	0.047787454
119	0xbc3b248e	-0.01142229
120	0xbe186800	-0.14883423
121	0x3a96828c	0.0011482998
122	0x3bceb594	0.006308267
123	0x3daf2047	0.08551078
124	0x3d665f0b	0.056242984
125	0xbd5116fd	-0.051047314
126	0xbddbfa85	-0.10741142
127	0x3e3f3a09	0.18674482
128	0x3d62a58d	0.055333663
129	0xbe66dd1b	-0.22545283
130	0x3d0e6aa1	0.034769658
131	0x3c79a3c5	0.0152368
132	0x3e270a3a	0.16312495
133	0x3d872c45	0.066002406
134	0x3df0eb85	0.11763672
135	0x3e0a27be	0.13491723
136	0x3e0accb5	0.13554652
137	0x3daf604c	0.08563289
138	0x3d3b75ba	0.04576657
139	0xbe14fca1	-0.14549495
140	0x3c690b76	0.014223924
141	0x3e09b77d	0.13448901
142	0xbe141369	-0.1446053
143	0x3d74c6e1	0.05975998
144	0xbd223cda	-0.039608814
145	0x3e0e9cbf	0.13926981
146	0x3e5f6b0e	0.21818182
147	0xbde8f45e	-0.11374734
148	0x3db1f76f	0.08689772
149	0xbcc37634	-0.023860075
150	0x3e1613d6	0.14656004
151	0xbd146dcf	-0.036237534
152	0x3d5a1a4d	0.05324774
153	0x3d291b91	0.041286055
154	0x3ce2a28e	0.027665403
155	0x3e03302d	0.12811346
156	0xbe221c46	-0.15831098
157	0x3b92799c	0.0044700634
158	0xbcf69d46	-0.03010429
159	0xbd45d4f4	-0.04829879
160	0x3b9b47c2	0.004738779
161	0xbdb6e870	-0.08931053
162	0x3e5153d0	0.20442128
163	0xbe3f8b2f	-0.18705438
164	0x3d050e8a	0.03248457
165	0xbd32cd99	-0.043653104
166	0x3b8ff659	0.0043933806
167	0xbac8b3f7	-0.0015312423
168	0xbe2795b4	-0.16365701
169	0xba971ebe	-0.0011529548
170	0x3dcce95d	0.10005448
171	0x3e287009	0.16448988
172	0xbdb74fef	-0.08950793
173	0x3cc7fc5b	0.024412325
174	0x3d88c1a0	0.06677556
175	0xbdef284f	-0.1167761
176	0xbd4bbf4d	-0.049742986
177	0xbd564b1c	-0.052317724
178	0xbe36c4e3	-0.17848544
179	0xbdfddbc0	-0.123954296
180	0xbc00419b	-0.007828142
181	0x3e75fee2	0.24023011
182	0x3e2b9968	0.16757739
183	0x3db8ac65	0.09017257
184	0xbd77f07d	-0.060532082
185	0x3d3a1170	0.045426786
186	0x3d43c876	0.047798596
187	0x3cdb8954	0.026798882
188	0x3b1c34a8	0.0023835097
189	0x3e0452f3	0.12922268
190	0xbd8d39b0	-0.06895769
191	0xbc0cc68c	-0.008592259
192	0xbd65ae11	-0.056074206
193	0x3d5ab07f	0.053390976
194	0x3c78bc71	0.015181647
195	0xbd402440	-0.04690957
196	0xbddf530a	-0.1090451
197	0xbcde4607	-0.027133001
198	0xbd0a2a70	-0.033731878
199	0x3de9c09a	0.11413689
200	0xbdc229f8	-0.09480661
201	0x3dd3241b	0.10309621
202	0xbd9d7ac6	-0.07689433
203	0x3dd37283	0.10324576
204	0xbcdb54c8	-0.026773825
205	0x3dad04cf	0.08448183
206	0xbdcc3607	-0.099712424
207	0xbe1f8d64	-0.1558128
208	0x3d237d8b	0.03991465
209	0xbd5ed2f9	-0.054400418
210	0xbe193814	-0.14962798
211	0xbc4fd50d	-0.012685073
212	0x3c8ed73a	0.017436612
213	0x3d862739	0.0655045
214	0x3d175039	0.03694174
215	0x3d177db3	0.03698511
216	0x3b9bb54a	0.004751836
217	0x3c96c583	0.018404728
218	0xbd87a8cf	-0.066239946
219	0xbc0fdb15	-0.008780261
220	0xbc1bda04	-0.009512428
221	0x3dfdecb2	0.12398662
222	0xbe425dc3	-0.1898108
223	0xbe038064	-0.12841946
224	0xbd54f2b2	-0.051989265
225	0xbd00af4a	-0.03141717
226	0xbe03795e	-0.12839267
227	0x3dcfa52c	0.10138926
228	0x3c8da394	0.017289914
229	0x3e2d7080	0.16937447
230	0xbd2548ae	-0.040352516
231	0x3e3109d3	0.17288904
232	0x3e054fe3	0.13018756
233	0xbd0c075b	-0.034186702
234	0x3d15d9c8	0.036584646
235	0x3d8e11ea	0.069370106
236	0xbc6e500b	-0.014545451
237	0xbd4c58f7	-0.04988953
238	0xbe3a73b5	-0.18208201
239	0x3d83b755	0.06431452
240	0x3cec7d53	0.028868353
241	0x3d713056	0.058883987
242	0xbe08d2ed	-0.13361712
243	0x3e2eabac	0.17057675
244	0xbd97449d	-0.07386134
245	0xbcab7974	-0.020931937
246	0xbdcdaff3	-0.10043325
247	0xbc21f546	-0.009885138
248	0x3ddd898b	0.1081725
249	0xbd0489ab	-0.032357853
250	0xbd83a554	-0.06428018
251	0x3df10adf	0.117696516
252	0xbe424f33	-0.18975525
253	0xbc0f19d8	-0.008734189
254	0xbd3edbb8	-0.04659626
255	0x3bd2fed9	0.0064390716

network_body._body_endoder.seq_layers.2.bias f4 [128]
0	0xbbf93901	-0.0076056723
1	0x3ca7f6d6	0.020503443
2	0xbb919a05	-0.0044434094
3	0xbc28b942	-0.010298075
4	0x3c573c75	0.013136973
5	0x3c6fd4ac	0.014638107
6	0xbbe2cd1e	-0.0069214245
7	0xbd140ef8	-0.036147088
8	0xbcb07ef5	-0.021544913
9	0xbd28f2ca	-0.041247167
10	0xbcfdea15	-0.030995408
11	0xbcbecca0	-0.023290932
12	0x3cd9ba84	0.026578195
13	0xbc93da82	-0.018048529
14	0x3d11a274	0.035555318
15	0xbcbb4e89	-0.022864597
16	0x3c7132da	0.014721597
17	0x392b4718	0.00016334315
18	0xbc30d72c	-0.0107934885
19	0xbb1c3565	-0.0023835537
20	0xbc85ba40	-0.016324162
21	0xbd07b082	-0.033127315
22	0xbcb2fffc	-0.021850578
23	0x3abb2b2c	0.0014279834
24	0x3d35bec1	0.04437137
25	0x3ddbf9ef	0.107410304
26	0xbbae2654	-0.0053146277
27	0x3d52fa4f	0.051508244
28	0xbb1491f0	-0.0022669993
29	0x3d6aae43	0.057295095
30	0xbc5e3f49	-0.013564893
31	0x3d683b44	0.056697145
32	0xbc963452	-0.018335495
33	0xbcdb30a5	-0.026756594
34	0xbbea52e1	-0.007150993
35	0x3c38b04c	0.011272501
36	0x3c2bd4d4	0.010487754
37	0x3c071828	0.008245505
38	0x3b386f1d	0.00281424
39	0x3c8f2681	0.017474415
40	0xbce40377	-0.027833683
41	0x3d1b79c3	0.037957918
42	0x3c41d83a	0.011831338
43	0x3c9b4903	0.018955713
44	0x3d7e5d52	0.062100716
45	0xbc749cb8	-0.014929943
46	0xbb734ad2	-0.0037123454
47	0x3a9a1d34	0.0011757971
48	0x3c5157c7	0.012777275
49	0x3da81cbc	0.08208606
50	0xbcc2295d	-0.023701364
51	0x3ba79cf6	0.0051151467
52	0xbd11add4	-0.035566166
53	0xbd135177	-0.035966363
54	0x3b8fe8aa	0.0043917494
55	0x3d9e7408	0.07736975
56	0x3c2ec750	0.010667637
57	0x3c55fe43	0.013061109
58	0xb9bf6a36	-0.00036509492
59	0x3d3c2a36	0.045938693
60	0x3d107482	0.03526736
61	0xbce203de	-0.027589735
62	0x37709c04	1.434144e-05
63	0xbd178e1a	-0.037000753
64	0x3c83aeeb	0.016074618
65	0xbc8a11bc	-0.01685416
66	0x3d6fddec	0.05856125
67	0xbbab53e2	-0.0052285055
68	0x3d3797a2	0.044822343
69	0x3cc756e9	0.024333434
70	0xbb7099e9	-0.0036712831
71	0xbd06b57b	-0.032887917
72	0x3abf76aa	0.0014607508
73	0x3c7f9f21	0.015601904
74	0xbb311179	-0.002701847
75	0xb95e94cc	-0.00021227001
76	0x3c3f9110	0.0116923
77	0x3c41042e	0.011780782
78	0xbb107712	-0.0022043628
79	0xbbbc4f9d	-0.0057467953
80	0xbcbbcc08	-0.022924438
81	0x3c9b071d	0.01892429
82	0x3c14bb92	0.009077923
83	0xbc1cd732	-0.009572791
84	0xbca0d401	-0.019632341
85	0x3cde5be9	0.027143436
86	0xbcdfd6b8	-0.027324066
87	0xbbc58651	-0.0060279747
88	0x3d0e82e2	0.03479279
89	0x3dee469e	0.11634563
90	0xbc0d26b8	-0.008615188
91	0x3d10b867	0.03533211
92	0xbc09e42c	-0.008416217
93	0xbc7900a5	-0.015197908
94	0x3c13152b	0.008977215
95	0xbb411d9e	-0.0029467116
96	0x3d15c216	0.036562048
97	0x3cd4d489	0.02598025
98	0xbc460c50	-0.0120878965
99	0x3d383e7d	0.04498147
100	0xbc788af7	-0.015169851
101	0xbcabdcbb	-0.020979276
102	0x3d29c317	0.041445818
103	0xbcc9170a	-0.024547119
104	0x3cf5bee0	0.029998243
105	0x3cf79a09	0.030224817
106	0x3d4ee299	0.05050907
107	0x3badbce7	0.00530206
108	0xbce956b6	-0.02848373
109	0xbcd49ee3	-0.02595467
110	0x3d30a627	0.043127205
111	0xbc0090f2	-0.007847058
112	0x3df09b38	0.117483556
113	0x3cb01685	0.021495113
114	0x3cb44a16	0.022007983
115	0xbc0d59a8	-0.008627333
116	0xbd11ded0	-0.03561288
117	0xbd270303	-0.040774357
118	0x3d9b5576	0.0758466
119	0xbaf09b0d	-0.0018356756
120	0xbba71a35	-0.0050995597
121	0x3ce7dfde	0.02830499
122	0xbcba35ac	-0.02273067
123	0xbd083bb0	-0.033260047
124	0xbcc328fd	-0.023823256
125	0xbc02c366	-0.007981157
126	0xbbd34834	-0.0064478163
127	0xbb9eb22d	-0.0048430176

action_model._continuous_distribution.log_sigma f4 [1, 3]
0	0xbe7b711a	-0.24554864
1	0xbe631521	-0.22176029
2	0xbc514bd5	-0.012774427

action_model._continuous_distribution.mu.weight f4 [3, 128]
0	0x3ca725e5	0.020403812
1	0xbd1a761a	-0.037710287
2	0x3b0ad60f	0.0021184718
3	0x3cea0b47	0.02856983
4	0x3c4af54f	0.012387588
5	0xbb8a8703	-0.0042275204
6	0x3b9f98c0	0.004870504
7	0x3c5b5eda	0.013389314
8	0xb9d7cbb4	-0.00041159766
9	0x3cc350e0	0.023842275
10	0x3b72175b	0.003694019
11	0x3cb75536	0.022379499
12	0xbb8b2981	-0.004246891
13	0x3cf5408a	0.029938001
14	0x3d546efd	0.05186366
15	0x3ce2b46b	0.02767392
16	0x3cdc359e	0.026881035
17	0x3d0aa307	0.03384688
18	0xbcd47767	-0.025935842
19	0x3d16224a	0.036653794
20	0xbc60ce2d	-0.013721031
21	0x3c2573f7	0.010098449
22	0x3ce10e5b	0.027472666
23	0xbc462514	-0.012093801
24	0xbe03f296	-0.12885508
25	0x3e55a8bf	0.20865153
26	0xba225bd3	-0.00061934924
27	0x3c9d910c	0.019234203
28	0x3c403b24	0.01173285
29	0xbdca133d	-0.09866951
30	0x3bdcd07a	0.0067387195
31	0xbcf4ab46	-0.029866826
32	0x3d585f7d	0.05282544
33	0x3a8ff2d6	0.0010982405
34	0xbbe68f67	-0.007036138
35	0x3b9815a3	0.004641251
36	0x3d19f1b0	0.037584007
37	0xbb836bae	-0.004010639
38	0x3c7ea403	0.015542033
39	0xbbaa72a8	-0.0052016564
40	0xbba20e7f	-0.0049455757
41	0xbd4dbad9	-0.05022702
42	0x3a696446	0.00089031865
43	0x3cca0ace	0.024663355
44	0x3df711fa	0.12063976
45	0xbcdc6ab9	-0.026906358
46	0x3c4d8512	0.0125439335
47	0x3d259190	0.040422022
48	0x3dd864b4	0.105660826
49	0x3e4c3686	0.19942674
50	0xbbc013e4	-0.005861746
51	0x3cb635f7	0.02224253
52	0x3c25b42e	0.010113759
53	0xb9dd2a24	-0.00042183802
54	0x3c420e53	0.0118442355
55	0xbd15c769	-0.036567125
56	0xbb0d73b5	-0.002158386
57	0xbc390231	-0.011292026
58	0xbcbba327	-0.022904946
59	0x3bcd0cd1	0.0062576314
60	0xbd5a3e43	-0.053282034
61	0x3c71f328	0.014767446
62	0x3cdeb7f7	0.02718733
63	0x3b819752	0.0039548064
64	0xbccefacd	-0.025266076
65	0x3c952a09	0.01820852
66	0x3e13795e	0.14401767
67	0x3bc64825	0.0060510808
68	0x3cde0f85	0.02710701
69	0xbb35533c	-0.002766802
70	0xbcb736c7	-0.022364987
71	0x3c14c110	0.009079233
72	0xbc9ea182	-0.019364122
73	0x3d717a34	0.058954433
74	0x3ae63e4d	0.0017566175
75	0xbb8bba62	-0.004264162
76	0xbcb14fb8	-0.021644458
77	0xbcd176e9	-0.025569396
78	0x3cc7a1ae	0.024369087
79	0x3c6f84b5	0.014619042
80	0x3cc0d876	0.023540717
81	0x3adeb784	0.0016991948
82	0x3bfecf73	0.0077761947
83	0x3bde14bc	0.006777374
84	0xbb11ad67	-0.00222286
85	0x3be68afe	0.007035612
86	0xbc807195	-0.01567916
87	0xbcfc3dc7	-0.030791176
88	0x3c810ccc	0.015753172
89	0x3bb9220e	0.0056498116
90	0xb9d8adfc	-0.0004132836
91	0xbb9f7e60	-0.00486736
92	0x3b98ae92	0.0046594823
93	0xbb0fe58f	-0.0021956896
94	0x3d29f383	0.041491996
95	0xbc035511	-0.008015887
96	0x3d8f9ed1	0.07012714
97	0x3bd042bb	0.006355611
98	0x3cb97234	0.022637464
99	0x3da30813	0.079605244
100	0xbc34e3ec	-0.011040669
101	0xbc9023c7	-0.017595185
102	0xbc2cbf78	-0.010543697
103	0x3d8ae980	0.06782818
104	0xbc294e24	-0.010333572
105	0xba307003	-0.0006730558
106	0x3c1ea6d1	0.009683327
107	0xbd0784d5	-0.033085663
108	0x3cd94c4d	0.02652564
109	0xbb376a98	-0.0027987119
110	0x3cbc4f32	0.022986982
111	0x3c142a25	0.009043251
112	0xbe057eb7	-0.13036619
113	0xbc672304	-0.0141074695
114	0x3d416cbb	0.047222834
115	0xbca27a84	-0.01983381
116	0x3bcd5340	0.0062660277
117	0x3c1f500c	0.0097236745
118	0xbdf9f455	-0.12204806
119	0xbcdeb57f	-0.027186153
120	0xbca10287	-0.019654525
121	0xbc9a5aab	-0.018842062
122	0xbc682d01	-0.014170886
123	0x3b208363	0.0024492375
124	0xbcb36cad	-0.021902407
125	0xbcc54558	-0.024080917
126	0xbc7f7eef	-0.015594228
127	0xbcd1bea3	-0.025603598
128	0x3d0124bb	0.03152917
129	0xbc9690b9	-0.018379556
130	0x3d4897ad	0.048972774
131	0x3d166bd6	0.036723934
132	0xbc96d9a4	-0.018414326
133	0xbd024e4e	-0.03181296
134	0xba7d00c0	-0.0009651296
135	0x3d1e5b9b	0.03866158
136	0x3cb237a8	0.021755055
137	0x3ac665f7	0.0015136589
138	0x3cdb7f0b	0.026793977
139	0x3c34a6a4	0.011026058
140	0xbd048e76	-0.032362424
141	0x3ca08079	0.01959251
142	0xbd344ed4	-0.04402049
143	0x3d3f7caa	0.04674975
144	0xbce2c93f	-0.027683852
145	0xbc0bad88	-0.00852526
146	0x3c6b7e59	0.014373385
147	0x3cb9fd60	0.022703826
148	0x3cbbca89	0.022923725
149	0x3d056655	0.032568295
150	0x3b8352e0	0.004007682
151	0x39ed0067	0.00045204462
152	0xbca94859	-0.02066438
153	0x3e1cb6cc	0.15304106
154	0x3bb58959	0.0055400548
155	0xbd9ed41e	-0.07755302
156	0x3a94d3b9	0.0011354602
157	0xbc26b5a6	-0.010175144
158	0x3d1c7b0d	0.038203288
159	0x3e24a702	0.16079333
160	0xbc1d4cb0	-0.009600803
161	0x3903a65d	0.00012555109
162	0x3d2e1e1f	0.042509194
163	0x3d0ac5c2	0.033880003
164	0xbd3aeaf1	-0.045634214
165	0xbb5bbc29	-0.00335289
166	0x3d16d216	0.036821447
167	0xbc8fe43a	-0.017564882
168	0x3bd69899	0.006548953
169	0xbc5c26cd	-0.013436985
170	0xbc2b03cb	-0.010437916
171	0xbd116799	-0.03549919
172	0x3cec3ef9	0.028838621
173	0x3d03daca	0.032191075
174	0x3c821bdb	0.015882423
175	0x3ccb6316	0.024827521
176	0x3c4c0c26	0.012454068
177	0x3c3dbbdd	0.011580435
178	0x3cef20cd	0.029190445
179	0xbbad7d14	-0.0052944515
180	0x3cf6a1e0	0.030106485
181	0x3b1d4a5f	0.0024000627
182	0xbcbfa771	-0.023395272
183	0x3e4b3c91	0.19847323
184	0x3d368dd0	0.044568837
185	0x3b0cdd8b	0.0021494355
186	0x3cea3043	0.028587466
187	0xbd56f25f	-0.052477237
188	0x3d8c0380	0.06836605
189	0x3cf889aa	0.03033908
190	0xbc9758dd	-0.01847499
191	0x3c5349fc	0.012896057
192	0xbc2e1916	-0.010626098
193	0x3d5f1554	0.0544637
194	0x3d6ea609	0.058263812
195	0xbb1aa13c	-0.0023594638
196	0xbd5e251f	-0.05423462
197	0xbd00c7f0	-0.031440675
198	0x3d17b653	0.037039112
199	0x3be8efd9	0.00710867
200	0xbc90d34d	-0.017678881
201	0x3dc19ada	0.09453364
202	0xbb27247c	-0.0025503924
203	0x3d068c17	0.032848444
204	0x3db37004	0.087616
205	0x3d60aa2b	0.054849785
206	0xbab8efde	-0.0014109572
207	0xbc085c8e	-0.008322848
208	0x3d175517	0.036946382
209	0xbc746eba	-0.014918977
210	0xbd128170	-0.035767972
211	0xbbcba87e	-0.006215154
212	0x3b9edc70	0.0048480555
213	0xbcb5db89	-0.02219941
214	0x3b909d2f	0.004413269
215	0x399db076	0.00030076847
216	0xbd275092	-0.040848322
217	0xbdd3f2ae	-0.10349022
218	0xbb1948bd	-0.0023389303
219	0xbcaa3111	-0.02077535
220	0xbb9eb353	-0.0048431545
221	0x3c83dbbe	0.016095992
222	0x3cd8caa9	0.026463823
223	0xbd1095cb	-0.035299104
224	0xbc2bdf98	-0.010490321
225	0xbc902290	-0.017594606
226	0xbbb42e14	-0.005498657
227	0x3dc9494b	0.09828433
228	0x3cad2c47	0.021139277
229	0x3cd0d8e4	0.025494047
230	0xbce08244	-0.027405865
231	0x3c9ae529	0.0189081
232	0xbc365aa1	-0.011130006
233	0xbd1e353f	-0.038625
234	0xbd9e7fc6	-0.077392146
235	0x3c2ac1e1	0.010422201
236	0x3b448672	0.0029987362
237	0x3d580e9a	0.0527483
238	0x3e066f51	0.13128401
239	0x3ad7b4b2	0.001645705
240	0xbd02596e	-0.031823568
241	0xbc718ea2	-0.014743479
242	0xbd03bc2a	-0.03216187
243	0xbc216ae9	-0.0098521495
244	0x3b1ada44	0.0023628632
245	0x3cb381e4	0.021912523
246	0x3dda9bee	0.106742725
247	0xbd05785a	-0.03258548
248	0x3b175685	0.002309234
249	0xbcb59b0e	-0.022168662
250	0x3c90db1a	0.0176826
251	0x3ca9d612	0.02073196
252	0x3d06d8b5	0.03292151
253	0x3caf4988	0.021397367
254	0x3c45cada	0.012072289
255	0x3c852bf4	0.01625631

action_model._continuous_distribution.mu.bias f4 [3]
0	0xbc4c33d5	-0.01246353
1	0xbd079ee0	-0.0331105
2	0xbc162998	-0.00916519

action_model._discrete_distribution.branches.0.weight f4 [2, 128]
0	0xbc65bc32	-0.01402192
1	0x3b889889	0.004168574
2	0x3c16a727	0.009195126
3	0xbd4f8c4c	-0.050670907
4	0x3c7848fb	0.015154119
5	0xbcb64c63	-0.02225322
6	0x3b416b05	0.0029513252
7	0xba2ba2d8	-0.0006547398
8	0xbc7b9c88	-0.015357144
9	0x3b160a58	0.002289435
10	0xbbab089f	-0.0052195336
11	0xbc852300	-0.01625204
12	0xbca3b68f	-0.019984512
13	0x3a13e402	0.0005641581
14	0x3c7d6dba	0.015468055
15	0xbbe17b49	-0.006881152
16	0xbc6d5b10	-0.014487043
17	0xbc7dfc7f	-0.015502094
18	0xbc998f77	-0.018745167
19	0x3c3f4c13	0.011675852
20	0x3c2e2e16	0.010631105
21	0xbc58fdbe	-0.013244091
22	0x3ae776cd	0.0017659307
23	0x3b370389	0.002792569
24	0x3c08965d	0.008336631
25	0xbccc9034	-0.024971105
26	0x3a59a688	0.0008302708
27	0x3d1f22a0	0.03885138
28	0xbd001fc3	-0.03128029
29	0xbce0213a	-0.027359594
30	0xbc346f93	-0.0110129295
31	0x3c907376	0.017633181
32	0x3c5a41bc	0.013321336
33	0xbc45985c	-0.012060251
34	0xbc67e7c7	-0.014154381
35	0x3c1a63e8	0.009423234
36	0x3d1978d6	0.037468754
37	0xbbbc4f5e	-0.005746766
38	0xbc2d3382	-0.010571362
39	0x3c3d3314	0.0115478225
40	0xbccf8032	-0.025329683
41	0xba38fcf7	-0.00070567377
42	0xbb9fd86c	-0.0048780944
43	0xbb9c6adc	-0.004773481
44	0x3c7cfa4f	0.015440538
45	0xbc85eb9d	-0.0163477
46	0x3c0273bd	0.0079621645
47	0x3c84d76e	0.016216006
48	0xbbd16118	-0.0063897483
49	0xbc6f01af	-0.014587804
50	0xbc63a56f	-0.013894423
51	0xbbd81ea3	-0.006595449
52	0xb8bab7d0	-8.903409e-05
53	0xbbf93c96	-0.0076060994
54	0x3cbef035	0.023307899
55	0x3c8593c7	0.016305817
56	0x3bf4ad59	0.0074669537
57	0x3c030fc7	0.007999367
58	0xbc296e8f	-0.010341301
59	0x3c3e6590	0.011620894
60	0xbd34a024	-0.044098035
61	0xbc52c14a	-0.0128634665
62	0xbb334c9f	-0.0027358902
63	0x3c6f3292	0.014599459
64	0x3b93e971	0.0045139124
65	0x39dc79e3	0.00042052483
66	0x3cc4334e	0.023950245
67	0xbc6f12d8	-0.014591895
68	0x3c12b6ab	0.008954684
69	0x3b9eca88	0.004845921
70	0xbaf4a0be	-0.0018663628
71	0xbba04c1c	-0.0048918854
72	0x3ae44915	0.00174168
73	0xbc902928	-0.01759775
74	0xbac067fc	-0.0014679427
75	0x3b8a73e5	0.0042252415
76	0xbbc468e4	-0.0059939492
77	0xbc1a9b3b	-0.009436424
78	0xbb61a567	-0.0034430863
79	0x3c1f4ffa	0.009723658
80	0xbcb6a15b	-0.022293737
81	0x3d0d85a1	0.034551267
82	0x3a484a27	0.0007640444
83	0xbb7596c7	-0.0037473904
84	0xbc937138	-0.017998323
85	0xbc6bb1a0	-0.014385611
86	0xbc297b72	-0.010344373
87	0xbc088757	-0.008333049
88	0x3c751195	0.014957805
89	0x3c913b23	0.017728394
90	0xbc82d555	-0.015970865
91	0x3c38c6e9	0.011277893
92	0xbca837c2	-0.0205344
93	0xbce3bbc4	-0.027799495
94	0xbce9aa31	-0.028523536
95	0x3c68f5be	0.014218746
96	0xbcdae36c	-0.026719771
97	0x3c622f71	0.013805256
98	0x3c402364	0.011727188
99	0x3c875b44	0.016523011
100	0xba7091db	-0.00091770076
101	0xbcd6a85f	-0.026203332
102	0x3c002c6f	0.007823094
103	0x3baadc92	0.0052142823
104	0x3ca575fa	0.020197857
105	0x3c5b3d9b	0.013381387
106	0x3d08c179	0.033387635
107	0xbc83dcfa	-0.01609658
108	0x3a259218	0.000631602
109	0xbbb7e5ed	-0.005612126
110	0x3c92c8d5	0.01791803
111	0x3abb01e1	0.0014267528
112	0xbd38b2d1	-0.045092408
113	0x3d043525	0.032277245
114	0xbd115527	-0.0354816
115	0x3c23a2a9	0.009987512
116	0x3b02cf04	0.0019959817
117	0x3c8a249b	0.016863158
118	0xbcd425fe	-0.025897022
119	0x3c2ab816	0.010419866
120	0xbc5eb9c2	-0.013594093
121	0xbb8e1b09	-0.004336719
122	0xbc37448b	-0.0111857755
123	0xbc82a393	-0.015947139
124	0xbbaea5e8	-0.005329836
125	0xbb27763b	-0.0025552649
126	0xbbc4e45a	-0.006008667
127	0xbd0d8fc5	-0.034560937
128	0x3c925746	0.01786388
129	0x3c3b51a8	0.011433043
130	0xbb8a6d21	-0.004224435
131	0x3d5efa93	0.054438185
132	0xbbb043c1	-0.0053791706
133	0x3c8e979d	0.01740628
134	0x3bd63870	0.0065374896
135	0xbbaf568b	-0.005350893
136	0x3c966d50	0.018362671
137	0x3bd9b591	0.006643959
138	0x3c5b23b2	0.01337521
139	0x3c7138d6	0.014723023
140	0xba79f50e	-0.0009535112
141	0xbc5d14d4	-0.013493735
142	0xbc561dbd	-0.013068614
143	0x3cf9ba5f	0.030484376
144	0x3ca32c90	0.01991871
145	0xbb741cb5	-0.0037248556
146	0x3b876d62	0.0041329125
147	0x3b50ad1a	0.0031841458
148	0x3c765c44	0.015036646
149	0x3c1b9d16	0.009497901
150	0x39c5bf40	0.0003771726
151	0xbb94ccd3	-0.0045410185
152	0x3bfd6e22	0.007734076
153	0x3cd0e968	0.025501922
154	0x3ae5526e	0.001749588
155	0xbcbf38e3	-0.023342555
156	0x3cd5cda4	0.026099034
157	0x3d109c7d	0.03530549
158	0x3c60c3da	0.01371857
159	0x3ae4d73a	0.0017459162
160	0x3c82d309	0.01596977
161	0xbc10e29f	-0.008843093
162	0x3ca4a31f	0.020097313
163	0xbb0c7c74	-0.0021436485
164	0xbcdde4cd	-0.02708664
165	0xba1606a4	-0.00057230354
166	0x3c74e8fb	0.014948125
167	0xbc0a95b3	-0.008458543
168	0x3c4b7a34	0.012419272
169	0xbbb85fe7	-0.005626667
170	0x394ef7d1	0.0001973801
171	0x3a700051	0.00091553206
172	0xbca854bb	-0.020548215
173	0x3c40c2f8	0.011765234
174	0xbc3a122a	-0.01135687
175	0x3b65ac50	0.0035045333
176	0x3c2a5804	0.010396961
177	0xbb8dda8b	-0.004329031
178	0x3b99ea4f	0.004697121
179	0x3af17995	0.0018423075
180	0xbbf719b9	-0.007540908
181	0x3c4b5f5e	0.012412874
182	0xbcc6cd01	-0.024267675
183	0xbbb0cab8	-0.0053952597
184	0xbc01cd7a	-0.007922525
185	0x3a16ab07	0.0005747531
186	0x3c323161	0.010876031
187	0xbcfc39c2	-0.03078926
188	0x3d2574e5	0.040394682
189	0x3c42270c	0.01185013
190	0xbc1bf777	-0.009519449
191	0xbc989d3f	-0.018629668
192	0xbc3ae49a	-0.011407042
193	0x3cd881a8	0.026429012
194	0xbcd73faa	-0.026275475
195	0x39fde178	0.00048423908
196	0xbc9ece9b	-0.019385627
197	0x3c35b1db	0.011089767
198	0xbb917431	-0.0044389
199	0x3cf47b7e	0.029844042
200	0xbc8cd2c1	-0.017190339
201	0x3c8ee70f	0.017444162
202	0xbb97239b	-0.004612399
203	0xbbd143e7	-0.0063862684
204	0x3b113074	0.0022154124
205	0x3cbc88cb	0.023014447
206	0x3af2f522	0.001853619
207	0xbbc8f2ca	-0.0061324583
208	0x3c0799ad	0.008276385
209	0xbc6c2220	-0.014412433
210	0xbcbebe07	-0.023283971
211	0x3bebbb74	0.007193977
212	0x3c8b3410	0.016992599
213	0xbadcf4d2	-0.001685763
214	0xbc237edd	-0.009978977
215	0x3c2b7a30	0.0104661435
216	0xbcb2d4d9	-0.02183001
217	0xbcaf9b08	-0.02143623
218	0xbb708ea4	-0.0036706114
219	0xbbf9a369	-0.007618357
220	0xbb8e002e	-0.0043335175
221	0x3d069939	0.03286097
222	0x3d142dfb	0.036176663
223	0xb9895a97	-0.0002619817
224	0x3c285abc	0.010275539
225	0xbb61ebaf	-0.0034472754
226	0xbc9e09d7	-0.019291801
227	0xbc013baa	-0.00788776
228	0x3c28c6cd	0.010301304
229	0x3c2f7652	0.010709362
230	0xbc0568a6	-0.008142626
231	0x3a82a661	0.0009967798
232	0xbc510db7	-0.0127596175
233	0xbccdba76	-0.025113326
234	0xbd145a1a	-0.03621874
235	0x3c4b02e3	0.012390825
236	0xbc8c4d03	-0.017126566
237	0x3b8ae3ba	0.004238573
238	0xbc0da199	-0.008644485
239	0xbb0b89c7	-0.0021291838
240	0x3d0456e4	0.032309428
241	0xbcae8a78	-0.021306261
242	0x3cc42122	0.02394158
243	0xbc77dd03	-0.015128377
244	0xbbf9e5ac	-0.007626256
245	0x3bf22f92	0.0073909247
246	0x3cc6d937	0.024273498
247	0xbc534fb4	-0.012897421
248	0x3bc1f1d8	0.0059187226
249	0xbc39611e	-0.011314658
250	0x3c811b76	0.015760165
251	0x3cb3bd21	0.02194077
252	0xbad25f11	-0.001605006
253	0x3b684f19	0.0035447537
254	0xb9b97547	-0.00035373328
255	0x3a6ecf28	0.0009109848

action_model._discrete_distribution.branches.0.bias f4 [2]
0	0x3c38e3e4	0.011284802
1	0xbc38e3e8	-0.011284806

exp_avg f4 [128, 47]
0	0x36d4e269	6.34445e-06
1	0x375ca51d	1.3151465e-05
2	0xb7653f26	-1.36641665e-05
3	0x3764879b	1.3621432e-05
4	0x37714d8e	1.43827765e-05
5	0x37b3a6e9	2.1416186e-05
6	0xb724383b	-9.788254e-06
7	0x34619328	2.1008293e-07
8	0x3711bff2	8.687364e-06
9	0x372928b5	1.0082663e-05
10	0x3708c5fa	8.152327e-06
11	0x372c5c99	1.02735585e-05
12	0x36af84c9	5.2308646e-06
13	0xb694dce2	-4.436458e-06
14	0xb675fb7e	-3.6654233e-06
15	0x375fe37f	1.3344804e-05
16	0xb7838901	-1.5680214e-05
17	0x365830c4	3.2214894e-06
18	0x37bd5079	2.2568029e-05
19	0x37d49250	2.5340501e-05
20	0x369faa04	4.7583617e-06
21	0x3746d086	1.185027e-05
22	0x374b48cf	1.2116695e-05
23	0xb6bca79d	-5.6223494e-06
24	0xb682952a	-3.891667e-06
25	0xb6db3062	-6.532341e-06
26	0x37de8c23	2.6529719e-05
27	0xb738a28e	-1.1005102e-05
28	0x37588677	1.2905911e-05
29	0x37b2b7f4	2.1304913e-05
30	0xb6db3062	-6.532341e-06
31	0x37de8c23	2.6529719e-05
32	0xb738a28e	-1.1005102e-05
33	0x37588677	1.2905911e-05
34	0x37b2b7f4	2.1304913e-05
35	0x3a37685d	0.00069964473
36	0x3703453e	7.82433e-06
37	0xb9bfe5e0	-0.0003660163
38	0xb78243f6	-1.5528854e-05
39	0xb62ca92f	-2.5728475e-06
40	0x373f6189	1.1407196e-05
41	0xb68d5347	-4.211822e-06
42	0x37326149	1.0632278e-05
43	0xb602ecad	-1.9509273e-06
44	0x370cafd3	8.3855875e-06
45	0x3401ae42	1.2077456e-07
46	0xb7c0b678	-2.2973152e-05
47	0x378c356b	1.6714175e-05
48	0xb7eef006	-2.848358e-05
49	0x373d6bfb	1.1290419e-05
50	0xb6be3b10	-5.669317e-06
51	0xb7553194	-1.2707333e-05
52	0xb6da8355	-6.5121953e-06
53	0xb7693bfa	-1.3901847e-05
54	0xb79f170e	-1.8965013e-05
55	0x3803a6a6	3.1388037e-05
56	0x37d27a09	2.5090778e-05
57	0x37b7512e	2.1853102e-05
58	0x377b2406	1.4969153e-05
59	0xb752f335	-1.2573601e-05
60	0xb8039ba4	-3.1377785e-05
61	0xb7f5c6b1	-2.9298799e-05
62	0xb820c1a3	-3.832731e-05
63	0xb703c808	-7.854782e-06
64	0x384999d0	4.8065383e-05
65	0xb6ffa620	-7.6189317e-06
66	0x37aa165e	2.0275995e-05
67	0x371212dc	8.706669e-06
68	0xb7ded7a8	-2.6564885e-05
69	0x3644ffae	2.93551e-06
70	0x3717a2ba	9.038189e-06
71	0xb4e716e4	-4.3043758e-07
72	0x379b1540	1.8487335e-05
73	0xb8142943	-3.5324378e-05
74	0x368350f0	3.9135266e-06
75	0x3702fcf8	7.807503e-06
76	0x3569d550	8.7109674e-07
77	0x379b1540	1.8487335e-05
78	0xb8142943	-3.5324378e-05
79	0x368350f0	3.9135266e-06
80	0x3702fcf8	7.807503e-06
81	0x3569d510	8.710931e-07
82	0x383c40f8	4.48832e-05
83	0xb74411b3	-1.1686631e-05
84	0xb9d32c41	-0.00040278028
85	0xb50aa6d0	-5.165175e-07
86	0xb614ba1e	-2.2162053e-06
87	0x36f48be2	7.288051e-06
88	0xb658bb3e	-3.2295497e-06
89	0x367b3688	3.7433656e-06
90	0x3788d540	1.6311766e-05
91	0x369a9cfa	4.607832e-06
92	0x350968ca	5.1188965e-07
93	0xb6c158ed	-5.7622005e-06
94	0xb78dc695	-1.6900982e-05
95	0xb66318d9	-3.38401e-06
96	0xb6f65420	-7.3411647e-06
97	0x380c052b	3.3383414e-05
98	0x37ef2e7a	2.8512663e-05
99	0x3805d71f	3.1910018e-05
100	0xb78ab63c	-1.6535741e-05
101	0xb836d7fa	-4.3593325e-05
102	0x380a0668	3.290773e-05
103	0x37947ead	1.7701963e-05
104	0x369387b2	4.3967384e-06
105	0x36fea96c	7.589513e-06
106	0x378d0cdd	1.68145e-05
107	0xb7f4aeb2	-2.9168415e-05
108	0xb7575e8a	-1.283701e-05
109	0x37348f7e	1.0762245e-05
110	0xb7ab7e64	-2.0443644e-05
111	0x37ae1f23	2.0756916e-05
112	0xb4b377bc	-3.3428466e-07
113	0x3752c0ba	1.2561848e-05
114	0xb7357c42	-1.0817372e-05
115	0x371164f8	8.666182e-06
116	0xb45db3c0	-2.0647622e-07
117	0x35b1e1d4	1.3253252e-06
118	0xb71ead72	-9.457917e-06
119	0x37bc005e	2.2411517e-05
120	0x3798032f	1.8121294e-05
121	0xb6ce9348	-6.156424e-06
122	0xb7fea1f8	-3.0354582e-05
123	0xb7a5a770	-1.9747502e-05
124	0x37bc005e	2.2411517e-05
125	0x3798032f	1.8121294e-05
126	0xb6ce9348	-6.156424e-06
127	0xb7fea1f8	-3.0354582e-05
128	0xb7a5a770	-1.9747502e-05
129	0x3abec626	0.0014554902
130	0xb79b245e	-1.8494375e-05
131	0x387c7820	6.0193357e-05
132	0xb4383a00	-1.7157436e-07
133	0xb712e900	-8.756528e-06
134	0xb8050168	-3.171098e-05
135	0x355127b8	7.7916366e-07
136	0xb7115451	-8.662305e-06
137	0xb82eb491	-4.1653e-05
138	0xb5fd5f60	-1.8877727e-06
139	0xb5fc6255	-1.8804081e-06
140	0xb83f698e	-4.5636254e-05
141	0x38896b19	6.5526176e-05
142	0x37aa7224	2.031873e-05
143	0xb79a6581	-1.8405497e-05
144	0x38847f3d	6.3179505e-05
145	0x38bc9490	8.9922105e-05
146	0x39011af3	0.00012312438
147	0x379fb886	1.9040202e-05
148	0x3777dc88	1.4773694e-05
149	0xb7d956ec	-2.5908892e-05
150	0x3727f477	1.0010895e-05
151	0x37cfbb3e	2.4763514e-05
152	0x374fb31f	1.2379866e-05
153	0x37c63233	2.3626815e-05
154	0x388adf81	6.6219836e-05
155	0x38b71563	8.7301036e-05
156	0x38ca480b	9.64553e-05
157	0x37c65b56	2.3645971e-05
158	0x37dbc3a6	2.619794e-05
159	0xb7b38062	-2.1398246e-05
160	0x31e62000	6.697519e-09
161	0x37a4a06e	1.962503e-05
162	0x37603078	1.3362725e-05
163	0x38c2074c	9.252e-05
164	0x36ebe177	7.0297933e-06
165	0x387a39e2	5.9658552e-05
166	0x37c7ff18	2.3841436e-05
167	0x388f4a64	6.832628e-05
168	0x3738d898	1.1017684e-05
169	0x37e3436b	2.7091903e-05
170	0x383d8bc1	4.5191267e-05
171	0x37c7ff18	2.3841436e-05
172	0x388f4a64	6.832628e-05
173	0x3738d898	1.1017684e-05
174	0x37e3436b	2.7091903e-05
175	0x383d8bbf	4.519126e-05
176	0xba5e585c	-0.00084817945
177	0x38ce00b9	9.82298e-05
178	0xbb452de4	-0.0030087167
179	0xb83fcaa8	-4.5726687e-05
180	0xb7d2aa95	-2.5113384e-05
181	0x38337ff0	4.2796077e-05
182	0xb7b424d0	-2.1474814e-05
183	0xb709dbec	-8.217041e-06
184	0x37b90ee8	2.206066e-05
185	0xb88ea348	-6.801501e-05
186	0x35d1d20e	1.5632847e-06
187	0xb8cd287a	-9.782701e-05
188	0xb85e408a	-5.298903e-05
189	0x388499f4	6.3229265e-05
190	0xb8634038	-5.4180826e-05
191	0xb70d0a93	-8.406717e-06
192	0xb7d31977	-2.5165018e-05
193	0xb8d23771	-0.00010023907
194	0x38babd5a	8.9044406e-05
195	0x35ec9ef8	1.7629636e-06
196	0xb840e085	-4.5985467e-05
197	0xb87f7e27	-6.0914226e-05
198	0xb789e270	-1.6437116e-05
199	0xb6cc3434	-6.085751e-06
200	0xb501a4f0	-4.829626e-07
201	0xb78ba047	-1.6644726e-05
202	0xb7c7a689	-2.3800198e-05
203	0x383a37a1	4.4397664e-05
204	0xb8041983	-3.1495012e-05
205	0xb8c84810	-9.550166e-05
206	0x378dc120	1.689844e-05
207	0xb8156cd2	-3.5625715e-05
208	0xb693bec5	-4.40315e-06
209	0x3782cfe5	1.5594016e-05
210	0xb7ad8021	-2.0682872e-05
211	0xb803e03f	-3.144168e-05
212	0xb81d10ce	-3.7447368e-05
213	0xb7c21784	-2.3137552e-05
214	0xb808dde7	-3.263159e-05
215	0xb7a8c639	-2.0119465e-05
216	0x37b296f6	2.128955e-05
217	0x379aa28b	1.843392e-05
218	0xb7c21784	-2.3137552e-05
219	0xb808dde7	-3.263159e-05
220	0xb7a8c639	-2.0119465e-05
221	0x37b296f6	2.128955e-05
222	0x379aa294	1.8433937e-05
223	0xbb217bbe	-0.0024640406
224	0xb782303c	-1.5519669e-05
225	0xbaa3e85a	-0.0012505159
226	0xb914c732	-0.00014188586
227	0x37fe2f13	3.030108e-05
228	0x392c06fc	0.000164058
229	0xb81cfb86	-3.7427548e-05
230	0x37bebb84	2.2737084e-05
231	0xb829c771	-4.0478484e-05
232	0xb8e18214	-0.00010753065
233	0x3569b6a7	8.706506e-07
234	0xb8b7c58e	-8.7629174e-05
235	0xb774dd36	-1.4595038e-05
236	0xb8251ff8	-3.936884e-05
237	0x3787ef28	1.620462e-05
238	0xb8280fab	-4.0068913e-05
239	0xb8578fab	-5.1393796e-05
240	0xb8991baf	-7.300765e-05
241	0xb7c947ea	-2.3994555e-05
242	0x37d17930	2.4971174e-05
243	0xb6d1f19c	-6.2568124e-06
244	0xb6a96631	-5.048489e-06
245	0xb7d34564	-2.5185473e-05
246	0xb782a949	-1.5576037e-05
247	0xb7a29ea4	-1.9385778e-05
248	0xb7db3b57	-2.6134467e-05
249	0xb81a2049	-3.674653e-05
250	0xb876d734	-5.8851394e-05
251	0xb74d6ecc	-1.2244749e-05
252	0x3651e392	3.127589e-06
253	0xb77a7c9e	-1.4930176e-05
254	0xb75dc19f	-1.3217707e-05
255	0x3692079a	4.352024e-06

exp_avg_sq f4 [128, 47]
0	0x31d7e3d6	6.2832255e-09
1	0x312ddbbe	2.5299722e-09
2	0x31a26188	4.7259086e-09
3	0x313a2815	2.7089346e-09
4	0x31b7f4cd	5.3538316e-09
5	0x31f51dcc	7.133826e-09
6	0x3121f9e6	2.3570634e-09
7	0x3174a1ab	3.559857e-09
8	0x3151fcc9	3.0557195e-09
9	0x31b4cbca	5.2618576e-09
10	0x31f32e07	7.0774635e-09
11	0x311beb97	2.2689386e-09
12	0x318ec6d4	4.155348e-09
13	0x3149c494	2.9361091e-09
14	0x31b9793e	5.3979923e-09
15	0x3202cc20	7.613409e-09
16	0x312a1e64	2.475553e-09
17	0x317dba74	3.6922332e-09
18	0x31356d60	2.640114e-09
19	0x31aa4265	4.9551994e-09
20	0x32086628	7.9394695e-09
21	0x30f51cf1	1.7834322e-09
22	0x3179c6d9	3.63473e-09
23	0x317fb19d	3.7208345e-09
24	0x31d6e4c9	6.2542296e-09
25	0x320dfaee	8.264335e-09
26	0x311b0ac2	2.2561584e-09
27	0x314b5200	2.9587e-09
28	0x314915b1	2.926168e-09
29	0x31b75389	5.335498e-09
30	0x320dfaee	8.264335e-09
31	0x311b0ac2	2.2561584e-09
32	0x314b5200	2.9587e-09
33	0x314915b1	2.926168e-09
34	0x31b75389	5.335498e-09
35	0x37267232	9.920959e-06
36	0x322392ea	9.521253e-09
37	0x36b548e1	5.4027046e-06
38	0x31f73d5c	7.195622e-09
39	0x30805b6c	9.339209e-10
40	0x31e94d6a	6.7899935e-09
41	0x3164cd55	3.3295084e-09
42	0x31ff197f	7.4243753e-09
43	0x31781180	3.6098697e-09
44	0x324769db	1.1607393e-08
45	0x2f42c14f	1.7712874e-10
46	0x321f184d	9.260543e-09
47	0x321548d2	8.689499e-09
48	0x3192e71e	4.2754342e-09
49	0x3146d061	2.8931242e-09
50	0x312ab01d	2.4838365e-09
51	0x319746b4	4.4027164e-09
52	0x31e76695	6.734647e-09
53	0x318cd264	4.098455e-09
54	0x317f3094	3.7134997e-09
55	0x313fa9ca	2.7890672e-09
56	0x31a46cb0	4.7853845e-09
57	0x3214dbdd	8.664725e-09
58	0x318c0cc5	4.075988e-09
59	0x314ad859	2.9517848e-09
60	0x313a4caf	2.7110152e-09
61	0x3196cc9c	4.388836e-09
62	0x31dcbcb9	6.424298e-09
63	0x31827e3f	3.7978505e-09
64	0x319351b6	4.2875525e-09
65	0x31771707	3.595632e-09
66	0x31d0b854	6.0745524e-09
67	0x320740ab	7.872738e-09
68	0x31887d04	3.9723336e-09
69	0x315857f5	3.1482135e-09
70	0x314ce9b7	2.9818759e-09
71	0x31ae60d6	5.0750755e-09
72	0x31e97479	6.794434e-09
73	0x317b1dff	3.6542358e-09
74	0x3182ee80	3.8106123e-09
75	0x317b3d1a	3.656004e-09
76	0x31d37b64	6.154936e-09
77	0x31e97479	6.794434e-09
78	0x317b1dff	3.6542358e-09
79	0x3182ee80	3.8106123e-09
80	0x317b3d1a	3.656004e-09
81	0x31d37b66	6.154937e-09
82	0x376abfa7	1.3992109e-05
83	0x3228b5d4	9.82023e-09
84	0x37441bd0	1.1688986e-05
85	0x321c1b17	9.086555e-09
86	0x3114011f	2.1537472e-09
87	0x31bfc0b9	5.5807416e-09
88	0x3199ec57	4.479755e-09
89	0x3224299d	9.555518e-09
90	0x31331a74	2.6062965e-09
91	0x322ee104	1.0179296e-08
92	0x2ea59151	7.529145e-11
93	0x3255eb17	1.2451685e-08
94	0x32bf7982	2.2290582e-08
95	0x3205c995	7.787453e-09
96	0x32201da8	9.319969e-09
97	0x31fa6537	7.2874644e-09
98	0x3278d54a	1.4483996e-08
99	0x32b2a3d1	2.0796422e-08
100	0x31fdc167	7.3852564e-09
101	0x32352e38	1.05460956e-08
102	0x32045c42	7.704388e-09
103	0x328131dc	1.504025e-08
104	0x32c75925	2.3207187e-08
105	0x31db9cfa	6.391585e-09
106	0x322c45f9	1.0027628e-08
107	0x31fedc75	7.417436e-09
108	0x3272dc8b	1.41364e-08
109	0x32a5185a	1.9219602e-08
110	0x31f3f877	7.100478e-09
111	0x323c1339	1.0947411e-08
112	0x320ee540	8.317613e-09
113	0x3288fb19	1.594667e-08
114	0x32ba25aa	2.1670377e-08
115	0x31e25f47	6.5882975e-09
116	0x322d6eab	1.0095088e-08
117	0x321c619e	9.102591e-09
118	0x328c42c3	1.6328505e-08
119	0x32a9b1a4	1.9754971e-08
120	0x3205dec3	7.792269e-09
121	0x32300a2f	1.0246864e-08
122	0x32266035	9.684347e-09
123	0x3294c221	1.7317747e-08
124	0x32a9b1a4	1.9754971e-08
125	0x3205dec3	7.792269e-09
126	0x32300a2f	1.0246864e-08
127	0x32266035	9.684347e-09
128	0x3294c220	1.7317745e-08
129	0x381a7e42	3.6834048e-05
130	0x32fc1b1b	2.9348987e-08
131	0x3782f841	1.561281e-05
132	0x32b85e35	2.146326e-08
133	0x315dd869	3.2282748e-09
134	0x328d9b02	1.648505e-08
135	0x322adeba	9.9459445e-09
136	0x32b39588	2.0906342e-08
137	0x32069593	7.833836e-09
138	0x33203568	3.7301476e-08
139	0x2fbcc427	3.4336375e-10
140	0x32c6e06b	2.3152287e-08
141	0x32ec58e6	2.7514442e-08
142	0x31ff8ca0	7.437464e-09
143	0x326fa5ee	1.3949359e-08
144	0x32262a2a	9.672059e-09
145	0x32adc6a3	2.023018e-08
146	0x32ea5b11	2.7282598e-08
147	0x31ebdca1	6.8644828e-09
148	0x3282974a	1.520279e-08
149	0x32200812	9.315061e-09
150	0x32a7ac15	1.9519613e-08
151	0x32f71805	2.8765507e-08
152	0x31db061d	6.374434e-09
153	0x3260b62e	1.3079939e-08
154	0x321c27c9	9.089441e-09
155	0x32a92443	1.969068e-08
156	0x32e4924b	2.660922e-08
157	0x31dc91da	6.419424e-09
158	0x3281d1fd	1.5113068e-08
159	0x3225bee7	9.64767e-09
160	0x32ae08c9	2.0260261e-08
161	0x32f54989	2.8555194e-08
162	0x31f50b56	7.131727e-09
163	0x32799f73	1.4529962e-08
164	0x321511d1	8.6769925e-09
165	0x32a2c8f0	1.8950658e-08
166	0x32e3cbbb	2.6518924e-08
167	0x31f2dd1b	7.0682638e-09
168	0x325f9175	1.30133815e-08
169	0x322e8137	1.0157513e-08
170	0x32ade72a	2.0244972e-08
171	0x32e3cbbb	2.6518924e-08
172	0x31f2dd1b	7.0682638e-09
173	0x325f9175	1.30133815e-08
174	0x322e8137	1.0157513e-08
175	0x32ade728	2.0244968e-08
176	0x37d6aab6	2.5590281e-05
177	0x331ff9bb	3.72472e-08
178	0x3884ebae	6.338149e-05
179	0x32c58246	2.299306e-08
180	0x30ee9520	1.7359163e-09
181	0x32b86c1b	2.146958e-08
182	0x322f9c5f	1.0221895e-08
183	0x32db27c4	2.5513039e-08
184	0x322ec53a	1.0172977e-08
185	0x32afa785	2.044886e-08
186	0x2f3ae129	1.6996594e-10
187	0x338336de	6.110143e-08
188	0x33ec47dc	1.10026775e-07
189	0x3385ffe1	6.239839e-08
190	0x3354c8ae	4.9542614e-08
191	0x3333c9ab	4.18601e-08
192	0x33a0ddcf	7.490927e-08
193	0x33d9986a	1.0132574e-07
194	0x338b9737	6.500198e-08
195	0x33747368	5.691564e-08
196	0x33321d38	4.147043e-08
197	0x33a616b8	7.73411e-08
198	0x33f9e59d	1.16367325e-07
199	0x3384207f	6.15264e-08
200	0x33587eb8	5.040667e-08
201	0x3322238e	3.77509e-08
202	0x339f67f2	7.422922e-08
203	0x33ecec65	1.1032606e-07
204	0x3386ff88	6.286342e-08
205	0x334eaebe	4.812204e-08
206	0x334c1030	4.7512174e-08
207	0x33b5cab6	8.465342e-08
208	0x3402c9b2	1.218057e-07
209	0x336f61a7	5.5735338e-08
210	0x3346431f	4.6161514e-08
211	0x331d06a1	3.656044e-08
212	0x33984f24	7.092447e-08
213	0x33eca8fe	1.1020346e-07
214	0x33768d4d	5.740485e-08
215	0x3351bf5e	4.8835652e-08
216	0x3335d758	4.23382e-08
217	0x33afca2c	8.1858474e-08
218	0x33eca8fe	1.1020346e-07
219	0x33768d4d	5.740485e-08
220	0x3351bf5e	4.8835652e-08
221	0x3335d758	4.23382e-08
222	0x33afca2a	8.185846e-08
223	0x393f3e68	0.00018238428
224	0x3445331f	1.8365652e-07
225	0x39c291ab	0.00037111095
226	0x33fed0ae	1.1865755e-07
227	0x32cf023e	2.4098991e-08
228	0x338e9074	6.638666e-08
229	0x3358cab7	5.0475787e-08
230	0x33e91a4a	1.085469e-07
231	0x330a0fbd	3.2144943e-08
232	0x3438d477	1.721363e-07
233	0x3106893a	1.957757e-09
234	0x346c3843	2.199968e-07
235	0x32bc7a72	2.1941762e-08
236	0x318b8f2b	4.0617087e-09
237	0x32647c31	1.32995845e-08
238	0x321d611d	9.160684e-09
239	0x3297f0ea	1.7688269e-08
240	0x32bab2be	2.1734532e-08
241	0x31bb4766	5.4505334e-09
242	0x3255f825	1.2454653e-08
243	0x321e18e6	9.202472e-09
244	0x329370f2	1.7164414e-08
245	0x32ca3031	2.353781e-08
246	0x3191d80d	4.2446175e-09
247	0x3244cf42	1.14558265e-08
248	0x3201e38a	7.560525e-09
249	0x32889741	1.5901266e-08
250	0x32c11c5f	2.2481059e-08
251	0x31a9b03c	4.938583e-09
252	0x3267e401	1.3497812e-08
253	0x31e721e2	6.726837e-09
254	0x32836d89	1.5300218e-08
255	0x32dce23f	2.5714256e-08
