Assets/Learning/AIRollABall/results/TestParameters/AIRollABall/AIRollABall-7499958.onnx (onnx, 100320 bytes, 9 tensors)

network_body._body_endoder.seq_layers.0.weight f4 [128, 47]
000000 53 c1 43 3e a6 16 d8 3e 29 34 2d 3d 69 a9 70 3c
       0.19116716 0.4220478 0.042286072 0.014688828
000010 79 b3 d0 3c 3b 52 b1 3e e0 cb d9 3c 4c 70 f0 3d
       0.025476204 0.3463305 0.026586473 0.11740169
000020 02 c8 72 bd 4b 15 af bd a5 06 49 3e 79 b2 0c 3e
       -0.059272774 -0.08548983 0.19631441 0.13739957
000030 a5 1f e1 3c 27 47 82 3e 93 48 74 3e 62 2d d2 3d
       0.02748091 0.2544491 0.2385581 0.10262562
000040 ab 44 7b 3e 16 94 94 3c 5e 82 8c bb 65 e7 9c bd
       0.24537914 0.01813702 -0.004288002 -0.076613225
000050 1d ed fd bd 6a 4f 2e be ef e3 c5 3d c5 c2 36 3d
       -0.123987414 -0.17022482 0.096626155 0.04461934
000060 ed c7 0b be 81 0b 75 3e 2d a6 83 3d 6b 86 e2 bd
       -0.13650484 0.2393017 0.0642818 -0.110607944
000070 7f 41 0d bd 4a 77 d6 3e e8 ff 93 3e a3 05 28 be
       -0.03448629 0.41887885 0.28906178 -0.164084
000080 08 b6 49 bc 12 4a 82 bb 6b 94 4a 3d 09 ae 45 3c
       -0.012311466 -0.003976115 0.04945795 0.012065419
000090 49 86 b4 3d 81 0e 98 bc 80 df 6b bd 27 ff 9d be
       0.08814675 -0.018561604 -0.057586193 -0.30858728
0000a0 8f be c7 3d 2b 91 79 3e 47 da 7b 3b 20 6b 91 be
       0.09753143 0.24371783 0.0038429664 -0.28402042
0000b0 18 c0 8a be 42 bf 04 3e 56 c5 0e 3f b1 c7 eb 3d
       -0.2709968 0.12963584 0.5576986 0.115126975
0000c0 90 be 1d bc c6 e3 ae bc 98 70 ef 3e d4 eb 07 3d
       -0.009627953 -0.021348845 0.4676559 0.033183888
0000d0 ae 83 7e bd e0 20 71 3c 6d 07 6d 3d f1 1d 93 bd
       -0.0621373 0.014717311 0.05786841 -0.07183445
0000e0 13 3c 8a be 00 bf 74 3d f0 c7 15 be b8 5a 84 3d
       -0.26998958 0.059752464 -0.14627051 0.06462616
0000f0 95 d3 46 3d e1 87 75 3e cb e5 4e 3e c4 76 0d 3e
       0.048541624 0.23977615 0.20204847 0.13814837
000100 17 38 3e be ac e2 3c be 62 7f 42 bc 2e 36 95 3d
       -0.18576084 -0.18445843 -0.011871191 0.072857246
000110 4b 1c cc 3d 30 f6 d2 3c de d7 bd 3d f2 ff ae bc
       0.09966334 0.025752157 0.09269689 -0.021362279
000120 71 fc 03 be 7a ce 31 bd 3b 65 5f be 2f b0 89 bb
       -0.12889268 -0.043409802 -0.2181596 -0.004201911
000130 9b c1 28 3d a5 db b5 3d 4d 29 30 3e 2d ef e6 3d
       0.04120026 0.088797845 0.17203255 0.11276088
000140 bf 6f 5b bd ad 2e 01 bd f4 62 48 be 6f 29 4c 3d
       -0.053573366 -0.031538654 -0.19568998 0.0498442
000150 1a cb 59 3d 0c ad b3 3d 07 5b 92 bb 7a b0 f9 ba
       0.05317221 0.087732404 -0.0044664177 -0.0019049786
000160 68 25 15 be 0a 8e 78 3d ce 2f 74 be 38 e9 04 be
       -0.1456505 0.060682334 -0.23846361 -0.12979591
000170 e3 db bf bd d8 ea c6 3e d4 4b e5 bd df d9 78 3e
       -0.09368112 0.38851047 -0.11196104 0.24301861
000180 00 47 3e 3e ed 65 47 3d 60 d3 39 3d 29 69 b6 3c
       0.18581772 0.04868119 0.0453676 0.022266941
000190 9a 69 02 be ef 26 3c 3e d8 46 b8 bc c2 78 3e 3d
       -0.12735596 0.18374227 -0.022494718 0.046501882
0001a0 17 60 73 bd 2d 84 aa 3b a6 f1 d8 3e fe ac 55 3d
       -0.05941781 0.005203745 0.42371863 0.05216693
0001b0 49 0c 8b be 87 52 17 be 23 64 02 be 6c a5 4c 3d
       -0.2715781 -0.14777575 -0.12733512 0.049962446
0001c0 e8 06 f8 3c 1d 32 5f bc 03 a5 cd 3b da 40 7a 3e
       0.03027673 -0.013622788 0.0062757744 0.24438801
0001d0 f8 d7 70 3e 35 8f 2d be e2 80 7b bd 31 f0 50 bd
       0.23519886 -0.1694916 -0.06140221 -0.051010314
0001e0 2c e3 b4 3d 31 de 7f be 56 8e d2 3d ee c0 85 3b
       0.08832392 -0.24987103 0.10281055 0.004081837
0001f0 88 9a 7c 3c 51 b3 92 bd 77 96 63 3c 62 af 21 be
       0.0154177025 -0.07163108 0.013890854 -0.1578956
000200 c3 17 ab 3d e0 15 54 be 5e 8f c9 3d 69 8f ec 3d
       0.083541416 -0.2071147 0.09841798 0.11550791
000210 e9 5b 1f 3d e9 87 88 bd 0a c9 0c 3e 54 aa 88 be
       0.03890601 -0.06666548 0.13748565 -0.2669245
000220 bc 39 37 3d 12 a7 76 3d a5 d2 eb 3e 0b 56 3b 3d
       0.044732794 0.060217924 0.46059147 0.045736354
000230 ad 2f b5 3e e4 3a 13 be 20 ca da be 46 0b 7c bd
       0.35387936 -0.14377934 -0.42732334 -0.06153419
000240 49 9a a0 3d 98 a7 b6 3c a8 b8 0b be f0 41 72 3d
       0.078419276 0.022296712 -0.1364466 0.059144914
000250 da 21 29 bd 33 f2 62 3c ba c0 16 be d0 18 14 be
       -0.04129205 0.01385169 -0.14721957 -0.1446259
000260 1f 83 71 3e 09 7d 50 3e a4 9d 1e be b1 3b 90 3d
       0.23585175 0.20360197 -0.15489823 0.07042635
000270 3a 80 40 3c d6 3c 84 3d d1 75 1d be d8 9c 74 bd
       0.011749322 0.06456916 -0.15376975 -0.05971989
000280 1b ae 6d be bb 57 2a bb 46 28 27 3e 5b 6e 9d 3c
       -0.23210947 -0.0025992233 0.16323957 0.01921766
000290 23 10 13 be 14 52 90 be d3 a0 b3 bd 49 5c 08 3e
       -0.14361624 -0.2818762 -0.08770909 0.13316454
0002a0 be 14 36 bd eb 84 20 bd f2 fe 90 3e cb ec 01 be
       -0.044453375 -0.03918926 0.28319508 -0.12687986
0002b0 b1 92 23 bd c4 c2 54 3d 93 ac 3f 3d 1e dc 83 be
       -0.039934818 0.051943555 0.04679544 -0.25753874
0002c0 4b 73 8f bd 73 d1 67 bc 5f e1 c8 3d fe a6 a4 3b
       -0.07004412 -0.014149058 0.09808611 0.00502479
0002d0 4d 25 8f 3c 25 a6 3c 3e 68 3d e0 3c c9 94 22 3c
       0.017473841 0.18422754 0.02737303 0.009923168
0002e0 61 ea f4 3d 4d e0 a3 bd 96 41 ac 3e a3 8a ee 3d
       0.11958767 -0.08001766 0.33643788 0.116475366
0002f0 00 f7 af bd 14 87 11 be a0 e7 87 be 4c 79 81 bd
       -0.085920334 -0.14211684 -0.26543903 -0.06321964
000300 c8 30 6e be 06 8c be 3d c5 82 9b bc e1 e6 7d be
       -0.23260796 0.09304051 -0.018983254 -0.24795105
000310 cf fb bc bd 4d d9 03 3d 74 c9 3e 3e 99 6a e9 bc
       -0.09227716 0.032189656 0.18631536 -0.028493213
000320 15 0b 50 bd 94 59 c1 bd 34 b0 47 3e 5b 84 0b be
       -0.05079182 -0.09440914 0.1950081 -0.13624708
000330 34 cc 2a 3e 1a f7 88 bc a1 bd e9 3d 1c cb 15 be
       0.1667946 -0.01671939 0.11413122 -0.14628261
000340 cb 46 89 3c 3f 25 80 3d 25 39 8d be d6 70 37 3e
       0.01675739 0.06257104 -0.2758266 0.17914137
000350 24 8a 01 3e 74 9e 12 3e fd 49 49 bd d8 9a a7 3d
       0.12650353 0.14318258 -0.049142826 0.08183831
000360 e2 dd 4f 3e 71 c0 1b be 8c de 33 3c 93 54 26 bd
       0.20299485 -0.1521013 0.010978352 -0.040608
000370 bc 47 f0 bb 68 00 35 3c dc dd df bd 28 5b c1 bd
       -0.00733277 0.01104746 -0.10930988 -0.09441215
000380 c1 13 56 be ad b7 8b bd 8e 1c 14 3e 4c 14 00 be
       -0.20905973 -0.06822143 0.14464018 -0.12507743
000390 8b b0 12 3e eb cd 84 3b 50 98 8b 3e 4d 87 7e 3e
       0.14325158 0.0040528676 0.27264643 0.248563
0003a0 cf 88 5e 3e ca 63 01 3d 39 03 74 be e3 7d 97 be
       0.21731876 0.031589307 -0.23829354 -0.2958823
0003b0 90 b8 f7 3d 20 60 c0 bd 94 95 66 3c cf ab f2 bc
       0.120957494 -0.093933344 0.014073748 -0.02962294
0003c0 cb 5f 19 bd 4a f0 56 bc eb 8b 66 3e 53 fa 16 be
       -0.03744487 -0.013118813 0.22514312 -0.14743929
0003d0 17 91 81 3e 1e ad 97 bd cd d9 28 bd 2c 71 cf 3d
       0.25306007 -0.07406066 -0.041223336 0.10129008
0003e0 16 cc 03 be b7 47 1d 3e d3 d5 d2 bd 00 8e bb 3d
       -0.12870821 0.15359388 -0.1029469 0.09157944
0003f0 da 4a 6e 3e 6c 69 5b bd db 04 a0 bd b4 6e 34 3e
       0.23270741 -0.053567335 -0.07813426 0.17620355

network_body._body_endoder.seq_layers.0.bias f4 [128]
000000 7a 0b 98 3d 91 a8 92 3c 8c 97 91 3c d4 bb 56 bd
       0.07424064 0.017902644 0.017772458 -0.05242522
000010 45 ae 0d bd db 05 1c 3d 72 fc 89 3d 66 f8 aa bd
       -0.034590025 0.03809152 0.06737603 -0.083481595
000020 f6 66 c3 bb 72 dd 94 3d 51 25 9d 3d b2 eb 59 bd
       -0.0059632016 0.072688 0.07673133 -0.053203292
000030 ab 62 53 bd d2 c2 ab 3a c6 35 20 bd 4c 60 9f bc
       -0.05160777 0.0013104326 -0.039113782 -0.019455098
000040 0a 95 49 3d cd 52 44 bc 23 90 20 bb 2c ca b5 3d
       0.0492144 -0.011982632 -0.0024499975 0.08876452
000050 43 39 26 bd ef bd 30 bb 8f f8 d0 3c 55 c7 ae bc
       -0.040581953 -0.0026968678 0.025509147 -0.021335283
000060 d4 51 6f bb 32 47 a7 bd 36 19 9b bc fd f3 22 3c
       -0.003651728 -0.08167876 -0.01893292 0.009945867
000070 fe 50 43 3c 2a 13 60 bd 3c 3b 86 3c 4d 1e bc bc
       0.0119211655 -0.054705776 0.016385667 -0.022963667
000080 ee 1c 61 bb 51 e8 6d 3b 7b 17 fa bc 21 96 ce bc
       -0.0034349519 0.0036301801 -0.030528774 -0.025218071
000090 79 d5 99 bd 8b 72 93 bd 5e 39 3a bc 32 1a 76 bd
       -0.0751142 -0.07199582 -0.0113662165 -0.060083576
0000a0 cc a2 9a bb fc 44 ed bc b2 51 33 bd 10 fa a8 bc
       -0.004719114 -0.028963558 -0.043779083 -0.020627052
0000b0 7d 05 a4 bd eb 18 0e 3d b1 05 f1 bc 24 bd e0 bc
       -0.08008859 0.034691732 -0.02942166 -0.02743394
0000c0 7e 29 94 3a 67 0b 0d bd 25 6b 8d bc c6 00 c5 bd
       0.001130387 -0.034434702 -0.017263005 -0.09619288
0000d0 d5 98 57 bd e9 89 fc 3c 74 87 03 3c 70 3c 19 bd
       -0.052635986 0.03082748 0.0080279 -0.037411153
0000e0 3a e5 8d 3d 16 32 18 bb e7 b3 a6 bd 39 a0 bd bc
       0.06928487 -0.0023223213 -0.081397824 -0.02314769
0000f0 d6 36 82 bb 4e 6e 74 3a 16 1b 02 bd b9 37 e8 39
       -0.003973822 0.0009324298 -0.031764112 0.00044292005
000100 26 cd cb 3d 6c e9 61 3d f7 27 80 bd 43 36 49 3d
       0.09951238 0.05515425 -0.06257623 0.049124014
000110 af c3 8e bc ec 12 9c 3c cb 39 24 bd bf 6d 96 3d
       -0.017427294 0.019051991 -0.04009418 0.07345151
000120 e1 d8 2a bd bf 46 1a bd cb 74 3e bc 49 1d 83 bc
       -0.041710738 -0.037665125 -0.011624525 -0.016005175
000130 71 9f cd 3d 96 ab 5b 3d 90 35 d9 bc f7 a9 b5 bc
       0.10040177 0.053630434 -0.026514798 -0.022175772
000140 af 00 4d 3c b0 66 c1 bd c1 ff 1b 3c e6 55 3d bd
       0.01251237 -0.09443414 0.009521426 -0.046224497
000150 d6 c3 ac bc 6d 6d a7 3a fc f0 90 bd bd 5d 20 3d
       -0.021089476 0.00127737 -0.07077214 0.039151896
000160 ec 61 04 bc d9 ba b6 bc 08 7b eb 3b 96 1e b0 3a
       -0.008079987 -0.022305893 0.0071862973 0.001343685
000170 dc bb 20 bc ff a4 aa bb d7 84 9e bd 8f d8 12 3b
       -0.009810414 -0.0052076573 -0.07740181 0.002240691
000180 81 23 32 bc 5a 3a 57 bd ca 0b 37 bd e2 34 1b 3d
       -0.010872723 -0.052545883 -0.044688977 0.03789223
000190 70 a6 95 bd 6d 12 e1 3b 34 6f 88 bc 2a 1b 19 3d
       -0.07307136 0.0068686516 -0.016654588 0.03737942
0001a0 c8 65 e2 3c ae 47 80 3c d9 c1 6d bc f3 e5 5c bd
       0.027636424 0.01565918 -0.014511549 -0.053930234
0001b0 f6 cb b5 bd f6 80 1d bc 13 03 a1 3c f1 0b 41 bd
       -0.08876793 -0.009613266 0.019654786 -0.04713053
0001c0 3f 90 89 3d b5 91 4b bd 6c 2d 92 bc dc f9 b9 bb
       0.06716966 -0.049699504 -0.017843924 -0.0056755375
0001d0 7b 70 d2 3c 61 8d 91 3d 0e e2 0a bd e3 e5 25 bb
       0.0256884 0.07107044 -0.03390699 -0.0025314025
0001e0 c0 e2 7d bb 83 61 80 bd 39 7a 44 bc 36 70 03 bd
       -0.003873989 -0.06268599 -0.011992031 -0.032089435
0001f0 f7 6e 43 bc 61 6f 33 bd ee 9c 84 bc e5 f6 f2 3a
       -0.011928312 -0.04380739 -0.016188111 0.0018536715

network_body._body_endoder.seq_layers.2.weight f4 [128, 128]
000000 1c 3a a3 bd 0a b0 89 3d 94 e5 48 3d ca 2b 89 bd
       -0.07970068 0.0672303 0.049047068 -0.06697805
000010 af dc 99 bd cc d1 17 3d e4 1e 4b bd 57 1d cf 3a
       -0.07512795 0.037065312 -0.049590006 0.0015801591
000020 38 fd 9b bd e2 1c a6 3b 01 96 b7 3d 6d 34 34 3d
       -0.07616657 0.005069361 0.08964158 0.04399531
000030 b4 73 b7 3b 6e 9d 2a bd 25 3b c8 bd 24 4e 3d 3d
       0.0055985097 -0.041654043 -0.09776906 0.0462171
000040 38 f8 1d 3b 12 44 58 be 26 34 49 3c 30 be 8d 3e
       0.0024104249 -0.21119717 0.0122805 0.27684164
000050 c2 2b eb bd bb 8b 0e 3d 35 f9 10 be 21 eb cc bd
       -0.114829555 0.034801226 -0.14157565 -0.10005785
000060 a8 57 21 3c 08 8b c4 3c 01 38 17 be 68 6d c6 bd
       0.009847559 0.023992077 -0.14767458 -0.09688836
000070 ad 44 81 bc b9 84 0c 3d b4 58 0e be 36 27 03 be
       -0.015779817 0.03430626 -0.13901025 -0.12807927
000080 f2 a1 81 3d 48 81 eb ba 3b a6 32 be d2 fa ca 3d
       0.06329717 -0.0017967606 -0.17446224 0.099111214
000090 41 26 97 bc f1 b5 63 bc e3 e0 22 be 0e 22 be bc
       -0.018450858 -0.013898359 -0.159061 -0.023209598
0000a0 83 bf ea bd 84 8e 46 be 55 e4 d4 3c ec f0 f6 3c
       -0.11462309 -0.19390303 0.025987783 0.030144177
0000b0 f1 4f c7 bd 07 33 74 3c 07 56 48 bd 4f 8f 9a bd
       -0.097320445 0.014904744 -0.048910167 -0.07546865
0000c0 26 46 39 3c 7e 26 c0 bd 49 b4 32 bd a5 76 10 3e
       0.011308229 -0.09382342 -0.043628965 0.1410776
0000d0 b5 c0 77 3c 14 a0 0b be 14 2b 8e be c0 08 80 3d
       0.0151216285 -0.13635284 -0.2776724 0.06251669
0000e0 bb 60 34 3e 61 98 da bc 92 d9 6b be c8 3d 8f 3c
       0.17615025 -0.026683988 -0.23032215 0.017485514
0000f0 43 aa 9e bd 95 86 1f 3d 3f 7d 36 3d 40 22 f1 3d
       -0.077473186 0.038946707 0.044553038 0.11774111
000100 a3 3c 55 3e 6b d3 02 3e de a4 ee 3c 54 a4 d7 3d
       0.20823912 0.12775962 0.02913135 0.1052939
000110 af ea 4f be 59 3d b3 3b 98 74 cd 3d 06 a3 8a bd
       -0.20304368 0.0054699597 0.10032004 -0.067693755
000120 f0 b1 d7 bd 6d 5f 69 3d 4a cd ba 3d 4c d4 79 3d
       -0.10531986 0.05697577 0.09121187 0.060993478
000130 6a f4 a7 bd 37 af 26 3c 59 ab 34 3e 3b c8 89 bd
       -0.08200915 0.01017361 0.17643489 -0.06727644
000140 15 24 35 bd 7a 5a bb bd a3 ab b5 3d d6 78 86 3d
       -0.044223864 -0.091481164 0.08870628 0.065660164
000150 9d 7d 96 3c b4 8b 52 bb cc 7d be bc 62 6f 7a 3d
       0.018370444 -0.0032126727 -0.023253344 0.06114138
000160 52 42 2d 3e 24 19 da bd 35 ca 0f 3e f5 02 8e bc
       0.1691983 -0.106493264 0.1404198 -0.017335394
000170 0f 13 fc bb 1f cd 42 be 5e a2 dc bd 87 89 e7 3d
       -0.0076927016 -0.1902356 -0.107731566 0.11305528
000180 66 3a 93 3c be b6 27 bd f4 68 03 be c0 be 20 be
       0.017972182 -0.04094576 -0.12833005 -0.15697765
000190 87 3f a8 3d dd 8c ee 3d ef b3 10 be d7 fe 65 bd
       0.08215242 0.11647961 -0.14131139 -0.056151237
0001a0 a5 23 02 be ca c8 a5 3d 7f a3 ac 3c 65 e4 42 3d
       -0.1270891 0.08094938 0.021074055 0.047581095
0001b0 85 d9 01 3e 8e c8 5d 3d 7a ac 37 bc f4 cc 33 be
       0.12680633 0.054146342 -0.011210555 -0.17558652
0001c0 d8 fb 38 bd 5b 8a d6 bd ae 1a b5 3c 96 d6 a5 bd
       -0.045162052 -0.10475608 0.022107448 -0.0809757
0001d0 c9 34 8a bb 7e 3f 26 be 2c 2b 3d 3d 15 23 73 3d
       -0.0042177183 -0.16235158 0.04618375 0.05935963
0001e0 49 f5 3b bd 54 b8 fa bd 81 68 c8 bd 95 7b 4f 3b
       -0.04588822 -0.12242189 -0.097855575 0.0031659354
0001f0 27 13 fc ba e7 0a 03 be 41 a3 3e 3d 83 6d 40 be
       -0.0019231782 -0.12797128 0.04654241 -0.18791775
000200 28 12 55 3d 81 9b 42 bd 31 96 e6 bd 35 87 3c 3d
       0.05201927 -0.04751158 -0.112591155 0.04602738
000210 15 c0 ca bd cf d6 96 3d ab 38 15 be 91 a6 83 be
       -0.09899918 0.0736519 -0.14572398 -0.25713018
000220 89 b8 29 3d c0 6d 8b 3d e3 57 5d bc d5 90 21 bd
       0.041435752 0.068080425 -0.013509723 -0.039444763
000230 47 cd e1 3c 71 9b bc 3d 38 70 96 3d 6a bb 33 3d
       0.027563704 0.092093356 0.07345623 0.043879904
000240 81 6d 6c bd 42 cd f0 bc 15 3a 01 3e 66 bc 0c be
       -0.05772162 -0.02939475 0.12619813 -0.13743743
000250 07 7c c2 3b 21 44 57 3d 14 5e d9 3d fe a2 c2 bd
       0.0059351954 0.052555207 0.10613647 -0.095037445
000260 70 cb d6 3d 6f 1a 44 bc b1 15 4d bd 97 68 1f be
       0.104880214 -0.011969193 -0.050069515 -0.15567242
000270 a4 f9 15 be 4b dc bf 3c bf 58 4f be 84 b2 e6 ba
       -0.14646012 0.023420474 -0.20248698 -0.0017600809
000280 ec 17 56 bd cb ca e5 bd 4f 37 9c 3d 38 19 81 bc
       -0.052268907 -0.1122032 0.07627737 -0.015759096
000290 45 de df bc 88 9f c5 3d 26 1c 17 3d 57 ba 0d be
       -0.027327666 0.09649569 0.03689208 -0.13840614
0002a0 cb 01 45 bd ab 46 15 be 87 8b 80 3c 97 ea ee bc
       -0.048097413 -0.14577739 0.015691532 -0.029164596
0002b0 1c 9b a3 bd 46 23 18 bc c8 81 4a bb db 6b fd 3d
       -0.07988569 -0.009285754 -0.003090011 0.123740874
0002c0 14 49 90 bd 37 a7 18 3e b5 30 c6 bd f6 0a c7 bd
       -0.070451885 0.14907537 -0.09677259 -0.097188875
0002d0 e2 a8 d6 ba 4e 56 ec 3c 61 38 c8 bd 17 78 82 3d
       -0.0016377235 0.028849747 -0.097763784 0.063705616
0002e0 b3 a5 41 3c 3e c6 6d 3d e4 4b cb 3c 77 05 de 3c
       0.011819291 0.058050387 0.02481646 0.027102215
0002f0 12 4b d1 3d 39 e5 64 bd 28 71 27 bc d0 0e 7e 3d
       0.10219397 -0.055882666 -0.01021985 0.062025845
000300 f9 57 2c 3e 47 af fe 3d d2 71 11 3e 8d 5c 99 3d
       0.16830434 0.12435775 0.14203575 0.07488356
000310 be 18 81 3d 06 2d 9d bc 66 39 c0 3d ca b9 a8 3c
       0.06303547 -0.019186508 0.09385948 0.020596404
000320 6a a5 fc bd 6f 5a b8 bd 40 73 12 be 90 71 12 bd
       -0.12336238 -0.09001624 -0.14301777 -0.035752833
000330 5d f3 5f 3e b3 39 8b bc 5d 7c 82 3d b0 e6 1f be
       0.2187018 -0.016995287 0.06371377 -0.15615344
000340 84 b4 92 3c 86 9d a6 bd c8 5c b0 bd af 33 46 3e
       0.017908342 -0.08135514 -0.086114466 0.19355653
000350 6c 1d 98 3d 29 ae a8 bd eb d0 1f bc 31 16 ef bc
       0.07427487 -0.082363434 -0.0097544 -0.029185386
000360 41 9d d1 3c 50 a0 85 be cc 90 88 3d 55 d1 9f bd
       0.02558768 -0.2609887 0.06668243 -0.07803599
000370 3d bf 49 3e 77 03 14 3d 63 23 29 bd e1 5e e8 bd
       0.19701858 0.036136117 -0.041293513 -0.11346222
000380 42 ef 0c be 21 d2 cf 3c d0 62 b2 bc 98 e6 1e 3d
       -0.13763145 0.025368752 -0.021775633 0.03879413
000390 af 55 2f 3e 81 25 54 bc f8 89 49 3c 2f 6d 85 3d
       0.1712253 -0.012948395 0.012300961 0.06514966
0003a0 55 a9 2f 3e 96 4d 8a bd 99 53 c0 bd eb 6d 85 bc
       0.17154439 -0.067530796 -0.09390945 -0.016287765
0003b0 7c a7 f7 bd a1 ac 41 be 0d b5 05 3e 78 76 53 3c
       -0.12092492 -0.18913509 0.13057347 0.012906663
0003c0 16 1e cc 3c f4 f3 2d bd 01 b6 87 be 68 9f 86 bc
       0.02491669 -0.04246898 -0.26506045 -0.016433433
0003d0 ab 9f 08 bd c3 4f 85 bd 2a d0 37 3e 22 81 33 be
       -0.033355396 -0.06509354 0.17950502 -0.17529729
0003e0 0d 9a 64 3d c3 40 c7 bd ef d1 3d 3e 79 d7 83 bc
       0.055810977 -0.09729149 0.18537115 -0.016093956
0003f0 ac ae a9 bd b3 3a f3 3d 7d c2 66 3d 73 ac 03 bc
       -0.08285269 0.1187643 0.056337822 -0.008036721

network_body._body_endoder.seq_layers.2.bias f4 [128]
000000 52 5e 90 3d 8f 30 73 bc d2 5f 47 bb be dd ef bb
       0.0704924 -0.01484312 -0.0030422104 -0.007320135
000010 19 62 26 bc ec 96 cd bc 46 77 0d bd 22 38 e0 bb
       -0.010155224 -0.02509638 -0.034537576 -0.006842629
000020 09 fb 32 ba 40 ed 49 bc 07 1b 48 bc 1c 69 e0 3c
       -0.0006827568 -0.012324631 -0.012213475 0.02739387
000030 8e 51 08 3a 96 a7 b3 bc d5 e6 b1 3d b0 d3 7a 3c
       0.0005200141 -0.021930497 0.08686606 0.015309259
000040 8f ba c6 bc ef bd cf 3a 54 3b 13 bc 9f 1f 21 3d
       -0.02425888 0.0015849451 -0.008986313 0.039336797
000050 83 40 fc bc 2d 2d 87 3b c5 5a 12 bc 08 d6 ad 3c
       -0.03079248 0.0041252584 -0.008932774 0.021220222
000060 df 5f 9c 3c 78 91 37 3c ed 52 2a 3c af 8a 20 3d
       0.019088684 0.011204116 0.010395748 0.03919476
000070 3c 20 24 bd 65 d2 6e bc 14 df 21 3e 40 f1 22 bd
       -0.040069804 -0.014576529 0.15807754 -0.039780855
000080 48 8a fc 3c 13 65 ac bc 22 2d c2 bc 54 e4 4f 3c
       0.030827656 -0.02104429 -0.023703162 0.012688715
000090 39 1a fb bc ec df b0 bc 64 84 7b 3d 62 8c f3 3c
       -0.030652152 -0.02159115 0.061405554 0.029730026
0000a0 00 fd fc bc 45 4a dc bb e6 e3 9f 3b 24 23 48 3b
       -0.030882359 -0.006722721 0.0048794625 0.0030538524
0000b0 a6 5a aa bb 5d 6a b4 bc 16 4e 02 3b 5a e3 43 3c
       -0.0051987944 -0.022023374 0.0019882969 0.01195606
0000c0 84 41 84 bc 28 1f bf 3d 90 cd a0 3d 08 2d 65 3d
       -0.016144522 0.093321145 0.07851708 0.05595115
0000d0 c4 9a a6 3c fe 58 9a bc 31 29 61 bc 44 df 47 bc
       0.02033747 -0.018841263 -0.013742731 -0.012199227
0000e0 74 f2 33 3d 3d c7 81 bc b2 3a 2b 3d e5 8c 0c 3e
       0.043932393 -0.015842075 0.041804023 0.13725622
0000f0 7b 9c 01 3c e6 59 bb 3a 8b d4 8e bb c8 57 87 3c
       0.007910843 0.001429376 -0.004358833 0.01652135
000100 41 3e 7d 3d ec 94 65 bb b6 c0 0c 3d b1 28 0d 3d
       0.061826948 -0.0035031391 0.03436347 0.034462634
000110 dd 26 2a bc 5d 26 13 3d 45 6e 7c 3d df 69 48 3d
       -0.010385242 0.035925258 0.0616286 0.04892909
000120 a9 80 bd 3b 71 db d9 3c 83 39 2b bc 8b 9d d3 3c
       0.0057831598 0.026593896 -0.010450724 0.025831958
000130 c3 31 0c 3a 20 3a 00 bc b6 a2 32 bc a4 cd c5 3c
       0.0005347991 -0.007826358 -0.010903051 0.024145909
000140 a5 30 d4 3c b8 40 c5 3b e9 1d fd bb 0b c0 bd 3d
       0.025902102 0.006019678 -0.007724513 0.09265145
000150 43 e7 b1 3c 52 d0 0f bd 1b f2 d9 3d ee a2 4d 3e
       0.02171672 -0.03511078 0.10641881 0.20081684
000160 4b 9d e2 bb 2d 56 1e 3c 8b 5d 15 3d 0e a0 71 bb
       -0.0069157234 0.009664101 0.036466163 -0.0036869082
000170 4f 4c 0e bd 74 90 ef 3d 8f 09 97 bc 76 3a 99 bc
       -0.034740742 0.11697474 -0.018437175 -0.018704634
000180 63 62 52 3c bb 33 fd bb 75 ff c4 bc 43 df 11 bd
       0.01284084 -0.007727114 -0.024047593 -0.03561331
000190 c6 a3 1c 3d 72 f8 e4 3c 1b 55 31 3c fd 01 3b 3c
       0.038242124 0.0279505 0.010823513 0.011414048
0001a0 59 8e 01 3d d6 e0 11 3d 6d 09 57 3c 30 bd 69 bc
       0.031629894 0.03561481 0.013124806 -0.014266297
0001b0 b6 a7 a3 3c 0f a9 cf bb ba 69 91 bc a1 3a 54 bb
       0.019977432 -0.006337292 -0.01775061 -0.0032383578
0001c0 2e 78 19 bc 7c 4c 14 3d 57 a4 98 bb 72 e6 1e 3d
       -0.009367032 0.036205754 -0.0046582627 0.03879399
0001d0 92 2f bb ba 8b 16 51 3c 53 4e 99 bc dc 48 8d b9
       -0.0014281145 0.012761722 -0.018714106 -0.000269479
0001e0 5f 5e 84 bc 59 82 da bb 82 ed cc bb b1 7f 74 bb
       -0.01615828 -0.0066683707 -0.006253899 -0.0037307555
0001f0 d1 22 8d bc c0 34 cc bc f9 18 63 3d c2 e3 07 3d
       -0.017228516 -0.024927497 0.055443738 0.03317619

action_model._continuous_distribution.log_sigma f4 [1, 3]
000000 a1 81 b2 be 67 54 af be 92 05 1f bd
       -0.34864524 -0.3424408 -0.03882367

action_model._continuous_distribution.mu.weight f4 [3, 128]
000000 c1 53 9f 3c 4c 2c 6a bd f3 9b d3 bc e9 93 ea 3b
       0.019449117 -0.05717115 -0.025831198 0.0071587455
000010 33 a6 09 bd e7 98 93 bc 07 27 ff 3c 8f 8b f3 3c
       -0.033605766 -0.018017245 0.03114654 0.029729633
000020 9a 22 d6 3c 2e 79 2e 3c a9 10 28 bd 46 75 2b 3d
       0.026139546 0.010649009 -0.041031513 0.041859888
000030 a6 8b 82 bc a3 b3 9b bc dd 12 f5 3c 46 3a 41 3d
       -0.01593573 -0.019006556 0.029916221 0.047174715
000040 8d c6 b6 3c 98 75 bc bb d3 6a 63 bb 30 c6 17 be
       0.022311473 -0.005751323 -0.0034701123 -0.14821696
000050 03 2d 12 bd 35 61 40 bc a9 c4 00 3d 1d da 2f 3c
       -0.035687458 -0.011741926 0.03143755 0.010733155
000060 da fa 19 3d d9 95 76 3b aa c9 56 3c 5c 91 21 3d
       0.037592746 0.0037625937 0.013109604 0.039445266
000070 3e cb 08 bc 17 51 fd bc 78 21 db 3d be 7d 76 3c
       -0.008349238 -0.030922456 0.10699743 0.015044628
000080 a8 e1 f5 bd fe 7b d7 bc d4 47 3a 3d f1 4c 75 3a
       -0.12005931 -0.026304241 0.045478657 0.00093574735
000090 16 13 fe 3c 08 8f 36 3c 1f f0 8f bc 6f 06 00 be
       0.03101496 0.0111425 -0.017570553 -0.12502454
0000a0 ae c1 ee bc c4 d7 74 3d ef e2 02 bd 37 70 97 bc
       -0.029145088 0.059776083 -0.031954702 -0.018486125
0000b0 49 b7 6f 3c df ff 42 3c f6 31 60 3c c4 f5 ea bc
       0.014631101 0.011901825 0.013683787 -0.028681643
0000c0 0e 80 07 bd c0 b4 ea ba 5a 87 80 be 36 82 a5 3d
       -0.033081107 -0.0017906651 -0.25103265 0.080814764
0000d0 99 ce 8b 3c 28 4b 5b bd 0e 9f b2 3c 8d cf a7 ba
       0.017066287 -0.05353847 0.021804359 -0.0012802944
0000e0 3d 14 34 bd b1 d1 b9 bc 2f 34 31 bc 8f e9 f2 3d
       -0.043964613 -0.022682996 -0.010815664 0.11860954
0000f0 64 0a de 3c 48 c4 86 3c 3b 09 9a bb 64 a1 b9 3c
       0.027104564 0.016451016 -0.0047008074 0.022659965
000100 e9 57 89 3d fa 76 e9 3b 3f 52 ba bd 5a 17 b5 bc
       0.06706221 0.007124779 -0.090977184 -0.022105861
000110 b8 5b 8e 3a 98 e8 41 3d bd 21 d3 3d 35 e6 31 3d
       0.0010861075 0.04734096 0.103091694 0.043432433
000120 f2 47 1a 3b a0 78 1b 36 43 5b 09 bc 8b 37 f7 3c
       0.0023541418 2.3167013e-06 -0.008383575 0.030177852
000130 7e ba 15 3c 54 52 0a bc c7 99 23 bd 5d af 30 3d
       0.0091387015 -0.00844248 -0.039941575 0.04313599
000140 db 85 db bc bd 79 58 3b cb 50 76 bc e6 30 04 3e
       -0.026797226 0.0033031546 -0.015033911 0.12909278
000150 49 34 af 3c 4d 8f a0 b9 c5 a9 5e 3d 92 ae 2a 3e
       0.021387236 -0.00030624346 0.054361124 0.16668156
000160 f6 e4 d2 3b f1 5d f6 bb 7a f9 f4 bd 9e f5 94 ba
       0.0064359857 -0.007518523 -0.119616464 -0.0011364704
000170 05 97 d7 bb f7 7c d1 bd 39 14 91 3c e1 10 39 3d
       -0.006579282 -0.10228913 0.017709838 0.045182113
000180 83 cf 7e bc d3 e9 39 bd 3b 8d c2 3c 3d f5 93 bc
       -0.015552404 -0.045389008 0.023748985 -0.018061275
000190 68 03 c3 3c b4 ce 07 be 5e 76 da bc 4a 48 67 bc
       0.023805335 -0.13262445 -0.02666777 -0.014116356
0001a0 44 43 c9 bd 0e ab f5 bd e2 7b c0 bd ce 5f 78 3b
       -0.09827283 -0.11995517 -0.09398629 0.00378989
0001b0 4a 73 d3 bb 9b 91 ab 3c 7b dd d8 bc 0b 8e 4d 3a
       -0.0064529525 0.020943454 -0.026472798 0.00078412954
0001c0 9f f2 9f bc a9 a9 d0 3c bc c6 79 bc 04 6f e4 3b
       -0.01952487 0.025471525 -0.015245136 0.006971242
0001d0 aa f3 34 bd 2d 30 bc 3c 6a fd 0f bc db 15 3a bc
       -0.04417769 0.02297219 -0.008788446 -0.01135775
0001e0 f6 86 e5 bb 5b 04 89 3c 76 c9 2c bc 1e 36 d6 3c
       -0.007004614 0.01672571 -0.010546079 0.026148852
0001f0 d3 8b d8 3b 5b 3c 94 bc 4f ae 09 be 65 98 aa bc
       0.006608465 -0.018095186 -0.134454 -0.02082462
000200 4b d5 0c be bf 2f 7d 3c b0 19 b3 39 c2 d5 87 bc
       -0.1375324 0.015453278 0.0003416068 -0.01658142
000210 50 36 04 bc 0d c7 5e bc 0e e1 80 bc 12 c0 f8 bc
       -0.00806959 -0.013597262 -0.015732314 -0.030365024
000220 bc d4 e5 bc f7 de 7d bd 24 5a fa bc 57 60 0a 3d
       -0.028055541 -0.061980214 -0.03056056 0.033783283
000230 da ca 79 bb ff 56 e3 bc 5a 24 c9 3d c8 2c b3 3c
       -0.0038115294 -0.027751444 0.09821387 0.02187194
000240 08 6f 08 bd 76 ec c2 3c 30 72 f8 3b fd f5 6c bc
       -0.033309013 0.023794394 0.0075819716 -0.014462945
000250 60 56 b5 3b bb 74 c0 bc 0b 17 0f bd 74 2c a6 3b
       0.0055339783 -0.023493161 -0.034934085 0.005071217
000260 98 fa 68 bc ff 47 0b bd 8e 39 80 3c f8 5c fe bc
       -0.014219902 -0.034004208 0.015652444 -0.03105019
000270 c3 d8 59 bd f0 6e 2a 3d 63 35 17 be e8 a8 49 bc
       -0.053185236 0.041609704 -0.14766459 -0.012308337
000280 ae 74 01 3d c5 0b 67 bb 64 e5 43 bc fe 9e 9a 3b
       0.031605415 -0.0035254818 -0.011956546 0.0047186604
000290 41 2d 60 bc 15 72 55 bc ed 3c 4b be 27 0a a2 bd
       -0.013682664 -0.013027688 -0.1984746 -0.07912093
0002a0 93 30 54 bc e8 9b f7 bc 80 76 e1 3c b2 d6 55 bc
       -0.012951034 -0.03022571 0.027522326 -0.013051676
0002b0 07 e2 70 bc 25 65 11 bd 01 e5 84 3c 88 c4 8c bc
       -0.014702327 -0.03549685 0.016222479 -0.017183557
0002c0 a2 6b f8 bc 80 ea 10 3e 61 cc 6e bc 50 2a 40 bc
       -0.03032476 0.14151955 -0.014575095 -0.011728838
0002d0 b5 1a 93 bd 7d 79 0b bd e5 d4 0f 3b 91 15 51 bc
       -0.07182828 -0.034051407 0.0021946963 -0.0127614895
0002e0 c2 02 ae 3c 64 28 06 bc 55 13 52 be 26 ab 28 3e
       0.02124155 -0.008188341 -0.20515187 0.16471538
0002f0 bb e6 9e bc 69 0e a4 3c d8 d2 10 3b 57 45 19 3d
       -0.01939713 0.020026403 0.002209833 0.037419643
000300 9c d7 a9 3b f8 eb f9 bc d4 3d ce bc f5 5a b7 3a
       0.0051831733 -0.030508026 -0.025175966 0.0013988899
000310 8f 58 83 3b df b8 74 3c 93 23 1d bd bc 1f ca bc
       0.0040083597 0.014936655 -0.038364004 -0.024673335
000320 08 3c a6 3d 2e 56 bd bd 69 9a 87 ba 7c c1 15 3d
       0.08116919 -0.09244953 -0.00103457 0.036561474
000330 e5 6d 48 bc d8 e9 fb 3b a9 9d 2f 3c 27 82 ae 3c
       -0.012233232 0.0076877885 0.010718741 0.021302296
000340 a6 e6 33 3d 58 9f f8 ba 1c a5 a9 bb bc 9b 29 3c
       0.043921135 -0.0018968387 -0.0051771533 0.010352071
000350 d2 1c a4 3b 7d 9c 0e bc 68 9c 02 3e d9 4c cf 3c
       0.0050083185 -0.008704302 0.12754977 0.025305199
000360 0d d4 6c 3c 29 5e 2c 3d 6d d7 11 bc 63 93 7d 3d
       0.014454854 0.042081986 -0.008901459 0.061908137
000370 2a e9 83 bc 3e 0e 25 3e de 67 a3 3c 11 d0 82 bc
       -0.016102392 0.16118714 0.019946989 -0.015968354
000380 9c 6b b6 bd 81 66 4d bd ad 7e f4 3b b5 15 cb bc
       -0.089072436 -0.050146583 0.00746139 -0.024790624
000390 c6 73 b7 3b a2 a7 2b bc 56 7f 49 3c 69 7c 39 bd
       0.005598518 -0.0104769785 0.012298426 -0.045284662
0003a0 70 25 aa 3c e2 bd 45 bc d4 de ab bb d0 11 fb 3b
       0.020769805 -0.012069197 -0.005245069 0.0076620355
0003b0 ce 5d 0f 3d ce d0 84 bc 97 ba cb bc 89 aa ed 3c
       0.03500157 -0.016212847 -0.024869246 0.029011982
0003c0 7f 3c 4e 3a 9a d1 cc 3c 2f 8a 7f bc 7f 44 23 3d
       0.0007867291 0.02500229 -0.01559691 0.039860245
0003d0 55 b8 af 3c cb 44 47 3b 50 a3 7a bc 8e be 0a 3c
       0.021450201 0.0030405994 -0.015297726 0.008468283
0003e0 4c ba ff 3b 6f 3f cc 3c aa 3a a9 3a 21 a2 cc bc
       0.0078041907 0.024932591 0.001291116 -0.024979653
0003f0 4d f0 f2 bb 82 e6 fb bc 5a 80 d1 3d 0a 4c 54 3d
       -0.0074139 -0.030749563 0.10229559 0.05183033

action_model._continuous_distribution.mu.bias f4 [3]
000000 12 62 6d 3c 1d 20 90 3c 60 a6 4f bb
       0.014488714 0.017593438 -0.003168486

action_model._discrete_distribution.branches.0.weight f4 [2, 128]
000000 a7 5d 8f bc 2c 8d af bb 7d c9 a6 ba 62 d4 14 bc
       -0.017500712 -0.005357405 -0.0012724843 -0.009083839
000010 d6 2a 09 3d 8b a9 75 3c 57 34 0e bb 7f c9 6a bc
       0.033488117 0.0149940355 -0.0021698677 -0.014330267
000020 bf ea d5 3c a8 a5 a8 3b b5 2e f5 3c c7 cd 66 bc
       0.026112912 0.005146701 0.029929498 -0.014087147
000030 bb bd ac 39 38 8f 2f bb 7a b0 7f 3b c6 3b 84 bb
       0.00032947757 -0.0026788246 0.00390151 -0.004035446
000040 3f 38 59 3c 4c 3b a8 3b 35 04 13 3c d9 ba f7 3b
       0.013258039 0.005134022 0.008973171 0.007560116
000050 62 e0 93 bc ff 4c 4e 3c c8 c1 3c bb bb aa 1a 3c
       -0.01805133 0.0125915995 -0.0028802026 0.009440119
000060 40 66 00 3b 3c 5c 68 3a dd 55 bb ba ee 5e aa bc
       0.0019592196 0.00088638416 -0.0014292557 -0.02079722
000070 48 c9 58 bc 36 00 8d 3b 1c 92 cf bb 71 84 b0 3c
       -0.013231583 0.0043030037 -0.0063345563 0.021547528
000080 b1 77 f8 bc 49 22 66 bc 79 2b 7a bb a0 1a a5 3b
       -0.03033051 -0.01404626 -0.0038172884 0.0050385743
000090 06 03 2d bb 15 01 3f 3c aa d2 2e 3b c7 05 1e bc
       -0.0026399507 0.011657973 0.0026675859 -0.009644932
0000a0 9c 9a a1 3b 2e 28 1f bc c2 8e fd 3b f1 25 b2 bb
       0.004931761 -0.009714169 0.0077379653 -0.005436652
0000b0 d9 f3 18 bc 4f ae b6 3a bd 62 47 3c ed 57 1b 3c
       -0.009335482 0.0013937446 0.012169537 0.009481412
0000c0 3b 5d 92 bc 80 91 0b bd 7a 33 42 bc 10 91 5f 3b
       -0.017866721 -0.034074306 -0.011853093 0.0034113564
0000d0 de d6 20 bd b4 6f 71 bc 87 96 0c bb bb 96 9e 3c
       -0.039267413 -0.014736105 -0.0021452026 0.019358983
0000e0 0a 99 39 bc cc 38 a0 3c 46 19 f4 bc d8 f1 75 bc
       -0.011327991 0.019558333 -0.029797208 -0.015011273
0000f0 8d 88 92 bc 39 9d 95 bb f4 26 66 bb 4a 43 9d bb
       -0.017887378 -0.0045658615 -0.0035118433 -0.0047992812
000100 4d 1c a9 bc a5 05 a9 bc f7 6c 8b 3c d4 79 3c bc
       -0.020643378 -0.020632574 0.017019732 -0.011503655
000110 c1 c0 56 3c 45 c9 85 3b 7d ac aa bb dd 54 51 bc
       0.01310748 0.004082831 -0.0052085505 -0.012776581
000120 7e 97 2f 3c a0 eb 44 b9 94 ee 81 3b 3a ba 28 3c
       0.010717271 -0.00018779794 0.0039652083 0.010298306
000130 f1 bf cb bb b4 c3 a8 3c 52 22 52 bc 94 a1 9e 3b
       -0.0062179496 0.020601131 -0.012825565 0.004841039
000140 52 75 47 bc e5 0a 1d 3a b1 4b c1 bb 0f 99 bc 3b
       -0.012173967 0.0005990698 -0.0058989157 0.0057555507
000150 6e 3f aa bb d2 16 63 3c cb c6 13 3c be 14 00 bc
       -0.0051955497 0.013860421 0.009019564 -0.007817445
000160 9d 6e 4b 3b c0 79 28 bc 73 96 52 3d 46 4c a6 3b
       0.0031041272 -0.010282934 0.05141301 0.0050750105
000170 b3 9c 98 3b b8 46 35 bd 22 80 ef 3a bd f0 88 39
       0.004657352 -0.044256896 0.001827244 0.00026119305
000180 4f 02 ae 3b 5f 80 a6 bc cf 02 32 3c c4 2e 8f bb
       0.005310334 -0.020324884 0.010864927 -0.0043695886
000190 52 1f e4 bb 4f 12 5b 3c f2 fd 84 3c bc 17 35 3c
       -0.0069617415 0.013371064 0.016234372 0.011053022
0001a0 6a 13 b3 3c 5e 03 03 bc a8 81 bf ba d0 3d 0a 3c
       0.021859843 -0.007996408 -0.0014610784 0.008437589
0001b0 c2 34 4a 3c 1b a8 60 ba 49 3d 90 bc f3 93 62 3c
       0.01234168 -0.00085699715 -0.017607348 0.013829219
0001c0 24 6a 70 bb cc ec 56 3c d3 8b b7 3b 7a f4 1e 3b
       -0.0036684358 0.01311798 0.005601385 0.0024254606
0001d0 5d 28 85 bb 90 5c 9f 39 c1 bd 14 3b f1 94 0c bc
       -0.0040636496 0.00030395808 0.002269611 -0.008580432
0001e0 b4 66 90 3b dc 58 79 3c d3 e6 f0 3a 4e 68 d7 bb
       0.0044067744 0.01521894 0.0018379338 -0.0065737134
0001f0 d0 d8 6e 3b f9 68 96 3a 34 5b 45 bd 1a af 80 bc
       0.0036445148 0.0011475376 -0.04818268 -0.015708495
000200 82 33 07 3c 90 f7 bb bb cc 79 60 bc 7c 0c 78 bc
       0.0082520265 -0.005736299 -0.013700914 -0.015139695
000210 e7 df 52 bc e4 2a c3 bc fa 7d 16 3c 6d 2d f9 3b
       -0.012870765 -0.023824163 0.009185309 0.007604292
000220 69 8a 6c bc 5e 32 c3 b8 bc 10 7a bc 50 c1 cc 3c
       -0.014437296 -9.307706e-05 -0.015262779 0.024994522
000230 af 61 d2 bb 04 f4 e0 bc 35 d4 4e 3c 24 5b 48 3c
       -0.006420336 -0.027460106 0.012623836 0.012228761
000240 82 c3 05 3c 9e 9b e0 bc 80 e4 90 39 44 d3 3f 3c
       0.0081642885 -0.027417954 0.00027636066 0.0117080845
000250 83 65 2b 3c 3e 33 94 bb ac f8 37 3c c9 af e5 bb
       0.010461214 -0.00452271 0.011228722 -0.0070094806
000260 4c 35 c5 ba cb 5f 43 ba fe bd ec bb b6 bd 75 3c
       -0.0015045791 -0.0007452934 -0.0072247973 0.014998844
000270 9b 52 55 bb 43 21 44 bc 50 d7 59 3c 62 4d 9b bc
       -0.0032550457 -0.011970821 0.013295963 -0.018957797
000280 91 cc 00 bc 01 b0 01 bb 0d b6 22 3b 67 df c8 bb
       -0.007861272 -0.0019788744 0.002482775 -0.0061301473
000290 59 23 21 3a 23 8e 69 ba 6a 3b 99 b9 aa 5c 28 bc
       0.000614693 -0.00089094247 -0.000292267 -0.010275999
0002a0 11 92 34 bc 40 fc 37 3a 3c 33 0d 3c 96 e0 0b 3c
       -0.011021153 0.0007018484 0.008618172 0.008537432
0002b0 58 c4 87 bb ef ee 86 bc 64 8a 7a bc 69 c6 b9 bc
       -0.004143279 -0.016471354 -0.015291784 -0.022677617
0002c0 5e 96 af 3c 1a 5c 09 3d 92 cb 45 bb 07 7f cd 3b
       0.021434005 0.0335351 -0.0030181152 0.0062712464
0002d0 3c 6a 19 3d 11 e2 73 3c f9 b0 29 bc 6c 91 be bb
       0.03745483 0.014885441 -0.010357135 -0.0058156755
0002e0 42 4a da 3b a1 97 0f bc 36 b8 24 3c 53 51 ea 3b
       0.0066616843 -0.0087641785 0.010053685 0.007150808
0002f0 12 60 86 3c 76 75 60 bb 2c aa 50 3b 68 a8 5f b6
       0.016403232 -0.00342497 0.0031839712 -3.3327615e-06
000300 64 b5 fd 3c 0a ba 9d 3c c4 50 33 ba dc df 30 3c
       0.030970283 0.01925375 -0.0006840343 0.01079556
000310 86 42 ce bb 86 fe c4 3a dc 34 e4 b9 9e b5 ab 3c
       -0.0062945513 0.0015029467 -0.00043526932 0.020960625
000320 c4 34 4c 3b 2c df 18 3c 9a 4c 73 bc fb bc 18 3a
       0.003115938 0.009330552 -0.014849806 0.00058265
000330 c6 b9 81 bb 38 24 23 bc bb 19 2c bc 37 1a 2b 3b
       -0.0039589135 -0.009957366 -0.0105041815 0.0026108155
000340 58 f1 04 bc b0 e3 53 3c 95 46 64 3b e7 f4 cc bb
       -0.008114181 0.012932703 0.003483211 -0.0062547806
000350 21 20 a0 bb 87 75 6b bc 74 c8 84 bc 43 7e 00 3b
       -0.0048866426 -0.014371282 -0.016208865 0.0019606508
000360 a2 ff f5 bb 5c 37 57 3c c1 bc 1a bd b6 ba 47 3b
       -0.0075072804 0.013135757 -0.037777666 0.0030476279
000370 5d 0e 66 ba b6 dd 76 3d c7 ba 01 bc bd 59 c9 bb
       -0.0008775944 0.060270034 -0.007918066 -0.006144731
000380 9e 53 ce ba da 00 07 3d 05 58 4b 3c 08 6f 18 3c
       -0.0015741473 0.032959796 0.012411122 0.009303816
000390 44 64 88 3b 29 68 db bb 3a b9 ef b8 96 33 35 bc
       0.004162343 -0.0066957665 -0.00011430909 -0.011059662
0003a0 36 f3 78 bc 26 8c 62 bb 78 76 01 bc 87 ef 9c 3c
       -0.015194705 -0.0034568398 -0.00790178 0.019157184
0003b0 1d eb 11 bb 3e cd cf bb 59 47 74 3c c2 49 3d bc
       -0.0022265383 -0.0063416054 0.014909589 -0.01155323
0003c0 e8 66 87 ba 87 8f 34 3c d7 73 d6 bb 2e 27 01 3c
       -0.0010330351 0.011020548 -0.006544571 0.007882876
0003d0 71 04 07 3c d5 c7 f6 3a cc 41 0a bc 97 cc 94 3c
       0.008240805 0.0018827865 -0.008438539 0.018163962
0003e0 be 6d 33 bb 39 85 ed bb ec 93 e1 3c 8e d0 7e 3c
       -0.0027378644 -0.0072485474 0.027536355 0.015552653
0003f0 1f 89 66 3c 80 43 80 b9 9e 08 64 3d a8 07 75 3c
       0.014070778 -0.00024464354 0.05567228 0.014955439

action_model._discrete_distribution.branches.0.bias f4 [2]
000000 02 06 98 bb fd 05 98 3b
       -0.004639388 0.0046393857
