Assets/Learning/AIRollABall/results/BiggerJump/AIRollABall/AIRollABall-4999989.pt (torch, 574872 bytes, 42 tensors)

network_body._body_endoder.seq_layers.0.weight f4 [128, 47]
000000 ff 1e 46 be 12 46 fa bd 54 73 80 bd c6 34 e4 3d
       -0.19347762 -0.12220396 -0.06271997 0.11142878
000010 c2 59 4d 3e 35 9d 14 be 86 a0 ce 3b 45 3a 37 3d
       0.20053771 -0.14513095 0.006305757 0.044733305
000020 ec 60 7e bd 73 5a 9c ba a5 7a 5e be 6c b2 8c bd
       -0.06210415 -0.0011928811 -0.21726473 -0.06869969
000030 5f 73 2d 3d 62 ef 0f 3e 2a 29 e5 bd 51 54 03 be
       0.042346355 0.14056161 -0.11189492 -0.12825133
000040 eb fa ef bd b3 22 2c bc 61 94 8c be 8d 24 55 bd
       -0.11717781 -0.01050632 -0.27456954 -0.05203681
000050 36 9d f5 3d 89 fb 70 bc 37 4a d7 3d f7 5b 99 3d
       0.11992876 -0.014708408 0.10512202 0.07488244
000060 a9 35 f5 3d ba 40 a7 bd 43 55 ef 3d e0 e8 6a be
       0.119731255 -0.081666425 0.11686184 -0.22940397
000070 33 63 5a bd e6 da 16 3e 8e 2a 50 3e 55 72 6d be
       -0.05331726 0.1473194 0.20328733 -0.23188145
000080 cd f3 34 3d df 28 a0 3e d1 61 9a bb 86 b5 ae bd
       0.04417782 0.31281182 -0.0047113677 -0.085307166
000090 f1 e0 3e be 6b a6 1b 3d 9b 25 2f 3e 74 55 0c be
       -0.18640496 0.038000505 0.17104189 -0.13704473
0000a0 92 5b d9 bd 85 c7 40 3e 0c 24 e9 bd 83 1d 4d 3e
       -0.10613169 0.1882611 -0.113838285 0.20030789
0000b0 c3 77 f9 bd 8c cb 3f 3e ed 56 60 3d 9e a4 47 be
       -0.12181046 0.1872999 0.0547704 -0.1949639
0000c0 80 b7 93 bd 1b 90 f2 3c 38 29 96 bd c8 5a e9 3d
       -0.07212734 0.02960973 -0.073320806 0.11394268
0000d0 b3 66 c2 3e 87 bf 95 bc 4f 3a 91 bd 25 fa 47 3b
       0.37968978 -0.018279804 -0.070911996 0.0030514088
0000e0 81 bf b1 3d 96 15 01 3e 6f aa cd 3d 71 4d 65 bd
       0.086791046 0.1260589 0.10042273 -0.055982057
0000f0 a1 b4 10 3d 7e c2 57 3e 72 a3 7a 3d d1 e9 b1 bd
       0.03532851 0.21070287 0.06119103 -0.08687175
000100 5d 0f 0f 3e af c7 8b be 0e 39 1d be e8 c8 aa bc
       0.13970704 -0.27300784 -0.15353796 -0.020847753
000110 fd db 71 3e be 50 16 be 89 0c d5 3d d1 03 0b 3e
       0.23619075 -0.14679238 0.104027815 0.13575675
000120 bb 68 3f bd 10 c6 33 be f6 52 0a 3e 2c a1 41 3d
       -0.046730738 -0.17556024 0.1350821 0.047272846
000130 00 64 6d be f1 ae 9e 3d 02 b9 3c 3e 21 11 ab 3d
       -0.23182678 0.07748211 0.1842995 0.083528765
000140 68 4e 41 be 39 d7 6a bc 3a a0 5c be aa 33 b3 3c
       -0.18877566 -0.01433354 -0.21545497 0.021875221
000150 ad ac 51 bd 18 62 eb 3d 16 21 1f be 90 c6 45 3e
       -0.051190067 0.11493319 -0.15539965 0.19314027
000160 64 d0 3a 3e db e4 c6 bd 95 5e 92 3d 8a b3 4b 3d
       0.18243557 -0.097116195 0.07146946 0.04973177
000170 07 e5 76 3e df 3c a5 bd 23 55 06 be bc 65 f7 bd
       0.24110804 -0.08068251 -0.13118415 -0.12079951
000180 be 9f 8d 3d 08 f6 8d 3e 72 76 a6 3d 14 c3 f6 3d
       0.06915234 0.2772677 0.081280604 0.12048927
000190 cc e5 99 3d c0 06 3e bd 71 10 f3 bd 6f 2d ff bd
       0.075145334 -0.046393156 -0.1186837 -0.12459838
0001a0 30 92 19 3e d3 4c 0b be 15 a1 48 be bc 65 f8 3d
       0.14997172 -0.13603525 -0.19592698 0.12128779
0001b0 48 ad 1a be 85 04 0e be 5f 6a 45 bc 48 24 18 3d
       -0.15105164 -0.13868912 -0.012049287 0.037143975
0001c0 7a a5 6d 3e f5 ae 3d be 2b 5d 3d bd 44 52 08 3e
       0.23207656 -0.18523772 -0.04623143 0.13312632
0001d0 7b c8 3d 3d 73 fb 1a bd 81 cf 63 3d a3 e4 a8 bd
       0.04633377 -0.037837457 0.055617813 -0.08246734
0001e0 54 3c 8c bd 19 2d 5d bd 85 21 3f bd e5 64 3f 3e
       -0.06847444 -0.053998087 -0.046662826 0.18690832
0001f0 4d 49 82 bd 87 85 1e be 55 2a 2b be 54 30 c1 3d
       -0.06361637 -0.15480624 -0.16715367 0.09433046
000200 a7 7d 13 be 97 f3 2f 3e f5 d3 88 bd 6f 49 c2 be
       -0.14403401 0.17182766 -0.066810526 -0.3794665
000210 5d ec cc bc 67 ab 54 bd 63 6a 97 3d a7 88 d3 be
       -0.02501505 -0.051921275 0.073933385 -0.41315195
000220 5f 88 0a bd a0 1a 78 be a0 52 34 3e 8a e2 e8 3c
       -0.03382146 -0.24228907 0.17609644 0.028428335
000230 28 ee 2a be 4f 1a 54 be bc e9 af bc 67 3b 91 3d
       -0.16692412 -0.20713161 -0.021473758 0.07091408
000240 67 51 41 bd 94 37 99 3d 07 c0 a6 3d 5a 44 02 3c
       -0.047196772 0.07481304 0.08142095 0.007950867
000250 96 4c 8c bc 81 76 64 3d f1 ab b6 be d4 ae 3b be
       -0.017126363 0.055777077 -0.35678056 -0.1832841
000260 33 66 3f be 62 b5 56 bd 6c 35 32 3e 2f 11 1a 3e
       -0.1869133 -0.052419074 0.17403191 0.15045618
000270 cf 24 0b be b0 21 55 bd e4 fe f3 3c fd a0 8e 3d
       -0.1358826 -0.05203408 0.029784627 0.069643
000280 fc bc 8b 3e fd f1 18 be a2 fe 7b 3e a7 74 80 be
       0.2729262 -0.14936061 0.24608853 -0.25089
000290 6d 54 ef 3d 09 0e 46 bd 32 fa 30 bd 2c a7 82 bd
       0.11686025 -0.04835323 -0.043207355 -0.06379542
0002a0 60 35 c6 3d ba e2 48 3e ab 95 56 3d a4 1b 1c 3e
       0.09678149 0.1961774 0.05238883 0.15244919
0002b0 84 ef 49 be a9 17 96 3e 28 cd 2a be 4a f0 5c bd
       -0.19720274 0.29314926 -0.16679823 -0.053940095
0002c0 e2 32 4b 3e 94 d6 b4 3d b6 0d 9e be 5a ed 6a bd
       0.19843629 0.0882999 -0.30869836 -0.057355262
0002d0 62 93 c0 bd 8a 50 3c 3d 8f c6 d5 3d a1 6c 6d bd
       -0.09403111 0.045975246 0.10438263 -0.057964925
0002e0 ce 69 04 3d 38 7c 0b 3e 56 2b 9d be 80 fd 9a bc
       0.032327466 0.13621604 -0.30697125 -0.018919706
0002f0 04 66 19 be 6a d6 ef 3d 22 54 52 3e 58 a6 91 3d
       -0.14980322 0.11710818 0.20539907 0.07111806
000300 ae 04 79 bb 97 f0 69 3e 86 e7 07 3d 3a 6e 1e 3d
       -0.0037997174 0.22845684 0.033179782 0.03867934
000310 83 ca db 3c 3e 90 9d 3e ff 40 42 3e 03 c1 c6 be
       0.026829964 0.3077411 0.18970107 -0.3881913
000320 59 fb 82 3e 55 ee 04 3e 96 e1 93 3d e6 48 a5 3e
       0.25582388 0.12981541 0.072207615 0.3228218
000330 bf f8 91 3e 93 8c d0 3e 2d 7e 8c 3e 6e a1 a2 bd
       0.2851009 0.4073225 0.27440014 -0.079409465
000340 a7 b5 63 3e 92 36 09 bc c3 72 48 3e ba 63 00 be
       0.22237264 -0.008374827 0.19575028 -0.12538043
000350 de d5 70 3d ed 7f b1 3c 6d f6 94 bc 88 70 1d be
       0.05879771 0.021667445 -0.018183911 -0.15374959
000360 a1 82 3a 3e 97 58 36 be ad 4b 24 3e 59 14 d4 3e
       0.18213893 -0.17807232 0.16044493 0.41421774
000370 43 33 95 3e 08 1f c2 bd 3a 85 80 be 2f 7b 3f 3c
       0.29140672 -0.09478575 -0.25101644 0.011687084
000380 6f 45 1b 3e 1e 28 2d be e7 94 cc 3b 6d f1 ff 3c
       0.15163206 -0.16909835 0.0062433365 0.03124305
000390 9c f8 53 3d 43 a9 c9 bd b6 80 f5 3c 3d 2a be be
       0.051750764 -0.09846737 0.0299686 -0.371416
0003a0 bd 2a 26 3e 93 11 b6 3d 94 0a f8 3e af 1b 06 bd
       0.16227241 0.08890071 0.4844557 -0.032741245
0003b0 52 b7 1a bd 3a f4 b9 bd 34 94 e1 3d e0 74 84 bb
       -0.037772484 -0.09079786 0.11014596 -0.004042253
0003c0 bf 60 40 3e d5 ae 8f 3d dc 24 47 3e 4b 2a a3 3b
       0.18786906 0.070157684 0.19447654 0.004979407
0003d0 ee a6 9e bd af 55 20 bc 27 6b 15 3e 66 7b 25 be
       -0.07746683 -0.009786054 0.14591657 -0.16160354
0003e0 e6 1f 8d bd c6 d1 4d 3e f0 9a 25 3c fe 9f c5 3d
       -0.0689085 0.20099553 0.010107741 0.09649657
0003f0 57 af e1 bd c8 df 81 3e cd dc 1d be e5 b2 80 3c
       -0.110197715 0.25366044 -0.1541626 0.015710304

network_body._body_endoder.seq_layers.0.bias f4 [128]
000000 71 16 a3 3b c0 1d d0 bc 21 4a 3a bd e3 de 6f bc
       0.0049770405 -0.02540481 -0.04548085 -0.014640543
000010 0a e2 3a 3d 03 9d 4f bc 0a 31 a0 3c 9d 3a 50 3b
       0.045625724 -0.012671712 0.019554634 0.0031773217
000020 8a 28 14 bd 85 a2 f0 3b 4d e7 89 3b 3c 37 61 bd
       -0.036171474 0.0073435926 0.0042084814 -0.054984316
000030 be 1e ac bc a0 75 72 bd bc 36 86 bc f7 dc 05 bd
       -0.021010753 -0.059194207 -0.016383521 -0.03268143
000040 f4 c7 2a bd ca 0b 48 3d 69 0d 9a 3b f6 df db bb
       -0.041694596 0.048839368 0.0047013056 -0.006710048
000050 ae 5c a6 3b 52 68 59 ba 7b 2a 6a 3d 22 0c 33 bd
       0.0050769662 -0.0008293438 0.05716942 -0.043712743
000060 34 31 62 bd eb 1a 35 bd 23 7b 95 bc b7 5e 82 3d
       -0.055222705 -0.044215124 -0.018247193 0.06365722
000070 ee 24 76 bc 05 1c f7 bc 77 ae 94 bc b2 3b 28 bc
       -0.015023453 -0.030164728 -0.018149598 -0.010268139
000080 aa c5 da bc 54 d1 56 bd 39 4f b6 bc b6 6c 25 bd
       -0.026705582 -0.052445725 -0.022254573 -0.040386878
000090 1a 5f 29 bd f9 34 2a 3d 0e 2c 16 3a f9 42 dd bc
       -0.04135046 0.041554425 0.00057286106 -0.027009474
0000a0 93 2a d3 3c b6 c1 c6 bc 38 b1 90 37 5a 58 99 3b
       0.025777137 -0.02426229 1.7248662e-05 0.004679722
0000b0 42 34 2a bc c8 f2 7c 3c 44 f7 08 bd d8 6c 58 bd
       -0.010388436 0.015438743 -0.033438936 -0.052838176
0000c0 f3 da 5b 3d e8 a3 93 3d 09 b6 37 bc 5a 5c 2e bd
       0.053675603 0.07208997 -0.011212834 -0.042568542
0000d0 bd b5 9a bc b4 60 32 3d 48 b7 a2 3b 20 37 eb 3b
       -0.018885488 0.043549255 0.0049656965 0.0071782023
0000e0 c7 74 01 bc 21 21 27 bd 98 bb dd bc af 9f c4 bd
       -0.007901377 -0.04080308 -0.02706699 -0.0960077
0000f0 a5 fd 7c 3d dd f9 f8 3b 34 2a c9 3c 91 8a b5 bd
       0.06176533 0.0075981454 0.024556257 -0.0886432
000100 ed b7 5d bd 81 a7 b0 bc 01 16 b5 bc 46 26 dc bd
       -0.054130483 -0.021564247 -0.022105219 -0.107494876
000110 a9 32 94 bc fe 54 08 3d 6a d8 51 bb 20 83 da bc
       -0.018090563 0.03328418 -0.0032019862 -0.026673853
000120 c0 b1 0a bc 49 32 76 3c 98 8d 2b bc fb aa fc 3c
       -0.00846523 0.015026637 -0.01047077 0.030843249
000130 20 18 be 3c 6d 46 71 bc 9b ad 01 bd dd cc 2c bd
       0.023204863 -0.0147262635 -0.031659704 -0.04218756
000140 28 c8 de 3c a8 a9 a1 bc 1b b9 fa 3a 5a 93 18 bd
       0.027195051 -0.019734219 0.0019128652 -0.0372499
000150 c6 f9 a7 bc 97 77 86 3c 6b 18 74 3d 3a 6d 5e 3b
       -0.020504843 0.016414447 0.0595936 0.0033939616
000160 7f b5 84 bc a8 e3 36 3d 5a c4 2a 3c 13 08 84 bd
       -0.016199825 0.044650704 0.01042279 -0.064468525
000170 2b 51 5e bd c7 03 05 3c 5b 52 af 3c e0 68 a7 bb
       -0.054276627 0.008118576 0.021401575 -0.0051089376
000180 fa 29 07 3d 67 c6 9f 3b 23 ee c4 3c 9a 18 9a 3c
       0.032999016 0.0048759463 0.024039334 0.018810559
000190 84 26 31 bd 26 34 e7 3c 55 9b a3 bb 65 6d ee bc
       -0.043249622 0.028223109 -0.0049928823 -0.029104898
0001a0 a3 71 ba bc 2f da ae bd 40 c9 16 bd 77 42 84 bc
       -0.022759264 -0.08537709 -0.03681302 -0.016144974
0001b0 27 18 53 3c 9f ed 54 bd 24 e3 57 bc ea e3 06 bd
       0.012884176 -0.051984426 -0.013176713 -0.0329322
0001c0 99 55 99 bc 14 5d 4c bc 15 68 74 bd 48 29 0f bb
       -0.018717574 -0.012473363 -0.059669573 -0.0021844674
0001d0 37 26 8b bd a1 0b f8 bc 0e e6 0f bd 25 9e 04 3d
       -0.06794398 -0.030278983 -0.035131507 0.03237738
0001e0 84 c9 84 bb 12 76 4a bd ca c3 7a bd 28 78 af b9
       -0.004052343 -0.049429007 -0.061221875 -0.00033468124
0001f0 22 17 73 3d c7 ec 4d bc 77 25 b0 3c c5 a1 98 3c
       0.059348233 -0.012568659 0.02150224 0.018631825

network_body._body_endoder.seq_layers.2.weight f4 [128, 128]
000000 62 a3 0d 3e c5 ee aa bd 9f a5 80 bd 06 43 0e bc
       0.13831857 -0.08346323 -0.0628159 -0.008682972
000010 05 f1 28 3d 1e 1d a1 3c d2 74 4d 3c e3 cc 34 bc
       0.04124548 0.019667204 0.012540059 -0.011035177
000020 30 79 80 bd b6 4e 14 be 2d c2 a0 bd 02 da 08 3e
       -0.06273115 -0.14483151 -0.07849536 0.13364413
000030 05 25 36 bd b1 54 bd bc 02 fd 64 bd d1 61 b5 bd
       -0.0444689 -0.023111673 -0.05590535 -0.088565476
000040 62 31 d5 3d de 0e ce 3d e9 04 c5 3d 72 a3 a4 3b
       0.1040981 0.100614294 0.09620077 0.005024367
000050 04 e8 8f bd 56 50 c8 bd 0d 9c 42 be 3c bb d7 3d
       -0.07026675 -0.09780948 -0.19004841 0.10533759
000060 21 82 a0 bb f0 6d 21 bd 33 23 80 3d a8 76 73 bd
       -0.004898325 -0.039411485 0.06256714 -0.05943933
000070 8f 2c 79 bd 82 cd 03 be a1 e3 87 3e 28 a4 79 bb
       -0.06083351 -0.12871364 0.26540855 -0.003809223
000080 5e ad ce 3d 7e f5 d4 bc 53 f8 a1 3c 15 b4 13 bd
       0.10091661 -0.025995966 0.01977173 -0.03606041
000090 25 e4 87 3c eb 2b bb 3d fc cb c2 bd b5 47 c1 bd
       0.01658828 0.09139236 -0.09511563 -0.09437505
0000a0 cd b7 64 3d 27 22 41 3d 91 9a 28 3e d8 d4 b2 bb
       0.05583935 0.04715171 0.16465212 -0.005457502
0000b0 19 cc d6 bd 71 f1 d8 3c 16 77 8d bd cb 58 e8 3c
       -0.10488147 0.026482316 -0.069074795 0.028362652
0000c0 1c 77 f5 bd 0b ee ff 3d 45 c0 96 bd cc 6c 97 3b
       -0.11985609 0.12496575 -0.07360891 0.004621124
0000d0 fa 9c 88 bd a2 06 94 3c a2 29 2e 3d 8b 6e 0d 3c
       -0.06670566 0.018069569 0.042520173 0.0086323125
0000e0 14 b6 88 bd 0b d8 0a 3d 65 08 6e 3d 53 d0 2d be
       -0.06675354 0.03389744 0.058113474 -0.16974
0000f0 0e be e0 bd 90 0d 0e 3e 8e b7 d0 3c 8c cf 03 be
       -0.1097375 0.13872361 0.02547815 -0.12872142
000100 5b 31 de 3d ff 67 d8 bb 17 7d ad ba 4c 96 28 3e
       0.108492576 -0.006604194 -0.0013236132 0.16463584
000110 36 dc 8e bd e8 9a 0d be 0f 9f fa 3c 57 10 38 3d
       -0.06975596 -0.13828623 0.030593423 0.044937458
000120 71 29 fe 3c 57 94 f3 3a 29 5e 48 3d b5 9b 8b bc
       0.03102562 0.0018583637 0.048917923 -0.01704202
000130 45 20 11 bc 0c a1 23 bd e1 79 ee bd 99 c5 65 3d
       -0.008857791 -0.03994851 -0.1164434 0.056096647
000140 9f cc fb 3d 00 27 38 3c 5b c2 b8 3c 6f 2a 26 3d
       0.12294888 0.011239767 0.022553613 0.04056781
000150 34 6f 50 bd bf 89 67 bd a4 d0 0e be 5a 17 ce 3d
       -0.0508873 -0.05652785 -0.13946778 0.10063048
000160 ef 30 1f be d2 4c 91 3d ba 42 d8 bd 4c 2a 04 bd
       -0.1554601 0.070947304 -0.10559602 -0.0322669
000170 af db 07 bd b3 50 c5 bd 33 b5 93 3d 73 cd 25 3e
       -0.03316849 -0.09634533 0.072122954 0.16191654
000180 e1 c7 ca 3c c5 84 fc bd 70 88 02 3e b8 74 c6 3d
       0.024753513 -0.12330011 0.1274736 0.09690231
000190 ea db 2d 3e 3b 34 2f 3e 98 91 2f 3c 94 0d b8 bd
       0.16978422 0.17109768 0.010715865 -0.08986965
0001a0 c2 d7 af 3d 10 63 91 bd 4e 39 13 bd 14 c0 21 3e
       0.085860744 -0.07098973 -0.035943322 0.15795928
0001b0 48 88 a1 3d 1d 05 c0 3d e6 b2 4e bd ea 40 34 3d
       0.07887322 0.09375975 -0.05046358 0.04400722
0001c0 74 8f 0b be 45 b8 11 3d a9 63 06 3d 2c 86 43 3b
       -0.13628942 0.035576124 0.032809887 0.0029834611
0001d0 12 0d d1 3d d9 fd 10 3d 30 d2 65 3d f8 3b 95 3c
       0.10207571 0.035398338 0.056108654 0.018217072
0001e0 41 08 1a 3d 04 5f a2 bd 4a 01 48 3c 74 22 2a 3d
       0.037605528 -0.07928279 0.012207339 0.041536763
0001f0 c6 67 34 3d b9 59 2a 3e cd e2 70 bd 3b e8 fb 3d
       0.04404428 0.16635789 -0.058810044 0.12300154
000200 4f be 1f 3e b3 75 ac bb 8c a0 18 3e 83 a3 8b bd
       0.1559994 -0.0052630543 0.14904994 -0.06818297
000210 d3 3e d7 3c b7 4e f7 3c 16 bf d0 bd 3d 4e 2d bd
       0.026275074 0.030188901 -0.10192697 -0.042310942
000220 9b 0a fc 3d 56 bc e1 3d e9 e0 83 3d 99 95 df 3d
       0.1230671 0.1102225 0.064393826 0.10917205
000230 46 c6 34 bd 0b 14 cf 3d 41 35 ec bd c5 43 b6 bc
       -0.0441344 0.10111245 -0.11533595 -0.022249112
000240 44 2f f1 bd 03 42 0c bd 0e 58 9a bd 60 8f fe bc
       -0.11776593 -0.03424264 -0.07536326 -0.031074226
000250 4a 76 8c 3d c0 69 d5 bd 5f e9 13 bd 08 eb 06 3d
       0.06858499 -0.10420561 -0.036111232 0.032938987
000260 88 ba 84 bd 11 62 a4 3d 39 00 34 be 96 de 90 bd
       -0.064808905 0.08026517 -0.1757821 -0.07073705
000270 6e 9f a5 3c f4 0f 07 3c 10 15 8f 3d 67 50 e8 bd
       0.020217624 0.00824355 0.06986439 -0.113434605
000280 37 5d 4e bd c5 cd 1f 3d 46 a0 b1 b9 b0 1d 13 bd
       -0.050381865 0.039014596 -0.00033879484 -0.035916984
000290 b0 e0 45 bd 30 18 f7 3d 17 4a 02 3e fc 83 8f 3d
       -0.04830998 0.1206516 0.12723576 0.07007596
0002a0 f0 4e 2e be 3c 96 1f 3d a6 c9 45 3d 59 6e 9f 3d
       -0.170223 0.038961634 0.04828801 0.07784719
0002b0 9e 26 30 3e d8 67 8b 3d d2 ac 00 bc 9f e8 1e b9
       0.17202231 0.06806916 -0.007853704 -0.00015154712
0002c0 6a 05 84 bd 3d 12 73 3d e2 a2 ce bd e4 55 57 bd
       -0.06446345 0.059343565 -0.10089661 -0.052572146
0002d0 90 93 da bd 9b df c0 3d 29 4a 07 bd 43 8c e9 3d
       -0.106726766 0.09417649 -0.03302971 0.11403706
0002e0 49 5b 92 bd 45 cb 83 bd ae e2 1e be 7f b1 49 3d
       -0.071463175 -0.06435255 -0.15516159 0.04924154
0002f0 88 b0 b2 3d aa b0 b2 bc 93 99 30 ba 69 21 5e bd
       0.08725077 -0.021812756 -0.00067367515 -0.05423108
000300 41 93 10 3e 66 43 c3 3d 65 3b 05 be 21 60 bc 3c
       0.14118673 0.095343396 -0.13010938 0.022995057
000310 8e a9 ad 3c 59 a5 d2 3d a5 50 c7 3c 45 34 3e 3c
       0.021199014 0.10285444 0.024330446 0.011609142
000320 af bf 1f 3d e5 ab 07 be 1f 81 c4 3d 35 6f 80 3d
       0.039001163 -0.13249166 0.095949404 0.06271211
000330 90 2a 7b bc 4f f0 74 3d 78 0d 02 3c a1 14 eb bd
       -0.015329972 0.05979949 0.0079377815 -0.11478544
000340 5d db d8 bc bb 4f 16 be bb 5a 9e bd e8 69 8e bd
       -0.026471788 -0.14678852 -0.07732149 -0.06953794
000350 de 4b 6a be 36 db 1a bd ed 33 c3 bc 4f 3b b9 bb
       -0.22880504 -0.037806712 -0.023828471 -0.005652822
000360 d1 1b 84 3d 04 7c 67 3d 57 dd 44 3e d6 49 4f 3e
       0.06450618 0.056514755 0.1922506 0.2024301
000370 e1 ed a6 3d 33 aa 10 3e b9 3e 19 be 80 af 37 bb
       0.081508406 0.14127426 -0.14965333 -0.002802819
000380 c3 76 15 be 89 5d 10 bd be 55 f4 bd 4b a2 5e 3d
       -0.14596085 -0.035245452 -0.119304165 0.054353993
000390 4b 55 10 be eb a9 f5 3d b8 51 67 3d 5f c4 ab 3d
       -0.14095037 0.119953 0.056474417 0.08387064
0003a0 ba a7 96 bd da 29 67 bd 6d 16 60 bc d7 a3 be 3b
       -0.0735621 -0.056436397 -0.013677222 0.005817871
0003b0 ee a3 8e bd 26 d0 92 bd ca 7b 0d 3d ff 66 29 3e
       -0.06964861 -0.071686074 0.034541883 0.16543196
0003c0 21 66 39 be 3a db 59 3d 9c 89 af bd 03 d5 af 3d
       -0.18105365 0.053187586 -0.08571169 0.08585551
0003d0 5e 58 da 3a dc 65 ab bd 42 d2 83 bb e8 cb 3d 3e
       0.0016658416 -0.083690375 -0.0040228674 0.18534815
0003e0 26 d2 05 be 83 23 7c bb b5 93 84 3b 6d 49 fb 3c
       -0.13068447 -0.0038473315 0.0040459284 0.03067466
0003f0 b2 b9 1b be 79 ca bd bd b3 d8 a8 bd 71 a8 5f 3c
       -0.15207556 -0.09267134 -0.08244457 0.013650999

network_body._body_endoder.seq_layers.2.bias f4 [128]
000000 17 ec 3a bc c6 72 f6 bb 3c 37 1b 3d eb 09 86 bc
       -0.011408827 -0.0075210063 0.037894472 -0.016362151
000010 4a d9 c4 bc d8 a5 50 3c 3c 61 a1 bc f0 4c 64 bc
       -0.024029393 0.012734853 -0.019699685 -0.013934359
000020 aa 86 a7 bc 03 a9 8c bc cb b9 b2 bb 62 10 9a 3b
       -0.020449955 -0.017170435 -0.005454277 0.00470166
000030 3d 99 09 3d 78 83 25 ba 9b 0e f0 3c 80 84 64 bc
       0.033593405 -0.0006313841 0.02930384 -0.013947606
000040 c3 06 c4 3c f6 d5 2d 3d 33 10 06 bd ff 47 70 3c
       0.023929005 0.042440377 -0.032730293 0.014665603
000050 79 fd e4 bc ac 7b ed bc 8f f4 46 bb c2 c8 07 bc
       -0.027952896 -0.028989635 -0.003035817 -0.0082876105
000060 f6 03 0e 3d db 79 ff 3b bd ad 7a 3a 41 22 5f bc
       0.034671746 0.0077965087 0.0009562632 -0.013619007
000070 a8 21 28 bc 4b 16 d4 3c 71 6b 16 3d 2c e8 da bc
       -0.0102619305 0.025889536 0.036723558 -0.026722036
000080 54 bb 5c 3d 63 26 63 bb 49 15 10 3d 91 6e ca 3c
       0.053889588 -0.0034660331 0.03517655 0.024710925
000090 f9 56 86 3d d6 2b c5 3d e2 87 86 bc 72 7e ba 3d
       0.065595575 0.09627502 -0.016422216 0.09106149
0000a0 61 1c 2d ba 21 56 25 3d 81 aa 5b bc 41 78 1b bc
       -0.0006603655 0.040365342 -0.0134073505 -0.00948912
0000b0 4a 41 af 3c d1 7f 79 ba 2d a2 cd 3d 2c bb 8c 3b
       0.021393437 -0.00095176423 0.10040698 0.0042947736
0000c0 25 13 fb bc 58 8b 21 3d 9e e2 33 bd 73 16 a4 bc
       -0.030648777 0.03943953 -0.04391729 -0.020030236
0000d0 b9 eb 68 3d 1e 9c 2c ba 7a 02 13 bd 75 d3 0e 3d
       0.056865428 -0.00065845426 -0.035891034 0.03486963
0000e0 38 1a af 3c 44 1c 43 bb 22 2b 02 bd f2 92 bf 3b
       0.021374807 -0.0029771486 -0.031779416 0.0058463747
0000f0 f0 9d d0 bc e8 4d a8 bc ed 8c 4d bc ca c9 ff ba
       -0.025465935 -0.020544961 -0.012545806 -0.0019515094
000100 93 f1 e5 bb 38 fd bd b9 dd 06 df 3c 1d e2 78 bc
       -0.0070173233 -0.00036237552 0.027224952 -0.015190628
000110 44 00 46 3c ed bf 21 3c 29 26 fa 3b f4 33 06 bc
       0.012085024 0.009872419 0.0076339436 -0.0081910975
000120 dc 07 0e 3d 8c ec 01 bc df c2 89 3d e7 60 8d 3b
       0.034675464 -0.007929932 0.06726622 0.00431453
000130 6a ed 13 bd 5c a8 81 bb 51 dc 1c 3c 80 28 b4 bb
       -0.036115088 -0.0039568376 0.009574012 -0.005497992
000140 ce 68 8e 3d 81 b1 a7 bc 4a fa cc bc ff 9c e9 bc
       0.06953584 -0.020470383 -0.02502169 -0.028517244
000150 64 b0 77 bc f8 27 b9 3c a9 1f ae bc 95 e6 1b bd
       -0.015117738 0.022602066 -0.021255331 -0.038061697
000160 1f 49 6b 3c 6b 6b 3f bd a4 1b 06 3d a1 ff 95 bc
       0.014360695 -0.0467333 0.032741204 -0.01831037
000170 7c 2f 15 bc 24 61 e8 3b 1a be 0c 3c 1a e2 87 bb
       -0.009105559 0.007091658 0.008590246 -0.0041468265
000180 3a d7 84 3c 8d 8e 2b bc 2d 9e 4c 3b 3b 62 89 ba
       0.01621591 -0.0104709985 0.003122221 -0.0010481545
000190 76 26 65 3b 18 78 17 3d 2f 21 0f bd 9a 57 15 bd
       0.0034965551 0.036979765 -0.034943756 -0.036460496
0001a0 5b ef 5d 3c 7c 32 cc 3c 9f c5 0f bd 0e a3 e9 ba
       0.013545836 0.024926417 -0.035100576 -0.0017825083
0001b0 1f 70 0c bd c5 ab a3 3c 7d 3e a1 3c de 84 32 bc
       -0.034286615 0.019979367 0.019683117 -0.010895936
0001c0 0c 26 02 bd 26 5f ad 3b 7f c7 19 3c 8f 0d 01 3b
       -0.031774566 0.0052908836 0.0093859425 0.001969192
0001d0 db 54 ba bc 60 e1 15 bc 13 cb 3e 3d 2c 4f 83 bc
       -0.02274554 -0.009147972 0.046580385 -0.016028963
0001e0 a6 4c 9a 3d 9c b0 e2 3b 68 55 9f bb 0e 57 ad 3b
       0.07534151 0.006918026 -0.004862476 0.0052899187
0001f0 ef 4c b3 bc 25 38 88 bc bb 78 97 3d ae 05 c7 bb
       -0.02188727 -0.016628334 0.073960744 -0.006073675

action_model._continuous_distribution.log_sigma f4 [1, 3]
000000 00 cb 88 be 40 83 89 be 05 ff 0d bd
       -0.26717377 -0.26857948 -0.034667034

action_model._continuous_distribution.mu.weight f4 [3, 128]
000000 6a 63 eb ba bf 9f e0 3c 80 5b 0b bd 19 a8 51 3b
       -0.0017958705 0.027419923 -0.034022808 0.0031991063
000010 a9 df 8b bd 63 22 cd bd 1c 31 aa b9 70 fc bf bc
       -0.06829769 -0.10016324 -0.00032461516 -0.023435801
000020 00 74 35 3b 53 9b 45 bc 18 2f 33 3b 74 ce a1 3c
       0.002768755 -0.012060958 0.0027341302 0.019751765
000030 62 51 a3 3d 23 fd 92 bc 45 34 1b 3d 26 38 0b bd
       0.07974507 -0.01794297 0.037891645 -0.033989094
000040 c4 a4 31 bc e6 32 3e bd 54 63 55 bb b1 19 0e be
       -0.010842506 -0.04643526 -0.0032560425 -0.13876988
000050 94 28 09 3b 70 3b 87 bc a5 3b 49 bc 9f e6 ab bc
       0.0020928727 -0.016507834 -0.012282287 -0.020983992
000060 6a 2e b0 bd a8 10 cd bd 20 a2 f7 bc 84 e1 18 bd
       -0.08602603 -0.100129426 -0.030228674 -0.037324443
000070 e4 82 e0 bb e4 66 82 bc 8f 7f 44 bc 1d 13 3f bd
       -0.006851541 -0.015918203 -0.011993303 -0.046649087
000080 e8 bf 74 3d 76 0e c4 3c 09 db b1 3a c7 88 dc 3c
       0.05975333 0.023932677 0.0013569306 0.02692069
000090 7f 9f 5d be 2a 4a c5 bc 6e cf dd 3c c5 b9 96 bd
       -0.21642874 -0.024083216 0.02707645 -0.073596515
0000a0 10 58 79 bc 9d 54 c8 bc 3c 6c 18 3c 09 43 b5 bb
       -0.01521875 -0.02445441 0.009303149 -0.005531673
0000b0 e8 b5 ee 3c 24 95 e7 3b e1 ea c9 3d 94 c0 eb bb
       0.029139474 0.0070673395 0.09859253 -0.007194588
0000c0 ba fc 71 bc 5d bd 2d 3d ff eb 45 bc 2e 3c 28 3d
       -0.014769727 0.04241692 -0.012080192 0.041073017
0000d0 b8 55 07 3d e9 bd f5 3c fd 86 52 bc 2d 91 82 3d
       0.033040732 0.029997783 -0.0128495665 0.06375346
0000e0 51 34 62 3c b4 04 ff bc c4 b6 74 bb 8d d9 60 bb
       0.0138064185 -0.031130172 -0.0037340382 -0.0034309358
0000f0 bd a5 9b bb b1 6d 96 3c 69 ce 40 bd 2e 05 17 3d
       -0.004749982 0.018362852 -0.047071848 0.036870174
000100 f7 02 28 bd ed 70 a6 3c 42 c6 fb 3c 5b b9 81 bd
       -0.041018452 0.02031752 0.030734185 -0.06334182
000110 bd 3a 12 3b a9 df 82 3b e2 ef 88 3d 12 25 31 ba
       0.0022312843 0.0039939475 0.06686379 -0.0006757538
000120 41 ec ed bd a1 3b cb ba 43 08 90 3d 98 ca 34 bc
       -0.116173275 -0.0015505442 0.07032826 -0.01103463
000130 06 95 14 37 1c 27 5f 3c 4a 7c 72 3c bd 5b c3 bc
       8.856185e-06 0.013620164 0.014800141 -0.023847455
000140 c0 6d 0f be 38 a9 59 bd b2 1c 21 bb c8 a7 a1 bc
       -0.1400671 -0.053139895 -0.0024583754 -0.019733325
000150 9b f2 b8 bb ee fe 7e 3c 54 1f f5 bc ba df 15 3c
       -0.005644155 0.01556371 -0.029922165 0.009147579
000160 86 89 29 3c 91 dd 02 bb d1 52 f6 3c 75 93 d0 bc
       0.01034773 -0.001996849 0.030068787 -0.025460938
000170 97 18 23 3b f0 e4 fa 3c f3 b8 d7 3b 8d b5 92 bd
       0.0024886483 0.030626744 0.006583327 -0.07163534
000180 87 b9 9f 3c 2a 08 24 3c c4 d7 60 3b fb 01 29 3b
       0.019497646 0.010011712 0.0034308294 0.0025788534
000190 dd 58 06 3c f7 c1 de bd 99 06 c0 bb 23 21 37 bc
       0.008199898 -0.108768396 -0.0058601615 -0.011177334
0001a0 5e 85 ca 3c d5 58 06 3d 04 cb 51 bd c3 6b 12 3c
       0.024721798 0.03279956 -0.051219 0.008936825
0001b0 25 62 ac bb 33 7e 48 bd 4d 40 63 3c 9e e1 ce ba
       -0.005260723 -0.048948478 0.013870311 -0.0015783792
0001c0 6b 1a 58 3d 7f cb 95 bd f2 d0 d8 bc 5d b0 d0 3b
       0.05275957 -0.073142044 -0.02646682 0.0063686804
0001d0 b4 6f 7f bc a6 7c aa 3c a2 89 54 3d 90 49 2a bd
       -0.015590597 0.02081139 0.05188907 -0.04157406
0001e0 19 31 ca bd e8 71 6b 3c a3 b3 11 3c ce 2b c5 3c
       -0.09872646 0.014370419 0.008892926 0.02406874
0001f0 58 52 8b bc 2c b1 b0 3a c1 8c 8a 3d 54 0d 94 3c
       -0.017007038 0.0013480536 0.06765128 0.018072762
000200 d7 34 fe bc e4 96 63 3c ca a6 be 3d 23 7c 06 bd
       -0.031031055 0.013890956 0.09309156 -0.03283323
000210 3f 3d b6 ba aa d0 c4 bc da 86 d4 3c 65 ab 2c bc
       -0.0013903751 -0.02402528 0.025943208 -0.0105389105
000220 33 ee ad bc 8b 47 06 3c 93 58 67 3c a7 39 23 3d
       -0.021231746 0.008195768 0.014120239 0.039849903
000230 0d a1 e0 bb 92 9c 76 3d c1 90 98 bc 4c 87 46 3d
       -0.0068551362 0.06020791 -0.018623712 0.048468873
000240 ae 81 36 bc 4e 80 d3 3d cc 2d 0f bc df 37 45 3c
       -0.0111393165 0.103272066 -0.008738946 0.0120372465
000250 38 80 c0 3a 04 ec 05 3c 80 f4 13 bd 40 7f cd bc
       0.001468665 0.008173946 -0.036121845 -0.025085092
000260 6a b2 3c 3d 51 ce 2d 3d 11 95 f1 3c cb 65 3a 3d
       0.046068586 0.042433087 0.029490026 0.045507234
000270 e0 d6 37 bd 28 c2 e0 3d 9c 80 90 bd da b1 22 3d
       -0.044882655 0.10974532 -0.0705578 0.039720394
000280 5f 1a c3 3c 06 de af bc a2 8f 84 bd 64 84 00 bd
       0.023816286 -0.021468174 -0.06472708 -0.031376258
000290 af 6f 86 bc 5c ac 0a be ee ea 0b bd da 95 ea bd
       -0.016410677 -0.13542312 -0.034159593 -0.11454363
0002a0 d6 7b 82 3d de 72 97 bd 58 6d e5 bb 4a 8c 20 3d
       0.06371276 -0.07394956 -0.00700156 0.03919629
0002b0 d2 da 53 3b 7e 37 a6 3c d8 17 3a bc bb f2 54 3b
       0.0032326472 0.020290133 -0.011358224 0.0032493311
0002c0 26 fe fb 3a 40 f1 61 3c 9c 3a 72 3c c7 91 30 3b
       0.0019225522 0.013790429 0.014784481 0.0026942359
0002d0 69 4d d5 bd 64 66 2e 3d cf 04 42 bc cc d3 73 3c
       -0.104151554 0.042578116 -0.011841967 0.014882039
0002e0 86 c7 bc 3b 23 b2 0c bd 0f d2 47 3a 54 41 54 bc
       0.0057610897 -0.034349572 0.0007622549 -0.012955029
0002f0 8f 5a c8 3b 0e ba 90 bc 70 d3 ba 3b a6 49 c6 ba
       0.006114311 -0.017666843 0.005701475 -0.001512815
000300 d4 8c 08 bc 14 34 fa 3c d5 8f 01 3c bc 0f 46 3c
       -0.008334357 0.03054241 0.007907827 0.012088712
000310 3d f9 86 bc 06 4d bd 3c ef c8 a6 bc e3 51 30 bc
       -0.016476268 0.023108017 -0.020359484 -0.010761711
000320 c8 38 a5 bd ef ea 83 bc eb 24 0e bd f6 45 ad 3b
       -0.08067471 -0.016103236 -0.034703176 0.005287881
000330 2b 05 b0 3a 0b 47 a5 bc ec ba b0 bc a6 16 76 3d
       0.0013429275 -0.020175477 -0.021573506 0.060080193
000340 12 7c c3 bd 64 26 5e 3b 0d ba 04 3c 1d 12 bb 3c
       -0.09545149 0.0033897394 0.008100999 0.022835786
000350 b3 ba a1 3c 3e 29 ae 3c 33 c3 28 3c b1 65 84 bc
       0.019742345 0.0212599 0.010300445 -0.016161771
000360 52 9a 5f 3d 95 6a 1f bc d2 e7 95 bd e6 8a 07 3d
       0.05459053 -0.009730001 -0.07319607 0.03309145
000370 86 06 fc 3b 55 32 78 bd 6a d2 84 3a 65 56 55 3d
       0.0076912073 -0.060594875 0.0010133509 0.052084345
000380 0e 2c 22 bd 58 e0 bf bc 15 fa 55 3c 2e 7e d4 bb
       -0.039592795 -0.023422405 0.0130601125 -0.0064847684
000390 1d b4 9e 3c 04 12 9b 3c 4f 6c 74 3a c1 00 56 3c
       0.019372994 0.018929489 0.00093240006 0.013061703
0003a0 69 40 a8 3c c7 22 43 bb f6 80 50 bc 1f e7 39 bd
       0.020538526 -0.0029775368 -0.012726059 -0.04538643
0003b0 e6 5b 67 bb 91 f2 a4 3d 3a ed ff 3c 95 79 ac bb
       -0.0035302578 0.08054078 0.031241048 -0.005263517
0003c0 81 3d c0 bb 81 3a 8c 3c 70 88 3a 3d 47 04 82 3a
       -0.005866707 0.01711774 0.045540273 0.0009919488
0003d0 1d 14 83 bc 0d 77 50 3c 73 19 16 bd 15 5a d0 bb
       -0.016000802 0.012723696 -0.036645364 -0.006358395
0003e0 e4 a5 45 3e 31 ac 1e 3b bb 5d 43 bc 80 8a cb bc
       0.19301564 0.002421152 -0.011924203 -0.024846315
0003f0 49 c5 0b bd 46 54 a4 bb 2a e8 03 be 50 f0 80 3b
       -0.034123693 -0.005014929 -0.12881532 0.0039348975

action_model._continuous_distribution.mu.bias f4 [3]
000000 69 be e5 3c b2 16 10 3b d3 35 10 3c
       0.028044896 0.0021986184 0.008801895

action_model._discrete_distribution.branches.0.weight f4 [2, 128]
000000 71 88 40 bc e3 74 0e bc 2b 5f 82 3c 07 2d 01 3c
       -0.01175128 -0.00869486 0.01591452 0.0078842705
000010 6b 03 22 bc 14 3f 63 3c 17 1c 67 3c 07 ea 28 bb
       -0.00988851 0.0138700195 0.014105818 -0.0025774257
000020 57 c4 01 3b 04 18 63 bc b9 7d ac 3b a8 01 78 bc
       0.0019800866 -0.013860706 0.0052640107 -0.015137114
000030 78 6f 0a 3d bb 7e 0c 3c 8f df 19 3c 29 e6 34 3c
       0.03379771 0.008575137 0.009391679 0.011041203
000040 7e 8a e2 bb 48 a5 ca bc a0 22 78 bb 1f d7 14 3b
       -0.006913482 -0.024737015 -0.0037862435 0.002271123
000050 7e 38 ee 3b 2b 31 ef bb 6b f3 37 bc 6b 69 ad 3a
       0.007269918 -0.0072995625 -0.011227469 0.001323027
000060 1a ee c4 bc b5 52 52 3c 22 8e 4a 3b 93 1d 4a 3b
       -0.024039317 0.012837102 0.0030907472 0.0030840382
000070 3b 06 c6 bc 83 79 24 3d 01 45 9d bc 01 ae 2a 3c
       -0.024172893 0.040154945 -0.019197943 0.010417462
000080 85 2f 1e 3b 86 c2 61 ba 07 44 15 bb 66 0b 45 bc
       0.002413721 -0.0008612055 -0.0022776143 -0.012026643
000090 ef 13 18 3d 0b 1b 1e bd be 07 19 bc a2 42 2d bd
       0.037128385 -0.03860001 -0.009340225 -0.042299874
0000a0 84 65 1e ba bd e8 3b 3c 2b 6d 67 3b 54 48 7f 3c
       -0.00060423487 0.011469063 0.0035312872 0.015581209
0000b0 c9 21 17 3d 35 f2 05 3c 6f 04 1d 3d 40 a2 95 3c
       0.036897454 0.008175422 0.038334306 0.018265843
0000c0 a4 92 0b bc ab 8e c0 3b aa 6c a3 bb e2 ea 18 bc
       -0.008518849 0.0058763823 -0.004987319 -0.009333344
0000d0 68 ed f9 bb 4a 07 79 3a b8 c3 8a 3b ee 3f db ba
       -0.007627178 0.00094996823 0.0042347573 -0.0016727427
0000e0 db 97 1d 3c a8 8e c0 39 91 d2 41 bc 3c f6 b7 bb
       0.009618725 0.0003672738 -0.011829988 -0.00561407
0000f0 dd 5f 5b 3c f1 d8 5c bc 06 71 45 bb 49 22 08 3c
       0.013389555 -0.013479457 -0.0030127182 0.0083089555
000100 db b3 d5 37 1e f5 b3 bb 67 6d cd 3a bd 65 85 bc
       2.547533e-05 -0.0054918667 0.0015672863 -0.016283864
000110 44 5c f9 3b 95 d2 5c 3b 92 d1 d4 bb c7 c9 2d 3c
       0.007609876 0.0033694853 -0.0064947093 0.0106071895
000120 cf 65 45 bd d9 b4 0b bc cc a2 1b bc bc b0 bb 3b
       -0.048192795 -0.008527004 -0.009499263 0.0057278555
000130 34 24 82 bc e4 b3 ad bc 40 5e eb bb a8 95 30 3c
       -0.015886404 -0.021203943 -0.0071828663 0.010777868
000140 fd 9c af bc 23 cd 54 3c bb f4 83 3b 18 ae fc 3b
       -0.021437163 0.0129883615 0.004026977 0.0077111833
000150 1e 5e a4 3b 7f 1b e0 3b ef 76 58 3b db 9c 25 bc
       0.0050161025 0.0068392153 0.0033029874 -0.010108198
000160 75 74 87 bc 5f 64 72 bc ca c0 b0 bb 44 bd c1 39
       -0.016535023 -0.014794438 -0.005394076 0.00036952842
000170 a7 3e d7 3a 6d 51 a2 bc a1 e8 0a 3d 31 10 07 3c
       0.001642187 -0.019814217 0.03391326 0.008243606
000180 95 a0 61 3b a4 96 e5 bb 94 f2 58 3c 49 3d 44 3c
       0.003442799 -0.007006483 0.013241429 0.011977502
000190 6f 9c 3e b9 d7 0a c0 bc 73 73 3e ba e9 51 c5 bc
       -0.00018178088 -0.023442669 -0.0007265128 -0.02408691
0001a0 bd f0 b6 3c 2d bf 7d bc 28 2d 63 3c 2c 93 9b bb
       0.02233159 -0.015487474 0.013865747 -0.004747769
0001b0 4a 0a ad bc e2 af 42 3c cb 10 b4 ba 0e af 4e 3b
       -0.02112307 0.011882754 -0.0013737915 0.0031537446
0001c0 53 4e be 3c 07 57 09 3d d6 96 4e bb b8 cc 58 bc
       0.023230707 0.03353026 -0.003152301 -0.0132324025
0001d0 3b 2d 51 3b a7 46 32 3a 18 92 9e bb b8 49 01 bc
       0.0031917829 0.0006800689 -0.004839193 -0.007891111
0001e0 5b be 13 3d 8c 10 fc bb 05 ab 45 3b 25 f0 17 bc
       0.03607021 -0.007692402 0.003016175 -0.0092735635
0001f0 1e 28 8d bc ca a1 ad 3b 0b e1 52 bc 1c 6b 13 bb
       -0.017231043 0.005298828 -0.012871037 -0.0022494262
000200 75 ec 3e 3b e6 98 98 3c ae 05 17 bc bd 63 9e 3a
       0.0029132639 0.018627595 -0.009217663 0.0012084168
000210 a4 08 87 3b 97 7f 23 bc 74 e9 ad bc 4e ac d2 39
       0.004120903 -0.00997915 -0.021229483 0.00040182698
000220 9b 62 f1 3b d5 f2 0f bc bc 3e 08 bc 9c 6e 0a 3c
       0.007366491 -0.008785923 -0.008315738 0.008449223
000230 35 4e 82 bc 17 40 1c 3b 4d 3a 2e bc 57 1c bd bc
       -0.015906433 0.0023841911 -0.010634017 -0.023084803
000240 8a d9 17 3c 06 de bf 3c e7 6e e1 bb f1 9e 27 3b
       0.009268174 0.023421299 -0.0068796757 0.0025576914
000250 7d 60 bc 3b 3f 04 3f 3c cd ee 02 3c 2a 83 31 3c
       0.005748807 0.011658727 0.007991505 0.010834495
000260 9e 01 da 3c 73 f2 08 bc ec 06 c3 3b ad 8b 04 bc
       0.0266121 -0.008358586 0.005951753 -0.008089942
000270 4b 84 b7 3c 81 9f 07 bd 08 f7 fe 3b eb 7c 43 bc
       0.02240195 -0.0331111 0.0077809133 -0.011931638
000280 fc 9c f2 bb 89 97 11 3c f3 b5 20 bb 23 64 01 3c
       -0.007403968 0.008886226 -0.0024522513 0.00789741
000290 37 0a d2 bc 9a 2a 07 3d 0a db b0 3c 66 5c a3 3c
       -0.025639636 0.032999612 0.021588821 0.01994152
0002a0 37 1a 08 3c 35 f2 44 bc a5 86 9b 3b ec 5c 1a 3c
       0.008307031 -0.012020637 0.0047462755 0.009421568
0002b0 7d 03 13 bd 1a 86 81 3b 10 ee ff bc 98 6b fb bc
       -0.035892 0.0039527537 -0.031241447 -0.030690953
0002c0 6e 1d 26 bc 21 22 d4 3b d0 ba b8 ba 77 aa aa 3c
       -0.0101388525 0.006473795 -0.001409376 0.020833237
0002d0 31 8e 99 3b 8d 81 23 3c 53 15 49 3c 3f 73 a8 bb
       0.00468614 0.009979618 0.0122731505 -0.0051406915
0002e0 de 85 82 bb 3c bf a0 bb 52 ee 83 3c 21 2f ce 3b
       -0.0039832434 -0.0049056094 0.01610485 0.0062922393
0002f0 73 b8 34 ba 0f 04 30 3b 96 90 a0 3c d8 c3 53 3c
       -0.000689394 0.0026857888 0.019600194 0.012925111
000300 6e 2f 70 3b ab e3 88 ba 69 3d ac bb b6 5e a7 3a
       0.0036649364 -0.0010443827 -0.005256344 0.0012769315
000310 aa 70 38 bc 1c d9 13 3b 19 68 7c 3c d4 af b9 bb
       -0.01125733 0.0022559827 0.015405678 -0.0056667123
000320 d1 4d 9e 3c 0e 58 47 3b 1b a0 58 3c 31 30 3a 3b
       0.019324215 0.0030417475 0.013221766 0.0028410072
000330 43 70 5e 3c 80 fd 0d 3c 86 10 e0 3b 16 8f 11 bc
       0.01357657 0.008666396 0.0068379072 -0.008884212
000340 5f 3d 07 3d 9c 9f 89 3b 1b 0f fd 3b 0e 12 60 bc
       0.033017512 0.004199935 0.007722748 -0.01367618
000350 4f d6 a6 b9 0b 09 78 3c 9e e5 ff bb 9a 4c 04 bb
       -0.0003182166 0.015138875 -0.007809355 -0.002018726
000360 df b5 fe ba 78 aa 23 3c d6 8c 96 3a 39 43 f8 bb
       -0.0019432864 0.009989373 0.0011486064 -0.007576373
000370 c0 88 be 3b cf 9c f2 3b f1 1a 23 bd dd 33 80 3a
       0.0058146417 0.007403947 -0.039820615 0.0009781081
000380 73 d7 55 3b dd e8 d8 3b 24 0f f4 bb 2f ee dd bb
       0.0032629638 0.0066195563 -0.007448094 -0.0067727785
000390 a8 6e 4b 3a b7 7f 81 3c 14 28 a4 3a 53 94 92 3c
       0.00077603245 0.01580797 0.0012524151 0.017892992
0003a0 77 b6 90 bb 9a 93 6d bb 7d 67 19 3c 9a 9c 41 3b
       -0.0044162828 -0.0036251307 0.009363052 0.0029542805
0003b0 ce 63 16 3c 1a 2d 19 bc 14 b5 db bb d4 20 a8 3a
       0.009179069 -0.009349132 -0.006704936 0.0012827166
0003c0 9d 52 45 3c 27 0b c3 bc d8 21 ce 3c bf 1d 31 3b
       0.012043622 -0.023809029 0.025162622 0.0027025787
0003d0 d1 cd db 3b 33 63 39 3c c7 01 c5 3b 6e be 67 3c
       0.006707885 0.011315155 0.0060121748 0.014144523
0003e0 01 a5 e7 bb 08 8b 3e bc 41 55 18 3c fc 27 b1 bb
       -0.0070692305 -0.011629827 0.00929767 -0.005406378
0003f0 a3 df c3 3b c6 d9 35 bc a1 0d 3d 3c 57 ec d7 bb
       0.0059775873 -0.0110992845 0.011538894 -0.006589453

action_model._discrete_distribution.branches.0.bias f4 [2]
000000 39 02 98 3c 3b 02 98 bc
       0.018555747 -0.018555751

exp_avg f4 [128, 47]
000000 08 00 2a b8 a5 f4 63 b6 94 85 50 b7 6a 48 46 b6
       -4.0531188e-05 -3.3968038e-06 -1.2428867e-05 -2.954645e-06
000010 76 5d 8e b7 d1 30 a9 b7 d5 b7 92 b7 38 38 4c b7
       -1.697124e-05 -2.0169102e-05 -1.749016e-05 -1.2172437e-05
000020 de 04 2e b7 a7 2c b2 b7 00 54 1f b8 e6 45 2c b7
       -1.0372341e-05 -2.1240046e-05 -3.7986785e-05 -1.0268273e-05
000030 ca 7b d3 b6 5d 2f aa b6 0c 88 a9 b7 f4 98 f8 b6
       -6.302701e-06 -5.0719086e-06 -2.0209722e-05 -7.408782e-06
000040 6d f1 1f b7 5e a8 09 b8 0d e5 31 b7 94 0b e6 b7
       -9.53335e-06 -3.282015e-05 -1.0603352e-05 -2.7423528e-05
000050 c3 04 11 b8 b0 a9 69 36 32 a0 83 b6 f7 8e d3 b7
       -3.457513e-05 3.4818477e-06 -3.9227534e-06 -2.5219733e-05
000060 75 8d 05 b8 fe 21 3a b7 ca 42 10 b7 47 77 cf b7
       -3.1841413e-05 -1.1094378e-05 -8.598619e-06 -2.4731866e-05
000070 a8 dc 86 b7 9f d4 25 b8 fe 21 3a b7 ca 42 10 b7
       -1.6076796e-05 -3.9537084e-05 -1.1094378e-05 -8.598619e-06
000080 47 77 cf b7 a8 dc 86 b7 9e d4 25 b8 86 3f 25 3a
       -2.4731866e-05 -1.6076796e-05 -3.953708e-05 0.0006303716
000090 bc e5 94 b8 87 a9 f3 b9 72 69 a1 b7 bc 88 85 35
       -7.099981e-05 -0.0004647488 -1.9241797e-05 9.949067e-07
0000a0 e3 1b 1d 37 60 17 24 b7 7a 98 46 37 84 59 9c b7
       9.364422e-06 -9.780604e-06 1.1837221e-05 -1.8638333e-05
0000b0 87 a9 bd 36 0b 45 2f b5 74 09 ea b7 06 cc 01 b7
       5.6523745e-06 -6.529305e-07 -2.7899376e-05 -7.736502e-06
0000c0 b6 9e ab 36 92 08 04 b7 ca ac 82 b6 ea 24 97 b6
       5.1146735e-06 -7.8698085e-06 -3.894417e-06 -4.504448e-06
0000d0 52 64 4f b6 98 76 47 b6 9a f0 42 b7 ce ef 5d 36
       -3.0903798e-06 -2.9722341e-06 -1.16193205e-05 3.307115e-06
0000e0 87 2c 9c b6 5d 66 be b6 9f 0d 8e b6 65 be 06 b7
       -4.654346e-06 -5.674358e-06 -4.2335155e-06 -8.031352e-06
0000f0 c5 28 59 36 fa 36 75 b6 2e 9b 3d b6 26 e3 7b 35
       3.235925e-06 -3.6539845e-06 -2.825352e-06 9.383533e-07
000100 3a 9c 11 b7 a9 70 73 b6 a0 f3 de b6 2c 85 b7 b5
       -8.679048e-06 -3.6275399e-06 -6.6444773e-06 -1.3673321e-06
000110 fc 92 3d b7 6a f1 55 36 6b 37 ad b6 4b 65 0e b7
       -1.12995e-05 3.1879995e-06 -5.1622533e-06 -8.487444e-06
000120 15 1d 03 b7 6a 59 4d 36 79 65 38 36 f9 68 56 b7
       -7.81498e-06 3.0599426e-06 2.7477201e-06 -1.2779835e-05
000130 21 83 56 b7 15 1d 03 b7 6a 59 4d 36 79 65 38 36
       -1.2785925e-05 -7.81498e-06 3.0599426e-06 2.7477201e-06
000140 f9 68 56 b7 21 83 56 b7 50 3d 38 38 fe b3 f7 b7
       -1.2779835e-05 -1.2785925e-05 4.392612e-05 -2.952851e-05
000150 ca d2 40 b9 6c ab 0b b7 59 83 95 35 60 e1 e2 33
       -0.00018389072 -8.324958e-06 1.1139592e-06 1.05649406e-07
000160 a7 52 23 b6 92 e4 9b 37 ea 42 0f 37 4e 9e e8 b5
       -2.4337003e-06 1.8583876e-05 8.539044e-06 -1.733142e-06
000170 f1 51 c7 b5 44 e6 e3 b6 a8 96 ea 36 59 7c ba 36
       -1.4850503e-06 -6.7919336e-06 6.991282e-06 5.557708e-06
000180 79 27 2d 37 50 5f 8b 36 3d af 8d 37 aa 9c 65 37
       1.0320794e-05 4.1536186e-06 1.6890112e-05 1.368594e-05
000190 2c 15 6c b6 e8 21 66 35 72 3e 81 37 9e 0a 98 37
       -3.5179064e-06 8.5731017e-07 1.5407077e-05 1.8124756e-05
0001a0 80 cf 7a 37 2e 45 14 36 d2 66 bc 36 ea 96 8d 36
       1.4949474e-05 2.2093986e-06 5.6148065e-06 4.219696e-06
0001b0 a0 57 78 37 3a 6b e5 36 92 9d f2 36 1d 79 ee 35
       1.4802354e-05 6.8372146e-06 7.2305056e-06 1.776763e-06
0001c0 42 7b 39 37 94 2c 93 37 66 b1 77 37 cb 0a 9d b5
       1.10555575e-05 1.7544524e-05 1.4763651e-05 -1.1700553e-06
0001d0 90 2a 9d 36 36 2f 15 37 bd a8 3a 37 ee 95 78 37
       4.6839195e-06 8.892084e-06 1.1125751e-05 1.481686e-05
0001e0 9d f2 42 b4 64 14 44 37 32 5d a9 b4 f6 54 07 37
       -1.815592e-07 1.1687258e-05 -3.1546512e-07 8.066409e-06
0001f0 ee 95 78 37 9d f2 42 b4 64 14 44 37 32 5d a9 b4
       1.481686e-05 -1.815592e-07 1.1687258e-05 -3.1546512e-07
000200 f5 54 07 37 49 f9 12 3a 08 f8 22 38 d3 5d 30 ba
       8.066408e-06 0.00056066044 3.8854807e-05 -0.0006727848
000210 8b a6 04 37 af bc 46 35 7d 43 80 36 de 6e 03 b6
       7.906589e-06 7.403532e-07 3.822554e-06 -1.9585054e-06
000220 28 26 34 37 00 d8 8f b6 4a 40 44 37 00 99 25 35
       1.073772e-05 -4.286878e-06 1.1697479e-05 6.1689934e-07
000230 53 47 7b b7 e8 b1 81 b4 0e 2d 32 36 a2 c8 41 37
       -1.4977372e-05 -2.4157566e-07 2.6550292e-06 1.155041e-05
000240 d7 36 35 36 cf 64 34 37 0a d0 10 b8 07 97 66 37
       2.7003023e-06 1.0752307e-05 -3.4526027e-05 1.3744232e-05
000250 98 61 f9 37 0c 15 f1 36 56 37 8b 37 17 84 33 38
       2.9728559e-05 7.18481e-06 1.6595859e-05 4.2799944e-05
000260 ba 43 6b b7 da 18 66 b7 8c c6 82 35 cf 75 55 b7
       -1.402286e-05 -1.37148545e-05 9.74354e-07 -1.2723219e-05
000270 b2 b9 9b 36 c6 62 6a b7 5c 61 a3 37 1e 0b d2 36
       4.6409777e-06 -1.3970484e-05 1.947645e-05 6.259782e-06
000280 ac 17 8f 37 05 6f 27 38 01 0a 08 b6 7a 91 91 36
       1.7057951e-05 3.9919298e-05 -2.0271402e-06 4.3382724e-06
000290 e2 8b cc b7 48 26 aa b7 37 f9 51 37 94 70 b3 b5
       -2.4383833e-05 -2.0283405e-05 1.2515396e-05 -1.3369304e-06
0002a0 1c 33 6d 37 e1 40 1a b7 77 9e 11 37 37 f9 51 37
       1.4138201e-05 -9.194221e-06 8.679569e-06 1.2515396e-05
0002b0 94 70 b3 b5 1c 33 6d 37 e1 40 1a b7 75 9e 11 37
       -1.3369304e-06 1.4138201e-05 -9.194221e-06 8.679567e-06
0002c0 6d ba 03 3a 53 65 13 37 a9 1f 70 b9 c3 fb e2 b7
       0.0005025033 8.785474e-06 -0.00022899978 -2.7058535e-05
0002d0 ee ab 41 b5 1c 4f 17 38 65 4b 8b b6 da 18 e2 37
       -7.2148293e-07 3.607488e-05 -4.1513e-06 2.6952872e-05
0002e0 5c c9 23 36 ff 80 47 37 dc d0 00 34 86 5e 04 b7
       2.44061e-06 1.1891359e-05 1.1996912e-07 -7.889821e-06
0002f0 fa bf 0c b9 77 3c ea b6 2b 9f 79 37 31 89 e2 b6
       -0.00013422957 -6.9807825e-06 1.4878616e-05 -6.751296e-06
000300 02 5a 0b b7 ed f4 9f 38 f8 ab 16 b9 0f c8 c6 b8
       -8.306002e-06 7.627332e-05 -0.00014369178 -9.4786395e-05
000310 c2 5f e8 37 86 7c cd b7 7e f1 38 b9 ff d5 7f 36
       2.7701146e-05 -2.449589e-05 -0.0001763757 3.8122523e-06
000320 6a ff 30 38 2e 96 73 b6 3e 72 16 37 2c 7a 34 37
       4.2199543e-05 -3.6297238e-06 8.967296e-06 1.0757281e-05
000330 06 dc d2 37 57 26 31 b9 42 f7 bc b5 a7 b1 57 b8
       2.5136407e-05 -0.00016894318 -1.4079053e-06 -5.1425446e-05
000340 a1 79 0f b9 ba 6e 30 37 67 d6 8c b7 09 3a 40 37
       -0.00013682853 1.0516198e-05 -1.678914e-05 1.1457604e-05
000350 94 e4 c8 b7 f9 94 47 36 56 aa 03 35 56 fb 01 b9
       -2.3948298e-05 2.9740024e-06 4.9049174e-07 -0.00012396029
000360 0a d9 4b b7 18 19 06 b9 f9 94 47 36 56 aa 03 35
       -1.2150276e-05 -0.00012788584 2.9740024e-06 4.9049174e-07
000370 56 fb 01 b9 0a d9 4b b7 16 19 06 b9 15 06 08 bb
       -0.00012396029 -1.2150276e-05 -0.00012788581 -0.0020755578
000380 c1 c4 01 b9 f2 b0 04 b9 a4 96 ca b8 22 a8 b6 b6
       -0.00012375695 -0.00012654418 -9.6601696e-05 -5.443596e-06
000390 80 a5 25 35 a5 e8 b1 b7 04 a4 7c b8 e0 37 ae b8
       6.1708124e-07 -2.1208378e-05 -6.0234233e-05 -8.307374e-05
0003a0 8a 4d 25 b9 d4 2a 93 b6 4a 69 aa b8 18 32 24 b9
       -0.00015764512 -4.3859272e-06 -8.125843e-05 -0.0001565892
0003b0 fd 87 8e 36 b6 d2 05 38 c8 d0 31 b6 50 36 65 35
       4.247761e-06 3.190591e-05 -2.6496582e-06 8.5388183e-07
0003c0 b9 65 f0 b8 96 57 2b b8 78 5d ad 36 06 34 df 37
       -0.00011463039 -4.0851148e-05 5.166683e-06 2.6607897e-05
0003d0 11 59 bc 36 68 cd 22 b8 42 b2 89 b8 17 bc 6f b7
       5.6132053e-06 -3.881511e-05 -6.565872e-05 -1.4289303e-05
0003e0 4d 85 92 b6 a7 63 a0 b8 79 be 09 36 c4 d3 1e b8
       -4.3666573e-06 -7.647956e-05 2.052546e-06 -3.7867358e-05
0003f0 c2 1c ec b8 80 1e cc 37 b4 e5 06 b7 88 0b 17 36
       -0.000112587135 2.4332898e-05 -8.040504e-06 2.2507465e-06
