Assets/Learning/AIRollABall/results/BiggerJump/AIRollABall/AIRollABall-4499988.pt (torch, 574872 bytes, 42 tensors)

network_body._body_endoder.seq_layers.0.weight f4 [128, 47]
0	0xbe48d3f4	-0.19612104
1	0xbdf9d956	-0.12199657
2	0xbd6e1209	-0.05812267
3	0x3ddaa565	0.10676078
4	0x3e4af615	0.19820435
5	0xbe156455	-0.14589055
6	0x3bb68b60	0.005570814
7	0x3d427912	0.047478743
8	0xbd888145	-0.06665281
9	0xbb74d6c3	-0.0037359453
10	0xbe5f7121	-0.21820499
11	0xbd928c06	-0.071556136
12	0x3d30f196	0.043199144
13	0x3e1030a1	0.1408105
14	0xbde7b2bc	-0.11313388
15	0xbe03183c	-0.12802213
16	0xbdec380f	-0.1153413
17	0xbc3f3e7a	-0.01167261
18	0xbe8ddbef	-0.2770686
19	0xbd5c0e81	-0.05372477
20	0x3deecc35	0.11660043
21	0xbc4a9357	-0.01236423
22	0x3dd83f97	0.10559004
23	0x3d9c72dc	0.07639095
24	0x3df5e82e	0.120071754
25	0xbda9ce7a	-0.082913354
26	0x3df1bf11	0.11804021
27	0xbe69840b	-0.22804277
28	0xbd6412d3	-0.055682015
29	0x3e151210	0.14557672
30	0x3e4ee3bd	0.20204063
31	0xbe6c3d76	-0.2307032
32	0x3d3a8716	0.045538984
33	0x3e9ef2e3	0.31044683
34	0xbbd37ca0	-0.0064540654
35	0xbdada2f1	-0.08478344
36	0xbe3ecde5	-0.1863323
37	0x3d198f7d	0.037490357
38	0x3e2b2670	0.16713881
39	0xbe0c1d45	-0.1368304
40	0xbdea584c	-0.114426225
41	0x3e3f08c0	0.18655682
42	0xbde5a083	-0.11212256
43	0x3e48d968	0.19614184
44	0xbdf2786c	-0.11839375
45	0x3e489fdf	0.19592236
46	0x3d5ab0a0	0.0533911
47	0xbe4496a6	-0.19198093
48	0xbd9c0827	-0.076187424
49	0x3ccebdf7	0.025237067
50	0xbd8d5688	-0.0690127
51	0x3dec5696	0.115399525
52	0x3ec16517	0.37772438
53	0xbc8379c1	-0.016049268
54	0xbd90c5be	-0.07068966
55	0x3b842f5f	0.0040339674
56	0x3db3b2c0	0.08774328
57	0x3dfdb068	0.123871624
58	0x3dd37a77	0.10326093
59	0xbd5b6d10	-0.053570807
60	0x3d070b1a	0.03296957
61	0x3e587b20	0.21140718
62	0x3d755941	0.059899572
63	0xbdab9c1e	-0.08379386
64	0x3e0d1aaa	0.13779703
65	0xbe8b370a	-0.2719043
66	0xbe1d3e68	-0.15355837
67	0xbc9658fa	-0.018352974
68	0x3e75736d	0.23969813
69	0xbe1bd99a	-0.15219727
70	0x3dd66f55	0.10470454
71	0x3e0ba8b8	0.1363858
72	0xbd3d5ba5	-0.046229977
73	0xbe34526a	-0.17609563
74	0x3e089299	0.13337173
75	0x3d4a2da3	0.04935993
76	0xbe6cffb7	-0.23144422
77	0x3d9fb56d	0.07798276
78	0x3e3c2ca8	0.1837641
79	0x3da7904a	0.08181818
80	0xbe3f2b4f	-0.18668865
81	0xbc649225	-0.013950859
82	0xbe5cdec8	-0.2156936
83	0x3caae179	0.020859467
84	0xbd50be65	-0.050962824
85	0x3df021f7	0.11725228
86	0xbe200029	-0.15625061
87	0x3e462302	0.19349292
88	0x3e3bff40	0.18359089
89	0xbdbfc68c	-0.09364042
90	0x3d94ac07	0.07259374
91	0x3d504db0	0.05085534
92	0x3e75012f	0.23926233
93	0xbd9a0e96	-0.07522313
94	0xbe07985f	-0.13241719
95	0xbdf53741	-0.119734295
96	0x3d8acaa9	0.067769356
97	0x3e8eb028	0.27868772
98	0x3da753d1	0.081702836
99	0x3ded1210	0.11575711
100	0x3d9b486f	0.07582175
101	0xbd34c75f	-0.044135448
102	0xbded3bbb	-0.11583658
103	0xbdfc7f32	-0.12328948
104	0x3e19a655	0.15004857
105	0xbe09c19b	-0.13452761
106	0xbe4ad3f0	-0.1980741
107	0x3df81471	0.12113274
108	0xbe1c2fa2	-0.15252545
109	0xbe11ad9a	-0.1422638
110	0xbc2c9758	-0.01053413
111	0x3d22da7d	0.039759148
112	0x3e6d1a84	0.23154646
113	0xbe3cb879	-0.18429746
114	0xbd2fa165	-0.042878527
115	0x3e0a435f	0.13502263
116	0x3d307c21	0.04308713
117	0xbd2b1b09	-0.04177383
118	0x3d57cd72	0.052686162
119	0xbda4bf4c	-0.080442995
120	0xbd911912	-0.0708486
121	0xbd5d442c	-0.054020092
122	0xbd48bb80	-0.04900694
123	0x3e3ce74d	0.18447609
124	0xbd7c47f2	-0.06159205
125	0xbe20f3d7	-0.15718018
126	0xbe2b3008	-0.16717541
127	0x3dbc6355	0.091986336
128	0xbe15fb3f	-0.14646624
129	0x3e3024ed	0.17201586
130	0xbd88c012	-0.066772595
131	0xbec223d0	-0.37917948
132	0xbcc1b913	-0.02364782
133	0xbd4f7f44	-0.05065848
134	0x3d918a82	0.071064964
135	0xbed20ffb	-0.41027817
136	0xbcffef18	-0.031241938
137	0xbe79c9d6	-0.243934
138	0x3e347a2d	0.17624731
139	0x3d130428	0.035892636
140	0xbe28088b	-0.16409509
141	0xbe546309	-0.20740904
142	0xbcb6d5e3	-0.022318786
143	0x3d8f667f	0.070019715
144	0xbd36e4af	-0.044651683
145	0x3d9c3581	0.076273926
146	0x3da1e0f2	0.07904233
147	0x3c1feaed	0.0097606005
148	0xbc88e613	-0.01671127
149	0x3d70b0ce	0.058762364
150	0xbeb603e8	-0.35549855
151	0xbe3b56ae	-0.18294784
152	0xbe3dde62	-0.18541864
153	0xbd5d4612	-0.054021902
154	0x3e335be6	0.17515525
155	0x3e19e6ba	0.15029421
156	0xbe0d9c0a	-0.13829055
157	0xbd47424d	-0.048647214
158	0x3d0a33b6	0.03374072
159	0x3d89a8d8	0.067216575
160	0x3e8be910	0.2732625
161	0xbe175ce4	-0.14781529
162	0x3e7e769f	0.24849938
163	0xbe813803	-0.25238046
164	0x3debcecd	0.115140535
165	0xbd4c213e	-0.04983639
166	0xbd268ffb	-0.040664654
167	0xbd8493ed	-0.06473527
168	0x3dc30c21	0.09523798
169	0x3e4852ce	0.19562837
170	0x3d4e2dd5	0.050336678
171	0x3e1eb63b	0.15499203
172	0xbe4ae5d7	-0.1981424
173	0x3e954d54	0.2916056
174	0xbe2b5d14	-0.16734725
175	0xbd655820	-0.055992246
176	0x3e4a9333	0.19782715
177	0x3db669c9	0.08906896
178	0xbe9e3f9f	-0.30907914
179	0xbd651826	-0.055931233
180	0xbdbaa97f	-0.0911436
181	0x3d2d798d	0.042352248
182	0x3ddd2d2a	0.1079963
183	0xbd683c0d	-0.056697894
184	0x3d001bbe	0.031276457
185	0x3e0a4a1e	0.13504836
186	0xbe987dad	-0.29783383
187	0xbc8d8117	-0.017273469
188	0xbe1e459c	-0.15456241
189	0x3df2aec7	0.118497424
190	0x3e535b39	0.20640267
191	0x3d8bf8d6	0.06834571
192	0xbbbb28f7	-0.0057116705
193	0x3e6cd46f	0.23127912
194	0x3ce4d54f	0.027933745
195	0x3d084639	0.033270095
196	0x3cce1464	0.025156207
197	0x3e9c0844	0.30475056
198	0x3e3d7045	0.18499859
199	0xbec5dff8	-0.38647437
200	0x3e82106b	0.2540315
201	0x3e064791	0.13113238
202	0x3d920790	0.07130349
203	0x3ea5b08d	0.3236126
204	0x3e8ffe3c	0.28123653
205	0x3ed07377	0.40713093
206	0x3e89eaa5	0.26936832
207	0xbdaaf416	-0.08347337
208	0x3e5e6864	0.2171951
209	0xbc7f0099	-0.015564107
210	0x3e4a581a	0.1976017
211	0xbdf825b5	-0.12116567
212	0x3d73d697	0.05953082
213	0x3caacec1	0.020850541
214	0xbc9f35ee	-0.019434895
215	0xbe1f18e5	-0.1553684
216	0x3e37af9f	0.17938088
217	0xbe39b414	-0.181351
218	0x3e237584	0.15962797
219	0x3ed37067	0.41296694
220	0x3e945f11	0.2897878
221	0xbdc7c522	-0.09754397
222	0xbe8232f4	-0.254295
223	0x3c3ad8b3	0.011404204
224	0x3e1a48d3	0.15066843
225	0xbe2d432b	-0.16920154
226	0x3b88834b	0.004166042
227	0x3d0f4b80	0.03498411
228	0x3d5e9d57	0.05434927
229	0xbdd282e7	-0.10278874
230	0x3cf8f0f5	0.030388335
231	0xbebdb0d4	-0.37048972
232	0x3e22bf08	0.15893185
233	0x3db1766c	0.08665165
234	0x3ef4156d	0.47672597
235	0xbd0d3684	-0.03447582
236	0xbd1efc1b	-0.038814645
237	0xbdbfdc55	-0.09368197
238	0x3de82a89	0.11336238
239	0xbb766910	-0.0037599243
240	0x3e421178	0.18951976
241	0x3d845037	0.06460612
242	0x3e446cd6	0.19182143
243	0x3bca730e	0.0061782664
244	0xbd9fd88e	-0.078049764
245	0xbc266d0c	-0.010157835
246	0x3e15bcba	0.14622775
247	0xbe27ce36	-0.16387257
248	0xbd8da782	-0.06916715
249	0x3e4be2eb	0.19910781
250	0x3c1392ab	0.009007136
251	0x3dbfef0d	0.09371767
252	0xbddc1769	-0.10746653
253	0x3e80991f	0.25116822
254	0xbe1ee4c4	-0.15516955
255	0x3c82d385	0.015970001

network_body._body_endoder.seq_layers.0.bias f4 [128]
0	0x3b8927d5	0.0041856566
1	0xbcd0bd57	-0.02548091
2	0xbd3cbf34	-0.046080783
3	0xbc6d3f0c	-0.014480364
4	0x3d3120ab	0.043244045
5	0xbc665845	-0.014059131
6	0x3caae660	0.020861804
7	0x3ac928d6	0.0015347253
8	0xbd1086f1	-0.03528494
9	0x3b9198ad	0.004443249
10	0x3b6a9a25	0.0035797444
11	0xbd62e48f	-0.05539375
12	0xbcaa75ec	-0.020808183
13	0xbd73959a	-0.059468843
14	0xbc6eb7ae	-0.01457016
15	0xbd0364a4	-0.0320784
16	0xbd30470e	-0.043036513
17	0x3d4ddaa7	0.05025735
18	0x3b72b3b5	0.0037033383
19	0xbbe20da4	-0.0068985987
20	0x3b7944b4	0.0038035335
21	0xba331df0	-0.0006832769
22	0x3d6b1290	0.05739075
23	0xbd280a79	-0.041025613
24	0xbd6eb348	-0.058276445
25	0xbd301777	-0.042991128
26	0xbc8ff113	-0.017571008
27	0x3d855c59	0.065117545
28	0xbc6fccbd	-0.014636216
29	0xbcf9245c	-0.030412845
30	0xbc9d4dc5	-0.019202122
31	0xbc309af3	-0.01077913
32	0xbccd4c6a	-0.025060851
33	0xbd553e09	-0.052061114
34	0xbcba4ed0	-0.022742659
35	0xbd2738e8	-0.040825754
36	0xbd31b740	-0.04338765
37	0x3d25d57d	0.0404868
38	0x3ab8e3a0	0.0014105923
39	0xbcde89a6	-0.027165245
40	0x3cc1f8d8	0.023678228
41	0xbcc78c3b	-0.02435886
42	0x3a45cc67	0.0007545412
43	0x3b929d67	0.00447433
44	0xbc35fe5b	-0.011108006
45	0x3c6ff7df	0.014646499
46	0xbd057e0a	-0.032590903
47	0xbd56a825	-0.05240645
48	0x3d5cecdf	0.053936835
49	0x3d91bf3e	0.07116555
50	0xbc420a08	-0.011843212
51	0xbd30cc9f	-0.043163892
52	0xbc987559	-0.018610643
53	0x3d264ffe	0.04060363
54	0x3b9f2fa4	0.004857974
55	0x3c03dec9	0.008048722
56	0xbbd283c1	-0.0064243977
57	0xbd252b42	-0.040324457
58	0xbcd72fb6	-0.026267868
59	0xbdc21926	-0.09477453
60	0x3d73f00d	0.059555102
61	0x3be2bfd1	0.006919839
62	0x3cd18c8d	0.025579715
63	0xbdb0d51c	-0.086343974
64	0xbd558f2d	-0.052138496
65	0xbca8fd89	-0.020628707
66	0xbcaf96eb	-0.021434268
67	0xbde188b4	-0.11012402
68	0xbc8e2ba5	-0.017354796
69	0x3d03a961	0.032143954
70	0xbb3ac62e	-0.0028499472
71	0xbcde5d46	-0.027144086
72	0xbbffddcb	-0.007808422
73	0x3c800e36	0.015631776
74	0xbc3c4d60	-0.011493057
75	0x3cfd6455	0.030931631
76	0x3cb91a8c	0.022595666
77	0xbc807e02	-0.015685085
78	0xbcf13182	-0.029442552
79	0xbd241408	-0.040058166
80	0x3cc0ebe7	0.023549987
81	0xbc958120	-0.018250048
82	0x399cf38e	0.000299361
83	0xbd123ed4	-0.03570445
84	0xbc9288ff	-0.01788759
85	0x3c7a5020	0.015277892
86	0x3d6f585a	0.058433868
87	0xb9d84cec	-0.00041256042
88	0xbc8934ec	-0.016748868
89	0x3d357d54	0.044308975
90	0x3c1dad42	0.009623827
91	0xbd82d61e	-0.06388496
92	0xbd65cdeb	-0.05610458
93	0x3c095bab	0.008383672
94	0x3cb609e5	0.022221515
95	0xbb25f704	-0.0025324235
96	0x3d0053fc	0.031330094
97	0x3be2a3c4	0.006916495
98	0x3cd95033	0.0265275
99	0x3c6d1e62	0.014472576
100	0xbd2da784	-0.042396083
101	0x3ce2baa0	0.02767688
102	0xbba77cf5	-0.0051113316
103	0xbd04d4d6	-0.03242954
104	0xbcc66ba5	-0.02422125
105	0xbdad045e	-0.084480986
106	0xbd1178bd	-0.035515536
107	0xbc8909f4	-0.016728379
108	0x3c44965d	0.01199874
109	0xbd534f89	-0.051589523
110	0xbc605823	-0.013692888
111	0xbd0df2e2	-0.03465546
112	0xbca915c5	-0.020640263
113	0xbc3aa1b8	-0.011391096
114	0xbd71870d	-0.058966685
115	0xbb459558	-0.003014883
116	0xbd89c270	-0.06726539
117	0xbcf5fa0a	-0.030026454
118	0xbd067c43	-0.03283335
119	0x3d0c5018	0.03425607
120	0xbb2e4f37	-0.0026597509
121	0xbd4b28bb	-0.04959939
122	0xbd71c491	-0.05902535
123	0x3a5f1cc0	0.0008511059
124	0x3d7cc883	0.06171466
125	0xbc5c0d03	-0.013430837
126	0x3cace3f3	0.021104788
127	0x3c9d5532	0.019205663

network_body._body_endoder.seq_layers.2.weight f4 [128, 128]
0	0x3e0da8e5	0.1383396
1	0xbdab6451	-0.08368743
2	0xbd802b5d	-0.06258271
3	0xbc05d38c	-0.0081681125
4	0x3d2f5549	0.042805944
5	0x3ca0f69b	0.01964884
6	0x3c4d06f2	0.012513863
7	0xbc45a3e3	-0.012062999
8	0xbd80b100	-0.0628376
9	0xbe15a1d5	-0.14612515
10	0xbda1fac9	-0.079091616
11	0x3e084ac9	0.13309778
12	0xbd42a734	-0.04752274
13	0xbcbf4952	-0.023350392
14	0xbd6abce6	-0.057309054
15	0xbdbb84a3	-0.09156158
16	0x3dd46d1a	0.10372372
17	0x3dcd771b	0.10032483
18	0x3dc3ff2e	0.09570156
19	0x3bdbb8d7	0.0067053842
20	0xbd90f279	-0.07077498
21	0xbdca5f5a	-0.09881468
22	0xbe42bbd0	-0.19016957
23	0x3dcf3a0b	0.10118493
24	0xbb7eab4b	-0.0038859423
25	0xbd26726e	-0.040636472
26	0x3d81a78a	0.06330784
27	0xbd6af012	-0.057357855
28	0xbd79b3b6	-0.0609624
29	0xbe056c59	-0.13029613
30	0x3e871bc8	0.26388383
31	0xbb6240be	-0.0034523453
32	0x3dcbf4de	0.09958814
33	0xbcd77240	-0.026299596
34	0x3c9af4dc	0.018915586
35	0xbd21e094	-0.039520815
36	0x3c84c521	0.01620728
37	0x3dc05224	0.09390667
38	0xbdc5f5f6	-0.09666054
39	0xbdc755bb	-0.09733149
40	0x3d611c4d	0.05495863
41	0x3d29f5fe	0.041494362
42	0x3e27d6cf	0.16390537
43	0xbb77320d	-0.0037719042
44	0xbdd5860f	-0.1042596
45	0x3cd8cfe7	0.026466323
46	0xbd8da2be	-0.06915806
47	0x3cdb2ad4	0.02675382
48	0xbdf522bd	-0.119695164
49	0x3df85160	0.12124896
50	0xbd983e4a	-0.07433756
51	0x3b9137b2	0.004431688
52	0xbd908452	-0.07056488
53	0x3c9bcce8	0.019018605
54	0x3d21a61c	0.039465055
55	0x3c0edbb6	0.008719375
56	0xbd8f87ee	-0.070083484
57	0x3d118de7	0.03553572
58	0x3d68bb50	0.05681926
59	0xbe308b4f	-0.17240642
60	0xbde2c6f2	-0.11073102
61	0x3e0ce251	0.13758208
62	0x3cb7f611	0.0224562
63	0xbe06e0bb	-0.13171665
64	0x3ddb19a8	0.10698253
65	0xbc003c44	-0.007826868
66	0xbaf404fe	-0.001861721
67	0x3e25765c	0.16158432
68	0xbd90c4f8	-0.07068819
69	0xbe0d2787	-0.1378461
70	0x3cf4024f	0.029786257
71	0x3d315e07	0.043302562
72	0x3cfcc7fb	0.030857077
73	0x3aa02d45	0.0012220523
74	0x3d466cc0	0.048443556
75	0xbc8b4ff4	-0.017005898
76	0xbc0ed921	-0.00871876
77	0xbd24dba4	-0.040248528
78	0xbdf131bd	-0.11777065
79	0x3d5f9acc	0.054590985
80	0x3dff469b	0.12464639
81	0x3c403206	0.0117306765
82	0x3cb74606	0.022372257
83	0x3d22729b	0.039660078
84	0xbd51ed9b	-0.05125199
85	0xbd68c649	-0.056829724
86	0xbe0e63ec	-0.13905305
87	0x3dcbfb96	0.099600956
88	0xbe1ef8e4	-0.15524632
89	0x3d8fb63c	0.0701718
90	0xbddb34e0	-0.107034445
91	0xbd0c1f21	-0.034209374
92	0xbd08f43b	-0.03343604
93	0xbdc8d9d4	-0.098071724
94	0x3d92ba0d	0.071643926
95	0x3e242121	0.16028263
96	0x3cca4581	0.024691345
97	0xbdfdfecd	-0.12402115
98	0x3e00f237	0.12592398
99	0x3dc48fa7	0.09597712
100	0x3e2a0eb8	0.16607177
101	0x3e305054	0.17218143
102	0x3bedfb7d	0.0072626458
103	0xbdb831e8	-0.08993894
104	0x3dad6f53	0.08468499
105	0xbd9388ff	-0.07203864
106	0xbd1538b5	-0.036431033
107	0x3e21b30f	0.15790962
108	0x3da2b054	0.07943788
109	0x3dbbf199	0.091769405
110	0xbd58fd2b	-0.052975815
111	0x3d2ba00f	0.04190069
112	0xbe0c2a4c	-0.1368801
113	0x3d0e0dcf	0.034681138
114	0x3d00004a	0.031250276
115	0x3b480f09	0.003052654
116	0x3dd09298	0.101842105
117	0x3d0cba65	0.034357447
118	0x3d5f6fc4	0.054549947
119	0x3c8849d1	0.01663676
120	0x3d17d4a7	0.037068035
121	0xbda965e9	-0.08271391
122	0x3c50545f	0.012715428
123	0x3d2e5381	0.042560104
124	0x3d374405	0.044742603
125	0x3e2acce8	0.16679728
126	0xbd7810e5	-0.060562987
127	0x3dfabb96	0.122428104
128	0x3e203e1c	0.15648693
129	0xbbafc6bf	-0.0053642686
130	0x3e177c52	0.14793518
131	0xbd8e7b79	-0.06957144
132	0x3cc684d4	0.02423326
133	0x3cf47118	0.029839084
134	0xbdd1462b	-0.102184616
135	0xbd2c5c39	-0.042080138
136	0x3dfbe76d	0.123
137	0x3de26490	0.11054337
138	0x3d84ebe4	0.06490305
139	0x3ddfdca4	0.10930756
140	0xbd3a0567	-0.04541531
141	0x3dcfac1e	0.101402506
142	0xbdeb4dff	-0.11489486
143	0xbcb0c41c	-0.021577887
144	0xbdf0f73d	-0.11765907
145	0xbd0a3423	-0.033741128
146	0xbd9aa2d1	-0.07550586
147	0xbd01ba69	-0.031671915
148	0x3d8b0190	0.067874074
149	0xbdd42f42	-0.10360576
150	0xbd1af1c6	-0.03782823
151	0x3d0201f2	0.031740136
152	0xbd88bb60	-0.06676364
153	0x3da4bc8d	0.08043776
154	0xbe3665b0	-0.17812228
155	0xbd8fe123	-0.07025363
156	0x3ca5e101	0.020248892
157	0x3c0b3334	0.0084960945
158	0x3d892068	0.06695634
159	0xbde8799e	-0.11351322
160	0xbd4c2b9f	-0.049846288
161	0x3d204fa2	0.039138444
162	0xba2b98d2	-0.00065459043
163	0xbd14954c	-0.036275193
164	0xbd45070f	-0.048102435
165	0x3df08dde	0.11745809
166	0x3e002ff8	0.12518299
167	0x3d8fb450	0.07016814
168	0xbe2d2f50	-0.1691258
169	0x3d2cb1fc	0.042161927
170	0x3d448ea4	0.047987595
171	0x3d9cc6cb	0.07655104
172	0x3e2d9732	0.16952208
173	0x3d8895b1	0.06669176
174	0xbbfb1768	-0.0076627024
175	0x397ba907	0.00024000193
176	0xbd88a36c	-0.06671795
177	0x3d696f14	0.056990698
178	0xbdcca78e	-0.09992896
179	0xbd5c24d8	-0.053746074
180	0xbddb1a1e	-0.10698341
181	0x3dbd39d5	0.09239546
182	0xbd056e5e	-0.032575957
183	0x3de8acd3	0.113610886
184	0xbd93b9b2	-0.07213153
185	0xbd88d8d8	-0.06681985
186	0xbe1e902c	-0.15484685
187	0x3d4a4dff	0.04939079
188	0x3db1e24e	0.08685742
189	0xbcae672c	-0.02128943
190	0xb9f035bd	-0.00045816405
191	0xbd582c8d	-0.052776862
192	0x3e1109c6	0.14163885
193	0x3dc0a689	0.09406764
194	0xbe065024	-0.13116509
195	0x3ccb7796	0.024837296
196	0x3ca7130f	0.02039483
197	0x3dd293c4	0.1028209
198	0x3ccafe4e	0.024779465
199	0x3c423e78	0.011855714
200	0x3d1e94ec	0.03871624
201	0xbe072060	-0.13195944
202	0x3dc3993e	0.09550713
203	0x3d805e23	0.06267955
204	0xbc8324fb	-0.016008845
205	0x3d723ae6	0.0591382
206	0x3bd7fdfb	0.006591556
207	0xbdeb0f1e	-0.11477493
208	0xbcdd98fa	-0.027050484
209	0xbe170e60	-0.14751577
210	0xbd9ed946	-0.07756285
211	0xbd8da608	-0.069164336
212	0xbe6acbbd	-0.22929282
213	0xbd27ef9c	-0.040999994
214	0xbcc72838	-0.02431117
215	0xbba40921	-0.005005971
216	0x3d8285f4	0.06373206
217	0x3d63b886	0.055595897
218	0x3e453e81	0.19262125
219	0x3e503414	0.20332366
220	0x3da66c75	0.08126155
221	0x3e10542c	0.14094609
222	0xbe18bbc3	-0.14915375
223	0xbb441cc0	-0.0029924363
224	0xbe157e5b	-0.14598982
225	0xbd1135ee	-0.035451822
226	0xbdf39bc0	-0.11894941
227	0x3d6190ce	0.055069737
228	0xbe102e07	-0.14080058
229	0x3df6c207	0.120487265
230	0x3d5e082c	0.054207012
231	0x3daa3da8	0.08312541
232	0xbd952af4	-0.07283583
233	0xbd68b56f	-0.056813654
234	0xbc666234	-0.014061499
235	0x3bd6b8e9	0.0065528047
236	0xbd91814d	-0.0710474
237	0xbd90c833	-0.07069435
238	0x3d1036ac	0.03520839
239	0x3e2a7fe6	0.16650352
240	0xbe3afbfd	-0.18260188
241	0x3d5a0888	0.053230792
242	0xbdad0482	-0.084481254
243	0x3dac81f6	0.084232256
244	0x3aaa03f9	0.0012971155
245	0xbdafa22d	-0.085758545
246	0xbb9b5f41	-0.0047415798
247	0x3e3df05c	0.18548721
248	0xbe050255	-0.12989171
249	0xbb5ad045	-0.0033388298
250	0x3b84948e	0.0040460294
251	0x3ceb1598	0.02869682
252	0xbe1fa86e	-0.15591595
253	0xbdc06cc0	-0.093957424
254	0xbda8c6cc	-0.082410425
255	0x3c69426f	0.01423703

network_body._body_endoder.seq_layers.2.bias f4 [128]
0	0xbc32feaa	-0.010924974
1	0xbc0e3e5e	-0.008681862
2	0x3d15965c	0.036520347
3	0xbc7a1a0e	-0.015265001
4	0xbcc015e7	-0.023447944
5	0x3c68e9fd	0.014215943
6	0xbcae6544	-0.021288522
7	0xbc5b2b95	-0.01337709
8	0xbca6b43e	-0.020349618
9	0xbc94933d	-0.018136615
10	0xbbe6dd1d	-0.0070454017
11	0x3b630707	0.003464164
12	0x3d0aff0c	0.033934638
13	0xbb10bee4	-0.0022086436
14	0x3ceece3c	0.029151075
15	0xbc7b6260	-0.015343279
16	0x3cc02078	0.023452982
17	0x3d276dbc	0.040876135
18	0xbd0341e4	-0.03204526
19	0x3c82ef46	0.015983235
20	0xbcf85995	-0.030316154
21	0xbce51aec	-0.027966939
22	0xbb8f9b90	-0.004382558
23	0xbc0bf9e4	-0.008543465
24	0x3d074f82	0.03303481
25	0x3c12ab07	0.008951909
26	0x3ab05c29	0.00134552
27	0xbc5d2e42	-0.013499798
28	0xbc1dd790	-0.009633914
29	0x3cd659c5	0.026165852
30	0x3d1ece33	0.038770866
31	0xbcdacdbc	-0.02670943
32	0x3d4f4dff	0.050611492
33	0xbb9094a6	-0.0044122515
34	0x3d0d93f5	0.03456493
35	0x3cc4185c	0.023937397
36	0x3d8a4884	0.067521125
37	0x3dca8aed	0.09889779
38	0xbc789def	-0.015174373
39	0x3dc00c8c	0.09377393
40	0xbb0a5e23	-0.0021113239
41	0x3d29632b	0.04135434
42	0xbc62c3b8	-0.013840608
43	0xbc17d897	-0.009267948
44	0x3ca9506e	0.020668235
45	0xbb7322e2	-0.003709965
46	0x3dc629a6	0.096759126
47	0x3b984492	0.004646846
48	0xbcf92445	-0.030412802
49	0x3d176c7d	0.036968697
50	0xbd2ffbb9	-0.04296467
51	0xbc9da3b1	-0.019243093
52	0x3d6e0e27	0.058118965
53	0xba875d45	-0.0010327479
54	0xbd0d1c12	-0.034450598
55	0x3d0955a8	0.033528954
56	0x3c9a7b57	0.018857641
57	0xbae8d7ce	-0.001776451
58	0xbcf0173c	-0.029307954
59	0x3c09daa3	0.008413943
60	0xbcdaa888	-0.02669169
61	0xbca2ee9c	-0.019889168
62	0xbc426d69	-0.011866906
63	0xbb19a448	-0.0023443867
64	0xbbd243f2	-0.006416791
65	0xbad80aea	-0.0016482745
66	0x3cd55cf4	0.0260453
67	0xbc5d55ce	-0.013509227
68	0x3c674672	0.014115917
69	0x3c18ae95	0.009318967
70	0x3bf54b50	0.0074857846
71	0xbc09e38c	-0.008416068
72	0x3d1758be	0.036949866
73	0xbbef7d32	-0.0073086256
74	0x3d852328	0.06500846
75	0x3bbb5901	0.005717397
76	0xbd0adf10	-0.033904135
77	0xbb41a53b	-0.0029547948
78	0x3c2bdc3c	0.01048952
79	0xbbce42c6	-0.006294581
80	0x3d90d580	0.07071972
81	0xbca6c438	-0.020357236
82	0xbcbab6fa	-0.022792328
83	0xbce59721	-0.028026165
84	0xbc6665d7	-0.014062366
85	0x3cb90e67	0.022589875
86	0xbcabb73d	-0.020961398
87	0xbd164a24	-0.0366918
88	0x3c5d8cb6	0.013522318
89	0xbd3a6a2a	-0.045511402
90	0x3d08978b	0.033347648
91	0xbc94e56c	-0.018175803
92	0xbc25dc4e	-0.0101233255
93	0x3c0aa339	0.008461767
94	0x3c0c7e19	0.008574986
95	0xbb5e45a7	-0.0033916028
96	0x3c8564b0	0.016283363
97	0xbc18d2b2	-0.009327577
98	0x3ba18214	0.0049288366
99	0xba8c0a8f	-0.0010684299
100	0x3b55d103	0.0032625801
101	0x3d17f6d1	0.037100617
102	0xbd068545	-0.03284194
103	0xbd0ca90e	-0.03434091
104	0x3c3dc28c	0.011582028
105	0x3cc32d31	0.02382526
106	0xbd0d2ca4	-0.0344664
107	0xbad8b466	-0.0016533255
108	0xbd02df30	-0.03195113
109	0x3ca2bbaa	0.019864876
110	0x3ca406d8	0.020022795
111	0xbc124ff4	-0.008930195
112	0xbd007b28	-0.03136745
113	0x3bd706fc	0.006562112
114	0x3c168b59	0.0091884965
115	0x3b6975fc	0.0035623303
116	0xbcb381bb	-0.021912446
117	0xbc166cd9	-0.009181225
118	0x3d3df889	0.0463796
119	0xbc782afd	-0.015146968
120	0x3d994598	0.07483977
121	0x3be45396	0.006967972
122	0xbbae9256	-0.005327503
123	0x3bb4cfc4	0.0055179317
124	0xbcb65c06	-0.022260677
125	0xbc927bfb	-0.017881384
126	0x3d950eff	0.07278251
127	0xbbed560d	-0.007242924

action_model._continuous_distribution.log_sigma f4 [1, 3]
0	0xbe8137d4	-0.25237906
1	0xbe845c14	-0.258515
2	0xbd001b37	-0.031275954

action_model._continuous_distribution.mu.weight f4 [3, 128]
0	0xba97e3e8	-0.0011588307
1	0x3ccaf8c6	0.024776828
2	0xbd097fe6	-0.03356924
3	0x3b4aef9f	0.003096558
4	0xbd8c9f58	-0.0686633
5	0xbdce8881	-0.1008463
6	0xba8b0b05	-0.0010608142
7	0xbcc1f3f5	-0.023675898
8	0x3b4799b4	0.0030456604
9	0xbc4daa6b	-0.012552838
10	0x3b292650	0.002581019
11	0x3c9e4279	0.019318806
12	0x3da26306	0.079290435
13	0xbc97b25c	-0.018517666
14	0x3d198a1e	0.037485234
15	0xbd089314	-0.03334339
16	0xbc3c7583	-0.011502626
17	0xbd38f96c	-0.045159742
18	0xbb4ffd0a	-0.0031736516
19	0xbe0e9a15	-0.13925965
20	0x3a8b40a1	0.0010624119
21	0xbc89cd20	-0.016821444
22	0xbc327fa0	-0.010894686
23	0xbc964e58	-0.018347904
24	0xbdab88d4	-0.08375707
25	0xbdcd555a	-0.10026045
26	0xbcf1fa5f	-0.029538332
27	0xbd1413f3	-0.036151838
28	0xbbeb8e00	-0.0071885586
29	0xbca4c51c	-0.02011352
30	0xbc56ab16	-0.0131023135
31	0xbd408f0e	-0.047011428
32	0x3d6cb256	0.057787262
33	0x3cc0c84d	0.02353301
34	0x3a44ddb7	0.0007509845
35	0x3cd9c835	0.026584724
36	0xbe5cb736	-0.21554264
37	0xbcb29c58	-0.021803066
38	0x3cd8eea7	0.026480986
39	0xbd919680	-0.07108784
40	0xbc77b5d3	-0.015119034
41	0xbcc682a6	-0.02423222
42	0x3c0e4d47	0.008685417
43	0xbba92e8f	-0.005163021
44	0x3ce903fd	0.028444285
45	0x3bd8df84	0.006618442
46	0x3dc2d41e	0.095131144
47	0xbbf0d014	-0.0073490236
48	0xbc54f70c	-0.012998354
49	0x3d26e512	0.040745802
50	0xbc5af5dc	-0.0133642815
51	0x3d22e3e1	0.039768104
52	0x3d07baa8	0.033136994
53	0x3cf0ef02	0.029410843
54	0xbc55481c	-0.0130176805
55	0x3d7f5946	0.062340997
56	0x3c470c8b	0.012148987
57	0xbcf91b47	-0.030408515
58	0xbb84d9a6	-0.004054266
59	0xbb59d9e7	-0.0033241452
60	0xbb9d8596	-0.0048071845
61	0x3c877e9c	0.016539864
62	0xbd40da8d	-0.047083426
63	0x3d168a1c	0.036752805
64	0xbd280418	-0.04101953
65	0x3ca3b36e	0.01998302
66	0x3cf79292	0.030221257
67	0xbd7be1f9	-0.0614948
68	0x3b030573	0.0019992262
69	0x3b7db7e5	0.0038714346
70	0x3d88848a	0.06665905
71	0xba98f1de	-0.0011668762
72	0xbde7d7a1	-0.11320425
73	0xba6d8ebc	-0.00090621016
74	0x3d8a5d0c	0.067560285
75	0xbc4ad036	-0.012378743
76	0xb9f0a376	-0.00045898155
77	0x3c4c79f7	0.012480251
78	0x3c66f560	0.014096588
79	0xbcbae495	-0.022814075
80	0xbe0e7dea	-0.1391522
81	0xbd578f8c	-0.05262713
82	0xbb26a428	-0.0025427435
83	0xbc9fdcff	-0.019514559
84	0xbbc9befb	-0.0061568
85	0x3c724aea	0.014788369
86	0xbcf16485	-0.029466877
87	0x3c0f831f	0.008759289
88	0x3c2ae44b	0.010430406
89	0xbb1a7eac	-0.0023574037
90	0x3ceae06f	0.028671471
91	0xbccc1257	-0.024911089
92	0x3b2c10f1	0.0026255215
93	0x3ced4b54	0.028966583
94	0x3bd0bc56	0.0063701076
95	0xbd929381	-0.071570404
96	0x3c9df64c	0.019282483
97	0x3c1a4840	0.00941664
98	0x3b492383	0.0030691333
99	0x3b83e3b7	0.0040249485
100	0x3c0ace5a	0.00847205
101	0xbddaadc2	-0.10677673
102	0xbbe509fb	-0.006989715
103	0xbc2fa41a	-0.010720277
104	0x3cc78ede	0.024360117
105	0x3d0387d9	0.032111976
106	0xbd4da529	-0.050206337
107	0x3c14e6b5	0.009088208
108	0xbbc0dc79	-0.0058856574
109	0xbd43e59c	-0.047826394
110	0x3c661708	0.014043577
111	0xbaa0d52f	-0.0012270565
112	0x3d576158	0.05258307
113	0xbd930aa9	-0.07179768
114	0xbcd7e09c	-0.02635222
115	0x3bbe3c9a	0.005805564
116	0xbc7a82c5	-0.015289967
117	0x3ca2ea0c	0.019886993
118	0x3d52955f	0.051411983
119	0xbd2732c3	-0.040819895
120	0xbdd05126	-0.10171728
121	0x3c63bfcd	0.013900709
122	0x3c0db53d	0.008649168
123	0x3cbff5ea	0.02343269
124	0xbc819637	-0.015818698
125	0x3b174f73	0.0023088127
126	0x3d873895	0.06602589
127	0x3c8f8f25	0.017524311
128	0xbcfa65d1	-0.030566128
129	0x3c565a4c	0.013083052
130	0x3dbe590d	0.09294329
131	0xbd066dee	-0.03281968
132	0xbb034a1f	-0.0020033193
133	0xbcb3b249	-0.021935599
134	0x3cd32ce6	0.025778245
135	0xbc22587a	-0.00990879
136	0xbcace0b0	-0.021103233
137	0x3bf3fad3	0.007445672
138	0x3c556ed5	0.013026913
139	0x3d245a11	0.040124957
140	0xbbf9b81a	-0.0076208236
141	0x3d77cddf	0.06049907
142	0xbc9a61df	-0.018845497
143	0x3d3ffc79	0.046871636
144	0xbc242866	-0.010019397
145	0x3dce5a46	0.10075812
146	0xbc13c34b	-0.009018729
147	0x3c4f3db4	0.0126489885
148	0x3acd54f0	0.0015665572
149	0x3c073d9b	0.008254434
150	0xbd11f353	-0.035632443
151	0xbcca5ad7	-0.024701519
152	0x3d3ea09d	0.04653989
153	0x3d285769	0.041098986
154	0x3cefcf22	0.029273573
155	0x3d399d4f	0.045316037
156	0xbd3609a4	-0.044442788
157	0x3de6fa1c	0.11278173
158	0xbd8e99cc	-0.06962928
159	0x3d1fdc99	0.039028738
160	0x3cab6afa	0.020925034
161	0xbcaead32	-0.02132282
162	0xbd81e73a	-0.06342931
163	0xbcfc1e42	-0.030776147
164	0xbc797826	-0.0152263995
165	0xbe09aa15	-0.13443787
166	0xbd0aaea0	-0.03385794
167	0xbdecea49	-0.11568124
168	0x3d7d7156	0.061875664
169	0xbd932639	-0.07185025
170	0xbbe1d59a	-0.0068919184
171	0x3d1d99b5	0.038476665
172	0x3b8a1ded	0.004214993
173	0x3ca90894	0.020633973
174	0xbc193754	-0.00935157
175	0x3b92043a	0.0044560703
176	0x3b73e01b	0.0037212435
177	0x3c64c03d	0.013961849
178	0x3c816f59	0.015800165
179	0x3b37869f	0.0028003824
180	0xbdd2adf7	-0.102870874
181	0x3d2c8adb	0.04212461
182	0xbc443124	-0.011974607
183	0x3c800b5c	0.015630417
184	0x3bdf2e21	0.006810919
185	0xbd0c98a5	-0.03432526
186	0x392871a8	0.00016064069
187	0xbc2b695c	-0.010462131
188	0x3bcf8a6e	0.006333641
189	0xbc8fcabe	-0.01755273
190	0x3bdc3159	0.00671975
191	0xbafa55c6	-0.0019099049
192	0xbc08fbb0	-0.008360788
193	0x3cf81a70	0.030286044
194	0x3c035f50	0.00801833
195	0x3c4c5ae3	0.012472841
196	0xbc8d8f77	-0.017280323
197	0x3cbc85df	0.023013053
198	0xbcac012b	-0.02099665
199	0xbc1fff58	-0.009765469
200	0xbda821a9	-0.08209545
201	0xbc8062ee	-0.015672173
202	0xbd013355	-0.031543095
203	0x3bb3c757	0.0054864096
204	0x3af30a04	0.0018542414
205	0xbcaa45db	-0.020785263
206	0xbcb5ea2b	-0.022206387
207	0x3d6ea581	0.058263306
208	0xbdc1b115	-0.09457604
209	0x3b5912de	0.0033122818
210	0x3c05d508	0.008168466
211	0x3cbde571	0.023180695
212	0x3cac769b	0.02105265
213	0x3c9c6e3e	0.019095536
214	0x3c1f37eb	0.009717922
215	0xbc81b528	-0.015833452
216	0x3d5fd6fb	0.05464838
217	0xbc1dcddf	-0.009631603
218	0xbd95ad62	-0.07308461
219	0x3d07231e	0.032992475
220	0x3c00b6de	0.007856099
221	0xbd7ac042	-0.061218508
222	0x3b0c0d2a	0.002137015
223	0x3d519211	0.05116469
224	0xbd1d9011	-0.03846747
225	0xbcc0135a	-0.023446728
226	0x3c4c3ca8	0.012465633
227	0xbbc798ac	-0.006091198
228	0x3c999ec0	0.018752456
229	0x3c977372	0.018487666
230	0x3a7d4118	0.0009660884
231	0x3c50e2ed	0.012749416
232	0x3c994175	0.01870797
233	0xbbb88d7f	-0.005632102
234	0xbc4d294f	-0.012522056
235	0xbd37ccaf	-0.044872936
236	0xbb5802b4	-0.0032960596
237	0x3da3d1a9	0.07998974
238	0x3cf9b52e	0.030481901
239	0xbbc89210	-0.0061209276
240	0xbbb3ae0a	-0.0054833936
241	0x3c9222d1	0.017838867
242	0x3d388fc2	0.045058973
243	0x3a25e89a	0.0006328911
244	0xbc834213	-0.016022718
245	0x3c56cc34	0.013110209
246	0xbd164730	-0.036688983
247	0xbbc4bd37	-0.0060040015
248	0x3e4474e3	0.19185214
249	0x3b266141	0.0025387558
250	0xbc3de82d	-0.011591
251	0xbcca1cc1	-0.024671914
252	0xbd05c8da	-0.03266225
253	0xbb5e21fe	-0.0033894773
254	0xbe004dcc	-0.12529677
255	0x3b6ba38a	0.0035955631

action_model._continuous_distribution.mu.bias f4 [3]
0	0x3cdd64b9	0.027025567
1	0x3a95bca8	0.0011424022
2	0x3c32e922	0.010919841

action_model._discrete_distribution.branches.0.weight f4 [2, 128]
0	0xbc3c48d2	-0.011491971
1	0xbc20a88a	-0.009805808
2	0x3ca02085	0.019546757
3	0x3c1351bb	0.008991654
4	0xbc12ff61	-0.00897202
5	0x3c68742f	0.014187857
6	0x3c5dc0fd	0.0135347815
7	0xbb27da06	-0.002561213
8	0x3a84243c	0.00100816
9	0xbc65f9aa	-0.014036575
10	0x3bbc7932	0.0057517523
11	0xbc77fde2	-0.015136214
12	0x3d0c1166	0.03419628
13	0x3c27bf56	0.010238489
14	0x3c1eab39	0.009684377
15	0x3c3dc870	0.011583433
16	0xbc1d242e	-0.009591145
17	0xbcd342b9	-0.025788652
18	0xbb996aab	-0.0046819053
19	0x3ae6015e	0.0017548015
20	0x3beb53e0	0.0071816295
21	0xbbfa2552	-0.0076338435
22	0xbc101ae1	-0.008795471
23	0x39ae75d3	0.00033275652
24	0xbcb8fc07	-0.022581114
25	0x3c69c9e6	0.014269328
26	0x3b1eb771	0.0024218226
27	0x3baf35ea	0.005347003
28	0xbcc4246f	-0.023943154
29	0x3d1e9994	0.038720682
30	0xbcab229b	-0.020890525
31	0x3c324fc9	0.01088328
32	0x3b314d92	0.0027054292
33	0xbad5b483	-0.0016304407
34	0xbb280d26	-0.0025642603
35	0xbc644829	-0.01393322
36	0x3d19ba0e	0.03753095
37	0xbd2039ff	-0.03911781
38	0xbc28fa4f	-0.0103135845
39	0xbd2f0af2	-0.042735048
40	0xb9a6cd22	-0.00031814823
41	0x3c38dc48	0.011282988
42	0x3b4ed846	0.0031562014
43	0x3c85dba1	0.016340079
44	0x3d18f3b4	0.03734179
45	0x3bfd435a	0.007728976
46	0x3d051b2b	0.032496613
47	0x3c902d45	0.017599711
48	0xbc138477	-0.00900375
49	0x3c1dfa48	0.009642191
50	0xbba4e00a	-0.0050315903
51	0xbc239d87	-0.009986288
52	0xbc344828	-0.0110035315
53	0x3a03a469	0.00050217524
54	0x3b964c31	0.0045867194
55	0xbaf23fa2	-0.0018482099
56	0x3c3586d9	0.0110795135
57	0x3acbe0a3	0.0015554618
58	0xbc5bd72d	-0.013418001
59	0xbb93b541	-0.004507691
60	0x3c620cb3	0.013796973
61	0xbc7b2cd2	-0.01533051
62	0xbb4462c6	-0.00299661
63	0x3c033d29	0.008010187
64	0xba4ba1de	-0.00077679555
65	0xbbb60b6c	-0.005555561
66	0x3ac2a06e	0.0014848837
67	0xbc5488c9	-0.012972065
68	0x3c1d3a0e	0.009596361
69	0x3b8f8911	0.0043803533
70	0xbc0f99e4	-0.008764718
71	0x3c0b5859	0.00850495
72	0xbd3bb6f5	-0.04582878
73	0xbc00f788	-0.007871516
74	0xbc4e8498	-0.012604855
75	0x3bdccd1d	0.0067383186
76	0xbc7b7cf2	-0.0153496135
77	0xbcb6c572	-0.022310946
78	0xbbe3123a	-0.006929663
79	0x3c53a0ee	0.012916787
80	0xbc91d3e5	-0.017801234
81	0x3c589a54	0.013220388
82	0x3ba65fd1	0.00507734
83	0x3c08fd7e	0.0083612185
84	0x3ba20f2c	0.0049456563
85	0x3b1c4e7e	0.0023850496
86	0x3bbbc08d	0.005729741
87	0xbc26d962	-0.010183664
88	0xbc87152f	-0.016489593
89	0xbc811cee	-0.015760865
90	0xbbefaff8	-0.0073146783
91	0x39b5f896	0.0003470822
92	0x3a54156c	0.00080903503
93	0xbcbebc35	-0.023283103
94	0x3d09360d	0.033498812
95	0x3bf29405	0.007402899
96	0x3b815674	0.0039470736
97	0xbc0e0e81	-0.00867045
98	0x3c6c2da9	0.014415183
99	0x3c691cac	0.014228027
100	0x39d096c8	0.00039785192
101	0xbcd3b718	-0.025844142
102	0x3a2b6c19	0.000653924
103	0xbcc44d69	-0.023962693
104	0x3cb9356a	0.022608478
105	0xbc8eb335	-0.017419437
106	0x3c7b8e87	0.015353805
107	0xbb920253	-0.0044558435
108	0xbc88c164	-0.016693778
109	0x3c7ab69f	0.015302329
110	0xb957c0cb	-0.00020575819
111	0x3b87fd81	0.004150093
112	0x3ca992fa	0.020699967
113	0x3d1ca53e	0.038243525
114	0xbb0df146	-0.0021658703
115	0xbc780ea6	-0.015140211
116	0x3b801f18	0.0039099567
117	0xb9a86a79	-0.00032122785
118	0xbb8a3f4f	-0.0042189728
119	0xbbddcccd	-0.006768799
120	0x3d1a4553	0.03766377
121	0xbbdf5efc	-0.006816743
122	0x3b45dd1d	0.0030191608
123	0xbc11201c	-0.008857753
124	0xbc7f6daf	-0.015590115
125	0x3c143de7	0.009047962
126	0xbc7a9b6d	-0.015295845
127	0xbb2c10af	-0.0026255061
128	0x3b2dedff	0.0026539562
129	0x3ca1b2bd	0.01973855
130	0xbc528866	-0.012849903
131	0x38d3db1b	0.000101020756
132	0x3b520131	0.0032044167
133	0xbc28b4b0	-0.0102969855
134	0xbca93bda	-0.020658422
135	0x39ca2c1d	0.0003856131
136	0x3c089ddc	0.008338418
137	0xbc0d1130	-0.008610055
138	0xbc103c76	-0.0088034775
139	0x3c0a6ada	0.008448327
140	0xbc8591fe	-0.016304966
141	0x3a3cf681	0.0007208363
142	0xbc3305fb	-0.010926719
143	0xbcc18d83	-0.023627048
144	0x3c43b86c	0.011945825
145	0x3cc87b77	0.024472935
146	0xbbc41589	-0.0059840125
147	0x3b497564	0.0030740136
148	0x3bbf4517	0.0058370936
149	0x3c447e51	0.011993007
150	0x3bb62c7e	0.005559503
151	0x3c41bcad	0.011824769
152	0x3cce0f8a	0.025153894
153	0xbc2069a2	-0.00979081
154	0x3bd8f231	0.0066206683
155	0xbc299f44	-0.010352913
156	0x3cb5a280	0.022172213
157	0xbd01bf97	-0.031676855
158	0x3c1b36c2	0.0094735045
159	0xbc4b1ead	-0.01239745
160	0xbbfc2c00	-0.007695675
161	0x3c1e31f3	0.0096554635
162	0xbb0decd5	-0.0021656055
163	0x3c20a0e2	0.009803982
164	0xbcd55686	-0.026042234
165	0x3d09498e	0.033517413
166	0x3cb8d455	0.022562185
167	0x3ca6ecf1	0.020376654
168	0x3c036a3c	0.008020934
169	0xbc41e5bf	-0.011834561
170	0x3ba7d118	0.0051213615
171	0x3c0deddc	0.008662667
172	0xbd14d569	-0.036336336
173	0x3b90273a	0.0043992074
174	0xbcd01b88	-0.025403753
175	0xbcf5f6a0	-0.030024827
176	0xbc1e2b99	-0.009653949
177	0x3b317874	0.0027079852
178	0xbab2ed46	-0.0013651035
179	0x3cb003ce	0.02148619
180	0x3c04188a	0.008062491
181	0x3c2ad7b1	0.010427401
182	0x3c43511c	0.011921193
183	0xbba2b35d	-0.0049652294
184	0xbbb263c5	-0.0054440224
185	0xbbc7ae7d	-0.0060937987
186	0x3c90f0a6	0.017692875
187	0x3ba9ee21	0.005185858
188	0xba8fc368	-0.001096827
189	0x3b94a9c2	0.0045368383
190	0x3ca06ee0	0.01958412
191	0x3c58a8f3	0.013223874
192	0x3b92619c	0.0044672024
193	0xba808a79	-0.0009806893
194	0xbba98a30	-0.005173944
195	0xbb055b52	-0.002034862
196	0xbc58fc96	-0.013243815
197	0x3aa33316	0.0012451138
198	0x3c90cc91	0.01767567
199	0xbb6999f5	-0.0035644744
200	0x3c8af010	0.016960174
201	0x3b1c62d4	0.0023862617
202	0x3c85c0fe	0.016327377
203	0x3aefef31	0.0018305538
204	0x3c55a4d8	0.01303979
205	0x3c20209d	0.009773401
206	0x3bd7c47e	0.006584703
207	0xbc349a5b	-0.011023129
208	0x3cf0b1a4	0.02938158
209	0x3b820529	0.0039679003
210	0x3bdaa400	0.0066723824
211	0xbc6ab88c	-0.014326226
212	0xb981e702	-0.00024776912
213	0x3ca0819f	0.019593058
214	0xbc27b554	-0.010236103
215	0xbafeb4bb	-0.0019432524
216	0xbb02550e	-0.0019887122
217	0x3c337ffb	0.010955806
218	0x3b4924cb	0.0030692096
219	0xbbf786e2	-0.007553921
220	0x3bd9d5b1	0.0066477885
221	0x3c322412	0.010872858
222	0xbd21685b	-0.03940616
223	0x3aee64c9	0.0018187995
224	0x3b34cb36	0.0027586943
225	0x3c07b79e	0.008283524
226	0xbc0d42a3	-0.008621844
227	0xbc13d67b	-0.009023304
228	0x394df0e2	0.0001964006
229	0x3c952bf6	0.018209439
230	0xb9063d9c	-0.00012802187
231	0x3c918fd3	0.017768776
232	0xbb99c916	-0.0046931608
233	0xbaddee32	-0.001693195
234	0x3c01061f	0.007874995
235	0x3b2e7ad5	0.0026623507
236	0x3b9ba3ff	0.0047497745
237	0xbc5133d6	-0.012768706
238	0xbc00fda1	-0.00787297
239	0x399623d4	0.00028636924
240	0x3c6ec96f	0.014574393
241	0xbce9a79a	-0.028522301
242	0x3cc60d1d	0.024176175
243	0x3b9712d3	0.0046103983
244	0x3bc44553	0.0059897094
245	0x3c49caef	0.01231645
246	0x3bb0aeff	0.005391955
247	0x3c555b17	0.013022206
248	0xbc0dee39	-0.008662754
249	0xbc4ce3ca	-0.012505481
250	0x3c1848b3	0.009294677
251	0xbbbec7ff	-0.0058221812
252	0x3b8e1a8d	0.004336661
253	0xbc7346c9	-0.014848419
254	0x3c64c806	0.013963705
255	0xbbcb9981	-0.0062133675

action_model._discrete_distribution.branches.0.bias f4 [2]
0	0x3c89c171	0.016815873
1	0xbc89c172	-0.016815875

exp_avg f4 [128, 47]
0	0x3766cd2a	1.3756837e-05
1	0xb768b2d8	-1.3869918e-05
2	0xb5df85a8	-1.6653694e-06
3	0x3707eed6	8.102235e-06
4	0xb4014b58	-1.2041471e-07
5	0x38249110	3.9235747e-05
6	0xb8085df4	-3.2512427e-05
7	0x37176851	9.024589e-06
8	0xb72bbb9a	-1.0236074e-05
9	0xb71b8a90	-9.2709815e-06
10	0xb6d39c84	-6.306511e-06
11	0xb7f73d53	-2.947325e-05
12	0x38382a7f	4.3908596e-05
13	0xb5a2c910	-1.2128457e-06
14	0x352d0588	6.445557e-07
15	0x362bbfdc	2.5592662e-06
16	0x37a1a2f8	1.9268584e-05
17	0xb73188b8	-1.0581854e-05
18	0xb7174112	-9.015452e-06
19	0x3542a2c0	7.2507464e-07
20	0xb7467a37	-1.1830175e-05
21	0xb60a610e	-2.0620096e-06
22	0x379e6792	1.8883296e-05
23	0x36331d00	2.6689959e-06
24	0xb628a0cb	-2.5127545e-06
25	0xb3c37240	-9.101177e-08
26	0xb7c1fef5	-2.3126117e-05
27	0x37a721f4	1.9923762e-05
28	0x372033ed	9.548833e-06
29	0x37016b44	7.713974e-06
30	0xb3c37240	-9.101177e-08
31	0xb7c1fef5	-2.3126117e-05
32	0x37a721f4	1.9923762e-05
33	0x372033ed	9.548833e-06
34	0x37016b44	7.713974e-06
35	0xba38bd14	-0.0007047218
36	0x36a7e71e	5.0038934e-06
37	0xb9be8a3e	-0.00036342622
38	0xb797de97	-1.8104254e-05
39	0x36785250	3.7002792e-06
40	0xb7b35c92	-2.138157e-05
41	0xb7da4a91	-2.6022348e-05
42	0x3712400e	8.717192e-06
43	0xb7cab23a	-2.416327e-05
44	0xb7965f7e	-1.792586e-05
45	0x3359d958	5.0721923e-08
46	0xb7d83899	-2.5775562e-05
47	0xb78549b3	-1.5889154e-05
48	0x3824b953	3.9273244e-05
49	0xb8447415	-4.683815e-05
50	0x368efd07	4.261386e-06
51	0xb75ab2ab	-1.3035412e-05
52	0xb820e6cc	-3.836192e-05
53	0x35534384	7.8701873e-07
54	0x37d8eed7	2.5860425e-05
55	0xb6abeb41	-5.1235843e-06
56	0xb5f07bb0	-1.7917391e-06
57	0xb70c9e0d	-8.381449e-06
58	0x376430ca	1.3601219e-05
59	0x355354da	7.87271e-07
60	0xb7cb0586	-2.4202058e-05
61	0xb7e93111	-2.7798613e-05
62	0xb7386cd6	-1.0992595e-05
63	0xb7ad727b	-2.0676516e-05
64	0xb76fa3f6	-1.4283685e-05
65	0x37f191d5	2.8797347e-05
66	0x37562418	1.2763798e-05
67	0x37387fa9	1.0996978e-05
68	0xb6d01549	-6.201361e-06
69	0xb7449952	-1.1718208e-05
70	0xb740bf7e	-1.1488677e-05
71	0xb784d0c6	-1.5832844e-05
72	0xb81a5540	-3.6795856e-05
73	0x376dfbd4	1.4184934e-05
74	0x37748ecf	1.45767835e-05
75	0xb721ecd3	-9.651488e-06
76	0x35bec8ff	1.4214601e-06
77	0xb81a5540	-3.6795856e-05
78	0x376dfbd4	1.4184934e-05
79	0x37748ecf	1.45767835e-05
80	0xb721ecd3	-9.651488e-06
81	0x35bec8f6	1.421459e-06
82	0xb8c417ba	-9.350428e-05
83	0x371cc1c7	9.343442e-06
84	0x38230783	3.8869224e-05
85	0x37c1b963	2.309372e-05
86	0x357356a2	9.065062e-07
87	0xb6873ceb	-4.0304053e-06
88	0xb6b7b1c8	-5.4745215e-06
89	0xb74c7290	-1.2186021e-05
90	0xb74033c1	-1.1456142e-05
91	0x3737f33d	1.0964283e-05
92	0xb58277dd	-9.72064e-07
93	0x37809649	1.5328771e-05
94	0xb7ba7410	-2.2226974e-05
95	0xb612ed16	-2.1893698e-06
96	0x37d139d2	2.4941666e-05
97	0x362516f8	2.4600286e-06
98	0xb5527380	-7.839917e-07
99	0xb71ae13e	-9.231559e-06
100	0x347bf760	2.3466191e-07
101	0x3801d72c	3.095639e-05
102	0xb797703f	-1.8052871e-05
103	0x36a01072	4.770286e-06
104	0x374b7175	1.2126159e-05
105	0x36512fc2	3.1171226e-06
106	0xb7d1f13a	-2.5027071e-05
107	0x37463261	1.1813449e-05
108	0xb50a02a8	-5.141287e-07
109	0xb68d3c9e	-4.209184e-06
110	0xb79b4ff4	-1.8514671e-05
111	0x36c01f64	5.7257002e-06
112	0x37afaa92	2.0941054e-05
113	0x373b1d05	1.1152825e-05
114	0x37818fcc	1.5444959e-05
115	0xb6ed6ee8	-7.0760616e-06
116	0x37402064	1.1451633e-05
117	0xb78deb4c	-1.6918078e-05
118	0xb6550604	-3.1742975e-06
119	0x3765b504	1.369161e-05
120	0x37b675a6	2.1750875e-05
121	0xb81795b2	-3.614062e-05
122	0x3665cc58	3.4242603e-06
123	0x36030730	1.9524705e-06
124	0x3765b504	1.369161e-05
125	0x37b675a6	2.1750875e-05
126	0xb81795b2	-3.614062e-05
127	0x3665cc58	3.4242603e-06
128	0x36030738	1.9524723e-06
129	0x3981d733	0.00024765133
130	0xb7a1c274	-1.9283245e-05
131	0x3877612c	5.8979887e-05
132	0xb890a9b5	-6.8980655e-05
133	0x351faec1	5.9486416e-07
134	0xb86de07d	-5.6714274e-05
135	0x3643c8d6	2.9174166e-06
136	0x3850742a	4.969925e-05
137	0x35843ab4	9.851851e-07
138	0x379ef930	1.8951105e-05
139	0x3644368a	2.9238022e-06
140	0x37589c41	1.2910984e-05
141	0xb6a07e68	-4.783087e-06
142	0x37b68e03	2.176222e-05
143	0x37a8506b	2.0064608e-05
144	0x37907ebd	1.7225155e-05
145	0x37d803c4	2.575096e-05
146	0x357f5370	9.511632e-07
147	0xb6f066da	-7.164531e-06
148	0x385b13d9	5.2232153e-05
149	0x37137749	8.789656e-06
150	0x3811010b	3.4571665e-05
151	0x3855355c	5.0832852e-05
152	0x3661d83a	3.3653473e-06
153	0x37902be1	1.718657e-05
154	0xb7a84884	-2.0060928e-05
155	0x3653a476	3.153718e-06
156	0x3687c2cc	4.045991e-06
157	0xb533b858	-6.695095e-07
158	0x37de3868	2.6490728e-05
159	0x37e40444	2.7181704e-05
160	0x380aa461	3.3054854e-05
161	0x38829e4b	6.2283674e-05
162	0x36787d84	3.702794e-06
163	0xb728eaac	-1.0068219e-05
164	0xb5bfd2c0	-1.4291945e-06
165	0x371671d9	8.967204e-06
166	0x38010eb0	3.0769676e-05
167	0x37678cca	1.3801453e-05
168	0x36c0574e	5.7322095e-06
169	0x36c3f04a	5.839426e-06
170	0x37a525e0	1.968717e-05
171	0x38010eb0	3.0769676e-05
172	0x37678cca	1.3801453e-05
173	0x36c0574e	5.7322095e-06
174	0x36c3f04a	5.839426e-06
175	0x37a525dc	1.9687162e-05
176	0x3a1b746c	0.0005930129
177	0x383f1f8e	4.5567336e-05
178	0xb820755a	-3.8256265e-05
179	0xb7880d12	-1.621855e-05
180	0x36b69824	5.441734e-06
181	0xb870304a	-5.726543e-05
182	0x36ca8930	6.03604e-06
183	0x37d63697	2.5536208e-05
184	0x370452fc	7.887134e-06
185	0x386d7bab	5.6620378e-05
186	0x36dff2fc	6.674205e-06
187	0x3809c656	3.284806e-05
188	0x3793482e	1.7557377e-05
189	0xb8b942ac	-8.833906e-05
190	0x37c2bc46	2.3214274e-05
191	0xb6967f08	-4.4851367e-06
192	0xb7a3c970	-1.9524916e-05
193	0x37c58274	2.3544977e-05
194	0xb878b136	-5.9292848e-05
195	0xb7d702b4	-2.5631256e-05
196	0x3705594a	7.948207e-06
197	0xb7d7fad0	-2.5746791e-05
198	0x3776a6cc	1.4701578e-05
199	0xb772894c	-1.4456291e-05
200	0xb80cf812	-3.3609635e-05
201	0xb7af9724	-2.0932006e-05
202	0xb811147e	-3.458978e-05
203	0xb8101219	-3.434913e-05
204	0x354a6830	7.5402477e-07
205	0x386df95a	5.673743e-05
206	0xb8a86588	-8.029776e-05
207	0xb84a78b8	-4.827298e-05
208	0x362085e2	2.3919788e-06
209	0xb76a0ce4	-1.3950488e-05
210	0xb6eeec4e	-7.120462e-06
211	0xb7b95f9c	-2.209824e-05
212	0xb887a9a3	-6.468899e-05
213	0xb8226361	-3.8716364e-05
214	0x3595185a	1.1108452e-06
215	0x3813ae3d	3.5209803e-05
216	0xb83eaafa	-4.5458764e-05
217	0xb8569fac	-5.1170282e-05
218	0xb8226361	-3.8716364e-05
219	0x3595185a	1.1108452e-06
220	0x3813ae3d	3.5209803e-05
221	0xb83eaafa	-4.5458764e-05
222	0xb8569fad	-5.1170286e-05
223	0x3a1bdc00	0.00059455633
224	0xb8abcdb8	-8.1922335e-05
225	0x3932fa4e	0.00017068649
226	0xb8269dd9	-3.972449e-05
227	0x37797286	1.4868221e-05
228	0x37944a22	1.7677496e-05
229	0xb80c88bc	-3.3505945e-05
230	0x37fef02c	3.0390998e-05
231	0x37a71d3e	1.9921568e-05
232	0xb8f6087c	-0.000117317744
233	0xb51e0c8a	-5.8877833e-07
234	0xb8ddde8c	-0.00010579554
235	0x37077040	8.072762e-06
236	0xb846a4a0	-4.7360198e-05
237	0x3806fa01	3.2180924e-05
238	0x358d85b8	1.0544236e-06
239	0x350faa48	5.3519443e-07
240	0xb7f68f79	-2.9392295e-05
241	0x3702611e	7.771216e-06
242	0xb7dbfa5d	-2.6223419e-05
243	0x3822f19d	3.884883e-05
244	0x36720034	3.6060928e-06
245	0x37bb9609	2.2362003e-05
246	0x37a7c014	1.9997395e-05
247	0xb827e42e	-4.002841e-05
248	0xb78855b1	-1.6252367e-05
249	0xb6626f56	-3.374143e-06
250	0xb6f7fd66	-7.390673e-06
251	0x37b0e046	2.108527e-05
252	0x370bf91d	8.343047e-06
253	0xb7dc4fe4	-2.6263246e-05
254	0xb7e3f676	-2.7175276e-05
255	0x3862cace	5.4071475e-05

exp_avg_sq f4 [128, 47]
0	0x32111f96	8.447293e-09
1	0x3111a3da	2.1193416e-09
2	0x3219bdbc	8.948913e-09
3	0x31ff53a6	7.4309865e-09
4	0x325349ef	1.2298627e-08
5	0x3239a135	1.08050715e-08
6	0x311ce6a7	2.2832098e-09
7	0x3217b082	8.82949e-09
8	0x31bad895	5.437935e-09
9	0x322de71c	1.01224735e-08
10	0x322c4cc1	1.00291695e-08
11	0x313a6972	2.71265e-09
12	0x321c97b4	9.114888e-09
13	0x31d4d383	6.194058e-09
14	0x323cfabe	1.1000052e-08
15	0x326ce1f9	1.3788388e-08
16	0x312298df	2.3661e-09
17	0x3203040b	7.626123e-09
18	0x31970ca1	4.396114e-09
19	0x322084ac	9.343392e-09
20	0x3260f62d	1.309449e-08
21	0x3109c91b	2.005044e-09
22	0x320304c1	7.6262845e-09
23	0x3198a2b7	4.4422808e-09
24	0x321cf710	9.136571e-09
25	0x3275d6c0	1.4309705e-08
26	0x313cdf01	2.7484364e-09
27	0x31ceca30	6.018375e-09
28	0x31927080	4.261949e-09
29	0x32157e92	8.70172e-09
30	0x3275d6c0	1.4309705e-08
31	0x313cdf01	2.7484364e-09
32	0x31ceca30	6.018375e-09
33	0x31927080	4.261949e-09
34	0x32157e91	8.701719e-09
35	0x37902be2	1.7186572e-05
36	0x33956152	6.9560556e-08
37	0x37631515	1.3535163e-05
38	0x32502d95	1.2117558e-08
39	0x2fe780c7	4.2110157e-10
40	0x324c89d9	1.1905706e-08
41	0x3177cd8f	3.6060077e-09
42	0x328ac363	1.6154166e-08
43	0x3177de86	3.606972e-09
44	0x32a2d0c8	1.8954225e-08
45	0x2f1526a1	1.3565195e-10
46	0x327568f1	1.4284738e-08
47	0x321cc445	9.125022e-09
48	0x31446ea3	2.8584644e-09
49	0x322a6546	9.918329e-09
50	0x31e364da	6.618035e-09
51	0x324a56ac	1.1777654e-08
52	0x32366ad5	1.0618085e-08
53	0x310972f2	2.0001463e-09
54	0x3221e48c	9.423399e-09
55	0x31ea957e	6.8272916e-09
56	0x3241dbc5	1.1284048e-08
57	0x324deae3	1.19859775e-08
58	0x312eec99	2.5454823e-09
59	0x320ff23c	8.378773e-09
60	0x31c869f4	5.8328116e-09
61	0x323455a3	1.04968505e-08
62	0x3256d830	1.2505595e-08
63	0x3115eaeb	2.181589e-09
64	0x3219a762	8.943831e-09
65	0x31c06101	5.5989635e-09
66	0x32392121	1.077595e-08
67	0x326106f7	1.3098307e-08
68	0x31201a6f	2.329809e-09
69	0x3203c332	7.669586e-09
70	0x31b78ded	5.342136e-09
71	0x3225843f	9.634333e-09
72	0x32619139	1.31297435e-08
73	0x3170cc5a	3.5040757e-09
74	0x3204bd2d	7.726425e-09
75	0x319d9d87	4.58721e-09
76	0x3229763c	9.863978e-09
77	0x32619139	1.31297435e-08
78	0x3170cc5a	3.5040757e-09
79	0x3204bd2d	7.726425e-09
80	0x319d9d87	4.58721e-09
81	0x3229763c	9.863978e-09
82	0x378ebb81	1.7015032e-05
83	0x33aee0c1	8.143389e-08
84	0x37055b4b	7.948674e-06
85	0x32467cac	1.1553464e-08
86	0x30228546	5.912465e-10
87	0x32636761	1.3236645e-08
88	0x317e053d	3.6964842e-09
89	0x329d68d5	1.8324878e-08
90	0x316c9a4d	3.443023e-09
91	0x32b718d4	2.1315294e-08
92	0x2f96f4d6	2.7458807e-10
93	0x3265d906	1.33789e-08
94	0x3305c2ad	3.1143532e-08
95	0x318a6228	4.0274877e-09
96	0x328badc5	1.6260751e-08
97	0x322f31c7	1.0197659e-08
98	0x32c58ae8	2.2996986e-08
99	0x32f711d9	2.87627e-08
100	0x31a96055	4.929499e-09
101	0x32a75c80	1.9483423e-08
102	0x322b19d3	9.959382e-09
103	0x32c72d7a	2.318733e-08
104	0x3306260c	3.123391e-08
105	0x3186c179	3.9219086e-09
106	0x328d111f	1.6422346e-08
107	0x323226b7	1.0369766e-08
108	0x32c7b643	2.3249532e-08
109	0x32c7458b	2.3198274e-08
110	0x31b8f362	5.3827742e-09
111	0x32a9490c	1.9707407e-08
112	0x32742803	1.4211767e-08
113	0x32e617a4	2.6786275e-08
114	0x32dfb1c0	2.6041448e-08
115	0x31cc3114	5.942761e-09
116	0x32b24467	2.0753033e-08
117	0x3249f105	1.1754541e-08
118	0x32d6c886	2.5004066e-08
119	0x32c31b4f	2.2713406e-08
120	0x31b8988a	5.3724465e-09
121	0x329f7d3f	1.8566991e-08
122	0x328c508d	1.6334775e-08
123	0x32f4cb4a	2.8497784e-08
124	0x32c31b4f	2.2713406e-08
125	0x31b8988a	5.3724465e-09
126	0x329f7d3f	1.8566991e-08
127	0x328c508d	1.6334775e-08
128	0x32f4cb4a	2.8497784e-08
129	0x37c8cb05	2.3936396e-05
130	0x344b9cd6	1.8962905e-07
131	0x38444199	4.6791134e-05
132	0x32de6a27	2.5892474e-08
133	0x3102ed31	1.9052318e-09
134	0x32e3713d	2.6477773e-08
135	0x31fc7b70	7.3481985e-09
136	0x331aa10e	3.6002398e-08
137	0x320bcde7	8.137682e-09
138	0x32ecbc0a	2.7559526e-08
139	0x2fa5aed5	3.013755e-10
140	0x33726536	5.6437067e-08
141	0x32bb336d	2.1793051e-08
142	0x3154a21f	3.0942215e-09
143	0x326bfc84	1.3736216e-08
144	0x3229120b	9.841197e-09
145	0x32aaf057	1.9899899e-08
146	0x32cbc5c9	2.3722253e-08
147	0x31749e84	3.5596779e-09
148	0x327eb727	1.482639e-08
149	0x3202ef3b	7.621391e-09
150	0x329807c1	1.7698655e-08
151	0x32bce0ec	2.1988363e-08
152	0x31493920	2.9281821e-09
153	0x3277782a	1.4404614e-08
154	0x32280dbe	9.782012e-09
155	0x32a94e9a	1.9709933e-08
156	0x32b27457	2.0774833e-08
157	0x3182e8a9	3.8099484e-09
158	0x3275b1fa	1.4301344e-08
159	0x322204e3	9.430752e-09
160	0x329d3635	1.8301856e-08
161	0x32ae8a2b	2.0319098e-08
162	0x318c7312	4.0876182e-09
163	0x329cffa1	1.8277037e-08
164	0x32112433	8.448342e-09
165	0x329781a5	1.7637669e-08
166	0x32aaab8b	1.9868613e-08
167	0x31bfd9a8	5.5835763e-09
168	0x32603f74	1.3052944e-08
169	0x32339ed3	1.0455284e-08
170	0x32a1a5f0	1.8818326e-08
171	0x32aaab8b	1.9868613e-08
172	0x31bfd9a8	5.5835763e-09
173	0x32603f74	1.3052944e-08
174	0x32339ed3	1.0455284e-08
175	0x32a1a5f1	1.8818328e-08
176	0x37ae5109	2.0780151e-05
177	0x34185a65	1.4188988e-07
178	0x37e30787	2.7064014e-05
179	0x32aef7e7	2.0368999e-08
180	0x309fa51c	1.16157e-09
181	0x32bfa08d	2.2308337e-08
182	0x31d796e9	6.27448e-09
183	0x32f4ec30	2.8512744e-08
184	0x31d5dc99	6.224195e-09
185	0x3301cac1	3.0219557e-08
186	0x2fb7c173	3.342496e-10
187	0x3311b39d	3.39238e-08
188	0x3360854a	5.227529e-08
189	0x327a6fe1	1.45773535e-08
190	0x33834ee4	6.114513e-08
191	0x3316e4dc	3.5132743e-08
192	0x33980383	7.07869e-08
193	0x33a834fc	7.8327474e-08
194	0x324cfca0	1.1931803e-08
195	0x333d6d29	4.4104272e-08
196	0x33056eb2	3.1067152e-08
197	0x33790454	5.7978767e-08
198	0x3386b625	6.272993e-08
199	0x3237b41d	1.0692955e-08
200	0x335c5d8b	5.130782e-08
201	0x333981aa	4.3191598e-08
202	0x3397db6b	7.071397e-08
203	0x33a25f18	7.56101e-08
204	0x32344714	1.049354e-08
205	0x334d2e3b	4.777233e-08
206	0x32e7cd7a	2.698538e-08
207	0x336512d6	5.333535e-08
208	0x338f1368	6.6624864e-08
209	0x3225aab1	9.643075e-09
210	0x33958413	6.962377e-08
211	0x32c49bb9	2.2888218e-08
212	0x335c623b	5.131208e-08
213	0x339acaf2	7.2080994e-08
214	0x33007094	2.990471e-08
215	0x33245ed5	3.8270475e-08
216	0x32d52726	2.4814266e-08
217	0x33564d21	4.9895906e-08
218	0x339acaf2	7.2080994e-08
219	0x33007094	2.990471e-08
220	0x33245ed5	3.8270475e-08
221	0x32d52726	2.4814266e-08
222	0x33564d21	4.9895906e-08
223	0x38c48249	9.370276e-05
224	0x34f4e1d2	4.5612848e-07
225	0x38316850	4.2297237e-05
226	0x33977d4e	7.054278e-08
227	0x31444253	2.8559455e-09
228	0x33b819a1	8.5728296e-08
229	0x32bbe462	2.1873522e-08
230	0x33df8429	1.04082865e-07
231	0x32d416cc	2.4690415e-08
232	0x34142c62	1.379972e-07
233	0x30adb91c	1.2640018e-09
234	0x338625c0	6.246728e-08
235	0x333bb00e	4.369945e-08
236	0x322ff307	1.0241599e-08
237	0x33277551	3.8989416e-08
238	0x32baec8d	2.176082e-08
239	0x33431595	4.5421604e-08
240	0x3342bfab	4.5343466e-08
241	0x32016388	7.531419e-09
242	0x333ef31f	4.445894e-08
243	0x32ac46af	2.0055579e-08
244	0x333f6b20	4.4568083e-08
245	0x3364ac74	5.3242232e-08
246	0x32353c7e	1.0549341e-08
247	0x32fc34e3	2.9360711e-08
248	0x32ba40f1	2.1682782e-08
249	0x3336f290	4.2595786e-08
250	0x33452102	4.5897657e-08
251	0x321880bf	8.876838e-09
252	0x32fccca6	2.9429724e-08
253	0x33038f03	3.0630883e-08
254	0x3358edac	5.050758e-08
255	0x337c036f	5.8676445e-08
