Assets/Learning/AIRollABall/results/BiggerJump/AIRollABall/checkpoint.pt (torch, 574251 bytes, 42 tensors)

network_body._body_endoder.seq_layers.0.weight f4 [128, 47]
000000 b1 9b 45 be b9 c0 f4 bd 27 88 80 bd fe b5 e1 3d
       -0.19297673 -0.119508214 -0.06275969 0.110210404
000010 12 b2 4b 3e 7e c7 13 be 6e 3b d8 3b 54 35 3a 3d
       0.19892147 -0.14431569 0.0065988814 0.045461014
000020 d9 9d 83 bd f1 04 f5 ba 13 54 5c be d7 a3 8b bd
       -0.064265914 -0.0018693489 -0.21516447 -0.06818359
000030 f1 d2 2b 3d 31 69 0d 3e a7 30 e9 bd ed ea 03 be
       0.041949216 0.13809659 -0.11386233 -0.12882586
000040 1e 4d f5 bd b0 bd 24 bc 04 35 8b be d1 d5 4a bd
       -0.119775996 -0.010054991 -0.27188885 -0.049520317
000050 60 0e f3 3d 63 75 4c bc e0 04 db 3d 82 4c 96 3d
       0.11867976 -0.012479159 0.10694289 0.073388115
000060 d8 10 f5 3d 8a 54 a7 bd 72 a4 eb 3d 02 1c 6b be
       0.11966103 -0.081704214 0.11505975 -0.22959903
000070 17 f2 52 bd 44 db 18 3e a2 20 50 3e bf 4a 6f be
       -0.051500406 0.14927393 0.20324948 -0.23368357
000080 aa 28 34 3d c6 16 a1 3e b6 b3 34 bb 61 73 af bd
       0.043984093 0.31462687 -0.0027572936 -0.08566929
000090 73 f5 3f be f1 e3 1a 3d 9b 80 34 3e 57 46 09 be
       -0.18745975 0.037815038 0.17627184 -0.13405739
0000a0 4d 5d d5 bd 00 22 41 3e 7d 16 eb bd 67 a7 53 3e
       -0.10418186 0.18860626 -0.11478899 0.20669328
0000b0 29 9d 00 be 69 1e 38 3e e7 29 5f 3d 0e c6 44 be
       -0.12559952 0.1798035 0.05448332 -0.19216177
0000c0 13 eb 97 bd 45 8f e4 3c 02 d5 94 bd 4f 95 ea 3d
       -0.07417884 0.027900347 -0.072671905 0.114542596
0000d0 2e b9 c2 3e 7f 0d a9 bc 4d 5e 90 bd 75 d5 76 3b
       0.38031906 -0.020636318 -0.070492364 0.0037663851
0000e0 5b e9 b1 3d ac b9 01 3e 71 e3 d4 3d a8 86 6d bd
       0.08687087 0.12668484 0.103949435 -0.057989746
0000f0 13 fb 0f 3d e3 66 57 3e 5f 50 73 3d 45 45 ad bd
       0.035151552 0.21035342 0.05940282 -0.08460478
000100 7c c5 10 3e eb f8 8b be b6 9f 1c be 5c 12 a6 bc
       0.14137834 -0.27338347 -0.152953 -0.020272426
000110 18 69 71 3e 49 c1 15 be b0 5c d4 3d 58 bc 0a 3e
       0.23575246 -0.14624514 0.10369241 0.1354841
000120 78 5b 48 bd 94 45 30 be 4c f9 08 3e 73 45 4d 3d
       -0.048915356 -0.17214042 0.13376349 0.05011506
000130 1b f0 6c be 78 35 9a 3d 7e 39 40 3e d4 60 a8 3d
       -0.23138468 0.075297296 0.18771932 0.082215935
000140 53 67 3e be b3 9e 63 bc 92 21 5d be a4 52 b0 3c
       -0.18594103 -0.013892817 -0.21594837 0.021523781
000150 0e f1 4d bd cd 0b e7 3d bf 59 22 be 53 96 44 3e
       -0.050278716 0.11281548 -0.15854548 0.19197969
000160 a0 19 3e 3e 82 66 cb bd bf 1e 90 3d 18 bb 4a 3d
       0.18564463 -0.09931661 0.07037114 0.049494833
000170 e4 3a 7a 3e 0c 58 a7 bd 4a b1 06 be 02 1e fc bd
       0.24436527 -0.081710905 -0.13153568 -0.12310411
000180 01 3e 88 3d 13 b9 8e 3e 61 c1 a5 3d a5 28 f7 3d
       0.06652451 0.27875575 0.08093525 0.12068299
000190 07 d5 94 3d 14 35 4d bd 6a b2 ef bd bd 04 00 be
       0.07267194 -0.050099447 -0.11703952 -0.12501808
0001a0 6c 2d 18 3e 7f ba 08 be 90 0e 4c be ea 06 f9 3d
       0.14861077 -0.13352393 -0.1992743 0.12159522
0001b0 76 f8 1b be 34 e4 0e be 94 08 4f bc 78 27 15 3d
       -0.15231499 -0.1395424 -0.0126363225 0.036414593
0001c0 cd 85 6c 3e 02 02 3f be e0 91 46 bd 9c 0b 07 3e
       0.23097916 -0.1865311 -0.04847896 0.13188022
0001d0 f7 05 43 3d 81 f6 20 bd a5 b3 5d 3d 7a 9a aa bd
       0.04761311 -0.039297584 0.0541264 -0.08330245
0001e0 5b c2 88 bd 86 25 69 bd ad 7e 3d bd 34 cb 3d 3e
       -0.06677695 -0.05692055 -0.046263386 0.18534547
0001f0 24 ff 83 bd 97 c8 1c be 59 28 2e be 99 01 c2 3d
       -0.064451486 -0.15310894 -0.17007579 0.09472961
000200 61 17 15 be 1f 8d 30 3e 40 8f 8b bd a5 04 c2 be
       -0.145597 0.17241333 -0.06814432 -0.37894168
000210 3d 7a e9 bc b8 5c 5c bd d4 24 91 3d 71 2b d3 be
       -0.02850067 -0.05379936 0.070871025 -0.4124408
000220 c8 df 09 bd 60 3b 77 be 8f ad 37 3e a2 e4 aa 3c
       -0.03366068 -0.24143744 0.17937301 0.020860974
000230 3f ef 2a be 39 e6 54 be 86 b4 bb bc 6d 44 8d 3d
       -0.16692828 -0.20790948 -0.022913229 0.06897817
000240 af c9 34 bd 72 03 9c 3d 4c 73 a9 3d df 69 8d 3b
       -0.044137653 0.07617845 0.08273944 0.0043155993
000250 c5 d2 a2 bc 58 76 6f 3d 31 26 b6 be e5 dd 3c be
       -0.019875893 0.05846247 -0.35576013 -0.18444021
000260 92 2f 3d be 55 d6 5e bd 8f c5 33 3e a0 58 1a 3e
       -0.18475178 -0.05440362 0.17555831 0.1507287
000270 ac b3 09 be 57 48 5c bd 51 21 ee 3c f4 1b 8c 3d
       -0.13447446 -0.053779926 0.02906862 0.06841269
000280 65 47 8b 3e 8e ee 19 be 9b 2f 79 3e 44 12 7f be
       0.27202907 -0.15032408 0.24334566 -0.24909312
000290 d4 8a ee 3d 19 8e 47 bd e7 19 2f bd 8b a5 7f bd
       0.11647573 -0.0487195 -0.04274931 -0.062413733
0002a0 2a 2a c2 3d 1e b4 48 3e 0e 35 50 3d b6 93 1c 3e
       0.094806984 0.19599959 0.050831847 0.15290722
0002b0 58 85 48 be 9a 14 95 3e 02 fb 2a be 63 50 63 bd
       -0.19582117 0.2911728 -0.16697314 -0.055496585
0002c0 ab 83 4b 3e 80 bf b4 3d 31 1f 9e be 7d 2b 6e bd
       0.19874446 0.08825588 -0.30883172 -0.058146942
0002d0 a5 e7 c4 bd ec 03 32 3d ec b0 d3 3d 2c 4f 6d bd
       -0.09614495 0.04346077 0.103364795 -0.057936832
0002e0 77 d0 03 3d 6b 80 0d 3e e3 fe 9f be 0f 21 a0 bc
       0.03218123 0.13818519 -0.3124915 -0.019547014
0002f0 ec af 1d be ee b4 f3 3d 6f 83 55 3e d2 79 90 3d
       -0.1539914 0.11899744 0.20850919 0.070544854
000300 bd db 58 bb c6 9a 67 3e 8c 21 1a 3d cc ca 26 3d
       -0.0033089959 0.22617635 0.03762965 0.040720746
000310 92 67 c9 3c 14 5b 9d 3e 25 5e 41 3e 79 f5 c7 be
       0.024585519 0.3073355 0.1888357 -0.39054468
000320 33 a0 83 3e fd fa 05 3e 89 fe 95 3d 07 a0 a5 3e
       0.2570816 0.13084026 0.07323939 0.32348654
000330 b5 45 91 3e d7 ac d0 3e b6 29 8c 3e b3 98 a5 bd
       0.28373495 0.40756866 0.27375573 -0.08085766
000340 29 8a 65 3e 8c 24 f5 bb da 61 46 3e 04 65 01 be
       0.22415985 -0.0074811634 0.19373265 -0.1263619
000350 9f fe 6b 3d c3 19 bf 3c 14 6d 85 bc 3e 4e 1e be
       0.057615872 0.023327714 -0.016287364 -0.15459535
000360 3d 60 36 3e 15 6f 38 be e7 fe 25 3e ef 0c d5 3e
       0.1781015 -0.18011124 0.16210519 0.4161143
000370 e8 c3 94 3e 24 61 ca bd 5b 90 81 be 65 d5 3f 3c
       0.29055715 -0.09881809 -0.25305447 0.011708592
000380 7b 04 1b 3e 02 05 2e be 37 50 c4 3b e0 1a 07 3d
       0.15138428 -0.16994098 0.0059910077 0.032984614
000390 bc bd 4f 3d af ac ca bd 30 84 00 3d 7e 46 be be
       0.050718054 -0.09896218 0.031376064 -0.37163156
0003a0 17 37 26 3e 20 df b2 3d 91 e9 f9 3e 32 1c 15 bd
       0.16231953 0.08733964 0.4881101 -0.036403842
0003b0 73 70 1f bd 88 30 b8 bd eb 0c e5 3d d1 3d 2d bb
       -0.0389256 -0.089936316 0.111841045 -0.002643455
0003c0 36 c9 3d 3e e4 32 8e 3d 60 bc 46 3e 04 8b d6 3b
       0.18533787 0.069433 0.19407797 0.0065473337
0003d0 9e 12 9d bd ad 5a 57 bc e8 33 16 3e 96 4a 25 be
       -0.076695666 -0.013144177 0.14668238 -0.16141734
0003e0 40 e6 88 bd cd 96 4f 3e 78 5e 3b 3c 40 d3 c7 3d
       -0.06684542 0.2027237 0.011436097 0.097570896
0003f0 75 f2 e4 bd 97 2f 80 3e 9c 25 21 be 6c 2f 89 3c
       -0.111790575 0.25036308 -0.15737003 0.016746245

network_body._body_endoder.seq_layers.0.bias f4 [128]
000000 da c3 a6 3b 11 a6 cd bc 0d 33 40 bd 7f a0 77 bc
       0.0050892653 -0.0251036 -0.046923686 -0.015113949
000010 d1 0f 3a 3d 32 ea 63 bc 28 f7 a7 3c eb 60 82 3b
       0.04542524 -0.013910817 0.020503595 0.0039788387
000020 eb 42 19 bd 1f 78 d3 3b 91 96 4f 3b ea 30 64 bd
       -0.037417334 0.0064535285 0.0031675438 -0.05571071
000030 a1 44 a9 bc 2f 45 74 bd 57 f4 7d bc 7e c8 03 bd
       -0.020662608 -0.05963629 -0.01550015 -0.032173626
000040 05 12 2c bd 51 59 4f 3d 8a ac 97 3b 1a ec ca bb
       -0.042009372 0.05062229 0.0046287226 -0.0061926963
000050 51 ea 38 3b 48 5a 33 3a 31 5d 6b 3d bb ec 34 bd
       0.0028215835 0.0006841761 0.05746192 -0.044171076
000060 01 b5 61 bd 60 da 3a bd b2 cd a6 bc 63 fa 87 3d
       -0.05510426 -0.045618415 -0.020361755 0.06639554
000070 2d 27 85 bc e7 f7 fd bc b6 15 99 bc 9b 4c 38 bc
       -0.016254032 -0.031001998 -0.01868711 -0.011248733
000080 89 e0 ca bc b9 8e 5b bd 3e 67 c3 bc 8c d1 26 bd
       -0.02476527 -0.053602908 -0.02385294 -0.040727183
000090 86 e9 32 bd ce 38 2a 3d c8 5d 0b 3b c4 5c e5 bc
       -0.043679737 0.04155808 0.0021265615 -0.027998336
0000a0 c1 2d d1 3c 33 20 cc bc 6e bf d7 3a 3b a2 a5 3b
       0.025534512 -0.024917698 0.0016460249 0.00505474
0000b0 b3 1c 2e bc 3f fa 69 3c 88 81 0b bd b7 e4 51 bd
       -0.01062696 0.014280855 -0.034059078 -0.05124351
0000c0 06 58 4f 3d b9 72 95 3d 43 ff 3a bc d1 af 38 bd
       0.050621055 0.07297272 -0.011413398 -0.045089547
0000d0 33 ca 94 bc 07 69 26 3d dd 4d 83 3b ff 2e d3 3b
       -0.018162822 0.040627506 0.0040070848 0.0064448114
0000e0 8b 8d 11 bc 39 8d 28 bd 0d 5e df bc 9c 03 c9 bd
       -0.008883844 -0.041150305 -0.027266527 -0.098151416
0000f0 2a 40 7d 3d 6d aa 02 3c 7d 7d d2 3c 13 4b b9 bd
       0.06182877 0.007975203 0.025694603 -0.090475224
000100 ba f3 5a bd 3b ef ae bc 2d 6f bf bc f9 b6 dd bd
       -0.053455092 -0.021354308 -0.023368442 -0.10825915
000110 8d 30 a4 bc a1 9a 0d 3d 2d ae 37 bb bd 42 db bc
       -0.020042682 0.034571294 -0.00280274 -0.026765222
000120 85 04 cc bb 9b d9 6e 3c 13 76 35 bc c8 20 04 3d
       -0.0062261247 0.014578248 -0.011075514 0.032257825
000130 7a e5 c2 3c 41 e1 5e bc 37 92 00 bd 58 21 32 bd
       0.023791064 -0.013603509 -0.03138944 -0.04348883
000140 54 98 d6 3c 8e bf a2 bc 35 89 b7 3a ac d1 19 bd
       0.026195683 -0.019866731 0.0014002683 -0.037553474
000150 97 05 a7 bc 62 4b 7c 3c d5 b3 70 3d b8 5d 96 3b
       -0.020388408 0.015398832 0.05876525 0.004588809
000160 41 7d 7a bc 55 ec 38 3d 41 2e 45 3c 20 60 87 bd
       -0.015288652 0.04514726 0.012034954 -0.06610131
000170 20 52 5f bd 54 db 1a 3c a8 18 bf 3c 6f 18 60 bb
       -0.05452168 0.009451706 0.023327187 -0.003419425
000180 68 ab fc 3c c8 41 68 3b f1 32 e0 3c 18 cc 8f 3c
       0.030843452 0.00354396 0.02736804 0.017553374
000190 81 e1 37 bd 08 01 f2 3c 1a 89 ac bb bc 95 f4 bc
       -0.04489279 0.029541507 -0.005265367 -0.029856555
0001a0 47 6c bd bc a0 4b b0 bd ce a1 1a bd a1 11 88 bc
       -0.02312292 -0.08608174 -0.037751965 -0.016609969
0001b0 81 d2 3c 3c 52 7a 5c bd 3c 66 73 bc ba c5 0c bd
       0.011524797 -0.05382759 -0.014855918 -0.034368254
0001c0 fa a3 9f bc 15 3e 48 bc e6 c0 78 bd ea c1 33 bb
       -0.01948737 -0.012221833 -0.060730837 -0.0027428814
0001d0 db 8f 8b bd 89 9c 08 bd 2d 52 13 bd 51 87 0c 3d
       -0.06814548 -0.03335241 -0.03596704 0.034308735
0001e0 10 3a 2f bb 2f b4 4d bd 87 0d 7d bd 57 ab 5b 3a
       -0.0026737489 -0.050220665 -0.06178048 0.00083797186
0001f0 10 dd 7b 3d 33 f0 5f bc 00 bf b4 3c f9 f5 9e 3c
       0.06149012 -0.013668108 0.022063732 0.019404398

network_body._body_endoder.seq_layers.2.weight f4 [128, 128]
000000 f6 98 0d 3e 2f 0f aa bd 80 bc 7d bd 1d f5 06 bc
       0.13827881 -0.08303677 -0.061947346 -0.0082371505
000010 1d d0 2a 3d 8a fa a0 3c 83 bc 5f 3c 75 b9 39 bc
       0.04170238 0.019650716 0.013655785 -0.01133572
000020 b7 9e 81 bd 3a 36 14 be 49 28 a4 bd 29 2d 08 3e
       -0.063291006 -0.14473811 -0.08015496 0.13298477
000030 ef 6a 2a bd 2f f2 bd bc ad 68 62 bd af 3a b0 bd
       -0.041605886 -0.023186771 -0.055275608 -0.08604943
000040 04 2e d6 3d e5 62 ce 3d ee ed c3 3d 58 82 c2 3b
       0.104579955 0.100774564 0.09566866 0.0059359483
000050 b4 70 8d bd 31 d9 c8 bd 97 ec 41 be 44 58 dd 3d
       -0.06906262 -0.09807051 -0.18937908 0.10807851
000060 ad b6 92 bb a7 7c 21 bd d2 85 82 3d 43 02 75 bd
       -0.004477343 -0.03942552 0.063731804 -0.05981661
000070 f0 61 7a bd a8 03 02 be 35 cb 88 3e e2 16 4c bb
       -0.061128557 -0.12696707 0.26717535 -0.003114157
000080 02 eb ce 3d fc bb c8 bc 7f 41 ad 3c aa 6c 08 bd
       0.10103418 -0.0245037 0.021149395 -0.033306755
000090 02 17 88 3c 84 9e be 3d 39 c2 bb bd 3e 42 bc bd
       0.016612533 0.09307578 -0.091679044 -0.09192322
0000a0 c0 2a 63 3d 32 dd 48 3d d1 f0 29 3e 41 70 da bb
       0.05546069 0.049039073 0.1659577 -0.0066662137
0000b0 a8 01 d6 bd b3 29 d7 3c ac 27 8d bd 95 28 ee 3c
       -0.10449535 0.026265 -0.068923324 0.029072085
0000c0 3a af f0 bd e9 5a 03 3e 1f c6 97 bd 0f 6e b8 3b
       -0.11752172 0.12827648 -0.074108355 0.0056283544
0000d0 1f f2 82 bd 2b be 8b 3c 8c ba 36 3d 64 6a 1a 3c
       -0.06393837 0.017058453 0.0446115 0.00942478
0000e0 52 23 84 bd 2b 2d 0b 3d ec 6e 70 3d 6d 4e 2b be
       -0.06452049 0.033978622 0.058699533 -0.16729136
0000f0 5e 69 e0 bd 85 dc 0d 3e 83 77 e2 3c ba a8 01 be
       -0.10957597 0.13853653 0.027644878 -0.1266202
000100 5c c9 df 3d 20 8c 94 bb 11 d5 ae ba 59 15 2b 3e
       0.10927078 -0.0045333058 -0.0013338645 0.16707362
000110 1b 06 8d bd 76 7d 0e be ca 22 f9 3c 6b c6 3e 3d
       -0.0688593 -0.13915047 0.030412097 0.046575945
000120 3a 79 01 3d 22 1a e5 3a 23 27 47 3d 3b 9f 8f bc
       0.03160975 0.0017479102 0.048621308 -0.017531982
000130 67 0b 1a bc 06 18 20 bd 79 42 ea bd a6 22 69 3d
       -0.009402133 -0.03908541 -0.1143846 0.05691781
000140 a8 02 f9 3d ce 8f 3b 3c 61 49 bb 3c 5d dd 25 3d
       0.1215871 0.01144786 0.022862138 0.04049431
000150 fe 94 49 bd 33 e4 5f bd d6 76 0f be 3d af cd 3d
       -0.049214356 -0.054660987 -0.14010176 0.1004319
000160 ef 38 20 be bb 0b 92 3d df 69 d8 bd 2d d0 01 bd
       -0.15646718 0.07131144 -0.10567068 -0.031692673
000170 d8 fa 07 bd ae fb c0 bd 36 3f 97 3d 1d 65 28 3e
       -0.033198208 -0.09423004 0.073851034 0.16444822
000180 6a 87 ca 3c c8 e5 fe bd 24 aa 03 3e 1e 89 c6 3d
       0.024722774 -0.12446171 0.12857872 0.09694122
000190 f6 09 30 3e 23 d5 2f 3e 7e a0 6d 3c 68 ca b6 bd
       0.171913 0.17171149 0.014503596 -0.08925325
0001a0 87 9d af 3d a3 38 90 bd 18 08 13 bd d5 60 22 3e
       0.08574968 -0.070420526 -0.03589639 0.15857251
0001b0 92 c1 a1 3d 9d a0 c2 3d f0 04 49 bd c7 b5 3a 3d
       0.07898249 0.09503291 -0.049076974 0.045583513
0001c0 28 9c 0b be 10 3f 12 3d 90 5f 08 3d d0 7e 78 3b
       -0.13633788 0.035704672 0.03329426 0.0037917383
0001d0 16 ae d1 3d bd 26 15 3d 9a b5 67 3d 15 ab 9b 3c
       0.102382824 0.036413897 0.056569673 0.019002477
0001e0 f5 07 19 3d 38 ea 9c bd c3 5a 32 3c b8 50 2a 3d
       0.037361104 -0.07661861 0.010885897 0.041580886
0001f0 5b f4 34 3d 88 d1 2a 3e 01 80 6a bd bf 3c fb 3d
       0.044178348 0.16681492 -0.05725098 0.12267446
000200 3c 3f 20 3e d5 18 a1 bb e4 a0 18 3e 49 2b 8c bd
       0.15649122 -0.0049162903 0.14905125 -0.068441935
000210 fa 1c e7 3c 1d 66 fe 3c 29 f6 d0 bd ee 60 2b bd
       0.02821206 0.03105455 -0.10203201 -0.041840486
000220 dc fb fd 3d f6 d4 e1 3d ef 6d 88 3d f1 66 e1 3d
       0.12401554 0.11026947 0.06661593 0.11005963
000230 a2 74 37 bd 7f dc d0 3d d6 c6 ec bd 9c 16 c6 bc
       -0.044788964 0.10198306 -0.115613624 -0.024180703
000240 ca a5 f0 bd ee 0e 0c bd 18 6a 99 bd 11 c2 fd bc
       -0.11750372 -0.034193926 -0.07490939 -0.030976327
000250 c3 7b 8d 3d 91 0e d5 bd 93 70 16 bd 39 fc 07 3d
       0.06908371 -0.10403169 -0.036728453 0.033199523
000260 4b 9f 81 bd 65 16 a5 3d a8 d0 34 be 7a f2 90 bd
       -0.06329211 0.08060912 -0.17657721 -0.07077499
000270 d9 a4 ae 3c e3 a4 e8 3b 30 12 8c 3d e0 9d e6 bd
       0.02131884 0.007099734 0.068394065 -0.11260581
000280 84 18 4e bd 9c 0b 20 3d b4 b1 b4 b6 41 ef 18 bd
       -0.05031635 0.03907357 -5.3851054e-06 -0.037337545
000290 a7 c9 43 bd 21 68 fd 3d ec 7c 01 3e 6b 07 8d 3d
       -0.047799733 0.12373377 0.1264531 0.068861805
0002a0 08 d3 2d be 46 f4 17 3d 69 91 3a 3d 47 e1 9f 3d
       -0.16975033 0.03709819 0.04554883 0.0780664
0002b0 20 12 31 3e 7a 64 8e 3d 39 fe e5 bb 3e eb 66 ba
       0.1729207 0.06952758 -0.007018831 -0.00088088575
0002c0 6e 3e 84 bd 96 48 72 3d bc 74 cb bd 5d 79 52 bd
       -0.0645722 0.059151255 -0.09934375 -0.051385272
0002d0 85 99 db bd 0c 98 c3 3d ac 5e 0d bd 69 e1 e9 3d
       -0.10722641 0.09550485 -0.034514114 0.11419947
0002e0 aa 7c 92 bd 0c 77 80 bd c1 a7 1f be c2 6e 45 3d
       -0.07152684 -0.062727064 -0.15591337 0.04820133
0002f0 59 70 b3 3d c3 69 b3 bc 25 cd eb ba 59 18 66 bd
       0.08761663 -0.021901017 -0.0017990215 -0.056175563
000300 0f 04 10 3e 33 a5 c0 3d 70 f1 03 be 98 e7 ac 3c
       0.14064048 0.09406509 -0.1288507 0.021106526
000310 6d 34 aa 3c d7 ff d4 3d 74 e2 ca 3c 9a 58 33 3c
       0.020776952 0.1040036 0.024766184 0.010946417
000320 ea ee 20 3d ca 5e 07 be 6d 6b c6 3d 9a 53 82 3d
       0.039290346 -0.13219753 0.096884586 0.06363602
000330 84 2e 67 bc 04 9e 75 3d 24 f5 d0 3b 2e 8f ef bd
       -0.014110211 0.05996515 0.0063768793 -0.11697231
000340 ca df c7 bc 07 3b 15 be 56 c4 9d bd 5b 0a 8e bd
       -0.024398703 -0.14573298 -0.07703464 -0.06935569
000350 ac 70 6c be 17 a2 17 bd d5 24 b9 bc 80 c0 ae bb
       -0.23089856 -0.037019815 -0.02260057 -0.0053330064
000360 f7 93 86 3d 25 af 6b 3d ed 30 45 3e a4 77 4e 3e
       0.06571191 0.057540078 0.19256945 0.20162827
000370 8d 88 a8 3d c5 96 0f 3e e2 6a 1b be 11 4d a3 bb
       0.0822917 0.14022358 -0.15177491 -0.0049835523
000380 33 a6 14 be 40 c2 0e bd cd be f5 bd be 0c 5f 3d
       -0.14516525 -0.03485322 -0.11999283 0.05445551
000390 ec 2e 11 be a4 c9 f6 3d e5 a6 66 3d 44 fa ac 3d
       -0.14178056 0.12050179 0.056311507 0.08446172
0003a0 27 2b 96 bd 59 ad 66 bd 0a 07 55 bc ef 6b c1 3b
       -0.073324494 -0.05631766 -0.0130021665 0.0059027593
0003b0 94 81 8c bd bd 0c 95 bd cc 2d 0d 3d ea 20 28 3e
       -0.068606526 -0.0727782 0.034467503 0.16418806
0003c0 30 b1 3b be 3d a9 5a 3d 26 35 b0 bd 88 86 b1 3d
       -0.1832931 0.053384054 -0.08603887 0.08668238
0003d0 f6 21 eb 3a 3c 27 ad bd 73 0a a9 bb 75 54 3d 3e
       0.0017939198 -0.08454749 -0.0051587163 0.18489249
0003e0 30 04 05 be 0e 69 ac bb d0 7a c1 3b b4 93 f9 3c
       -0.12989879 -0.005261547 0.005904533 0.030465938
0003f0 06 a6 1d be ff c7 bc bd 3c 5d ab bd 95 f2 64 3c
       -0.15395364 -0.09217834 -0.083673924 0.013973852

network_body._body_endoder.seq_layers.2.bias f4 [128]
000000 1f 32 35 bc d1 e2 e9 bb b3 4f 1c 3d 1c 0a 8b bc
       -0.011059313 -0.0071376343 0.038161945 -0.016972594
000010 72 77 bc bc 46 40 72 3c 22 aa a4 bc 6c 2e 56 bc
       -0.023006175 0.014785832 -0.020100657 -0.013072591
000020 87 e9 a1 bc af 7d 80 bc 35 00 ec bb a2 18 81 3b
       -0.019764675 -0.01568493 -0.007202173 0.003939704
000030 38 c1 02 3d c4 63 eb ba bb 2e e5 3c 9b c6 67 bc
       0.03192255 -0.001795881 0.027976384 -0.014146472
000040 a0 ff d0 3c fc fa 31 3d 11 09 01 bd 40 69 7b 3c
       0.025512516 0.043452248 -0.031502787 0.015344918
000050 e7 75 e7 bc e0 9d e2 bc e2 f0 dd b9 58 9a b7 bb
       -0.028254462 -0.027663171 -0.00042331876 -0.005603116
000060 e1 c9 10 3d ab b0 07 3c 29 4f e3 3a 76 58 51 bc
       0.035348777 0.008281867 0.0017342317 -0.012777438
000070 e1 a5 1b bc 75 5c ca 3c 82 79 21 3d be 1e dc bc
       -0.009499998 0.02470229 0.03942252 -0.026870128
000080 9f c3 5c 3d 31 62 3d bb e2 1e 18 3d 54 96 cf 3c
       0.053897496 -0.0028897638 0.037138827 0.025340237
000090 dd d9 89 3d e6 c4 cd 3d 2b d9 86 bc ba 9d c5 3d
       0.06731007 0.10047321 -0.016460976 0.096492246
0000a0 9b cb 8f ba 4e 64 2b 3d 06 33 52 bc 78 00 29 bc
       -0.0010970713 0.041843705 -0.012829548 -0.010315053
0000b0 4e 80 94 3c 85 b6 a1 ba 78 9d c9 3d 63 36 18 3a
       0.018127587 -0.001233772 0.09844488 0.0005806444
0000c0 e1 f9 f1 bc 00 8d 20 3d 36 f3 35 bd 35 39 a4 bc
       -0.029538097 0.039196968 -0.044421397 -0.02004681
0000d0 e2 d6 6d 3d 8d 1d 3f ba e5 63 10 bd 20 46 0d 3d
       0.058066256 -0.0007290475 -0.035251517 0.034490705
0000e0 d0 83 a7 3c 74 ea 0c bb a9 46 f5 bc 05 56 91 3b
       0.020448595 -0.002150205 -0.02994092 0.004435303
0000f0 99 e4 d6 bc 54 3c a5 bc 16 74 2f bc b7 60 d4 ba
       -0.02623205 -0.020170368 -0.010708829 -0.001620314
000100 a7 c5 a9 bb 97 38 9d 38 77 e6 d4 3c b9 b4 6b bc
       -0.0051810327 7.496884e-05 0.0259888 -0.014386349
000110 a0 35 36 3c 54 eb 15 3c 70 53 05 3c 8d fe de bb
       0.011121184 0.009150345 0.008137569 -0.006805247
000120 5e 80 18 3d 41 0b de bb 8c 69 87 3d 52 24 e1 3a
       0.037231795 -0.006776244 0.06611928 0.0017176962
000130 40 60 0e bd b6 04 1d bb de 81 2c 3c 97 9a e7 bb
       -0.03475976 -0.0023959107 0.01052901 -0.007067989
000140 8d 33 95 3d bc 90 9d bc a1 2e d8 bc 84 b2 ec bc
       0.07285223 -0.019234054 -0.026389422 -0.028893717
000150 21 01 7d bc 16 09 af 3c 78 46 af bc fa 8d 1a bd
       -0.015442164 0.021366637 -0.021395907 -0.037733056
000160 ee a8 67 3c f7 d3 39 bd c3 3a 07 3d 11 98 99 bc
       0.014139397 -0.04536816 0.033015024 -0.018749269
000170 ba 5a 01 bc 56 de 08 3c 52 05 b1 3b 5a f9 79 bb
       -0.007895166 0.00835379 0.0054022456 -0.003814301
000180 0b 09 84 3c 97 4f 23 bc 5f 74 84 b8 f7 27 1a bb
       0.016117593 -0.009967706 -6.315926e-05 -0.0023522356
000190 49 68 4d 3b 8a 85 1b 3d 20 ad 0f bd a6 0a 1b bd
       0.0031342676 0.03796915 -0.035077214 -0.037851952
0001a0 cf 61 46 3c fd 8d c6 3c 54 64 0d bd 97 b3 d6 ba
       0.01210828 0.024237627 -0.03451951 -0.0016380426
0001b0 ab c4 05 bd 20 37 a1 3c 63 a6 99 3c e6 6a 2f bc
       -0.03265826 0.019679606 0.018756097 -0.010706639
0001c0 29 c6 04 bd eb 72 bf 3b 6f e9 23 3c e6 9a 95 3a
       -0.032415543 0.0058425567 0.010004385 0.0011413961
0001d0 d2 37 b1 bc 2d b2 2d bc be 66 3e 3d b1 1b 67 bc
       -0.021633063 -0.010601562 0.0464847 -0.014105723
0001e0 94 bd 99 3d 89 eb b9 3b 13 a4 60 bb 88 3f a8 3b
       0.07506862 0.00567383 -0.0034277483 0.0051345266
0001f0 83 89 97 bc 42 c4 86 bc 0a 11 98 3d 47 20 cb bb
       -0.018498188 -0.016451005 0.07425125 -0.006198916

action_model._continuous_distribution.log_sigma f4 [1, 3]
000000 70 b6 8d be d0 62 8e be 33 cf 0a bd
       -0.2767825 -0.27809763 -0.033889007

action_model._continuous_distribution.mu.weight f4 [3, 128]
000000 88 48 0d bb 30 9a ec 3c cf 43 0a bd a8 d6 6d 3b
       -0.0021558125 0.028882116 -0.033756074 0.0036291275
000010 9c fb 8c bd 5c b6 d3 bd 46 57 ba 39 09 52 c0 bc
       -0.06883928 -0.10337517 0.00035541708 -0.023476617
000020 93 f8 19 3b ba d5 48 bc ea 76 31 3b 35 e0 a1 3c
       0.002349411 -0.012257988 0.0027078935 0.01976023
000030 be 45 a3 3d 09 e2 9a bc da 25 1d 3d ab 64 0c bd
       0.07972287 -0.01890661 0.038366176 -0.034275692
000040 31 92 2a bc 25 69 40 bd 65 a8 6f bb 22 dc 0e be
       -0.010410831 -0.046975274 -0.0036568877 -0.13951162
000050 31 e0 75 3b ee 3b 89 bc 4b 0d 36 bc 0f 50 b7 bc
       0.0037517662 -0.01675221 -0.011111568 -0.022377042
000060 70 5c ac bd ca 38 d0 bd 74 eb 01 bd 2a 2a 19 bd
       -0.084160686 -0.10167082 -0.031718686 -0.037393726
000070 9a 9f f2 bb 23 4c 9c bc d1 59 56 bc 73 64 42 bd
       -0.00740428 -0.019079274 -0.013082937 -0.047459077
000080 06 2e 79 3d 01 50 c1 3c c4 91 d0 3a f5 2f de 3c
       0.060834907 0.02359772 0.0015912582 0.027122477
000090 b1 9f 60 be db 29 c9 bc 07 8c e3 3c 0c 9c 98 bd
       -0.21935917 -0.024556091 0.027776731 -0.074516386
0000a0 1a 2a 81 bc 08 6d d0 bc f4 08 15 3c 5f e8 b0 bb
       -0.015767146 -0.025442615 0.009096373 -0.0053987945
0000b0 12 f6 fb 3c 7e 70 e8 3b 9b 23 cc 3d b5 69 d7 bb
       0.030756984 0.0070934882 0.09967729 -0.0065738806
0000c0 3e 21 73 bc 9f a3 34 3d 2c 44 48 bc e2 f9 2b 3d
       -0.0148394685 0.044101354 -0.012223285 0.041986354
0000d0 f4 af 06 3d 05 8b f9 3c 80 ec 54 bc 40 ac 87 3d
       0.032882646 0.030461797 -0.012995839 0.06624651
0000e0 84 7c 6c 3c 83 01 03 bd 4a 1b 37 bb d0 67 6c bb
       0.014433984 -0.031983864 -0.002793985 -0.003607262
0000f0 e4 66 99 bb 4c d1 99 3c 93 78 43 bd d5 ed 19 3d
       -0.004681455 0.018776558 -0.04772241 0.03758033
000100 15 a7 2a bd 0f 6a a9 3c d1 30 ff 3c cd a1 81 bd
       -0.041663248 0.020680455 0.031151207 -0.06329689
000110 74 8a 20 3b 33 ff 9a 3b e0 b2 8a 3d ca f3 3b bb
       0.0024496587 0.004730129 0.06772399 -0.0028679245
000120 a7 f5 ee bd 9e 52 e8 ba 87 5c 90 3d eb b4 21 bc
       -0.11667948 -0.0017724817 0.07048898 -0.009869794
000130 e0 fc db 3a bb 53 5e 3c c1 5c 7a 3c 37 07 cc bc
       0.0016783737 0.013569768 0.015280903 -0.024905784
000140 16 92 11 be c3 1d 5e bd b5 f6 f8 ba 33 cf 9e bc
       -0.14215884 -0.0542276 -0.0018994423 -0.01938591
000150 41 3d af bb 0d 0f 7e 3c bf 52 f4 bc 4c c5 1b 3c
       -0.005347878 0.015506518 -0.029824613 0.009507488
000160 ed d8 2c 3c 2e 2f 0b bb 4f 54 03 3d 67 1f d2 bc
       0.010549766 -0.0021237838 0.032062825 -0.02564974
000170 88 bd 0f 3b 92 bc 02 3d 4a 12 e2 3b 74 e7 94 bd
       0.0021933038 0.031918116 0.006899153 -0.07270709
000180 1b 88 a2 3c 4a 42 1f 3c 1c af 53 3b 91 2a 50 3b
       0.01984029 0.009720394 0.0032300418 0.0031763653
000190 9e be 09 3c 48 68 e2 bd 2a ac a6 bb 85 63 1e bc
       0.008407263 -0.11055046 -0.0050864415 -0.009667282
0001a0 e0 25 d0 3c 51 72 08 3d 8b a0 52 bd 54 da 15 3c
       0.025408685 0.033312146 -0.051422637 0.009146292
0001b0 b8 d0 8e bb d4 26 4c bd ec 09 67 3c 9d f6 cb ba
       -0.0043583773 -0.049841717 0.014101487 -0.0015561167
0001c0 b0 0d 62 3d cc 23 99 bd a3 50 db bc 94 9b ca 3b
       0.055188835 -0.07477531 -0.026771849 0.006183097
0001d0 1d 57 7f bc ad a7 ab 3c d6 8a 58 3d b6 67 2d bd
       -0.015584734 0.020953977 0.05286678 -0.042335235
0001e0 5b 25 cf bd 31 68 6d 3c 39 5e 14 3c b9 04 cb 3c
       -0.10114547 0.014490173 0.009055668 0.024782525
0001f0 8b 00 83 bc 58 30 52 3b f9 4d 89 3d 8e cd 94 3c
       -0.01599147 0.0032072272 0.06704325 0.018164422
000200 1d b6 fa bc f5 28 50 3c dc 9e bf 3d f9 bf 06 bd
       -0.030604417 0.012705077 0.09356472 -0.032897923
000210 27 65 d3 ba bc 0f c2 bc b8 5c dc 3c a5 0f 1d bc
       -0.0016128168 -0.023689143 0.02689968 -0.0095862495
000220 f1 19 ae bc d4 0c 0c 3c c1 19 51 3c b2 21 24 3d
       -0.021252604 0.00854798 0.012762488 0.040071197
000230 9d a8 f3 bb 79 5e 77 3d 4b 45 9a bc 9a b6 4e 3d
       -0.0074358718 0.06039283 -0.01883187 0.05046711
000240 1f cc 1b bc 5c 55 d6 3d de 0d 16 bc 80 07 5b 3c
       -0.0095091155 0.104655 -0.00915858 0.013368487
000250 f4 da 9c 3a 8f 3d 05 3c d2 9d 18 bd e3 e6 d6 bc
       0.0011967109 0.0081323525 -0.037259884 -0.026233142
000260 73 6c 41 3d 1a ab 30 3d ec 34 f4 3c f2 8d 45 3d
       0.047222566 0.043131925 0.029810391 0.048231073
000270 6b 28 3b bd 53 9f e0 3d 54 01 92 bd 80 a7 21 3d
       -0.045692842 0.10967889 -0.071291596 0.03946638
000280 f2 d5 bf 3c ac 63 bb bc fd 12 85 bd e1 4d 00 bd
       0.023417447 -0.022874676 -0.06497762 -0.03132427
000290 84 4a 8b bc 29 c7 0e be 33 3f 0c bd a7 76 f3 bd
       -0.017003305 -0.13943161 -0.03423996 -0.118878655
0002a0 a5 e1 81 3d a0 84 9a bd 24 ad 01 bc 74 e7 24 3d
       0.063418664 -0.075448275 -0.007914815 0.040259793
0002b0 38 10 90 3b 53 67 ab 3c 29 89 3c bc 6b 21 8d 3b
       0.0043964647 0.020923292 -0.011507311 0.0043069622
0002c0 af 1c 83 3b 45 1a 6a 3c 1c 5f 5d 3c 97 58 4f 3b
       0.004001222 0.01428849 0.013511445 0.0031638497
0002d0 ba c2 d8 bd 29 64 30 3d 3e 32 3b bc f9 29 87 3c
       -0.10584016 0.04306427 -0.011425553 0.016499506
0002e0 c8 6f da 3b e6 de 0e bd de d6 11 ba f8 dd 2d bc
       0.0066661574 -0.03488054 -0.0005563329 -0.0106120035
0002f0 93 7f d0 3b 8f 19 8c bc 80 d1 f3 3b e8 d5 b7 ba
       0.0063628643 -0.017102031 0.007440746 -0.0014025541
000300 f7 4f 03 bc 12 88 fc 3c 3b 73 0a 3c e3 9a 3f 3c
       -0.008014671 0.030826602 0.008450325 0.011694643
000310 2b d5 8a bc b6 39 c1 3c 68 a4 a2 bc 8c d2 57 bc
       -0.01694735 0.023587089 -0.019853786 -0.013172757
000320 c1 a4 a6 bd 9a 14 8b bc 7a 79 0c bd 62 25 c2 3b
       -0.08136893 -0.016977597 -0.034295537 0.0059248665
000330 73 12 8c 3a b3 bf af bc 81 0c b2 bc 06 48 75 3d
       0.0010686651 -0.021453714 -0.021734478 0.05988314
000340 6e bc c7 bd 19 eb 38 3b eb a6 09 3c b1 ce ba 3c
       -0.09752737 0.00282163 0.008401613 0.022803636
000350 7b ab a7 3c 62 19 be 3c 0f d6 1b 3c b1 fa 87 bc
       0.02046751 0.023205463 0.009511485 -0.016599031
000360 f8 0c 63 3d cd 2c 30 bc fb 5f 97 bd f5 4e 0b 3d
       0.05543229 -0.010752869 -0.07391354 0.034010846
000370 6e c8 00 3c b0 aa 7a bd 18 d9 1a 3b ec e4 50 3d
       0.007860286 -0.061197937 0.0023627933 0.050999567
000380 7c 03 25 bd ee 0d c5 bc 92 40 53 3c 42 14 c8 bb
       -0.040286526 -0.024054494 0.012893813 -0.0061059305
000390 bd a4 a5 3c 45 1f 9e 3c 2b 0b 07 3b 9e 68 53 3c
       0.020220155 0.01930202 0.0020606022 0.012903361
0003a0 28 63 ab 3c 19 4e af bb 2c 53 51 bc 6a a6 38 bd
       0.020921305 -0.005349886 -0.012776177 -0.04508058
0003b0 e3 7c 4a bb 2a 76 a8 3d 2f dd 02 3d cf d3 ab bb
       -0.0030897192 0.08225663 0.03194922 -0.0052437554
0003c0 6a 35 c0 bb 63 16 7f 3c 3b 85 3a 3d f1 a5 8e 3a
       -0.0058657425 0.015569302 0.045537215 0.0010883195
0003d0 3e 1a 84 bc 63 a0 4a 3c 8d 4f 16 bd 1c a4 c9 bb
       -0.016125795 0.012367341 -0.03669696 -0.0061535966
0003e0 79 35 44 3e 80 03 27 3b a9 2f 43 bc d5 2f c4 bc
       0.19161023 0.0025484264 -0.011913219 -0.02394859
0003f0 37 38 16 bd 04 e9 8e bb 47 83 04 be be 08 16 3b
       -0.036674704 -0.0043612737 -0.12940703 0.0022893394

action_model._continuous_distribution.mu.bias f4 [3]
000000 ec eb dc 3c 92 1e c6 3a 1e 91 e0 3b
       0.026967965 0.0015115312 0.006853237

action_model._discrete_distribution.branches.0.weight f4 [2, 128]
000000 56 7f 5d bc 93 b6 14 bc 0f fc 95 3c 28 5f d0 3b
       -0.013519129 -0.009076732 0.018308667 0.0063589998
000010 40 a3 27 bc 87 e0 40 3c 92 e0 5e 3c 41 8d 97 bb
       -0.010231793 0.0117722815 0.013603346 -0.004624993
000020 0e 22 63 39 53 4f 83 bc ad 98 aa 3b 34 3c 88 bc
       0.00021661093 -0.016029036 0.0052061887 -0.01663027
000030 06 99 0e 3d 32 07 44 3c 65 76 08 3c 08 b9 09 3c
       0.034813903 0.011964606 0.008329009 0.008405931
000040 27 92 d8 bb 1c cc e9 bc 97 a5 b1 bb 1a 52 87 ba
       -0.0066092196 -0.02853971 -0.005421351 -0.0010324151
000050 71 d4 d8 3b 1a db 0a bc 04 ff 14 bc e7 a5 45 39
       0.006617122 -0.008475089 -0.009094004 0.00018849187
000060 35 ae ae bc 32 9c 28 3c 5c c4 1d 3b e8 fa 4d 3b
       -0.021323303 0.010291146 0.0024073338 0.003143007
000070 eb c1 c7 bc 8c 7a 26 3d c6 7c 8b bc 95 5e 28 3c
       -0.02438446 0.040644214 -0.01702727 0.010276456
000080 06 30 f5 3a f2 47 6a b9 42 2b f3 ba b3 47 3a bc
       0.0018706329 -0.0002234278 -0.001855232 -0.0113696335
000090 2d 2c 15 3d 97 d8 1f bd 83 3e 24 bc bc 16 27 bd
       0.036419082 -0.039024916 -0.01002467 -0.040793166
0000a0 b0 0c 61 bb 83 1a 2e 3c 9a 56 1c 3b 4f 78 6c 3c
       -0.0034339838 0.010626438 0.002385533 0.014432981
0000b0 f5 b0 0b 3d d6 7b 00 3c 4e d6 11 3d ae f8 83 3c
       0.034104306 0.007842025 0.035604768 0.01610979
0000c0 63 d9 1c bc 9c 7a fa 3b fd 83 cc bb 74 c1 28 bc
       -0.009573313 0.0076440107 -0.00624132 -0.010300029
0000d0 d9 75 fc bb 47 bc f7 b9 50 fa 17 3b cf 45 45 bb
       -0.007704478 -0.0004725179 0.002318997 -0.0030101424
0000e0 f7 24 46 3c ee 92 85 b8 77 91 11 bc 01 f5 c9 bb
       0.012093774 -6.369302e-05 -0.008884779 -0.00616324
0000f0 a4 4e 39 3c 23 2e 5b bc 54 d3 6b bb 80 d8 e8 3b
       0.011310253 -0.013377699 -0.0035984116 0.007105887
000100 4d 1c bd ba 90 b4 fa bb 10 02 3c 3a 11 29 56 bc
       -0.001442799 -0.0076509193 0.0007171938 -0.013071314
000110 13 50 ff 3b e3 b3 cc 3a 71 04 ef bb 9c e4 3c 3c
       0.007791528 0.0015617575 -0.0072942306 0.011529114
000120 f8 1f 3b bd 15 96 06 bc ad a9 25 bc 83 ca d7 3b
       -0.045684785 -0.008214493 -0.010111255 0.0065854206
000130 a3 56 55 bc c3 7f 99 bc ad 7f 09 bc 3f 2e 13 3c
       -0.013021144 -0.01873768 -0.008392257 0.008983194
000140 77 41 ab bc 9e ac 30 3c 9e 69 51 3b 0f a0 e6 3b
       -0.02090524 0.010783343 0.0031953822 0.0070381234
000150 5a 90 9b 3b 46 00 25 3b f9 fd 28 3b 2f 15 33 bc
       0.0047474327 0.0025177165 0.0025786145 -0.0109303435
000160 d5 cb 8d bc cd 25 59 bc 24 7e 9a bb f3 39 a7 39
       -0.017309109 -0.013253641 -0.004714744 0.00031895898
000170 44 9f 11 b9 ab 1e a5 bc 87 cc 05 3d 85 e8 0b 3c
       -0.00013887609 -0.020156225 0.032665756 0.008539324
000180 bc cc e2 3a ee a6 03 bc db b8 41 3c 04 aa 68 3c
       0.0017303447 -0.008035405 0.011823858 0.014200691
000190 ff 9f 31 bb f5 54 dc bc 38 22 66 3a bb 4b b0 bc
       -0.0027103422 -0.02689598 0.00087789027 -0.021520486
0001a0 db e9 a3 3c 4e 23 80 bc 70 de 58 3c f3 7a cd bb
       0.020008972 -0.015641835 0.013236627 -0.00627076
0001b0 dc d4 ae bc df 7c 26 3c 7e 8e 1b bb 35 1f 28 3b
       -0.021341734 0.0101616075 -0.0023736055 0.0025653366
0001c0 ae 69 c7 3c df 52 0b 3d 31 03 a7 bb 01 0d 7f bc
       0.024342384 0.03401458 -0.005096816 -0.015567065
0001d0 f1 20 6a 3b 18 17 79 39 37 a7 aa bb d9 f7 29 bc
       0.00357252 0.00023755094 -0.005207922 -0.010374033
0001e0 cb c7 16 3d b2 dd 10 bc c5 36 1a 3b 0e 35 3d bc
       0.03681163 -0.008841919 0.002353118 -0.011548294
0001f0 9f 6d 89 bc 74 57 d5 3b b7 9b 3c bc a8 c0 80 ba
       -0.016775904 0.0065106694 -0.011511735 -0.0009823041
000200 0c 64 99 3b c0 b9 9b 3c 6a 3f 3e bc 78 27 33 3b
       0.004681116 0.019009471 -0.011611799 0.0027336758
000210 63 48 92 3b 12 21 01 bc 9a cb a9 bc 05 86 20 3b
       0.0044641956 -0.00788142 -0.020726968 0.0024493944
000220 e1 95 15 3c 61 d8 d8 bb 27 4c 07 bc 38 e5 22 3c
       0.009129972 -0.0066175913 -0.008257902 0.009942345
000230 47 a1 8a bc 96 c3 83 ba 22 d1 1c bc cf 85 a7 bc
       -0.016922606 -0.0010052796 -0.0095713455 -0.020449547
000240 56 dd 12 3c da 04 df 3c 96 da ab bb 85 0f c0 3b
       0.008963903 0.027223993 -0.0052445633 0.005861225
000250 96 c4 d1 3b c8 46 52 3c d1 f4 bf 3b b0 19 44 3c
       0.0064016087 0.012834258 0.005858042 0.011969015
000260 b8 c1 c3 3c e1 77 be bb e3 6b d9 3b 0c 83 05 bc
       0.023896083 -0.0058126305 0.0066351756 -0.00814892
000270 fa 3f b9 3c 89 a0 09 bd 3e d6 b7 3b 7f 2d 41 bc
       0.022613514 -0.033600364 0.0056102565 -0.011790632
000280 1b d1 e0 bb 89 24 07 3c 5b 64 3c bb 07 41 ed 3b
       -0.006860865 0.008248457 -0.002874634 0.007240418
000290 93 3a cc bc 26 e8 08 3d 7c 76 b6 3c c2 04 97 3c
       -0.024930274 0.03342452 0.022273295 0.018434886
0002a0 14 77 36 3c fc 23 37 bc ef 11 c1 3b ef 2c 2d 3c
       0.011136789 -0.011178013 0.0058920304 0.010569795
0002b0 a9 92 07 bd cb 72 8c 3b fb 91 e9 bc 03 c2 e9 bc
       -0.03309885 0.0042861453 -0.028511992 -0.028534895
0002c0 ae d6 14 bc 2f 36 9a 3b e6 eb 22 b9 c1 95 b2 3c
       -0.009084387 0.004706166 -0.00015537403 0.021799924
0002d0 b0 16 9c 3b dd cf 3a 3c a2 78 68 3c ac 40 79 bb
       0.0047634467 0.0114020975 0.014188917 -0.0038032932
0002e0 45 a0 d3 bb 0a a0 92 bb 82 9b 57 3c e8 2d e0 3b
       -0.0064583146 -0.0044746445 0.013159635 0.00684141
0002f0 7c 2d b6 3a e6 58 29 3b da 5c a5 3c d6 79 67 3c
       0.0013899053 0.002584034 0.020185877 0.014128169
000300 90 34 a8 3b 20 1a 92 3a 4a 62 90 bb 76 b4 fd ba
       0.005133219 0.0011146702 -0.004406248 -0.001935615
000310 90 6a 3b bc ec 28 85 3b cd c0 84 3c 60 e5 d7 bb
       -0.011438981 0.004063716 0.016205216 -0.006588623
000320 3c c2 89 3c 14 dd 32 3b fb a6 62 3c 9f fc 01 3b
       0.016816251 0.0027292417 0.013833757 0.0019834412
000330 7c 7e 2f 3c 57 2a cb 3b d3 d8 03 3c 66 4f e8 bb
       0.010711309 0.0062001157 0.0080473 -0.007089543
000340 93 0f 05 3d a4 e0 d1 3b 6a 27 0c 3c fc 0a 55 bc
       0.032485556 0.006404953 0.008554319 -0.013003107
000350 b6 cc 4f b8 62 6b 9f 3c 28 29 e8 bb 12 d7 9c ba
       -4.9543298e-05 0.019460384 -0.0070849843 -0.0011965951
000360 e4 3f 99 ba e4 6b 0a 3c eb 08 f6 39 03 9b f6 bb
       -0.0011692015 0.008448575 0.0004692742 -0.007525803
000370 66 e5 f8 3b d4 d1 fd 3b d7 fe 1d bd 52 e3 32 3a
       0.007595706 0.0077459607 -0.038573112 0.00068240345
000380 ce 08 a3 3b 08 a0 fa 3b b4 9b c5 bb d5 63 13 bc
       0.004975415 0.0076484717 -0.006030524 -0.00899597
000390 e2 91 58 3b d5 c9 9d 3c e2 8a b8 b9 51 1c 7b 3c
       0.0033045937 0.01926128 -0.0003519869 0.015326575
0003a0 90 36 09 bb ca 75 63 bb 35 b6 23 3c 1c b6 92 3b
       -0.0020937063 -0.003470766 0.009992172 0.0044772755
0003b0 f3 f8 19 3c 31 f4 f9 bb 0a f2 ba bb 7a 40 f5 3a
       0.009397733 -0.007627987 -0.005705123 0.0018711232
0003c0 0d 1c 33 3c b5 02 c7 bc b7 0f de 3c 71 0f a5 3b
       0.010931981 -0.024293283 0.027107103 0.005037241
0003d0 fa 53 cf 3b 43 a3 40 3c e9 16 d1 3b 3e 36 88 3c
       0.0063271495 0.011757675 0.006380905 0.016627427
0003e0 c6 f0 ff bb 9c b5 2b bc 56 32 23 3c 57 3c 4d bb
       -0.007810685 -0.010480311 0.0099607315 -0.0031316483
0003f0 a7 f5 b4 3b a9 b4 49 bc 4b c8 26 3c e5 b8 00 bc
       0.005522448 -0.012311139 0.0101795895 -0.007856582

action_model._discrete_distribution.branches.0.bias f4 [2]
000000 a0 c0 7e 3c a4 c0 7e bc
       0.015548855 -0.015548859

exp_avg f4 [128, 47]
000000 01 15 b6 b6 8c 5d d3 b6 b4 84 ce b6 00 de 30 b6
       -5.426468e-06 -6.2991803e-06 -6.154727e-06 -2.6355265e-06
000010 3c 47 1b b7 d4 23 45 b7 f1 f2 b8 36 0b ac 86 b7
       -9.2553055e-06 -1.1750457e-05 5.5119094e-06 -1.6054159e-05
000020 80 c1 13 36 02 bd 1e b7 1c 65 67 b7 c6 53 c4 36
       2.2017339e-06 -9.461541e-06 -1.3792214e-05 5.8510077e-06
000030 ba 50 68 b6 96 f8 21 b7 7e 49 38 b7 0b b4 4d b7
       -3.4617683e-06 -9.654226e-06 -1.0984366e-05 -1.2260872e-05
000040 d0 28 b8 b5 42 28 ce 36 28 28 64 b7 ba c7 42 b7
       -1.3720946e-06 6.143965e-06 -1.3599209e-05 -1.1609804e-05
000050 62 af d8 b6 85 6e 7e b6 ef 53 ad b6 f4 86 ab b6
       -6.457719e-06 -3.791328e-06 -5.165573e-06 -5.1119077e-06
000060 c8 f3 25 b7 80 c4 c1 b6 bc a6 1f b6 3c cf f3 b6
       -9.891526e-06 -5.774724e-06 -2.3789898e-06 -7.2660896e-06
000070 ee ae ab b6 42 9b 72 b7 80 c4 c1 b6 bc a6 1f b6
       -5.1165616e-06 -1.4460473e-05 -5.774724e-06 -2.3789898e-06
000080 3c cf f3 b6 ee ae ab b6 40 9b 72 b7 ba 69 31 3a
       -7.2660896e-06 -5.1165616e-06 -1.4460471e-05 0.00067677686
000090 c9 10 2b b8 14 3b 8f b9 8c 61 ad b4 64 ee c7 b4
       -4.078521e-05 -0.00027319102 -3.2294736e-07 -3.724009e-07
0000a0 70 6f 2e b6 44 75 ee b6 ee 06 52 36 2c 5d a5 b4
       -2.5992886e-06 -7.1066042e-06 3.1296472e-06 -3.0801436e-07
0000b0 c1 d8 b4 37 70 26 98 b1 e4 bb cf b5 4d 30 35 b8
       2.1558606e-05 -4.428152e-09 -1.5477385e-06 -4.3198746e-05
0000c0 f6 d1 a7 b7 bd 7d 2a 38 c2 3b 66 35 12 06 b5 35
       -2.0005722e-05 4.064826e-05 8.5768636e-07 1.3487318e-06
0000d0 ca 72 45 b8 88 78 20 b7 6a 29 13 38 58 50 0e 35
       -4.7075366e-05 -9.5648065e-06 3.50861e-05 5.301604e-07
0000e0 6e 1d f3 b5 7f fc f5 37 be 62 12 b8 e5 2f 53 b7
       -1.8113476e-06 2.9323854e-05 -3.4901073e-05 -1.2587731e-05
0000f0 5b 5c 26 b6 8c ac 5c b6 6a 6a 73 b7 4b 55 0a 36
       -2.4789686e-06 -3.288299e-06 -1.4508705e-05 2.061325e-06
000100 a1 26 bc b7 7c 33 6b 37 be ef 97 b7 f9 2f 0f 38
       -2.2429334e-05 1.4019079e-05 -1.8112241e-05 3.4138535e-05
000110 6f d2 1e b7 be 7f 54 b8 c4 0a 9c 36 54 c2 7d b7
       -9.466529e-06 -5.0663708e-05 4.6504156e-06 -1.5125221e-05
000120 13 84 c6 37 86 86 8d 35 fc 9d 04 b8 55 f5 78 b7
       2.3664941e-05 1.054447e-06 -3.1618387e-05 -1.4839073e-05
000130 0c c1 cb b7 13 84 c6 37 86 86 8d 35 fc 9d 04 b8
       -2.428938e-05 2.3664941e-05 1.054447e-06 -3.1618387e-05
000140 55 f5 78 b7 0b c1 cb b7 5c ed 03 38 8b 6d 19 b8
       -1.4839073e-05 -2.4289378e-05 3.1453892e-05 -3.6580062e-05
000150 ea 02 d1 38 30 a2 2b b5 35 28 71 35 11 f9 1c b8
       9.9664394e-05 -6.393848e-07 8.9838005e-07 -3.742526e-05
000160 1a c1 25 37 d7 38 55 37 99 d8 05 b7 16 2e 0b 36
       9.879726e-06 1.2709023e-05 -7.977848e-06 2.073944e-06
000170 d6 d6 2b b5 39 ef 7b 37 ef 09 f8 b8 aa d5 12 b9
       -6.401509e-07 1.5016464e-05 -0.00011827412 -0.00014003241
000180 7d 20 de 38 fa ba f6 35 39 66 cc b7 40 74 35 b9
       0.00010591836 1.8382846e-06 -2.4366296e-05 -0.00017304812
000190 58 b2 c0 b8 04 65 f6 38 e4 e6 4e b6 4b cf 63 b7
       -9.1884925e-05 0.0001174901 -3.0830788e-06 -1.35785185e-05
0001a0 14 7c 90 38 2c fa f8 b8 dc 6a 9e b8 b5 78 d0 b7
       6.8895664e-05 -0.0001187216 -7.553931e-05 -2.485174e-05
0001b0 5a f1 7c b8 a8 61 b7 b8 91 94 1b b8 d8 09 b1 b8
       -6.0306258e-05 -8.74431e-05 -3.7093243e-05 -8.441851e-05
0001c0 ec 11 75 38 c1 e0 85 b8 66 c8 fa 38 00 89 84 b8
       5.8429243e-05 -6.383798e-05 0.00011958256 -6.319769e-05
0001d0 38 a5 20 b9 6d 70 61 b8 2f 84 13 b9 12 e5 3e 38
       -0.00015320338 -5.3748885e-05 -0.00014068255 4.551287e-05
0001e0 e6 96 53 b7 60 42 ee b8 0d 75 91 b8 cd 37 05 b9
       -1.2611714e-05 -0.00011361088 -6.935941e-05 -0.00012704656
0001f0 12 e5 3e 38 e6 96 53 b7 60 42 ee b8 0d 75 91 b8
       4.551287e-05 -1.2611714e-05 -0.00011361088 -6.935941e-05
000200 d0 37 05 b9 5a 5f 84 b9 a2 61 4d b9 4a 5a a5 3a
       -0.0001270466 -0.00025248044 -0.00019586695 0.0012615409
000210 70 cf 0a 38 d9 34 b2 b5 aa 55 42 b9 a0 1c 09 39
       3.3094955e-05 -1.3277414e-06 -0.00018533194 0.00013076002
000220 4b 9f 75 b7 1a fb f7 b6 32 60 09 38 91 09 07 b7
       -1.4640226e-05 -7.3904057e-06 3.2752934e-05 -8.048854e-06
000230 c2 da 1a 39 d4 0a 98 b8 36 f2 bd b8 20 72 d9 38
       0.00014768078 -7.249942e-05 -9.0573376e-05 0.00010368624
000240 5e de 01 b7 b0 14 31 b7 30 11 f7 b8 d2 ea 71 b8
       -7.740773e-06 -1.0554839e-05 -0.00011781079 -5.767757e-05
000250 ba e7 cb 38 85 ff 40 37 c7 5e 87 37 a8 7a 88 38
       9.722957e-05 1.1503585e-05 1.6137388e-05 6.507832e-05
000260 17 28 93 b8 63 68 1c b8 08 33 cb b7 22 21 0d b8
       -7.0169735e-05 -3.7290516e-05 -2.4223249e-05 -3.3647877e-05
000270 12 bb 82 b8 85 d2 4a b7 17 61 6b b8 e4 d9 85 38
       -6.2337276e-05 -1.2089154e-05 -5.6118788e-05 6.3825195e-05
000280 90 e4 5d b7 48 c5 dc 38 8f 2b 31 b8 b4 1c d1 b8
       -1.3225843e-05 0.00010527164 -4.2240656e-05 -9.971243e-05
000290 1c c2 fd b7 60 53 af b8 e9 ee 6a 38 e0 59 b1 b6
       -3.025034e-05 -8.36018e-05 5.601245e-05 -5.285474e-06
0002a0 24 91 9a b8 0e 48 37 b8 ee 48 98 b8 e9 ee 6a 38
       -7.370327e-05 -4.3697706e-05 -7.261509e-05 5.601245e-05
0002b0 e0 59 b1 b6 24 91 9a b8 0e 48 37 b8 ee 48 98 b8
       -5.285474e-06 -7.370327e-05 -4.3697706e-05 -7.261509e-05
0002c0 18 64 00 ba 1e 97 9a b8 96 66 34 3a 80 67 79 b6
       -0.00048977276 -7.37144e-05 0.00068817416 -3.7164136e-06
0002d0 5e c0 6e b5 2c 6d df b8 56 61 a7 38 54 55 35 b7
       -8.894184e-07 -0.000106538035 7.981311e-05 -1.0808308e-05
0002e0 ac e6 7d b7 e8 98 56 36 e6 cf 49 b6 de a4 88 38
       -1.5133683e-05 3.1977488e-06 -3.0072347e-06 6.515694e-05
0002f0 be 51 15 38 f4 bf 02 b7 c0 f1 96 38 c6 0d 0b 38
       3.5600497e-05 -7.793296e-06 7.197587e-05 3.315301e-05
000300 f5 16 62 38 b0 ff 02 38 f2 22 30 38 5e aa 38 b8
       5.390398e-05 3.1232543e-05 4.1994215e-05 -4.4027685e-05
000310 54 9f d5 38 c5 8e 98 38 c2 ef 83 38 dc 18 fb 37
       0.00010186309 7.274518e-05 6.291225e-05 2.9933108e-05
000320 13 62 17 38 87 bf 49 36 8d f3 5c 38 13 a0 ac 37
       3.6092544e-05 3.0062818e-06 5.267891e-05 2.0578538e-05
000330 40 d0 ce 37 5f f1 8f 38 7e c3 91 37 80 82 a4 38
       2.4654088e-05 6.86373e-05 1.737638e-05 7.844437e-05
000340 f8 7f a1 38 6c 54 7a 37 00 43 20 b2 11 5f 2a 38
       7.700914e-05 1.4920817e-05 -9.32846e-09 4.0619696e-05
000350 5b 0a 58 38 f2 87 c2 38 d2 ee a2 37 a3 30 85 38
       5.1508057e-05 9.275963e-05 1.9423114e-05 6.3509935e-05
000360 52 c4 36 b8 fa f3 15 38 f2 87 c2 38 d2 ee a2 37
       -4.357502e-05 3.575159e-05 9.275963e-05 1.9423114e-05
000370 a3 30 85 38 52 c4 36 b8 fd f3 15 38 04 64 b0 ba
       6.3509935e-05 -4.357502e-05 3.57516e-05 -0.0013457541
000380 88 84 14 39 dc 3c f5 b9 96 a2 0e b9 92 d0 ee 33
       0.00014163752 -0.00046775385 -0.00013602743 1.11206774e-07
000390 91 12 5c 38 6a ab 6c b8 87 d3 1b b8 06 8c 8a b8
       5.246938e-05 -5.6426426e-05 -3.715188e-05 -6.606434e-05
0003a0 1a 2c 87 b8 be 4c e5 36 e2 ca 03 b9 3b fb 02 b8
       -6.445516e-05 6.833666e-06 -0.00012568713 -3.1228392e-05
0003b0 23 47 6a b8 45 ff 9c 38 e7 55 1f 37 42 19 30 37
       -5.58562e-05 7.486207e-05 9.497139e-06 1.0496298e-05
0003c0 64 48 6b b8 7f a2 bb b7 06 40 2d 38 2e f8 04 38
       -5.6095785e-05 -2.2367805e-05 4.130604e-05 3.1702388e-05
0003d0 a0 f4 ec 37 d4 03 77 38 5c 9d 11 b8 85 e5 03 b8
       2.8247305e-05 5.8892954e-05 -3.4717246e-05 -3.144659e-05
0003e0 64 7d 4f 36 18 6f a0 35 e2 9a aa b7 91 6a a1 b7
       3.091839e-06 1.1953261e-06 -2.0337702e-05 -1.924232e-05
0003f0 94 54 c7 b7 e6 43 76 38 34 08 87 37 b7 fa a8 38
       -2.3762033e-05 5.8714206e-05 1.6097074e-05 8.0575635e-05
