Learning/AIRollABall/results/TestParameters/AIRollABall/AIRollABall-1999984.pt (torch, 574872 bytes, 42 tensors)

network_body._body_endoder.seq_layers.0.weight f4 [128, 47]
00000000: 5126 2a3e 6719 363e 01cc 8a3e eae7 a7bd
00000010: 46e5 ce3d 45ff df3d afd1 bebd ae0e 90bd
00000020: a90a a13d f4bc 143d 37d0 1bbc fae7 863d
00000030: 6074 b23d 187b 24be a87d 683e a943 dd3c
00000040: 27fd fb3d f74b 88bd 5513 d9bb 1023 73be
00000050: 33ac 113e 08f4 a43d d5bc c2bd d2d8 19be
00000060: 2e78 d23d 6ce9 1a3e 4139 c23c 224e 40be
00000070: fb58 ee3d d03f 0a3e 364c 0abe 700c 6b3d
00000080: 2050 13be 8b75 94bc 2fe4 19be 1cf4 44bc
00000090: f7cd 11be a262 8fbe 2aea c9bc 6bd2 2c3d
000000a0: e386 f43d 6c76 163e 84df 68bd b484 1e3d
000000b0: a087 bbbe f81e 91bd 387e 043d ae5e 2d3e
000000c0: c189 923d 196f 543d afcf d23d ec84 a1bd
000000d0: 9b6d 1cbe 121a c53e 2e2f 32bd 3208 c43d
000000e0: dfb6 4fbd a71d 743e c6e4 823d 9049 94be
000000f0: c78c 81be 07df ee3b 98b2 73bb 941b 98bd
00000100: 0292 8c3d 756b 993b 5ec2 7c3d ed13 833e
00000110: 4322 733d cb90 273e a0b6 a13d b3f8 253e
00000120: 79ba b8bc 239b 853d 83ff 91bd 5bf5 133e
00000130: 575a 0c3e 0ef4 63bd 574d 28bd 2f78 433e
00000140: 177c c9bc 3d91 2e3e f28a 8f3e 0dfa a93d
00000150: 0553 16be e381 3ebc 82c6 6cbe 82ec 4ebd
00000160: 268a cbbc 9a41 bdbe 3417 7dbc 7446 a03d
00000170: 1801 3cbd f3fc c9bd b773 d43e d83d 82bd
00000180: 7dfa acbd f6ec 153e a65d 56be b3cc 943c
00000190: 3b91 79be 0dda 6abe f744 c8bd 1ce9 90bd
000001a0: df1c f63c d0e3 a8be 4523 a8bd c410 4ebd
000001b0: 45b0 bd3c 3561 fb3d ece2 febd 74d8 29be
000001c0: 272f 9cbc 88e2 b0be 84aa 873d f5a6 3d3e
000001d0: 762e f83d 84a9 8d3d dc0a 0f3e f28e dc3d
000001e0: e245 803e 0bbe 81bd c639 d6bd 4eb0 043e
000001f0: 4ab3 b83d 3265 d8bc 8718 43be 940b b83c
00000200: c4b1 473e fd96 523e 2eee a93e 20fa 69be
00000210: 5c91 bdbd 0f49 723d 23ca f43c 6ae4 383e
00000220: 9f28 e43d c551 423a 9861 a93b 1e7c a83e
00000230: 4d0e 713e 7f76 e8bd 0eaf 263e 89a7 923d
00000240: f26c 61bd a934 49bd 6655 4e3c 3ddb 3c3d
00000250: 4386 533e 8f6a 82be df3a e23d 40a3 343e
00000260: 9d08 b53d 4895 81bd a619 15bb 62ed e2bc
00000270: 2d17 76bb f409 09be 8348 ae3b ad7b 66be
00000280: 1d8b 0d3d 9da0 a4bd c57f b33d a19f a83d
00000290: 1cfd b3bd 6842 a1be 2d39 18be c829 4c3d
000002a0: fb55 2c3e a61f df3c 6edd 82bd ad9c d1bb
000002b0: 0059 eb3d 51fc 2dbc 91c2 be3a 854c 12be
000002c0: eb8a 38bd 9149 aabd 036d e6bd f536 d1bd
000002d0: d39b 92bd 8683 0abd b5cc 63bc 90c7 bfbe
000002e0: 5da2 703d 0e24 e73e 67b9 183e 15f6 c3bd
000002f0: b7ee 493d aa17 35be 10c5 813e db16 02be
00000300: 8250 28bb d075 52be 6e15 da3d 6bc5 bb3c
00000310: eb8f 153e 5507 863e 23c8 c5bc de22 e23d
00000320: 15c4 103e b22c 113e 41b6 16be 9260 afbd
00000330: 7db8 553e abf0 e7bd 5861 93be 582d e33d
00000340: b046 873e 4122 143d cab6 b73d 0e02 e5bc
00000350: d569 6c3d 1395 043e a376 8538 80dd c43e
00000360: 819a f83c 1fde 2ebd e768 1fbd fe84 39bd
00000370: cb81 f33b 82ea c93d b83e 30bd 4839 e53d
00000380: 2338 ea3d f219 0e3e 77d8 48be f8d3 b8bd
00000390: 2a19 59bb 1f65 bcbe b325 e43d f0f1 6dbd
000003a0: 0c10 983e 10f6 0dbe d7c1 63be b1f3 923e
000003b0: 0c33 83be 801a 32be 7776 e2bc 69f4 4fbd
000003c0: d577 77bd 1b2b 8a3d 1b16 e0bd 24f0 113d
000003d0: 4208 4a3d 8777 d53e ab75 93bd a170 aabd
000003e0: 4dd1 26bd 4214 3f3e ee6a d9bd b3ae 3abe
000003f0: 42ad c83d 0c0d 12be f846 16be 77dc b63c
0.16616179 0.17783128 0.27108768 -0.08198531 0.10102324 0.10937361 -0.09317338 -0.0703405
0.078633614 0.036313012 -0.0095100915 0.06587215 0.08713603 -0.16062582 0.22704184 0.027009802
0.12304144 -0.06655114 -0.006624619 -0.23743844 0.14225845 0.08054358 -0.09508673 -0.15024117
0.10276829 0.15128106 0.023708941 -0.18779805 0.116380654 0.13500905 -0.13505635 0.05738491
-0.14386034 -0.018122455 -0.15028451 -0.012021091 -0.14238726 -0.28004938 -0.024647791 0.042192858
0.1193979 0.14693612 -0.056853786 0.038700774 -0.3662691 -0.07085985 0.032346934 0.16930649
0.07155181 0.051863763 0.10293519 -0.07886681 -0.15276186 0.38496453 -0.043502025 0.09571876
-0.05071151 0.23839436 0.06391291 -0.28962374 -0.25302717 0.0072897705 -0.0037185308 -0.07427135
0.06863786 0.0046819993 0.0617088 0.2560114 0.059358846 0.16363828 0.07896161 0.16208152
-0.022549855 0.065237306 -0.07128813 0.14449064 0.13706337 -0.05565267 -0.041089382 0.19088815
-0.024595303 0.17047592 0.28035694 0.082996465 -0.14680107 -0.011627647 -0.231226 -0.05051852
-0.024846148 -0.36964113 -0.015447427 0.07825938 -0.04589948 -0.09862699 0.41494533 -0.06359452
-0.08446214 0.14641175 -0.20934162 0.018164014 -0.24371807 -0.22934742 -0.09778779 -0.07075712
0.030043064 -0.32986307 -0.08209852 -0.050308958 0.02315534 0.122744 -0.12445626 -0.16586477
-0.019065453 -0.3454783 0.0662432 0.1852072 0.12118237 0.06917098 0.13968986 0.10769452
0.25053316 -0.06335076 -0.10460238 0.1295788 0.09018572 -0.026415441 -0.19052325 0.022466458
0.19501406 0.2056541 0.3318953 -0.22849321 -0.09256241 0.059151705 0.029881543 0.18055883
0.1114056 0.00074126973 0.005169105 0.32907194 0.23540612 -0.11350726 0.16277716 0.07160861
-0.05503554 -0.049122486 0.012593603 0.04610752 0.20656686 -0.25471923 0.11046385 0.176404
0.088395335 -0.06327301 -0.0022750883 -0.027701084 -0.0037550435 -0.13382703 0.0053187027 -0.22508116
0.034556497 -0.08038447 0.087646045 0.08233572 -0.08788511 -0.31495976 -0.14865561 0.049844533
0.16829674 0.02723677 -0.063898906 -0.006396851 0.11491585 -0.010619239 0.0014553835 -0.14287002
-0.045054357 -0.08314813 -0.11251261 -0.1021556 -0.07158627 -0.033816837 -0.013903786 -0.37456942
0.05874859 0.45144695 0.14914475 -0.09568421 0.04929992 -0.17684808 0.2534566 -0.12704031
-0.0025682752 -0.20552754 0.10648619 0.022921285 0.14605682 0.2617747 -0.024143284 0.11041807
0.141373 0.14177206 -0.14717962 -0.08563341 0.20871158 -0.11325201 -0.28785205 0.11092633
0.26421118 0.03616548 0.08970411 -0.027955081 0.057718117 0.12947492 6.364032e-05 0.3845024
0.03034711 -0.0426923 -0.038918402 -0.045292847 0.007431244 0.09859182 -0.043028563 0.11192566
0.114364885 0.13877085 -0.19613825 -0.09024805 -0.0033126571 -0.367959 0.11140003 -0.058092058
0.29699743 -0.13863397 -0.22241913 0.28701547 -0.25624883 -0.17392921 -0.027644379 -0.050770197
-0.060417015 0.06746503 -0.10941716 0.035629407 0.04932428 0.41692755 -0.07200178 -0.083222635
-0.04072695 0.18660071 -0.10616098 -0.18230705 0.09798671 -0.1426279 -0.1467551 0.022321923

network_body._body_endoder.seq_layers.0.bias f4 [128]
00000000: 4ddf 4dbc 5be3 95bc 7a10 163c 3616 f0bb
00000010: cbf2 51bb 4e87 c6bc 73f7 1cbd 4eba 1ebd
00000020: 1ccf f5bb 444a d2bb 1f99 963a 635f 2abd
00000030: 5fae f9bb 4bfc 8e3c e636 20bd cf79 083d
00000040: bbcd 02bd 7c6c bfbc 869a da3c 0043 28bd
00000050: 50f1 b3bb 5606 7fbc 212d 32bd 4111 e7ba
00000060: a3f7 3a3b 5519 093d 22fb 35bc 0819 6ebc
00000070: b805 993d 382b 423b ecfb b43c 6925 5dbd
00000080: 0e92 c73a d934 14bb 46b1 0eb9 52ad 17bd
00000090: dde2 793c c2fe f9bb d2a2 c4bc 2fcd 23bd
000000a0: 0435 6ebb adca 47bd 03c1 193d de51 5d3b
000000b0: f2dd c23b 4d72 9bbc b10e 213d 9bbe d03c
000000c0: bd4c d1bc ab09 84bc 6b78 d1bc 1742 6ebc
000000d0: 6edf 05bd 73e7 7a3c 2297 a03c 9810 b83c
000000e0: 8f40 d03c f4c3 fbbc ff3f 1dbc b600 443c
000000f0: d738 b3bc a623 4ebc 7b85 0fbd fe0f afbb
00000100: a026 17bc 7886 55bc c3b5 0a3d 52b1 ddbc
00000110: 4f19 1d3d 1b2b cbbb 2033 11bd e712 253b
00000120: 9ca0 debc 1eae a7bc 1d33 5cbd b451 9ebc
00000130: b48a 633c a8df cbbb 61d1 133d 1eda 5e3d
00000140: 1fda 023c 1c2f 483c 7fcc 2e3b f173 ee3c
00000150: d56f fabb 0b73 d93c 57b1 d3bc a7ab 493a
00000160: 796a f43b 807d 2dbb 50b5 e9bc c2ef a93c
00000170: be5e e8bc 38bc f53b 8cae 05bd ed33 14bd
00000180: 10aa 15bd 59ab d63a e748 c83c b4be 16bd
00000190: bd02 b63c cb51 f83b 3963 a3bc 3146 c4bc
000001a0: a8fa 0ebc 0dfb 623d 7e45 b43c b6ee 00bc
000001b0: 4eff 3ebd 6758 1fbd ba43 03bd b175 e9bc
000001c0: d225 15bd e370 083b b709 2abc b86b bd3c
000001d0: 61f4 033d 0774 8f3c 2e6f 57bc 4ffc 8a3a
000001e0: 6131 10bb a31a 9f3c af9a 1bbc e92c 703c
000001f0: f04f 6dbc 4ece 36bc 55de a6ba a0a8 02bd
-0.012565446 -0.018296888 0.009159202 -0.0073268665 -0.0032035585 -0.02423444 -0.038321923 -0.038751893
-0.007501496 -0.0064175446 0.0011489725 -0.041594874 -0.0076196636 0.017454287 -0.039114855 0.03331929
-0.03193448 -0.023367159 0.02668501 -0.04107952 -0.005491413 -0.015565475 -0.04350007 -0.0017629043
0.002852895 0.033471424 -0.011107238 -0.014532335 0.07471794 0.002962781 0.022092782 -0.053990755
0.0015226023 -0.0022614507 -0.00013608215 -0.037030526 0.015251842 -0.0076292465 -0.02400342 -0.0399906
-0.0036347518 -0.04877727 0.037537586 0.003377072 0.005946868 -0.018975401 0.03932065 0.025481513
-0.025549287 -0.016117891 -0.025570115 -0.014542124 -0.032683782 0.015313971 0.019603316 0.02246885
0.025421409 -0.030733086 -0.009597777 0.01196306 -0.02187769 -0.012581741 -0.035039406 -0.0053424826
-0.0092255175 -0.013032548 0.033864748 -0.027062092 0.038354214 -0.006200207 -0.035449147 0.0025188269
-0.027176194 -0.020468768 -0.053759683 -0.019326068 0.01388805 -0.0062217303 0.03608835 0.05440723
0.007986574 0.012218263 0.0026672182 0.02910802 -0.007642726 0.026544115 -0.025841398 0.00076931197
0.0074589816 -0.002647251 -0.02852884 0.020744208 -0.02836549 0.007499244 -0.032637164 -0.036182333
-0.036539137 0.001637797 0.024448825 -0.036802962 0.022218103 0.00757811 -0.019944774 -0.023959251
-0.008726753 0.055415202 0.022005793 -0.007869413 -0.046630196 -0.038902666 -0.03204701 -0.028498502
-0.03641302 0.002081924 -0.010378293 0.023122653 0.03221548 0.01751138 -0.013149066 0.0010603758
-0.0022002088 0.019421881 -0.009497329 0.014659145 -0.014484391 -0.011157585 -0.0012731055 -0.031899095

network_body._body_endoder.seq_layers.2.weight f4 [128, 128]
00000000: d8df a83c d36b c1bc 9748 4b3e e119 8e3d
00000010: 60d2 ec3c 8e9d 8cbc 107e e63d 0025 903d
00000020: 058b 423e e592 46bd 9cb0 bdbc 0949 3dbd
00000030: a817 cf3b 89fb 8b3d 128c 053d 0561 893c
00000040: 835a 803d 9699 123e 1722 e7bd 0308 a2bd
00000050: 79cd bf3d 3e85 9b3d 81ae dabd 3f90 15bd
00000060: 03ae 37bd bf98 a5bd 91b3 d93d 8e44 19bb
00000070: e1cf c7bd a133 44bd 0bfe 1cbd e2b7 473c
00000080: 5893 473d cb09 97bd 595c 14be 9f85 dcbd
00000090: 7105 a1bd d8cc d83c 53c0 a93d 4d6c 7a3d
000000a0: 7053 133e 42f5 083b da9c 733c bb7d 06bd
000000b0: f171 233d a292 7bbd b0ac 7bbd 0f23 0a3d
000000c0: 5ee6 0cbd 949b 7bbe e7b5 2e3d 98c0 503d
000000d0: 6d97 5f3e 9ee7 e4bd 78be 983d 582f 803d
000000e0: 59b2 6b3d 98e0 723e 815c 4d3d a908 1dbe
000000f0: 57c4 bcbb 5b21 bd3d d77d e539 c48f e13d
00000100: 12fa e8bd 6983 263e 656b d6bd 8c0b 21be
00000110: 7cf7 f1bd d5c6 b83d 4dde 5d3d b26c 0e3d
00000120: 30fc f63d 1b20 abbc 6cf7 afbd 0a81 83bd
00000130: a8c6 88bd 64b5 553e 0988 52bc 22b2 6d3c
00000140: 9110 983c d216 5f3c a175 ef3c acce 04be
00000150: a810 16be 6b2a d43d 3394 6bbd d012 b83d
00000160: 3262 03be 9423 40bb 8257 a9bd b623 cd3d
00000170: 02df 02bd 6131 06be 3438 17bc 7922 cdbd
00000180: faa2 12bc 7215 b7bd 64e8 8fbd 0945 c9bc
00000190: fa19 0abe e518 493c 6b9a 2cbe bc54 15bc
000001a0: a48b 07be e84c f53d 77ad 59bc 6166 e7bd
000001b0: a3db 653d 1e8f 76bd 4fbc bc3c 88f0 b53d
000001c0: 523b 14bc db95 a4bd cf85 a63d 3988 5abd
000001d0: f4cf 8d3d 1e23 e53d 29bb 643d 4190 60bc
000001e0: ee60 17be e2b2 853b 328f af3b 2ae0 a83d
000001f0: 251b 793d 8dc7 52bd ab42 d8bd cf49 3d3e
00000200: 3031 573d 762d 67be e57c 0b3d b0fa 9e3c
00000210: d6fa 283e d8ed 7d3d 9cbc e33d a6b7 073e
00000220: 0ab7 0a3e 8adc aa3d ac11 073d 7659 17be
00000230: dfe8 4c3c ddd6 063e fda6 12be c706 803d
00000240: 658e 10bd 07e5 0c3e aed6 623e 28f3 eabd
00000250: 8780 ad3d e685 05bd 09df 163e 29ec 12bd
00000260: 4d13 533d 92e4 243d 7d15 c23c e25a 063e
00000270: 46af 13be 89b9 453b 0832 ffbc 03c2 5abd
00000280: be99 8a3c ba8a b7bd 7da7 523e 1aa3 43be
00000290: 6eb9 f13c 01a1 34bd 00f7 083b 4be3 e8ba
000002a0: dede 22be c583 07bc 4318 b23d c75e 263e
000002b0: 5c1a bbbd 8069 c83c 4129 813d 97ab eabd
000002c0: 0986 5abd 90ae 7dbd ed09 39be 76fb febd
000002d0: 1d2b 3bbc 835f 6b3e 6032 233e 987b b23d
000002e0: e36b 63bd 433b 333d 2adb 453d 8f40 cf3c
000002f0: 21af d5ba a0ca f53d c738 97bd 6edc 42bc
00000300: e8cd 78bd 5efe 663d c7b0 463c f34f 43bd
00000310: cb08 bebd e8d7 cabc 5d61 1fbd fd4d ee3d
00000320: b0c7 c5bd a6f2 d73d 6988 a7bd 8313 cd3d
00000330: 3091 f0bc 5943 a43d 1627 d2bd 0945 23be
00000340: ce13 243d 884e 53bd 4c90 19be fa90 acbc
00000350: 27f6 773c 6955 873d 317b 033d 9449 023d
00000360: 8d7a ce3b eb98 843c 01b4 87bd a0a5 ebbb
00000370: bebd 3abc 104e e83d 814d 43be 4d82 02be
00000380: 4587 5ebd 2e40 0ebd 995c 05be 740a cf3d
00000390: a7aa 993c 8d8b 293e 63df 21bd f941 333e
000003a0: 9645 093e a768 04bd e887 113d 2ef8 873d
000003b0: 6f2f a0bc a76e 3cbd 8457 3bbe d853 793d
000003c0: 2368 e23c 5c57 633d 1291 0cbe 7dbe 2d3e
000003d0: 06ee 8cbd aa33 96bc 34bf ccbd 548d b3bb
000003e0: 5110 c53d 3a88 05bd dae6 85bd 4d21 ee3d
000003f0: 8490 43be 2c97 33bc 99cb 53bd 5d86 973b
0.02061455 -0.023610985 0.1985191 0.0693853 0.028908908 -0.017164972 0.11254513 0.07038307
0.18998344 -0.048479933 -0.023155503 -0.04621223 0.0063199587 0.06835086 0.032604285 0.016769895
0.06267264 0.14316401 -0.11285799 -0.07911684 0.09365363 0.07593773 -0.10677815 -0.036514517
-0.044843685 -0.08085775 0.10629953 -0.002338681 -0.09756447 -0.0479008 -0.03832821 0.012189837
0.048724502 -0.07374915 -0.14488353 -0.10767674 -0.07862366 0.026464865 0.08288636 0.06113844
0.14387298 0.0020898138 0.014868939 -0.03283475 0.039903585 -0.061419137 -0.061443985 0.03372484
-0.034399383 -0.24571067 0.042653944 0.05096492 0.21835108 -0.1117699 0.07458204 0.0625903
0.057543132 0.23718488 0.050137047 -0.15335335 -0.00576071 0.09234878 0.00043772042 0.11013749
-0.11375822 0.16261066 -0.10469703 -0.15727061 -0.11814782 0.09022299 0.05416708 0.03477163
0.1205982 -0.020889333 -0.08592114 -0.064210966 -0.06678516 0.20869976 -0.012849816 0.014507802
0.018562587 0.013616281 0.029230895 -0.12969464 -0.14654791 0.10359653 -0.05751438 0.08987963
-0.12830427 -0.0029318081 -0.08268644 0.10016577 -0.031950958 -0.13104774 -0.009229708 -0.10016341
-0.008949989 -0.08939637 -0.07026747 -0.024569051 -0.13486472 0.012274002 -0.16855781 -0.0091144405
-0.13236862 0.11977559 -0.013285986 -0.11298824 0.056117665 -0.06019508 0.023039011 0.08883768
-0.009047346 -0.08036395 0.08130991 -0.05335257 0.069244295 0.11188339 0.055842552 -0.013706268
-0.1478307 0.0040801624 0.0053576464 0.08245881 0.060816903 -0.051459838 -0.10559591 0.18485187
0.052537143 -0.22575936 0.034054656 0.019406646 0.16501936 0.061994404 0.11119959 0.1325365
0.13546386 0.08342846 0.032975838 -0.1478022 0.012506693 0.13167901 -0.14321513 0.06251293
-0.035292048 0.13759242 0.22152206 -0.114721596 0.0847178 -0.0325984 0.14733519 -0.03586975
0.05153208 0.040257044 0.023691887 0.13120607 -0.1442233 0.0030170402 -0.031151786 -0.05340768
0.016919013 -0.08962007 0.20571704 -0.19105187 0.029507365 -0.044098858 0.0020899177 -0.0017767934
-0.1590533 -0.008271162 0.08696034 0.16247092 -0.09135887 0.024464369 0.06306697 -0.114585094
-0.053350482 -0.061934054 -0.18070193 -0.12450306 -0.011423853 0.22985654 0.15937185 0.0871498
-0.05552281 0.04375769 0.048304714 0.025299339 -0.0016302803 0.12001538 -0.07383876 -0.011893375
-0.060743243 0.056394927 0.012127108 -0.047683667 -0.09279021 -0.024761155 -0.038911212 0.11635969
-0.09657228 0.105443284 -0.08180315 0.10013487 -0.029366106 0.08020658 -0.10261361 -0.15944304
0.04005795 -0.051588565 -0.14996451 -0.021065224 0.015134371 0.066080876 0.032099906 0.03180845
0.0063012303 0.016186198 -0.0662613 -0.007191375 -0.011397777 0.11343014 -0.19072534 -0.12745018
-0.05432822 -0.034729175 -0.13023604 0.10109416 0.018758131 0.1655714 -0.03951968 0.17505635
0.13405451 -0.032326367 0.03553 0.066391334 -0.019553868 -0.046003964 -0.18295103 0.060870975
0.027637547 0.055503234 -0.13727215 0.16967197 -0.06881337 -0.018335182 -0.099974066 -0.005479494
0.09622253 -0.03260062 -0.06538172 0.11627445 -0.19098097 -0.010961335 -0.051707838 0.0046241716

network_body._body_endoder.seq_layers.2.bias f4 [128]
00000000: 8dd1 d7bb 068f 663c 5354 f9ba ef1a 39bc
00000010: 7335 643c 5157 883c c7b3 36bc 91ca 02bd
00000020: cec0 75bc 668c 16bd 16a8 c2bc 471c 99bc
00000030: f332 ae3c d396 3cbc 305f 0f3d b64a 8fbc
00000040: 5f0a 3e3c c849 573b 00bb 19bc 0ca6 79bc
00000050: 530e 2bbc d9ee c0bc 52f9 9cbc 2a9b 9abb
00000060: f3cf 1f3d 8414 bb3d f69c 9dbb 0aa2 083d
00000070: 883a e0ba 83f4 1e3d 0e70 19bc 94ff 5d3d
00000080: f443 72bc 231d 8fbc 61f8 1cbc f9de 903c
00000090: 66f6 483b 1b5e f43b 6b36 593a 717a 433c
000000a0: dae0 9bbc a98f f23c 3624 533c 8cf0 8b3c
000000b0: 2a0c 573d 3916 54bc 1760 a23a ede5 fb3a
000000c0: 5288 54bb 5ec2 9b3d 3c24 97bc 22cf bc3b
000000d0: 82cc e1bc 5075 eabc c37a f83a dff0 9b3d
000000e0: bd13 ac3b 90af a13b adaa 2abb ea1a 1c3d
000000f0: ebc7 443c 9901 aabc af94 2e3b b073 0ebd
00000100: 5b89 3e3c c4e6 c1bc 5c1d 5c3d 1d54 44bb
00000110: 9908 283d b2f9 ad3c 3d50 113a 6fbf ebbc
00000120: 69e0 9fbb c3c4 1f3c 6d45 3a3b ea8b 50bb
00000130: a314 803c b951 173c 9b2c 393a 1f7a 8ebb
00000140: fa6c 64bc ee83 893c 38e0 173c 3afa 1ebc
00000150: 0d73 56bc fabd ce3c c121 9fbc e271 2ebc
00000160: c2b5 013d aa69 ca3d 9395 4fbb dbe9 ff3c
00000170: 8e93 d1bb 5949 97bc 04ab 943b e26f 82bb
00000180: 86ee 0b3d 8b57 b73c b4a0 24bc 4be4 183d
00000190: d947 1bbc f94a 6abc b092 ff3c 9cfe 89bc
000001a0: 0cf1 b23c 75e9 f13c ffab 423d 4124 25bb
000001b0: d571 b8bc 7605 bdbc 6883 213d caee 19bc
000001c0: ce47 bf3d d3ba 133c 92d5 aa3c 5f9f 58bc
000001d0: a501 f4bc 0f67 0abd c57a 5b3d d2a6 9abb
000001e0: 5162 a0bb b9e0 9d3c a570 c0bc 77fe bfbc
000001f0: 636c b5bc 61aa a3bb 0e5c c1bb 1b55 40bb
-0.0065862597 0.014072185 -0.0019022323 -0.011297925 0.013928759 0.016643198 -0.011151261 -0.031931464
-0.0149995815 -0.036754988 -0.02376179 -0.018690242 0.021264529 -0.011510569 0.035002887 -0.01749168
0.011599152 0.0032850374 -0.009382963 -0.015237343 -0.010440427 -0.023551391 -0.019161854 -0.004718204
0.039016675 0.091347724 -0.004809971 0.033357657 -0.0017107287 0.038807403 -0.009365095 0.054198816
-0.014786709 -0.017469948 -0.0095807025 0.017684447 0.0030664443 0.0074575073 0.0008286002 0.011931048
-0.019028116 0.029609518 0.012887051 0.017082475 0.052501835 -0.012944751 0.0012388256 0.0019218303
-0.0032429886 0.07605432 -0.018449895 0.005761997 -0.027563337 -0.028620392 0.0018957484 0.07614302
0.0052513764 0.0049342588 -0.0026041672 0.038111605 0.012010555 -0.020752715 0.0026638915 -0.034778297
0.011629428 -0.023669608 0.053738937 -0.0029957362 0.041023824 0.021237228 0.00055432675 -0.028777806
-0.0048790467 0.0097515015 0.0028422729 -0.0031821677 0.01563484 0.009235793 0.00070638367 -0.004348054
-0.013941998 0.016786542 0.0092697665 -0.009703213 -0.013088954 0.025237072 -0.019425275 -0.010647269
0.03166748 0.09883435 -0.0031674847 0.03123944 -0.0063957637 -0.018467592 0.004536988 -0.0039806226
0.03416302 0.02238061 -0.01004808 0.037327092 -0.009477579 -0.014300101 0.031197876 -0.01684504
0.021843456 0.029530266 0.04752731 -0.002519861 -0.022515217 -0.023073893 0.03943196 -0.009395311
0.093398675 0.00901671 0.020853791 -0.013221591 -0.02978594 -0.03378969 0.05358388 -0.0047195936
-0.0048945327 0.019272195 -0.023491213 -0.023436768 -0.02214641 -0.004994676 -0.0059008664 -0.0029347602

action_model._continuous_distribution.log_sigma f4 [1, 3]
00000000: 711c 26be 9f0e 12be 80b0 49bb
-0.16221787 -0.1426339 -0.0030775368

action_model._continuous_distribution.mu.weight f4 [3, 128]
00000000: 27a3 a23c 62fa 09bd 6e43 393b f38f 983c
00000010: f2db 543c 83ac 01bc 9d5c f2b9 46f4 213c
00000020: b095 a5ba 05ef d33c d160 563b 9e47 b33c
00000030: 6c10 7ebb ca80 0c3d b7b0 5c3d 6409 d43c
00000040: a7c6 c73c 4939 003d 00be abbc c1d9 be3c
00000050: 8928 56bc b610 243c bf00 ad3c 4a48 bebb
00000060: 65d5 e6bd ccf1 353e cc3a 0bbb 1e02 573c
00000070: 9ad9 3b3c 8638 c0bd 808f 7f3a 39bb 06bd
00000080: 7879 403d 3211 cbba c8cc c6bb 96ec a8bb
00000090: 7bb6 0b3d cac7 82bb e102 393c c40a b4bb
000000a0: 0b22 4ebb 43ba 19bd 0c66 d53a 908f de3c
000000b0: 74ed c33d a5d5 cdbc 5cfd 613c 4079 113d
000000c0: d8c6 ab3d 2ab9 373e 3538 07bc 68c9 a03c
000000d0: b73a a33b 623f a2ba 86a4 2c3c 4daf 41bd
000000e0: 8bd6 283a fd08 c2bb f899 a2bc de9e 3d3b
000000f0: cc2f 2fbd 9865 ed3b 3f0d ba3c 6820 da3b
00000100: 7494 cdbc 0b66 a33c d6b7 003e 06d8 f33b
00000110: 2fa9 d33c 24d3 ccbb e542 a9bc 2b46 c93b
00000120: 9252 82bc c736 5b3d 4a9a 9fb8 9afb 89bb
00000130: 9023 e1bc 8b19 b6bc 7c92 c43c 19bf 1f3c
00000140: 2808 d43c 9b98 733c e790 bb3b 9182 c53b
00000150: ca6e 92bb 659b e93b 142a 9dbc 80c7 d5bc
00000160: 9bd6 893c c137 293c aa24 223a f41f 97bb
00000170: f906 8c3b 52ac 0fbc 2986 cc3c ccbc 02bc
00000180: 9212 783d 5dca cc3b 48d8 b33c cc7a 933d
00000190: 0a6e 38bc f078 40bc bca5 25bc a944 833d
000001a0: b904 c8bb 6577 513b b70c d03b 4d4d 08bd
000001b0: 240f cf3c 48f2 02bb bced 463c 5454 093c
000001c0: 6192 d0bd 86ca 37bc fe93 2b3d 523f 85bc
000001d0: 89a3 f23b 3749 223c dfb7 c6bd 81c0 d3bc
000001e0: 7c87 94bc 2896 72bc fd21 84bc 8288 ed3b
000001f0: 30ce 9fbc 9b87 c5bc 0c2e 77bc dee2 cbbc
00000200: 0bd0 013d 6c17 89bc cd21 423d f7e4 113d
00000210: 3c9c aebc 563b f4bc eb53 0a39 e5ea 273d
00000220: c2e6 d03c c2ee daba 1d1b cd3c 2e77 3e3c
00000230: c450 e6bc a613 823c 3c2a 37bd 3bec 363d
00000240: 2046 b7bc 21f4 10bc b020 663c cb91 8b3c
00000250: 3ec3 c13c 5d6c dc3c af1e f93b eb0e 44ba
00000260: 97cd 90bc e87a 073e dc5c d23b 6c8b 6cbd
00000270: 7502 9a3b 3dd8 df38 72fc 023d a26c 153e
00000280: bc9d c6bb 35b7 c8b9 24d1 ff3c ff64 eb3c
00000290: 086f 3bbd 0cb3 96bb b8cb e03c 9086 89bc
000002a0: 3720 263c a2a6 ddbb 0cbb 25bc cb4f 18bd
000002b0: 6f0b 6c3c 1ec0 fc3c e778 523c 4854 bc3c
000002c0: adf7 1c3c f527 543b c0fb f23c d07b cfbb
000002d0: facf 033d f05b ef3b ad43 bbbc cfdd 323e
000002e0: e822 d03c 31cb ea3a b19d d53c d2e9 53bd
000002f0: 08e9 573d 8d3c f93c e972 5dbc 5c48 323c
00000300: 8ace 15bc e67c 233d f2cc 523d 67e1 03bb
00000310: 5bd1 59bd b5ae f2bc 3249 193d c0a4 193b
00000320: c02b 8ebc 4fa0 a53d 46ea edba cdcf 013d
00000330: 295d ad3d cc52 3f3d a4d8 8dbb 7cb6 d8bb
00000340: 32f5 153d 63ca 84bc 5c82 03bd 23f5 85bb
00000350: dbc1 4c3b bd62 a0bc b3ba 5e3b 7c6e f139
00000360: 00ba 20bd dfac 9fbd 3434 043b 20b5 a3bc
00000370: 1205 94bb a44e 783c 9559 693c a8c5 0dbd
00000380: 6d06 55bc 168e 91bc 7ca7 f6bb 10bb a93d
00000390: 32fc b83c af5e be3c f0aa 85bc efc4 9c3c
000003a0: 0db7 3fbc 9bf1 00bd 1bb8 93bd 479c 163c
000003b0: cd94 813b 6593 513d 9985 dd3d 8758 42ba
000003c0: 9600 efbc ba2a 1fbc ed6f fcbc ac51 14bc
000003d0: 2d20 de3a 7e83 b03c d6e1 bf3d 725a e6bc
000003e0: 9338 573b b154 a5bc 0552 7a3c 67e8 543c
000003f0: a655 fb3c 61d8 ca3c 9aed 503c 32f5 893c
0.019853188 -0.03368605 0.002826895 0.018623328 0.012991892 -0.007914665 -0.0004622684 0.0098848995
-0.0012633111 0.02587081 0.0032711516 0.021884736 -0.0038767112 0.03430251 0.053879466 0.025883384
0.024386717 0.03130463 -0.020964622 0.023297193 -0.013071188 0.01001375 0.02111852 -0.0058069574
-0.112711705 0.1776802 -0.0021244762 0.013123063 0.0114654545 -0.09385781 0.0009748861 -0.032893393
0.04699084 -0.0015492796 -0.0060668923 -0.0051551564 0.034109574 -0.003991102 0.01129219 -0.0054944474
-0.0031453397 -0.03753115 0.0016281023 0.027168065 0.09566775 -0.025126288 0.013793316 0.035516024
0.08387536 0.17941728 -0.008253147 0.019627288 0.0049813646 -0.0012378509 0.010537272 -0.04728632
0.0006440661 -0.0059214816 -0.019848809 0.0028933804 -0.042770192 0.007244777 0.022711394 0.006656695
-0.025095202 0.019946119 0.12570128 0.0074415235 0.025837509 -0.006250756 -0.02066178 0.006142398
-0.015908513 0.053519037 -7.6104494e-05 -0.0042109014 -0.027482778 -0.022228977 0.02399563 0.009750151
0.025882795 0.014867927 0.005724061 0.0060275276 -0.0044687735 0.00712912 -0.019185103 -0.026096106
0.016825965 0.010328234 0.0006185273 -0.0046119634 0.004273292 -0.008769112 0.024966316 -0.007979583
0.060564585 0.0062497095 0.021953717 0.07201156 -0.011256704 -0.011747584 -0.010110315 0.0640958
-0.0061040786 0.0031962034 0.006349172 -0.033276845 0.025275774 -0.0019980837 0.012141641 0.008381922
-0.101841696 -0.011217719 0.041889183 -0.016265545 0.007404749 0.009905151 -0.097030394 -0.025848629
-0.01813101 -0.014806308 -0.016129488 0.007248939 -0.019507498 -0.024112513 -0.015086662 -0.024888452
0.031692546 -0.016734801 0.047395516 0.03561875 -0.021314733 -0.02981345 0.00013191967 0.040995497
0.025500659 -0.0016703235 0.025037343 0.011625094 -0.028114684 0.01587851 -0.044718012 0.04465888
-0.022372305 -0.008847267 0.014045879 0.017037293 0.023652669 0.02690714 0.0076025347 -0.00074790296
-0.017676158 0.13230479 0.006419761 -0.05775015 0.0047 0.00010673746 0.03197903 0.14592221
-0.006061284 -0.00038283473 0.031227656 0.028734682 -0.045760185 -0.004598981 0.02744089 -0.016787797
0.010139517 -0.006764249 -0.010115396 -0.03718547 0.014407023 0.030853327 0.012846208 0.022989407
0.009580535 0.003237245 0.02966106 -0.0063318983 0.032180764 0.007304661 -0.022859419 0.17467426
0.02540727 0.0017913339 0.02607617 -0.05173666 0.05271247 0.03042438 -0.013516166 0.01088151
-0.009143481 0.039914034 0.051464982 -0.0020123364 -0.053178173 -0.029624322 0.03742332 0.0023444146
-0.017354846 0.08087217 -0.0018151484 0.031692315 0.084650345 0.04670982 -0.004328804 -0.0066135507
0.03661079 -0.016209787 -0.032106742 -0.0040880605 0.0031243477 -0.019578332 0.0033985793 0.0004604942
-0.039239883 -0.077966444 0.0020172717 -0.019983828 -0.004517206 0.015155468 0.014242549 -0.034612328
-0.01300202 -0.017767947 -0.00752729 0.082876325 0.022581194 0.023238508 -0.01631686 0.019136874
-0.011701358 -0.031480413 -0.0721285 0.009192533 0.003954506 0.051165957 0.10816497 -0.00074137043
-0.029175084 -0.009714777 -0.03081509 -0.009052675 0.0016946845 0.021547075 0.09369247 -0.0281193
0.0032840117 -0.020181986 0.015278344 0.012994862 0.030680489 0.02476138 0.012751961 0.016840551

action_model._continuous_distribution.mu.bias f4 [3]
00000000: aa1a 0bbc 4d2b d5bc 7903 62bc
-0.008490244 -0.026021624 -0.013794773

action_model._discrete_distribution.branches.0.weight f4 [2, 128]
00000000: 2d3e 7bbb f22c ad3b 3380 eb3b 8932 30bd
00000010: 580a 403c 845f e5bc ceec df3a d721 b4bb
00000020: 6bc6 63bc 9c84 ce3a a0ba 633b c8da 13bc
00000030: 64cd 95bc 769e dcba 9ee6 833c b8b4 f0ba
00000040: 8009 8cbc bcf9 84bc 64ab 82bc 1bb9 d43b
00000050: 436c 973c b7b7 7abc 8e46 4d3b 617a bd3b
00000060: ba23 173c c7a6 9dbc 77d2 a93a 3ad6 ab3c
00000070: be45 ccbc 4390 0bba ba34 6ebc b2f6 bc3b
00000080: 3c44 133c 248c 66bc 3f21 12bc 970f 233c
00000090: 2ef3 d63c f6ff 47bb b525 0dbc 9728 ec3b
000000a0: f884 c1bc c5ea 26bb ca28 4dbb 71d8 37bc
000000b0: d3e0 283c bc4e 1dbc 5fcf 323c 362f 303c
000000c0: 3e74 0abc 5523 43bc 42cf 63bc 35e7 23bb
000000d0: 5daf c0bb 3605 06bc f5f0 7b3c ed34 0a3b
000000e0: dbd5 3f3b b438 f33b 6b12 c23b bf22 073c
000000f0: 7c10 ddbc 2545 39bc 38a0 08bc 4294 fc3b
00000100: 191c a83a 9b25 233c 6106 933c 7db5 2cbc
00000110: d59e 523b a543 cc3a 9a2d f73b e1ac 2c3c
00000120: efa6 f139 ea39 ffbb 007b b03a d525 d039
00000130: ca86 abbb 0929 78bb 97ae 2f3c eda1 273b
00000140: 6c27 43bc 8c88 c93c d03c 0ebc 5db4 aebb
00000150: db84 39bc 8244 1abc c11a 4bbc ad0f 4bb9
00000160: 138b 7d3c 3bf8 8bba 74e6 44bc be0a a13b
00000170: 5fdf 49bc 8060 8ebc 5410 cbbc 8109 283c
00000180: c910 31bc ffb0 0b3c 2947 d43b 5f2c a33c
00000190: 3f4d ce3a 3f29 c4bc 477e 5f3c 5014 d33b
000001a0: 05ab 973c f86f a03a 0b36 c33c 440f b2bb
000001b0: 291f 15bb 5fad cfbb 4a6c 783c 5121 d33b
000001c0: 8fba 0ebd e87c d13c a4cd efbc e409 253c
000001d0: 59cd be3a 0887 9c3c ac6a 4bbc e482 e33b
000001e0: 8b56 06bc d8a0 1dba d16b 51bc fc2c 75bc
000001f0: 11c4 093b a0ef b9bb fc30 c8bb 1445 00bd
00000200: ab83 fb3b 8707 293c 283e 11bb d0a0 3f3d
00000210: 2e1a ffba c4aa bd3c abf2 fe3b 2249 05ba
00000220: 3f82 8a3c c019 f13b 8861 993b 479b f53b
00000230: 03c6 2dbb b742 38bc 2d7d 60bc d566 d03c
00000240: 8088 b83c eb40 44bb 5875 af3a d51a 093c
00000250: 7663 eb3b fd56 3d3c 7ca6 81ba 6fc5 f6bb
00000260: 8653 e03b f8ff a13c 4853 a83a 4e27 b3bb
00000270: d9d3 a13c 45e8 0a3c 8344 8d3c 9606 5f3c
00000280: c951 a63c a9dd dfbb c87f 733c bf2a 2fbb
00000290: 59e6 81bc ba20 56bb 3adb 543c f1ed 86bb
000002a0: ac83 2f3c 3014 78bb 2531 cbba 1c46 f13b
000002b0: ee8f 7cbc 0875 a43b d56d 6abc b2ea 123c
000002c0: ad1b 4c3c 5997 e5bb ae3d 9a3b 3f99 13bb
000002d0: 4c55 e5ba 44c6 543c 41d5 85bc 2435 103c
000002e0: 12b1 5dbb 88f0 963a d48c b0bb 5198 e0bc
000002f0: 00ba be3c e7aa 283c ca54 80bb e051 40bc
00000300: 5df3 05bc d260 8a3c c312 a6bc 0ab9 69bb
00000310: 5c8e 5fbc 9a8e 6b3c 16e5 62bc d823 6c3c
00000320: be54 82bc 8431 fa3b 505c f3bb d7a4 27bb
00000330: c7d8 be3a 6140 8e3c 49b9 49bc ec70 873a
00000340: b605 0abb 153a 92bb 95ba 62bc 3dd2 0f3c
00000350: 9a0a 293c 9b17 dabb 86df 01bc a87c 183b
00000360: 9611 b7bc 7c03 2dbb 82cf f9bb 1e81 a4ba
00000370: 3c90 4dbc 37d7 b73c 03e1 043d 6f85 723b
00000380: 6db6 b8bb 161c f03a 9d13 66bc e7dd 38bc
00000390: 18e8 ff3b 2478 0a3c 7bba 64bc 54c2 71b9
000003a0: af77 35bc 6445 54bc 4567 dabc 0385 e23a
000003b0: 05f9 68bc 22ab a23b aef8 c0bb b525 eabb
000003c0: 54bd b43c 003a 6fbc 9844 913c f243 79bc
000003d0: 7c31 e8bb 20a6 a83b 0ed1 303c fd58 1abc
000003e0: d85c 093a bb94 76bc 282f 8e3c 06b0 ab3c
000003f0: d00f 14bc 115c da3b d5a9 84b9 faf6 18bb
-0.003833662 0.005284899 0.0071869134 -0.043016944 0.011721216 -0.027999647 0.0017084123 -0.005497198
-0.013902287 0.0015756073 0.0034748688 -0.0090243295 -0.018286414 -0.0016831893 0.016101178 -0.0018364405
-0.017094374 -0.016232364 -0.015950866 0.006491793 0.01848424 -0.01530259 0.0031322571 0.005782411
0.0092248265 -0.019244565 0.00129564 0.020976175 -0.0249356 -0.0005323926 -0.014538938 0.005766713
0.008988436 -0.014071498 -0.008919059 0.009952447 0.026239004 -0.0030517555 -0.008614947 0.007206987
-0.023622975 -0.0025469523 -0.003130483 -0.011221037 0.0103075085 -0.009601291 0.010913699 0.010753443
-0.008450566 -0.011910279 -0.013904395 -0.0025009636 -0.00588028 -0.008179953 0.015377273 0.0021088675
0.0029271755 0.007422531 0.0059226057 0.00824803 -0.0269854 -0.011307989 -0.00833898 0.0077081034
0.0012825757 0.009957696 0.017947378 -0.010541317 0.0032138128 0.0015584124 0.007543278 0.010539264
0.00046091477 -0.0077888863 0.0013464391 0.0003970104 -0.005234574 -0.0037866256 0.010722778 0.0025578693
-0.011911254 0.024601243 -0.008681491 -0.0053315596 -0.011323179 -0.009415748 -0.012396515 -0.00019365428
0.015475052 -0.0010678837 -0.012017835 0.0049146106 -0.012321322 -0.01738 -0.02478806 0.010256172
-0.010807225 0.008526086 0.0064782095 0.019918619 0.0015739574 -0.023945449 0.013640947 0.0064416304
0.018514166 0.00122404 0.02382948 -0.0054339487 -0.0022754169 -0.006337806 0.015162537 0.0064431806
-0.034845885 0.025572255 -0.029272862 0.010073159 0.0014557048 0.019107357 -0.012415569 0.0069430936
-0.008199344 -0.00060130423 -0.012782053 -0.014964338 0.0021021406 -0.0056743175 -0.006109355 -0.031315878
0.007675608 0.010316736 -0.0022162292 0.046784222 -0.0019462758 0.023152716 0.007780393 -0.0005084445
0.01690781 0.007357806 0.004680816 0.007495317 -0.002651573 -0.011246375 -0.013701719 0.02543966
0.022526026 -0.002994592 0.0013386412 0.008368214 0.0071834875 0.011556384 -0.0009891535 -0.00753086
0.0068458943 0.019775376 0.0012842203 -0.005467332 0.019754337 0.008478229 0.017244583 0.01361241
0.02030267 -0.006831844 0.014862008 -0.002672836 -0.015856909 -0.0032673315 0.012991721 -0.0041177203
0.010712545 -0.003785383 -0.0015502317 0.007363094 -0.015415175 0.005018834 -0.014308413 0.008967089
0.01245777 -0.0070065674 0.00470706 -0.0022521762 -0.0017496734 0.012986723 -0.016337039 0.008801732
-0.0033827466 0.0011515776 -0.005387882 -0.02741638 0.023282051 0.010294653 -0.0039163576 -0.0117382705
-0.008175698 0.01689187 -0.020272618 -0.003566327 -0.013644781 0.014377261 -0.013848564 0.014412843
-0.015909549 0.0076352973 -0.007426776 -0.002558043 0.0014560454 0.017364683 -0.012312242 0.0010333336
-0.0021060533 -0.0044624903 -0.01383843 0.008778152 0.010317469 -0.006655646 -0.007926827 0.002326766
-0.022347253 -0.0026399782 -0.007623614 -0.0012550687 -0.012546595 0.02244149 0.03244115 0.0037005802
-0.005636981 0.0018318917 -0.014042762 -0.011283374 0.00780965 0.008451495 -0.013960476 -0.00023055944
-0.011075898 -0.012955997 -0.02666057 0.0017282072 -0.014219527 0.0049642483 -0.00588902 -0.0071456083
0.022062935 -0.014601231 0.017732903 -0.015213953 -0.007085977 0.005146757 0.01079203 -0.0094206305
0.000523997 -0.015050109 0.01735647 0.020957958 -0.009036973 0.006663807 -0.00025303537 -0.002334057

action_model._discrete_distribution.branches.0.bias f4 [2]
00000000: 35a8 013c 38a8 01bc
0.007913639 -0.007913642

exp_avg f4 [128, 47]
00000000: 1b5a 3337 2e4e 8e37 9362 8937 2a04 edb6
00000010: 5e65 0e36 132b b437 f120 0e37 d3a5 1537
00000020: 7819 53b5 9a82 aa36 be2f 0537 e796 4637
00000030: ecbc a537 c2ac 9bb6 7139 6036 64f9 9137
00000040: 84e9 8d36 f693 bf36 79fb 1937 f190 3e37
00000050: c4f7 fc36 3182 b636 2a89 7e37 a698 0637
00000060: ff3a 5137 6137 0237 feef 8e37 60b3 5437
00000070: 3e3b 5cb5 ee7c a537 6137 0237 feef 8e37
00000080: 60b3 5437 3e3b 5cb5 ed7c a537 9097 ce37
00000090: e1dc d637 cf5d ceb8 38a0 f4b6 3a6a 23b6
000000a0: ccb3 5437 16fa 79b7 2e40 ea35 8247 a4b7
000000b0: 651d 8bb7 e4c9 0536 d08a e8b7 e647 f7b6
000000c0: c445 e637 681d 01b7 b086 bd35 d86a e7b5
000000d0: c77c 2cb7 80ec 2db6 3e3c 1337 9110 9337
000000e0: 5a20 7f37 6064 f237 a0d6 32b7 6ef0 cd35
000000f0: 26ee 13b7 c463 eeb5 e362 e936 d523 3737
00000100: b43b b4b7 643b 6537 e4ff 8f35 0442 1a38
00000110: 139f f9b7 6f02 b6b7 6dd6 d737 9035 d136
00000120: 58eb 2937 dce6 4d37 dafc bc36 a034 8db7
00000130: f857 a3b7 58eb 2937 dce6 4d37 dafc bc36
00000140: a034 8db7 fa57 a3b7 522a 143a 4657 c435
00000150: 4a68 4bba 71cd e636 0f25 7db7 d829 bb37
00000160: 09e1 8ab6 de65 c1b7 e548 9ab7 19eb ce37
00000170: d2fe 5eb5 039b 74b7 7730 3437 c292 2738
00000180: 1096 6936 145d 3bb7 b88b 45b6 10af eeb5
00000190: 7c95 2737 6248 4837 d860 e937 6e9e fd37
000001a0: 375e 7838 84b7 05b6 b978 c636 b39d aeb7
000001b0: fc80 6fb6 e6d7 96b6 d545 e037 642d 2fb7
000001c0: 8253 fd37 6d52 cf37 f087 6038 06cc 84b7
000001d0: 1fd6 8bb7 0828 d837 daab c936 2873 0f37
000001e0: c177 1438 0423 3536 ac00 b7b6 ee85 2836
000001f0: 2873 0f37 c177 1438 0423 3536 ac00 b7b6
00000200: ea85 2836 6802 073b 0c89 e637 f6c0 af39
00000210: dbef 7c37 9272 48b7 d9cd ab37 40b5 cab7
00000220: a410 72b6 5a5d 38b8 e096 8438 07e8 6d35
00000230: c67e 55b7 14bf 1d37 0209 0738 06df 8cb7
00000240: 4c3f 9ab6 7cda 0836 6440 5737 6f71 8837
00000250: 471b ac36 7aad 87b7 0a53 58b7 829f 2637
00000260: 72e0 a7b6 bc42 63b7 64c6 fc37 aaa8 e637
00000270: 1f72 b137 69f9 e1b6 c7c6 89b6 b7f6 0f37
00000280: 8c7b 1a37 6938 f537 46cb c1b7 bef6 f636
00000290: 5d7b 4537 a59f ca37 ae54 9437 ad79 7bb7
000002a0: 709f c8b4 771f 8937 b786 3537 ae54 9437
000002b0: ad79 7bb7 709f c8b4 771f 8937 b586 3537
000002c0: 8bee 66ba d103 7337 317f 4dba 6c9d cdb7
000002d0: b07c f536 be5e c837 851e 1836 3c51 9bb6
000002e0: d5bc 9337 806b 47b8 30d5 1635 8b79 d8b7
000002f0: 18d0 6cb8 a023 25b7 789e 0db8 3994 81b7
00000300: 8c33 3db8 48fd c1b8 3cd5 e337 4078 b4b7
00000310: 19b9 25b8 2b34 95b8 346c cd36 81b5 bcb8
00000320: 1ef7 3bb8 8e2d 3237 d2e7 02b8 b95d b7b8
00000330: df76 49b8 8872 9837 8057 3135 7c66 02b8
00000340: 0df8 b5b7 d962 61b8 b88a ebb7 3cc1 6eb7
00000350: f1ea 10b8 ef5e edb8 b4af 3037 a35f d637
00000360: 2095 23b8 af01 05b8 ef5e edb8 b4af 3037
00000370: a35f d637 2095 23b8 ae01 05b8 8023 adb7
00000380: 3a42 c7b8 9cc2 953a 5464 0837 d372 2438
00000390: 1821 2038 6822 8ab7 e793 18b8 cbf5 6038
000003a0: 8a9f 0cb9 5b64 edb6 c8e5 f036 5e0f e537
000003b0: 2218 d9b7 fe53 9fb7 47f8 1538 e2d1 e737
000003c0: c94e d5b6 94f3 0837 45a9 1637 6257 e736
000003d0: fcee 4337 3ba9 0038 bf26 0bb8 e441 8437
000003e0: 4adc e736 056f a837 9bee 0137 8445 6635
000003f0: 5199 0c38 6889 b1b7 5ccc 9fb6 b678 5d37
1.0690211e-05 1.6964124e-05 1.6377575e-05 -7.063635e-06 2.1218652e-06 2.147773e-05 8.471529e-06 8.919701e-06
-7.864069e-07 5.081599e-06 7.938534e-06 1.1836854e-05 1.9757506e-05 -4.6394716e-06 3.3412036e-06 1.7401479e-05
4.2293123e-06 5.7094685e-06 9.178061e-06 1.1358629e-05 7.539029e-06 5.439179e-06 1.5171516e-05 8.022564e-06
1.2471107e-05 7.761498e-06 1.7039474e-05 1.2677949e-05 -8.2042595e-07 1.9727708e-05 7.761498e-06 1.7039474e-05
1.2677949e-05 -8.2042595e-07 1.9727706e-05 2.462769e-05 2.5613643e-05 -9.840319e-05 -7.2904186e-06 -2.4350725e-06
1.2678047e-05 -1.4899784e-05 1.7453037e-06 -1.9583622e-05 -1.658378e-05 1.993606e-06 -2.7721195e-05 -7.3695437e-06
2.7450624e-05 -7.695846e-06 1.4120797e-06 -1.7241937e-06 -1.0281051e-05 -2.591667e-06 8.775909e-06 1.753148e-05
1.5206717e-05 2.8895389e-05 -1.0659598e-05 1.5343664e-06 -8.817331e-06 -1.7761417e-06 6.955453e-06 1.0915993e-05
-2.1485474e-05 1.3663292e-05 1.0728804e-06 3.6777943e-05 -2.9757188e-05 -2.1697224e-05 2.5729847e-05 6.234921e-06
1.012798e-05 1.2272703e-05 5.6322724e-06 -1.6833015e-05 -1.9472078e-05 1.012798e-05 1.2272703e-05 5.6322724e-06
-1.6833015e-05 -1.9472081e-05 0.0005652058 1.4628538e-06 -0.0007759376 6.8784507e-06 -1.50886035e-05 2.2311622e-05
-4.138918e-06 -2.3054828e-05 -1.8392175e-05 2.466659e-05 -8.3072257e-07 -1.4579625e-05 1.074012e-05 3.995258e-05
3.4807053e-06 -1.116774e-05 -2.9436615e-06 -1.7783332e-06 9.98878e-06 1.1937782e-05 2.782086e-05 3.0233725e-05
5.9215552e-05 -1.9925365e-06 5.914914e-06 -2.081585e-05 -3.5688854e-06 -4.4954822e-06 2.6735399e-05 -1.0441381e-05
3.0198837e-05 2.4714705e-05 5.3532363e-05 -1.5830632e-05 -1.66698e-05 2.5767848e-05 6.010273e-06 8.550276e-06
3.539748e-05 2.6991484e-06 -5.453903e-06 2.5111908e-06 8.550276e-06 3.539748e-05 2.6991484e-06 -5.453903e-06
2.51119e-06 0.00206008 2.7481954e-05 0.00033522368 1.5076216e-05 -1.1947604e-05 2.0480644e-05 -2.4164678e-05
-3.6070496e-06 -4.395596e-05 6.322353e-05 8.8627024e-07 -1.2725306e-05 9.402418e-06 3.2194897e-05 -1.6793154e-05
-4.5969264e-06 2.0392754e-06 1.2829991e-05 1.6265285e-05 5.129175e-06 -1.6174035e-05 -1.2893937e-05 9.931509e-06
-5.0031167e-06 -1.3545792e-05 3.0133124e-05 2.7496677e-05 2.1153186e-05 -6.7345577e-06 -4.106059e-06 8.580907e-06
9.207881e-06 2.9232544e-05 -2.310205e-05 7.360096e-06 1.1770838e-05 2.4154617e-05 1.7682407e-05 -1.4989096e-05
-3.736891e-07 1.6346325e-05 1.0819806e-05 1.7682407e-05 -1.4989096e-05 -3.736891e-07 1.6346325e-05 1.0819805e-05
-0.00088093494 1.4484817e-05 -0.00078390824 -2.451121e-05 7.3160845e-06 2.3885976e-05 2.266753e-06 -4.628817e-06
1.7611697e-05 -4.7545414e-05 5.6189583e-07 -2.5805804e-05 -5.6460587e-05 -9.843061e-06 -3.3764605e-05 -1.544702e-05
-4.510912e-05 -9.2501345e-05 2.7159804e-05 -2.1513668e-05 -3.951145e-05 -7.114591e-05 6.1220726e-06 -8.998346e-05
-4.481442e-05 1.0620233e-05 -3.1210315e-05 -8.743577e-05 -4.803284e-05 1.8173145e-05 6.606497e-07 -3.108986e-05
-2.1692389e-05 -5.373624e-05 -2.8078779e-05 -1.4230896e-05 -3.455108e-05 -0.000113187234 1.0531327e-05 2.5555322e-05
-3.9001112e-05 -3.171124e-05 -0.000113187234 1.0531327e-05 2.5555322e-05 -3.9001112e-05 -3.1711235e-05 -2.0639738e-05
-9.501395e-05 0.0011425796 8.129591e-06 3.9207585e-05 3.8177794e-05 -1.6466904e-05 -3.637737e-05 5.3634674e-05
-0.00013410873 -7.0748333e-06 7.1793074e-06 2.7306083e-05 -2.5879654e-05 -1.8993389e-05 3.5755595e-05 2.763508e-05
-6.3570665e-06 8.162944e-06 8.980108e-06 6.894509e-06 1.1678549e-05 3.0675186e-05 -3.3176268e-05 1.5766309e-05
6.9099815e-06 2.0078858e-05 7.744554e-06 8.5782835e-07 3.3521388e-05 -2.1164029e-05 -4.76236e-06 1.3200732e-05

exp_avg_sq f4 [128, 47]
00000000: 0ae0 5131 76c6 ac30 895e 2431 8dec ec30
00000010: a26a 5031 887b 6031 7232 af30 6243 1331
00000020: c37c be30 5566 2e31 91ad 5a31 fbeb eb30
00000030: 7c16 0931 0f34 a630 989e 3931 e4ea 7831
00000040: 98c2 c630 dcd7 ef30 3f25 9c30 cbd7 1731
00000050: cf7c 8e31 0f54 9530 3c10 d930 fd5d b230
00000060: c3a4 2031 4c42 9731 d73c 9c30 bd70 bc30
00000070: f2de 9930 490c 1731 4c42 9731 d73c 9c30
00000080: bd70 bc30 f2de 9930 490c 1731 c605 b236
00000090: e782 9a31 ad8b 8136 03e7 6e31 7f90 2830
000000a0: 70ce 5031 bdbf 0031 9e43 6a31 2576 b930
000000b0: 8e13 a831 c80a 482e 1aa3 ab31 b9a6 d031
000000c0: c785 4831 d33f 1431 4994 1031 c997 6c31
000000d0: 26d2 be31 e806 6131 f2a1 3131 251d 0031
000000e0: 081c 6731 6c1a cc31 72cc 4231 f03b 2c31
000000f0: bed4 1031 c2cc 8031 eac7 c031 74ca 3e31
00000100: 909d 4931 9191 1031 0dd9 7a31 d1bf b531
00000110: 6b01 5d31 5fdf 2431 9894 2631 d210 9331
00000120: 97a3 aa31 03c6 4631 c8df 3931 ca5c 2131
00000130: 1174 8c31 97a3 aa31 03c6 4631 c8df 3931
00000140: ca5c 2131 1274 8c31 a3e6 4437 dc3d ff31
00000150: 79c5 0237 2f7e bd31 906f 0d31 7f45 7331
00000160: 085a 6731 65a7 e431 76a3 e530 38ee 1a32
00000170: 1bcb c72d 90eb 0b32 d725 6a32 1a3f 9831
00000180: 21ae c231 bf3d c331 6bff 2232 31ac 5e32
00000190: 53ce af31 ec89 0032 3bf6 8831 7593 1132
000001a0: a9b9 6732 df91 8331 61ae ed31 a0f1 a931
000001b0: 2e91 2932 c5ff 7032 30a9 9231 6715 f531
000001c0: cdc8 9a31 eaef 0e32 a23f 6932 ca5d 9831
000001d0: 4f15 cd31 9e50 be31 e93c 2d32 dfc3 5832
000001e0: 446d 9431 74a3 cf31 7a90 ac31 440a 2432
000001f0: dfc3 5832 446d 9431 74a3 cf31 7a90 ac31
00000200: 440a 2432 80b0 db37 8923 9732 ddf2 1937
00000210: 4ec3 4d32 febf 2931 53d4 3232 3406 dd31
00000220: 4a9e 6932 2597 9a31 aa7f e032 679b ee2e
00000230: 84b5 4f32 a874 3832 3a66 4031 b8ee b831
00000240: fef4 8931 e60d 1232 8f5f 3332 4afb 3831
00000250: fd6b c331 7f13 5c31 5acb 0432 6229 3132
00000260: f201 4231 50c5 ae31 b63b 7431 9781 1032
00000270: 3fa8 3e32 aac9 4131 1c99 a731 c23d 7431
00000280: fdae 0232 0dc0 3832 eb03 4931 1fa2 aa31
00000290: 53fa 6731 0135 0432 b7a3 4032 158c 4031
000002a0: 4a16 b131 2f10 6031 3127 0032 b7a3 4032
000002b0: 158c 4031 4a16 b131 2f10 6031 3027 0032
000002c0: 0e88 1437 e271 8c32 f98e d337 bbbe 1532
000002d0: 2803 9530 473c eb31 1990 8731 cc24 1f32
000002e0: 59c2 7331 0b63 ff31 b9c4 502e a8c5 de32
000002f0: 9bc1 3233 6a1f c832 7b89 9132 8f57 8932
00000300: 230d fd32 7946 2433 df4c d732 deed c432
00000310: b9a2 7132 f260 ff32 969d 3233 cd1e be32
00000320: 45ce a432 b6a8 7632 da14 f332 f2bf 3133
00000330: 6a06 c332 2857 9232 9da9 8632 066b f432
00000340: a44f 4233 7ae4 b632 6179 9a32 2494 5c32
00000350: af20 e132 55d5 3133 a7b6 c032 1fb5 a832
00000360: f184 7432 79fc ec32 55d5 3133 a7b6 c032
00000370: 1fb5 a832 f184 7432 7afc ec32 ec7a 7638
00000380: 45c0 9433 ad23 0f39 fc5d 2433 d5f8 4732
00000390: ee12 e432 44b9 ce32 12b8 3033 38ac 3232
000003a0: 9443 8633 c8e5 a82f 71ef ab33 09c9 1c32
000003b0: 48ac 1231 d26b e231 62ac a831 ec68 1d32
000003c0: 26ef 2c32 3a56 3031 e531 cc31 0cf9 8231
000003d0: 37e1 0132 722f 2932 ce63 3b31 456a de31
000003e0: 0894 8331 aba2 1432 ab86 5232 ec0a 4e31
000003f0: b125 b631 37aa 3f31 ca1a d631 ca97 3e32
3.0540854e-09 1.2571053e-09 2.3918878e-09 1.7238492e-09 3.0328597e-09 3.266651e-09 1.2747263e-09 2.1429618e-09
1.3859779e-09 2.5378502e-09 3.1821836e-09 1.716557e-09 1.9948905e-09 1.2092886e-09 2.7011193e-09 3.622227e-09
1.4461703e-09 1.745089e-09 1.136108e-09 2.2096056e-09 4.146933e-09 1.0865068e-09 1.5793442e-09 1.2977918e-09
2.337672e-09 4.4022155e-09 1.1367786e-09 1.3710842e-09 1.119558e-09 2.1980375e-09 4.4022155e-09 1.1367786e-09
1.3710842e-09 1.119558e-09 2.1980375e-09 5.3054855e-06 4.4968718e-09 3.86076e-06 3.4764873e-09 6.1323385e-10
3.038533e-09 1.8735442e-09 3.4089918e-09 1.34941e-09 4.8916666e-09 4.548431e-11 4.9952975e-09 6.072551e-09
2.9179874e-09 2.1573114e-09 2.1039048e-09 3.44288e-09 5.553619e-09 3.2745735e-09 2.5848945e-09 1.8643018e-09
3.3630858e-09 5.9401852e-09 2.834693e-09 2.5063365e-09 2.1075688e-09 3.7485686e-09 5.610663e-09 2.776372e-09
2.9338914e-09 2.1037503e-09 3.6503167e-09 5.2896003e-09 3.2160539e-09 2.3992113e-09 2.4240645e-09 4.2801753e-09
4.966249e-09 2.8925349e-09 2.7048248e-09 2.3481328e-09 4.0877315e-09 4.966249e-09 2.8925349e-09 2.7048248e-09
2.3481328e-09 4.087732e-09 1.173621e-05 7.4285094e-09 7.7945815e-06 5.5149694e-09 2.0581616e-09 3.5400658e-09
3.36661e-09 6.654704e-09 1.6708401e-09 9.0181445e-09 2.2713878e-11 8.144426e-09 1.3629196e-08 4.430956e-09
5.6659393e-09 5.6822667e-09 9.487716e-09 1.29612525e-08 5.1166267e-09 7.48194e-09 3.986114e-09 8.473639e-09
1.3488184e-08 3.8291854e-09 6.9174324e-09 4.946017e-09 9.870105e-09 1.4027994e-08 4.2683936e-09 7.1328716e-09
4.5048183e-09 8.320038e-09 1.3576853e-08 4.434445e-09 5.9687078e-09 5.538893e-09 1.0083775e-08 1.2617391e-08
4.319789e-09 6.0430754e-09 5.022284e-09 9.5483905e-09 1.2617391e-08 4.319789e-09 6.0430754e-09 5.022284e-09
9.5483905e-09 2.6189024e-05 1.7594873e-08 9.176057e-06 1.1976978e-08 2.4701872e-09 1.0409241e-08 6.4326517e-09
1.3598376e-08 4.499173e-09 2.6135087e-08 1.0850592e-10 1.2090258e-08 1.0736734e-08 2.7997786e-09 5.382244e-09
4.015077e-09 8.501479e-09 1.0440899e-08 2.6918365e-09 5.687524e-09 3.2025296e-09 7.729648e-09 1.0312165e-08
2.8231821e-09 5.0864983e-09 3.5540615e-09 8.4113685e-09 1.109771e-08 2.819983e-09 4.877746e-09 3.5541778e-09
7.606784e-09 1.0753877e-08 2.9251577e-09 4.966082e-09 3.3757217e-09 7.695463e-09 1.1213095e-08 2.8019305e-09
5.153912e-09 3.260549e-09 7.459492e-09 1.1213095e-08 2.8019305e-09 5.153912e-09 3.260549e-09 7.459491e-09
8.853165e-06 1.6349933e-08 2.5219737e-05 8.716309e-09 1.0842074e-09 6.846253e-09 3.945399e-09 9.263385e-09
3.5471628e-09 7.4327366e-09 4.746845e-11 2.5934085e-08 4.1619938e-08 2.329735e-08 1.694274e-08 1.5988716e-08
2.945905e-08 3.824832e-08 2.5064251e-08 2.2925573e-08 1.4065045e-08 2.9729993e-08 4.1587178e-08 2.2132918e-08
1.9185913e-08 1.4357445e-08 2.8298405e-08 4.1385597e-08 2.2703905e-08 1.7036271e-08 1.5676784e-08 2.8454007e-08
4.5241578e-08 2.1291488e-08 1.7983156e-08 1.2839369e-08 2.620831e-08 4.140505e-08 2.2434802e-08 1.9640138e-08
1.4232897e-08 2.7588827e-08 4.140505e-08 2.2434802e-08 1.9640138e-08 1.4232897e-08 2.7588829e-08 5.876545e-05
6.926761e-08 0.00013650833 3.8269704e-08 1.1639902e-08 2.6551302e-08 2.4065805e-08 4.1145604e-08 1.0400122e-08
6.2521536e-08 3.072229e-10 8.006362e-08 9.126105e-09 2.1343727e-09 6.5897234e-09 4.909041e-09 9.162459e-09
1.0066094e-08 2.5660385e-09 5.9428538e-09 3.8118113e-09 7.559996e-09 9.8478825e-09 2.7268814e-09 6.473132e-09
3.829431e-09 8.65172e-09 1.2254229e-08 2.9983154e-09 5.301182e-09 2.7890914e-09 6.2312653e-09 1.1093968e-08

exp_avg f4 [128]
00000000: 0501 1a38 2a13 2637 befb 3038 a438 a237
00000010: 0e3d fbb8 42b4 a937 d589 5bb8 e01a 87b6
00000020: bb6f 11b7 8fae 24b8 bb18 44b8 8088 2f36
00000030: 7546 c238 e864 f8b8 fbdd 0ab7 70f8 4bb9
00000040: 4c2d dfb7 d514 b036 2df2 2938 a014 c4b6
00000050: d414 bc38 c17b f2b7 6971 e635 488c a637
00000060: 1cc2 86b8 9873 fdb8 ec4b 2d38 12e4 10b8
00000070: b5c1 80b8 ac30 4e38 90a6 4c38 e229 fdb7
00000080: 9ed4 0238 418c 14b8 7682 dfb7 7aa3 22b7
00000090: 1c8a 2836 a796 5eb8 42e3 e8b7 2486 2cb7
000000a0: 2cb3 ee37 6dff 5ab7 4787 3c37 b043 87b7
000000b0: 92a8 9238 d832 1338 7da4 f7b7 0fbe 1d39
000000c0: b45e a5b8 58f4 9d36 ea1f 01b8 7aa4 3938
000000d0: b4b9 38b7 1429 fcb7 ba80 9d38 3e8a 05b8
000000e0: b99c 10b9 1ec4 5d38 cd4e 2637 b171 c5b8
000000f0: 309d 4938 979c 8fb8 f24d 1338 b47c 8538
00000100: 6451 9038 b879 6038 0ab7 8037 99fc 97b7
00000110: 4fdb 5439 0f42 7eb7 0c81 9738 877b b038
00000120: e3cb ed37 c0a7 a0b7 fae1 a937 36d9 86b8
00000130: 4acf 94b8 190e ba37 1d35 4538 f2f7 00b8
00000140: 0498 a737 e1b4 4d38 2669 eb36 ba0a 2d37
00000150: 740b 1836 ac22 05b9 8eb6 b6b7 6ac1 68b8
00000160: f6e4 5738 0161 3138 3058 1b37 7cc7 a338
00000170: 597a acb6 44e2 41b9 1ccd 2138 b3c2 7738
00000180: 5361 8638 fb60 99b7 4272 1539 5b5d 47b8
00000190: 2075 eb36 68ed 8d38 b89e 4637 02ed b1b7
000001a0: 14f6 bab8 c2f5 6d39 ce97 9fb8 dcc8 54b8
000001b0: 268a d1b7 6699 aab7 eefd ecb7 7cde 6cb7
000001c0: f90e 8f37 0bed 5338 650b 23b8 2a17 84b8
000001d0: fe37 7339 40bc 1038 27d0 3738 1b7c 8538
000001e0: 961e 04b8 2ee7 b637 4373 fe38 b88b a837
000001f0: e67c c737 e40b c236 bf90 a3b8 b213 3d37
3.671741e-05 9.898833e-06 4.2196123e-05 1.933828e-05 -0.00011979985 2.0230309e-05 -5.2342035e-05 -4.026442e-06
-8.668688e-06 -3.9263217e-05 -4.6753074e-05 2.6156486e-06 9.2637645e-05 -0.00011844357 -8.277125e-06 -0.00019452139
-2.6604765e-05 5.247634e-06 4.0518284e-05 -5.8436563e-06 8.968418e-05 -2.8906275e-05 1.7169342e-06 1.9854066e-05
-6.4257736e-05 -0.00012085511 4.1317122e-05 -3.4544682e-05 -6.1395964e-05 4.9159557e-05 4.8792514e-05 -3.0179453e-05
3.119243e-05 -3.541657e-05 -2.6644422e-05 -9.694015e-06 2.511434e-06 -5.306923e-05 -2.776238e-05 -1.0283231e-05
2.8455244e-05 -1.30532835e-05 1.123717e-05 -1.6124774e-05 6.993221e-05 3.5094883e-05 -2.952129e-05 0.00015043489
-7.885453e-05 4.70741e-06 -3.078572e-05 4.4260618e-05 -1.1010492e-05 -3.005987e-05 7.5103206e-05 -3.183842e-05
-0.00013791294 5.2873154e-05 9.912718e-06 -9.414869e-05 4.8068527e-05 -6.8479385e-05 3.5120123e-05 6.365162e-05
6.881615e-05 5.351912e-05 1.5344023e-05 -1.8118228e-05 0.00020299594 -1.515496e-05 7.224278e-05 8.415343e-05
2.8347544e-05 -1.9151601e-05 2.0251598e-05 -6.4300766e-05 -7.0958005e-05 2.2179493e-05 4.7017926e-05 -3.0748495e-05
1.997874e-05 4.9044265e-05 7.0157867e-06 1.0314101e-05 2.2656432e-06 -0.00012696785 -2.17811e-05 -5.549324e-05
5.147323e-05 4.229043e-05 9.259253e-06 7.8096025e-05 -5.1402426e-06 -0.00018490205 3.8576414e-05 5.9070717e-05
6.407746e-05 -1.8284181e-05 0.00014252312 -4.753224e-05 7.017181e-06 6.767624e-05 1.1838674e-05 -2.121041e-05
-8.915007e-05 0.00022693633 -7.609987e-05 -5.0731804e-05 -2.4979072e-05 -2.0337011e-05 -2.8251638e-05 -1.4118497e-05
1.70539e-05 5.0527084e-05 -3.887284e-05 -6.298565e-05 0.00023195145 3.4507597e-05 4.3824457e-05 6.365051e-05
-3.1499738e-05 2.1803742e-05 0.00012133133 2.0092222e-05 2.3780809e-05 5.783035e-06 -7.799407e-05 1.12698635e-05
