Learning/AIRollABall/results/TestParameters/AIRollABall/AIRollABall-8754.onnx (onnx, 99867 bytes, 8 tensors)

network_body._body_endoder.seq_layers.0.weight f4 [128, 47]
0.034621067 -0.081095345 -0.1906412 -0.040314533 -0.060837924 -0.095557734 -0.13582619 -0.110773444
0.20658222 -0.09426684 0.12729098 -0.05953577 0.010405619 0.021855928 0.14367339 0.037966836
-0.045653567 -0.10742068 -0.003288267 -0.19848949 0.0056448258 -0.1468028 -0.087989114 -0.03031423
-0.045564126 0.07734656 0.032318383 0.17823309 0.1732437 0.1063917 0.3371856 0.048895586
0.07023457 -0.07269827 -0.2053489 -0.03580822 0.21246351 0.11091982 0.15606466 -0.09864596
0.13118482 0.08051174 -0.03229233 -0.021958647 0.1503156 -0.13346258 0.34271416 0.029521413
-0.013329725 -0.18484296 0.23988855 -0.023725474 -0.14005129 0.015148154 -0.054514956 0.16663466
0.19715075 0.014952055 0.027041765 0.08651761 -0.009306643 -0.1182311 0.18717445 -0.18891117
-0.028980985 0.23617433 -0.09165432 -0.22771482 -0.15293583 0.042513773 0.16597922 -0.007827992
-0.11086222 0.056978203 -0.00737264 -0.06843104 -0.023448894 -0.012835102 -0.05815602 -0.010344224
-0.09294256 0.0864819 -0.18929459 0.22284597 0.11872345 -0.049804356 0.02348619 0.032618746
0.22723313 -0.07394203 -0.13026947 0.12525262 -0.087135024 0.0061731874 0.04019655 -0.06131602
0.28727648 -0.0008567522 0.14413813 -0.20968513 -0.18900865 0.059509892 -0.031462863 0.09260745
-0.19900927 0.047093567 0.03729071 0.20033793 0.14304332 0.16975974 -0.21395876 0.29556382
0.10313815 0.023319205 0.040013447 0.01354599 0.120863035 0.12873809 -0.027401201 0.09144365
0.16063112 0.09107269 0.1447214 -0.27248368 0.06172836 0.06869787 -0.020552564 0.00086868345
0.07573651 0.09092116 -0.14785226 -0.05958899 0.122161426 -0.0037504672 -0.011510086 -0.323236
0.09385499 -0.084677026 -0.034837466 0.18378024 0.0088603515 0.039006345 -0.022361992 -0.24583799
0.3311223 -0.114717335 0.013024995 0.027926661 -0.05081431 -0.07974766 0.004915921 0.15748383
-0.060456827 -0.17173882 0.17088798 -0.23289359 0.0077448767 0.024582919 -0.1486939 -0.09820124
-0.3083309 -0.077696145 -0.0026287732 -0.33053583 -0.10869313 -0.03535273 -0.10591326 0.14708218
0.04563104 0.0027446798 0.10397966 -0.22899677 -0.26938236 -0.27764875 0.044957276 0.17802612
0.20898749 -0.10352499 0.048917096 -0.113877885 -0.038560435 0.17396916 0.057467435 -0.091879085
0.089949064 0.022306995 -0.10394546 -0.031937577 0.21271673 0.1316011 -0.18939117 0.10468036
0.008242374 -0.13876447 -0.0695473 -0.06666177 0.045650527 0.023467246 0.07767074 0.0018951312
0.05982854 0.099503905 0.016975647 -0.13988842 -0.02192809 -0.12962541 -0.03481629 0.28894365
-0.080955915 0.10446551 -0.0005676362 -0.032576013 0.022336125 -0.03667235 0.14994363 -0.033429533
0.047861632 0.0889444 0.19028868 -0.086268105 -0.09582767 0.0442395 0.049956195 0.16026694
0.2223853 0.16239613 0.014202396 -0.09409755 -0.07945809 0.004557337 0.16182028 0.26781198
0.006320523 -0.16326891 -0.063830286 -0.04356297 0.0076289633 -0.070662245 -0.06048105 0.025046108
-0.09068098 0.12104928 0.078046 0.035605904 0.18697932 0.16061458 -0.00864454 0.120259084
0.05676917 0.12309563 -0.026187828 0.29472956 0.0033621956 -0.31831467 -0.10569136 -0.16452809
00000000: d2ce 0d3d 5115 a6bd 7237 43be da20 25bd
00000010: 3031 79bd c6b3 c3bd 0516 0bbe 30dd e2bd
00000020: 4a8a 533e f90e c1bd 9158 023e c8db 73bd
00000030: 547c 2a3c 340b b33c 1e1f 133e 1d83 1b3d
00000040: 3cff 3abd 60ff dbbd f77f 57bb d440 4bbe
00000050: 3bf8 b83b 7953 16be a333 b4bd 8c55 f8bc
00000060: 73a1 3abd e067 9e3d 4860 043d bc82 363e
00000070: cc66 313e e4e3 d93d 97a3 ac3e bd46 483d
00000080: 24d7 8f3d d5e2 94bd fb46 52be a4ab 12bd
00000090: 0990 593e ee29 e33d 6acf 1f3e e506 cabd
000000a0: 5055 063e 57e3 a43d f644 04bd 9fe2 b3bc
000000b0: 55ec 193e 6aaa 08be 3b78 af3e e4d6 f13c
000000c0: eb64 5abc 7947 3dbe 58a5 753e ed5b c2bc
000000d0: 9b69 0fbe f72f 783c 134b 5fbd 47a2 2a3e
000000e0: e3e1 493e 77f9 743c b186 dd3c 2530 b13d
000000f0: e47a 18bc 2623 f2bd a9aa 3f3e ee71 41be
00000100: 8869 edbc afd7 713e 43b5 bbbd 132e 69be
00000110: 369b 1cbe ec22 2e3d 75f6 293e fa40 00bc
00000120: bb0b e3bd fa61 693d 3096 f1bb 9325 8cbd
00000130: e517 c0bc 524a 52bc 0235 6ebd d27a 29bc
00000140: ab58 bebd 6c1d b13d 71d6 41be bc31 643e
00000150: 4825 f33d a7ff 4bbd 1c66 c03c 3c9b 053d
00000160: cdaf 683e eb6e 97bd 5c65 05be 3942 003e
00000170: d973 b2bd 7348 ca3b 23a5 243d 8226 7bbd
00000180: e715 933e ab97 60ba f298 133e b3b7 56be
00000190: 7c8b 41be a5c0 733d 34df 00bd faa8 bd3d
000001a0: 16c9 4bbe 2fe5 403d 25be 183d 6325 4d3e
000001b0: f379 123e 7fd5 2d3e 0118 5bbe 2454 973e
000001c0: 183a d33d eb07 bf3c 24e5 233d 00f0 5d3c
000001d0: 0a87 f73d ebd3 033e 7c78 e0bc cf46 bb3d
000001e0: 7c7c 243e 5284 ba3d d931 143e fb82 8bbe
000001f0: e0d6 7c3d 78b1 8c3d da5d a8bc 5cb8 633a
00000200: be1b 9b3d e034 ba3d 9566 17be 9613 74bd
00000210: c52f fa3d 66ca 75bb cd94 3cbc 307f a5be
00000220: 0c37 c03d 266b adbd bbb1 0ebd e330 3c3e
00000230: 022b 113c 1ec5 1f3d 7f30 b7bc f4bc 7bbe
00000240: dd88 a93e ecf0 eabd ca66 553c 74c6 e43c
00000250: aa22 50bd be52 a3bd bc15 a13b 7143 213e
00000260: 94a1 77bd 4ddc 2fbe 42fd 2e3e a87b 6ebe
00000270: bcc8 fd3b 1e62 c93c 3743 18be bb1d c9bd
00000280: 8cdd 9dbe 281f 9fbd 7f47 2cbb fe3b a9be
00000290: 819a debd 06ce 10bd 0de9 d8bd b69c 163e
000002a0: 9de7 3a3d 16e0 333b 4af3 d43d 217e 6abe
000002b0: 7cec 89be fa27 8ebe 1f25 383d 7b4c 363e
000002c0: d100 563e e904 d4bd 4b5d 483d cf38 e9bd
000002d0: 8cf1 1dbd f924 323e f962 6b3d 1a2b bcbd
000002e0: 3737 b83d 29bd b63c 5be1 d4bd fad0 02bd
000002f0: 6ad2 593e 70c2 063e c2ef 41be a862 d63d
00000300: 060b 073c 4618 0ebe d16e 8ebd f785 88bd
00000310: 0cfc 3a3d 623e c03c d611 9f3d 0d66 f83a
00000320: c50e 753d b4c8 cb3d 8310 8b3c e93e 0fbe
00000330: 8aa2 b3bc 86bc 04be 879b 0ebd 6cf0 933e
00000340: 37cc a5bd 03f2 d53d 6ccd 14ba 6d6e 05bd
00000350: 40fa b63c bf35 16bd d38a 193e 68ed 08bd
00000360: 8f0a 443d 7b28 b63d 09db 423e 55ad b0bd
00000370: 4c41 c4bd 7a34 353d de9e 4c3d 041d 243e
00000380: f9b8 633e 2c4b 263e 2bb1 683c 37b6 c0bd
00000390: ecba a2bd b755 953b 37b4 253e a71e 893e
000003a0: 641c cf3b f72f 27be 74b9 82bd 166f 32bd
000003b0: 62fc f93b 5eb7 90bd faba 77bd 7f2d cd3c
000003c0: f3b6 b9bd afe8 f73d 95d6 9f3d 7fd7 113d
000003d0: 8277 3f3e 2678 243e d4a1 0dbc 654a f63d
000003e0: ca86 683d 9019 fc3d db87 d6bc cbe6 963e
000003f0: 4858 5c3b 24fa a2be b674 d8bd 0d7a 28be

network_body._body_endoder.seq_layers.0.bias f4 [128]
0.0 0.0 0.0 0.0 0.0 0.0 0.0 0.0
0.0 0.0 0.0 0.0 0.0 0.0 0.0 0.0
0.0 0.0 0.0 0.0 0.0 0.0 0.0 0.0
0.0 0.0 0.0 0.0 0.0 0.0 0.0 0.0
0.0 0.0 0.0 0.0 0.0 0.0 0.0 0.0
0.0 0.0 0.0 0.0 0.0 0.0 0.0 0.0
0.0 0.0 0.0 0.0 0.0 0.0 0.0 0.0
0.0 0.0 0.0 0.0 0.0 0.0 0.0 0.0
0.0 0.0 0.0 0.0 0.0 0.0 0.0 0.0
0.0 0.0 0.0 0.0 0.0 0.0 0.0 0.0
0.0 0.0 0.0 0.0 0.0 0.0 0.0 0.0
0.0 0.0 0.0 0.0 0.0 0.0 0.0 0.0
0.0 0.0 0.0 0.0 0.0 0.0 0.0 0.0
0.0 0.0 0.0 0.0 0.0 0.0 0.0 0.0
0.0 0.0 0.0 0.0 0.0 0.0 0.0 0.0
0.0 0.0 0.0 0.0 0.0 0.0 0.0 0.0
00000000: 0000 0000 0000 0000 0000 0000 0000 0000
00000010: 0000 0000 0000 0000 0000 0000 0000 0000
00000020: 0000 0000 0000 0000 0000 0000 0000 0000
00000030: 0000 0000 0000 0000 0000 0000 0000 0000
00000040: 0000 0000 0000 0000 0000 0000 0000 0000
00000050: 0000 0000 0000 0000 0000 0000 0000 0000
00000060: 0000 0000 0000 0000 0000 0000 0000 0000
00000070: 0000 0000 0000 0000 0000 0000 0000 0000
00000080: 0000 0000 0000 0000 0000 0000 0000 0000
00000090: 0000 0000 0000 0000 0000 0000 0000 0000
000000a0: 0000 0000 0000 0000 0000 0000 0000 0000
000000b0: 0000 0000 0000 0000 0000 0000 0000 0000
000000c0: 0000 0000 0000 0000 0000 0000 0000 0000
000000d0: 0000 0000 0000 0000 0000 0000 0000 0000
000000e0: 0000 0000 0000 0000 0000 0000 0000 0000
000000f0: 0000 0000 0000 0000 0000 0000 0000 0000
00000100: 0000 0000 0000 0000 0000 0000 0000 0000
00000110: 0000 0000 0000 0000 0000 0000 0000 0000
00000120: 0000 0000 0000 0000 0000 0000 0000 0000
00000130: 0000 0000 0000 0000 0000 0000 0000 0000
00000140: 0000 0000 0000 0000 0000 0000 0000 0000
00000150: 0000 0000 0000 0000 0000 0000 0000 0000
00000160: 0000 0000 0000 0000 0000 0000 0000 0000
00000170: 0000 0000 0000 0000 0000 0000 0000 0000
00000180: 0000 0000 0000 0000 0000 0000 0000 0000
00000190: 0000 0000 0000 0000 0000 0000 0000 0000
000001a0: 0000 0000 0000 0000 0000 0000 0000 0000
000001b0: 0000 0000 0000 0000 0000 0000 0000 0000
000001c0: 0000 0000 0000 0000 0000 0000 0000 0000
000001d0: 0000 0000 0000 0000 0000 0000 0000 0000
000001e0: 0000 0000 0000 0000 0000 0000 0000 0000
000001f0: 0000 0000 0000 0000 0000 0000 0000 0000

network_body._body_endoder.seq_layers.2.weight f4 [128, 128]
0.030166754 -0.085501574 0.05612755 -0.031259865 0.022835957 -0.15751578 0.048411477 0.022132624
-0.038243964 0.059758767 0.0020838026 -0.06595655 0.064904526 0.08196828 -0.02657534 -0.03360809
-0.0029145794 -0.14208783 -0.010351213 0.0031089373 -0.04277479 0.0028178822 -0.034274466 0.012162882
-0.118172996 0.07366237 -0.21178089 0.026748007 -0.07991397 0.030011037 0.16182749 0.10847363
0.032837424 0.10538172 -0.13041613 -0.046557974 -0.040996846 -0.010666276 -0.053592805 0.108555116
0.0010311689 -0.049991302 -0.2176805 0.056411613 -0.054404907 -0.048148274 0.05538015 0.15772152
-0.11089501 -0.20802294 -0.07642252 0.025553072 0.08469929 0.016547065 0.12685974 0.013300314
-0.0039886623 -0.026072217 -0.011716965 0.07507175 0.12789229 -0.005291195 0.07004574 0.0045640417
-0.15228349 -0.062846534 -0.02857895 -0.0927615 0.040820234 0.002328345 -0.11806924 0.02912776
-0.1265347 -0.0035808913 -0.043716438 0.15448074 0.01161561 0.04533414 0.13866696 0.1028601
-0.05029093 -0.06017166 0.19826062 0.097623676 -0.036356553 -0.053952705 -0.054111358 -0.0007962291
-0.068214275 -0.12940054 0.032575734 -0.06688869 0.0320083 0.077263385 -0.025676686 -0.0721024
0.108350895 0.048856072 -0.00047935845 0.03262918 -0.011604696 -0.08307069 -0.004952221 -0.045685757
-0.01820081 0.016829513 -0.03543275 0.058808282 0.17890191 -0.06944129 0.18353564 0.020673959
-0.027371712 0.16620865 0.0012441793 -0.023982948 0.14957531 -0.033496767 -0.1245155 0.02074512
-0.06463626 -0.12422657 -0.107761204 -0.04881508 0.0905448 0.09661191 -0.0982065 -0.10973067
0.051778886 -0.20776089 -0.013578218 -0.053917926 0.04489302 0.025947893 0.17830098 0.08753079
-0.034839746 -0.017456353 -0.051969096 0.097726926 -0.06458273 0.066359624 0.14991716 0.031145887
-0.04487272 -0.124608554 0.19551551 0.09379516 -0.124480195 0.0580103 -0.02972151 0.07142361
-0.0007198495 -0.037267245 -0.07903223 -0.014072875 -0.0056617986 -0.08218855 0.11333985 0.009087794
-0.10746073 0.10293154 0.03060537 -0.012139809 -0.0060975105 -0.010793859 0.16544983 -0.19571468
0.055702012 0.017327562 -0.05507344 -0.010267952 -0.08555667 -0.15144287 -0.045449644 -0.040776264
0.01872329 -0.01954972 -0.06056207 -0.062126752 0.24645746 -0.18793888 -0.17850073 0.056434166
-0.007589118 -0.01388974 -0.0046972246 -0.11637202 -0.08358808 -0.22482772 -0.06401242 0.10868764
-0.0057284487 0.13692135 -0.092482656 0.08816414 -0.021127943 0.08242107 0.064605005 -0.08878688
-0.03854666 -0.012978695 -0.015602016 0.066341296 0.1153109 0.014525618 0.045518838 -0.04387621
-0.06632807 -0.21365876 0.1338513 -0.048547726 0.12082876 -0.059508342 0.0052664327 0.02432559
-0.027369294 -0.17612343 -0.07239161 -0.14945959 -0.01899212 0.050913304 0.0045235213 -0.15683171
-0.029932644 0.014354247 0.033069897 -0.20386755 0.019397743 0.013447064 -0.05333025 0.04105962
-0.21070513 -0.055704344 -0.04622593 0.08649638 -0.0370559 -0.11347964 -0.06629078 -0.10199527
0.10561822 -0.042979658 0.18502712 -0.19853184 -0.097940065 0.079797395 0.12828302 -0.008955737
-0.07884106 0.06998421 0.067667656 0.032413665 -0.30739686 -0.08840254 -0.0012938916 -0.14996253
00000000: 4520 f73c 731b afbd 00e6 653d 580a 00bd
00000010: 7912 bb3c d14b 21be 1d4b 463d 7a4f b53c
00000020: b4a5 1cbd 9cc5 743d 6890 083b 3a14 87bd
00000030: aaec 843d fcde a73d 87b4 d9bc a3a8 09bd
00000040: 8702 3fbb 797f 11be 2298 29bc 50bf 4b3b
00000050: 9e34 2fbd 38ac 383b 6263 0cbd d346 473c
00000060: af04 f2bd 4cdc 963d 17dd 58be a31e db3c
00000070: efa9 a3bd b5d9 f53c 1bb6 253e 6c27 de3d
00000080: 8980 063d 5fd2 d73d ce8b 05be 93b3 3ebd
00000090: 4fec 27bd 9bc1 2ebc 2184 5bbd 2552 de3d
000000a0: 4928 873a aec3 4cbd a3e7 5ebe dd0f 673d
000000b0: aed7 5ebd 2037 45bd 4cd6 623d c081 213e
000000c0: ec1c e3bd f703 55be 6983 9cbd ad54 d13c
000000d0: d276 ad3d b68d 873c 85e7 013e 8fe9 593c
000000e0: 53b3 82bb 6795 d5bc 83f8 3fbc 38bf 993d
000000f0: 32f6 023e c361 adbb 2474 8f3d f58d 953b
00000100: 34f0 1bbe afb5 80bd 671e eabc bef9 bdbd
00000110: 1e33 273d 2697 183b 49ce f1bd 579d ee3c
00000120: 5092 01be 63ad 6abb 0210 33bd 3330 1e3e
00000130: 664f 3e3c 4bb0 393d b6fe 0d3e 51a8 d23d
00000140: ddfd 4dbd 8f76 76bd d504 4b3e ecee c73d
00000150: 9cea 14bd 83fd 5cbd dfa3 5dbd 08ba 50ba
00000160: edb3 8bbd 9381 04be 226e 053d f0fc 88bd
00000170: 231b 033d 443c 9e3d ea57 d2bc 6caa 93bd
00000180: 13e7 dd3d 4e1d 483d 6752 fbb9 2da6 053d
00000190: 9f21 3ebc f720 aabd 3e46 a2bb fd20 3bbd
000001a0: dd19 95bc 0cde 893c ee21 11bd f4e0 703d
000001b0: 1032 373e 3c37 8ebd c4f0 3b3e 6f5c a93c
000001c0: a43a e0bc 9a32 2a3e bb13 a33a e377 c4bc
000001d0: 452a 193e e833 09bd fc01 ffbd abf1 a93c
000001e0: 0460 84bd 806a febd e8b1 dcbd 52f2 47bd
000001f0: 8d6f b93d 77dc c53d 7d20 c9bd 79ba e0bd
00000200: 1916 543d 45bf 54be 2d77 5ebc 0bd9 5cbd
00000210: bee1 373d ad90 d43c 8894 363e 5843 b33d
00000220: 1fb4 0ebd a000 8fbc 8cdd 54bd 0e25 c83d
00000230: f343 84bd 8ee7 873d e283 193e a925 ff3c
00000240: 75cc 37bd c532 ffbd 3835 483e ad17 c03d
00000250: 79ef febd 359c 6d3d 867a f3bc 8b46 923d
00000260: 48b4 3cba 8aa5 18bd a6db a1bd ea91 66bc
00000270: 9c86 b9bb 7852 a8bd b91e e83d f9e4 143c
00000280: 5f14 dcbd c5cd d23d 1db8 fa3c 0de6 46bc
00000290: a0cd c7bb bad8 30bc ae6b 293e 6e69 48be
000002a0: cb27 643d 88f2 8d3c b094 61bd ea3a 28bc
000002b0: 5638 afbd d713 1bbe 6829 3abd 0305 27bd
000002c0: 9661 993c bc26 a0bc ef0f 78bd 9f78 7ebd
000002d0: 585f 7c3e 0d73 40be e5c8 36be 8327 673d
000002e0: 23ae f8bb cb91 63bc 2deb 99bb 7454 eebd
000002f0: 3a30 abbd 3d39 66be f218 83bd a097 de3d
00000300: b6b5 bbbb 1c35 0c3e 8c67 bdbd 678f b43d
00000310: 8214 adbc 61cc a83d a14f 843d e5d5 b5bd
00000320: 1ae3 1dbd 98a4 54bc 999f 7fbc f2dd 873d
00000330: 1f28 ec3d dcfc 6d3c f671 3a3d 8ab7 33bd
00000340: 03d7 87bd 5dc9 5abe 5110 093e fbd9 46bd
00000350: 1275 f73d 05bf 73bd 0a92 ac3b 7646 c73c
00000360: 9235 e0bc b359 34be 0d42 94bd ef0b 19be
00000370: 5d95 9bbc 788a 503d 0c3a 943b 7e98 20be
00000380: 4e35 f5bc 132e 6b3c 4d74 073d a8c2 50be
00000390: 04e8 9e3c 1351 5c3c d270 5abd 222e 283d
000003a0: 16c3 57be 3d2a 64bd 6757 3dbd 0425 b13d
000003b0: edc7 17bd 0368 e8bd 76c3 87bd e5e2 d0bd
000003c0: 5e4e d83d 700b 30bd c077 3d3e ee4b 4bbe
000003d0: cd94 c8bd d16c a33d a05c 033e 15bb 12bc
000003e0: 6c77 a1bd e253 8f3d 5795 8a3d 31c4 043d
000003f0: 1f63 9dbe 640c b5bd cc97 a9ba c78f 19be

action_model._continuous_distribution.log_sigma f4 [1, 3]
0.0 0.0 0.0
00000000: 0000 0000 0000 0000 0000 0000

action_model._continuous_distribution.mu.weight f4 [3, 128]
0.007195208 0.0076515684 0.0014583905 -0.017341 0.012189317 -0.021104308 -0.010043379 0.016133621
-0.010755869 0.006243123 0.031327087 0.0026723281 0.021972777 0.0061452794 0.0033700292 -0.008761055
0.03638594 -0.007791731 0.047173094 -0.0014682532 0.008347414 0.015738226 -0.006705124 -0.032677468
0.008662993 -0.006629935 -0.0052844435 -0.013472522 -0.0015015511 0.040228408 -0.022012858 -0.0025952954
0.006081847 0.007969513 -0.011755291 0.001351299 0.0024917822 -0.00948232 -0.00063003745 -0.012155361
-0.048398487 -0.0052752863 -0.009171471 0.0014084782 -0.0011730269 0.004639361 0.0059295683 0.0151812555
0.020079331 0.014347819 -0.004334751 0.006873327 -0.017501296 -0.01284526 0.037857573 -0.005401486
-0.00041635853 -0.0082016615 -0.01631567 0.023667099 0.012885101 6.617807e-05 0.006849371 0.026334673
0.010803329 0.013205777 -0.010427139 -0.027538953 0.00840849 -0.011243146 -0.01988291 0.0116512915
0.014785822 0.0013508253 -0.037006143 0.014634214 -0.0047638305 -0.02229335 0.016734546 0.027079826
-0.0038034308 0.0065949853 0.026905349 -0.020111637 0.0027834473 -0.0005779333 0.0067789108 -0.0372028
-0.0060586366 -0.009411509 0.029749254 -0.010074876 0.012437325 -0.0058088275 0.021340456 0.01236179
-0.0118945055 0.0010379663 -0.016450547 -0.037431013 0.003959547 0.01470003 0.008699941 0.011373271
0.0071944245 0.00531065 -0.0016658651 -0.004506733 -0.0031033747 0.035268586 0.0021705537 0.0044162353
-0.0034062532 0.023955176 0.0103814 -0.022788616 -0.0073556304 0.029532103 0.01448479 -0.017989753
0.013936037 0.046907928 -0.004345761 0.0032380116 0.0013821292 0.023394078 0.0009660409 -0.012618117
-0.006103079 -0.006541411 -0.045203608 0.0066499533 0.022370297 -0.009765431 -0.0018311614 -0.010384908
-0.0009253934 0.008564868 0.011393637 0.011183578 0.015508662 -0.018868096 -0.032440502 -0.0034585737
0.0045430497 0.0036339674 0.018751744 0.0056237346 0.034995466 -0.028039047 -0.0107296845 0.0067588384
-0.017520893 0.011088475 -0.03231288 -0.034356426 -0.01833068 -0.008927784 -0.0077632964 -0.015601518
-0.026042959 0.029865691 0.022617413 0.006652011 -0.0064736228 -0.023004172 0.003034823 -0.023311615
-0.028304342 0.012423473 0.018447815 -0.01974668 -0.034584604 -0.03183092 0.0011034727 -0.0045291833
-0.026942173 0.0050485586 -0.025653929 0.0058783083 0.041266326 -0.024601849 -0.015765067 -0.0027434395
0.008862693 -0.037419897 -0.020645438 0.021355532 -0.04986186 -0.012673049 -0.015777105 0.022604486
-0.0014694644 0.002692627 -0.0031003929 -0.0071147094 -0.007963704 0.001232487 -0.015726706 -0.0026670047
0.016095093 -0.01843964 -0.004632533 0.015979882 -0.004623438 0.009082703 0.00016048069 -0.00061517133
-0.019658852 0.002662401 -0.048023704 -0.018638317 -0.0048222975 0.02128373 0.00066597783 -0.005022779
-0.016447494 0.0041969526 -0.0073044533 -0.008638381 0.02081676 0.010601104 0.021540778 -0.02639932
0.0072394847 -0.0074438425 0.0045190537 -0.026892293 0.016217152 -0.03513709 -0.0027859828 0.03717355
0.0011961776 0.01623925 -0.03969744 0.026811933 0.022062441 -0.006331383 0.004118135 -0.012124643
-0.001104788 -0.043661974 -0.008783673 0.023379212 -0.009051253 -0.0018221332 0.00087378995 -0.0025659527
0.009767454 0.030513717 0.002136262 -0.010959906 -0.0031709373 -0.01599438 -0.00063349766 0.012819851
00000000: c8c5 eb3b 02ba fa3b 7727 bf3a b60e 8ebc
00000010: b3b5 473c f1e2 acbc fc8c 24bc a82a 843c
00000020: 6239 30bc 1d93 cc3b d550 003d 3a22 2f3b
00000030: 4100 b43c 575e c93b b5db 5c3b 878a 0fbc
00000040: 6c09 153d c751 ffbb 9338 413d 6772 c0ba
00000050: 98c3 083c 74ed 803c a8b6 dbbb cfd8 05bd
00000060: 3aef 0d3c ed3f d9bb 2029 adbb dabb 5cbc
00000070: b2cf c4ba 8bc6 243d 4f54 b4bc d515 2abb
00000080: 3b4a c73b 8f92 023c 4499 40bc 121e b13a
00000090: 2b4d 233b bc5b 1bbc 1929 25ba 4727 47bc
000000a0: 7e3d 46bd 4fdc acbb f043 16bc b09c b83a
000000b0: 40c0 99ba c805 983b d34c c23b cdba 783c
000000c0: 697d a43c 1d13 6b3c 870a 8ebb a539 e13b
000000d0: e15e 8fbc ed74 52bc 8b10 1b3d f3fe b0bb
000000e0: b24a dab9 4360 06bc 71a8 85bc 81e1 c13c
000000f0: 081c 533c 15c9 8a38 b070 e03b d0bb d73c
00000100: 7200 313c 0b5d 583c 97d6 2abc 5f99 e1bc
00000110: c3c3 093c 2c35 38bc 7ce1 a2bc 0fe5 3e3c
00000120: 3b40 723c 2d0e b13a c193 17bd 58c4 6f3c
00000130: e819 9cbb 8ba0 b6bc e316 893c 83d6 dd3c
00000140: fb42 79bb bf1a d83b 9b68 dc3c 29c1 a4bc
00000150: 7f6a 363b 7280 17ba a021 de3b f761 18bd
00000160: 8787 c6bb bb32 1abc b5b4 f33c 1811 25bc
00000170: ecc5 4b3c fa57 bebb 2ed2 ae3c 1b89 4a3c
00000180: 2ce1 42bc 5f0c 883a 4cc3 86bc 4351 19bd
00000190: 16bf 813b 65d8 703c 338a 0e3c f556 3a3c
000001a0: 35bf eb3b f604 ae3b 2859 daba 37ad 93bb
000001b0: fd61 4bbb cb75 103d d93f 0e3b 11b6 903b
000001c0: 723b 5fbb a53d c43c bf16 2a3c 31af babc
000001d0: 8007 f1bb 4fed f13c 9d51 6d3c 3f5f 93bc
000001e0: fa53 643c 8722 403d e366 8ebb d234 543b
000001f0: 8f28 b53a f0a4 bf3c e83d 7d3a 38bc 4ebc
00000200: 56fc c7bb 5559 d6bb 6b27 39bd dae7 d93b
00000210: ea41 b73c 30ff 1fbc 9503 f0ba 7625 2abc
00000220: 1a96 72ba a953 0c3c 61ac 3a3c 533b 373c
00000230: 0b18 7e3c 4491 9abc 55e0 04bd 3da9 62bb
00000240: dddd 943b db27 6e3b 429d 993c 4e47 b83b
00000250: 6857 0f3d 25b2 e5bc 8fcb 2fbc 3f79 dd3b
00000260: fa87 8fbc 6fac 353c 835a 04bd 53b9 0cbd
00000270: 392a 96bc d745 12bc 4063 febb 829d 7fbc
00000280: 0b58 d5bc e5a8 f43c 2748 b93c 1df9 d93b
00000290: af20 d4bb 3f73 bcbc e2e3 463b 00f8 bebc
000002a0: 82de e7bc d38b 4b3c df1f 973c cac3 a1bc
000002b0: 96a8 0dbd 2461 02bd 66a2 903a 8b69 94bb
000002c0: d5b5 dcbc 616e a53b 3028 d2bc d39e c03b
000002d0: e106 293d d189 c9bc be25 81bc 47cb 33bb
000002e0: d434 113c 9b45 19bd 9f20 a9bc ccf1 ae3c
000002f0: f33b 4cbd 9fa2 4fbc fd3e 81bc 0b2d b93c
00000300: 0b9b c0ba c976 303b f62f 4bbb 8222 e9bb
00000310: 327a 02bc 678b a13a 4bd5 80bc eac8 2ebb
00000320: dbd9 833c ba0e 97bc 81cc 97bb 3ee8 823c
00000330: 3680 97bb 9ecf 143c b546 2839 7343 21ba
00000340: 9a0b a1bc ad7b 2e3b 81b4 44bd 62af 98bc
00000350: 5d04 9ebb 385b ae3c 0495 2e3a 2096 a4bb
00000360: e5bc 86bc 9786 893b 325a efbb ff87 0dbc
00000370: e987 aa3c 41b0 2d3c 4976 b03c 6343 d8bc
00000380: 3339 ed3b 7aeb f3bb 9214 943b 3a4d dcbc
00000390: d5d9 843c e9eb 0fbd 0995 36bb 4b43 183d
000003a0: 0fc9 9c3a 2d08 853c c899 22bd b3a4 db3c
000003b0: 4bbc b43c 7d77 cfbb 6cf1 863b 70a6 46bc
000003c0: 89ce 90ba e6d6 32bd 65e9 0fbc c385 bf3c
000003d0: b54b 14bc a5d4 eeba 0d0f 653a 8b29 28bb
000003e0: ac07 203c e7f7 f93c 8700 0c3b 2d91 33bc
000003f0: 80cf 4fbb a506 83bc 4f11 26ba 5a0a 523c

action_model._continuous_distribution.mu.bias f4 [3]
0.0 0.0 0.0
00000000: 0000 0000 0000 0000 0000 0000

action_model._discrete_distribution.branches.0.weight f4 [2, 128]
-0.015907567 0.0077726953 -0.0033479407 -0.013727041 -0.0074115708 -0.011510587 -0.005039127 0.0034379528
0.0002235906 0.0008788557 0.00049586094 -0.009407816 -0.0059090606 -0.014465595 -0.010875538 -0.00077459286
0.015104756 0.0022478213 0.012276374 0.0048425044 0.019565195 0.0015897723 0.0053144945 0.0054325648
0.010484197 -0.0061100875 -0.0040503307 -0.0043786205 0.007110907 0.00033198352 -0.0053301444 0.002304929
-0.010573036 -0.014814283 0.0060701957 0.008288148 -0.0102353105 0.0013056044 0.009540221 0.0019336304
-0.0064934636 0.014090833 -0.009077665 0.012515276 0.00091809686 0.0066213585 -0.017110318 -0.0057560885
0.0072877235 0.0111509925 -0.010331263 -0.011895681 -0.0072363103 0.0057746675 0.003523708 -0.00055227365
0.0036212634 -0.016679833 0.0065238746 -0.005715925 -0.0011040766 -0.012236118 -0.011584983 0.008398051
-0.0029758886 0.00038396113 0.014440094 0.007762863 -0.005796567 -0.004835199 -0.006171577 -0.0030836172
-0.0018682237 0.004325274 -0.015157602 0.010359089 -0.004901109 0.0034581318 0.011513296 -0.0036148836
0.0029732916 0.008156891 -0.0019485314 -0.0022312598 0.002347802 0.007390905 0.010675021 -0.0007453045
-0.00086759654 -0.003498831 -0.00032047796 0.0077985427 -0.0104947835 -0.016152136 0.007425332 -0.0055980305
-0.018037241 -0.00161273 0.010672714 -0.005712152 -0.012489409 0.008921302 0.0152451815 0.012494275
-0.0010887794 -0.015420154 0.0033811533 -0.0003962094 -9.846698e-05 -0.016533045 -0.0032258262 0.0022035807
-0.011167677 0.011734112 0.015509995 -0.013719869 0.009036715 -0.010983481 -0.0065105367 0.008828661
-0.019227799 0.0051584486 -0.007437212 -0.0064273374 -0.0031720593 0.0062405667 0.0136785675 -0.009089325
-0.014674673 0.0045260615 -0.0037945497 0.00305195 0.0035881156 0.001796569 -0.0053433124 -0.004492141
0.0010270214 -0.0036474508 0.00030682865 0.004275109 -0.013643137 0.007494077 0.0006195895 -0.0046998053
0.006787669 -0.0026156546 -0.011013476 0.008262076 0.008590414 0.014526168 -0.012847274 -0.0030228063
-0.020676648 0.013290583 0.010107324 -0.004562195 0.0039569214 -0.0008446996 0.0042396765 0.0050132074
-0.005566542 -0.0010378592 0.004360174 0.0009705835 0.0024649014 -0.0019296393 -0.013011861 0.008552913
-0.0003142352 -0.009299482 -0.007563367 -0.0111873895 0.006387118 0.018463595 0.003291246 -0.010340176
-0.0022012533 -0.006517142 -0.010339822 -0.010801751 0.01669907 -0.018120883 0.0053961338 -0.0037979123
-0.00830192 0.0028511514 0.0036292344 -0.0038658474 0.011789249 0.008592722 -0.0045185066 0.0051002735
0.009698511 -0.0034967102 0.0031195504 0.010402074 -0.0012396995 -0.009142085 0.0028388852 -0.0069379583
-0.009663541 -0.003600085 0.0023401433 0.006273641 0.003604268 0.00969582 -0.007547808 0.0010660354
0.0013663598 -0.0010833069 0.00279863 -0.005576576 -0.00778255 -0.012637438 -0.009928448 0.023096262
-0.0038689435 0.001041252 0.008226664 -0.0023176344 0.014065424 0.004434643 -0.0013206032 -0.0079637775
-0.00856018 0.004265349 0.00576699 0.011535165 -0.008455624 0.008211011 0.01999351 -0.0010921347
-0.013808468 0.0036632393 -0.0056686136 0.0011712866 -0.015727296 0.0056960387 0.0022075295 -0.0023201366
0.011173974 -0.004775161 0.003434252 -0.001982254 -0.009816672 -0.00724791 -0.0029126653 -0.0011565103
-0.0037182227 0.0069423923 -0.015197177 0.008677649 -0.019189367 0.010543197 0.013629737 0.007819698
00000000: 9650 82bc 18b2 fe3b 2069 5bbb 62e7 60bc
00000010: c3dc f2bb e796 3cbc 431f a5bb 474f 613b
00000020: a573 6a39 0263 663a aafc 013a 3e23 1abc
00000030: cba0 c1bb 1a01 6dbc 502f 32bc 0c0e 4bba
00000040: f079 773c 2f50 133b d822 493c dfad 9e3b
00000050: 3047 a03c e85f d03a 3625 ae3b a803 b23b
00000060: e9c5 2b3c 2137 c8bb a3b8 84bb 887a 8fbb
00000070: 9d02 e93b 130e ae39 7ea8 aebb 4b0e 173b
00000080: 873a 2dbc 9bb7 72bc 7ee8 c63b 03cb 073c
00000090: 01b2 27bc d020 ab3a 964e 1c3c df71 fd3a
000000a0: 1fc7 d4bb 3ddd 663c 7dba 14bc df0c 4d3c
000000b0: 70ac 703a fbf7 d83b f02a 8cbc 929d bcbb
000000c0: dbcd ee3b a7b2 363c 7544 29bc 1ae6 42bc
000000d0: 921e edbb 6c39 bd3b 03ee 663b 75c6 10ba
000000e0: b852 6d3b 25a4 88bc 3ac6 d53b a74c bbbb
000000f0: aab6 90ba 007a 48bc f1ce 3dbc fb97 093c
00000100: 2007 43bb 644e c939 2596 6c3c 9d5f fe3b
00000110: 21f1 bdbb 9770 9ebb f13a cabb 8316 4abb
00000120: 2fdf f4ba 07bb 8d3b 9757 78bc 2bb9 293c
00000130: 7b99 a0bb d3a1 623b 43a2 3c3c afe7 6cbb
00000140: 8edb 423b 7ba4 053c dd65 ffba 543a 12bb
00000150: 95dd 193b 682f f23b 49e6 2e3c 8a60 43ba
00000160: 6b6f 63ba a54c 65bb d305 a8b9 eb8a ff3b
00000170: 50f2 2bbc 7c51 84bc 3350 f33b af6f b7bb
00000180: d6c2 93bc 3d62 d3ba 9bdc 2e3c 012d bbbb
00000190: 61a0 4cbc a72a 123c edc6 793c cab4 4c3c
000001a0: 60b5 8eba d0a4 7cbc 5796 5d3b 53ba cfb9
000001b0: 0f80 ceb8 4f70 87bc 6268 53bb f369 103b
000001c0: a2f8 36bc 6f40 403c a21d 7e3c 4dc9 60bc
000001d0: bb0e 143c 0ff4 33bc 5756 d5bb 17a6 103c
000001e0: 9e83 9dbc 3408 a93b dbb3 f3bb 6a9c d2bb
000001f0: 53e2 4fbb ab7d cc3b 121c 603c 64eb 14bc
00000200: 0a6e 70bc 5b4f 943b fbad 78bb 3903 483b
00000210: 9726 6b3b da7a eb3a f416 afbb cf32 93bb
00000220: 1f9d 863a 120a 6fbb d8dd a039 3716 8c3b
00000230: 7787 5fbc e090 f53b f36b 223a d300 9abb
00000240: 186b de3b 676b 2bbb de71 34bc a95d 073c
00000250: cfbe 0c3c 2aff 6d3c 5f7d 52bc 461a 46bb
00000260: 1362 a9bc bfc0 593c 3199 253c 777e 95bb
00000270: 10a9 813b d56e 5dba fcec 8a3b d545 a43b
00000280: 8a67 b6bb c708 88ba cadf 8e3b c26e 7e3a
00000290: 2f8a 213b f3eb fcba b32f 55bc 8421 0c3c
000002a0: efbf a4b9 db5c 18bc 1fd6 f7bb 504b 37bc
000002b0: 074b d13b f740 973c f2b1 573b d769 29bc
000002c0: e742 10bb c08d d5bb 5b68 29bc d4f9 30bc
000002d0: 7dcc 883c 3f72 94bc 0dd2 b03b 65e6 78bb
000002e0: c704 08bc 62da 3a3b 73d8 6d3b 285a 7dbb
000002f0: b227 413c 7dc8 0c3c fb0f 94bb 3220 a73b
00000300: 81e6 1e3c 1029 65bb 5f71 4c3b 766d 2a3c
00000310: 6a7d a2ba afc8 15bc 970c 3a3b d057 e3bb
00000320: d453 1ebc 67ef 6bbb 175d 193b 1d93 cd3b
00000330: 9535 6c3b 37db 1e3c 9a53 f7bb 36ba 8b3a
00000340: 6d17 b33a bffd 8dba 3869 373b b6bb b6bb
00000350: c304 ffbb 420d 4fbc eeaa 22bc 5f34 bd3c
00000360: 1a8e 7dbb 9f7a 883a 21c9 063c 74e3 17bb
00000370: aa72 663c 7b50 913b 1718 adba 817a 02bc
00000380: ff3f 0cbc 57c4 8b3b 05f9 bc3b fdfd 3c3c
00000390: 7589 0abc 7a87 063c 6ec9 a33c f625 8fba
000003a0: ea3c 62bc f512 703b c7bf b9bb db85 993a
000003b0: 88d6 80bc d6a5 ba3b 33ac 103b 6f0d 18bb
000003c0: 0b13 373c f478 9cbb 3011 613b b4e8 01bb
000003d0: 1bd6 20bc e07f edbb 6ae2 3ebb 0c96 97ba
000003e0: 6dad 73bb 027d e33b 95fd 78bc b32c 0e3c
000003f0: 0533 9dbc 60bd 2c3c 434f 5f3c 311e 003c

action_model._discrete_distribution.branches.0.bias f4 [2]
0.0 0.0
00000000: 0000 0000 0000 0000
