Learning/AIRollABall/results/TestParameters/AIRollABall/AIRollABall-60912.pt (torch, 574734 bytes, 42 tensors)

network_body._body_endoder.seq_layers.0.weight f4 [128, 47]
0	0x3e4f207c	0.20227236
1	0xbe208ed5	-0.15679486
2	0x3dd7401a	0.10510273
3	0xbdfcdbee	-0.12346636
4	0xbde80d5d	-0.11330674
5	0xbb74c13f	-0.003734663
6	0x3d0a15b0	0.03371209
7	0xbd96217f	-0.073306076
8	0xbc4b912a	-0.0124247465
9	0xbc0dbce3	-0.008650991
10	0xbd073055	-0.033005077
11	0xbd02803a	-0.031860568
12	0xbe82942b	-0.25503668
13	0xbd939b5b	-0.07207366
14	0x3e6630da	0.22479573
15	0xbe31aae6	-0.17350349
16	0x3d5de9b6	0.054177962
17	0x3d684263	0.056703936
18	0xbdd8fdeb	-0.10595306
19	0x3da59681	0.08085347
20	0x3da20d11	0.079126485
21	0xbe3ca880	-0.18423653
22	0x3d31c6af	0.04340237
23	0xbe02b9a7	-0.12766133
24	0x3d5c98cf	0.053856667
25	0xbd2b3c21	-0.04180539
26	0xbd5250c8	-0.05134657
27	0xbd7fb211	-0.062425677
28	0x3e9ea6aa	0.3098653
29	0xbe2c9f03	-0.16857533
30	0xbca48c24	-0.020086356
31	0x3e11564c	0.14193076
32	0xbba782b2	-0.0051120156
33	0xbe8ab849	-0.27093723
34	0x3e014c13	0.12626676
35	0xbd9e8055	-0.07739321
36	0x3e0b24cb	0.13588254
37	0xbe8d73ca	-0.27627403
38	0xbdece216	-0.1156656
39	0xbcf80684	-0.030276544
40	0x3e36cd72	0.17851809
41	0xbeed14f7	-0.46305057
42	0xbe9793cb	-0.29604945
43	0x3dca0e59	0.09866018
44	0x3d3172b6	0.043322287
45	0xbe23cbe5	-0.15995748
46	0x3d086a46	0.033304475
47	0xbd5d206c	-0.053985998
48	0xbd914150	-0.070925355
49	0xbc55d5d2	-0.013051467
50	0x3e4e6e4e	0.20159265
51	0xbd347989	-0.044061217
52	0xbda5f18c	-0.08102712
53	0x3e0e1659	0.13875712
54	0x3db2139c	0.086951464
55	0xbe013161	-0.12616493
56	0xbe30a019	-0.17248572
57	0xbc0109c1	-0.007875861
58	0x3d631e74	0.055448964
59	0x3dc400ad	0.095704414
60	0x3c9ce48f	0.019151954
61	0xbdb8ec4e	-0.090294465
62	0xbd023655	-0.031790096
63	0x3da6c067	0.081421666
64	0x3e8584c2	0.2607785
65	0x3bf208a4	0.007386284
66	0x3e80e73e	0.25176424
67	0x3e741fac	0.23840207
68	0x3e132fad	0.14373656
69	0x3db0889e	0.08619808
70	0xbd8fce74	-0.070218
71	0x3e80aa6a	0.25130016
72	0xbd834aa4	-0.06410721
73	0xbe338018	-0.17529333
74	0x3dcdc149	0.10046632
75	0x3de57cd8	0.11205453
76	0x3e46af94	0.19402915
77	0x3e6904b8	0.22755706
78	0xbe0de87c	-0.13858217
79	0xbe2b82dd	-0.16749139
80	0xbd88440d	-0.06653605
81	0x3d4bccf3	0.049756
82	0xba9f983a	-0.0012176104
83	0x3d7e400a	0.06207279
84	0xbe6b6deb	-0.22991149
85	0xbdfcb50e	-0.12339221
86	0xbddabf13	-0.10680976
87	0x3df3083b	0.11866804
88	0xbe725fa5	-0.23669298
89	0x3cdbce03	0.026831632
90	0x3ccac9ce	0.024754431
91	0x3d820eb9	0.063504644
92	0x3da0e419	0.07856006
93	0xbd834f47	-0.06411605
94	0xbefbfd32	-0.4921661
95	0xbdf8f423	-0.121559404
96	0x3db6b3a9	0.08920986
97	0x3dd90997	0.10597532
98	0xbe2d62f0	-0.16932273
99	0x3d7a78bb	0.061150294
100	0xbe60adab	-0.21941249
101	0xbcb4bd24	-0.022062846
102	0xbe11ee56	-0.14251074
103	0x3e32c336	0.1745728
104	0x3dfbe51a	0.12299557
105	0xbe0c3289	-0.13691153
106	0xbc5cb303	-0.013470414
107	0x3e176352	0.14783981
108	0xbcbe51c4	-0.023232348
109	0xbd9a2263	-0.0752609
110	0xbe8ca666	-0.27470702
111	0x3c95c1c1	0.018280866
112	0xbe29d54c	-0.16585273
113	0xbcf2d504	-0.02964259
114	0x3e288315	0.16456254
115	0x3e027b96	0.12742457
116	0x3d37cf1a	0.04487524
117	0xbe8e02c4	-0.27736485
118	0xbd62f9ad	-0.05541389
119	0xbe094802	-0.13406375
120	0x3eb12b43	0.3460332
121	0x3da49c6f	0.0803765
122	0xbdaa42b2	-0.08313502
123	0xbe1ebcc3	-0.15501694
124	0x3e969b18	0.29415202
125	0x3d334a91	0.043772284
126	0xbd90f4d6	-0.07077949
127	0x3e942142	0.28931624
128	0x3ea32164	0.31861413
129	0xbbf74e3f	-0.0075471695
130	0xbc54bc0f	-0.01298429
131	0xbe85bcd2	-0.2612062
132	0x3d04a1e8	0.03238097
133	0x3e582eea	0.21111646
134	0xbddb72b1	-0.10715235
135	0xbeaa8d5a	-0.33310968
136	0xbb010145	-0.0019684595
137	0x3d399023	0.045303475
138	0x3e358b92	0.17729023
139	0x3ddd2e37	0.107998304
140	0xbd8132ef	-0.06308543
141	0xbcd3c7c1	-0.025852086
142	0x3e37c790	0.17947221
143	0xbce0feae	-0.02746519
144	0xbe1d6681	-0.15371133
145	0xbcf03f2d	-0.029327
146	0x3de73f80	0.112914085
147	0x3e2c5229	0.16828217
148	0xbe0d6df3	-0.13811474
149	0x3c80a91c	0.015705638
150	0x3e0fdb46	0.1404849
151	0xbd94ba42	-0.07262088
152	0x3e323404	0.17402655
153	0xbcdbf57b	-0.026850453
154	0x3e040847	0.12893783
155	0x3db143ce	0.08655511
156	0xbdeebb9f	-0.1165688
157	0x3df3d2e3	0.11905458
158	0xbdb939fc	-0.09044263
159	0x3e88b13a	0.26697713
160	0xbc0b5641	-0.008504451
161	0x3d715d83	0.05892707
162	0xbd89caa4	-0.06728104
163	0x3d2f01de	0.04272639
164	0x3d1c2d22	0.03812898
165	0x3e52545d	0.20539995
166	0x3e78137b	0.24226181
167	0xbc9daa85	-0.01924635
168	0xbdd616d9	-0.104535766
169	0x3dcc389e	0.09971736
170	0x3e9b9f03	0.30394754
171	0xbe224aea	-0.1584889
172	0xbe0e3121	-0.13885929
173	0x3e68fdda	0.22753087
174	0xbe03408a	-0.12817588
175	0xbe521680	-0.20516396
176	0xbc5ccedf	-0.013477056
177	0x3d78c4b8	0.06073448
178	0xbbb42972	-0.0054981047
179	0x3e60cff2	0.21954325
180	0x3d02e3c5	0.0319555
181	0xbe2e460b	-0.17018907
182	0xba72bb4a	-0.00092594756
183	0xbde9975f	-0.11405825
184	0x3dc351ce	0.095370874
185	0x3e259b75	0.16172583
186	0xbdd1907e	-0.10232638
187	0x3cc07192	0.023491655
188	0x3d62493a	0.055245616
189	0x3d3ab57d	0.045583237
190	0x3bfe535d	0.0077614025
191	0x3cef9ce5	0.029249618
192	0x3d5386ee	0.05164235
193	0x3e8c5eb4	0.27416003
194	0x3e705bc4	0.23472506
195	0x3b8ebed1	0.004356243
196	0xbde64f9f	-0.11245655
197	0xbe980335	-0.29689947
198	0xbdf281f5	-0.118411936
199	0xbe4f2f56	-0.20232901
200	0x3deff905	0.117174186
201	0xbd24fdab	-0.04028098
202	0xbd6f4168	-0.058411986
203	0xbe6dbce0	-0.23216581
204	0x3e60f312	0.21967724
205	0xbe711ec0	-0.23546886
206	0x3e497514	0.19673568
207	0xbd22038a	-0.039554156
208	0xbe464aa4	-0.1936441
209	0xbe406db2	-0.18791845
210	0xbbab00d6	-0.0052186055
211	0x3d084f3f	0.0332787
212	0x3e305dc7	0.17223273
213	0x3d160cfc	0.036633477
214	0x3d1bba0e	0.038019232
215	0x3d739ade	0.059473865
216	0xbc027d6f	-0.007964476
217	0xbda66724	-0.08125141
218	0x3e166b70	0.14689422
219	0x3ddaa6dd	0.10676358
220	0xbd469166	-0.048478507
221	0x3d213dc9	0.039365564
222	0x3e2ad8c8	0.16684258
223	0x3e1988b7	0.14993559
224	0xbe1ffd8d	-0.15624066
225	0xbec3225f	-0.3811216
226	0x3dc840d1	0.09777988
227	0x3e663a0c	0.2248308
228	0xbd12d7c4	-0.0358503
229	0xbc06dbde	-0.008231131
230	0xbdfec27b	-0.12439438
231	0xbe0a61ea	-0.13513914
232	0xbe220826	-0.15823421
233	0x3d79087a	0.0607991
234	0x3d793077	0.060837235
235	0x3de6673e	0.11250161
236	0x3e025da9	0.12731041
237	0xbdfda625	-0.12385205
238	0xbe149811	-0.14511134
239	0xbddda959	-0.10823316
240	0xbdd2c449	-0.10291345
241	0x3dbcea64	0.09224394
242	0x3e1221be	0.14270684
243	0xbd3ef416	-0.046619497
244	0x3e855a82	0.26045614
245	0x3c6877af	0.014188691
246	0x3e15ee58	0.14641702
247	0xbe95b88e	-0.29242367
248	0x3d9433fd	0.072364785
249	0x3e7d4a5d	0.24735399
250	0xbd438243	-0.04773165
251	0xbd8f6754	-0.0700213
252	0xbdce7cef	-0.10082423
253	0xbdb99cec	-0.090631336
254	0xbd9ffca4	-0.07811859
255	0xbcbda6e3	-0.023150867

network_body._body_endoder.seq_layers.0.bias f4 [128]
0	0xb98afd7f	-0.0002651028
1	0xba26fadc	-0.00063697784
2	0xbb04a7b3	-0.0020241558
3	0xba61d71d	-0.0008615123
4	0xbab47003	-0.0013766292
5	0xba629947	-0.0008644056
6	0xb8d93b99	-0.00010358467
7	0xbac015fd	-0.001465499
8	0x3a7b01cd	0.00095751585
9	0xbaf51420	-0.0018698014
10	0x3a9a22fc	0.0011759694
11	0xbb1d9669	-0.002404595
12	0xb72d6718	-1.0335607e-05
13	0xba0ecabe	-0.0005447081
14	0x3b6519a0	0.00349579
15	0xba9a309d	-0.0011763755
16	0xbaad7123	-0.001323257
17	0x39a69400	0.00031772256
18	0xba41808d	-0.0007381521
19	0x3a113f8c	0.000554078
20	0xb9128b60	-0.00013975566
21	0xb98a7fd5	-0.00026416653
22	0xb9112be6	-0.00013844631
23	0x3a8ed016	0.0010895755
24	0xb9cd0990	-0.00039107772
25	0xba6b1377	-0.0008967439
26	0xb9b307f3	-0.00034147463
27	0xbab19363	-0.0013547953
28	0x3a4429eb	0.0007483053
29	0xbb00bf1c	-0.001964516
30	0xb80e2fea	-3.390006e-05
31	0x38fe63a5	0.00012130224
32	0x3a50da02	0.0007967056
33	0x3a616c94	0.0008599248
34	0x39bd2be0	0.0003608158
35	0xb9c5353a	-0.00037614425
36	0xb96d9b91	-0.00022660034
37	0xb6543840	-3.1623204e-06
38	0x3a4ce9df	0.0007816832
39	0x3a2d1b82	0.0006603525
40	0xba9b5f92	-0.0011854044
41	0x398852ee	0.0002600173
42	0x3b346732	0.002752733
43	0x3adaa7bd	0.001668207
44	0x3a2b39ea	0.0006531762
45	0x3b17ee94	0.0023182975
46	0x3a36025e	0.0006943102
47	0xba783c42	-0.00094694283
48	0xbb87726e	-0.004133514
49	0xba262931	-0.00063385355
50	0xb9df9b78	-0.00042649708
51	0xb92bf6a5	-0.00016399713
52	0xbb242c67	-0.002505088
53	0xb86fa88f	-5.7139023e-05
54	0xbb14da57	-0.0022713149
55	0xb901b6cf	-0.000123705
56	0x3aeb857d	0.001796886
57	0xbabd2595	-0.0014430756
58	0xba31eb2b	-0.0006787057
59	0x3ab3a27d	0.0013705041
60	0xbac811ff	-0.0015264152
61	0xbaafa9e5	-0.0013402073
62	0x38867aab	6.4124666e-05
63	0x3868cc20	5.5503217e-05
64	0xba943ed7	-0.0011310232
65	0xba786a1d	-0.00094762613
66	0xbaaeebb9	-0.0013345397
67	0xbacf595f	-0.0015819481
68	0x380c8047	3.349807e-05
69	0xba4f1d84	-0.00079008215
70	0xb5b006c0	-1.3114986e-06
71	0xb98a70b4	-0.00026405382
72	0x395fcf70	0.00021344214
73	0x39103a60	0.00013754657
74	0xba1a4beb	-0.00058859464
75	0x38e2fb48	0.000108233246
76	0xb9f4be76	-0.0004668121
77	0x3a8dfb1f	0.0010832286
78	0x3950d658	0.00019916275
79	0x3a5e6a14	0.0008484435
80	0xbae70f62	-0.0017628486
81	0x39b77f38	0.00034999265
82	0xba26a78f	-0.00063573656
83	0xba70bf5e	-0.00091837894
84	0xbb304958	-0.0026899185
85	0x39c0b725	0.00036757547
86	0xba0d447c	-0.0005388928
87	0x3a4ce95b	0.0007816755
88	0x3a102116	0.0005498094
89	0xbae18f3e	-0.0017208827
90	0xb91bcc03	-0.00014857952
91	0x3a11a15b	0.0005555355
92	0xbaae7be3	-0.0013312068
93	0x3a75b9b5	0.0009373681
94	0xba0303ad	-0.0004997801
95	0xb976b444	-0.00023527542
96	0xbaa8f758	-0.0012891097
97	0xbb166471	-0.0022948051
98	0x3adb9ec8	0.0016755695
99	0xb98be997	-0.00026686184
100	0xba52598e	-0.0008024209
101	0xba05588b	-0.00050867413
102	0x3a425727	0.00074134994
103	0xba0d1513	-0.00053818634
104	0xb9c4c182	-0.00037528208
105	0xbb64e70b	-0.0034927751
106	0xbaafd47b	-0.0013414765
107	0x392b7164	0.00016350072
108	0xbb1dadab	-0.0024059813
109	0xba960901	-0.0011446775
110	0x3a807fb7	0.0009803687
111	0xb8f959b6	-0.00011889955
112	0x39fa0d3e	0.00047693582
113	0xb9b2e128	-0.0003411856
114	0x39699dd6	0.0002227941
115	0x3a9f09dd	0.0012133677
116	0xb9e0623a	-0.00042797794
117	0xba67b1f7	-0.00088384695
118	0xb80aaff6	-3.306564e-05
119	0x3a129163	0.00055911223
120	0x3abe9dfd	0.0014542934
121	0x3aa77513	0.001277598
122	0xb9671ede	-0.00022041376
123	0xba3ebaee	-0.00072757795
124	0x3b652d4a	0.0034969621
125	0xb8f9bbbd	-0.00011908214
126	0xbaf86fad	-0.001895418
127	0x3b02ccf3	0.0019958585

network_body._body_endoder.seq_layers.2.weight f4 [128, 128]
0	0xbcd02da9	-0.025412397
1	0x3bdc810f	0.006729252
2	0x3e0a38ef	0.13498281
3	0xbd5d8927	-0.054085877
4	0xbc0ffba8	-0.008788027
5	0x3b28c9c8	0.0025755037
6	0x3dcf4204	0.10120013
7	0x3e1db228	0.15399992
8	0x3da6299d	0.08113406
9	0xbdf716a9	-0.12064869
10	0xbce379c1	-0.027768018
11	0x3e04429a	0.12916031
12	0x3c5f4b09	0.01362873
13	0x3d587a94	0.052851275
14	0x3cd2f004	0.025749214
15	0x3e572881	0.21011545
16	0x3e1cd210	0.15314507
17	0xbd3347e2	-0.043769725
18	0x3e804639	0.25053576
19	0xbd9df078	-0.077118814
20	0x3d94e568	0.07270318
21	0x3d123ea2	0.035704263
22	0x3e3f4cd9	0.18681659
23	0xbe0ea84f	-0.13931392
24	0x3db47fb1	0.08813418
25	0xbdd61b94	-0.10454479
26	0xbd794eda	-0.060866214
27	0x3d692b84	0.056926265
28	0x3d897684	0.06712058
29	0x3d568b46	0.052378915
30	0xbe042795	-0.12905724
31	0x3e0d737e	0.13813588
32	0xbe359bdb	-0.17735235
33	0xbd637bc6	-0.05553796
34	0xbc9e550c	-0.019327663
35	0x3d6dd611	0.058065478
36	0xbe1e6051	-0.1546643
37	0xbda282aa	-0.079350784
38	0xbc9508fb	-0.018192759
39	0xbdc6974e	-0.09696828
40	0x3e1b49ed	0.15164919
41	0x3dfa4d1c	0.12221739
42	0xbddc334f	-0.10751974
43	0x3cc71dd7	0.024306221
44	0xbdefc8bb	-0.11708208
45	0xbbc29ef7	-0.0059393602
46	0xbcafbea4	-0.02145321
47	0xbd97bfc0	-0.0740962
48	0xbda0fa0c	-0.07860193
49	0xbe350c2f	-0.17680429
50	0xbdbd2c29	-0.092369385
51	0xbdd9a4c7	-0.10627132
52	0x3e0cd34b	0.13752477
53	0x3ce13e74	0.0274956
54	0x3c92992c	0.017895304
55	0xbd856d22	-0.06514956
56	0xbc819dff	-0.015822409
57	0xbd20bd85	-0.03924324
58	0xbd187f23	-0.037230622
59	0x3bce16cf	0.00628934
60	0xbd3fcabe	-0.04682421
61	0x3dad5bda	0.08464785
62	0x3d8381fb	0.06421276
63	0xbdc49425	-0.09598569
64	0xbdd9a8b5	-0.106278814
65	0x3dcfca01	0.10145951
66	0x3df21675	0.118206896
67	0x3dba80b4	0.091065794
68	0xbd68bb54	-0.056819275
69	0x3dcd30b7	0.10019057
70	0x3d5f0bd5	0.054454643
71	0xbc9f175b	-0.019420316
72	0x3d154f19	0.036452387
73	0xbbae796a	-0.0053245323
74	0x3d5c86ad	0.053839374
75	0x3dec396f	0.11534392
76	0xbd22fe47	-0.03979328
77	0xb900d858	-0.00012287626
78	0x3d18861f	0.037237283
79	0x3d16f459	0.03685412
80	0xbe16c6b2	-0.14724234
81	0x3e117214	0.14203674
82	0xbdf61361	-0.12015415
83	0xbd9f705c	-0.07785103
84	0x3d700b69	0.05860463
85	0x3e3d1277	0.18464075
86	0xbdc7613d	-0.097353436
87	0x3d2678ac	0.040642425
88	0x3d142f4f	0.03617793
89	0x3d3c7753	0.046012234
90	0xbdb8d110	-0.090242505
91	0x3dde2948	0.108477175
92	0x3dc9bd59	0.09850568
93	0xbd0a2593	-0.03372724
94	0x3df996dd	0.12186978
95	0xbd16b814	-0.036796644
96	0x3d3fdcd2	0.04684145
97	0x3c918e74	0.017768122
98	0xbddac6f5	-0.10682479
99	0xbc302e8b	-0.010753284
100	0x3d82d938	0.063890874
101	0xbd4184a1	-0.047245625
102	0xbe09ec40	-0.13469028
103	0x3d7b9103	0.06141759
104	0xbdc8b18e	-0.09799491
105	0xbd6c18d7	-0.057640877
106	0xbc727511	-0.014798419
107	0x3cbeb557	0.023279829
108	0xbe608ad0	-0.21927953
109	0xbc6e7040	-0.01455313
110	0x3c644cc8	0.013934322
111	0xbc914981	-0.017735245
112	0x3cb09faf	0.021560518
113	0x3e0b17dc	0.1358332
114	0x3d89b5f8	0.06724161
115	0x3c9115f9	0.017710673
116	0xbceb6417	-0.02873425
117	0xbde7e811	-0.1132356
118	0xbd025ce7	-0.03182688
119	0x3d70e3e6	0.05881109
120	0xbd292f5d	-0.041304935
121	0xbd5169c3	-0.051126253
122	0xbdb4b7e2	-0.08824135
123	0xbde499dc	-0.11162159
124	0xbdca9a0b	-0.098926626
125	0x3e0704a0	0.13185358
126	0x3c90a0f1	0.017654868
127	0x3dd4262a	0.10358842
128	0x3d3a2bee	0.04545205
129	0x3e10f06d	0.14154215
130	0x3c2bf10f	0.010494485
131	0xbd243828	-0.040092617
132	0x3e0ee0bb	0.13952915
133	0xbe121846	-0.14267072
134	0x3d6c73bc	0.05772756
135	0xbe017bb5	-0.12644847
136	0x3c94915d	0.01813572
137	0xbd8912af	-0.06693017
138	0xbd29574d	-0.041343022
139	0x3dbc449e	0.09192775
140	0x3d587c08	0.05285266
141	0x3df4ccc5	0.11953119
142	0xbcf5c41e	-0.030000743
143	0x3d858dec	0.0652121
144	0x3d2de1c6	0.042451642
145	0x3db5d956	0.08879344
146	0xbd890247	-0.066898875
147	0x3df29355	0.118445076
148	0x3d16990e	0.036767058
149	0x3d114bc3	0.035472643
150	0x3dc97fd3	0.09838834
151	0x3dc57389	0.09641177
152	0xbc45071e	-0.012025623
153	0xbd1cfaf1	-0.038325254
154	0x3e3a49f6	0.18192276
155	0x3db0cca5	0.08632783
156	0x3d1297a4	0.035789147
157	0x3d188d20	0.037243962
158	0xbd453e1b	-0.04815493
159	0x3d61ca29	0.055124436
160	0xbba7889c	-0.0051127207
161	0xbd9f24dc	-0.07770702
162	0xbdef9050	-0.11697447
163	0x3cb057a3	0.021526163
164	0x3d806ac7	0.06270366
165	0x3e07ed6b	0.13274162
166	0x3d231c41	0.039821867
167	0xbd1edbf5	-0.038783986
168	0x3d13cb87	0.03608277
169	0xbd943ae0	-0.07237792
170	0xbba44c44	-0.0050139744
171	0xbca9f0b2	-0.020744655
172	0x3bf2547b	0.0073953248
173	0x3d9f33af	0.0777353
174	0xbd3ecfe6	-0.046584986
175	0x3d85ed0f	0.06539356
176	0xbc9f80d9	-0.019470619
177	0x3bc0bdb3	0.005881989
178	0xbe3c0251	-0.18360259
179	0x3d9e9ccb	0.0774475
180	0x3dca9d1d	0.09893248
181	0x3d11f741	0.03563619
182	0x3bae6090	0.0053215697
183	0xbdf7be65	-0.12096862
184	0xbe2f146f	-0.17097639
185	0x3e749afd	0.23887248
186	0x3de28abb	0.11061617
187	0x3d10de15	0.035368044
188	0x3d3d5347	0.046221998
189	0x3e12289b	0.14273302
190	0xbe027b8e	-0.12742445
191	0xbe0ccd56	-0.13750204
192	0x3d7ff8c9	0.06249312
193	0x3d9810b0	0.07425058
194	0xbd418179	-0.047242615
195	0x3dc1ae0c	0.09457025
196	0x3cb18678	0.021670565
197	0x3e329b96	0.17442164
198	0x3dc33db5	0.09533254
199	0xbdc7bc4f	-0.09752714
200	0xbdfce183	-0.123477004
201	0xbd56d59f	-0.05244982
202	0x3d336032	0.04379291
203	0x3bf14969	0.0073634875
204	0x3e4aa406	0.19789132
205	0x3c8cebcd	0.017202282
206	0x3d48ed98	0.049054712
207	0x3e161a5f	0.14658497
208	0x3dc08fdd	0.0940244
209	0xbbcce85a	-0.0062532844
210	0xbe08d106	-0.13360986
211	0x3e3da0ec	0.18518418
212	0x3e16965d	0.14705797
213	0x3db8973f	0.09013223
214	0xbe0716fd	-0.13192363
215	0x3c68fe64	0.014220808
216	0xbc304725	-0.01075915
217	0x3e805942	0.25068098
218	0xbe17f6aa	-0.14840189
219	0xbc43c891	-0.011949674
220	0xbd477ea6	-0.048704766
221	0xbd7cf043	-0.06175257
222	0x3dcdad4b	0.10042819
223	0xbc25909e	-0.01010528
224	0x3e1b3390	0.15156388
225	0xbd93478a	-0.07191379
226	0x3e0cbb70	0.13743377
227	0x3c947f2a	0.018127043
228	0x3d54ee2b	0.051984947
229	0x3dec13e1	0.11527229
230	0xbd9440d3	-0.07238927
231	0xbbc05931	-0.0058700074
232	0x3d88c446	0.06678061
233	0x3dc71da9	0.09722454
234	0xbe0900e3	-0.13379245
235	0x3b573d11	0.0032842795
236	0x3df081e3	0.11743524
237	0x3c1423b3	0.0090417145
238	0x3e27b47b	0.16377442
239	0x3dc7ad53	0.09749856
240	0x3dd5544c	0.10416469
241	0x3cf7d112	0.03025106
242	0x3d217a68	0.039423376
243	0xbe0de6f2	-0.1385763
244	0x3cf32186	0.029679071
245	0xbe443134	-0.19159395
246	0xbe0a2358	-0.13490045
247	0xbdb3f074	-0.08786097
248	0x3cce06d6	0.025149744
249	0xbdd4b0a4	-0.10385254
250	0xbdb5e84f	-0.088822
251	0x3b48e8cc	0.0030656336
252	0xbde1c667	-0.1102417
253	0xbcaf46eb	-0.021396121
254	0x3cfde73f	0.030994056
255	0xba7c5b8b	-0.0009626678

network_body._body_endoder.seq_layers.2.bias f4 [128]
0	0xba2f5576	-0.0006688455
1	0xba2e1e70	-0.0006642109
2	0x39e21153	0.00043118987
3	0xb97424dc	-0.00023283385
4	0xba13aa05	-0.000563294
5	0xbb6f7acf	-0.0036541705
6	0xbaaee1e9	-0.0013342473
7	0xbacd431e	-0.0015660261
8	0xbb2e54e0	-0.0026600882
9	0x39c60360	0.00037768018
10	0xba8199d6	-0.0009887766
11	0x39668744	0.000219849
12	0xba666ed7	-0.000879032
13	0x39de7727	0.00042431915
14	0x3a9af40d	0.0011822
15	0xb8d50334	-0.00010157228
16	0x3a772b65	0.00094287685
17	0xbaeb40aa	-0.0017948349
18	0xba509401	-0.00079566246
19	0x399371b6	0.00028122746
20	0xbb6dde87	-0.0036295967
21	0x3a497df8	0.00076863123
22	0xba7c5a53	-0.00096264965
23	0xba6dd8dc	-0.0009073147
24	0x39952065	0.0002844363
25	0x3a50b215	0.00079611066
26	0xbaa8cb2f	-0.0012877936
27	0x39d71aca	0.00041027955
28	0xba0dafd0	-0.0005404921
29	0xbaa6d547	-0.0012728357
30	0xb9cab40c	-0.00038662588
31	0x38bea681	9.09092e-05
32	0xbadac0cb	-0.0016689537
33	0xb8c45420	-9.361678e-05
34	0x3a3cec19	0.0007206812
35	0x3a83a8a6	0.0010044768
36	0xbae043a7	-0.0017110006
37	0xb82f2a3f	-4.1762596e-05
38	0xbbbac804	-0.0057001133
39	0xb8ff993f	-0.00012187892
40	0xba2fe6c1	-0.0006710105
41	0xba8c527c	-0.0010705735
42	0xb9d3b662	-0.00040380942
43	0xb9090246	-0.00013066185
44	0xba857cb0	-0.0010184254
45	0x3a80bcd6	0.0009821902
46	0x39374dcd	0.00017481223
47	0xb98cb625	-0.0002683859
48	0x39e44d96	0.00043545355
49	0xbac44db6	-0.0014976773
50	0x3a5059d3	0.0007947955
51	0xbaf23599	-0.0018479108
52	0xba4ea45e	-0.0007882769
53	0xbaa4bec2	-0.0012569057
54	0x38e01e3e	0.000106867854
55	0x3a6bad80	0.0008990392
56	0x3963bf56	0.00021719685
57	0x39c7f347	0.00038137494
58	0xba57c132	-0.00082303875
59	0xba20e1b2	-0.0006137147
60	0xb90b540c	-0.00013287383
61	0xba9e8a13	-0.0012095593
62	0xba7a4b70	-0.0009547984
63	0xbacf614e	-0.0015821846
64	0xbaeb535e	-0.0017953923
65	0xb9215c7b	-0.00015388608
66	0x3a8a0a39	0.0010531611
67	0x3aacdbdf	0.0013188085
68	0x3a20dade	0.00061361294
69	0xba928f52	-0.0011181629
70	0x3a603b17	0.0008553727
71	0xba1b49d2	-0.0005923781
72	0xb9b8b3f8	-0.00035229302
73	0xba06ef9c	-0.0005147399
74	0x3abe1a56	0.0014503698
75	0x3b382e00	0.002810359
76	0xb9aa0f26	-0.00032436213
77	0xbaa7a7ea	-0.0012791131
78	0xba211a04	-0.0006145539
79	0x3ac8722a	0.0015292813
80	0xbb702407	-0.0036642568
81	0xbae0337a	-0.0017105185
82	0x3a88173a	0.0010382899
83	0xbaf019d0	-0.001831824
84	0x3a8410ef	0.0010075847
85	0xbaec81f5	-0.0018044101
86	0x3b143ae8	0.0022618119
87	0x3a06618b	0.00051262294
88	0x3853253a	5.034099e-05
89	0xba5865f4	-0.00082549383
90	0xb9c94368	-0.0003838793
91	0x3a09106f	0.0005228584
92	0xba8784b3	-0.001033923
93	0xbac42ff5	-0.0014967906
94	0x3b0ac5e7	0.0021175088
95	0xba4f7c39	-0.0007914934
96	0x3c04519c	0.008076098
97	0x3b083764	0.0020784969
98	0xb90d135c	-0.0001345402
99	0xbac6ffbc	-0.0015182416
100	0x3a21e020	0.000617506
101	0xbada2b52	-0.001664499
102	0x3985271a	0.0002539687
103	0xbb653377	-0.0034973302
104	0xbad72b3e	-0.0016416085
105	0xbb7f5920	-0.0038963035
106	0x3a1c280a	0.0005956894
107	0x394f55da	0.0001977304
108	0x39f7d4b1	0.0004726998
109	0xba645f64	-0.0008711724
110	0x399b767f	0.0002965219
111	0xba2ce7ad	-0.00065958017
112	0x3b71b74e	0.003688294
113	0x3b2f7eef	0.002677854
114	0xbb3e818d	-0.0029068918
115	0x39f8dc1b	0.00047466237
116	0xba0626e6	-0.00051174907
117	0x3b8a05c3	0.0042121126
118	0xba889302	-0.0010419788
119	0x3a214e11	0.00061532954
120	0x3bc154dd	0.005900009
121	0x3abfea55	0.001464198
122	0xbb0f114a	-0.0021830373
123	0xbab61ce4	-0.0013894108
124	0xba8406d3	-0.0010072835
125	0x3a2e0967	0.00066389743
126	0xb9a175ae	-0.0003079599
127	0x391b30b1	0.00014800091

action_model._continuous_distribution.log_sigma f4 [1, 3]
0	0xba420826	-0.0007401727
1	0xbae0af94	-0.001714217
2	0x3bb80b6a	0.005616595

action_model._continuous_distribution.mu.weight f4 [3, 128]
0	0xbcaf7f34	-0.02142296
1	0x3cc6ff75	0.024291733
2	0x3d46748e	0.048451
3	0x3cd768fa	0.026295174
4	0x3c0724ce	0.008248521
5	0xbc4592a9	-0.012058892
6	0xbc972dbd	-0.018454427
7	0xbc24615e	-0.01003298
8	0xbb6d7493	-0.0036232814
9	0x3cf4b0f6	0.029869538
10	0xbcc7f854	-0.024410404
11	0xbcb1f5b8	-0.021723613
12	0x3c814738	0.01578103
13	0xbd151bd0	-0.036403477
14	0x3d030196	0.031983934
15	0x3d11df3d	0.035613287
16	0x3cf234ae	0.029566135
17	0xbbcfe285	-0.006344142
18	0xbc513f91	-0.012771503
19	0x3c5e1512	0.013554828
20	0x3b151341	0.0022747072
21	0x3c9f9fe3	0.01948542
22	0xbc0100e2	-0.007873746
23	0x3ab6ae74	0.0013937489
24	0xbc9ed4c7	-0.01938857
25	0x3d1faecb	0.038985055
26	0xbc3c4844	-0.011491839
27	0xbc08eb24	-0.008356843
28	0xbd04e71f	-0.032446977
29	0x3ac593f1	0.0015073997
30	0x3b3040d7	0.0026894116
31	0xbb5f6b8d	-0.0034091205
32	0xbc9286ae	-0.017886486
33	0x3c69b937	0.01426535
34	0x3c2df2b0	0.010616943
35	0x3cf19d15	0.029493848
36	0xbc7cd10b	-0.015430699
37	0xbbfb4b03	-0.007668854
38	0x3b09da33	0.0021034598
39	0x3cb63471	0.022241803
40	0x3cfa7b38	0.030576333
41	0xbd012bfe	-0.031536095
42	0x3ad68386	0.0016366101
43	0xbc2d8592	-0.010590928
44	0xbc276f3a	-0.01021939
45	0xbc9d0491	-0.019167216
46	0xbc60711d	-0.013698843
47	0xbc192866	-0.009348011
48	0xbc0ca61e	-0.008584527
49	0xbb97d682	-0.0046337256
50	0xbccd46e9	-0.025058227
51	0xbb499f40	-0.0030765086
52	0xbab3d1dc	-0.0013719159
53	0x3aa0b3db	0.0012260632
54	0x3bd08170	0.0063630864
55	0xbcabfc09	-0.020994203
56	0x3c61fab9	0.013792687
57	0x3c8b0110	0.01696828
58	0x3ce02c43	0.027364856
59	0xb973b1ac	-0.00023240474
60	0xbcb755f6	-0.022379857
61	0x3c9514b1	0.018198343
62	0x3c45bb48	0.012068577
63	0x38b7b599	8.759945e-05
64	0x3a20149a	0.00061065855
65	0x3bb41e0a	0.005496745
66	0xbbee5f9c	-0.007274581
67	0xbc4e52c8	-0.012592979
68	0x3cb40f97	0.02198009
69	0xbcb136cf	-0.02163258
70	0x3b636d75	0.0034702693
71	0xbd4c4809	-0.049873386
72	0x3c3278b7	0.0108930385
73	0x3c1389e0	0.00900504
74	0x3c2cc8e8	0.010545947
75	0x3b40165a	0.0029310198
76	0x3bc21f74	0.0059241597
77	0x3c0189dd	0.007906404
78	0xbca3d3f9	-0.019998537
79	0x3c319f07	0.010841138
80	0xbb3188c5	-0.0027089578
81	0xbbbd5e23	-0.0057790442
82	0xbb34e336	-0.0027601249
83	0x3b35d2e3	0.0027744106
84	0xbc50948e	-0.012730731
85	0xbcb870c5	-0.02251471
86	0x3c503e16	0.012710115
87	0x3bceb8bc	0.006308643
88	0xbcd0d1a7	-0.025490595
89	0x3c9006c8	0.017581359
90	0x3d1680f8	0.036744088
91	0xbbc48139	-0.00599685
92	0x3b6ee287	0.0036450939
93	0xbcd78aaf	-0.026311247
94	0xbac4cc81	-0.001501456
95	0x3ca2e22a	0.019883234
96	0x3c5d0ba3	0.013491544
97	0xbbc7cb7b	-0.006097255
98	0x3cdce432	0.02696428
99	0xbb38311e	-0.0028105448
100	0xbcc0e1d8	-0.02354519
101	0x3cbd995e	0.02314442
102	0x3c81b47c	0.015833132
103	0xbb0cb496	-0.0021469942
104	0xbbc8e02e	-0.00613024
105	0x3c072b2c	0.008250039
106	0x3bb642ec	0.005562177
107	0x3b40f20b	0.0029441144
108	0x3ceda043	0.029007083
109	0xbc230c13	-0.009951609
110	0xbcbcf6e9	-0.023066955
111	0xbc46b1fb	-0.012127395
112	0x3d0ae471	0.033909265
113	0x3c4e971e	0.012609271
114	0xbcc508e5	-0.024052093
115	0x3c8ce24e	0.017197754
116	0xbc6301df	-0.013855427
117	0xbb2e3f99	-0.00265882
118	0x3c24b47c	0.010052796
119	0xbbd45dad	-0.0064808936
120	0x3b0b4a10	0.0021253861
121	0x3ce37ec2	0.027770404
122	0x3b5f0469	0.0034029728
123	0xbc22644d	-0.009911609
124	0xbcd7ac51	-0.026327284
125	0x3b2a2e37	0.0025967488
126	0xbcea6e78	-0.028617129
127	0x3c9c2ada	0.019063402
128	0xbc067353	-0.008206206
129	0x3ccaf96c	0.024777137
130	0x3d189ac8	0.037256986
131	0x3d264afa	0.040598847
132	0x3c605d14	0.013694067
133	0x3a81a57e	0.000989124
134	0x3c85a0ec	0.016312085
135	0xbc6fa218	-0.0146260485
136	0xbc9524f6	-0.0182061
137	0x3adc1c35	0.0016793074
138	0x3c8094e3	0.015695995
139	0x3bf217df	0.0073880996
140	0xbb59a180	-0.0033207834
141	0x3ba255a5	0.0049540573
142	0xbd030f8d	-0.031997252
143	0xbcb8b3c0	-0.022546649
144	0xbcaed5aa	-0.021342117
145	0xbc90fd15	-0.017698804
146	0xbbbd4d69	-0.0057770503
147	0x3b4c680c	0.0031189946
148	0xbbde2e30	-0.0067804083
149	0x3ca848a2	0.020542447
150	0xbb9c28dd	-0.0047656135
151	0x3ba2609f	0.004955366
152	0x3c59f615	0.013303299
153	0x3c15aa6a	0.009134868
154	0xbbf937a7	-0.007605511
155	0x3cb905ce	0.022585776
156	0x3b7f756a	0.0038979896
157	0x3c8d3f4e	0.0172421
158	0x3ac7c4ef	0.0015241186
159	0x3ca9b525	0.02071626
160	0xbc3a0f9c	-0.011356261
161	0x3b807b98	0.0039209835
162	0x3ca031ab	0.019554934
163	0xbc9aa626	-0.018878054
164	0x3ab195c9	0.0013548668
165	0xbaf82660	-0.0018932335
166	0xbcc8085e	-0.024418052
167	0xbbc90629	-0.0061347676
168	0x3b2bf9d1	0.0026241431
169	0xbc629411	-0.013829247
170	0x3a7e6a13	0.00097051373
171	0xbc84e8dd	-0.01622432
172	0xbbb1453f	-0.005409866
173	0x3b88125a	0.0041525783
174	0xbc419b1b	-0.011816765
175	0x3b8981e8	0.0041963942
176	0x3d084f8f	0.033278998
177	0xbcc3057f	-0.023806332
178	0x3d3574e7	0.04430094
179	0xbc4f9143	-0.01266891
180	0xbc9ef264	-0.01940269
181	0xbc6cc530	-0.01445131
182	0xbbdeacf2	-0.006795519
183	0x3c7fb193	0.015606302
184	0xbb43fc41	-0.0029904994
185	0x3bb9bb54	0.005668083
186	0xbc233b37	-0.009962848
187	0x3ce0d3c7	0.027444733
188	0xbccb2bd1	-0.024801167
189	0x3bfac635	0.0076530227
190	0xbcc8bc12	-0.024503741
191	0x3d055225	0.032549042
192	0x39dea8ad	0.00042468813
193	0x3c00a084	0.00785077
194	0xbc979397	-0.018502994
195	0x3d0fd786	0.03511765
196	0xbcde5d10	-0.027143985
197	0x3ab138e4	0.0013520983
198	0x3cbf348d	0.023340488
199	0xbc2eec4c	-0.010676455
200	0x3c5e1426	0.013554608
201	0xbaf12f72	-0.0018400981
202	0x3d02eb06	0.031962417
203	0xbc1325c1	-0.008981169
204	0x3a97dd2a	0.0011586298
205	0xbbc18dce	-0.005906797
206	0x3cbabb8f	0.022794513
207	0x3bcf71c5	0.006330701
208	0x3b4a165a	0.0030836076
209	0xbc8be937	-0.017078979
210	0x3c1a7f1f	0.009429722
211	0xbbf6a2a2	-0.0075267116
212	0x3c073679	0.008252733
213	0x3ab88895	0.001407879
214	0x3cfc22a6	0.03077824
215	0x3c0465b5	0.0080808895
216	0x3cdb409c	0.026764207
217	0xbc0b2450	-0.008492544
218	0x39c9b8b9	0.00038475337
219	0xbcf40652	-0.02978817
220	0xbcc75abb	-0.024335256
221	0xbc193887	-0.009351856
222	0xbbece089	-0.007228915
223	0x3ca49c6b	0.020094117
224	0x3c8bad63	0.01705045
225	0x3bd69e40	0.0065496266
226	0xbc452914	-0.01203372
227	0xbcd42748	-0.025897637
228	0xbc747e45	-0.014922683
229	0x3b7cddc8	0.003858434
230	0x3c243d1c	0.010024335
231	0xbbdb2e46	-0.006688866
232	0xbc7b7448	-0.015347548
233	0xbd27a26a	-0.040926374
234	0x3aebe2d4	0.0017996677
235	0x3a07d29e	0.0005181226
236	0x3cb7b6c1	0.022426011
237	0x3be70938	0.0070506595
238	0x3ce04957	0.027378721
239	0x3cf8150a	0.03028347
240	0xbce64087	-0.02810694
241	0x3ccab7fd	0.024745936
242	0xbc81689b	-0.01579695
243	0xbbcc4817	-0.0062341797
244	0xbcc6a5a7	-0.024248911
245	0x3cf38fa5	0.029731581
246	0xbd18eb8b	-0.037334006
247	0xbc57cc3b	-0.013171251
248	0x3c89f152	0.016838703
249	0x3d00eac7	0.0314739
250	0xbc8283ae	-0.01593193
251	0xbd2d355d	-0.04228722
252	0xbc97d7fc	-0.018535607
253	0x3d087b4f	0.03332072
254	0xbd0590b8	-0.032608718
255	0x3c92e350	0.017930657

action_model._continuous_distribution.mu.bias f4 [3]
0	0x39f58258	0.00046827155
1	0x3a3b0aa4	0.00071350695
2	0x39789fc6	0.00023710643

action_model._discrete_distribution.branches.0.weight f4 [2, 128]
0	0x3b758a8b	0.0037466611
1	0xbb937ad9	-0.0045007286
2	0xbba207a9	-0.004944761
3	0x39bcd367	0.0003601566
4	0x3bc65ae1	0.006053314
5	0xbb4c5843	-0.0031180538
6	0xbbe42e33	-0.006963515
7	0x3b092128	0.0020924304
8	0x3ba7b86c	0.0051184203
9	0xbb52ae7b	-0.0032147455
10	0x395df423	0.0002116715
11	0x39ec9337	0.0004512311
12	0xbbec090b	-0.0072032264
13	0x3c5ddb29	0.013541021
14	0x3b84b50f	0.004049904
15	0x3b0be31c	0.0021345085
16	0x3bae74c0	0.0053239763
17	0xbba17f1b	-0.004928482
18	0x3a46670e	0.0007568457
19	0x3c06b2da	0.0082213525
20	0xbc6d5f6f	-0.014488085
21	0xbc27eaf4	-0.010248888
22	0xbac0601f	-0.0014677084
23	0xba3f1dab	-0.00072904926
24	0xbc8edabf	-0.01743829
25	0x3c88d3ce	0.016702559
26	0xbb1f1c1c	-0.002427823
27	0xbc089199	-0.008335494
28	0x3b23ae10	0.0024975576
29	0xbbe6f39a	-0.0070480825
30	0x3b2674f7	0.0025399306
31	0x3b6581e0	0.0035020038
32	0x3ba1527b	0.0049231625
33	0x3cb96ec8	0.022635832
34	0x3ba47f66	0.00502007
35	0xbbd2b207	-0.006429914
36	0xbc3a3674	-0.011365522
37	0xbb0614f9	-0.0020459278
38	0x3cc29e15	0.02375702
39	0x3c20b8c1	0.009809674
40	0x3bccc9c8	0.00624964
41	0x39836cb9	0.00025067272
42	0xbc18ec2a	-0.00933365
43	0xbbb3995d	-0.005480929
44	0x382eb8d4	4.1656967e-05
45	0x3c4b2cc2	0.012400808
46	0x3b31da64	0.0027138228
47	0xbc3ec7a9	-0.011644282
48	0xbb744371	-0.0037271644
49	0xba772d26	-0.000942903
50	0xbbbeb093	-0.005819389
51	0xbb126587	-0.0022338347
52	0x3b17a5f2	0.0023139683
53	0xbc758ef0	-0.014987692
54	0x3c082b74	0.008311141
55	0xbc76a1b8	-0.015053205
56	0xbbf7af5a	-0.0075587453
57	0x3b3472f4	0.0027534338
58	0xbc493fc4	-0.012283269
59	0x3c1e0aea	0.009646157
60	0x3c58b38b	0.0132264
61	0xbbe6cd84	-0.0070435423
62	0xbb253747	-0.002520995
63	0x39e7b32a	0.0004419324
64	0x3c624d21	0.013812334
65	0xbc590a8a	-0.013247142
66	0x3bcadfce	0.0061912304
67	0x39cc66d4	0.00038986525
68	0x3b242288	0.0025044996
69	0xbb1f28f9	-0.0024285896
70	0x3cc329c1	0.02382362
71	0xbc133e44	-0.008987013
72	0x3c432f39	0.011913114
73	0xba3e9824	-0.00072705955
74	0xbb8d9d00	-0.0043216944
75	0x3c3adfb8	0.011405878
76	0x3cc8de35	0.02452002
77	0x3b683612	0.003543262
78	0xbc05ff0b	-0.008178483
79	0xbc1be425	-0.009514843
80	0xbc4f3f83	-0.01264942
81	0xbabce771	-0.0014412237
82	0xbbdf8f9d	-0.00682254
83	0xbc0da36d	-0.008644921
84	0x3c2b3154	0.010448772
85	0xbcd7a633	-0.026324367
86	0xbb2c0612	-0.0026248735
87	0xbb9f7cd5	-0.004867176
88	0xbac61077	-0.0015111108
89	0xbaf8b3be	-0.0018974466
90	0xbb6f93f4	-0.0036556693
91	0x3c39296c	0.01130138
92	0xbc444be8	-0.011980988
93	0xbc0592d5	-0.008152683
94	0x3cbc1b39	0.0229622
95	0xbbeb7eaf	-0.0071867327
96	0x3b5fcad1	0.0034147988
97	0xbc3951cb	-0.011311005
98	0x3b771468	0.0037701372
99	0x3a1979bd	0.0005854627
100	0xbb64d159	-0.003491482
101	0x3b1c2ec0	0.0023831576
102	0xbc321d9f	-0.01087132
103	0x3c12589d	0.00893226
104	0xbc11e4f8	-0.008904688
105	0x3b2f9445	0.0026791256
106	0x3cabf07a	0.020988692
107	0x3c8483ef	0.016176192
108	0x3c721d89	0.01477755
109	0xbc046af8	-0.008082144
110	0x3b4fed73	0.0031727224
111	0xbbb56829	-0.0055360985
112	0x3cb02e48	0.021506444
113	0x3c563f7c	0.013076659
114	0x3a7edf93	0.0009722646
115	0xbbb1440e	-0.005409724
116	0x3c19fa6b	0.009398083
117	0x3c980d4b	0.018561026
118	0x3b2cadf1	0.0026348794
119	0x3c925dc7	0.017866982
120	0xbc562db3	-0.013072419
121	0xbaf5d89b	-0.001875657
122	0xbba955a4	-0.00516768
123	0xba434555	-0.0007448991
124	0x3b56dac0	0.0032784194
125	0x3ac49666	0.0014998436
126	0xbc2d7bd9	-0.01058861
127	0x3b57cc64	0.0032928223
128	0x3b5a64c2	0.0033324216
129	0x3cac5aad	0.021039331
130	0xbbb9bf70	-0.005668573
131	0x3c05315e	0.008129446
132	0x3be30bb1	0.006928884
133	0x3c7693d1	0.015049891
134	0x3b7b6cdc	0.0038364446
135	0x3b81115d	0.0039388374
136	0xbbc53f4a	-0.0060195075
137	0xba81ed0c	-0.0009912564
138	0x3b9f98be	0.004870503
139	0xbc173b4c	-0.009230446
140	0x3c2fb155	0.010723432
141	0xbad86afa	-0.0016511374
142	0xbba4d0c4	-0.0050297696
143	0xbc011378	-0.007878177
144	0xbc778fe9	-0.015109994
145	0x3b2c6096	0.0026302687
146	0xbbec35d6	-0.007208566
147	0x3c11bcd0	0.008895114
148	0xb8d3ebc2	-0.00010105177
149	0xbc77ad6f	-0.015117033
150	0xbb4265f4	-0.002966282
151	0x3b697186	0.0035620644
152	0xbbdf1168	-0.006807495
153	0xba189d2e	-0.00058217614
154	0x3c21c169	0.009872773
155	0x3b96e8a7	0.004605371
156	0xbabe2aef	-0.0014508645
157	0x3aefe66c	0.0018302924
158	0xbad0f3fe	-0.0015941856
159	0xbc961485	-0.018320331
160	0xbb50acf0	-0.003184136
161	0x3c7471f8	0.01491975
162	0xbbfe8a12	-0.007767924
163	0xbc566758	-0.0130861625
164	0x3c04a749	0.0080965245
165	0xbc378fc1	-0.011203707
166	0x3c84596b	0.016155919
167	0xbb0b8d67	-0.0021294
168	0x39c45896	0.00037450035
169	0x3c4f5e7e	0.012656806
170	0xbc206698	-0.009790085
171	0xbbe4d9c6	-0.0069839684
172	0x3c2f07af	0.010682984
173	0xbade5b0b	-0.0016964389
174	0xbaf28196	-0.0018501754
175	0xba5d7929	-0.0008448535
176	0x3aabede1	0.0013117158
177	0xba8591a1	-0.0010190496
178	0x3c3481e6	0.011017298
179	0xbba9f652	-0.0051868344
180	0x3c0cee7a	0.008601779
181	0x3bf063bd	0.0073361085
182	0xbb19bca5	-0.0023458388
183	0xbb834a0d	-0.0040066303
184	0x3add3073	0.0016875401
185	0x3bebaf2a	0.007192512
186	0x3c269193	0.010166544
187	0xbc10b8aa	-0.00883309
188	0xbb4da22a	-0.0031377175
189	0x3bf00be1	0.007325635
190	0xbbe5d360	-0.0070137233
191	0xbba8c01f	-0.0051498557
192	0x3c5c9be7	0.013464904
193	0x3c5ca53a	0.013467127
194	0xbc6d7302	-0.014492752
195	0xbbe6e734	-0.0070466045
196	0xba5c71c9	-0.00084092893
197	0xbb3a8d42	-0.0028465544
198	0x3c18aeba	0.009319002
199	0x3c16f98c	0.00921477
200	0x3c06b7fe	0.008222578
201	0x3b8ee509	0.004360799
202	0xbbe569af	-0.007001124
203	0xbc484e73	-0.012225735
204	0x3c3c109d	0.01147857
205	0xbc15bf7d	-0.009139893
206	0x39bbe6e9	0.0003583946
207	0x3c548965	0.0129722105
208	0x3ac3ff63	0.001495343
209	0xbb993114	-0.00467504
210	0xbbb46bda	-0.005506021
211	0xbb730e44	-0.003708736
212	0xbb75c7bb	-0.0037503082
213	0xbc85d39e	-0.016336259
214	0x3ca494c4	0.020090468
215	0xba16988d	-0.0005744778
216	0xbb664bb7	-0.0035140344
217	0x3c958b40	0.018254876
218	0x3acdfc33	0.001571542
219	0xbc358f45	-0.011081521
220	0xb9b0783f	-0.00033658926
221	0x3c12bc32	0.008956002
222	0xbc2f35e0	-0.010693997
223	0x3c028382	0.007965924
224	0x3b928ffd	0.004472731
225	0xbbacfd45	-0.0052792155
226	0xbb8a93b3	-0.004229033
227	0x3cc398fc	0.02387666
228	0xbb0d7da1	-0.0021589773
229	0xba8d13d7	-0.0010763359
230	0x3c566e24	0.013087783
231	0x3b1dd56c	0.0024083508
232	0x3c240fbd	0.010013518
233	0x3bb011a0	0.005373195
234	0x3c9490c0	0.018135428
235	0xbc231ce6	-0.00995562
236	0xbbbd8a98	-0.005784344
237	0x3bbb60e2	0.0057183364
238	0x3c17ce86	0.009265548
239	0x3c699e4a	0.01425893
240	0x3a88c91d	0.0010435913
241	0xbc954e22	-0.018225733
242	0x3b245515	0.0025075127
243	0xbc5e9c04	-0.013587002
244	0x39fbb0f2	0.00048006285
245	0x3c3d4e81	0.011554361
246	0xbc548553	-0.01297124
247	0x3c45d7a7	0.012075341
248	0x3bc75de6	0.0060841916
249	0xbc3b1b7c	-0.011420127
250	0x3c04d8ad	0.0081083
251	0x3c183187	0.009289152
252	0x3bb2b670	0.005453877
253	0x3b1e639f	0.0024168266
254	0xbb13d98f	-0.0022560095
255	0xbc5f12f7	-0.013615361

action_model._discrete_distribution.branches.0.bias f4 [2]
0	0x3b349681	0.0027555528
1	0xbb34967f	-0.0027555523

exp_avg f4 [128, 47]
0	0xb703f907	-7.86619e-06
1	0xb5580440	-8.0472455e-07
2	0xb4bd17a0	-3.5221183e-07
3	0x36badce6	5.568948e-06
4	0x35b97b6c	1.3819495e-06
5	0xb6a2b5c7	-4.849138e-06
6	0x37234019	9.730481e-06
7	0x34e9128c	4.3413127e-07
8	0xb6f2cba2	-7.235868e-06
9	0xb6c387c2	-5.827257e-06
10	0x3682180a	3.8771004e-06
11	0xb6ffe81d	-7.6266138e-06
12	0x36f4c828	7.295068e-06
13	0xb6e5072e	-6.8255677e-06
14	0xb68f93e8	-4.2789507e-06
15	0x3682c47a	3.897175e-06
16	0xb7029642	-7.783588e-06
17	0xb5a14c44	-1.2017631e-06
18	0x360be75f	2.084729e-06
19	0x35dadab6	1.6305919e-06
20	0x369d4770	4.687281e-06
21	0x35f75132	1.8426565e-06
22	0xb75981e5	-1.2964451e-05
23	0x3648eb07	2.9939126e-06
24	0x3697e202	4.5264615e-06
25	0x357a68aa	9.3284564e-07
26	0x34914700	2.7060014e-07
27	0xb6f179cd	-7.196539e-06
28	0x36435d7e	2.9111684e-06
29	0xb5af0b40	-1.304179e-06
30	0x357a68aa	9.3284564e-07
31	0x34914700	2.7060014e-07
32	0xb6f179cd	-7.196539e-06
33	0x36435d7e	2.9111684e-06
34	0xb5af0b4a	-1.3041802e-06
35	0x3988694b	0.0002601839
36	0xb6789f70	-3.7047685e-06
37	0xb91c1e07	-0.00014888505
38	0xb3c3bbb0	-9.114535e-08
39	0xb631ff9a	-2.6523835e-06
40	0xb6fb2f5e	-7.485897e-06
41	0x36003cc0	1.9108847e-06
42	0x370bde02	8.336736e-06
43	0x36a6af84	4.967618e-06
44	0x37252e3e	9.845533e-06
45	0xb42007e6	-1.4904035e-07
46	0xb6b097bc	-5.262873e-06
47	0x374e8201	1.2308826e-05
48	0x371a050f	9.180293e-06
49	0x36f142b0	7.190123e-06
50	0xb6a2082a	-4.8289266e-06
51	0xb6b259e9	-5.3152803e-06
52	0xb78d55a8	-1.6848397e-05
53	0x37d05544	2.4835237e-05
54	0x370efa67	8.522161e-06
55	0x3612f31f	2.189721e-06
56	0x36658bd8	3.420506e-06
57	0x37b0536e	2.1019685e-05
58	0x375d81a7	1.32028135e-05
59	0xb6d3f5a1	-6.316885e-06
60	0xb6ad3f77	-5.16319e-06
61	0xb6b59500	-5.4115662e-06
62	0xb76e4423	-1.420177e-05
63	0x37e82ece	2.767835e-05
64	0x36f80042	7.391006e-06
65	0x35a954be	1.2616144e-06
66	0x36e09940	6.693561e-06
67	0x36a2d570	4.8528236e-06
68	0x374038cc	1.1457316e-05
69	0xb5955934	-1.1127327e-06
70	0x36ac9b9c	5.1441148e-06
71	0x36247719	2.4507228e-06
72	0xb71dae32	-9.398487e-06
73	0x378af600	1.6565435e-05
74	0x36ae0c1c	5.187014e-06
75	0x3727fd8a	1.0013007e-05
76	0x3746a2d6	1.1839633e-05
77	0xb71dae32	-9.398487e-06
78	0x378af600	1.6565435e-05
79	0x36ae0c1c	5.187014e-06
80	0x3727fd8a	1.0013007e-05
81	0x3746a2dc	1.1839638e-05
82	0xb87284f0	-5.7821104e-05
83	0x376862e5	1.3851303e-05
84	0xb9ed51e5	-0.0004526518
85	0xb74af450	-1.2097022e-05
86	0x36166043	2.2407773e-06
87	0x371d083c	9.359846e-06
88	0x358ff210	1.072478e-06
89	0xb6923653	-4.3574632e-06
90	0xb7146f06	-8.847337e-06
91	0xb710e996	-8.637455e-06
92	0x34f6ab7c	4.5945842e-07
93	0xb7798db3	-1.48745485e-05
94	0xb69b68d7	-4.631565e-06
95	0xb75666a6	-1.2779294e-05
96	0xb7703aa4	-1.4318768e-05
97	0x37b04a8f	2.1015554e-05
98	0x37a27244	1.9365114e-05
99	0xb733d4c1	-1.0718767e-05
100	0xb696ed8e	-4.4980034e-06
101	0xb697d564	-4.5249926e-06
102	0x373bc0a2	1.1190919e-05
103	0x3755d5a0	1.2745528e-05
104	0x35e34c46	1.6935016e-06
105	0xb703e104	-7.860599e-06
106	0x3488320a	2.5368382e-07
107	0xb69faf07	-4.758945e-06
108	0xb5486138	-7.464728e-07
109	0xb645f8db	-2.950014e-06
110	0xb73024ec	-1.0499014e-05
111	0x3690c1c4	4.3140917e-06
112	0xb5ea9056	-1.7476366e-06
113	0xb6a35886	-4.868084e-06
114	0x369ad295	4.6140726e-06
115	0xb6f2d76a	-7.2372395e-06
116	0xb6a18afc	-4.814354e-06
117	0xb5e6bc7c	-1.7191192e-06
118	0xb7228f75	-9.689354e-06
119	0x36bf6b2f	5.7047214e-06
120	0xb7476b47	-1.1886302e-05
121	0x3646a688	2.9601233e-06
122	0xb70441c4	-7.883125e-06
123	0xb72ce9ae	-1.0306407e-05
124	0x36bf6b2f	5.7047214e-06
125	0xb7476b47	-1.1886302e-05
126	0x3646a688	2.9601233e-06
127	0xb70441c4	-7.883125e-06
128	0xb72ce9af	-1.0306408e-05
129	0x393741a8	0.00017476699
130	0xb6d17170	-6.2418912e-06
131	0x39d88fd4	0.0004130589
132	0x370db252	8.445773e-06
133	0xb7250abc	-9.837266e-06
134	0xb7791449	-1.484628e-05
135	0x35528d05	7.8436307e-07
136	0x3715b658	8.923547e-06
137	0x371dd1f2	9.406811e-06
138	0x3637f2b4	2.7410397e-06
139	0x34c0a1a4	3.5880396e-07
140	0x37a03380	1.9097468e-05
141	0xb69e48b1	-4.7172293e-06
142	0xb7546b8f	-1.2661228e-05
143	0xb63702a0	-2.7270653e-06
144	0x370f4f86	8.54198e-06
145	0x370ce62e	8.398243e-06
146	0xb746384b	-1.1814826e-05
147	0xb67a321b	-3.7282068e-06
148	0x34504b50	1.9398908e-07
149	0x36aec212	5.208197e-06
150	0x365ffa46	3.3375268e-06
151	0x36b6c980	5.4474804e-06
152	0xb5bf28d7	-1.4242495e-06
153	0x36cd0e4f	6.111142e-06
154	0xb7b0d009	-2.1077709e-05
155	0xb796babc	-1.7968348e-05
156	0xb6baddb0	-5.56904e-06
157	0x364e5631	3.0746562e-06
158	0xb68549b1	-3.9722877e-06
159	0xb69d6b07	-4.6914242e-06
160	0xb6ef0456	-7.12326e-06
161	0x36d6402c	6.3851676e-06
162	0xb6aa87e7	-5.082216e-06
163	0xb6f1eac8	-7.209692e-06
164	0xb6ade77c	-5.18275e-06
165	0xb74410ed	-1.1686451e-05
166	0x33ff5156	1.1889158e-07
167	0xb6ccd22e	-6.104142e-06
168	0xb77e50ea	-1.5158419e-05
169	0x37171d2a	9.007092e-06
170	0x363a960a	2.7803494e-06
171	0x33ff5156	1.1889158e-07
172	0xb6ccd22e	-6.104142e-06
173	0xb77e50ea	-1.5158419e-05
174	0x37171d2a	9.007092e-06
175	0x363a9607	2.7803487e-06
176	0x38c39593	9.326185e-05
177	0xb71cd965	-9.348941e-06
178	0x39a040ca	0.0003056585
179	0xb607881a	-2.019579e-06
180	0xb706c383	-8.0325435e-06
181	0x34acbe55	3.217598e-07
182	0x36f7fdb1	7.390707e-06
183	0x369ab097	4.6101154e-06
184	0xb6be8af5	-5.678618e-06
185	0x35d66cf0	1.5975947e-06
186	0xb4768755	-2.2959769e-07
187	0x37807dab	1.5317308e-05
188	0x3643bb68	2.916635e-06
189	0xb6889235	-4.0701366e-06
190	0xb58075a1	-9.570978e-07
191	0x372edae0	1.0422169e-05
192	0x37369880	1.0883552e-05
193	0x3737d475	1.09571165e-05
194	0xb7191186	-9.123591e-06
195	0x33df7730	1.0405927e-07
196	0x36e6e8c2	6.8816307e-06
197	0x37127f65	8.7319395e-06
198	0xb6a62f1b	-4.9526693e-06
199	0x36b6fd0b	5.4534808e-06
200	0x368ccdb1	4.1962708e-06
201	0x366f484c	3.5655858e-06
202	0x36e36eb3	6.7780143e-06
203	0x36c1a38c	5.7708876e-06
204	0xb5d706d4	-1.6020736e-06
205	0xb5175832	-5.6380225e-07
206	0x36a0fe0a	4.7979456e-06
207	0x3676d7e3	3.678252e-06
208	0xb52d6596	-6.459535e-07
209	0x3708a930	8.145624e-06
210	0xb592cf37	-1.0938155e-06
211	0x363d3237	2.8192424e-06
212	0x362565f0	2.4646251e-06
213	0x34b360e0	3.3411834e-07
214	0x3730c9f1	1.0537436e-05
215	0x35f1b349	1.8008078e-06
216	0xb6958902	-4.456496e-06
217	0xb682eee0	-3.9021106e-06
218	0x34b360e0	3.3411834e-07
219	0x3730c9f1	1.0537436e-05
220	0x35f1b349	1.8008078e-06
221	0xb6958902	-4.456496e-06
222	0xb682eee2	-3.9021115e-06
223	0x39bff469	0.0003661246
224	0x36c3b030	5.831964e-06
225	0x38b63e71	8.690067e-05
226	0x35994f46	1.142246e-06
227	0xb628e2d7	-2.516599e-06
228	0xb75c9094	-1.3146684e-05
229	0x34cd50c8	3.8243002e-07
230	0x36b9d13a	5.537787e-06
231	0x36acdb44	5.1515253e-06
232	0x37330fbb	1.0672894e-05
233	0x33e521de	1.0669804e-07
234	0xb62e5806	-2.5979257e-06
235	0xb59e538b	-1.1796232e-06
236	0x36960906	4.471399e-06
237	0xb57a9bc4	-9.3358926e-07
238	0x35e4009a	1.6987499e-06
239	0x35891848	1.0214362e-06
240	0x370f0d90	8.526622e-06
241	0xb6163d40	-2.2387394e-06
242	0xb6747967	-3.6429499e-06
243	0x368a9fae	4.1313097e-06
244	0x36bc75d1	5.6165522e-06
245	0x35393074	6.898838e-07
246	0x36c9c590	6.013266e-06
247	0x365f55b1	3.3279468e-06
248	0xb6bd866a	-5.648287e-06
249	0xb6b626d4	-5.428543e-06
250	0x37787baf	1.4810749e-05
251	0xb7358b60	-1.08208915e-05
252	0xb6cd53ff	-6.1192545e-06
253	0x36e3076a	6.7659903e-06
254	0x35ffc3aa	1.9055926e-06
255	0xb63eddc4	-2.844129e-06

exp_avg_sq f4 [128, 47]
0	0x2ea3d8c2	7.450886e-11
1	0x2e8c28a7	6.373684e-11
2	0x2db38f8f	2.0413697e-11
3	0x2dac5f3f	1.9596434e-11
4	0x2df05663	2.7323204e-11
5	0x2e4b1a3f	4.6180167e-11
6	0x2ed3d607	9.633188e-11
7	0x2d950db9	1.6945433e-11
8	0x2dbb79bf	2.1313505e-11
9	0x2df99431	2.8373833e-11
10	0x2e804126	5.832339e-11
11	0x2ea41709	7.4619484e-11
12	0x2dc98b69	2.2912965e-11
13	0x2df3b09e	2.7704335e-11
14	0x2e1406b3	3.3657254e-11
15	0x2e289d56	3.833852e-11
16	0x2eca4144	9.19749e-11
17	0x2dcf35fb	2.3557148e-11
18	0x2d8f5271	1.629383e-11
19	0x2dc2bad1	2.213821e-11
20	0x2e764f65	5.600444e-11
21	0x2e61996c	5.1295343e-11
22	0x2e06fcf3	3.0692737e-11
23	0x2de22a83	2.5712104e-11
24	0x2e18fd01	3.478551e-11
25	0x2e7957c6	5.6694004e-11
26	0x2e8dcb07	6.4480025e-11
27	0x2df38914	2.7686776e-11
28	0x2e28ce79	3.8382162e-11
29	0x2e4e0e00	4.685141e-11
30	0x2e7957c6	5.6694004e-11
31	0x2e8dcb07	6.4480025e-11
32	0x2df38914	2.7686776e-11
33	0x2e28ce79	3.8382162e-11
34	0x2e4e0e00	4.685141e-11
35	0x33cd0a56	9.5479365e-08
36	0x2ec30bc9	8.869667e-11
37	0x33b9084d	8.616244e-08
38	0x2e457476	4.4896052e-11
39	0x2df6d390	2.8060915e-11
40	0x2ec1239d	8.78295e-11
41	0x2e022fc3	2.9601e-11
42	0x2e927735	6.660487e-11
43	0x2e2ced8f	3.9319267e-11
44	0x2ee4baa4	1.04013936e-10
45	0x29e0d0f7	9.983848e-14
46	0x2f0bcb74	1.2714257e-10
47	0x2fcc5ca7	3.7173217e-10
48	0x2f8eee5a	2.5999009e-10
49	0x2eda6a40	9.932366e-11
50	0x2ee820c9	1.05559624e-10
51	0x2f1a2067	1.401773e-10
52	0x2fa27aea	2.9554964e-10
53	0x2f96172e	2.730131e-10
54	0x2f062f04	1.2203932e-10
55	0x2ecf72ad	9.433641e-11
56	0x2f27b39c	1.5252372e-10
57	0x2f9b4642	2.8244257e-10
58	0x2f54e02b	1.9360928e-10
59	0x2eb402ac	8.185927e-11
60	0x2f07be05	1.2345687e-10
61	0x2f412443	1.756613e-10
62	0x2f73e7c0	2.2183055e-10
63	0x2f8586a6	2.4288233e-10
64	0x2f3bf0f2	1.7093152e-10
65	0x2f051d75	1.2106745e-10
66	0x2f3a60ae	1.6950949e-10
67	0x2fb986b1	3.3747008e-10
68	0x2f551e66	1.9383037e-10
69	0x2f47c9b0	1.8170598e-10
70	0x2f3bf28b	1.709372e-10
71	0x2f7e7152	2.3141425e-10
72	0x2f857753	2.4277344e-10
73	0x2f44de3a	1.7905047e-10
74	0x2f44bce3	1.7893202e-10
75	0x2ef9505a	1.1337482e-10
76	0x2f75c4b3	2.2352502e-10
77	0x2f857753	2.4277344e-10
78	0x2f44de3a	1.7905047e-10
79	0x2f44bce3	1.7893202e-10
80	0x2ef9505a	1.1337482e-10
81	0x2f75c4b1	2.2352499e-10
82	0x34de9dfa	4.1465665e-07
83	0x30101b01	5.242527e-10
84	0x350a8016	5.1595396e-07
85	0x2f8acd1e	2.5247798e-10
86	0x2ede1b21	1.010021e-10
87	0x2f923ecc	2.6601865e-10
88	0x2f021736	1.1831677e-10
89	0x2fa4d9ba	2.998613e-10
90	0x2ef453d1	1.1110724e-10
91	0x2fd07808	3.7920267e-10
92	0x2b044872	4.699636e-13
93	0x3025b20a	6.027966e-10
94	0x2f5f10aa	2.0287652e-10
95	0x2f6f3caa	2.1758476e-10
96	0x2e75a4f3	5.5853055e-11
97	0x2eccb746	9.309402e-11
98	0x2eeb3dee	1.0697564e-10
99	0x2f4a0dc9	1.837669e-10
100	0x2f83020b	2.3830213e-10
101	0x2e8f485c	6.515741e-11
102	0x2e880881	6.1860746e-11
103	0x2ecd3877	9.332351e-11
104	0x2f2e7343	1.5866157e-10
105	0x2f16707d	1.3682384e-10
106	0x2e914a3e	6.6070246e-11
107	0x2ecceb7c	9.3186764e-11
108	0x2f18e8d0	1.3907031e-10
109	0x2f39f094	1.6911123e-10
110	0x2f248b54	1.4965212e-10
111	0x2e97aa12	6.8968956e-11
112	0x2e9fd1a3	7.267722e-11
113	0x2ee8f7d6	1.0594163e-10
114	0x2f193e85	1.393748e-10
115	0x2f946606	2.6993535e-10
116	0x2e9ae730	7.0441764e-11
117	0x2f140def	1.3465472e-10
118	0x2f44e4e6	1.7907417e-10
119	0x2f2552f3	1.5036132e-10
120	0x2f786f06	2.2594912e-10
121	0x2ef00639	1.0915042e-10
122	0x2e87c06e	6.1732716e-11
123	0x2ee4ffb5	1.0413662e-10
124	0x2f2552f3	1.5036132e-10
125	0x2f786f06	2.2594912e-10
126	0x2ef00639	1.0915042e-10
127	0x2e87c06e	6.1732716e-11
128	0x2ee4ffb5	1.0413662e-10
129	0x34882cb4	2.53645e-07
130	0x2fa5a77e	3.0132336e-10
131	0x34af6fc3	3.2677607e-07
132	0x2f4d5dc0	1.8677948e-10
133	0x2eaf91d9	7.9839864e-11
134	0x2f35f91d	1.6550357e-10
135	0x2e95bdb4	6.8094336e-11
136	0x2f980389	2.765115e-10
137	0x2e97c655	6.901916e-11
138	0x2f8761c4	2.4625824e-10
139	0x2a60a803	1.9953487e-13
140	0x2fea69dc	4.263957e-10
141	0x2e8f4ed3	6.516889e-11
142	0x2ec8769c	9.116016e-11
143	0x2d83901a	1.495697e-11
144	0x2d5ade6b	1.2441252e-11
145	0x2d805572	1.458986e-11
146	0x2e680a45	5.2759814e-11
147	0x2ec338c9	8.8776604e-11
148	0x2d44c4a6	1.1184975e-11
149	0x2dab754b	1.9492538e-11
150	0x2ddc4594	2.5042003e-11
151	0x2e5096f1	4.7427787e-11
152	0x2ea243c2	7.378943e-11
153	0x2da4bce7	1.8728531e-11
154	0x2e14f6f0	3.387063e-11
155	0x2e2bb08d	3.9037707e-11
156	0x2e142bcf	3.3690214e-11
157	0x2e8d97e2	6.4389175e-11
158	0x2d6e7802	1.3555381e-11
159	0x2e14a0a4	3.379398e-11
160	0x2e415774	4.3960793e-11
161	0x2e214bbf	3.6674438e-11
162	0x2e8e102d	6.460286e-11
163	0x2e11efdf	3.318223e-11
164	0x2e1fdd33	3.634888e-11
165	0x2e59c451	4.951445e-11
166	0x2e6d0bd9	5.3898084e-11
167	0x2e8bbf2e	6.3549485e-11
168	0x2e05dcf7	3.0436955e-11
169	0x2e02ce1a	2.9741633e-11
170	0x2e18b3bd	3.472044e-11
171	0x2e6d0bd9	5.3898084e-11
172	0x2e8bbf2e	6.3549485e-11
173	0x2e05dcf7	3.0436955e-11
174	0x2e02ce1a	2.9741633e-11
175	0x2e18b3be	3.4720442e-11
176	0x338e47e4	6.625467e-08
177	0x2ec99f8c	9.168763e-11
178	0x3436ded9	1.7031142e-07
179	0x2e8ce3ce	6.406929e-11
180	0x2dee7809	2.7110774e-11
181	0x2e4d3db7	4.6666417e-11
182	0x2dd9c391	2.4756893e-11
183	0x2ed99f7e	9.896349e-11
184	0x2e1caf6d	3.5626103e-11
185	0x2e96f0dd	6.863996e-11
186	0x29b6a51c	8.1110655e-14
187	0x2eea778b	1.0662323e-10
188	0x2e0d323c	3.2104305e-11
189	0x2e372fbb	4.1651776e-11
190	0x2d280cf8	9.552574e-12
191	0x2d8ed3ed	1.6237645e-11
192	0x2daf95ec	1.9961775e-11
193	0x2e1e583a	3.60034e-11
194	0x2e107394	3.2844463e-11
195	0x2d7acfe8	1.4257019e-11
196	0x2d7afd59	1.4267109e-11
197	0x2dac7356	1.9605356e-11
198	0x2e10a0a0	3.2884473e-11
199	0x2e35d7af	4.13462e-11
200	0x2d94e9b4	1.6929437e-11
201	0x2da21493	1.8426404e-11
202	0x2dcee8ac	2.3522816e-11
203	0x2e26d243	3.793078e-11
204	0x2dfd3390	2.8785668e-11
205	0x2db1893b	2.0183513e-11
206	0x2d8414b5	1.5015858e-11
207	0x2dad7038	1.9717658e-11
208	0x2e1d065f	3.5703326e-11
209	0x2e11402d	3.3026182e-11
210	0x2dc370c3	2.221901e-11
211	0x2dfdc9c4	2.8852372e-11
212	0x2e0a1f76	3.140551e-11
213	0x2e37a21d	4.1753368e-11
214	0x2e06b5e9	3.062964e-11
215	0x2d9714b2	1.7175903e-11
216	0x2da572fb	1.880939e-11
217	0x2dead2ef	2.6696393e-11
218	0x2e37a21d	4.1753368e-11
219	0x2e06b5e9	3.062964e-11
220	0x2d9714b2	1.7175903e-11
221	0x2da572fb	1.880939e-11
222	0x2dead2f2	2.6696399e-11
223	0x338cdbf6	6.559269e-08
224	0x2e3f0ec1	4.3441476e-11
225	0x332b0897	3.9821852e-08
226	0x2e63e178	5.181408e-11
227	0x2d477260	1.1337237e-11
228	0x2e5529b2	4.8467626e-11
229	0x2dc70227	2.2624637e-11
230	0x2e6b252a	5.3465822e-11
231	0x2dd610aa	2.4336384e-11
232	0x2e76adb8	5.6088217e-11
233	0x294be717	4.5275493e-14
234	0x2e6922ac	5.300886e-11
235	0x2eaa71f5	7.750948e-11
236	0x2e64a039	5.1983504e-11
237	0x2e082959	3.0959544e-11
238	0x2dda91be	2.4848453e-11
239	0x2e3c4070	4.2803483e-11
240	0x2eb708b6	8.323424e-11
241	0x2e63e9f4	5.1821616e-11
242	0x2e2ac9a3	3.8832614e-11
243	0x2dffe770	2.9092923e-11
244	0x2e4883ff	4.559197e-11
245	0x2e5e8ac5	5.0600208e-11
246	0x2e6727b0	5.255857e-11
247	0x2e2fc77f	3.996758e-11
248	0x2e0c9e8a	3.1973126e-11
249	0x2e655fbd	5.2153604e-11
250	0x2eba0a04	8.46008e-11
251	0x2e80b73c	5.853315e-11
252	0x2de3b3ed	2.5886815e-11
253	0x2e08fd19	3.1147616e-11
254	0x2e369fca	4.152393e-11
255	0x2eb4604f	8.20256e-11
