Learning/AIRollABall/results/TestParameters/AIRollABall/AIRollABall-17087.onnx (onnx, 98833 bytes, 7 tensors)

network_body._body_endoder.seq_layers.0.weight f4 [128, 47]
000000 f2 50 e8 3d 70 db df 3d bc e0 af 3d 0d d5 56 bd
       0.11343564 0.10930526 0.085877866 -0.052449275
000010 a7 c2 b6 bd e1 39 10 be ef 98 96 bd 51 8e af bd
       -0.08923846 -0.14084579 -0.073533885 -0.085720666
000020 d6 f4 8b bb 83 df 51 be 0e a2 bf 3d 39 de 03 3d
       -0.00427113 -0.20495419 0.09357081 0.03219435
000030 76 b4 c4 bd 85 a9 df 3d 52 77 3f 3c 15 ab 8d 3c
       -0.09604733 0.10921005 0.011686163 0.017293492
000040 cb 52 26 be 42 c6 0e be 52 50 92 39 de f7 02 be
       -0.1624252 -0.13942817 0.00027907133 -0.12789866
000050 94 a1 56 3e 95 91 ab 3d da aa 88 3e 38 fd 82 3b
       0.20960075 0.08377377 0.2669285 0.003997471
000060 47 d1 59 bd b3 d2 ee bd 69 82 96 3e 43 bb 2b 3e
       -0.053178098 -0.116612814 0.2939637 0.16770653
000070 5e 13 57 be 79 3c 0b be 95 46 f8 3e 14 f6 a0 3d
       -0.21003482 -0.13597287 0.4849135 0.07859436
000080 53 44 f2 3d 84 4b 2a bd 22 62 b9 bc 0e ed 37 bd
       0.11829438 -0.041575924 -0.022629801 -0.044903807
000090 31 c8 23 3e 59 21 51 bd 92 c5 ac bd 09 87 94 3b
       0.15994336 -0.051057193 -0.08436121 0.004532699
0000a0 8b 98 18 be 44 47 5a be 6e 68 89 bc 51 af 2c 3d
       -0.1490194 -0.21316248 -0.016773429 0.042159382
0000b0 63 a9 0d 3e 77 ac 88 be c6 ea 17 bd b3 80 30 3a
       0.13834147 -0.2669408 -0.03708913 0.0006733045
0000c0 94 be 34 3d 8e e0 88 bd 93 27 05 3c cf b2 8c 3d
       0.044127062 -0.066834554 0.008127111 0.068700425
0000d0 1d 04 85 bd 2b e4 61 be d6 bd 6f 3e 18 42 0d 3e
       -0.06494925 -0.22059695 0.2341226 0.13794744
0000e0 62 5d 57 3e 97 49 97 ba ed 97 2d 3e c4 fe af 3d
       0.21031716 -0.0011542317 0.16952486 0.085935146
0000f0 c0 af 24 3d 34 2d 31 3e 1c af 57 be e3 8e 90 3e
       0.04020667 0.173024 -0.21062893 0.28234014
000100 51 c7 4f be 74 b7 7d 3e 70 aa c7 bd a5 a9 b1 3d
       -0.20290877 0.24777013 -0.09749305 0.08674935
000110 c0 f6 b4 3e c6 17 2e 3e d0 8a 69 3e 2e 00 ac 3c
       0.35344505 0.17001256 0.22806859 0.02099618
000120 06 be c1 bd 84 4c d4 3c 02 4a 23 3e 03 69 3b bb
       -0.09460072 0.025915392 0.159462 -0.0028596527
000130 b7 a7 17 3e d6 aa 90 bd 92 6a 1e be cc 00 07 3e
       0.14810072 -0.07063834 -0.15470341 0.13183898
000140 12 77 9e 3e 09 19 84 bd d6 cb 35 3e a3 a1 2e 3d
       0.30950218 -0.064500876 0.17753538 0.042634618
000150 61 3b 85 bc d6 3f 7a be 30 58 50 bd 02 f8 b8 3e
       -0.016263666 -0.24438414 -0.050865352 0.36126715
000160 8f e6 5e 3d ae 3c d1 3d ae 49 70 3e 12 f4 95 3d
       0.054419097 0.10216652 0.23465607 0.07321943
000170 01 84 a7 bd 41 41 f8 bd 0c d9 aa bb 7e 69 0a bc
       -0.081794746 -0.12121821 -0.0052138623 -0.008448003
000180 7e de 82 be d0 86 9b be 61 9a 96 bd a7 10 1c 3e
       -0.25560373 -0.3037629 -0.07353664 0.15240727
000190 0e ce 86 bb f0 c9 08 be 78 dd 7d 3e 3f 84 84 3b
       -0.004113919 -0.13358283 0.24791515 0.0040440853
0001a0 f9 b2 be 3c 74 eb 7f 3d 55 ef 84 3d ea e5 d5 3e
       0.0232787 0.062480405 0.064909615 0.41776973
0001b0 fb 87 94 3c 66 5d d1 bd 4e da 39 39 ce ee b8 bd
       0.018131247 -0.102228925 0.000177243 -0.090299234
0001c0 76 a8 ad 3e 4f ea 2f bd 60 6f 0c bd 11 9f 85 3d
       0.33917588 -0.042948063 -0.034285903 0.0652448
0001d0 71 66 f6 3d 25 50 a7 3e 6f 38 37 bd 76 03 5c be
       0.12031258 0.32678333 -0.044731554 -0.21485695
0001e0 3f aa 88 bd 72 41 f8 3e 7c f4 7a 3d 5a 04 b8 3e
       -0.06673097 0.4848743 0.061268315 0.3594082
0001f0 63 95 2c be d8 da 4c bd 28 77 0b 3e 46 58 f2 3c
       -0.16853862 -0.050013393 0.13619673 0.029583108
000200 23 68 83 3e e3 b7 55 3e 18 92 3c bc 0a df d7 bd
       0.25665388 0.20870928 -0.011509441 -0.10540588
000210 db 6d d3 3d a4 88 88 bd fc 7a 78 bd 21 2f 94 bd
       0.10323688 -0.06666687 -0.060664162 -0.072355516
000220 92 d2 ab 3d 1b 2b 1b be 5b a3 97 3d db 59 4f be
       0.083897725 -0.15153162 0.074042045 -0.20249121
000230 8d 14 1d be a1 0a e2 bb 06 60 8b bd f8 0f 14 3c
       -0.15339871 -0.0068982397 -0.068054244 0.00903701
000240 b6 40 93 3d c1 ed 29 bd b5 2f b0 3a 21 b6 8f 3d
       0.07190077 -0.041486505 0.0013441952 0.0701716
000250 ea 1f 88 bd ad 2a 67 3e 5a 58 b8 3d dc 36 4e 3e
       -0.06646712 0.22574873 0.09001227 0.20138115
000260 28 de 88 be bd 7c bc bc 5a 3a 04 3d 41 43 30 3e
       -0.26731992 -0.023008699 0.03228221 0.17213155
000270 ef 8f 32 3d db 95 29 bd 7e ed 19 be 67 80 94 3c
       0.043594297 -0.04140268 -0.15032002 0.018127633
000280 bd c8 45 be 81 45 20 3e e8 b4 e3 bd d9 4d 28 be
       -0.19314857 0.15651514 -0.111184895 -0.16435947
000290 cc 47 13 be 9f ca 50 3d 21 06 4a be e1 f1 41 3e
       -0.14382857 0.050974485 -0.197289 0.18939926
0002a0 ec 7b 10 3e 12 ce b3 3e 86 01 54 3d 06 59 91 3d
       0.14109772 0.35118157 0.051759265 0.07097058
0002b0 5c 86 30 be bb 52 fe 3d 04 5a 93 be 3c 6a 1b be
       -0.17238754 0.12418123 -0.28779614 -0.15177244
0002c0 90 8e f0 bd fa 56 e1 3d c7 30 37 bd dd 54 f1 bd
       -0.11745942 0.110029176 -0.044724252 -0.117837645
0002d0 2d ba 7c 3e dc 52 2b be a2 5b 04 3d 21 ef 72 3d
       0.24680395 -0.16730827 0.03231395 0.059310082
0002e0 88 69 91 3e ff 69 8a bd 69 2a 12 3e ee 1f e8 bc
       0.28400826 -0.067584984 0.1427399 -0.028335538
0002f0 ba 33 a5 bd 45 06 cd bd 8e e6 93 3e 2a 1c 8f bd
       -0.08066507 -0.100109614 0.28886837 -0.06987794
000300 ec 23 cf 3d e1 7a 6d 3c 24 f6 ee 3d a2 02 04 bd
       0.101142734 0.014494629 0.11668041 -0.032229073
000310 a7 80 f1 bd e7 3c c8 3d 9f d6 a7 3d 25 f5 29 3e
       -0.117921166 0.09777241 0.081952326 0.16597421
000320 b9 ba 21 3e dd 16 53 bc 57 5d 45 3c d6 2b 78 be
       0.15793885 -0.012883869 0.01204618 -0.24235472
000330 fd 88 6a bd cf 89 87 3d 48 7c e5 bd a4 f7 91 3c
       -0.05725955 0.06618082 -0.112053454 0.01781828
000340 0d 97 67 be 89 ae 50 3e 2a 8a 93 3e cc 02 93 bd
       -0.22616215 0.2037908 0.28816348 -0.07178268
000350 12 98 8e 3e 25 19 11 3d 19 f6 d7 3c 8e 1c f1 bd
       0.27850395 0.03542437 0.026362466 -0.117730245
000360 6c 80 89 3e 33 2f 56 3e 60 09 f2 bd a4 3f 76 be
       0.2685579 0.20916443 -0.118181944 -0.24047714
000370 18 04 d6 3d a0 f1 70 3c e8 e5 96 bd fb e1 73 be
       0.104499996 0.014706045 -0.0736807 -0.23816673
000380 27 94 92 3d 5f bc 9d 3d 53 e1 c3 ba 6f b2 14 be
       0.07157164 0.077019446 -0.0014944471 -0.14521192
000390 db 0e 4b 3e ef 57 86 3e bf 5b 30 bd ff 91 1a be
       0.19829886 0.26238963 -0.043056246 -0.15094756
0003a0 af b7 af be 47 d7 67 be 56 3f 8a be d1 64 1f bd
       -0.34319827 -0.22640716 -0.27001446 -0.038914505
0003b0 7c 97 2e be 71 13 74 be ed 44 a1 bd d2 59 61 bd
       -0.17049974 -0.23835541 -0.07874475 -0.0550173
0003c0 ae e1 de bd bb 91 2b bd fb 8d 4a be 75 34 82 3d
       -0.10882889 -0.041887026 -0.19780724 0.06357662
0003d0 41 db 13 3e 6b 55 fd bb 7a c5 14 3e b9 c1 0b 3c
       0.14439107 -0.00773113 0.14528456 0.008530074
0003e0 63 c0 cb be 3b 00 c3 3e d0 66 7f be ce 28 30 bd
       -0.39795217 0.38086113 -0.24941564 -0.043007664
0003f0 de d6 fe bd 79 9e 4d bb 4f f6 d8 bd a2 be a0 3d
       -0.124433264 -0.0031374975 -0.10593855 0.0784886

network_body._body_endoder.seq_layers.0.bias f4 [128]
000000 00 00 00 00 00 00 00 00 00 00 00 00 00 00 00 00
       0.0 0.0 0.0 0.0
000010 00 00 00 00 00 00 00 00 00 00 00 00 00 00 00 00
       0.0 0.0 0.0 0.0
000020 00 00 00 00 00 00 00 00 00 00 00 00 00 00 00 00
       0.0 0.0 0.0 0.0
000030 00 00 00 00 00 00 00 00 00 00 00 00 00 00 00 00
       0.0 0.0 0.0 0.0
000040 00 00 00 00 00 00 00 00 00 00 00 00 00 00 00 00
       0.0 0.0 0.0 0.0
000050 00 00 00 00 00 00 00 00 00 00 00 00 00 00 00 00
       0.0 0.0 0.0 0.0
000060 00 00 00 00 00 00 00 00 00 00 00 00 00 00 00 00
       0.0 0.0 0.0 0.0
000070 00 00 00 00 00 00 00 00 00 00 00 00 00 00 00 00
       0.0 0.0 0.0 0.0
000080 00 00 00 00 00 00 00 00 00 00 00 00 00 00 00 00
       0.0 0.0 0.0 0.0
000090 00 00 00 00 00 00 00 00 00 00 00 00 00 00 00 00
       0.0 0.0 0.0 0.0
0000a0 00 00 00 00 00 00 00 00 00 00 00 00 00 00 00 00
       0.0 0.0 0.0 0.0
0000b0 00 00 00 00 00 00 00 00 00 00 00 00 00 00 00 00
       0.0 0.0 0.0 0.0
0000c0 00 00 00 00 00 00 00 00 00 00 00 00 00 00 00 00
       0.0 0.0 0.0 0.0
0000d0 00 00 00 00 00 00 00 00 00 00 00 00 00 00 00 00
       0.0 0.0 0.0 0.0
0000e0 00 00 00 00 00 00 00 00 00 00 00 00 00 00 00 00
       0.0 0.0 0.0 0.0
0000f0 00 00 00 00 00 00 00 00 00 00 00 00 00 00 00 00
       0.0 0.0 0.0 0.0
000100 00 00 00 00 00 00 00 00 00 00 00 00 00 00 00 00
       0.0 0.0 0.0 0.0
000110 00 00 00 00 00 00 00 00 00 00 00 00 00 00 00 00
       0.0 0.0 0.0 0.0
000120 00 00 00 00 00 00 00 00 00 00 00 00 00 00 00 00
       0.0 0.0 0.0 0.0
000130 00 00 00 00 00 00 00 00 00 00 00 00 00 00 00 00
       0.0 0.0 0.0 0.0
000140 00 00 00 00 00 00 00 00 00 00 00 00 00 00 00 00
       0.0 0.0 0.0 0.0
000150 00 00 00 00 00 00 00 00 00 00 00 00 00 00 00 00
       0.0 0.0 0.0 0.0
000160 00 00 00 00 00 00 00 00 00 00 00 00 00 00 00 00
       0.0 0.0 0.0 0.0
000170 00 00 00 00 00 00 00 00 00 00 00 00 00 00 00 00
       0.0 0.0 0.0 0.0
000180 00 00 00 00 00 00 00 00 00 00 00 00 00 00 00 00
       0.0 0.0 0.0 0.0
000190 00 00 00 00 00 00 00 00 00 00 00 00 00 00 00 00
       0.0 0.0 0.0 0.0
0001a0 00 00 00 00 00 00 00 00 00 00 00 00 00 00 00 00
       0.0 0.0 0.0 0.0
0001b0 00 00 00 00 00 00 00 00 00 00 00 00 00 00 00 00
       0.0 0.0 0.0 0.0
0001c0 00 00 00 00 00 00 00 00 00 00 00 00 00 00 00 00
       0.0 0.0 0.0 0.0
0001d0 00 00 00 00 00 00 00 00 00 00 00 00 00 00 00 00
       0.0 0.0 0.0 0.0
0001e0 00 00 00 00 00 00 00 00 00 00 00 00 00 00 00 00
       0.0 0.0 0.0 0.0
0001f0 00 00 00 00 00 00 00 00 00 00 00 00 00 00 00 00
       0.0 0.0 0.0 0.0

network_body._body_endoder.seq_layers.2.weight f4 [128, 128]
000000 c7 2f fb bb 12 60 00 3e 74 46 ac bb 18 13 e9 3d
       -0.0076656076 0.12536648 -0.005257422 0.11380595
000010 e0 91 14 be 0b f5 65 3d 24 03 7b be 0e 12 fd bd
       -0.14508772 0.056141894 -0.24512917 -0.12356959
000020 b5 52 81 bd cf 79 22 3d d7 67 34 bd d7 61 89 3c
       -0.06314603 0.039666947 -0.044044342 0.016770286
000030 1a e1 ae bb d1 c4 a7 bb 3a 6b d2 3d da 0e 13 be
       -0.005336893 -0.005119898 0.10274358 -0.14361134
000040 e1 a9 c3 bd 76 4b ce bd 2d 0a e0 3d 20 02 73 3c
       -0.09553886 -0.10072987 0.10939441 0.01483205
000050 e4 f1 c5 bd 9d a9 bb bd 96 1d 35 3e f2 54 75 ba
       -0.096652776 -0.091632105 0.17687067 -0.0009358666
000060 c1 f5 4a 3c a1 39 c3 bd cb b6 8c 3c 9b 66 06 3e
       0.012387694 -0.09532476 0.017177006 0.13125078
000070 d1 42 16 be 5a b5 f9 3d a0 de ea bd 83 62 e4 3d
       -0.14673926 0.12192793 -0.114682436 0.11151602
000080 8b e4 48 bd 8b b0 d3 bd d0 3a 39 bd 37 9e b4 3c
       -0.04904608 -0.10336407 -0.045222104 0.022048099
000090 ba 83 dd 3d 80 36 1f be d7 79 9b bd 8b f9 18 3c
       0.108161405 -0.15548134 -0.075915985 0.009336839
0000a0 11 b9 e7 3c cf 4d 5a bc 69 c0 5a 3e 60 bd 2f be
       0.028286489 -0.013324215 0.21362461 -0.17162085
0000b0 99 e6 25 3e d1 2c 07 3d 80 12 48 be a7 37 e0 3d
       0.16201247 0.033001725 -0.19538307 0.10948115
0000c0 cf 2d f8 bd dd 4b c3 3b 95 13 17 be 92 9f 7a bd
       -0.12118112 0.0059599713 -0.14753564 -0.061187334
0000d0 dc b7 e3 bd 81 0a 9c 3a 27 99 9e ba 79 4b 97 bc
       -0.11119053 0.0011904986 -0.0012100086 -0.018468605
0000e0 d4 5a 8d bd dc 43 ea 3d 12 b0 97 3d 60 ca b8 bc
       -0.0690209 0.114387244 0.074066296 -0.022557437
0000f0 f3 29 5f be 6e f0 3c be 45 7e 1a be d9 21 7b 3d
       -0.21793346 -0.18451092 -0.1508723 0.061311577
000100 d4 9b d0 3d fe 71 6b bc 46 91 8f bc 1d 7a f0 bc
       0.10185972 -0.01437044 -0.017525326 -0.029355103
000110 63 c8 a7 3d 47 7c 08 be 5a db 61 3d 93 19 04 3d
       0.081925176 -0.13328658 0.05514083 0.032250952
000120 ad e6 ae 3d 58 06 cf bd c9 e8 01 bd 73 04 75 3a
       0.08540092 -0.10108632 -0.03171614 0.0009346671
000130 f3 13 f6 bd 0d d7 c0 3c a8 49 16 be f3 46 0f bd
       -0.12015524 0.023540044 -0.14676535 -0.03497977
000140 e1 e4 e6 3c d2 ec 91 3d 8d 39 06 be f4 5b 05 3b
       0.02818531 0.07125248 -0.13107891 0.0020348998
000150 ef e7 bc bb d9 77 1a 3d 91 81 e6 bd c8 cc 6b be
       -0.0057649533 0.037711952 -0.112551816 -0.23027337
000160 f5 73 9b bd cf d3 ea 3c 4c 12 54 bd ae 7a aa bd
       -0.075904764 0.028665451 -0.05177526 -0.083241805
000170 fc 21 9b bd cf d0 e3 3a 26 cd 11 3e a2 f8 0f bc
       -0.075748414 0.0017380955 0.14238414 -0.008787306
000180 9e 1e df 3d f1 19 9f bd 62 b0 37 3d d5 f6 30 3d
       0.10894512 -0.0776862 0.044845946 0.043204147
000190 51 5e 0a 3e 57 50 2f bd 90 5b 3f 3e aa 05 09 3c
       0.13512541 -0.042801227 0.18687272 0.008363167
0001a0 e1 3f 06 bd 39 a5 08 be dc 27 26 be 82 f0 71 bd
       -0.032775763 -0.13344277 -0.16226143 -0.059067257
0001b0 ad 16 80 3c a6 81 95 3d 7f e8 2f 3e 2a 2e 71 3d
       0.015635813 0.07300119 0.17178534 0.058881916
0001c0 b7 de 15 bc fe b5 52 3d 20 49 cc bd a3 b2 5d 3d
       -0.009147338 0.051443093 -0.09974885 0.05412544
0001d0 95 78 55 bd 18 e4 52 be 60 7b 53 3d 0b 47 91 3d
       -0.05211695 -0.20594823 0.05163133 0.070936285
0001e0 cb 4f f3 bd eb 2e b3 3d e6 36 53 be a5 15 db 3d
       -0.11880454 0.08749183 -0.20626411 0.10697488
0001f0 c8 93 f4 bc 6c 53 82 3d f8 4e a6 bd 12 99 f4 3d
       -0.029855624 0.06363568 -0.08120531 0.11943258
000200 30 09 96 3d 69 c2 1c bd 0d f7 f5 3b 19 66 7c 3d
       0.07325971 -0.03827134 0.0075062574 0.061620805
000210 11 e1 6a bd 7f 75 30 3e 2e e2 49 be 6b b0 fc bc
       -0.057343546 0.17232321 -0.19715187 -0.030845841
000220 ee e4 15 3e df ac 99 bd 86 29 67 be 53 ea 74 3e
       0.14638111 -0.07503676 -0.22574434 0.23917513
000230 26 b1 44 3e 77 f5 92 3d b9 03 04 be ea 3c ff 3c
       0.19208202 0.07175725 -0.12892045 0.031156976
000240 92 90 5c 3d 4f b6 18 bc 53 b7 01 bd 8f 31 84 3d
       0.05384881 -0.0093208095 -0.031668972 0.06454765
000250 dd 71 79 3d 2a 21 bc 3d 64 13 46 3c 37 3e 3f 3d
       0.060899604 0.09186013 0.012089584 0.046690192
000260 2e ee e6 bd 3a ab b7 3d 49 00 42 3e bb b2 ea bd
       -0.11275898 0.08968206 0.18945421 -0.114598714
000270 32 7c c3 bd 3d c5 3a bd 09 10 6a bd b5 3b 2f 3e
       -0.09545173 -0.045598257 -0.0571442 0.1711262
000280 1c 3a 4e be 18 aa 86 3d bb a6 08 3d c0 fd 97 3d
       -0.20139354 0.065754116 0.03336213 0.07421446
000290 33 08 ad bc ca 13 cf 3d 38 80 46 bd 4e 18 0c 3e
       -0.021122074 0.10111196 -0.048462123 0.13681147
0002a0 97 07 25 3c d2 ae 72 bc bf 48 fc 3d cf cb a3 bd
       0.01007261 -0.014812188 0.12318563 -0.07997858
0002b0 d4 58 33 bd f9 53 f1 bc cc a5 19 3d 5a fa 28 be
       -0.043785885 -0.029458987 0.03751163 -0.16501752
0002c0 b3 d9 1b 3d f2 91 84 bd 8b 8a da bd 91 1b 86 3d
       0.03804941 -0.06473149 -0.10670956 0.065482266
0002d0 22 a8 60 bd 4b 2a 9a bd da fe cf bc 40 71 46 3d
       -0.054847844 -0.07527598 -0.025390077 0.048447847
0002e0 e7 76 05 3d 8d d5 4b 39 41 5e ef bc e7 46 fb 3c
       0.032584097 0.00019439142 -0.029219748 0.030673457
0002f0 2c 1a 86 3d 26 d1 e4 3d e8 c8 5c 3d ad ac 0f bc
       0.06547961 0.111727044 0.053902537 -0.008769196
000300 5d cf 05 bd 00 b2 b9 bd 2a 5f 45 3c 37 06 12 be
       -0.03266846 -0.09067154 0.012046615 -0.14260183
000310 41 59 80 bd 4c 14 50 be 08 7a 0b bd 61 98 be bd
       -0.06267024 -0.20320243 -0.034051925 -0.09306408
000320 4b 6a 27 3d 78 bc 8c bb d3 15 c8 3c 49 19 a2 bc
       0.040872853 -0.004294928 0.02442447 -0.019787448
000330 8d fd ea bd 34 25 fc bd e0 8d 1f bd 1f d1 1c be
       -0.11474142 -0.123117834 -0.038953662 -0.15314148
000340 19 62 0c bc 01 fb 8d bd 50 f4 32 3d 7e 82 41 be
       -0.00856831 -0.06932641 0.043690026 -0.18897435
000350 f2 f3 33 3d 98 51 70 3d 61 9d c1 3d 19 f6 59 bc
       0.043933816 0.058671564 0.09453846 -0.013303303
000360 36 0b b8 bc 60 1b e7 bc ed f7 21 3d 84 01 09 bc
       -0.022466283 -0.028211296 0.03954308 -0.008362178
000370 02 12 93 3c 2d 33 75 be 08 89 2f bd d5 d6 23 3d
       0.017952923 -0.23945303 -0.042855293 0.0399998
000380 0a 60 f7 3d 09 13 54 39 91 ab a5 bd bf c8 a5 bd
       0.12078865 0.00020224987 -0.08089364 -0.0809493
000390 ea 74 0e be 41 04 28 3d 2c a8 32 3d b1 eb 18 bd
       -0.13911787 0.04101968 0.043617412 -0.037334148
0003a0 44 46 3c 3e 56 87 fe bc b7 3c d0 3d 35 a6 43 3e
       0.18386179 -0.031070393 0.101678304 0.19106372
0003b0 03 57 db bc 10 34 10 3e 18 df 2b be cc 21 1e 3e
       -0.026774889 0.1408236 -0.16784322 0.1544258
0003c0 b8 ec db 3c 41 ca 21 bd 9b 85 03 3d 75 e1 17 3d
       0.026846275 -0.039499525 0.032109838 0.037080247
0003d0 6d 6c 41 bc 56 94 d7 bc e3 48 c4 3d e7 25 8f bd
       -0.011805636 -0.02631585 0.095842145 -0.06989651
0003e0 54 ee 22 3e d7 eb c9 3c 97 e5 27 3d 46 e8 b4 bd
       0.15911227 0.02464859 0.04099044 -0.08833365
0003f0 e7 d3 c2 3d fe 8c b7 bb 17 1a 1c 3e b8 41 0e bd
       0.095130734 -0.0056015244 0.15244327 -0.034730643

action_model._continuous_distribution.log_sigma f4 [1, 2]
000000 00 00 00 00 00 00 00 00
       0.0 0.0

action_model._continuous_distribution.mu.weight f4 [2, 128]
000000 42 8d a0 3c 76 1f 16 3d 1f 43 c9 ba cf 21 ad bc
       0.019598607 0.036651097 -0.0015355087 -0.021134285
000010 00 20 6d 3b 10 50 7f 3c fc 83 96 bb e5 23 7f bc
       0.0036182404 0.015583053 -0.0045933705 -0.015572523
000020 4a 1d fb ba 05 b5 84 3b 9d 0c 1c 3d 82 4a 4e bc
       -0.0019158509 0.0040498995 0.038097966 -0.012591006
000030 8a 31 d1 ba 00 88 4e 3c 4e 62 8e 3c 6d 5c 12 3c
       -0.0015960198 0.012605667 0.01738086 0.008933169
000040 52 31 51 bc 91 b6 3c 3c 9b c4 44 3b 47 fe 46 bc
       -0.012768107 0.011518137 0.0030024413 -0.012145585
000050 cb 21 a2 bc c1 32 28 bc 72 ac f8 bb 43 c2 b8 3b
       -0.019791504 -0.010266007 -0.0075889165 0.005638392
000060 5b 7b 18 3c 7f 97 55 bc 00 4e ea 3b 46 0a 2e bb
       0.009306754 -0.013036608 0.0071504116 -0.0026556416
000070 b8 57 8b 3c 9a a8 53 3c 6f 88 76 3b ef 83 a8 bb
       0.017009601 0.012918616 0.0037617942 -0.005142681
000080 94 e5 0c 3c 27 ed f0 3a b3 4b d0 3b 62 c0 a9 bc
       0.008599658 0.0018381224 0.0063566803 -0.020721618
000090 33 82 b8 3b d9 95 09 3a 7f a5 2f 3c 02 d4 de bb
       0.0056307553 0.00052484643 0.01072061 -0.0068001756
0000a0 ef e5 e4 ba 03 10 9c 3b 6d 91 4a bc 80 89 62 3c
       -0.0017463545 0.004762651 -0.012363774 0.013826728
0000b0 87 d6 32 bc 50 b1 75 bc ba fc 4d bc 9f 31 e3 bc
       -0.010915405 -0.014995888 -0.012572462 -0.027733622
0000c0 63 23 ef 3c 83 96 84 3b 8e 87 02 bc 07 54 bd bc
       0.029191678 0.0040462627 -0.007966889 -0.023111356
0000d0 7a c2 7b bc 1b 3d 88 bc ca 76 f3 bb c7 d1 f5 3c
       -0.015366191 -0.0166307 -0.0074299322 0.030007256
0000e0 44 c1 9b bc e8 a7 0b 3d bf de 81 3a 90 66 3c bc
       -0.019013055 0.034095675 0.0009908302 -0.011499062
0000f0 81 03 0f 3c db 45 00 3d bb 66 fa 3c d7 9d f4 3b
       0.008728863 0.03131662 0.030566564 0.007465105
000100 bb e0 b6 3c e3 ad c3 3c 95 c1 f0 3b 20 2b cf 3c
       0.022323957 0.023886627 0.0073472955 0.025289118
000110 77 18 33 bc 4b b2 df 3c 8f 5d 88 bb 05 62 6c 3c
       -0.010931126 0.027306696 -0.0041615437 0.014427667
000120 22 1e c5 bc 79 f4 96 bb 68 9d 78 bc 33 46 bb 3b
       -0.02406222 -0.00460678 -0.015174247 0.0057151555
000130 73 a1 54 bc 2b 73 9e 3b 73 20 74 3c 6b ab 14 3d
       -0.012977946 0.0048355064 0.014900315 0.03629629
000140 63 d8 19 3d ca b5 e8 3c 3a ae 08 bd 5b 76 f8 3b
       0.037559878 0.028406996 -0.03336928 0.0075824684
000150 40 e2 2b bc 53 00 a8 bc d3 b5 fe 3b 9b d6 b0 bb
       -0.010490954 -0.020507967 0.00777314 -0.0053966767
000160 25 2c 92 3c 31 2d 30 bd 48 bd 02 3a 95 0f 65 3c
       0.017843315 -0.043011848 0.00049873115 0.013980766
000170 e7 1c ca 3c 0b bd 8c 3c e1 54 a2 bc 35 16 0b bd
       0.024671985 0.017179986 -0.019815864 -0.033956725
000180 87 e8 f7 bb 02 dd 25 3b 4f 78 e3 bc 75 d8 61 bb
       -0.007565561 0.0025308733 -0.027767329 -0.0034461294
000190 41 4a 41 3c db 23 ac ba cb 57 7c bc 01 91 2b bc
       0.011797489 -0.0013133244 -0.015401791 -0.010471583
0001a0 d3 fa 5a bc 34 83 c0 3b a5 de 9d ba 87 b1 03 3c
       -0.013365465 0.0058750156 -0.0012044503 0.008037931
0001b0 28 56 4a bd d2 1b 4c bc e7 6a 0c bc 35 f2 ba 3b
       -0.04939857 -0.012457805 -0.008570409 0.005705143
0001c0 32 fa 89 bc c2 91 8d 3c b3 94 90 3b f0 99 f0 3c
       -0.016842935 0.017281417 0.0044122576 0.029370278
0001d0 2c 47 06 3d 68 50 67 3b b8 6f 13 bd 56 3d 46 bc
       0.03278272 0.0035295729 -0.035995215 -0.012099585
0001e0 1a e9 5a 3a 93 a6 8c bc e0 78 f8 bb 17 3b 18 bc
       0.0008350775 -0.017169273 -0.007582769 -0.009291432
0001f0 b3 76 44 3c 8f e4 f1 3b 3e a3 af bc 59 f8 2c bc
       0.011991191 0.0073819826 -0.021440145 -0.010557258
000200 28 8d e2 3c d2 c9 62 bc 3d 38 e1 3c 1d f5 8e bb
       0.0276552 -0.013842063 0.027492637 -0.004362716
000210 49 81 0a 3d 2e 03 30 bb d4 79 0e bd 5f c2 df 3b
       0.033814702 -0.0026857364 -0.034784153 0.0068285908
000220 d9 3c be 3b 3d a8 c5 3c f8 ab f2 bb 55 23 c7 bc
       0.0058055934 0.024128074 -0.007405754 -0.02430884
000230 b0 25 d9 bc 80 a7 53 bc 16 fd 22 bc 47 c3 3c bc
       -0.026507229 -0.012918353 -0.009948036 -0.011521167
000240 aa 4d 55 3b 0c ca a9 3b 13 df 56 bb 6e 03 ac bc
       0.0032547512 0.0051815566 -0.0032786771 -0.02099773
000250 13 48 b6 3c 09 89 00 3c 10 e5 39 bc fe b0 b9 3b
       0.022251165 0.007845172 -0.011346117 0.005666851
000260 06 0c 2f bc 37 af 66 bc 23 59 6a 3c 60 87 83 bb
       -0.010684019 -0.01407986 0.014303478 -0.0040139407
000270 85 ff bf 3c cd 76 d1 bc f2 a9 9f 3c 7a 47 a4 3c
       0.02343727 -0.025569344 0.019490216 0.020053614
000280 2b b8 b8 bb d2 a5 79 bb b1 8f ad bb 08 05 84 ba
       -0.005637189 -0.0038093221 -0.0052966704 -0.00100723
000290 ed 8a df 3c 38 6d ef 3c 84 ca 15 bc 4b 4c 0c 3c
       0.027287925 0.029226884 -0.009142522 0.008563112
0002a0 fa 91 e5 3b 6a 38 40 bc 38 1e ba bb 75 30 49 3b
       0.007005927 -0.0117322 -0.005679872 0.0030699049
0002b0 81 b0 1d bc 0b b0 a7 bb 27 94 41 3c 47 df 3d 3c
       -0.009624601 -0.0051174215 0.011815107 0.011588878
0002c0 5d f5 43 bc cd d6 52 3c 77 7d de bb 4f 78 0a 3d
       -0.011960355 0.012868595 -0.006789859 0.03380614
0002d0 b5 fe 1e bd ba 28 8d bc 8f fd 80 bc af e3 75 bb
       -0.038817126 -0.017231334 -0.015745906 -0.0037519743
0002e0 15 bc d2 bc 4b 0d 83 bc 12 7c 17 bc ba bd 76 3c
       -0.02572445 -0.01599755 -0.009245889 0.015059883
0002f0 d4 62 08 bb 87 78 a5 39 a5 6e cf 3c af a2 04 3c
       -0.002081086 0.00031561052 0.025321314 0.008095427
000300 ca 6f 6f bc bb 03 17 3c 02 78 83 3c 58 7b e0 bc
       -0.014614055 0.009217198 0.016048435 -0.027402565
000310 83 ba 82 bc 49 f1 b8 bc 9a d7 4d 3b e7 34 46 bc
       -0.015958076 -0.022575991 0.0031409026 -0.012097574
000320 cf b1 4d 3b 72 f1 d0 3b 68 f8 d7 bc 49 3a 48 bc
       0.00313865 0.006376439 -0.026363567 -0.0122209275
000330 e2 0f 6a 3b d6 0f 81 3c 84 55 2f bc 1a 80 53 3c
       0.0035715033 0.015754621 -0.010701541 0.01290896
000340 33 f3 74 3c ab 16 ef 3c b3 66 08 3d 4f 8f 25 3d
       0.014950561 0.029185614 0.033301067 0.040419873
000350 1b 0e f1 38 a7 1c 4e 3c cf 7b 32 bb e8 ff af bb
       0.00011494403 0.012580073 -0.002723444 -0.0053710826
000360 38 fc 58 3c 19 ab 27 3c b2 86 bf 3c 1b 30 21 3c
       0.013243727 0.010233664 0.023379657 0.009838129
000370 cd 0d 16 bd a3 0a a2 3c 8a e9 ff 3b 07 35 1e 3c
       -0.036634255 0.019780463 0.0078098224 0.009656197
000380 e2 1c f4 3b b4 f1 ba 3a 3d 55 77 3b ae 3c 88 bc
       0.007449732 0.0014262707 0.0037740015 -0.016630497
000390 3c 3f 37 bd 83 8f c0 3b 96 5a 82 bc 53 c1 3e 3c
       -0.04473804 0.005876483 -0.015912335 0.011642772
0003a0 33 f8 ca 3b 93 f0 2f 3c 47 4f 67 3c a1 cd 01 3b
       0.0061941384 0.01073851 0.014118022 0.0019806402
0003b0 bf 90 47 3b ba 51 76 3a cb d4 b7 bc 1f e0 05 3c
       0.0030451266 0.00093963335 -0.022440335 0.00817111
0003c0 b8 57 f5 bb f5 3a df b8 0b 64 b9 3b ae 63 b5 3c
       -0.0074872635 -0.0001064445 0.005657678 0.022142258
0003d0 5a 84 d0 3c 04 f9 b9 3c 33 6b 02 bd d7 d4 00 3c
       0.025453735 0.022701748 -0.031840514 0.007863245
0003e0 97 0c eb 3b 2f a0 a7 3c a2 70 cc 3c 98 8b 66 3c
       0.0071731317 0.020462124 0.024956051 0.014071368
0003f0 a3 56 94 3c 02 b4 92 bb 13 5d fc 3b 16 d1 c7 bc
       0.018107718 -0.004477025 0.007701525 -0.024391692

action_model._continuous_distribution.mu.bias f4 [2]
000000 00 00 00 00 00 00 00 00
       0.0 0.0

action_model._discrete_distribution.branches.0.weight f4 [1, 128]
000000 15 cf ed bb 33 b0 2c 3c fa e0 ce bb 2b f7 66 39
       -0.007257352 0.010540056 -0.0063134404 0.00022026587
000010 8e 24 05 3c dd 4e 42 bc da 50 ee bb 9b 63 ff 3b
       0.008126391 -0.011859623 -0.007272822 0.0077938563
000020 eb 93 bb 3b 99 42 1f 3a 41 85 ad 3b d4 9c b3 bb
       0.0057244203 0.00060752925 0.005295426 -0.005481342
000030 e3 34 2e 3c 7b 4a 28 3c 52 11 e1 3b 4a eb f0 ba
       0.010632726 0.010271664 0.00686852 -0.0018380668
000040 c1 6f 9a 39 fc e7 96 bb 63 aa 3b 3c cf a6 09 bb
       0.00029456432 -0.0046052914 0.011454198 -0.0021003967
000050 8e a0 3d bb c5 c1 62 3b ef 2d c7 b9 c5 6e 05 3c
       -0.002893481 0.003460036 -0.0003799046 0.008144085
000060 c0 cb 23 bb 2c b9 aa 3b 49 3c 3f bc 0a af 2e 3c
       -0.002499327 0.0052100625 -0.011672088 0.01066185
000070 87 10 2b 3c 27 81 b4 b8 4f c9 d5 bc 93 6c 8c bc
       0.010440952 -8.607125e-05 -0.026096968 -0.017141616
000080 ef 75 13 bc 47 5b a5 bb 3c 58 84 bb 8b c0 8b bb
       -0.0090002855 -0.0050462815 -0.0040388387 -0.0042648963
000090 37 1c b0 b7 eb 71 d3 3b 2b 7f b1 3b 46 af 8f 3a
       -2.0993974e-05 0.006452789 0.005416771 0.001096227
0000a0 df 64 4f b9 0a a8 54 3b 58 cc 5d bc 85 af 31 3c
       -0.00019778636 0.0032448792 -0.013537489 0.01084507
0000b0 7f e3 cd ba 1f 94 80 bb b7 f4 4b 3b 0f 8c 45 bc
       -0.0015708058 -0.0039239074 0.0031121203 -0.012057318
0000c0 31 1c 1f 3c 0f df 33 bc cf 9e 96 3b 78 c0 d0 3a
       0.009711311 -0.010978474 0.004596568 0.0015926501
0000d0 f5 1c 10 bc 16 94 21 38 8b 96 d2 ba 2b bf f8 bb
       -0.008795966 3.8523307e-05 -0.0016066594 -0.0075911484
0000e0 04 f4 48 bc 8e 04 9d bb fb f9 d0 3b a9 e0 97 3c
       -0.012265209 -0.0047918027 0.0063774562 0.018539743
0000f0 c3 3c 0b bc 99 27 ab bb eb dd 96 bb 1b 0e a4 bc
       -0.008498373 -0.0052232263 -0.0046040914 -0.020026257
000100 c8 8c 90 3b a2 cf 7f 3c 68 14 6b 3b f8 b4 02 bb
       0.0044113137 0.015613468 0.0035870317 -0.0019944292
000110 65 06 54 bc a3 e7 a8 bb 9f 23 3c 3c 12 ae ae ba
       -0.012940978 -0.0051545664 0.011483102 -0.0013327023
000120 ef b3 8f bb d2 65 89 bb 18 51 6f bc d6 d1 9a bb
       -0.0043854634 -0.004193046 -0.014606737 -0.0047247214
000130 15 18 b3 3c 40 66 63 3c 5b fe 77 bc 0b 24 26 3c
       0.02186207 0.013879359 -0.015136327 0.010140429
000140 9b b2 80 3c 7f bc 71 3b be 1c c4 3a 97 a3 25 3b
       0.015710166 0.0036886034 0.0014962179 0.002527451
000150 6f 3d 3c bc c5 45 30 bc 7b 91 95 3b 08 0a fd 3b
       -0.011489256 -0.010758822 0.0045644618 0.007722143
000160 f3 0c e1 3b ef 4e e0 ba b5 cb 65 bc 47 fd c7 3b
       0.0068679987 -0.0017113368 -0.014025618 0.006103191
000170 5f 55 42 bb c1 9d 0e bb 63 70 01 bc e6 f1 08 bc
       -0.0029652936 -0.002176151 -0.00790033 -0.008358454
000180 fa 14 6b 3b af 6b 72 bc f2 ac c6 37 3d 27 a2 3b
       0.0035870657 -0.014796182 2.3683973e-05 0.004948525
000190 ff a7 06 ba 7e c5 86 3b 58 c4 f3 3b 4f ea 7e bc
       -0.00051367277 0.0041128984 0.0074391775 -0.015558793
0001a0 17 3e a2 bc ef 9a 03 bb 73 1d 0e 3c e2 a7 a3 bb
       -0.019804997 -0.0020081361 0.008674013 -0.0049943784
0001b0 f5 38 dd bb 47 14 44 bc da dd dd ba cb 87 4d bc
       -0.0067511746 -0.011967725 -0.0016927079 -0.012544583
0001c0 d5 ed be 3b 4c 37 32 bb 75 0a 67 3a c5 ae 9d bb
       0.0058266916 -0.0027193604 0.0008813509 -0.004812094
0001d0 7d 6d 84 3b 2e c6 3d 3b fd 83 63 bc d8 1b 98 bb
       0.0040413723 0.0028957236 -0.013886449 -0.004641991
0001e0 a9 5f 0a 3b c2 c8 58 ba 17 9d b6 ba f5 16 5f 3c
       0.0021114147 -0.00082696613 -0.0013932314 0.013616313
0001f0 32 32 ad 3a fa 42 68 bc 08 6d 10 bb b5 f8 4d 3c
       0.0013213812 -0.014176125 -0.0022037644 0.012571503
