Learning/AIRollABall/results/TestParameters/AIRollABall/AIRollABall-2499969.onnx (onnx, 100320 bytes, 9 tensors)

network_body._body_endoder.seq_layers.0.weight f4 [128, 47]
0.1507922 0.18123753 0.27429187 -0.06988312 0.11258352 0.10119222 -0.09764292 -0.071679614
0.09273836 0.04571331 -0.0050611384 0.055603147 0.08794624 -0.15953544 0.22491461 0.024220468
0.11858191 -0.060653098 -0.009300861 -0.23676834 0.14830384 0.077540495 -0.09996834 -0.15688795
0.09445735 0.15837714 0.02566397 -0.19521084 0.107004784 0.12619832 -0.1279602 0.05933992
-0.15127313 -0.027498389 -0.15909524 -0.009388547 -0.14262822 -0.27724114 -0.01779555 0.043891482
0.1183751 0.15535274 -0.045940693 0.038782354 -0.36707363 -0.04746558 0.038344506 0.15434359
0.08338141 0.04984626 0.104005024 -0.074172445 -0.15836602 0.3837961 -0.04604729 0.09680818
-0.049072877 0.23537683 0.06780506 -0.30052727 -0.25372234 0.0011627594 -0.0075018564 -0.07922417
0.06783146 0.004779606 0.059214268 0.24693643 0.06651192 0.163981 0.07317132 0.15462784
-0.025806483 0.064148694 -0.073193625 0.14039764 0.13437015 -0.0589093 -0.042177957 0.1889825
-0.028688466 0.1677827 0.27804774 0.07902883 -0.14358068 -0.018226428 -0.22581798 -0.049543124
-0.020391064 -0.3791206 -0.020065665 0.07733677 -0.04604887 -0.091572 0.4068697 -0.0514011
-0.08517666 0.14912884 -0.20477755 0.018032843 -0.24493618 -0.23597926 -0.087193765 -0.066186495
0.03981325 -0.32834208 -0.092700556 -0.05710548 0.01467081 0.11265116 -0.11975558 -0.15763761
-0.017037908 -0.33979115 0.063068114 0.19314766 0.12243128 0.064380154 0.13406852 0.106429644
0.25293452 -0.064148806 -0.105174586 0.12968688 0.08892084 -0.024014035 -0.19132125 0.021894224
0.19512214 0.2034618 0.33298212 -0.22688887 -0.090962015 0.06315887 0.033547476 0.1848062
0.10869577 -0.0036162224 0.0063438523 0.35439244 0.2440366 -0.10344144 0.15700708 0.06837638
-0.060816314 -0.05724683 0.017057728 0.043759443 0.20020908 -0.24923553 0.10910496 0.17927743
0.09840513 -0.068820015 -0.009393856 -0.034398776 -0.008778131 -0.12563127 0.008858999 -0.22411261
0.038508072 -0.08043312 0.08605638 0.08264339 -0.08389081 -0.3123457 -0.15400879 0.05825853
0.1626227 0.038151603 -0.05925208 -0.011750173 0.12332978 -0.016293155 0.012370241 -0.13822295
-0.042102363 -0.08209205 -0.11095598 -0.103201345 -0.07639509 -0.03162712 -0.036337536 -0.38051453
0.04917723 0.48703942 0.16450772 -0.096577525 0.044905063 -0.17589206 0.24976997 -0.13015962
-0.012214703 -0.19523856 0.101451434 0.018278375 0.1284951 0.24617234 -0.052909207 0.124915406
0.14765732 0.15512381 -0.13882448 -0.06681462 0.2036125 -0.13293558 -0.3022875 0.0950495
0.2518454 0.029307494 0.105426535 -0.02662287 0.0644065 0.12944901 -0.0007669967 0.38070133
0.023718305 -0.05021305 -0.038944323 -0.04612348 0.0036298095 0.09196294 -0.05054932 0.11176868
0.11004859 0.13839896 -0.20096113 -0.06579732 -0.020726804 -0.3858982 0.09615707 -0.044559117
0.31536537 -0.15087014 -0.21950802 0.2893855 -0.2648974 -0.16513836 -0.038030274 -0.053984016
-0.05981779 0.075636536 -0.11403231 0.031826485 0.047847122 0.4154241 -0.065737784 -0.09117484
-0.03800471 0.18809879 -0.108949386 -0.18863818 0.10778482 -0.14952587 -0.1453008 0.013898267
00000000: 4569 1a3e 5596 393e fc6f 8c3e e21e 8fbd
00000010: 3092 e63d de3d cf3d 03f9 c7bd c3cc 92bd
00000020: 9ced bd3d e13d 3b3d e8d7 a5bb 20c0 633d
00000030: 291d b43d 425d 23be 0450 663e 016a c63c
00000040: 13db f23d 626f 78bd a362 18bc 6673 72be
00000050: f6dc 173e 8dcd 9e3d 33bc ccbd 3ca7 20be
00000060: db72 c13d 9e2d 223e 3f3d d23c 5ae5 47be
00000070: 5325 db3d 223a 013e 0008 03be 6a0e 733d
00000080: 58e7 1abe 4d44 e1bc dde9 22be 6cd2 19bc
00000090: 220d 12be 8df2 8dbe f9c7 91bc 8ec7 333d
000000a0: a56e f23d ca14 1f3e 4f2c 3cbd 3fda 1e3d
000000b0: 13f1 bbbe 456b 42bd 210f 1d3d 3f0c 1e3e
000000c0: dfc3 aa3d 982b 4c3d 9600 d53d b9e7 97bd
000000d0: b42a 22be ec80 c43e 159c 3cbd 5e43 c63d
000000e0: a400 49bd a006 713e 61dd 8a3d b6de 99be
000000f0: e5e7 81be bb67 983a 22d2 f5bb 4840 a2bd
00000100: 38eb 8a3d 3e9e 9c3b a98a 723d e7dc 7c3e
00000110: 6737 883d a3ea 273e d8da 953d c356 1e3e
00000120: 1e68 d3bc 6460 833d 8ae6 95bd 66c4 0f3e
00000130: 5498 093e e14a 71bd cbc2 2cbd a184 413e
00000140: 1304 ebbc 3acf 2b3e 465c 8e3e ded9 a13d
00000150: d006 13be 974f 95bc d43c 67be bbed 4abd
00000160: 290b a7bc 181c c2be c060 a4bc be62 9e3d
00000170: bd9d 3cbd 1a8a bbbd 3a51 d03e f689 52bd
00000180: 1a71 aebd 3bb5 183e 35b1 51be 9db9 933c
00000190: 8dd0 7abe 8ca4 71be a592 b2bd c98c 87bd
000001a0: 3813 233d 741c a8be cad9 bdbd 70e7 69bd
000001b0: d65d 703c a7b5 e63d 6a42 f5bd c16b 21be
000001c0: 1593 8bbc 1bf9 adbe db29 813d 80c8 453e
000001d0: 40bd fa3d bed9 833d 4249 093e c9f7 d93d
000001e0: a280 813e 7360 83bd c665 d7bd a3cc 043e
000001f0: 211c b63d 15b9 c4bc b8e9 43be 845b b33c
00000200: 19ce 473e 4a58 503e a27c aa3e 8e55 68be
00000210: 4b4a babd 7059 813d 1469 093d d63d 3d3e
00000220: e39b de3d 25fe 6cbb 17e0 cf3b ed72 b53e
00000230: bbe4 793e 1bd9 d3bd 77c6 203e ea08 8c3d
00000240: 871a 79bd a77b 6abd a6bc 8b3c 1a3d 333d
00000250: 9c03 4d3e 9937 7fbe 6c72 df3d 8194 373e
00000260: a188 c93d 82f1 8cbd b0e8 19bc bbe5 0cbd
00000270: 26d2 0fbc 7ca5 00be 5625 113c c77d 65be
00000280: a4ba 1d3d 1fba a4bd 543e b03d f040 a93d
00000290: f2ce abbd c7eb 9fbe 7bb4 1dbe 7fa0 6e3d
000002a0: 9186 263e db44 1c3d 4fb2 72bd cc83 40bc
000002b0: 5394 fc3d 3979 85bc 8dac 4a3c 518a 0dbe
000002c0: 8773 2cbd e01f a8bd e43c e3bd 3a5b d3bd
000002d0: 0775 9cbd 708b 01bd abd6 14bd cdd2 c2be
000002e0: 106e 493d 3b5d f93e b674 283e 70ca c5bd
000002f0: 5fee 373d 0c1d 34be b3c3 7f3e 9048 05be
00000300: 2d20 48bc 9eec 47be c5c5 cf3d 88bc 953c
00000310: 3894 033e 9a14 7c3e 53b7 58bd a6d3 ff3d
00000320: 7b33 173e c7d8 1e3e 0128 0ebe 1ad6 88bd
00000330: cc7f 503e 4420 08be 6dc5 9abe 50a9 c23d
00000340: e1f1 803e 4516 f03c dee9 d73d 3418 dabc
00000350: 8ee7 833d 488e 043e 4710 49ba 49eb c23e
00000360: e44c c23c 33ac 4dbd 1584 1fbd f9eb 3cbd
00000370: 19e2 6d3b 1157 bc3d ce0c 4fbd fae6 e43d
00000380: 2861 e13d 75b8 0d3e c1c8 4dbe bfc0 86bd
00000390: 42cb a9bc 7394 c5be ffed c43d 9f83 36bd
000003a0: 9277 a13e b47d 1abe b6c6 60be 562a 943e
000003b0: a2a0 87be 081a 29be a2c5 1bbd 581e 5dbd
000003c0: 8003 75bd 54e7 9a3d c689 e9bd 7d5c 023d
000003d0: 58fb 433d 78b2 d43e 88a1 86bd e0b9 babd
000003e0: d4aa 1bbd f89c 403e db20 dfbd 5e2a 41be
000003f0: 4abe dc3d 4f1d 19be bcc9 14be 8fb5 633c

network_body._body_endoder.seq_layers.0.bias f4 [128]
-0.013906628 -0.022643713 0.008841631 -0.0063731773 -0.0067057214 -0.02551288 -0.041727375 -0.04424343
-0.0034945959 -0.0035744873 0.0005812709 -0.04259929 -0.006028202 0.020960443 -0.042375885 0.035589408
-0.03442385 -0.026130462 0.026932081 -0.04521675 -0.0037338005 -0.018421713 -0.049320225 -0.0036595273
0.007660472 0.03739025 -0.014784301 -0.015331019 0.074997626 -0.0042458456 0.019640153 -0.059658915
-0.002393598 -0.00696137 0.0043754242 -0.03550177 0.008304938 -0.0051261666 -0.023234922 -0.049323753
-0.004014113 -0.05498304 0.04624776 -0.003286777 0.0068803895 -0.019612186 0.043822233 0.026356177
-0.027697915 -0.014801657 -0.02598863 -0.024567941 -0.03394539 0.016401503 0.020296413 0.019405039
0.027006354 -0.035622843 -0.013106315 0.011962794 -0.021880688 -0.015923183 -0.034034476 -0.005566213
-0.006203152 -0.018709593 0.033623386 -0.028662352 0.042514224 -0.009075939 -0.040059466 0.0074754767
-0.027958069 -0.020078504 -0.060659006 -0.017477768 0.005623791 -0.008070315 0.042374063 0.0528378
0.007986289 0.015347466 0.006062507 0.028416067 -0.007981742 0.02886089 -0.023778902 -0.0020476105
0.008569497 -0.0021573154 -0.030365173 0.016516058 -0.028445624 0.008860402 -0.03796351 -0.03801142
-0.042037837 -0.003555124 0.027428737 -0.035593614 0.023766698 0.0071793776 -0.022821877 -0.024987511
-0.010772496 0.061339345 0.015695529 -0.0077073197 -0.045099773 -0.043316003 -0.035704434 -0.025356017
-0.03687212 0.005763185 -0.008513352 0.026068619 0.03958299 0.018508973 -0.018396217 8.479774e-05
-0.002849004 0.024072342 -0.0044017765 0.01136647 -0.014182171 -0.017976454 -0.004143739 -0.03363433
00000000: a0d8 63bc 4f7f b9bc 7ddc 103c 16d6 d0bb
00000010: abbb dbbb 6300 d1bc 53ea 2abd 9938 35bd
00000020: 9705 65bb f241 6abb 6e60 183a 987c 2ebd
00000030: 3988 c5bb 3cb5 ab3c 5692 2dbd 33c6 113d
00000040: 0600 0dbd 8d0f d6bc aba0 dc3c 3335 39bd
00000050: c7b2 74bb 22e9 96bc 0104 4abd aed4 6fbb
00000060: b204 fb3b 8526 193d da39 72bc f42e 7bbc
00000070: 5b98 993d bc20 8bbb 63e4 a03c e85c 74bd
00000080: e9dd 1cbb 341c e4bb b85f 8f3b 4e6a 11bd
00000090: 6f11 083c 67f9 a7bb 2a57 bebc b407 4abd
000000a0: d288 83bb e535 61bd 4b6e 3d3d f866 57bb
000000b0: e474 e13b bca9 a0bc f17e 333d e9e8 d73c
000000c0: bde6 e2bc a682 72bc 1be6 d4bc b542 c9bc
000000d0: 520a 0bbd 725c 863c aa44 a63c 51f7 9e3c
000000e0: 6e3c dd3c 42e9 11bd dfbb 56bc 98ff 433c
000000f0: 213f b3bc 5671 82bc bc67 0bbd c764 b6bb
00000100: cf43 cbbb dc44 99bc adb8 093d 4fcd eabc
00000110: 6523 2e3d 3fb3 14bc 6515 24bd d8f4 f43b
00000120: 5208 e5bc ad7b a4bc 9475 78bd 892d 8fbc
00000130: c747 b83b 5b39 04bc 6d90 2d3d 736c 583d
00000140: edd8 023c f073 7b3c ffa7 c63b d0c8 e83c
00000150: dac5 02bc ac6d ec3c f9cb c2bc 3431 06bb
00000160: 1367 0c3c bf61 0dbb 62c0 f8bc af4c 873c
00000170: cc06 e9bc 382b 113c a07f 1bbd ddb1 1bbd
00000180: de2f 2cbd 15fd 68bb 3bb2 e03c 9cca 11bd
00000190: 61b2 c23c fc40 eb3b f2f4 babc 9cb2 ccbc
000001a0: 207f 30bc f73e 7b3d e993 803c af8d fcbb
000001b0: 8aba 38bd 1f6c 31bd d03e 12bd 6cb7 cfbc
000001c0: 3807 17bd 1ad9 bc3b 967b 0bbc db8d d53c
000001d0: c621 223d 21a0 973c aab3 96bc 71d5 b138
000001e0: 5bb6 3abb 5c33 c53c c73c 90bb 6e3a 3a3c
000001f0: 565c 68bc 5b43 93bc 34c8 87bb 27c4 09bd

network_body._body_endoder.seq_layers.2.weight f4 [128, 128]
0.020277008 -0.023913048 0.198104 0.073620126 0.028901527 -0.020348426 0.11479613 0.0717873
0.19063818 -0.05071992 -0.02179529 -0.046593633 0.0062820786 0.066934414 0.030701173 0.016238566
0.06019573 0.14290324 -0.11108705 -0.083278425 0.09675032 0.075924605 -0.10728571 -0.036674857
-0.04453163 -0.08177896 0.107174404 -0.0032865829 -0.09919887 -0.04769479 -0.038190454 0.014333932
0.04522838 -0.07397821 -0.1464026 -0.10835749 -0.08127979 0.026669333 0.08406045 0.06092595
0.14293998 0.0008734076 0.0136516495 -0.03154587 0.04293657 -0.061715636 -0.06362749 0.03176837
-0.034993377 -0.24413484 0.04215142 0.05277869 0.21988131 -0.11045522 0.07536014 0.06358446
0.059636462 0.23115097 0.050130036 -0.15724486 -0.003968621 0.09291701 0.0010845138 0.10896187
-0.11342818 0.1616859 -0.109025896 -0.15703043 -0.11973458 0.09000728 0.0567988 0.03311364
0.12406166 -0.024230974 -0.086089976 -0.06399563 -0.06477957 0.20762023 -0.015791131 0.017304294
0.017413085 0.011309801 0.029156286 -0.12864941 -0.14424843 0.10228301 -0.055497903 0.09157979
-0.12848477 -0.0066091386 -0.086278625 0.09844227 -0.031820208 -0.132744 -0.0095589785 -0.10004865
-0.0072926194 -0.093351625 -0.07239404 -0.026475528 -0.1356108 0.010652027 -0.17212586 -0.009096333
-0.13591294 0.1202464 -0.0118689705 -0.11343501 0.057759173 -0.05494259 0.022635868 0.0880974
-0.008428981 -0.08058689 0.08111841 -0.0551511 0.066789806 0.11380604 0.05277251 -0.016007036
-0.14734788 0.002637622 0.006590631 0.08269683 0.058722828 -0.051671416 -0.10799951 0.18659452
0.05512378 -0.2263339 0.034095343 0.017619543 0.16449139 0.06412595 0.114079416 0.13482134
0.13629597 0.085616745 0.038737755 -0.14731596 0.013829101 0.13287659 -0.1441832 0.06380232
-0.036654282 0.13852853 0.22007339 -0.1136817 0.087135896 -0.028459735 0.1462726 -0.03621101
0.05290563 0.04026288 0.026644118 0.12956697 -0.14826787 0.004333777 -0.029852055 -0.050513245
0.009520737 -0.088861115 0.20387904 -0.1889809 0.031018972 -0.044019345 0.0040724976 -0.0018120506
-0.16043764 -0.0048689875 0.09139102 0.16357082 -0.09000597 0.025314184 0.06409944 -0.11628523
-0.051386084 -0.05732046 -0.17916016 -0.12299967 -0.009022137 0.2351856 0.16445781 0.08942649
-0.05614801 0.04348641 0.047818948 0.026560517 0.0012782678 0.124636196 -0.07171565 -0.011275368
-0.05880323 0.0546007 0.013028566 -0.047483653 -0.10292465 -0.025240552 -0.035751104 0.115935236
-0.09461249 0.105523095 -0.079487115 0.10183273 -0.027221842 0.081058145 -0.101009615 -0.15692577
0.040453337 -0.053119525 -0.1480327 -0.016620306 0.0167081 0.0668436 0.035564173 0.03477377
0.004916449 0.018385982 -0.0647741 -0.008571649 -0.010847357 0.1170802 -0.19088478 -0.12833013
-0.052190952 -0.03464127 -0.12940437 0.10250988 0.017937746 0.16693808 -0.039135627 0.17353755
0.13174543 -0.033067957 0.037322354 0.06810918 -0.01671039 -0.04858374 -0.18225524 0.061018746
0.028373517 0.05742869 -0.13558534 0.16916993 -0.07092486 -0.018515406 -0.098948784 -0.0058943867
0.103899956 -0.03230902 -0.06358095 0.11768429 -0.19108643 -0.008540251 -0.049424294 0.0063636936
00000000: f81b a63c 4ce5 c3bc c6db 4a3e 26c6 963d
00000010: e5c2 ec3c beb1 a6bc 3c1a eb3d 3805 933d
00000020: a836 433e b1bf 4fbd 098c b2bc f7d8 3ebd
00000030: e5d9 cd3b e914 893d 0781 fb3c be06 853c
00000040: cc8f 763d 3a55 123e 9b81 e3bd e18d aabd
00000050: 0825 c63d 5c7e 9b3d 9cb8 dbbd 6038 16bd
00000060: cc66 36bd ba7b a7bd 417e db3d b663 57bb
00000070: c728 cbbd 9d5b 43bd 986d 1cbd ded8 6a3c
00000080: 6541 393d e381 97bd 90ea 15be 88ea ddbd
00000090: 0576 a6bd a579 da3c e327 ac3d 7d8d 793d
000000a0: dc5e 123e 64f5 643a 2bab 5f3c 3e36 01bd
000000b0: 42de 2f3d 89c9 7cbd 214f 82bd 8d1f 023d
000000c0: 3755 0fbd 7cfe 79be f8a6 2c3d 782e 583d
000000d0: 9128 613e 5936 e2bd 6b56 9a3d 9238 823d
000000e0: 5d45 743d d7b2 6c3e 2755 4d3d cc04 21be
000000f0: 350b 82bb 464b be3d 3f26 8e3a 6727 df3d
00000100: 094d e8bd fd90 253e f848 dfbd 96cc 20be
00000110: 6737 f5bd bd55 b83d dca5 683d 2ba2 073d
00000120: 0a14 fe3d 0980 c6bc f14f b0bd 2410 83bd
00000130: 27ab 84bd 669a 543e 675c 81bc bcc1 8d3c
00000140: e3a5 8e3c be4c 393c 2ad9 ee3c acbc 03be
00000150: dcb5 13be c179 d13d c551 63bd 2f8e bb3d
00000160: 8391 03be 7991 d8bb d9b2 b0bd 1a9c c93d
00000170: e855 02bd 0bee 07be 439d 1cbc 4ee6 ccbd
00000180: edf6 eebb 232f bfbd 5443 94bd 35e3 d8bc
00000190: 8fdd 0abe d785 2e3c c341 30be c908 15bc
000001a0: c32c 0bbe bf43 f63d 1276 42bc 9d50 e8bd
000001b0: e294 6c3d 7b0b 61bd db6e b93c 696c b43d
000001c0: b519 0abc bd0a a5bd 6921 a63d 1fe6 61bd
000001d0: 18c9 883d 2413 e93d fd27 583d 3021 83bc
000001e0: 5de2 16be f4db 2c3b 38f6 d73b f55c a93d
000001f0: 5987 703d 68a5 53bd d92e ddbd a212 3f3e
00000200: 79c9 613d 13c4 67be 8fa7 0b3d dc56 903c
00000210: 6e70 283e 7754 833d 78a2 e93d 9b0e 0a3e
00000220: 2c91 0b3e d557 af3d 7bab 1e3d ffd9 16be
00000230: 7493 623c cd10 083e c3a4 13be caaa 823d
00000240: cd22 16bd 6cda 0d3e eb5a 613e f3d1 e8bd
00000250: 4e74 b23d 6424 e9bc 7cc8 153e ff51 14bd
00000260: 93b3 583d b1ea 243d c444 da3c 34ad 043e
00000270: 88d3 17be 5b02 8e3b 4c8c f4bc fae6 4ebd
00000280: defc 1b3c d1fc b5bd abc5 503e 3684 41be
00000290: 801b fe3c a14d 34bd 9672 853b 5482 edba
000002a0: c449 24be 078c 9fbb 372b bb3d 1c7f 273e
000002b0: 0d55 b8bd b15f cf3c 9146 833d f326 eebd
000002c0: 377a 52bd dcc8 6abd c375 37be 40e7 fbbd
000002d0: 96d1 13bc 7ed4 703e a167 283e 3c25 b73d
000002e0: 75fb 65bd ce1e 323d cddd 433d 7195 d93c
000002f0: 8d8b a73a 4341 ff3d a8df 92bd 52bc 38bc
00000300: a8db 70bd fca4 5f3d c475 553c 387e 42bd
00000310: 29ca d2bd 46c5 cebc c06f 12bd 746f ed3d
00000320: 31c4 c1bd 7e1c d83d 24ca a2bd ae8d d03d
00000330: 5700 dfbc d001 a63d 21de cebd 26b1 20be
00000340: 66b2 253d dc93 59bd e295 17be 4f27 88bc
00000350: 6ddf 883c 4ce5 883d bdab 113d f16e 0e3d
00000360: 2a1a a13b 339e 963c 49a8 84bd 1a70 0cbc
00000370: 1db9 31bc bec7 ef3d 4d77 43be f968 03be
00000380: 2ec6 55bd 01e4 0dbd 9482 04be b3f0 d13d
00000390: 2ef2 923c d1f1 2a3e ae4c 20bd d4b3 313e
000003a0: 46e8 063e 4472 07bd 53df 183d d37c 8b3d
000003b0: 3ae4 88bc beff 46bd 1ea1 3abe cbee 793d
000003c0: 946f e83c 593a 6b3d e2d6 0abe e23a 2d3e
000003d0: 0e41 91bd 9fad 97bc a9a5 cabd b325 c1bb
000003e0: 80c9 d43d 7756 04bd bb36 82bd 7604 f13d
000003f0: 29ac 43be 69ec 0bbc 2171 4abd 8886 d03b

network_body._body_endoder.seq_layers.2.bias f4 [128]
-0.008939866 0.017056786 -0.00322308 -0.006539443 0.011785523 0.017539287 -0.012027723 -0.033935208
-0.017021036 -0.038260102 -0.026458718 -0.023138456 0.022451852 -0.013249629 0.029772533 -0.020245261
0.0033176164 0.0018446745 -0.009067774 -0.018058188 -0.008542913 -0.024290135 -0.021347648 -0.00389278
0.042067237 0.10079209 -0.0062035155 0.033023797 -0.0005336761 0.048320837 -0.010507987 0.055864513
-0.017498882 -0.023119695 -0.007738606 0.018071909 0.0005619975 0.009224378 0.002018512 0.013085772
-0.017195301 0.038125135 0.015361723 0.016464373 0.05289003 -0.0130599765 0.0018661186 0.005107903
0.00045714708 0.07700324 -0.019650519 0.004543217 -0.029429987 -0.030863922 -0.0022810823 0.076443635
0.0128063485 0.005016052 -0.004035022 0.0372948 0.025281427 -0.01939616 0.001525759 -0.0368086
0.012490758 -0.025732622 0.054423366 -0.006336155 0.03962676 0.022519391 0.00083014317 -0.029601753
-0.0006715179 0.012070228 0.003210262 0.0029732804 0.013689821 0.0074896626 -0.00027409729 -0.0078658555
-0.017910179 0.021508245 0.008983881 -0.011212442 -0.015008704 0.026352623 -0.02323172 -0.008162242
0.031297665 0.10289644 -0.0026254645 0.03230056 -0.01167893 -0.017303959 0.0076803644 -0.0047863917
0.03317947 0.023260856 -0.012282268 0.043054957 -0.010424747 -0.014063513 0.032534778 -0.020845674
0.020534048 0.029047636 0.048815284 0.0028631855 -0.027224245 -0.022815546 0.044930004 -0.013433459
0.109377295 0.011902267 0.018781735 -0.012805087 -0.033812046 -0.03709512 0.06636707 -0.0043418226
-0.006060495 0.02497555 -0.024697868 -0.020819727 -0.020670867 -0.006126084 -0.0053218887 -0.0009491586
00000000: 8478 12bc acba 8b3c 4f3a 53bb d348 d6bb
00000010: 1118 413c 8dae 8f3c ed0f 45bc a5ff 0abd
00000020: b36f 8bbc a0b6 1cbd f4bf d8bc dc8c bdbc
00000030: f2ec b73c f914 59bc 87e5 f33c 64d9 a5bc
00000040: 5e6c 593b 01c9 f13a 0091 14bc c4ee 93bc
00000050: 93f7 0bbc 1bfc c6bc 43e1 aebc 031e 7fbb
00000060: b24e 2c3d 156c ce3d dc46 cbbb f643 073d
00000070: 66e6 0bba 12ec 453d b129 2cbc 30d2 643d
00000080: d159 8fbc 8465 bdbc 2294 fdbb 8a0b 943c
00000090: 0453 133a d821 173c 0349 043b b565 563c
000000a0: 29dd 8cbc 1a29 1c3d bcaf 7b3c 4be0 863c
000000b0: 37a3 583d 83f9 55bc 8d98 f43a 3260 a73b
000000c0: 3ead ef39 e0b3 9d3d 20fa a0bc 44df 943b
000000d0: 2817 f1bc 56d6 fcbc 367e 15bb 7b8e 9c3d
000000e0: b8d1 513c b25d a43b 3838 84bb 6fc2 183d
000000f0: ff1a cf3c b2e4 9ebc fafb c73a 9dc4 16bd
00000100: 09a6 4c3c 38cd d2bc 09eb 5e3d 859f cfbb
00000110: ab4f 223d 967a b83c f79d 593a 607f f2bc
00000120: ce08 30ba 35c2 453c 4263 523b 5edb 423b
00000130: 454b 603c d86b f53b b7b4 8fb9 cadf 00bc
00000140: 5eb8 92bc 0f32 b03c 2131 133c 64b4 37bc
00000150: 11e7 75bc 75e1 d73c 7350 bebc edba 05bc
00000160: fb31 003d 5ebb d23d fc0f 2cbb 984d 043d
00000170: fc58 3fbc 08c1 8dbc 91ab fb3b 2ad7 9cbb
00000180: 32e7 073d 8d8d be3c 913b 49bc 655a 303d
00000190: 8fcc 2abc a66a 66bc 3043 053d 8cc4 aabc
000001a0: 0537 a83c 4ff5 ed3c 89f2 473d 48a4 3b3b
000001b0: 6105 dfbc abe7 babc 8608 383d 0318 5cbc
000001c0: 3401 e03d ba01 433c 27dc 993c 6dcc 51bc
000001d0: 807e 0abd 0df1 17bd 75eb 873d d945 8ebb
000001e0: 1e97 c6bb 8699 cc3c 2f53 cabc 228e aabc
000001f0: f355 a9bc 51bd c8bb 3d63 aebb f5d0 78ba

action_model._continuous_distribution.log_sigma f4 [1, 3]
-0.20105012 -0.18123077 -0.006943654
00000000: 15e0 4dbe 8f94 39be 9787 e3bb

action_model._continuous_distribution.mu.weight f4 [3, 128]
0.02007686 -0.03529013 0.002627805 0.025383761 0.013902602 -0.0070579574 0.0003510827 0.010683092
-0.0014337072 0.026120547 0.0030081193 0.021725211 -0.0048507825 0.033621747 0.053980857 0.027064499
0.02407661 0.032389604 -0.022319939 0.027091311 -0.01373418 0.010579441 0.022865148 -0.0073496094
-0.119248345 0.18882594 -0.002206772 0.0052280016 0.010611606 -0.09473112 0.0044452604 -0.034159426
0.049022928 0.0004907039 -0.0072588623 -0.0016055526 0.03569767 -0.0034800244 0.013187032 -0.00531205
-0.003963428 -0.047875673 0.00014632575 0.026724176 0.10212667 -0.026228901 0.012228983 0.037985798
0.09013797 0.19026567 -0.008062816 0.020621825 0.006587075 -0.0012612644 0.014826475 -0.043634642
0.0029670843 -0.0070102024 -0.01935599 0.0060031526 -0.047886442 0.009077337 0.024694122 0.005319477
-0.023925483 0.020908877 0.13464597 0.006193763 0.026282465 -0.0046135476 -0.02162962 0.00631453
-0.015451914 0.057694312 0.0006842615 -0.0026819396 -0.02448438 -0.0209169 0.020815851 0.010477979
0.024518134 0.0087605165 0.007946843 0.0069461325 -0.0023704069 0.007063574 -0.016098525 -0.02778942
0.015172004 0.011002207 -0.00038804128 -0.0045740637 0.003379655 -0.004966292 0.03246988 -0.007713115
0.06314092 0.005296192 0.02219619 0.07807239 -0.011003357 -0.013302104 -0.010297335 0.06555488
-0.005838146 0.0026115575 0.0075602983 -0.034256205 0.024600893 -0.0016582304 0.016412305 0.0069277063
-0.11913572 -0.014818899 0.042979635 -0.01686408 0.0070756664 0.010444497 -0.109847076 -0.024246437
-0.019036798 -0.015090628 -0.013799599 0.005474482 -0.020487862 -0.020514162 -0.014905237 -0.025834208
0.029922508 -0.015547672 0.047264006 0.036117025 -0.018870056 -0.03191839 -0.00017886523 0.03877829
0.023176704 0.0005822451 0.025733113 0.010320607 -0.028508525 0.01560671 -0.032722548 0.044902615
-0.025255917 -0.009179206 0.014244554 0.01968132 0.02391343 0.028481573 0.0054897848 8.9209956e-05
-0.018657727 0.14443722 0.005375709 -0.059347928 0.0039072316 0.0032626155 0.034896158 0.14993946
-0.008128805 -0.0010423918 0.03433428 0.028222645 -0.044262476 -0.0039083213 0.029151736 -0.017077005
0.00978651 -0.008965428 -0.010352437 -0.03667937 0.026966048 0.031286933 0.014897665 0.022161808
0.015385674 0.008975171 0.028981606 -0.004584541 0.031019822 0.0041092145 -0.021922808 0.1821034
0.033845 0.0029449651 0.024264395 -0.049313866 0.060410697 0.028962329 -0.0152511615 0.0129013965
-0.009631816 0.042245187 0.058629658 -0.0022621395 -0.05138695 -0.030035743 0.03738637 0.007276185
-0.016183645 0.08408095 -0.0023025752 0.032044772 0.08470558 0.043689217 -0.004997793 -0.0066041597
0.037003234 -0.014427715 -0.033604544 -0.0051650405 0.002613326 -0.019620392 0.0038835986 0.0008733467
-0.03808608 -0.08492908 0.00043603644 -0.02032598 -0.0018857125 0.013621686 0.018261151 -0.035241593
-0.012613956 -0.0179052 -0.008647775 0.086151734 0.021619821 0.023143968 -0.019747535 0.018929124
-0.010775994 -0.027736895 -0.072828546 0.010887953 0.005224556 0.050482105 0.11601601 0.0016910036
-0.018633008 -0.008700892 -0.028296748 -0.008603172 0.0014237142 0.02131401 0.09983171 -0.027565762
0.0029859666 -0.02031588 0.013896139 0.016337102 0.030695558 0.02359287 0.011767217 0.015460666
00000000: 3a78 a43c 628c 10bd 4137 2c3b 9bf1 cf3c
00000010: bdc7 633c 7046 e7bb 8611 b839 2308 2f3c
00000020: 3beb bbba c2fa d53c de23 453b 12f9 b13c
00000030: 50f3 9ebb f5b6 093d 081b 5d3d 5eb6 dd3c
00000040: 503c c53c f6aa 043d 4ed8 b6bc 99ee dd3c
00000050: 5305 61bc 6455 2d3c b14f bb3c fed4 f0bb
00000060: 7a38 f4bd 965b 413e 7e9f 10bb a84f ab3b
00000070: 4ddc 2d3c 6402 c2bd 8ca9 913b c1ea 0bbd
00000080: 44cc 483d 95a2 003a c0db edbb 6871 d2ba
00000090: b837 123d 1f11 64bb 6c0e 583c b510 aebb
000000a0: a5df 81bb 4819 44bd 056f 1939 a9ec da3c
000000b0: ca27 d13d fedd d6bc 135c 483c ff96 1b3d
000000c0: 429a b83d 01d5 423e e719 04bc 1aef a83c
000000d0: 64d8 d73b 0351 a5ba beea 723c 3dba 32bd
000000e0: 6a73 423b d7b5 e5bb 7490 9ebc 18b6 c43b
000000f0: 9324 44bd 1cb9 143c 544b ca3c 024f ae3b
00000100: 60ff c3bc 1849 ab3c a2e0 093e 0df5 ca3b
00000110: 534e d73c 3e2d 97bb 9a30 b1bc 1eea ce3b
00000120: 062a 7dbc df50 6c3d 0360 333a 7bc3 2fbb
00000130: 7793 c8bc eb59 abbc 0186 aa3c d4ab 2b3c
00000140: 41da c83c 4588 0f3c 7a33 023c 629c e33b
00000150: d458 1bbb 8e75 e73b 0ee1 83bc a3a6 e3bc
00000160: ff93 783c 9a42 343c 0572 cbb9 07e2 95bb
00000170: 347d 5d3b 47bc a2bb 23ff 043d 4cbe fcbb
00000180: 0750 813d ae8b ad3b c9d4 b53c 6be4 9f3d
00000190: 6d47 34bc 11f1 59bc 27b6 28bc a341 863d
000001a0: eb4d bfbb aa26 2b3b 61bc f73b 3c50 0cbd
000001b0: d087 c93c fb58 d9ba 1973 863c d001 e33b
000001c0: 6efd f3bd f8ca 72bc 6a0b 303d 8a26 8abc
000001d0: feda e73b 651f 2b3c 81f7 e0bd 77a0 c6bc
000001e0: 0ff3 9bbc ae3e 77bc b717 62bc 4963 b33b
000001f0: 29d6 a7bc 510d a8bc 1835 74bc 43a2 d3bc
00000200: 0c20 f53c aabb 7ebc e797 413d 72ef 133d
00000210: 6095 9abc dcbc 02bd c58d 3bb9 fcd5 1e3d
00000220: 12dd bd3c cfa1 183a 40ce d23c c317 293c
00000230: b68a e9bc 49b3 7f3c 1408 06bd ceeb 373d
00000240: 7fe5 cebc 6164 16bc fd61 693c b83a a13c
00000250: 19e6 c33c 3052 e93c a7e3 b33b 3b16 bb38
00000260: 17d8 98bc 5ae7 133e b726 b03b d016 73bd
00000270: 3c08 803b 9bd1 553b 46ef 0e3d bb89 193e
00000280: ae2e 05bc dda0 88ba 1aa2 0c3d 2d33 e73c
00000290: 924c 35bd 6011 80bb 9fcf ee3c 13e5 8bbc
000002a0: 9957 203c bbe3 12bc 459d 29bc 1b3d 16bd
000002b0: e7e7 dc3c ba26 003d 5615 743c ae8c b53c
000002c0: 3214 7c3c 980c 133c d56a ed3c eb39 96bb
000002d0: 481d fe3c 97a6 863b 7697 b3bc 5079 3a3e
000002e0: 0ea1 0a3d 5100 413b 20c6 c63c 56fd 49bd
000002f0: 3571 773d 6842 ed3c 02e0 79bc 6160 533c
00000300: c4ce 1dbc 4a09 2d3d a725 703d 6740 14bb
00000310: 1f7b 52bd 850d f6bc 7322 193d 106d ee3b
00000320: 9093 84bc a232 ac3d cde6 16bb 6141 033d
00000330: 1e7a ad3d 77f3 323d 87c4 a3bb b567 d8bb
00000340: b490 173d 3962 6cbc eba4 09bd 803f a9bb
00000350: 5644 2b3b f2ba a0bc f983 7e3b 4ef1 643a
00000360: 2600 1cbd 4cef adbd d29b e439 ab82 a6bc
00000370: 032a f7ba 7e2d 5f3c 6998 953c 7d59 10bd
00000380: c4aa 4ebc edad 92bc 66af 0dbc 5270 b03d
00000390: 0d1c b13c 6b98 bd3c 95c5 a1bc 4011 9b3c
000003a0: cb8d 30bc 7c38 e3bc 2227 95bd 6363 323c
000003b0: c132 ab3b 53c6 4e3d cd99 ed3d aaa4 dd3a
000003c0: 40a4 98bc 308e 0ebc 95ce e7bc 52f4 0cbc
000003d0: ec9b ba3a b89a ae3c 9174 cc3d 98d1 e1bc
000003e0: 35b0 433b 7d6d a6bc a2ac 633c 63d5 853c
000003f0: 4075 fb3c d645 c13c 49cb 403c bc4e 7d3c

action_model._continuous_distribution.mu.bias f4 [3]
-0.011042421 -0.027952839 -0.017259423
00000000: 45eb 34bc 5afd e4bc a263 8dbc

action_model._discrete_distribution.branches.0.weight f4 [2, 128]
-0.0073660766 0.006352581 0.0066567007 -0.052178882 0.011471365 -0.028036326 0.0048283935 -0.005609084
-0.012012378 -0.0076182336 0.0001401973 -0.0116717145 -0.015074311 0.0003077251 0.015286315 -0.0046962495
-0.010406823 -0.015142925 -0.018091101 0.012263671 0.017604996 -0.01790771 0.002091521 0.008603127
0.007935844 -0.021881985 -0.00096361525 0.033101242 -0.027592298 -0.021172415 0.0041526947 0.010453206
0.008340893 -0.0139122065 -0.010978933 0.017656429 0.024705186 -0.004107012 -0.008882384 0.0063444446
-0.023415297 -0.00050813553 -0.0039748508 -0.005086278 0.007159318 -0.012162029 0.011535841 0.008361051
-0.0017552198 -0.0077554397 -0.016051194 -0.0031105173 -0.007140801 -0.008952112 0.010521763 0.012621554
0.0016611548 0.008367945 0.007892555 0.004899442 -0.035055958 -0.014813903 -0.009769742 0.008783472
0.004447155 0.0081386 0.01598196 -0.0107894065 0.017187318 0.0010550166 0.0048594438 0.0042780545
0.009338557 -0.008304789 0.002214999 0.00596872 -0.0053457464 -0.00941451 0.0121047 0.0013095943
-0.016523268 0.034749504 -0.0059443307 -0.008423967 -0.011919444 -0.0077203712 -0.0075324858 -0.0033011946
0.019407276 0.008016927 -0.0151927015 0.00377038 -0.016254073 -0.02229106 -0.024548762 0.011579942
-0.015616931 0.009221692 0.0059690196 0.025437124 0.002085429 -0.024118386 0.008938731 0.007848294
0.017040467 0.010381309 0.03750048 -0.008107399 -0.003522632 -0.002310598 0.0059974506 0.00664857
-0.05147138 0.024843348 -0.034020297 0.012962594 -0.0010342192 0.01892544 -0.030865364 0.016024236
-0.007592553 0.0063511557 -0.011049403 -0.021797223 -0.0013054624 0.0022542104 -0.007826563 -0.03506429
0.011208029 0.009249039 -0.0016860131 0.055946156 -0.0016964257 0.023189394 0.0046604145 -0.00039655835
0.015017919 0.016551634 0.008015484 0.0101427 -0.0058637024 -0.013237291 -0.012886856 0.028299464
0.015838485 -0.00408401 0.003478874 0.0025963206 0.008062739 0.014161533 5.1583724e-05 -0.01035158
0.008134879 0.022412797 0.0035434759 -0.017592423 0.022411037 0.02911827 -0.0014470535 0.008925921
0.020950206 -0.0069911494 0.016921887 -0.010376802 -0.014323088 -0.0022120741 0.013259152 -0.00325517
0.010504854 -0.005824203 -0.00070586405 0.0012283289 -0.012266986 0.0075795613 -0.014930553 0.011359489
0.0057624225 -0.011161408 0.0068538627 -0.0016426209 -0.0004891505 0.013758887 -0.011481522 -0.0017109502
-0.002116727 0.00020616554 -0.007357833 -0.024067815 0.031352602 0.013800565 -0.002485604 -0.012813653
-0.011340275 0.018710969 -0.018307189 -0.003318253 -0.027618289 0.014880662 -0.011164722 0.020674063
-0.024787197 0.008151198 -0.008295337 -0.008129747 0.0015672282 0.022992542 -0.013694159 0.0022816095
0.0025059509 -0.01461076 -0.016575577 0.0118705565 0.0109137315 -0.008351018 -0.012790865 0.005434307
-0.026279477 -0.011724776 -0.0044487617 -0.000110841196 -0.008613845 0.027352557 0.032201845 0.0023768132
-0.00082728046 0.0011362893 -0.01353358 -0.016801866 0.0072981804 0.008624421 -0.009258264 -0.0016372253
-0.009602239 -0.022113264 -0.040331602 0.004401653 -0.01297233 0.0009370388 0.0032760645 -0.007350999
0.038688406 -0.013872326 0.022480294 -0.018103408 -0.0045960518 0.0053286836 0.029241826 -0.018501768
-8.280268e-05 -0.022002535 0.015623802 0.027790843 -0.00562938 -0.0012647267 0.0014641717 0.0014143746
00000000: 215f f1bb 5029 d03b 7420 da3b 86b9 55bd
00000010: 64f2 3b3c 70ac e5bc 8037 9e3b 68cc b7bb
00000020: 91cf 44bc 60a2 f9bb ed01 1339 b83a 3fbc
00000030: 3efa 76bc 2a56 a139 7473 7a3c ffe2 99bb
00000040: 6181 2abc 081a 78bc ca33 94bc 90ed 483c
00000050: 5a38 903c 31b3 92bc e611 093b 21f4 0c3c
00000060: 5805 023c d941 b3bc 209b 7cba 2b95 073d
00000070: 3e09 e2bc c671 adbc 5413 883b ec43 2b3c
00000080: 3ea8 083c 06f0 63bc fce0 33bc 37a4 903c
00000090: 8862 ca3c 1d94 86bb 6b87 11bc 0fe5 cf3b
000000a0: 70d1 bfbc 6634 05ba 773f 82bb cbaa a6bb
000000b0: b698 ea3b 3f43 47bc d300 3d3c cafc 083c
000000c0: 670f e6ba 5821 febb cb7d 83bc d2d9 4bbb
000000d0: 61fd e9bb e1ab 12bc 7963 2c3c a2ca 4e3c
000000e0: 1bbb d93a b519 093c c64f 013c 808b a03b
000000f0: d696 0fbd 03b6 72bc 4511 20bc 8de8 0f3c
00000100: 71b9 913b c357 053c 99ec 823c 0dc6 30bc
00000110: 6bcc 8c3c 7c48 8a3a f83b 9f3b ec2e 8c3b
00000120: bf00 193c cf10 08bc 8429 113b 4195 c33b
00000130: 5f2b afbb 513f 1abc cb52 463c b1a6 ab3a
00000140: ce5b 87bc 7f55 0e3d a9c8 c2bb ae04 0abc
00000150: c649 43bc 2bfb fcbb 12d3 f6bb db58 58bb
00000160: 02fc 9e3c 6e59 033c cfea 78bc 7b18 773b
00000170: 4327 85bc be9b b6bc 7c1a c9bc ccb9 3d3c
00000180: 28de 7fbc 9416 173c c497 c33b 8461 d03c
00000190: b1ab 083b ec93 c5bc c173 123c 2296 003c
000001a0: 7398 8b3c 5e16 2a3c 1a9a 193d e5d4 04bc
000001b0: f5db 66bb 676d 17bb 4386 c43b 3fdc d93b
000001c0: a7d3 52bd 4784 cb3c de58 0bbd 0f61 543c
000001d0: a38e 87ba 8609 9b3c 5cd9 fcbc 4245 833c
000001e0: f3ca f8bb 5b1d d03b 8e08 35bc 1790 b2bc
000001f0: 0d1c abba 60bb 133b fc3a 00bc 939f 0fbd
00000200: e2a1 373c 4889 173c 36fd dcba cc27 653d
00000210: 9a5a deba aff7 bd3c 64b6 983b 29e9 cfb9
00000220: b80d 763c 4b97 873c 6053 033c 912d 263c
00000230: 4d24 c0bb 39e1 58bc 6423 53bc 47d4 e73c
00000240: b6bf 813c 29d3 85bb d2fd 633b 0827 2a3b
00000250: 9419 043c c605 683c 9a5b 5838 ac99 29bc
00000260: 2848 053c 0b9b b73c a939 683b fc1d 90bc
00000270: 5a97 b73c 7089 ee3c 0fab bdba 073e 123c
00000280: c49f ab3c 0316 e5bb c59f 8a3c 7603 2abc
00000290: 63ab 6abc 72f8 10bb ea3c 593c b154 55bb
000002a0: 8d1c 2c3c f5d8 bebb bc09 39ba e1ff a03a
000002b0: 78fb 48bc f85d f83b 479f 74bc 261d 3a3c
000002c0: b4d2 bc3b 57de 36bc 5e96 e03b 364d d7ba
000002d0: 563a 00ba f46c 613c fe1c 3cbc f641 e0ba
000002e0: c9b8 0abb 242e 5839 fa19 f1bb de29 c5bc
000002f0: 966b 003d c41b 623c 84e5 22bb 5bf0 51bc
00000300: 90cc 39bc bf47 993c f5f8 95bc 0c77 59bb
00000310: c03f e2bc 05ce 733c 3dec 36bc a75c a93c
00000320: 850e cbbc 9a8c 053c 2ae9 07bc a132 05bc
00000330: 746b cd3a db5a bc3c 775d 60bc 0e87 153b
00000340: e13a 243b f861 6fbc 81c9 87bc b97c 423c
00000350: 82cf 323c b5d2 08bc c790 51bc 4512 b23b
00000360: 0f48 d7bc 4619 40bc ebc6 91bb 6a73 e8b8
00000370: 1621 0dbc 7812 e03c 15e6 033d 4fc4 1b3b
00000380: dadd 58ba 8bef 943a f3bb 5dbc 11a4 89bc
00000390: 9325 ef3b 724d 0d3c f9af 17bc 2a98 d6ba
000003a0: b652 1dbc e026 b5bc c032 25bd be3b 903b
000003b0: e589 54bc 9ca3 753a 3eb3 563b a6e0 f0bb
000003c0: bc77 1e3d c148 63bc 9828 b83c 994d 94bc
000003d0: 7a9a 96bb 3d9c ae3b 8e8c ef3c 0591 97bc
000003e0: 5aa6 adb8 a93e b4bc fafa 7f3c 9fa9 e33c
000003f0: a976 b8bb 30c5 a5ba 73e9 bf3a 8962 b93a

action_model._discrete_distribution.branches.0.bias f4 [2]
0.0067781177 -0.0067781196
00000000: f91a de3b fd1a debb
