Learning/AIRollABall/results/TestParameters/AIRollABall/AIRollABall-44064.onnx (onnx, 100320 bytes, 9 tensors)

network_body._body_endoder.seq_layers.0.weight f4 [128, 47]
0.06092374 0.027335946 0.19246016 0.22384778 0.25594234 0.084333 0.18303967 -0.034071162
-0.28944376 -0.20796622 -0.17953125 0.32680157 -0.07335511 -0.10512373 0.053392988 -0.16015461
0.07886421 -0.048830803 -0.0919534 0.022218373 -0.14086866 -0.02814048 -0.22070147 0.011102145
0.10086455 0.1225627 0.06322473 -0.15413435 0.174296 -0.051644284 0.13571313 0.20513698
0.15588169 0.038680017 0.088413596 0.0451222 0.18756352 -0.022427525 -0.12777343 -0.14033177
-0.14123231 0.10269801 -0.13919266 -0.020621348 0.03355416 0.14226551 0.16773757 -0.27466878
-0.020154255 -0.26519713 -0.12619025 -0.053262353 0.108650856 -0.0043782825 -0.14719737 -0.07199904
-0.11778735 0.14112836 -0.11780295 -0.049320195 -0.37090936 0.03202815 0.15071449 0.058763098
0.11529591 -0.03543602 0.19932602 0.12320521 -0.08858185 0.026741335 0.028677672 -0.3543085
-0.056927267 -0.11046828 -0.0566817 0.11071488 -0.038696405 0.078661576 0.14708896 -0.21541467
0.00060834165 0.054090805 -0.22143202 -0.02050701 0.06312978 0.019188305 0.006649164 -0.05848099
-0.13218519 -0.046086673 -0.14613344 -0.08593408 -0.14712553 -0.11577525 -0.23690204 -0.049116172
-0.1405329 -0.13611333 -0.16368248 -0.05536883 0.19653426 -0.03601877 0.0075644176 -0.09311468
0.07335022 -0.08713564 -0.20754533 0.0030482758 0.053406876 0.031148577 0.17072546 -0.25558773
0.0043809246 0.09118005 0.14254873 0.24215291 -0.32744426 0.071787 0.20613322 0.16757767
-0.076754585 0.08948713 -0.079163454 -0.07872847 -0.15450215 0.14772761 -0.22778668 -0.0078039714
0.089445055 0.2915819 -0.2570426 0.22037187 -0.0017582668 -0.16675656 0.058618367 0.13145256
-0.027451767 0.20533189 -0.05528982 0.060238764 0.107029065 -0.25976172 0.07878358 0.05352793
-0.22492552 -0.035434306 -0.1329126 0.09076479 -0.10934914 0.09736201 -0.017076673 -0.055239037
0.3611239 0.014036447 -0.06345426 0.06526989 -0.076321274 -0.21435528 0.14044628 0.09382535
-0.1168992 -0.045999695 0.18028808 0.19477212 -0.08129426 0.14966926 -0.09329664 -0.105886444
0.10541789 -0.14471734 -0.047890276 -0.08179287 -0.05863345 -0.08704473 0.16962895 -0.06961296
-0.1436884 0.027997734 0.07754217 0.060391437 0.11125061 0.059928663 0.04425844 -0.1187344
-0.16229616 -0.112114534 0.03849665 -0.112489015 -0.07688327 0.17322883 -0.019344112 0.029198343
0.20082965 -0.086529434 0.19695863 -0.04550803 -0.034178205 -0.26361862 0.009954207 0.00058675226
0.19544266 0.020528255 0.06504183 -0.03479098 0.18871677 -0.08342115 -0.12075219 0.16717862
-0.026454847 -0.13195623 0.05291756 0.063405626 0.012067543 -0.0753098 -0.30114725 -0.10497143
-0.11639278 -0.037686665 -0.005253654 -0.1322554 0.112252705 0.06907796 0.10032306 0.122750685
-0.05625314 0.1844519 0.21465954 -0.13435566 -0.14401042 -0.14344488 -0.10356368 0.16070157
0.15618192 -0.017663902 -0.1925881 0.07628101 0.16846603 -0.2703079 -0.112657815 -0.18272208
0.0731581 -0.19133763 0.10637235 -0.026513107 0.174491 -0.27101517 -0.029730702 -0.24711086
0.11499203 0.2634464 0.084321976 -0.08113385 0.062181447 -0.02495187 0.016940951 -0.14028403
00000000: 2c8b 793d a2ef df3c 4714 453e 5a38 653e
00000010: e00a 833e c8b6 ac3d c06e 3b3e 348e 0bbd
00000020: f931 94be 19f5 54be 0ad7 37be 8952 a73e
00000030: 343b 96bd 1c4b d7bd 9bb2 5a3d 92ff 23be
00000040: 8f83 a13d cf02 48bd 1052 bcbd 4e03 b63c
00000050: e03f 10be dd86 e6bc 91ff 61be c5e5 353c
00000060: 1392 ce3d 2702 fb3d f87b 813d 65d5 1dbe
00000070: a77a 323e f588 53bd 62f8 0a3e 6e0f 523e
00000080: 739f 1f3e f06e 1e3d 3012 b53d 0ed2 383d
00000090: a710 403e eeb9 b7bc 0ad7 02be 22b3 0fbe
000000a0: 349f 10be 5653 d23d 8588 0ebe 1aee a8bc
000000b0: 1670 093d 0dae 113e 66c3 2b3e 63a1 8cbe
000000c0: 891a a5bc ebc7 87be 0438 01be a029 5abd
000000d0: 5784 de3d b277 8fbb e8ba 16be 3c74 93bd
000000e0: 7f3a f1bd f483 103e ac42 f1bd f903 4abd
000000f0: d5e7 bdbe f32f 033d e654 1a3e 93b1 703d
00000100: 4320 ec3d 5c25 11bd 1f1c 4c3e 0353 fc3d
00000110: 676a b5bd a510 db3c 70ed ea3c ec67 b5be
00000120: 912c 69bd 323d e2bd 122b 68bd 7cbe e23d
00000130: 1f80 1ebd 5219 a13d 7d9e 163e aa95 5cbe
00000140: 1e79 1f3a 528e 5d3d 13bf 62be 51fe a7bc
00000150: 304a 813d cb30 9d3c 3be1 d93b c389 6fbd
00000160: 8e5b 07be 61c5 3cbd 01a4 15be 35fe afbd
00000170: 13a8 16be 931b edbd 7396 72be 0a2e 49bd
00000180: dbe7 0fbe 4b61 0bbe 619c 27be 6dca 62bd
00000190: 4740 493e 6b88 13bd efde f73b e9b2 bebd
000001a0: a438 963d 2c74 b2bd c386 54be 95c5 473b
000001b0: 2bc1 5a3d 4d2b ff3c a8d2 2e3e 65dc 82be
000001c0: dc8d 8f3b 9bbc ba3d 4bf8 113e eff6 773e
000001d0: c6a6 a7be 1005 933d 9614 533e 7b99 2b3e
000001e0: 8231 9dbd 0745 b73d 7320 a2bd 643c a1bd
000001f0: d035 1ebe e845 173e e940 69be 75b8 ffbb
00000200: f82e b73d 394a 953e 169b 83be 2aa9 613e
00000210: a575 e6ba 3bc2 2abe d019 703d 809b 063e
00000220: 87e2 e0bc 8642 523e 9477 62bd ecbc 763d
00000230: 0e32 db3d 7dff 84be 4959 a13d 1a40 5b3d
00000240: e052 66be 9023 11bd 3e1a 08be e4e2 b93d
00000250: 71f2 dfbd bc65 c73d 61e4 8bbc 5442 62bd
00000260: 3be5 b83e 20f9 653c 4ff4 81bd 38ac 853d
00000270: 544e 9cbd f37f 5bbe 26d1 0f3e 8127 c03d
00000280: d968 efbd 2d6a 3cbd 709d 383e 5872 473e
00000290: 9b7d a6bd e642 193e 4f12 bfbd feda d8bd
000002a0: 56e5 d73d c830 14be 9828 44bd 0583 a7bd
000002b0: a129 70bd 8244 b2bd 36b3 2d3e 3d91 8ebd
000002c0: 0d23 13be 815b e53c 6ece 9e3d 035d 773d
000002d0: 5cd7 e33d c277 753d 5748 353d 052b f3bd
000002e0: f730 26be 4e9c e5bd aaae 1d3d a460 e6bd
000002f0: fa74 9dbd e662 313e 8b77 9ebc 5d31 ef3c
00000300: 4aa6 4d3e 5836 b1bd 86af 493e a166 3abd
00000310: 72fe 0bbd 05f9 86be f816 233c 47d0 193a
00000320: 1f22 483e df2a a83c a734 853d fd80 0ebd
00000330: f83e 413e b5d8 aabd ed4c f7bd df30 2b3e
00000340: d6b7 d8bc 891f 07be 15c0 583d cfda 813d
00000350: f2b6 453c 063c 9abd f92f 9abe 43fb d6bd
00000360: 565f eebd 555d 1abd d826 acbb f66d 07be
00000370: bfe4 e53d bf78 8d3d 2d76 cd3d b664 fb3d
00000380: b169 66bd f5e0 3c3e b6cf 5b3e 8894 09be
00000390: 7877 13be 37e3 12be 3219 d4bd f48e 243e
000003a0: 27ee 1f3e e3b3 90bc d135 45be 3839 9c3d
000003b0: 5c82 2c3e cc65 8abe 24b9 e6bd 7f1b 3bbe
000003c0: ead3 953d 03ee 43be bfd9 d93d 0432 d9bc
000003d0: c5ad 323e 80c2 8abe cd8d f3bc a10a 7dbe
000003e0: f180 eb3d 72e2 863e 00b1 ac3d 8129 a6bd
000003f0: f9b1 7e3d dd67 ccbc c0c7 8a3c 9ea6 0fbe

network_body._body_endoder.seq_layers.0.bias f4 [128]
0.0008686005 -0.0006429033 0.002027161 0.0030943302 -0.0013491643 0.0009894922 -6.444192e-05 -0.0003703205
0.0007539603 -0.00012971705 -0.0023933556 -0.0019545902 -0.0019906303 0.0019235413 -0.005239959 0.0010076045
-0.00030000278 0.002609321 0.0027222286 0.002397469 0.0013831055 -0.0014656736 -1.9938503e-05 0.00029179722
-0.0013537811 -0.0004148247 -0.0007702613 0.0024388013 0.00037747034 0.00010717074 -8.875451e-05 -0.0015861143
-0.0025492397 -0.00069343444 -0.00038910733 -0.00028207578 -0.0021655457 -0.0022682613 0.0002577526 0.0030557702
0.0012602212 -0.0009273445 0.00035641412 0.0011975713 -0.0019947756 -0.0009412477 -0.0016647392 -0.00033141425
-0.0033882575 -7.039588e-05 -0.00092689134 -0.0051465007 -0.0020848052 0.001590572 -0.0037271315 0.0029491351
0.00036479867 -0.0026011416 -0.003648595 0.0025112592 0.0022782618 0.0012560271 0.0031630485 0.001516819
-0.0034226512 -0.0033757784 0.0023676807 0.0023107082 -0.0015130889 0.00096792565 0.0034575413 -0.0042175683
-0.0035097338 0.0017693117 0.000643386 0.00040560262 0.0022728646 0.0006786741 -0.0013709866 -0.002527809
-0.00026410382 0.0012325349 -0.0044733156 -0.0040455274 0.00051019696 0.0021421479 0.0021068791 -0.002737723
0.0006560925 -0.00074270944 0.0006704901 0.00046813942 -0.0003049972 -0.0022004351 -0.002503597 -0.0008212235
0.0007412201 -0.0029879494 -0.0015923326 -0.0031560468 0.00012813957 0.0004734435 -0.0003198954 0.0024121278
-0.0019813566 -0.0031919596 0.005369095 -0.0023875148 0.00029756792 0.0028774366 -0.0030477284 0.00077128084
-0.0015671019 0.0004820088 0.0011684324 -0.001517488 0.004554909 0.0052184034 0.00015990244 -0.0029306517
0.0038174556 -0.0013929643 -0.0006122887 0.0034346967 -0.0014560369 0.000995509 -0.0017232087 -0.0047014873
00000000: cbb2 633a 8388 28ba 1eda 043b 3fca 4a3b
00000010: 71d6 b0ba d9b1 813a fe24 87b8 9327 c2b9
00000020: 6ba5 453a a804 08b9 d8d9 1cbb 9518 00bb
00000030: 3c75 02bb 561f fc3a f6b3 abbb 9911 843a
00000040: b149 9db9 2401 2b3b 6b67 323b db1e 1d3b
00000050: 5249 b53a d81b c0ba 9c41 a7b7 5cfc 9839
00000060: 5b71 b1ba d47c d9b9 5ceb 49ba 4cd4 1f3b
00000070: 36e7 c539 dac0 e038 b721 bab8 2ae5 cfba
00000080: 2511 27bb 99c7 35ba 1a01 ccb9 92e3 93b9
00000090: d4eb 0dbb 1ca7 14bb f822 8739 5143 483b
000000a0: 022e a53a 0919 73ba 18dd ba39 d3f7 9c3a
000000b0: c8ba 02bb 10be 76ba 6133 daba abc1 adb9
000000c0: 870d 5ebb 80a1 93b8 a0fa 72ba faa3 a8bb
000000d0: 3aa1 08bb bd7a d03a e442 74bb 4746 413b
000000e0: 7342 bf39 ea77 2abb 441d 6fbb f093 243b
000000f0: e44e 153b 47a1 a43a 264b 4f3b 00d0 c63a
00000100: 8f4e 60bb 2a3c 5dbb 172b 1b3b 406f 173b
00000110: d752 c6ba 64bc 7d3a eb97 623b 8733 8abb
00000120: 9003 66bb 40e8 e73a e7a8 283a 10a7 d439
00000130: 57f4 143b 0ce9 313a adb2 b3ba 99a9 25bb
00000140: 6a77 8ab9 028d a13a e494 92bb 5890 84bb
00000150: bdbe 053a 4763 0c3b 9113 0a3b 5f6b 33bb
00000160: 9ffd 2b3a 63b2 42ba d4c3 2f3a 9c70 f539
00000170: 08e8 9fb9 2d35 10bb 6313 24bb 6047 57ba
00000180: 704e 423a 79d1 43bb d1b5 d0ba aed5 4ebb
00000190: 345d 0639 8338 f839 a2b7 a7b9 ca14 1e3b
000001a0: a6d9 01bb 3230 51bb 3cef af3b da77 1cbb
000001b0: e402 9c39 6093 3c3b 66bc 47bb c82f 4a3a
000001c0: 3767 cdba 20b6 fc39 1626 993a 73e6 c6ba
000001d0: 5941 953b 24ff aa3b 7cab 2739 2d10 40bb
000001e0: 472e 7a3b 2094 b6ba 0082 20ba a618 613b
000001f0: 7ed8 beba bd7b 823a 4add e1ba ef0e 9abb

network_body._body_endoder.seq_layers.2.weight f4 [128, 128]
-0.047676157 -0.17282285 -0.03413375 -0.015630798 0.036579866 0.16836537 0.012205166 -0.20366669
0.14847551 0.030974234 -0.18799247 -0.0064810156 -8.0602855e-05 0.023209093 0.0442212 -0.0854196
0.115494184 0.056905452 -0.040917654 -0.011814282 0.18280603 -0.08429855 0.23205714 -0.097237036
0.08161296 -0.070485674 0.12066503 0.054975953 -0.14925236 0.02888297 -0.012585273 -0.11158254
0.005690841 -0.12218286 0.054047827 -0.04125198 0.04953543 0.025757635 -0.03003698 -0.09525687
0.045825947 -0.0381021 0.011090856 0.0002433677 -0.10072523 0.04362502 0.09662991 -0.0860462
0.04145542 0.029151011 -0.08644203 0.117802806 -0.0043863105 0.055622462 0.023220165 0.10976115
0.17564791 -0.09474543 -0.14433716 -0.0019218198 0.16536784 0.049813997 0.0009601917 0.0959624
-0.12705635 -0.046001386 0.0725934 0.12191179 0.06270111 0.0010274618 -0.16368508 -0.056343235
-0.087978326 0.0077103493 0.1139139 0.0127041 0.10704528 -0.0986441 0.055982016 -0.20629627
0.041341785 0.056250423 0.04227737 0.081166476 -0.013774632 -0.068951964 0.028191198 -0.039728783
0.025136283 0.009137792 0.08856082 0.10302828 -0.09519867 -0.06597971 0.034298427 0.036440495
-0.12728257 -0.0495085 -0.036776703 0.027734173 -0.033885036 -0.13732266 -0.0967976 -0.0017380667
-0.052096527 -0.10544417 -0.07729286 0.056168657 0.05871761 -0.089897476 -0.07483138 0.16278943
0.027420254 0.027442086 -0.09623316 -0.13877107 0.037498333 0.04692899 -0.010057914 -0.1416607
-0.102261834 0.03700508 0.10077366 -0.042227477 0.11120576 -0.07061844 -0.085280284 -0.013435961
-0.067500204 -0.061780974 0.02769435 0.018345859 0.24443609 -0.037585218 -0.11864623 -0.007417963
0.0061793216 0.12202055 0.070528105 -0.038567685 -0.22712918 -0.06668371 0.12920049 -0.0064551886
-0.12057445 0.06712437 -0.06982198 -0.108576 0.017875606 0.10890529 -0.04898937 0.029104529
-0.09931925 0.023585208 -0.05408182 -0.1275748 -0.0039082123 0.110031635 0.17951873 -0.025209442
-0.076648824 0.13999663 -0.066411264 0.011594447 -0.142101 0.035659958 0.012302144 -0.0456375
0.008729827 -0.043114427 -0.0032475737 -0.26120743 0.046410758 0.0408142 -0.03833157 0.08959549
0.13835277 0.008966255 0.04276464 0.18445012 0.041320853 -0.07505993 -0.084941305 0.043688048
0.010081527 -0.17791203 0.1066647 0.102680065 0.20099628 0.07977121 -0.09926474 -0.16275154
0.03748194 0.078314 -0.00108516 -0.043137543 -0.10018538 0.12761192 -0.048231155 0.008927266
0.02017647 0.0048325923 -0.10762011 0.12216847 -0.06813489 0.013926972 -0.098242514 -0.13011613
-0.020552265 -0.047318522 -0.1279795 -0.015288758 -0.06598015 0.10242766 0.0009877239 -0.0981947
-0.025253473 0.13261454 -0.080667265 0.018989027 0.037424497 -0.061825484 -0.09067476 -0.09312421
0.089275114 -0.050437383 0.11096064 0.014986171 0.059948955 -0.010547702 0.053289533 0.16050427
0.0079395985 -0.05426714 -0.050143365 -0.10913083 0.020000525 -0.14594586 0.022454292 0.02605693
0.14168589 0.11353617 -0.09275438 0.11303663 0.0066576106 0.07944411 -0.03349799 -0.11138686
-0.0050214157 -0.044278044 -0.14992848 0.058237262 0.040995076 -0.030936515 0.022442339 -0.09286944
00000000: 1348 43bd 79f8 30be d5cf 0bbd 290c 80bc
00000010: c5d4 153d f967 2c3e 2df8 473c 008e 50be
00000020: f709 183e adbd fd3c 1981 40be b35e d4bb
00000030: 5409 a9b8 ff20 be3c 4a21 353d 79f0 aebd
00000040: 3788 ec3d b115 693d 4599 27bd b190 41bc
00000050: 8131 3b3e b8a4 acbd 63a0 6d3e 3624 c7bd
00000060: b224 a73d cb5a 90bd 3a1f f73d 772e 613d
00000070: 9cd5 18be fa9b ec3c 7632 4ebc 6385 e4bd
00000080: 3c7a ba3b 023b fabd 4161 5d3d d6f7 28bd
00000090: aae5 4a3d ad01 d33c 1d10 f6bc 0916 c3bd
000000a0: fdb3 3b3d f310 1cbd 6cb6 353c 8530 7f39
000000b0: 0849 cebd 26b0 323d e7e5 c53d fd38 b0bd
000000c0: 29cd 293d 1ace ee3c 8508 b1bd 9942 f13d
000000d0: 0abb 8fbb 61d4 633d 3738 be3c 74ca e03d
000000e0: 0cdd 333e e409 c2bd 1fcd 13be 92e5 fbba
000000f0: 3056 293e c309 4c3d 60b5 7b3a ef87 c43d
00000100: 0f1b 02be f36b 3cbd d9ab 943d e3ac f93d
00000110: 7169 803d e6ab 863a 109d 27be 2ac8 66bd
00000120: fb2d b4bd 19a7 fc3b b14b e93d dc24 503c
00000130: 8e3a db3d eb05 cabd 664d 653d 543f 53be
00000140: 0156 293d d866 663d 092b 2d3d 9c3a a63d
00000150: feae 61bc b036 8dbd 3af1 e63c a6ba 22bd
00000160: 9bea cd3c adb6 153c 605f b53d 7e00 d33d
00000170: 85f7 c2bd 5f20 87bd 827c 0c3d a142 153d
00000180: 5d56 02be 6dc9 4abd 2ba3 16bd c732 e33c
00000190: 09cb 0abd 509e 0cbe d23d c6bd d7cf e3ba
000001a0: 2b63 55bd 1df3 d7bd b84b 9ebd 1b11 663d
000001b0: e081 703d 2b1c b8bd 3241 99bd 46b2 263e
000001c0: 71a0 e03c 3ace e03c e415 c5bd 011a 0ebe
000001d0: da97 193d 9d38 403d f3c9 24bc 810f 11be
000001e0: a76e d1bd a492 173d 6c62 ce3d b8f6 2cbd
000001f0: d8bf e33d 67a0 90bd 6ea7 aebd 8122 5cbc
00000200: 8c3d 8abd 0c0e 7dbd 43df e23c 0e4a 963c
00000210: 744d 7a3e f5f2 19bd cbfc f2bd 6212 f3bb
00000220: e87b ca3b e9e5 f93d 0a71 903d 26f9 1dbd
00000230: 8d94 68be 7891 88bd 224d 043e 0c86 d3bb
00000240: bdef f6bd 8078 893d d4fe 8ebd 185d debd
00000250: dd6f 923c bd09 df3d 14a9 48bd 9f6c ee3c
00000260: e467 cbbd c435 c13c e684 5dbd f8a2 02be
00000270: 7610 80bb 4458 e13d c2d3 373e 0884 cebc
00000280: 0ffa 9cbd 475b 0f3e a102 88bd a3f6 3d3c
00000290: ed82 11be 2d10 123d ef8e 493c 63ee 3abd
000002a0: 8c07 0f3c c198 30bd 3fd5 54bb fbbc 85be
000002b0: 3519 3e3d ca2c 273d 9001 1dbd d77d b73d
000002c0: 59ac 0d3e 33e7 123c fa29 2f3d 7ee0 3c3e
000002d0: 0e40 293d 05b9 99bd b5f5 adbd 3df2 323d
000002e0: fd2c 253c 922e 36be 0673 da3d ed49 d23d
000002f0: f8d1 4d3e 175f a33d 504b cbbd 57a8 26be
00000300: aa86 193d 1763 a03d ed3b 8eba feb0 30bd
00000310: fe2d cdbd b3ac 023e 088e 45bd ab43 123c
00000320: 2049 a53c b95a 9e3b ef67 dcbd 7633 fa3d
00000330: 4e8a 8bbd f42d 643c 5f33 c9bd 2a3d 05be
00000340: 395d a8bc 11d1 41bd 0f0d 03be b37d 7abc
00000350: 9a20 87bd 98c5 d13d 8476 813a 4e1a c9bd
00000360: 5fe0 cebc 1bcc 073e e134 a5bd e08e 9b3c
00000370: 6e4a 193d b83c 7dbd b0b3 b9bd e8b7 bebd
00000380: dfd5 b63d 6e97 4ebd 553f e33d 8f88 753c
00000390: 098d 753d 45d0 2cbc 2046 5a3d 3b5b 243e
000003a0: 1715 023c 3847 5ebd 2163 4dbd fc7f dfbd
000003b0: 24d8 a33c d572 15be 10f2 b73c 5875 d53c
000003c0: 1b16 113e a785 e83d 02f6 bdbd c07f e73d
000003d0: 1628 da3b 98b3 a23d 3035 09bd cb1e e4bd
000003e0: b08a a4bb e55c 35bd da86 19be 328a 6e3d
000003f0: 74ea 273d 936e fdbc ffd8 b73c 5532 bebd

network_body._body_endoder.seq_layers.2.bias f4 [128]
0.00063976424 -0.0012770694 0.0028179083 0.0027889183 -0.0028980311 -5.0235685e-05 -0.0017766336 0.00128798
0.0042364737 -0.0005821465 0.0022790069 0.0016842432 -0.00034079907 -0.001994905 0.0018001613 0.0018844624
0.00078717025 0.0012699905 -0.0032145048 0.0025757197 -0.00038763598 -0.0027184258 -0.0040418375 0.00033074807
-0.0024212378 -0.0030757429 -0.0004623743 -0.0023219879 -0.0036446971 -0.0014356447 0.0034913202 -0.0019692217
-0.0023994204 -0.0010240384 0.0031407673 -0.0030825827 0.00043888 0.0019305566 0.0025254511 0.0021647983
0.0034673803 -0.0021947285 -0.0006846712 -0.00328837 -0.0026995966 0.0020171092 -0.0011129538 0.0020630178
0.0022340592 0.0025068033 -0.0054093446 0.00126996 0.0016189301 -0.0027386425 0.00074804726 -0.0035224487
-0.00067246 -0.0033275308 -0.0024130007 0.0013757371 -0.0011530312 0.002894198 0.006377902 -0.0026869513
-6.517225e-05 -0.0022226186 -0.001672869 0.003921847 -0.00016588386 0.00072447537 0.0004736385 9.549479e-05
-0.003962876 0.0055877944 -1.8956896e-05 -0.0009687147 -0.00073173014 -0.0015748003 -0.0004850211 -0.002030529
-0.0011545666 0.0034470407 0.0035204052 -0.0013258869 -0.0023565379 0.0029287557 0.0027184305 -0.001978016
0.008191181 0.00080290926 0.0026412609 -0.001411601 -0.00052082766 0.0005503 -0.0002360577 0.0013435271
0.0028516802 0.002705615 0.0014551294 -0.0034824938 -0.0011028016 -0.00047792657 -0.001973852 -0.0029357262
0.0009871242 0.0037463962 0.005975024 0.0032076917 0.0010426955 0.0020210755 -0.0045355204 0.0010109858
-0.0009427983 0.004091967 -0.0009623262 -0.0029793899 0.0007995369 0.0013317792 0.0010860983 0.0022090005
-0.0017731774 0.0013779291 0.0001753858 -0.0013328955 -0.0022966308 0.0017719883 0.002229806 -0.004123995
00000000: dab5 273a 5763 a7ba a8ac 383b 49c6 363b
00000010: e5ec 3dbb 28b4 52b8 eedd e8ba 70d1 a83a
00000020: 1ed2 8a3b 319b 18ba 645b 153b d3c1 dc3a
00000030: 47ad b2b9 f4bc 02bb 64f3 eb3a 1100 f73a
00000040: 1a5a 4e3a cf75 a63a 71aa 52bb 68cd 283b
00000050: 9f3b cbb9 9e27 32bb 6471 84bb 4168 ad39
00000060: a1ad 1ebb 6792 49bb d46a f2b9 7e2c 18bb
00000070: dfdb 6ebb 3e2c bcba a2ce 643b 0f0e 01bb
00000080: 983f 1dbb 0739 86ba 55d5 4d3b 2805 4abb
00000090: 7a19 e639 bb0a fd3a 0a82 253b 4adf 0d3b
000000a0: fd3c 633b 6fd5 0fbb 827b 33ba b281 57bb
000000b0: b7eb 30bb 7a31 043b 88e0 91ba b233 073b
000000c0: 4b69 123b 2e49 243b df40 b1bb c974 a63a
000000d0: 4832 d43a cc7a 33bb 9a18 443a e2d8 66bb
000000e0: 0748 30ba b412 5abb 6f23 1ebb 1452 b43a
000000f0: 4f21 97ba 96ac 3d3b b8fd d03b 9017 30bb
00000100: 16ad 88b8 5aa9 11bb 2b44 dbba d682 803b
00000110: 1cf1 2db9 b8ea 3d3a af52 f839 6044 c838
00000120: 03db 81bb d119 b73b a005 9fb7 58f1 7dba
00000130: 94d1 3fba 8869 ceba 6e4a feb9 a012 05bb
00000140: d454 97ba bfe7 613b 99b6 663b 62c9 adba
00000150: 2570 1abb 5ef0 3f3b b227 323b 9aa1 01bb
00000160: 4e34 063c 547a 523a 0119 2d3b 7805 b9ba
00000170: 2788 08ba 0242 103a 4286 77b9 4a19 b03a
00000180: 41e3 3a3b b050 313b 0aba be3a 8d3a 64bb
00000190: e28b 90ba 3892 fab9 be5b 01bb 5065 40bb
000001a0: 6462 813a 1986 753b 22ca c33b 2338 523b
000001b0: 0eab 883a 0574 043b b49e 94bb 0e83 843a
000001c0: 1f26 77ba e815 863b 9e44 7cba de41 43bb
000001d0: 0398 513a 188f ae3a 695b 8e3a e1c4 103b
000001e0: f669 e8ba a19b b43a c4e7 3739 8db4 aeba
000001f0: 1283 16bb 1042 e83a f021 123b 9422 87bb

action_model._continuous_distribution.log_sigma f4 [1, 3]
-0.0072667915 -0.00676383 0.0031067855
00000000: 441e eebb 1ea3 ddbb 369b 4b3b

action_model._continuous_distribution.mu.weight f4 [3, 128]
-0.01427714 0.012457681 -0.013619502 -0.0052639167 0.014409524 0.01839186 0.0068404814 -0.006667644
-0.007924003 -0.0097753825 -0.032316465 -0.020254917 -0.0049371496 0.02617688 0.004670358 0.013060609
-0.0041146795 0.0065887063 0.018369025 -0.01597584 -0.022220684 0.017469026 0.019573424 -0.011917042
0.009467137 0.013056745 -0.0039459816 0.008872774 0.00524644 0.015680857 -0.021818653 -0.0032685339
0.011962133 -0.00043968012 -0.014879037 0.017782548 0.004268698 -0.00038958434 -0.005627565 -0.0061472994
-0.0060859364 0.012633884 0.009165201 0.02243762 0.033676736 -0.018381925 0.0069921035 -0.027669132
-0.025928743 -0.015457182 0.026480112 0.000853514 -0.019321095 0.02540524 -0.015143177 0.029415324
-0.0019062907 0.016687114 0.0059946654 0.029780595 0.021520909 -0.031132827 0.0027281512 0.0071900547
-0.0035694041 0.00914891 -0.008777145 -0.023670016 -0.0027199609 -0.008414582 0.02479399 -0.00079060567
0.024784112 -0.020130368 0.006146635 0.0022936377 -0.03158092 0.014148555 0.00032058143 0.034888398
0.012869949 -0.013937611 -0.0472336 -0.018788677 0.01538964 -0.023792906 -0.017022485 0.012247074
-0.011824138 -0.008972471 -0.014437249 0.029869247 -0.0023742032 -0.0017201639 -6.447235e-05 -0.0056346646
0.010953307 0.013221458 -0.002405602 0.019109616 0.0044083875 0.0007624689 0.013501675 0.026881605
-0.0047597364 -0.032923434 0.02797811 -0.027267933 -0.0012910163 -0.036040507 0.0033479212 -0.024996316
-0.005610435 -0.00040291727 0.014072197 0.027796786 -0.0049525355 -0.01140276 -0.015005815 -0.012405428
-0.0038710558 -0.0122960685 -0.008817022 0.0067531755 0.0094758095 0.00499745 -0.011022894 0.0075283493
0.002658525 0.016687842 0.008261317 0.00069331506 -0.0055480236 0.010597675 -0.01263399 0.021027714
0.0012663332 0.021099804 0.004673269 0.0013734379 -0.04923864 0.016268842 0.0153750945 0.0127599975
0.014314817 -0.029308707 -0.038611516 -0.012856221 -0.0016107509 0.017791513 -0.007704908 0.017225279
-0.003289042 0.0020603915 0.0053663836 -0.03069556 -0.0197485 -0.041381404 0.01924433 -0.029370707
-0.0104782535 -0.024400255 -0.009333846 -0.011168487 0.017524809 -0.003956768 0.004080243 0.017866665
0.01893551 -0.0046159504 0.024252618 0.0009242833 0.009914465 -0.008433733 -0.019320099 -0.038939014
-0.003453334 -0.008615605 -0.032296438 0.033752255 -0.009024124 -0.03441143 -0.01847477 -0.029582255
-0.036492217 0.0054271524 0.013484741 0.017112425 0.032107342 0.020812133 0.02639661 0.013544297
0.0049821595 -0.0029058172 -0.004665438 -0.005711289 -0.04147104 -0.013433873 0.0009982856 0.018980946
-0.02256675 0.027356612 0.0064643403 0.013894827 -0.0059458264 -0.025452962 -0.0392411 -0.02298503
-0.01491289 0.014434614 0.01383917 0.033088896 -0.020758368 0.0063907746 0.021445965 0.009561135
0.0035434887 0.009967562 -0.008450811 -0.0025929187 -0.022292595 0.010268846 0.0069382275 -0.011137476
-0.005320945 0.00911971 0.013478534 -0.00243994 -0.0028787903 -0.002283362 0.024280744 0.009933396
-0.026018236 0.006847418 0.0028661073 0.010038013 0.035681017 -0.0035491502 -0.00031031933 -0.026220927
-0.02832011 0.042935427 0.0056604077 -0.023355648 -0.0101652965 -0.016447257 -0.015292744 0.018834539
-0.021036955 0.0018062723 0.022919318 0.00486881 0.011024849 0.028507905 -0.0031415336 -0.024593452
00000000: aaea 69bc 4d1b 4c3c 5524 5fbc ef7c acbb
00000010: ed15 6c3c 87aa 963c 1e26 e03b 407c dabb
00000020: add3 01bc ed28 20bc 455e 04bd a4ed a5bc
00000030: d0c7 a1bb e570 d63c cd09 993b 2afc 553c
00000040: 6fd4 86bb 13e6 d73b a37a 963c c4df 82bc
00000050: 2708 b6bc 341b 8f3c 7258 a03c b23f 43bc
00000060: 0d1c 1b3c f5eb 553c 4b4d 81bb 1d5f 113c
00000070: 54ea ab3b 2475 803c 08bd b2bc e634 56bb
00000080: d3fc 433c de84 e6b9 34c7 73bc b5ac 913c
00000090: 6fe0 8b3b 2041 ccb9 7067 b8bb 496f c9bb
000000a0: 896c c7bb 5afe 4e3c a429 163c 1acf b73c
000000b0: 9ef0 093d b195 96bc 041e e53b 60aa e2bc
000000c0: 8468 d4bc 1f40 7dbc d2ec d83c 5bbe 5f3a
000000d0: 4647 9ebc a61e d03c 161b 78bc 68f8 f03c
000000e0: 80dc f9ba 6ab3 883c e66e c43b 6ff6 f33c
000000f0: 9e4c b03c 450a ffbc c8ca 323b 8d9a eb3b
00000100: aaec 69bb 4fe5 153c 04ce 0fbc 9fe7 c1bc
00000110: 5f41 32bb 51dd 09bc c41c cb3c a640 4fba
00000120: 0d08 cb3c 71e8 a4bc b669 c93b db50 163b
00000130: ff5a 01bd 57cf 673c b613 a839 23e7 0e3d
00000140: 7bdc 523c 945a 64bc 0578 41bd b6ea 99bc
00000150: d424 7c3c 57e9 c2bc bd72 8bbc f4a7 483c
00000160: 08ba 41bc 4501 13bc 368a 6cbc 5ab0 f43c
00000170: 8598 1bbb 1f77 e1ba 5435 87b8 fea2 b8bb
00000180: 8075 333c d09e 583c 4ea7 1dbb c58b 9c3c
00000190: 3c74 903b 6ce0 473a 2136 5d3c d036 dc3c
000001a0: 90f7 9bbb b9da 06bd 5932 e53c 0061 dfbc
000001b0: 5237 a9ba 369f 13bd cc68 5b3b 13c5 ccbc
000001c0: bdd7 b7bb a43e d3b9 128f 663c 16b6 e33c
000001d0: e148 a2bb a4d2 3abc f3da 75bc 2340 4bbc
000001e0: 8ab1 7dbb 7375 49bc 4575 10bc be49 dd3b
000001f0: 6d40 1b3c a6c1 a33b 5e99 34bc 5fb0 f63b
00000200: a63a 2e3b f1b4 883c 7a5a 073c 96bf 353a
00000210: 32cc b5bb dfa1 2d3c cbfe 4ebc 5042 ac3c
00000220: 17fb a53a 7fd9 ac3c 3922 993b ee04 b43a
00000230: 75ae 49bd 3c46 853c d2e7 7b3c 4f0f 513c
00000240: b288 6a3c d018 f0bc 1c27 1ebd e6a2 52bc
00000250: d51f d3ba 82bf 913c 7479 fcbb 071c 8d3c
00000260: f88c 57bb a207 073b 7dd8 af3b 4175 fbbc
00000270: 9bc7 a1bc 8c7f 29bd 49a6 9d3c d69a f0bc
00000280: fbac 2bbc 0be3 c7bc fdec 18bc 08fc 36bc
00000290: 3090 8f3c c7a7 81bb 8fb3 853b 1d5d 923c
000002a0: a51e 9b3c 6641 97bb 6dad c63c 9a4b 723a
000002b0: 4870 223c a42d 0abc 2f45 9ebc 847e 1fbd
000002c0: 5551 62bb 7728 0dbc 4549 04bd ce3f 0a3d
000002d0: ebd9 13bc 00f3 0cbd 6758 97bc 7c56 f2bc
000002e0: dd78 15bd 41d6 b13b 1aef 5c3c 5b2f 8c3c
000002f0: fd82 033d 357e aa3c b43d d83c e6e8 5d3c
00000300: 6241 a33b 866f 3ebb 88e0 98bb c425 bbbb
00000310: 8add 29bd bf19 5cbc e8d8 823a ee7d 9b3c
00000320: e8dd b8bc f91a e03c d1d2 d33b 21a7 633c
00000330: 35d5 c2bb bb82 d0bc 47bb 20bd 1a4b bcbc
00000340: 3255 74bc 297f 6c3c b0bd 623c 3988 073d
00000350: 740d aabc b469 d13b 73af af3c 4fa6 1c3c
00000360: e039 683b fc4e 233c 4575 0abc f5ed 29bb
00000370: f69e b6bc a93e 283c 125a e33b f679 36bc
00000380: 525b aebb d66a 153c 12d5 5c3c 67e7 1fbb
00000390: 16aa 3cbb 75a4 15bb 69e8 c63c afbf 223c
000003a0: 3224 d5bc 4e60 e03b 4dd5 3b3b 7a76 243c
000003b0: 4226 123d dc98 68bb 5bb2 a2b9 45cd d6bc
000003c0: 93ff e7bc 0fdd 2f3d f17a b93b 5854 bfbc
000003d0: 588c 26bc 66bc 86bc 6b8e 7abc e44a 9a3c
000003e0: b155 acbc 71c0 ec3a 4bc1 bb3c 8a8a 9f3b
000003f0: 91a1 343c 6989 e93c 30e2 4dbb 3578 c9bc

action_model._continuous_distribution.mu.bias f4 [3]
-0.0037247941 0.0015715372 -0.0005122391
00000000: ad1b 74bb 0afc cd3a c947 06ba

action_model._discrete_distribution.branches.0.weight f4 [2, 128]
0.0118898135 0.01460766 -0.0053643696 0.0017567876 0.011869103 0.013881406 0.0068622455 0.0095573235
0.0046115573 -0.022604587 0.0025589487 0.0025861326 0.0010456116 0.015041336 -0.009117664 0.01035384
0.011619361 -0.008543389 0.014345429 1.5330588e-06 -0.0066964794 0.009689382 0.0023746702 0.00829772
0.012940502 0.0113862865 0.0017280714 -0.0038329689 0.007027627 -0.007788476 -0.005434696 0.0076857465
-0.00085994374 -0.012220496 -0.0070817117 -0.0035538487 0.0045438237 0.014168203 -0.00092515105 -0.0051989015
-0.004952836 0.0005557686 0.009455897 -0.0045630266 -0.0012783807 -0.002854135 0.015400762 0.004224167
0.008658049 0.00063917675 -0.0067988224 -0.005716198 0.014253587 0.012837129 0.001624362 -0.0015570665
-0.0032930223 -0.0007677378 -0.009272589 0.00433644 0.015821053 0.012615344 -0.01098202 0.012148278
0.007955988 0.0121720405 0.011654998 -0.0037529892 0.0020699122 -0.003166513 0.016290719 0.0033601886
-0.014032852 0.009849285 0.0054076402 -0.009187233 0.002553359 0.0014495068 0.0015737276 0.009882019
-0.014103189 0.022954144 -0.0072170333 0.010419246 0.006786443 -0.001743398 0.0068312627 0.015090649
-0.014820134 0.00093414565 0.0011811876 0.0015147403 -0.003461169 -0.004008028 -0.004824048 -0.005888538
-9.270497e-05 -0.0040269936 -0.0049044383 0.0076093944 -0.0055269822 0.0203878 -0.024153586 -0.009646121
0.0025191114 0.01600828 -0.0070897876 -0.012955693 0.000964098 0.007279334 0.0025893408 -0.007623247
-0.011819132 0.0048668687 0.00090843986 5.1472452e-05 0.0023550966 -0.0024642663 0.0026601502 -0.012653733
0.003585325 -0.005628677 0.007151288 -0.0009531385 0.0043515167 0.008083525 -0.008383791 0.009096908
-0.002064552 0.009525388 -0.0030500435 -0.0034503709 -0.005002632 -0.003452254 -0.007256876 0.0023582731
0.0013147529 0.017077224 -0.004959962 0.008043127 -0.010471625 -0.008837261 0.0022774457 -0.01133966
0.0062884092 0.0016674321 0.009862266 -0.013493404 0.012364302 0.0025613734 0.009776084 -0.0007538233
0.013324257 -0.00019667702 0.0011685874 0.0023374595 -0.003203194 -0.007587561 -0.0021279973 0.016243897
0.0026075263 -0.0053053163 0.0042484673 -0.0078928 -0.003584075 -0.0036095604 0.0037635718 -0.00034170997
0.0010898223 0.0143694915 -0.0060355244 -0.011287233 0.0044425935 0.0042710016 0.0013604811 -0.009541396
-0.009926949 0.0026319136 -0.0011422615 -0.0018297246 0.010607938 -0.0086486675 0.010493699 -0.003215053
0.0009052329 0.016178463 -0.0036937422 -0.0027921502 0.010099575 0.007344594 0.0019742514 0.0059070596
-0.010924371 -0.0035477371 -0.00093756645 -0.0091966055 0.016917264 0.015341164 -0.016012404 -0.001555769
0.009154482 0.002136447 -0.008278174 0.000289698 -0.00027657504 0.0047422373 -0.013793819 -0.0040191994
0.012944133 0.008652851 -0.0052923774 -0.0006030244 -0.003112906 -0.0038494563 -0.0076956726 0.010961545
-0.001676472 -0.012129451 -0.013999767 -0.0064499546 -0.0013054394 0.017461767 0.0006632326 0.021739075
0.0026284903 0.005326343 -0.0069040954 0.004180314 0.010315469 0.00254257 -0.0017919407 0.0014096308
-0.00626027 0.011733829 -0.00047949428 0.00697447 -0.0043609575 0.008826735 0.0026434534 0.0020755448
0.007894178 0.0067211483 -0.00068248296 -0.00021917386 -0.00010186687 0.006645114 0.0067085465 -0.0016604079
0.012850437 -0.0067555592 -0.009561727 0.00040786975 0.009311027 -0.008508857 0.0018920783 -0.0066379444
00000000: 7ecd 423c f754 6f3c 98c7 afbb 0344 e63a
00000010: a076 423c d66e 633c b0dc e03b 5296 1c3c
00000020: 8c1c 973b 412d b9bc 09b4 273b 1b7c 293b
00000030: e70c 893a f06f 763c 4162 15bc 27a3 293c
00000040: 225f 3e3c 92f9 0bbc 1709 6b3c 80c3 cd35
00000050: 246e dbbb 37c0 1e3c 5ba0 1b3b 29f3 073c
00000060: 6604 543c 8c8d 3a3c 7480 e23a 8c32 7bbb
00000070: 0248 e63b 7936 ffbb 8915 b2bb b7d8 fb3b
00000080: d96d 61ba 7a38 48bc b40d e8bb b0e7 68bb
00000090: 5be4 943b c021 683c d685 72ba 8c5b aabb
000000a0: 664b a2bb 00b1 113a e8ec 1a3c 7185 95bb
000000b0: 578f a7ba 700c 3bbb 7a53 7c3c e26a 8a3b
000000c0: 7dda 0d3c 6d8e 273a a8c8 debb f24e bbbb
000000d0: e187 693c d252 523c 8be8 d43a 7b16 ccba
000000e0: bfcf 57bb 0342 49ba 0fec 17bc b218 8e3b
000000f0: 279b 813c 96b0 4e3c eeed 33bc 9209 473c
00000100: d559 023c 3d6d 473c 9bf4 3e3c b6f4 75bb
00000110: 5da7 073b 4685 4fbb 1d74 853c 9c36 5c3b
00000120: 0cea 65bc e55e 213c 9332 b13b 0c86 16bc
00000130: 4156 273b 61fd bd3a 8945 ce3a 31e8 213c
00000140: 1011 67bc 540a bc3c dd7c ecbb 7cb5 2a3c
00000150: cf60 de3b bb82 e4ba c9d8 df3b c53e 773c
00000160: 26d0 72bc 74e1 743a 14d2 9a3a 408a c63a
00000170: c8d4 62bb c755 83bb 0c13 9ebb a3f4 c0bb
00000180: 9a6a c2b8 dff4 83bb 69b5 a0bb 3a58 f93b
00000190: b01b b5bb 5104 a73c bedd c5bc c40a 1ebc
000001a0: ad17 253b cc23 833c 7351 e8bb 1d44 54bc
000001b0: 86bb 7c3a 7b87 ee3b eeb1 293b 6ecc f9bb
000001c0: 08a5 41bc 417a 9f3b 5e24 6e3a 20e4 5738
000001d0: f757 1a3b 877f 21bb ea55 2e3b 9a51 4fbc
000001e0: c6f7 6a3b c470 b8bb 5a55 ea3b 0bdc 79ba
000001f0: 2b97 8e3b c370 043c 2b5c 09bc 330b 153c
00000200: 6f4d 07bb 5f10 1c3c 3de3 47bb 9e1f 62bb
00000210: 1eed a3bb 363f 62bb 17cb edbb 428d 1a3b
00000220: c953 ac3a 89e5 8b3c 2d87 a2bb 52c7 033c
00000230: 2e91 2bbc 29ca 10bc 3341 153b fbc9 39bc
00000240: 000f ce3b bd8d da3a 5795 213c 7013 5dbc
00000250: a493 4a3c b7dc 273b de2b 203c 3a9c 45ba
00000260: fc4d 5a3c 163b 4eb9 492b 993a 1030 193b
00000270: adec 51bb 13a1 f8bb df75 0bbb ec11 853c
00000280: 08e3 2a3b 38d8 adbb ba36 8b3b cd50 01bc
00000290: cde2 6abb 608e 6cbb 42a6 763b 8927 b3b9
000002a0: 5ed8 8e3a 046e 6b3c a6c5 c5bb 16ee 38bc
000002b0: 2d93 913b c2f3 8b3b 2c52 b23a 8453 1cbc
000002c0: a4a4 22bc 2f7c 2c3b f0b7 95ba 5fd3 efba
000002d0: ebcc 2d3c 24b3 0dbc c4ed 2b3c a3b3 52bb
000002e0: 274d 6d3a b288 843c b612 72bb 82fc 36bb
000002f0: b078 253c ecaa f03b 7162 013b 0290 c13b
00000300: 22fc 32bc 2781 68bb 05c7 75ba 5cad 16bc
00000310: 1396 8a3c 8159 7b3c 722c 83bc f2ea cbba
00000320: aefc 153c a203 0c3b 2ea1 07bc 9be2 9739
00000330: 4601 91b9 c564 9b3b 78ff 61bc 7db3 83bb
00000340: a113 543c b0c4 0d3c ae6b adbb 4814 1eba
00000350: e501 4cbb 2947 7cbb fb2b fcbb 0d98 333c
00000360: 11bd dbba 9bba 46bc 475f 65bc 245a d3bb
00000370: 471b abba fb0b 8f3c c9dc 2d3a 2516 b23c
00000380: c042 2c3b 9a88 ae3b c03b e2bb 04fb 883b
00000390: 3602 293c 3fa1 263b 8ddf eaba 5cc3 b83a
000003a0: f322 cdbb 3f3f 403c a264 fbb9 188a e43b
000003b0: 5de6 8ebb 039e 103c ca3d 2d3b dd05 083b
000003c0: 9556 013c 143d dc3b a8e8 32ba 09d2 65b9
000003d0: 5ca1 d5b8 42bf d93b 5ed3 db3b 0ba2 d9ba
000003e0: a48a 523c bd5d ddbb caa8 1cbc 5ad7 d539
000003f0: 478d 183c bc68 0bbc 9dff f73a 1d83 d9bb

action_model._discrete_distribution.branches.0.bias f4 [2]
0.002235048 -0.0022350475
00000000: e279 123b e079 12bb
