Assets/Learning/AIRollABall/results/WithObstacle/AIRollABall/AIRollABall-8499992.pt (torch, 584088 bytes, 42 tensors)

network_body._body_endoder.seq_layers.0.weight f4 [128, 50]
0.31561962 0.049934994 -0.12146711 0.090660974 0.110887684 -0.091110446 -0.04608074 0.12634432
0.014612262 -0.10908717 0.08874189 -0.31458545 -0.08465724 0.23200452 -0.14328843 0.20894189
-0.12092515 -0.00049027224 -0.10089428 -0.042622995 0.37103215 -0.2454799 -0.14284334 -0.04994711
0.22714017 0.04680928 0.021513954 0.02389773 -0.057088066 -0.0015398014 -0.09663335 0.094008215
0.006510556 -0.12631314 -0.012108314 0.10439137 0.05956062 0.15028693 0.061782762 0.29999962
0.009434038 -0.16381188 -0.13750903 0.18381009 0.06783056 -0.14414312 -0.24243346 0.0082481755
-0.06258737 -0.10581003 -0.070657596 -0.10772118 -0.0013604568 -0.1409222 0.023862537 -0.0072836205
0.13357237 0.15028737 -0.053077973 -0.069648005 -0.12068272 0.25801507 0.13940197 -0.18795398
0.084440544 -0.19069147 -0.016954577 -0.11169537 0.18561916 -0.060209822 -0.2048392 0.054693863
-0.068615414 -0.07885386 0.0088082785 0.015328096 0.006044503 -0.13272811 -0.12594885 0.23688109
-0.044296168 -0.062665306 0.06965645 0.18129003 0.10057731 -0.3040111 -0.02349378 0.046319097
-0.0975662 -0.03581422 -0.18905768 -0.06366634 -0.02885804 -0.077703916 0.02058484 -0.062244587
-0.32136407 -0.067735195 -0.036582645 0.16292669 0.023460932 -0.09021421 0.03210776 -0.03988651
0.0726638 -0.15326615 0.028210223 -0.16512921 -0.121189505 0.12112458 -0.077563696 -0.19355051
0.05781921 0.061058626 0.030669333 -0.1637004 -0.037304904 0.13073952 0.041576575 0.3360869
-0.019985832 -0.103006676 0.2809102 0.060481526 0.06856628 -0.24781083 -0.14642555 0.07960859
0.12375139 0.13860391 -0.14383431 0.21462333 -0.31005302 -0.039285865 0.15594563 0.44736925
0.09886248 -0.00067788805 0.10789884 -0.047294155 -0.1853016 0.12143293 -0.10985598 0.14526288
-0.18589473 -0.06980428 -0.0687202 -0.06750141 0.096557565 -0.03864165 -0.121594846 -0.04043306
-0.02645296 0.08921 0.08465136 0.06988223 -0.008116624 -0.13066086 -0.03588992 -0.21871455
-0.11561904 0.12512913 0.07071286 -0.08659584 0.21606547 -0.0034071119 -0.13186969 -0.07830049
0.30720884 0.14121714 0.009714515 -0.06317127 -0.083450615 0.037300825 0.36670503 0.049864832
0.22282034 0.024072956 -0.26237077 -0.21487685 -0.09601796 0.13887134 -0.05817922 -0.008906052
-0.15566975 -0.28998137 -0.24439134 0.14452715 0.020339787 0.19885443 -0.23497318 0.012589247
-0.008578995 -0.094702415 0.11418166 -0.051903434 0.044010676 -0.06701016 -0.118606396 0.1776893
-0.025817446 0.086084306 -0.14751226 0.103487015 0.0894986 0.09555526 -0.003229094 -0.048393752
0.20486094 -0.017416634 0.0031453138 -0.1286423 0.105405316 0.14324185 0.0996032 -0.072742775
0.1846903 0.10634507 -0.01469343 0.25462225 0.35645813 0.071343645 0.077968106 -0.0058499323
-0.016378973 -0.2053608 0.015993778 -0.10473825 -0.037341695 0.07153682 0.08839289 -0.17761856
0.011013195 0.06999645 -0.09078612 -0.19184278 0.28340277 -0.004752082 -0.14588045 -0.21036129
0.10897995 -0.28711218 -0.047226794 0.37765288 0.2969111 0.07988824 -0.14911628 0.09064671
-0.0248845 0.16407152 -0.16159809 -0.2001581 0.004658876 -0.07524133 -0.004034962 -0.016583264
00000000: e598 a13e a388 4c3d c0c3 f8bd 76ac b93d
00000010: 1519 e33d 1d98 babd 28bf 3cbd 6860 013e
00000020: 4568 6f3c 1869 dfbd 4fbe b53d 5811 a1be
00000030: c660 adbd 9892 6d3e 34ba 12be ddf4 553e
00000040: 9ba7 f7bd 9d85 00ba a9a1 cebd 7395 2ebd
00000050: edf7 bd3e 155f 7bbe 8645 12be 5795 4cbd
00000060: 6f97 683e 16bb 3f3d 083e b03c 2cc5 c33c
00000070: 2dd5 69bd 29d3 c9ba b5e7 c5bd 6187 c03d
00000080: 8156 d53b 3b58 01be f361 46bc 25cb d53d
00000090: d6f5 733d d1e4 193e ec0f 7d3d 8d99 993e
000000a0: 3991 1a3c 4dbe 27be 2bcf 0cbe b638 3c3e
000000b0: c0ea 8a3d 419a 13be 7a40 78be 5b23 073c
000000c0: cf2d 80bd eeb2 d8bd eeb4 90bd ec9c dcbd
000000d0: 5b51 b2ba e94d 10be 5e7b c33c 70ab eebb
000000e0: 32c7 083e efe4 193e 4a68 59bd 9da3 8ebd
000000f0: 8028 f7bd 8d1a 843e 64bf 0e3e 0277 40be
00000100: 2aef ac3d a044 43be 53e4 8abc 8bc0 e4bd
00000110: f312 3e3e 939e 76bd 5ec1 51be ac06 603d
00000120: 3d86 8cbd 227e a1bd 9950 103c b222 7b3c
00000130: f710 c63b e1e9 07be bcf8 00be f590 723e
00000140: e66f 35bd ab56 80bd 0aa8 8e3d 18a4 393e
00000150: 7afb cd3d 58a7 9bbe 0776 c0bc 18b9 3d3d
00000160: cad0 c7bd eeb1 12bd 5698 41be 8063 82bd
00000170: b267 ecbc 3b23 9fbd 8aa1 a83c 2ef4 7ebd
00000180: d589 a4be c0b8 8abd afd7 15bd 41d6 263e
00000190: 2431 c03c 3ac2 b8bd 6d83 033d 0a60 23bd
000001a0: c2d0 943d cdf1 1cbe 2019 e73c a217 29be
000001b0: 3432 f8bd 2a10 f83d b7d9 9ebd 1b32 46be
000001c0: d6d3 6c3d 9c18 7a3d 413e fb3c 14a1 27be
000001d0: 07cd 18bd 95e0 053e 334c 2a3d 9513 ac3e
000001e0: 54b9 a3bc 2af5 d2bd 76d3 8f3e 7abb 773d
000001f0: 7a6c 8c3d 1fc2 7dbe 94f0 15be d409 a33d
00000200: 5e71 fd3d 2fee 0d3e 4d49 13be 38c6 5b3e
00000210: 45bf 9ebe 37ea 20bd 36b0 1f3e 950d e53e
00000220: 6978 ca3d 4cb4 31ba 11fa dc3d 84b7 41bd
00000230: b4bf 3dbe d4b1 f83d 2cfc e0bd cbbf 143e
00000240: 305b 3ebe 8cf5 8ebd 2dbd 8cbd 2e3e 8abd
00000250: f9bf c53d b546 1ebd b806 f9bd 239d 25bd
00000260: e1b3 d8bc bcb3 b63d b15d ad3d 6a1e 8f3d
00000270: 97fb 04bc f6cb 05be 4f01 13bd b5f6 5fbe
00000280: adc9 ecbd da21 003e e7d1 903d 2959 b1bd
00000290: 4440 5d3e da49 5fbb d908 07be 025c a0bd
000002a0: 7a4a 9d3e 3a9b 103e a129 1f3c f05f 81bd
000002b0: 28e8 aabd c0c8 183d c3c0 bb3e 113f 4c3d
000002c0: 042b 643e a634 c53c 7655 86be ad08 5cbe
000002d0: 10a5 c4bd 4a34 0e3e 554d 6ebd b1ea 11bc
000002e0: e467 1fbe 7078 94be b941 7abe edfe 133e
000002f0: a09f a63c 7fa0 4b3e cf9c 70be 2143 4e3c
00000300: ea8e 0cbc 57f3 c1bd 13d8 e93d b298 54bd
00000310: 8a44 343d 9f3c 89bd e9e7 f2bd 2ff4 353e
00000320: 1c7f d3bc f84c b03d 740d 17be 00f1 d33d
00000330: 0b4b b73d 7ab2 c33d 359f 53bb 8738 46bd
00000340: 11c7 513e 54ad 8ebc 9c21 4e3b cfba 03be
00000350: bede d73d fead 123e c3fc cb3d 2afa 94bd
00000360: 741f 3d3e 72cb d93d b6bc 70bc d95d 823e
00000370: ae81 b63e 9e1c 923d bead 9f3d cab0 bfbb
00000380: 322d 86bc 1a4a 52be 6205 833c 0281 d6bd
00000390: 9bf3 18bd e581 923d 5507 b53d a4e1 35be
000003a0: b070 343c 4c5a 8f3d 13ee b9bd 6f72 44be
000003b0: 2b1a 913e 5ab7 9bbb af61 15be f368 57be
000003c0: e130 df3d 5e00 93be e270 41bd b85b c13e
000003d0: bb04 983e 729c a33d f0b1 18be fba4 b93d
000003e0: 94da cbbc 5d02 283e f879 25be 3ff6 4cbe
000003f0: 7ca9 983b 2018 9abd b737 84bb a0d9 87bc

network_body._body_endoder.seq_layers.0.bias f4 [128]
0.017996691 0.028506141 -0.004179291 0.0126167005 0.045223553 -0.0025459058 0.008417027 0.05319963
-0.005805646 0.0035790566 -0.046490755 0.001582203 0.029688125 0.02011338 -0.012827087 0.030067572
-0.009002914 -0.012812678 -0.01575851 0.029294292 0.01973335 0.019476611 0.061512407 -0.008546021
-0.019057097 -0.01378486 0.05124734 -0.0031724304 0.02065601 -0.019055236 0.053060535 0.058478393
0.027012654 0.030536825 0.011885407 0.008688541 -0.028400019 0.0012906204 0.027994465 0.040274218
0.007461272 -0.018114317 0.017083682 -0.021373654 0.029468302 -0.0046536885 0.05037818 0.027002318
0.02120863 0.017517516 -0.055587266 -0.029613974 0.021479758 0.003980559 0.03330341 -0.0010943088
-0.016292315 -0.010067468 0.03529713 0.035896517 0.011412109 0.015763203 -0.026027082 0.02592311
-0.012760634 -0.014653559 0.010524033 0.007443314 -0.014840571 0.0248078 0.022213552 0.03045712
0.005739294 0.0029755675 -0.008407071 0.008260505 0.04997871 0.037576806 0.009429601 -7.9609585e-05
-0.017815955 0.0021868765 0.02941851 -0.021033535 0.029396635 0.026544346 0.015461072 0.011465136
0.016104015 -2.341554e-05 4.1662002e-05 -0.0026871916 0.023873452 -0.001913906 0.07017053 -0.01483955
-0.0037292396 0.030294893 -0.010346266 0.0059300964 -0.018908653 0.04611408 -0.022229865 -0.0316978
-0.004550459 0.011439224 -0.014518458 -0.045094006 0.018727519 0.023561066 -0.0026189277 0.02047486
-0.016558051 -0.0061374414 -0.018321076 -0.007158786 0.02454931 0.049248014 0.046051607 0.01978196
0.029009156 -0.0069975574 -0.010031253 0.00958037 0.04134107 0.052229393 -0.033070292 0.012505966
00000000: cc6d 933c b685 e93c 6ff2 88bb 47b6 4e3c
00000010: 553c 393d 36d9 26bb 92e7 093c dbe7 593d
00000020: 4a3d bebb 9b8e 6a3b 176d 3ebd ec61 cf3a
00000030: 8334 f33c d1c4 a43c b428 52bc 4550 f63c
00000040: f580 13bc 44ec 51bc fe17 81bc 95fa ef3c
00000050: d6a7 a13c 6a8d 9f3c 6ff4 7b3d 9c04 0cbc
00000060: a11d 9cbc e5d9 61bc bbe8 513d 8de8 4fbb
00000070: cb36 a93c ba19 9cbc 0156 593d 0a87 6f3d
00000080: a449 dd3c 5d28 fa3c 03bb 423c 625a 0e3c
00000090: 28a7 e8bc 092a a93a a654 e53c 94f6 243d
000000a0: b07d f43b 7a64 94bc 14f3 8b3c cd17 afbc
000000b0: 8267 f13c f87d 98bb 5a59 4e3d f733 dd3c
000000c0: b9bd ad3c e580 8f3c 79af 63bd 0199 f2bc
000000d0: 51f6 af3c 596f 823b 2869 083d e96e 8fba
000000e0: 7677 85bc 05f2 24bc b993 103d 3a08 133d
000000f0: dbf9 3a3c d521 813c bf36 d5bc b45c d43c
00000100: fa11 51bc 7b15 70bc fe6c 2c3c 0be7 f33b
00000110: de25 73bc ba39 cb3c 32f9 b53c 3681 f93c
00000120: b010 bc3b bd01 433b d0bd 09bc 1257 073c
00000130: 7ab6 4c3d 23ea 193d 9d7e 1a3c 12f4 a6b8
00000140: c4f2 91bc b351 0f3b 16ff f03c 854e acbc
00000150: 36d1 f03c 8773 d93c 7050 7d3c 44d8 3b3c
00000160: 91ec 833c 7d6c c4b7 3cbe 2e38 981b 30bb
00000170: 4292 c33c 07dc faba 91b5 8f3d 9521 73bc
00000180: 4266 74bb ff2c f83c 6383 29bc 4151 c23b
00000190: 52e6 9abc 1ee2 3c3d 681b b6bc 8dd5 01bd
000001a0: 041c 95bb 956b 3b3c d4de 6dbc 7eb4 38bd
000001b0: 746a 993c 2303 c13c 51a2 2bbb e5ba a73c
000001c0: c0a4 87bc 971c c9bb 1516 96bc 4094 eabb
000001d0: a21b c93c 49b8 493d 9ca0 3c3d c70d a23c
000001e0: 9ca4 ed3c c44b e5bb 205a 24bc fcf6 1c3c
000001f0: 4155 293d 7dee 553d b774 07bd d3e5 4c3c

network_body._body_endoder.seq_layers.2.weight f4 [128, 128]
0.018057609 0.17331459 -0.08043981 -0.043613832 0.17221361 0.03415681 0.13936584 0.043030944
-0.05602737 -0.00540966 -0.03820636 -0.14127912 0.011386917 0.18907133 0.043678936 -0.026694247
-0.10258249 0.12717085 0.0068409652 -0.055133853 0.12483435 0.17119369 0.02370276 -0.10133877
0.0008838629 -0.011018266 0.0002635354 0.134062 0.046025444 0.16385788 0.132624 0.027697766
-0.11402478 -0.008358775 0.07400598 0.0652385 -0.08086052 -0.14289756 0.008231941 -0.042044893
-0.012941479 -0.13854119 0.13475138 -0.036061987 -0.036568645 -0.10767842 0.10849569 0.03587571
0.08092698 0.10276092 0.0020114558 -0.075693786 0.05026109 0.0069019594 0.031873584 0.05522249
-0.06844459 -0.0033149498 0.29324967 -0.13722739 -0.03131316 -0.18097694 0.029725805 -0.107896686
0.015817758 0.037287403 -0.18183856 -0.112229645 -0.03450382 0.005224515 0.06605642 -0.056731075
0.07949232 0.040667538 -0.08677965 -0.0040995786 -0.15367827 0.05819157 0.018246789 0.00074658927
0.08465102 0.03625516 -0.1570367 -0.042278208 0.07725794 -0.034802508 -0.008032617 -0.26343286
0.087400086 -0.010818426 0.040759936 0.1434466 0.031918604 -0.0051366407 0.06536802 -0.13758047
0.077644706 0.09869577 0.044419907 -0.003500271 -0.13109381 0.16518478 -0.013116115 0.061765455
-0.012450287 -0.043977235 0.04617857 0.13252158 -0.21623303 -0.1442753 -0.01728168 0.00046684238
0.030508215 -0.123081446 -0.06736369 -0.08044099 0.12612551 -0.056211744 -0.07393025 -0.063154645
0.04273458 -0.05060297 -0.02297665 -0.025581323 0.048319146 0.21671888 -0.06605456 0.23149733
0.17374162 0.034932088 0.080661796 -0.03987375 0.054599132 0.04656078 0.105926126 -0.065087974
0.047586057 0.029066347 -0.15796562 -0.15526971 0.036559984 0.027938878 -0.03751532 0.014116432
-0.12627192 0.075211644 -0.033064935 0.16896997 0.018541513 0.12890656 0.0086490745 -0.1722165
-0.07728761 0.013414937 0.06174896 0.04931771 0.09698974 0.049295142 0.2963529 0.004989845
-0.015229188 0.1516934 0.17258193 -0.014147602 0.08697239 -0.07514471 0.19907504 0.25620103
-0.06997698 0.16048287 0.022357905 0.011061499 -0.0057768906 0.036387462 0.17589632 0.13250507
0.013442478 0.012860066 -0.094331585 0.01636538 -0.109749615 -0.12615266 -0.029993325 0.26567468
0.0779334 0.08590541 0.0137829175 0.042962063 -0.046450097 0.054797754 0.096146144 -0.024192471
0.12844548 0.11961603 -0.06885555 -0.022695236 -0.055522222 0.047400266 0.012869363 0.2165368
0.17201293 -0.17600557 0.084078446 0.09488612 -0.027013447 -0.14722306 -0.07614214 -0.25063607
-0.07297686 -0.047138624 0.06008594 -0.03170119 -0.08164229 -0.037076775 0.023014998 0.09583109
0.14281012 -0.0659195 0.012243565 -0.0004075176 -0.004473461 0.07464291 -0.02738488 -0.024478197
0.0051383697 0.056858145 -0.2622015 0.009270317 -0.053019144 -0.23127513 0.021262402 -0.022284567
0.06768253 -0.08624674 -0.13477026 -0.1047777 -0.0648369 0.04193376 -0.005629509 0.05355415
0.0120365415 -0.11622643 -0.07954438 0.04429399 0.04530829 0.034708425 0.0074686627 0.12649922
0.0081778485 -0.044965748 0.011868859 -0.20893642 0.041227266 0.008057332 0.06797381 -0.13660637
00000000: 8ded 933c 6179 313e a1bd a4bd 6ba4 32bd
00000010: c458 303e 03e8 0b3d ebb5 0e3e 3741 303d
00000020: f57c 65bd 8443 b1bb 467e 1cbd 79ab 10be
00000030: 3190 3a3c ea9b 413e afe8 323d e5ad dabc
00000040: c516 d2bd 1339 023e 2d2a e03b 09d4 61bd
00000050: 27a9 ff3d 664d 2f3e 4a2c c23c b38a cfbd
00000060: 09b3 673a f585 34bc 1f2b 8a39 8d47 093e
00000070: 2d85 3c3d 5cca 273e 96ce 073e 6de6 e23c
00000080: d385 e9bd 3ef3 08bc 7290 973d c39b 853d
00000090: 339a a5bd bd53 12be 43df 063c 4437 2cbd
000000a0: 7f08 54bc bedd 0dbe 44fc 093e bcb5 13bd
000000b0: 01c9 15bd 8186 dcbd fd32 de3d 69f2 123d
000000c0: 0bbd a53d 5174 d23d a1d2 033b 5805 9bbd
000000d0: 93de 4d3d d529 e23b e08d 023d fa30 623d
000000e0: ad2c 8cbd a13f 59bb d224 963e 5685 0cbe
000000f0: 3a42 00bd 0552 39be 8883 f33c f0f8 dcbd
00000100: 3e94 813c adba 183d e333 3abe a8d8 e5bd
00000110: e153 0dbd 6932 ab3b 9748 873d d85e 68bd
00000120: dfcc a23d 0193 263d 87b9 b1bd c255 86bb
00000130: d65d 1dbe 495a 6e3d 4a7a 953c c2b6 433a
00000140: 845d ad3d 4a80 143d 3bce 20be ea2b 2dbd
00000150: 6939 9e3d 138d 0ebd 3d9b 03bc ace0 86be
00000160: d1fe b23d c43f 31bc e4f3 263d aae3 123e
00000170: 15bd 023d 4451 a8bb abdf 853d e5e1 0cbe
00000180: 3004 9f3d 0221 ca3d a6f1 353d cd64 65bb
00000190: 753d 06be 3326 293e f9e4 56bc c6fd 7c3d
000001a0: 4afc 4bbc 7921 34bd bd25 3d3d bdb3 073e
000001b0: 316c 5dbe e7bc 13be 4f92 8dbc 86c2 f439
000001c0: 5dec f93c 2012 fcbd f9f5 89bd 3fbe a4bd
000001d0: 0c27 013e 493e 66bd be68 97bd 3957 81bd
000001e0: 740a 2f3d 0f45 4fbd 8739 bcbc ec8f d1bc
000001f0: 4cea 453d 8eeb 5d3e 9d47 87bd a30d 6d3e
00000200: 53e9 313e f314 0f3d 0332 a53d a852 23bd
00000210: 57a3 5f3d 84b6 3e3d ccef d83d d84c 85bd
00000220: 99e9 423d 8c1c ee3c bdc1 21be 06ff 1ebe
00000230: ecbf 153d 13e0 e43c aaa9 19bd 9b48 673c
00000240: 6d4d 01be 9008 9a3d 196f 07bd 7706 2d3e
00000250: 5fe4 973c 1500 043e d9b4 0d3c 8659 30be
00000260: f748 9ebd 53ca 5b3c 7aec 7c3d 5e01 4a3d
00000270: 8fa2 c63d b4e9 493d 91bb 973e db81 a33b
00000280: d883 79bc 8455 1b3e 51b9 303e 58cb 67bc
00000290: 951e b23d 78e5 99bd 54da 4b3e c82c 833e
000002a0: 1750 8fbd 9f55 243e ed27 b73c 4a3b 353c
000002b0: 124c bdbb 050b 153d 2a1e 343e 69af 073e
000002c0: d73d 5c3c 07b3 523c eb30 c1bd b010 863c
000002d0: 68c4 e0bd 2a2e 01be 90b4 f5bc 8306 883e
000002e0: 8c9b 9f3d 2def af3d bfd1 613c fdf8 2f3d
000002f0: 7542 3ebd 9c73 603d 45e8 c43d 4a2f c6bc
00000300: 3687 033e 40f9 f43d 2304 8dbd 5ceb b9bc
00000310: 456b 63bd c826 423d 05da 523c d3bb 5d3e
00000320: 2824 303e ce3a 34be 5231 ac3d a753 c23d
00000330: 4e4b ddbc a4c1 16be 69f0 9bbd 5f53 80be
00000340: e474 95bd 6e14 41bd ad1c 763d 1bd9 01bd
00000350: 1334 a7bd d1dd 17bd f389 bc3c 1743 c43d
00000360: d13c 123e ce00 87bd 3c99 483c 16a8 d5b9
00000370: 1c96 92bb 62de 983d 4256 e0bc 8086 c8bc
00000380: c55f a83b 16e4 683d 463f 86be 87e2 173c
00000390: 9a2a 59bd 63d3 6cbe 7d2e ae3c 208e b6bc
000003a0: 239d 8a3d 21a2 b0bd 3701 0abe b195 d6bd
000003b0: 35c9 84bd bcc2 2b3d bf77 b8bb 995b 5b3d
000003c0: ea34 453c 1f08 eebd 2ae8 a2bd 9d6d 353d
000003d0: 2f95 393d 6c2a 0e3d afbb f43b 0389 013e
000003e0: 62fc 053c 012e 38bd 9a75 423c 6ef3 55be
000003f0: ecdd 283d e602 043c da35 8b3d 8ae2 0bbe

network_body._body_endoder.seq_layers.2.bias f4 [128]
0.026659565 -0.011736326 0.013160038 0.02055025 -0.018854668 0.039967448 0.022651078 0.03063574
-0.00022890413 0.041923266 0.014645255 0.02845358 0.036348335 0.025901744 0.01592732 0.020942159
0.014322462 0.026122851 -0.0011332447 0.02096388 0.024864623 0.010984872 0.031677812 0.032089453
0.025268575 0.015416943 0.02992045 0.036426615 0.009551417 0.01873807 0.026822414 0.032559536
0.031121837 0.029595425 0.018608892 0.027454996 0.020570511 0.030900652 0.0055868933 0.031908292
0.032350022 0.024516687 0.0065693604 0.016643524 0.019540414 -0.007517347 0.043714106 0.02738406
0.026416413 0.02816927 0.045546725 -0.017288083 0.032554552 0.009382666 -0.0059344373 0.04153426
0.032235097 0.013818001 -0.035592105 0.046168327 0.009248687 0.026707007 0.0024986884 -0.011754015
0.022794235 0.009240073 0.019482762 0.0073143532 0.024559652 0.03294626 0.0066344156 0.018891806
0.025326971 0.0077572307 0.011768346 0.02913112 0.010433548 -0.0038147115 0.03776784 0.024332765
0.011523355 0.0016470128 0.0043907408 0.024819836 0.014715422 0.014141468 -0.028008848 -0.019845085
0.038535856 0.028303707 0.022880008 0.013648636 0.028762156 0.029174922 0.022654576 0.045575578
0.03625126 -0.013093799 0.043305438 0.015202027 0.027341923 0.0030642948 0.0008748237 0.004166775
0.013600018 0.015018931 0.023955332 0.035736777 -0.0052644797 0.027330298 0.021015836 0.0493316
0.010865368 0.0143158585 0.0034497683 0.027214276 0.026211424 0.0289014 0.009405175 0.003622521
0.0042044916 0.039897095 0.025432257 0.03546976 0.019787414 0.0155889755 0.013677628 0.035037242
00000000: 2965 da3c b849 40bc 339d 573c ff58 a83c
00000010: 1b75 9abc e8b4 233d c18e b93c cef7 fa3c
00000020: fc05 70b9 bbb7 2b3d a7f2 6f3c 7b17 e93c
00000030: fee1 143d e52f d43c 037a 823c e48e ab3c
00000040: c2a8 6a3c 97ff d53c 6289 94ba 71bc ab3c
00000050: e5b0 cb3c e4f9 333c 98c0 013d 3b70 033d
00000060: 0b00 cf3c 5897 7c3c bb1b f53c 1334 153d
00000070: 8c7d 1c3c 9580 993c aeba db3c 265d 053d
00000080: 39f3 fe3c 1b72 f23c ad71 983c 4de9 e03c
00000090: 7d83 a83c 5d23 fd3c 4212 b73b 45b2 023d
000000a0: 7581 043d 38d7 c83c ca43 d73b 0058 883c
000000b0: 3813 a03c 1454 f6bb 900d 333d 8954 e03c
000000c0: 3c67 d83c 3ec3 e63c 348f 3a3d bd9f 8dbc
000000d0: ec57 053d c1b9 193c ab75 c2bb d41f 2a3d
000000e0: f308 043d e664 623c 07c9 11bd 001b 3d3d
000000f0: ce87 173c a7c8 da3c 09c1 233b ea93 40bc
00000100: faba ba3c ad63 173c 509a 9f3c 3ead ef3b
00000110: 5331 c93c a8f2 063d 8365 d93b fdc2 9a3c
00000120: 827a cf3c 5e30 fe3b 05d0 403c 63a4 ee3c
00000130: 79f1 2a3c 3d00 7abb 73b2 1a3d 8255 c73c
00000140: 74cc 3c3c 94e0 d73a 34e0 8f3b f852 cb3c
00000150: f418 713c 9eb1 673c d072 e5bc 2992 a2bc
00000160: c6d7 1d3d 2ddd e73c db6e bb3c 879e 5f3c
00000170: 9d9e eb3c 3f00 ef3c 1796 b93c 75ad 3a3d
00000180: 347c 143d 6087 56bc 0b61 313d ec11 793c
00000190: 2bfc df3c 56d2 483b 6d54 653a 7189 883b
000001a0: 9cd2 5e3c f611 763c f93d c43c ba60 123d
000001b0: a881 acbb cae3 df3c 6729 ac3c ef0f 4a3d
000001c0: a804 323c 108d 6a3c 8215 623b 79f0 de3c
000001d0: 57b9 d63c a1c2 ec3c 2a18 1a3c d167 6d3b
000001e0: d5c5 893b 236b 233d 4f57 d03c bd48 113d
000001f0: 3719 a23c e768 7f3c 2118 603c 3683 0f3d

action_model._continuous_distribution.log_sigma f4 [1, 3]
-0.12676623 -0.14292917 0.12822886
00000000: 02cf 01be 065c 12be 6d4e 033e

action_model._continuous_distribution.mu.weight f4 [3, 128]
0.14037263 0.033287846 0.04939221 0.0078111086 -0.03320114 0.15996082 -0.068293706 -0.14463022
0.060737234 0.20769957 0.023869459 -0.047362227 0.11255966 -0.105947666 -0.12438026 -0.079313226
-0.07254437 -0.15164188 -0.0681077 -0.054155 0.050377525 0.0070267883 0.059716202 -0.025226666
-0.029393464 0.060936753 0.04266084 -0.15710336 -0.016590407 -0.05765984 -0.08901202 -0.10949893
0.043019027 0.0069650244 -0.03986252 -0.03720424 0.011589403 0.010344055 -0.050522573 -0.016729636
-0.07378308 0.08588367 -0.06213865 -0.058743667 -0.057566505 0.033714052 0.09594593 -0.0925718
-0.0021953124 0.106682226 -0.007860141 -0.059430826 0.10620183 -0.043516517 0.07921385 0.03933439
0.020134537 0.069169044 -0.033749208 0.025499467 0.12025627 0.18140383 0.0057537435 0.031398974
0.076843485 0.030245185 0.028919589 -0.032886308 0.07119216 0.019249534 0.047971424 0.020237656
0.118913606 0.08035629 -0.12164581 -0.077713765 0.0032029774 0.03930469 0.011792349 0.005305851
0.12960729 0.004449952 0.0031804575 0.11072936 0.06753358 0.06897494 -0.013290626 -0.03530559
-0.04752166 0.1868953 0.07644964 -0.0985184 -0.12534557 -0.026402917 -0.06934351 0.0022665823
0.1930792 0.07996944 -0.09837557 -0.0745741 0.014868298 0.14604855 -0.10356652 -0.02342293
0.051475108 0.14676669 0.011905582 0.046260875 0.050963372 0.042675734 -0.055502098 0.13130727
-0.10397846 -0.10953456 -0.09669156 0.11346445 0.1130533 -0.08935502 -0.023770994 -0.117882214
-0.09552323 0.11510993 -0.15842102 0.07072509 0.16309907 -0.11001569 0.03751177 0.059827495
0.08358963 -0.054131813 -0.13513751 0.106387384 0.0049741077 -0.024529587 0.02249071 0.07702138
0.07420111 -0.03805897 -0.11548753 0.13894549 -0.056193862 -0.07700121 -0.019524798 -0.04708798
0.04772599 0.048378143 -0.05697614 -0.15739103 -0.020118827 -0.121485904 0.10420906 -0.11328093
0.1589947 -0.11671322 -0.13832451 -0.028775282 -0.15006351 0.14645591 0.0134837385 0.10312858
0.1348853 0.16348502 -0.06592733 -0.032510217 0.082540244 -0.1861904 -0.11917489 -0.011720988
0.014879824 0.046378147 -0.08324127 -0.13016865 -0.013797707 -0.049627103 0.15181781 0.0032814152
-0.069582164 0.008946951 -0.064006604 0.059228864 0.14496168 0.072998144 0.003479898 -0.085769065
0.12338504 -0.15501371 0.014964628 -0.051233396 -0.024033397 -0.034058906 0.051647115 -0.038199928
-0.094613984 0.113096446 0.032718573 -0.080980085 -0.07312383 -0.15147145 -0.12804656 0.0498667
-0.06858347 0.06030591 -0.06277001 0.02604517 0.06693323 -0.045854826 -0.13773283 -0.057326667
-0.08176886 -0.031498436 -0.17548203 0.07782856 -0.06626753 0.047694806 0.050329186 -0.0038647682
0.061160095 0.024833916 0.012289129 -0.09935255 -0.07635899 -0.06172617 0.022499248 -0.13734436
-0.057056922 0.04474512 0.14924385 -0.10919687 0.06950479 0.055070452 0.024842033 -0.0819631
-0.1546497 -0.018711738 0.09865068 0.14857373 -0.022687443 -0.116112515 0.12972237 0.022721792
0.019480072 -0.06505683 -0.001057929 0.11046938 -0.07532209 0.0756806 0.13296376 0.007778215
-0.038447563 -0.12823042 -0.031295124 0.026964288 0.05031736 -0.06430466 -0.14100921 0.061691783
00000000: d8bd 0f3e d658 083d 7c4f 4a3d 54f4 ff3b
00000010: ebfd 07bd c5cc 233e 92dd 8bbd f219 14be
00000020: 9bc7 783d 32af 543e e289 c33c e5fe 41bd
00000030: ae85 e63d 17fb d8bd 14bb febd f96e a2bd
00000040: 2592 94bd 0248 1bbe 0d7c 8bbd a2d1 5dbd
00000050: aa58 4e3d f940 e63b fa98 743d 27a8 cebc
00000060: 90ca f0bc d198 793d 22bd 2e3d b4df 20be
00000070: 9be8 87bc b92c 6cbd ef4b b6bd fa40 e0bd
00000080: b834 303d dc3a e43b e246 23bd 7963 18bd
00000090: 7be1 3d3c 1c7a 293c c2f0 4ebd 970c 89bc
000000a0: 951b 97bd c7e3 af3d 1985 7ebd 339d 70bd
000000b0: dbca 6bbd bf17 0a3d 4d7f c43d 4996 bdbd
000000c0: 3bdf 0fbb 367c da3d d2c7 00bc bd6d 73bd
000000d0: 5880 d93d 603e 32bd df3a a23d 191d 213d
000000e0: 2ff1 a43c 80a8 8d3d 9c3c 0abd 42e4 d03c
000000f0: eb48 f63d edc1 393e e689 bc3b 369c 003d
00000100: 1e60 9d3d c0c4 f73c c6e8 ec3c cbb3 06bd
00000110: 32cd 913d 33b1 9d3c af7d 443d 71c9 a53c
00000120: fa88 f33d d791 a43d 7021 f9bd 6528 9fbd
00000130: 0be9 513b f4fd 203d b234 413c b4dc ad3b
00000140: c6b7 043e e7d0 913b 396f 503b 13c6 e23d
00000150: 0c4f 8a3d bc42 8d3d edc0 59bc 989c 10bd
00000160: 12a6 42bd 7b61 3f3e a191 9c3d 04c4 c9bd
00000170: 975a 00be ee4a d8bc f803 8ebd f18a 143b
00000180: 8eb6 453e 05c7 a33d 2179 c9bd 4eba 98bd
00000190: 299a 733c c08d 153e af1a d4bd 72e1 bfbc
000001a0: 90d7 523d 024a 163e a10f 433c 0b7c 3d3d
000001b0: f8be 503d c0cc 2e3d 2b56 63bd 6a75 063e
000001c0: a9f2 d4bd a853 e0bd 3906 c6bd 0d60 e83d
000001d0: 7d88 e73d c4ff b6bd 63bb c2bc 3b6c f1bd
000001e0: afa1 c3bd c1be eb3d 1f39 22be 51d8 903d
000001f0: 7103 273e e84f e1bd f1a5 193d ad0d 753d
00000200: 0a31 ab3d 52b9 5dbd 7d61 0abe a1e1 d93d
00000210: d7fd a23b 46f2 c8bc 703e b83c 63bd 9d3d
00000220: c0f6 973d b9e3 1bbd ba84 ecbd ba47 0e3e
00000230: 892b 66bd cfb2 9dbd 78f2 9fbc 53df 40bd
00000240: 547c 433d 2928 463d d05f 69bd 1d2b 21be
00000250: 3dd0 a4bc 9acd f8bd 8f6b d53d d5ff e7bd
00000260: 82cf 223e 5707 efbd f1a4 0dbe 24ba ebbc
00000270: 40aa 19be 8af8 153e e6ea 5c3c 1435 d33d
00000280: 5f1f 0a3e 9e68 273e e804 87bd 6f29 05bd
00000290: dc0a a93d b2a8 3ebe f711 f4bd 6309 40bc
000002a0: 81ca 733c 03f7 3d3d 667a aabd ee4a 05be
000002b0: c70f 62bc ca45 4bbd 2176 1b3e 030d 573b
000002c0: 1881 8ebd 3b96 123c e515 83bd f799 723d
000002d0: d670 143e 0d80 953d 000f 643b b1a7 afbd
000002e0: 4cb1 fc3d eabb 1ebe 332e 753c 1cda 51bd
000002f0: b0e1 c4bc 5a81 0bbd ed8b 533d 8777 1cbd
00000300: fac4 c1bd 1c9f e73d e903 063d e3d8 a5bd
00000310: f2c1 95bd 551b 1bbe a31e 03be 0641 4c3d
00000320: 7e75 8cbd 5403 773d 908d 80bd ae5c d53c
00000330: 4a14 893d 45d2 3bbd d609 0dbe 5ecf 6abd
00000340: 6f76 a7bd 8104 01bd 90b1 33be 9464 9f3d
00000350: 45b7 87bd a15b 433d fa25 4e3d 0d48 7dbb
00000360: 0283 7a3d 7f70 cb3c 5858 493c 5a79 cbbd
00000370: 1a62 9cbd 95d4 7cbd 5850 b83c 00a4 0cbe
00000380: 85b4 69bd a946 373d 61d3 183e 9ca2 dfbd
00000390: 8758 8e3d 8e91 613d 8581 cb3c 45dc a7bd
000003a0: 7e5c 1ebe 5c49 99bc 5e09 ca3d b623 183e
000003b0: 04db b9bc 66cc edbd f1d5 043e 0d23 ba3c
000003c0: ac94 9f3c 843c 85bd 35aa 8aba c53d e23d
000003d0: 7842 9abd 6efe 9a3d a727 083e 66e0 fe3b
000003e0: 317b 1dbd d64e 03be 512f 00bd 36e4 dc3c
000003f0: 9319 4e3d 29b2 83bd b864 10be 86b0 7c3d

action_model._continuous_distribution.mu.bias f4 [3]
0.0055288323 0.0066771475 -0.037558693
00000000: 352b b53b f9cb da3b 25d7 19bd

action_model._discrete_distribution.branches.0.weight f4 [2, 128]
-0.011865943 -0.07833893 -0.0077071744 -0.040902037 -0.013050024 -0.016955394 0.019194743 -0.07080626
-0.02999851 -0.017484177 0.02180481 0.0020151373 -0.024986396 -0.07839781 0.019961435 -0.00068936864
-0.03731295 -0.0639115 0.034587976 -0.021787528 0.034274187 0.04367139 0.012432299 -0.015648969
-0.0076786345 -0.0010990119 -0.003925648 -0.06660771 -0.04038286 0.033070635 -0.042723637 -0.024415746
-0.04013907 0.008080537 -0.06408605 -0.029013932 -0.030350301 -0.026875407 -0.016549183 -0.0038685366
-0.019398715 0.018742988 0.023124477 -0.056802053 -0.03227867 0.082140416 -0.007437039 -0.003913883
-0.03966638 0.018142555 -0.060677066 0.06972455 0.016287304 0.023815203 0.03367343 -0.05614191
0.015017002 0.005908052 0.0008202548 -0.037760943 0.018367626 -0.02684275 0.032355916 0.01082943
0.077880405 -0.021389462 0.014065661 -0.043805957 -0.0005553755 0.05762848 -0.030418945 -0.04453416
0.014365803 0.033166494 -0.026752803 -0.062197722 -0.031207575 0.06899484 -0.030283574 0.001768629
-0.04283816 -0.025984235 -0.013577905 -0.026092973 0.05856879 -0.04894818 0.039335705 0.022718007
-0.01580623 0.009979458 0.011980362 -0.022379171 -0.014755577 0.02709085 -0.056006502 -0.051556334
0.0046749744 -0.033302177 -0.055808738 0.0560009 0.052175947 0.06134397 0.017220307 -0.031076197
0.03068387 0.03550021 0.0049772314 -0.014049807 0.032483865 -0.023379996 0.015281841 -0.041892122
-0.081434906 -0.039811637 0.02124075 0.048316725 -0.042114723 -0.04309875 -0.026236301 -0.026029816
-0.008299843 -0.019402126 -0.057666518 -0.026550839 0.028038388 -0.03990289 0.027360799 -0.013090449
-0.0044458564 0.052700102 0.020201197 0.055230774 0.021392947 0.021761658 -0.010363007 0.06500638
0.020881552 0.008177199 -0.01503293 -0.0023502836 0.014011862 0.058436453 -0.017297128 0.008914007
0.03868187 0.04951863 -0.036335584 0.009438455 -0.044305593 -0.044526603 -0.021623647 0.018394453
0.0024044507 -0.00042325584 -0.009488193 0.048765734 0.0508557 -0.029964115 0.052167043 0.0053584664
0.021733293 0.010533837 0.08168121 0.011631106 0.013101573 0.010741701 0.017375702 0.01909138
0.027806273 -0.00032001987 0.011334043 0.051711746 0.009131508 -0.09904818 0.002046852 0.005553016
0.043938484 -0.012497604 0.07116727 -0.048478488 -0.018824369 -0.055078495 -0.016169922 0.05531873
-0.018084161 0.00016074086 0.0007786015 0.03980468 -0.010173506 0.036662847 -0.041420367 -0.021726023
-0.0721765 0.001610437 -0.02537898 0.06689102 0.016026739 -0.07496327 0.038181927 0.056914777
-0.0026757314 -0.018546952 0.029439257 0.06695253 0.029106168 -0.06644932 0.034807302 -0.014361275
0.021976905 0.02389826 0.012740183 0.057747353 -0.077491865 0.05485945 -0.028518122 -0.006952413
-0.0031631638 0.02303433 0.016101167 0.024885394 -0.000830084 -0.0107595865 0.05345892 0.02947008
0.00864921 0.015162906 0.059703484 -0.044247903 -0.05633653 -0.042259768 -0.020306367 0.020391366
-0.03063241 -0.048675664 0.0010184044 0.0131376 -0.02247947 0.045235515 -0.016965767 0.042794358
0.07616782 0.04996098 -0.02001502 -0.034963656 0.025373116 0.03069152 0.045233242 0.012656401
-0.005118706 0.031144379 0.047532216 0.032947037 -0.0059681777 0.0464079 -0.04772487 0.039966967
00000000: 5f69 42bc 2970 a0bd 778c fcbb e588 27bd
00000010: c5cf 55bc 0ae6 8abc 4b3e 9d3c df02 91bd
00000020: 6fbf f5bc fa3a 8fbc 00a0 b23c 6510 043b
00000030: 45b0 ccbc 088f a0bd 2a86 a33c bfb6 34ba
00000040: 77d5 18bd 08e4 82bd 1fac 0d3d c27b b2bc
00000050: 1763 0c3d c5e0 323d d7b0 4b3c 4432 80bc
00000060: 0e9d fbbb b80c 90ba b9a2 80bb a069 88bd
00000070: 7f68 25bd 1375 073d fbfe 2ebd 8803 c8bc
00000080: de68 24bd 3b64 043c 8c3f 83bd a0ae edbc
00000090: 32a1 f8bc d029 dcbc 2792 87bc 4687 7dbb
000000a0: 0eea 9ebc e58a 993c 8b6f bd3c 45a9 68bd
000000b0: a436 04bd 3c39 a83d 68b2 f3bb 0840 80bb
000000c0: 3779 22bd b29f 943c 8488 78bd bfcb 8e3d
000000d0: f46c 853c 1a18 c33c 27ed 093d 0ff5 65bd
000000e0: df09 763c 5598 c13b 5e06 573a 38ab 1abd
000000f0: b477 963c 54e5 dbbc a387 043d ec6d 313c
00000100: c37f 9f3d f438 afbc a873 663c e06d 33bd
00000110: 9e96 11ba d70b 6c3d 2731 f9bc 7469 36bd
00000120: 8c5e 6b3c 97d9 073d b228 dbbc 0ac3 7ebd
00000130: 07a7 ffbc 2b4d 8d3d 4215 f8bc 57d1 e73a
00000140: 1177 2fbd e4dc d4bc dc75 5ebc eec0 d5bc
00000150: d4e5 6f3d e37d 48bd 7a1e 213d 1d1b ba3c
00000160: 117c 81bc e180 233c 4849 443c 8654 b7bc
00000170: 60c1 71bc a1ed dd3c 1367 65bd bc2c 53bd
00000180: 8730 993b dd67 08bd b497 64bd 3361 653d
00000190: 72b6 553d d143 7b3d 9a11 8d3c 8293 febc
000001a0: bd5c fb3c ab68 113d 0b18 a33b 2931 66bc
000001b0: cd0d 053d 6887 bfbc b060 7a3c 1397 2bbd
000001c0: 58c7 a6bd 8711 23bd 1501 ae3c c2e7 453d
000001d0: 7d80 2cbd 5188 30bd 83ed d6bc 7b3c d5bc
000001e0: 11fc 07bc 35f1 9ebc ba33 6cbd 2581 d9bc
000001f0: c3b0 e53c 3671 23bd c123 e03c 5379 56bc
00000200: 8cae 91bb 10dc 573d fb7c a53c aa39 623d
00000210: 4340 af3c 8145 b23c 9ac9 29bc 1122 853d
00000220: ca0f ab3c a9f9 053c ae4c 76bc 3707 1abb
00000230: 0292 653c 105b 6f3d b5b2 8dbc 0e0c 123c
00000240: e170 1e3d 0cd4 4a3d 9fd4 14bd c0a3 1a3c
00000250: c879 35bd 8761 36bd 1324 b1bc f7af 963c
00000260: fd93 1d3b 70e8 ddb9 5e74 1bbc 94be 473d
00000270: 114e 503d 4e77 f5bc 1cad 553d 1396 af3b
00000280: 050a b23c 1d96 2c3c 7a48 a73d 6590 3e3c
00000290: fba7 563c f6fd 2f3c 7d57 8e3c 8765 9c3c
000002a0: fbc9 e33c 57c8 a7b9 6cb2 393c b2cf 533d
000002b0: 529c 153c c6d9 cabd 7a24 063b 13f6 b53b
000002c0: d7f8 333d c0c2 4cbc 25c0 913d 6191 46bd
000002d0: 9035 9abc fd99 61bd c976 84bc e595 623d
000002e0: 3c25 94bc 8c8c 2839 101b 4c3a 3b0a 233d
000002f0: c7ae 26bc c82b 163d 67a8 29bd c6fa b1bc
00000300: 46d1 93bd 4c15 d33a 94e7 cfbc 29fe 883d
00000310: 824a 833c 5886 99bd a764 1c3d 781f 693d
00000320: 535b 2fbb c7ef 97bc 992a f13c 681e 893d
00000330: 0f70 ee3c 9516 88bd 1a92 0e3d 8e4b 6bbc
00000340: e908 b43c 49c6 c33c 33bc 503c 7d88 6c3d
00000350: 0eb4 9ebd 4db4 603d d69e e9bc 11d1 e3bb
00000360: 154d 4fbb 7eb2 bc3c 98e6 833c 74dc cb3c
00000370: ff99 59ba fa48 30bc bef7 5a3d 3d6b f13c
00000380: 6bb5 0d3c d66d 783c a48b 743d 4a3d 35bd
00000390: 22c1 66bd 9418 2dbd 8a59 a6bc cb0b a73c
000003a0: d2f0 fabc 2260 47bd fb7b 853a 173f 573c
000003b0: de26 b8bc e048 393d cbfb 8abc 2349 2f3d
000003c0: e0fd 9b3d e2a3 4c3d 8af6 a3bc 0d36 0fbd
000003d0: 48db cf3c c86c fb3c 7e46 393d cb5c 4f3c
000003e0: d1ba a7bb 7f22 ff3c 24b1 423d 79f3 063d
000003f0: b490 c3bb 3616 3e3d 277b 43bd 67b4 233d

action_model._discrete_distribution.branches.0.bias f4 [2]
-0.0154932905 0.0154932905
00000000: 92d7 7dbc 92d7 7d3c

exp_avg f4 [128, 50]
-0.00019851157 -1.4501227e-05 -3.540998e-05 1.7940449e-05 -0.00011705677 -0.00010951366 -6.827207e-05 4.6436064e-05
-9.445769e-05 -4.5831963e-05 -0.00014374565 -1.6408994e-05 2.2060078e-05 -4.262848e-05 -1.9909943e-05 3.0226915e-05
-0.000127413 -0.00021834044 0.00010209836 -2.5358644e-05 -2.6952803e-05 -0.00010327739 -0.00020462942 8.6279346e-05
-8.428585e-05 -7.490031e-05 -0.000107576096 -2.0751468e-05 -3.9431496e-05 -0.0001021446 -7.490031e-05 -0.000107576096
-2.0751468e-05 -3.9431496e-05 -0.00010214455 0.00023348056 7.0705087e-06 -4.683846e-05 -0.0006116396 -6.3081774e-05
0.00027148976 6.9823946e-05 0.00015930744 1.9150659e-05 0.00022280349 -1.3156812e-05 -5.1040843e-09 -3.5623492e-05
-2.921512e-06 5.245313e-05 -2.6189146e-05 -3.7536633e-05 -0.0001784756 -5.2536332e-05 -0.00023835571 -5.2183772e-05
-2.7946578e-05 -0.00012401512 -0.00010692577 -0.00016927617 -5.9353955e-05 -2.7141956e-05 -0.0001834595 -1.09380635e-05
-0.00012692579 -5.1654144e-05 -0.0002536077 -3.163278e-05 3.491395e-05 -7.1534436e-05 -0.00015991284 -0.00018369636
-0.0001798137 0.00016391255 -7.589196e-05 -0.00024754423 -0.00013908459 1.620068e-05 6.0278726e-05 6.2674408e-06
-0.00024754423 -0.00013908459 1.620068e-05 6.0278726e-05 6.26744e-06 0.00028694415 -5.565582e-06 -0.000290012
-0.0007441685 -1.658831e-05 0.00020275425 -1.6361455e-05 0.00018388918 3.4528963e-05 0.0002456364 -3.210421e-05
-0.00023797891 8.65708e-06 -6.7640076e-06 -2.9612354e-05 0.00010215191 6.462011e-05 5.5588345e-05 4.4283246e-05
0.00010684415 0.00013819245 -1.3787486e-05 -2.2019625e-05 0.00017275123 0.00024426848 0.00016664325 6.947248e-05
7.156953e-05 -3.251654e-05 5.9525475e-05 -3.5238108e-06 8.590905e-05 9.0486756e-05 0.00011203528 0.00023522701
0.00017116826 -9.943255e-06 0.00019277577 -6.23689e-05 7.734737e-05 0.00014300086 2.688371e-05 2.277162e-05
7.206737e-05 0.00012965832 0.00014300086 2.688371e-05 2.277162e-05 7.206737e-05 0.00012965828 -0.00013856374
2.8041439e-05 5.9805323e-05 2.7687292e-05 -3.6534468e-05 -3.2400836e-05 2.4180463e-06 -0.00027369199 -2.5106889e-05
-0.000119871635 1.1676541e-05 5.958927e-05 -8.953872e-05 3.5635567e-06 -4.1562365e-05 -1.0005328e-05 -0.00010350272
-0.00017033797 -4.640782e-05 -0.00022568693 -7.8922916e-05 -1.3631662e-05 -0.00019337046 -5.85639e-05 -0.00017995131
-2.8597318e-05 -4.8949525e-05 -0.00019149168 -6.108874e-05 -0.00017764495 -0.00015736421 -0.000116222036 -5.969784e-05
-1.1090939e-05 -0.000106251704 -0.00018859011 -0.0001658057 -8.645163e-05 8.1135484e-05 -0.000108515196 -0.00028196632
-7.615538e-05 -1.7473394e-07 1.1773527e-05 -8.538886e-05 -0.00028196632 -7.615538e-05 -1.7473394e-07 1.1773527e-05
-8.538886e-05 0.00017511252 -8.333687e-06 -2.4878922e-05 -0.00026715614 -1.1193275e-05 6.388947e-05 -1.051791e-05
6.9232105e-05 1.7568786e-05 0.00013770019 -2.025563e-05 1.11107365e-05 5.775095e-06 -4.7509357e-06 0.00012190704
-0.00026581463 -6.534032e-05 -0.000121695775 -0.00012036487 -0.00036141765 -0.00036897283 -7.429217e-05 0.00017481699
-0.00033141748 -0.0002879873 -0.00015282955 -0.00014620498 -0.00019753644 -4.2367537e-05 -0.00015807786 -9.626414e-06
-0.00042374828 -0.00019152062 2.7822887e-05 -0.00024494872 -0.00025591784 -0.00015748615 -0.00044482024 0.00017018834
-0.00022367794 -0.00035643895 -0.00016844022 -5.4605283e-05 -6.1009847e-05 -0.00023580618 -0.00035643895 -0.00016844022
-5.4605283e-05 -6.1009847e-05 -0.00023580615 0.0004632647 -3.881359e-05 -0.00023468262 -0.0012630193 -7.9407655e-05
0.0003978291 0.00014051622 0.0007552744 -1.115488e-05 0.00037277647 -4.677354e-05 -0.00016414624 -0.00013126442
-1.0610169e-05 0.00014735454 -4.723962e-05 -3.5186968e-05 -3.4010933e-05 -6.506069e-05 -8.854647e-05 -1.43005445e-05
00000000: 8b27 50b9 4c4a 73b7 2d85 14b8 d27e 9637
00000010: 607c f5b8 b3aa e5b8 4a2d 8fb8 58c4 4238
00000020: 9617 c6b8 b23b 40b8 6eba 16b9 0ca6 89b7
00000030: a80d b937 fbcb 32b8 4704 a7b7 ce8f fd37
00000040: 2b9a 05b9 51f2 64b9 a41d d638 46b9 d4b7
00000050: b418 e2b7 a096 d8b8 cb91 56b9 dff0 b438
00000060: 9fc2 b0b8 cc13 9db8 7a9a e1b8 7013 aeb7
00000070: 3f63 25b8 7736 d6b8 cc13 9db8 7a9a e1b8
00000080: 7013 aeb7 3f63 25b8 7036 d6b8 76d2 7439
00000090: 353f ed36 6a74 44b8 7056 20ba c54a 84b8
000000a0: bd56 8e39 726e 9238 c40b 2739 baa5 a037
000000b0: 5ba0 6939 14bc 5cb7 0060 afb1 6f6a 15b8
000000c0: 320f 44b6 1f01 5c38 c3b0 dbb7 a770 1db8
000000d0: 2e25 3bb9 755a 5cb8 20ef 79b9 e6df 5ab8
000000e0: d26e eab7 0e0a 02b9 563d e0b8 ba7f 31b9
000000f0: d3f2 78b8 e8ae e3b7 095f 40b9 a082 37b7
00000100: 6217 05b9 37a7 58b8 a6f6 84b9 70ad 04b8
00000110: 9170 1238 c204 96b8 47ae 27b9 9e9e 40b9
00000120: 5f8c 3cb9 f1df 2b39 3028 9fb8 d3c8 81b9
00000130: 3cd7 11b9 b2e6 8737 cad3 7c38 e84c d236
00000140: d3c8 81b9 3cd7 11b9 b2e6 8737 cad3 7c38
00000150: e64c d236 fe70 9639 fcbf bab6 c00c 98b9
00000160: 4d14 43ba 2027 8bb7 6e9a 5439 f53f 89b7
00000170: 60d2 4039 31d3 1038 c2c8 8039 a2a7 06b8
00000180: fa89 79b9 e03d 1137 62f6 e2b6 0c68 f8b7
00000190: 643a d638 a884 8738 8827 6938 c6bc 3938
000001a0: 8411 e038 c1e7 1039 cd50 67b7 c9b6 b8b7
000001b0: 8e24 3539 2911 8039 f5bc 2e39 c1b1 9138
000001c0: 9917 9638 5e62 08b8 feaa 7938 9c7a 6cb6
000001d0: 122a b438 b5c3 bd38 7cf4 ea38 45a7 7639
000001e0: a17b 3339 f4d1 26b7 da23 4a39 0ccc 82b8
000001f0: 8e35 a238 80f2 1539 5484 e137 ae05 bf37
00000200: e022 9738 e4f4 0739 80f2 1539 5484 e137
00000210: ae05 bf37 e022 9738 e1f4 0739 6c4b 11b9
00000220: 883a eb37 7ad7 7a38 0242 e837 963c 19b8
00000230: 22e6 07b8 b845 2236 517e 8fb9 a29c d2b7
00000240: 9863 fbb8 5de6 4337 7eef 7938 bcc6 bbb8
00000250: 7025 6f36 4053 2eb8 8edc 27b7 9a0f d9b8
00000260: c09c 32b9 04a6 42b8 60a6 6cb9 6b83 a5b8
00000270: 8bb3 64b7 7dc3 4ab9 82a2 75b8 50b1 3cb9
00000280: 46e4 efb7 274f 4db8 28cb 48b9 c41c 80b8
00000290: 3446 3ab9 2202 25b9 3bbc f3b8 1164 7ab8
000002a0: 3813 3ab7 73d3 deb8 46c0 45b9 21dc 2db9
000002b0: 5e4d b5b8 4827 aa38 a792 e3b8 e1d4 93b9
000002c0: 9cb5 9fb8 809e 3bb4 ea86 4537 cc12 b3b8
000002d0: e1d4 93b9 9cb5 9fb8 809e 3bb4 ea86 4537
000002e0: cc12 b3b8 699e 3739 ead0 0bb7 14b3 d0b7
000002f0: 1711 8cb9 c0ca 3bb7 66fc 8538 1476 30b7
00000300: b430 9138 ae60 9337 9d63 1039 a2ea a9b7
00000310: 4068 3a37 b0c7 c136 3a6a 9fb6 58a8 ff38
00000320: 095d 8bb9 5107 89b8 ec36 ffb8 666c fcb8
00000330: a87c bdb9 b272 c1b9 4ecd 9bb8 144f 3739
00000340: 1ac2 adb9 00fd 96b9 df40 20b9 9a4e 19b9
00000350: c921 4fb9 ccb3 31b8 b4c1 25b9 2281 21b7
00000360: 882a deb9 edd2 48b9 3265 e937 766c 80b9
00000370: b62c 86b9 de22 25b9 c336 e9b9 9674 3239
00000380: 178b 6ab9 6de0 bab9 549f 30b9 fa07 65b8
00000390: d3e4 7fb8 bd42 77b9 6de0 bab9 549f 30b9
000003a0: fa07 65b8 d3e4 7fb8 bb42 77b9 56e2 f239
000003b0: c6cb 22b8 2315 76b9 e58b a5ba a987 a6b8
000003c0: b893 d039 8957 1339 9bfd 453a d825 3bb7
000003d0: 3671 c339 b52e 44b8 ac1e 2cb9 06a4 09b9
000003e0: 5402 32b7 2f83 1a39 2823 46b8 b895 13b8
000003f0: f6a6 0eb8 3171 88b8 06b2 b9b8 5fec 6fb7

exp_avg_sq f4 [128, 50]
4.6782975e-07 1.2228406e-07 3.5951834e-07 1.8420198e-07 4.0904334e-07 3.6384196e-07 8.782936e-08 5.4589117e-07
1.1946628e-07 3.768206e-07 5.312519e-07 5.1951332e-08 4.0037654e-07 1.5279548e-07 3.8254896e-07 4.5131e-07
8.258269e-08 4.9601675e-07 1.15443996e-07 3.416748e-07 5.7799804e-07 7.39122e-08 3.362809e-07 1.5543321e-07
3.6397486e-07 4.0289973e-07 1.2766061e-07 4.9777447e-07 9.917806e-08 3.4861782e-07 4.0289973e-07 1.2766061e-07
4.9777447e-07 9.917806e-08 3.4861785e-07 5.5554915e-07 3.88855e-08 5.829479e-07 4.8018967e-07 5.7292187e-08
5.104711e-07 1.5853594e-07 7.646774e-07 1.3474029e-07 5.6381305e-07 4.587497e-09 6.0185073e-07 5.6808113e-07
9.2867897e-10 6.3021446e-07 6.02917e-07 1.6340017e-07 5.8583123e-07 1.581598e-07 4.354515e-07 6.055498e-07
1.669619e-07 6.436175e-07 1.1716599e-07 4.0596524e-07 4.639689e-07 2.2128143e-07 6.704044e-07 1.3459338e-07
4.7358785e-07 5.3624444e-07 1.6107708e-07 5.522933e-07 2.282075e-07 5.283353e-07 4.289584e-07 2.0486159e-07
6.21015e-07 2.3061057e-07 5.84084e-07 4.6743924e-07 1.2880099e-07 5.9627337e-07 2.9455444e-07 6.4597435e-07
4.6743924e-07 1.2880099e-07 5.9627337e-07 2.9455444e-07 6.459743e-07 7.9702136e-07 7.043888e-08 6.9220636e-07
6.3518553e-07 1.0009042e-07 6.4531724e-07 2.2425347e-07 9.203051e-07 2.2429555e-07 8.141107e-07 5.9098952e-09
7.27848e-07 7.5096233e-07 8.825544e-10 7.320283e-07 3.9984718e-07 8.093797e-08 2.9814757e-07 8.385743e-08
2.4018053e-07 3.3264126e-07 1.01504114e-07 3.1804117e-07 1.240197e-07 2.7140612e-07 4.094665e-07 7.026847e-08
2.743302e-07 1.1097448e-07 2.4840688e-07 2.0615043e-07 7.512566e-08 4.6275437e-07 1.2089906e-07 3.5003154e-07
2.6184802e-07 6.110885e-08 4.2408004e-07 1.16003996e-07 3.1861862e-07 1.6579976e-07 1.080633e-07 3.519791e-07
2.0762764e-07 4.103365e-07 1.6579976e-07 1.080633e-07 3.519791e-07 2.0762764e-07 4.103365e-07 3.9455716e-07
5.3125827e-08 4.312234e-07 3.4834306e-07 6.378389e-08 3.4656557e-07 1.4700018e-07 5.291213e-07 1.2149701e-07
4.1730263e-07 3.3799563e-09 4.5401512e-07 4.2799093e-07 5.952561e-10 4.339407e-07 1.454208e-07 5.7663e-08
1.9961374e-07 7.451291e-08 1.9278687e-07 2.4984627e-07 5.2822198e-08 1.4621669e-07 4.3409692e-08 1.2235795e-07
1.0003585e-07 5.3228128e-08 2.3941175e-07 8.661995e-08 2.2717425e-07 2.671542e-07 5.765693e-08 1.2593617e-07
3.9734505e-08 1.06744025e-07 1.4000761e-07 4.9656123e-08 2.209484e-07 7.770304e-08 1.9460249e-07 1.8276914e-07
9.277714e-08 1.8278617e-07 2.3109125e-08 1.1956197e-07 1.8276914e-07 9.277714e-08 1.8278617e-07 2.3109125e-08
1.1956197e-07 2.549853e-07 1.3487806e-08 2.3666011e-07 2.0761466e-07 2.8398212e-08 2.085216e-07 7.047301e-08
2.9074366e-07 6.466618e-08 2.559754e-07 1.9776514e-09 2.4200332e-07 2.4507526e-07 2.7027797e-10 2.3646719e-07
1.668984e-06 5.1311895e-07 1.7669097e-06 8.127721e-07 1.9248203e-06 1.5847208e-06 3.672491e-07 2.0351179e-06
7.426339e-07 1.8391205e-06 2.0958469e-06 3.8700185e-07 1.7083486e-06 5.57639e-07 1.5459149e-06 1.4881822e-06
5.2395495e-07 2.2389988e-06 5.134592e-07 1.7023045e-06 2.1800968e-06 4.0118942e-07 1.7099904e-06 4.801022e-07
1.4081782e-06 1.7571043e-06 4.579009e-07 1.8074745e-06 5.9780734e-07 1.578773e-06 1.7571043e-06 4.579009e-07
1.8074745e-06 5.9780734e-07 1.578773e-06 2.2941153e-06 2.182444e-07 2.1645944e-06 2.0057666e-06 2.8778604e-07
1.9849479e-06 6.823082e-07 2.949435e-06 6.177773e-07 2.3442035e-06 2.2055453e-08 2.2903162e-06 2.339766e-06
3.644651e-09 2.3213079e-06 1.1071248e-07 2.9595341e-08 1.5827409e-07 4.8170637e-08 1.346016e-07 9.208816e-08
00000000: 082a fb34 304d 0334 d303 c134 0ec9 4534
00000010: 7d9a db34 0f56 c334 b49c bc33 5b89 1235
00000020: a446 0034 d44d ca34 5a9b 0e35 1821 5f33
00000030: 55f3 d634 1a10 2434 2161 cd34 934b f234
00000040: 5058 b133 0326 0535 02ea f733 6d6f b734
00000050: b927 1b35 a9b9 9e33 188a b434 28e5 2634
00000060: 5368 c334 1e4e d834 1513 0934 cd9e 0535
00000070: b7fb d433 ab29 bb34 1e4e d834 1513 0934
00000080: cd9e 0535 b7fb d433 ac29 bb34 0c21 1535
00000090: 0f03 2733 e07b 1c35 62e6 0035 6d11 7633
000000a0: 4f07 0935 073a 2a34 3b44 4d35 21ad 1034
000000b0: f058 1735 0da0 9d31 de8e 2135 3d7e 1835
000000c0: f945 7f30 022c 2935 24d8 2135 1973 2f34
000000d0: 0442 1d35 a3d2 2934 00c8 e934 118d 2235
000000e0: 2346 3334 0fc5 2c35 af9c fb33 70f3 d934
000000f0: 6617 f934 6099 6d34 d7f5 3335 bf84 1034
00000100: 6b41 fe34 70f2 0f35 88f4 2c34 4e41 1435
00000110: 3309 7534 edd2 0d35 984b e634 edf7 5b34
00000120: d3b3 2635 c09d 7734 f2c9 1c35 5cf4 fa34
00000130: 8c4c 0a34 980f 2035 4123 9e34 0567 2d35
00000140: 5cf4 fa34 8c4c 0a34 980f 2035 4123 9e34
00000150: 0467 2d35 e4f2 5535 2f44 9733 0fd0 3935
00000160: 9e81 2a35 4af1 d633 dd39 2d35 53ca 7034
00000170: e30a 7735 e4d5 7034 4389 5a35 fd0f cb31
00000180: 5561 4335 bd95 4935 3f98 7230 9a80 4435
00000190: 94aa d634 1fd0 ad33 1711 a034 1c15 b433
000001a0: 29f2 8034 de95 b234 7afa d933 3fbf aa34
000001b0: 472a 0534 c6b5 9134 a6d4 db34 80e6 9633
000001c0: a847 9334 de50 ee33 c85c 8534 335a 5d34
000001d0: c554 a133 7a70 f834 7bd0 0134 f8eb bb34
000001e0: 1e94 8c34 f23a 8333 1ead e334 df1d f933
000001f0: 9c0e ab34 b106 3234 6d10 e833 a4f7 bc34
00000200: 40f0 5e34 384c dc34 b106 3234 6d10 e833
00000210: a4f7 bc34 40f0 5e34 384c dc34 86d3 d334
00000220: 772c 6433 e582 e734 e803 bb34 90f9 8833
00000230: 9c0f ba34 1ad7 1d34 f008 0e35 d874 0234
00000240: a309 e034 d244 6831 5dbf f334 a0c6 e534
00000250: 6d9f 2330 5bf8 e834 f724 1c34 24a9 7733
00000260: 6855 5634 e803 a033 da00 4f34 9c22 8634
00000270: 9fde 6233 bdff 1c34 7671 3a33 7f61 0334
00000280: 4ad3 d633 f29c 6433 8088 8034 d203 ba33
00000290: 2fed 7334 656d 8f34 77a2 7733 1239 0734
000002a0: 8da8 2a33 263b e533 0055 1634 7c45 5533
000002b0: d53d 6d34 b3dd a633 edf3 5034 333f 4434
000002c0: c63c c733 e143 4434 8181 c632 f260 0034
000002d0: 333f 4434 c63c c733 e143 4434 8181 c632
000002e0: f260 0034 eae4 8834 00b8 6732 a31c 7e34
000002f0: afec 5e34 54f0 f332 fbe5 5f34 f256 9733
00000300: 8117 9c34 9cde 8a33 fe6c 8934 36e7 0731
00000310: afec 8134 e392 8334 3e96 942f 9be7 7d34
00000320: db01 e035 44bd 0935 8e26 ed35 462d 5a35
00000330: 292c 0136 98b2 d435 552a c534 0f93 0836
00000340: 6a59 4735 b3d7 f635 60a6 0c36 21c5 cf34
00000350: 694a e535 a9b0 1535 3b7d cf35 8dbd c735
00000360: e9a5 0c35 b541 1636 a6d4 0935 bd7a e435
00000370: c74d 1236 0e63 d734 d382 e535 5fe0 0035
00000380: a200 bd35 a5d5 eb35 6cd5 f534 5a98 f235
00000390: 0279 2035 3ae6 d335 a5d5 eb35 6cd5 f534
000003a0: 5a98 f235 0279 2035 3ae6 d335 9af4 1936
000003b0: 9056 6a34 7343 1136 cf9a 0636 0381 9a34
000003c0: 2535 0536 dd27 3735 e8ee 4536 55d5 2535
000003d0: 1c51 1d36 7474 bd32 55b3 1936 e004 1d36
000003e0: 6175 7a31 c4c7 1b36 d4c0 ed33 d838 fe32
000003f0: 0df2 2934 2de4 4e33 0287 1034 00c2 c533

exp_avg f4 [128]
-0.00021987324 -0.00029557938 0.00026772218 -0.00033392667 -0.00057667773 -0.00019254145 -4.495152e-06 0.00011344473
-9.895681e-05 0.00049564225 0.00010797612 0.00076059933 0.0005842156 -0.0008539022 -8.762001e-05 -0.00045934896
0.00013429325 -0.00015250575 8.1677994e-05 4.3266926e-05 -0.00042391603 -0.00062072696 -0.000104069535 4.9297432e-05
0.0001966589 0.00017188175 -0.0003372548 6.687753e-05 2.0090512e-05 -0.00016880629 -0.0010071608 -0.00022670679
0.0005217856 0.00017921685 -0.00040678625 8.576877e-06 -0.00045362764 1.4902351e-05 0.00029547486 0.00016658234
-3.3025168e-05 -4.2085303e-06 -6.444256e-05 -0.00022964182 0.00039236218 3.6824316e-05 -0.00044596003 -0.00020832187
-0.00024881723 -0.00038484405 -0.00014536559 7.966037e-05 0.00016435624 -0.00025533832 0.00066426874 -0.0001553962
0.0001416084 0.00023667284 -6.2627056e-05 -0.00013875253 2.5402245e-05 -0.00037338567 5.228718e-05 0.00047263585
1.5929709e-05 -4.8033762e-05 0.00024185042 0.00020178375 -6.6004213e-07 1.7879987e-05 -0.0004466496 -0.00019306017
-0.0002470939 -9.216585e-05 0.0002034438 -0.00011744484 0.00013373818 -7.644019e-05 8.7545886e-05 0.00028254132
0.0005767152 0.00014693629 0.00045883434 -0.00015239004 -1.7072729e-05 -2.7986047e-05 0.00022904554 0.00051937683
-0.0006123363 -5.1451396e-05 0.00041833927 -0.0007021735 0.00016958466 -2.4805067e-05 -0.0007425559 0.00031563206
1.6300122e-05 -0.00036580864 -4.422002e-05 -9.8951e-05 0.00025090555 -0.00034498185 0.00019600292 0.00036175517
-0.00032678086 0.0005193212 0.00023193406 9.110257e-05 0.0009262502 0.0005747651 -0.00036600398 0.00029318588
6.421044e-05 0.0003274205 0.00024985272 -4.7845748e-05 -0.0009877069 0.00071838975 0.0005592303 0.00019542933
-0.00023529213 0.0001851768 0.0004121455 0.00029129398 0.00013779243 -0.00020365801 -0.0001689738 -0.0001892267
00000000: c68d 66b9 fef7 9ab9 105d 8c39 e112 afb9
00000010: 302c 17ba f4e4 49b9 10d5 96b6 2de9 ed38
00000020: 0887 cfb8 fded 013a 3d71 e238 f562 473a
00000030: 0c26 193a 68d8 5fba a2c0 b7b8 c6d4 f0b9
00000040: 12d1 0c39 f3e9 1fb9 8a4a ab38 8279 3538
00000050: 0c41 deb9 48b8 22ba e83f dab8 b7c4 4e38
00000060: 3936 4e39 283b 3439 93d1 b0b9 9a40 8c38
00000070: 0c88 a837 9801 31b9 b502 84ba 24b8 6db9
00000080: 70c8 083a 28ec 3b39 ed45 d5b9 68e5 0f37
00000090: dfd4 edb9 1c05 7a37 f7e9 9a39 9bac 2e39
000000a0: 8184 0ab8 0037 8db6 5625 87b8 02cc 70b9
000000b0: f6b5 cd39 cf73 1a38 becf e9b9 fa70 5ab9
000000c0: af73 82b9 e5c4 c9b9 476d 18b9 560f a738
000000d0: 0b57 2c39 eede 85b9 5222 2e3a daf1 22b9
000000e0: b77c 1439 622b 7839 a556 83b8 197e 11b9
000000f0: e816 d537 fac2 c3b9 ef4e 5b38 1ccc f739
00000100: caa0 8537 dc77 49b8 3a99 7d39 ea95 5339
00000110: c02d 31b5 fbfc 9537 4b2c eab9 3270 4ab9
00000120: 628c 81b9 2a49 c1b8 8753 5539 b84c f6b8
00000130: 123c 0c39 844e a0b8 d798 b738 0e22 9439
00000140: b42e 173a e912 1a39 b48f f039 e4ca 1fb9
00000150: 6837 8fb7 94c3 eab7 f22b 7039 ca26 083a
00000160: 3285 20ba 84cd 57b8 8c54 db39 1112 38ba
00000170: 89d2 3139 7a14 d0b7 15a8 42ba 6b7b a539
00000180: 3fbc 8837 01ca bfb9 e378 39b8 ea83 cfb8
00000190: f98b 8339 aede b4b9 2286 4d39 f5a9 bd39
000001a0: c953 abb9 0e23 083a 5333 7339 520e bf38
000001b0: 99cf 723a d5ab 163a 39e4 bfb9 beb6 9939
000001c0: b8a8 8638 a3a9 ab39 aafe 8239 fbad 48b8
000001d0: f275 81ba 5252 3c3a 4f99 123a 29ec 4c39
000001e0: c0b8 76b9 052c 4239 3c15 d839 d1b8 9839
000001f0: 607c 1039 088d 55b9 8f2e 31b9 286b 46b9
