Assets/Learning/AIRollABall/results/WithObstacle/AIRollABall/AIRollABall-10000368.pt (torch, 584157 bytes, 42 tensors)

network_body._body_endoder.seq_layers.0.weight f4 [128, 50]
00000000: e60e a13e e597 573d 5b74 f5bd 1dc4 ba3d
00000010: 2144 e63d c833 bbbd eda6 30bd 6ad5 023e
00000020: a7bc 653c f649 dcbd 653c b83d 3114 a1be
00000030: 3eac abbd 6afe 6d3e 842b 11be 2542 573e
00000040: 2c80 fabd b916 cc3a cc8e cfbd a379 29bd
00000050: 3510 be3e 22be 7bbe 839f 0fbe 23d8 4dbd
00000060: ba58 6b3e 3ee2 453d 6e8a be3c 88fe c63c
00000070: 257c 6ebd 9934 203a 4bd4 c2bd be1a c43d
00000080: 1e3c e23b 0882 02be 4624 23bc e41c d73d
00000090: 47a6 7e3d 417a 1a3e c907 7a3d d060 9a3e
000000a0: 9be3 3e3c 2ced 25be a4cb 0bbe e27e 3d3e
000000b0: 9574 8e3d f656 12be fc89 79be b34e 033c
000000c0: 7c37 7cbd 1d00 d8bd 3a56 94bd fd58 d5bd
000000d0: 3676 12bb 7b0c 10be 8f30 c63c de0a 02bc
000000e0: 3abc 0b3e d650 193e fca7 5dbd 9ebf 8ebd
000000f0: cc5a f4bd 41d8 823e ec93 0e3e fbba 3fbe
00000100: e9b3 ad3d 2ebd 43be daea 84bc c456 e5bd
00000110: d8f4 3d3e 3ea7 79bd cdc0 53be aff9 5b3d
00000120: 4607 89bd 4396 a0bd eaae 263c b7ce 723c
00000130: 8d10 b03b c990 07be 4e26 01be 98ca 723e
00000140: 2885 37bd 72b6 81bd 3c5a 8f3d 8676 393e
00000150: a26e ce3d 1450 9cbe e0a0 bebc 066f 403d
00000160: 9e73 cabd 55d2 12bd 436e 3ebe 9606 82bd
00000170: 1e39 e7bc 670f 99bd c067 aa3c 1e28 7ebd
00000180: 9a1a a5be 5343 8bbd 406c 0fbd 5c3b 263e
00000190: 6145 be3c 84a3 bcbd 8f9f 0b3d 6a03 22bd
000001a0: 2b97 953d e6cd 1fbe ba82 f03c 256f 26be
000001b0: 3ce0 f7bd f86e f93d 78ee 9ebd e3ec 44be
000001c0: 3de6 713d 575e 753d 1136 fc3c c2ed 26be
000001d0: 38f4 19bd 3898 063e 499b 293d 9a4c ac3e
000001e0: e0d7 95bc 89bd cebd d503 8f3e 607f 793d
000001f0: b395 8c3d 0bf9 7cbe a858 14be a9ee a03d
00000200: 218a ff3d 05f3 0e3e 3e80 12be 2b5e 5d3e
00000210: 1d46 9fbe d4b8 1cbd 0cb5 203e 8465 e63e
00000220: 13d9 ce3d 501c 8e39 2671 d73d 86da 4cbd
00000230: ea13 3cbe 4427 fb3d 5287 ddbd 9220 123e
00000240: 03f2 3cbe 5f6d 80bd 9058 8cbd 07c2 87bd
00000250: a7e3 c33d f2a1 1cbd 54b5 f9bd 0b20 1abd
00000260: 5623 e6bc 2f0d b93d adc3 ad3d 41ea 8e3d
00000270: b866 c1bb 8f1b 06be 4417 15bd ccba 5fbe
00000280: 0198 e9bd c035 fb3d 0101 903d fcad aebd
00000290: 15b6 5d3e b67d 6abb 5580 05be 56e5 9fbd
000002a0: 359d 9c3e 98cc 0f3e a07c 043c 0a4d 80bd
000002b0: 8d2f a9bd 7da7 1b3d c573 bc3e 657b 4e3d
000002c0: f400 633e 656e c13c 3f6e 85be 1d0c 5cbe
000002d0: 0a87 c3bd 510a 0d3e 7d30 70bd b207 eabb
000002e0: 546b 1fbe 269d 94be 88b4 7abe 3345 153e
000002f0: abec a23c 2b38 4c3e 66a4 6ebe 0db6 703c
00000300: 988e 28bc 2521 b7bd ebc3 ec3d 865c 49bd
00000310: e7fd 343d a057 85bd fd05 efbd d9e8 353e
00000320: 98e6 e2bc 33da b73d a2cf 16be ef15 d73d
00000330: 5d39 bb3d 1073 c53d 79ec 4fb8 de81 45bd
00000340: f17a 503e 18c8 86bc 8642 5a3b 7963 05be
00000350: 82db da3d 68d7 133e ab35 d03d 81e0 91bd
00000360: 4fef 3c3e 89d3 da3d 56f8 7abc 0086 823e
00000370: 3e2a b63e e83f 923d afa3 a43d 1beb cdbb
00000380: 4c24 62bc e317 51be a2d5 8d3c c60f d6bd
00000390: 2124 1ebd 305d 943d b46b b73d 7c87 34be
000003a0: f6fa 373c 1bc2 8c3d c812 b8bd 8ac6 45be
000003b0: 8e35 913e 7f76 8bbb 3326 16be 2fee 54be
000003c0: b1aa e13d 0105 92be 3256 44bd acc7 c23e
000003d0: 2e66 983e 167c 9e3d dba2 19be 4c63 b93d
000003e0: 493d bcbc e542 273e 949f 24be cccb 4bbe
000003f0: 8e77 513b 1ff1 97bd fd32 56bb bfb5 4dbc
0.3145668 0.052635092 -0.11985084 0.09119437 0.11243463 -0.09140736 -0.043127943 0.12776724
0.014022029 -0.107562944 0.08995894 -0.31460717 -0.08382462 0.23241583 -0.14176756 0.21021326
-0.12231478 0.0015570737 -0.10134658 -0.041375767 0.3712174 -0.24584249 -0.14025693 -0.050254952
0.22983065 0.048311464 0.023259368 0.024291292 -0.058223862 0.0006111353 -0.09513148 0.09575413
0.006904139 -0.12744915 -0.009957379 0.10503557 0.062170293 0.15085699 0.06104258 0.30151987
0.011650945 -0.16203755 -0.13651901 0.18505433 0.0695583 -0.14290985 -0.24369043 0.008014369
-0.06157635 -0.105468966 -0.07243009 -0.10417364 -0.0022348291 -0.14067261 0.024193076 -0.007937161
0.13646021 0.14972243 -0.05411528 -0.06970142 -0.11931381 0.25555614 0.13923615 -0.18723671
0.08481581 -0.19115135 -0.016225267 -0.1119819 0.18550432 -0.06095051 -0.20679016 0.053704914
-0.066908404 -0.0784116 0.010173539 0.0148197925 0.0053730668 -0.13238825 -0.12612268 0.23710096
-0.044804722 -0.06333627 0.06999633 0.1811162 0.10079695 -0.30529845 -0.02327007 0.04698088
-0.098853335 -0.03584512 -0.18596749 -0.063489124 -0.028225478 -0.07473641 0.020801425 -0.062049977
-0.32246858 -0.067999505 -0.035015345 0.16233581 0.023226442 -0.09210876 0.034087714 -0.039554037
0.073042236 -0.15605888 0.02935921 -0.16253336 -0.12103316 0.12179369 -0.07760328 -0.1923099
0.059057463 0.059904423 0.0307875 -0.16301635 -0.03758642 0.13144004 0.041407857 0.33652192
-0.018291414 -0.10094745 0.2793261 0.06091249 0.0686449 -0.24704377 -0.14486945 0.07858021
0.12477518 0.13959892 -0.14306733 0.21617953 -0.3110818 -0.038262203 0.15694064 0.44999325
0.10099997 0.00027105445 0.10519628 -0.050013088 -0.18366972 0.12263349 -0.10816826 0.14270237
-0.18451695 -0.06270861 -0.068528295 -0.06628805 0.095649056 -0.03824038 -0.12192789 -0.037628215
-0.028093021 0.09035718 0.08484588 0.06978274 -0.0059021376 -0.1309645 -0.03639914 -0.21848601
-0.114059456 0.122661114 0.070314415 -0.08529279 0.2165149 -0.0035780496 -0.13037236 -0.07807414
0.3058869 0.1404289 0.008086354 -0.06264694 -0.08261023 0.038001526 0.36807075 0.050410647
0.22168332 0.02361221 -0.26060674 -0.21488996 -0.09547241 0.13773467 -0.058639992 -0.0071420306
-0.15568286 -0.29026145 -0.2448293 0.14577179 0.019888243 0.19943301 -0.233049 0.014691842
-0.010287903 -0.08941869 0.11560806 -0.049160503 0.044187453 -0.06510854 -0.11671064 0.17764606
-0.027697846 0.08977165 -0.14727643 0.105022304 0.091418006 0.09641087 -4.957288e-05 -0.048219554
0.20359398 -0.016452834 0.0033303811 -0.13026227 0.10686399 0.1443764 0.10166486 -0.07122899
0.18450664 0.106848784 -0.015317997 0.2549286 0.35579103 0.071410954 0.08039033 -0.0062841303
-0.013802599 -0.20419268 0.017313782 -0.10452227 -0.038608674 0.072443366 0.089560896 -0.17629808
0.011229267 0.0687296 -0.08987957 -0.19314018 0.2836117 -0.004256069 -0.1466301 -0.20793985
0.11018885 -0.28519443 -0.047933765 0.38042963 0.29765457 0.07738511 -0.1500353 0.090521425
-0.022978442 0.16334112 -0.16076499 -0.19901961 0.003196213 -0.07419037 -0.00326842 -0.012555539

network_body._body_endoder.seq_layers.0.bias f4 [128]
00000000: 9efc 9d3c 11a7 e73c 21f4 71bb 142a 513c
00000010: 317f 3c3d 974e 1fbb 9cf1 1e3c 9cf4 613d
00000020: 4f0a d8bb 9b1a 8c3b 71bb 45bd ed3f 0d3b
00000030: 5c79 f43c 80f4 a13c 6be7 49bc 7380 f53c
00000040: c6d1 1bbc 48e3 4abc 2006 75bc 3364 ec3c
00000050: f0ac a73c 424e a23c b0f9 7d3d a6a8 01bc
00000060: a732 9abc eaad 58bc d06b 513d c9ff 19bb
00000070: 6bd7 b23c 35c6 9abc 47fd 5a3d aeae 723d
00000080: 07b5 e23c dd75 013d 8c7b 503c dfe4 f53b
00000090: 806c e3bc 96d0 673a f6e0 f03c 1e4e 283d
000000a0: 3d33 073c f63d 93bc f243 903c dd6d acbc
000000b0: 91ba f43c 8e09 37bb ba19 4c3d 415c ea3c
000000c0: 57a9 ab3c d14f a33c 0786 62bd 6f04 e9bc
000000d0: 18fb b43c 3380 723b 420e 0b3d f73e caba
000000e0: a308 75bc 1d52 1bbc 6737 1c3d 8486 143d
000000f0: ee1d 303c b726 823c 1eea d1bc 3455 d83c
00000100: 0323 46bc 31ed 5abc 472a 333c 7e20 143c
00000110: 1b46 76bc 3d94 d53c 7d84 b13c 74cb f83c
00000120: 82ed 013c cdb3 393b da79 f8bb 9a2a 1c3c
00000130: 2bf6 4f3d c7bc 1b3d 4239 1e3c bde1 a938
00000140: 848e 8fbc 988a 203b 1be4 f63c 4fca a9bc
00000150: cdea ec3c ce33 e43c 26fc 833c 693f 4b3c
00000160: f739 883c 4bdb 1b3a b43f 583a 462a 09bb
00000170: 58c9 bd3c 4d29 a7ba 8678 903d e827 6abc
00000180: 7636 79bb 6e66 fc3c 63c4 49bc 778a c83b
00000190: 34c3 93bc 9a95 3e3d ff31 b2bc 2a2d ffbc
000001a0: 0ba5 89bb 58b9 343c 12e1 66bc 85b4 37bd
000001b0: 593a a03c 1e95 cb3c f4de 28bb 7e0b ac3c
000001c0: af15 85bc c0f1 c3bb da41 99bc fdf2 b7bb
000001d0: e4b7 c93c 81ff 4d3d 2857 413d b527 aa3c
000001e0: 6e9d ee3c 99f0 ccbb f98a 12bc 92db 283c
000001f0: fdf8 2c3d a88f 563d 8b15 04bd eed4 503c
0.019285496 0.028277906 -0.0036919194 0.01276638 0.046019737 -0.0024308318 0.009701159 0.05516492
-0.0065930258 0.0042756326 -0.04827446 0.0021552995 0.029843025 0.019769907 -0.012323241 0.029968476
-0.009510463 -0.01238329 -0.014955074 0.028856372 0.020468205 0.019812707 0.0620057 -0.007913744
-0.018822981 -0.013225058 0.05112821 -0.0023498407 0.021831235 -0.01889334 0.0534642 0.05924862
0.027674211 0.031606544 0.012724768 0.00750409 -0.027761698 0.00088430324 0.029404145 0.041090123
0.008251962 -0.017973881 0.017610524 -0.02104848 0.029874118 -0.002792928 0.049829222 0.028608443
0.020954771 0.01993552 -0.0553036 -0.028444497 0.022092387 0.0037002682 0.033949144 -0.0015430142
-0.014955672 -0.009480027 0.038138773 0.036261097 0.010749323 0.015887601 -0.025624331 0.026407816
-0.012093308 -0.013362215 0.010935373 0.00904095 -0.015031363 0.026071662 0.02166962 0.030370452
0.007930161 0.002833593 -0.007582885 0.009531641 0.050771873 0.03802183 0.009657206 8.100595e-05
-0.017524011 0.002449667 0.030138066 -0.020726351 0.028920555 0.027856734 0.016111445 0.012405255
0.016629202 0.0005945458 0.00082492386 -0.0020929738 0.023167297 -0.0012753397 0.07054238 -0.014291741
-0.0038026846 0.030810561 -0.012314889 0.006120022 -0.018037416 0.04652939 -0.021752356 -0.031149466
-0.004200583 0.0110305175 -0.014091747 -0.04484989 0.019559072 0.024851378 -0.0025767656 0.021001574
-0.016245691 -0.0059797466 -0.018708158 -0.0056136833 0.024623819 0.050292496 0.04720226 0.020770887
0.029127803 -0.0062542674 -0.0089442665 0.010306256 0.04222964 0.052383095 -0.032247107 0.012746079

network_body._body_endoder.seq_layers.2.weight f4 [128, 128]
00000000: a402 a13c d956 313e f314 a7bd 4065 2ebd
00000010: 601a 313e 3560 0a3d 177d 0f3e fe2b 203d
00000020: c3e4 69bd b82a b7bb 0850 1bbd 40b1 10be
00000030: 8992 423c c15d 423e ab44 363d 0e83 c2bc
00000040: e12b d7bd 8bfb 033e 8280 ef3b ff85 5abd
00000050: be37 003e 2d63 303e a7fe ce3c cd94 d0bd
00000060: 5a09 b23a e4e6 47bc 421b cbb9 2295 0a3e
00000070: b5ce 413d aeb8 293e ac32 083e cc8d de3c
00000080: 5321 ecbd 6b91 18bc 9302 993d d50b 863d
00000090: 37a6 a0bd 8eef 12be f13a 0c3c d49f 28bd
000000a0: 3fe5 6bbc 8172 0dbe 9d96 0b3e bdac 1fbd
000000b0: 53c7 16bd 37ee debd 74f5 de3d 0309 0c3d
000000c0: d878 a63d c7d8 d33d 67f5 033b 8b27 98bd
000000d0: c193 4e3d 3adf cc3b 7ada 033d 584b 6a3d
000000e0: 8bad 8dbd 8924 62bb 73e3 953e df32 0dbe
000000f0: 935e 04bd d762 38be bb7c f43c 013c dbbd
00000100: e843 8a3c 3f42 193d dc03 3bbe 1288 e6bd
00000110: 2121 07bd a7e0 933b e579 853d 3d82 67bd
00000120: 7c65 a63d 9afa 2a3d 98c7 aebd 923f 1ebb
00000130: 0a2f 21be 66b2 653d 78b5 a63c 8309 beba
00000140: 9e60 af3d b98b 133d 8da9 20be 1265 2bbd
00000150: 1835 983d 7c71 0cbd 3b43 0fbc 39eb 86be
00000160: 0bdf b63d a76f 10bc 6460 1c3d bbf6 143e
00000170: 7aef f03c 9da2 81bb 1b25 863d 2f55 0fbe
00000180: 5f81 a03d 188f cb3d f071 243d ad0d 93bb
00000190: e009 06be d5f8 293e 4d3a 5bbc 71af 773d
000001a0: 9c54 29bc 00c0 27bd 8f10 3c3d 6aa0 093e
000001b0: 27a6 5ebe ca79 13be 2603 83bc 28df 8f3a
000001c0: 5169 f43c bfaa f8bd 8114 8ebd 5aad a5bd
000001d0: 1c0b 033e 0364 6ebd f04f 9bbd 75bc 77bd
000001e0: d96e 343d 9769 54bd 6f1c c8bc f7bb c6bc
000001f0: 8165 4e3d 2eb7 5f3e cac1 85bd 2d9f 6f3e
00000200: 5be0 323e f5e3 133d 3eb6 a23d 7515 19bd
00000210: ad59 683d e3f1 3f3d 98a8 d83d 182a 84bd
00000220: c744 4b3d f440 e73c 090b 22be 0c76 1dbe
00000230: 1172 203d 27fb f83c 4c7c 27bd b10d 703c
00000240: 49e6 01be 4bc2 9b3d fd3b fabc 72ac 2c3e
00000250: c330 a73c 6761 043e 849a 343c 4bc6 30be
00000260: 34cc 9dbd 7a55 523c 0ece 7e3d b50f 4e3d
00000270: 50cb ca3d ca66 4f3d c3df 973e 8e9b 1c3c
00000280: 2e4a 5abc 6c41 1d3e 8d51 323e e592 6ebc
00000290: 2e05 b53d 9a2d 9dbd 0595 4c3e f762 863e
000002a0: 258e 92bd 863c 243e 1f6c ba3c d891 403c
000002b0: d6e9 c1bb 45c9 1e3d 7293 363e 8fc0 083e
000002c0: 155a 5d3c 294c 6a3c 431e c3bd 704f 813c
000002d0: 16ba dcbd d178 ffbd f69d f4bc 2085 883e
000002e0: 8e42 a33d c718 b53d 310b 7d3c b833 333d
000002f0: 71c3 38bd d6b8 663d 2a3c be3d 62d1 c0bc
00000300: 3a1f 023e f487 f23d cdb2 8fbd 7856 afbc
00000310: d40c 67bd a024 433d 1248 803c 4d01 603e
00000320: 95be 333e 4ac8 33be 7e77 b33d cb13 c53d
00000330: aa69 f0bc 9ce2 16be 8a44 97bd 2ea8 80be
00000340: 6476 95bd 8d4b 40bd f292 7c3d 1915 00bd
00000350: b0ee adbd 0bdc 08bd 955f c53c bc5a c73d
00000360: 99f2 133e 5bfe 82bd 1a70 293c 0dd5 9639
00000370: 1709 89bb 5ed8 973d 66b6 cebc 46dc e4bc
00000380: 8ab3 2b3b cb43 713d 320d 87be 6518 203c
00000390: f1e4 57bd d97b 6cbe 0a1e ac3c 7009 c3bc
000003a0: ca88 8d3d 1dfd acbd edec 06be b288 d4bd
000003b0: e8d5 82bd eb21 263d 0c73 c1bb 74f3 653d
000003c0: 1183 4e3c 37f9 f0bd 138f a5bd 6dc3 353d
000003d0: c92e 423d 6027 113d 36b2 163c 8086 fe3d
000003e0: e7c1 013c 53ca 3bbd 0fd1 263c 6903 56be
000003f0: 5fd4 343d bb8f ea3b 8d61 8d3d 86bd 0bbe
0.01965458 0.17318286 -0.081582926 -0.04257703 0.17295218 0.033783156 0.14012562 0.039104454
-0.05710293 -0.0055898093 -0.03791812 -0.14130116 0.011875757 0.18981077 0.04449908 -0.023744132
-0.10506416 0.12888925 0.0073090205 -0.053350445 0.12521264 0.17225333 0.025267912 -0.101846315
0.0013583109 -0.012201045 -0.00038739486 0.13533452 0.04731627 0.16574356 0.1330058 0.027167223
-0.115297936 -0.009312014 0.07471194 0.065452255 -0.07844203 -0.14349195 0.008558975 -0.04116805
-0.014397918 -0.13813211 0.13631673 -0.038983095 -0.036811184 -0.108852796 0.1088666 0.03418828
0.08128518 0.10344081 0.0020135285 -0.07429417 0.050433878 0.0062521966 0.032190777 0.05720076
-0.06917866 -0.003450664 0.29275092 -0.13788937 -0.032316756 -0.18006454 0.029844632 -0.10704804
0.016878083 0.037416693 -0.18263191 -0.11256422 -0.03299058 0.0045128646 0.0651739 -0.05652069
0.08124825 0.0417429 -0.08534163 -0.0024146778 -0.157406 0.056078337 0.020350203 -0.0014498684
0.0856335 0.03602192 -0.15689678 -0.041844435 0.07432002 -0.034287915 -0.008744056 -0.26351336
0.08929261 -0.0088156825 0.038177863 0.14547245 0.029411066 -0.0039561526 0.06550046 -0.13997339
0.078371756 0.09939402 0.04014772 -0.0044877143 -0.13089705 0.16598828 -0.013380599 0.06047005
-0.010335114 -0.04095459 0.04591423 0.134401 -0.2174307 -0.14401928 -0.015992712 0.001097654
0.029835375 -0.12141942 -0.069375046 -0.08089705 0.12797207 -0.058200847 -0.07583606 -0.06048246
0.044051025 -0.05185851 -0.02442762 -0.02425955 0.05038977 0.21847221 -0.06531103 0.23400564
0.17468397 0.03610607 0.07944916 -0.03737398 0.056726146 0.04686154 0.10579032 -0.06453341
0.049626138 0.028229214 -0.15824522 -0.15377063 0.039171282 0.030393196 -0.040890023 0.014651702
-0.12685503 0.07605418 -0.030546183 0.16862658 0.020408994 0.12927781 0.0110231675 -0.17263143
-0.07704964 0.012837762 0.062208228 0.05030795 0.0990206 0.050635137 0.29662904 0.0095585715
-0.01332335 0.15356988 0.17413922 -0.01456139 0.088388786 -0.076747134 0.19978721 0.2624738
-0.07156018 0.16038713 0.022756634 0.011753522 -0.005917768 0.038766164 0.17829683 0.13354705
0.013510247 0.014300385 -0.09527256 0.015784949 -0.107776806 -0.12474216 -0.029860478 0.26664066
0.07971679 0.088426165 0.015444563 0.043750495 -0.045108262 0.056328617 0.09288819 -0.023537342
0.12707224 0.11842337 -0.070165254 -0.021403536 -0.05640872 0.04764235 0.015659366 0.21875496
0.1755317 -0.17556873 0.08763026 0.09622916 -0.02934726 -0.14734882 -0.0738612 -0.2512831
-0.07297972 -0.04694705 0.061663575 -0.03127012 -0.08492792 -0.033412974 0.024093429 0.09734103
0.14448012 -0.06396171 0.0103416685 0.00028768965 -0.004181992 0.07414316 -0.025233459 -0.027937066
0.0026199543 0.058902543 -0.26377255 0.009771441 -0.05270857 -0.23094119 0.021010417 -0.023808211
0.06910856 -0.08446715 -0.13176318 -0.10377635 -0.06388456 0.04055969 -0.0059036072 0.056140378
0.012604491 -0.11766284 -0.0808393 0.044375826 0.0474079 0.03543794 0.009197762 0.124279976
0.007919765 -0.04584725 0.010181679 -0.20899738 0.044147845 0.0071582473 0.06903372 -0.13646516

network_body._body_endoder.seq_layers.2.bias f4 [128]
00000000: 2def dc3c c37c 21bc 6d16 593c cab8 ad3c
00000010: a276 99bc a403 263d 5ebd c23c 9338 033d
00000020: 71dc 173a 2459 2f3d 0bea 7e3c b6ee f03c
00000030: 8c46 173d ca9f de3c 8bc5 8b3c ece1 b33c
00000040: e1dc 7c3c f45a e13c 6e40 ebba 81c6 b33c
00000050: 20ee d13c 7fe5 353c cdd1 003d f395 093d
00000060: c5d9 d93c 5ca0 813c 4ae7 fb3c 75f6 183d
00000070: cc7b 223c 1d2d a13c 2557 e73c 93e0 0a3d
00000080: a7d0 053d e3eb f73c b1ec a43c 9247 ef3c
00000090: d88c b23c bb02 043d 746c da3b ff04 0a3d
000000a0: ce8f 0a3d 1a7a cc3c 98cb ba3b 2167 8c3c
000000b0: 2f1d af3c a448 20bc 7311 363d bf95 e93c
000000c0: 1ecb e53c dd59 e93c 98ed 423d 3b4c 89bc
000000d0: 0178 073d f6e9 1b3c 584c edbb 3a17 2f3d
000000e0: c5de 063d 078e 6c3c 2059 15bd e8a9 453d
000000f0: b9c1 143c 4cee de3c c976 723a 460d 61bc
00000100: 1c3d ba3c f0c4 253c b07f a23c 3f36 053c
00000110: 19fe d33c e6c5 083d 36a1 ef3b 6142 aa3c
00000120: 19f6 d13c 97ec ff3b 42fe 4b3c 6ff7 fb3c
00000130: 5c16 443c d5ec b8bb 6de9 1f3d 0323 d03c
00000140: 7cfc 443c df15 2a37 0a57 943b e4cb d23c
00000150: ae1e 613c a99c 7c3c bd19 e8bc 045f a2bc
00000160: 8238 233d 8b1e ec3c 654a c33c b2ee 6e3c
00000170: 4e35 f23c 717e f63c 214d c93c 368d 413d
00000180: 52f8 153d c03a 50bc dbde 373d de0e 803c
00000190: 6aa9 db3c b328 043b ac8d d73a 5bd3 9b3b
000001a0: 5df0 673c 5309 753c beea c93c 2e33 163d
000001b0: 9f5b b0bb d1e0 e13c 307b b43c 4803 4c3d
000001c0: 9636 3f3c 898c 7d3c 6e18 663b 94b8 df3c
000001d0: 2287 df3c 1985 f83c fe2a 2e3c 0553 9a3b
000001e0: 8567 9b3b d370 283d a6a1 d93c 2c05 143d
000001f0: 7b5f 9f3c 7a47 863c 6ded 683c 5daf 143d
0.026969517 -0.009856406 0.013249976 0.021206278 -0.018733326 0.040530816 0.023771938 0.032036375
0.0005793041 0.04280962 0.01555873 0.029410701 0.036932513 0.027175803 0.01706197 0.021958314
0.015433521 0.02750919 -0.0017948279 0.02194524 0.025626242 0.011102079 0.03145008 0.03359027
0.026593098 0.015823536 0.030749936 0.037344415 0.009917211 0.019674832 0.028239796 0.033905577
0.03266969 0.030263847 0.020132395 0.029208932 0.021795675 0.032229166 0.0066657607 0.03369617
0.03382855 0.024960566 0.00570054 0.01713902 0.02137622 -0.009782944 0.044450235 0.028513787
0.028050955 0.028485233 0.04758987 -0.016759982 0.03307343 0.00951623 -0.007241767 0.04274676
0.032927293 0.014438159 -0.03646195 0.04825774 0.00907939 0.027213238 0.0009249268 -0.013736075
0.022734217 0.010117754 0.019836277 0.008130609 0.025878 0.033391856 0.007312919 0.020783605
0.025630044 0.007810186 0.0124507565 0.030757634 0.0119682215 -0.005643467 0.03904097 0.02540732
0.012023088 1.0137882e-05 0.0045269774 0.025731988 0.013740225 0.01541821 -0.028332585 -0.019820698
0.039848812 0.028823158 0.023839185 0.014583277 0.029566433 0.030089589 0.02457291 0.04725381
0.03661377 -0.01270932 0.044890266 0.01563209 0.026814181 0.002016586 0.001644542 0.00475542
0.014156428 0.014955836 0.024648067 0.036669903 -0.005382016 0.027573021 0.022031397 0.049807817
0.011670729 0.015475401 0.0035109776 0.027309693 0.027286116 0.030336903 0.010630367 0.0047096037
0.004742565 0.041123223 0.026566338 0.036137745 0.019454708 0.016391505 0.014216763 0.036300052

action_model._continuous_distribution.log_sigma f4 [1, 3]
00000000: 9965 07be 6943 1abe 6db4 033e
-0.1322235 -0.15064777 0.12861796

action_model._continuous_distribution.mu.weight f4 [3, 128]
00000000: 2b30 113e 750f 123d e05c 5b3d 3a24 073c
00000010: c688 0cbd 21f5 263e 8cc4 8fbd 56b8 15be
00000020: a0eb 803d 77e2 573e cb7c cb3c c570 48bd
00000030: 6a9e f03d d455 d9bd f951 03be 1c4f a4bd
00000040: 3265 97bd 88cc 1cbe 2108 8cbd 2603 5dbd
00000050: 6f8d 4e3d ac3c 0f3c 968a 763d 666c cabc
00000060: 36fe ffbc 5965 843d 1ad3 343d ff1e 22be
00000070: ed1d 67bc 84d4 75bd d48f b8bd eef0 e4bd
00000080: 9b6d 2d3d b892 ab3b fa00 22bd 0556 1cbd
00000090: 9513 373c 5dcd 333c d026 4fbd 7ed6 90bc
000000a0: 3bb1 97bd 861a b13d 4c9d 7ebd f44d 73bd
000000b0: d5c2 71bd a984 0a3d 2641 c53d eba3 c1bd
000000c0: 738a eaba 5a6d de3d ebed 04bc b4de 7fbd
000000d0: 276b da3d a2ee 3cbd 161c a53d 94ad 273d
000000e0: ffd8 933c 82df 943d 208c 08bd d1a0 d93c
000000f0: 90c9 fc3d 2fb5 3c3e 5d34 973b b495 053d
00000100: a064 9f3d bd3b f83c 86df ed3c 8813 01bd
00000110: b88f 943d 814e a13c 011e 4c3d bbbe a63c
00000120: af59 003e a45d a63d 181e fbbd b2fd a0bd
00000130: 4a8b 713b 458a 233d 17a4 543c f371 b13b
00000140: 2ebe 063e f494 e13b 7db2 723b afd8 e33d
00000150: c2e7 8c3d 7ecd 903d a666 6dbc 2296 18bd
00000160: 6233 48bd 04a4 413e 76b3 9f3d 8bc5 cbbd
00000170: 9b4f 03be fc70 e5bc 64e0 90bd 2ca8 7d3b
00000180: 47a4 483e 7904 aa3d bbd0 ccbd 7097 9abd
00000190: ddc8 493c 143d 153e d78d dabd d24c b3bc
000001a0: 9d0b 5b3d 2d74 183e b6dd 383c 7751 3c3d
000001b0: e423 563d 3137 393d 90c1 6abd 8c31 083e
000001c0: 149d d4bd 436d e3bd 7616 c6bd 769f e73d
000001d0: f34f ed3d 5965 bbbd d23b cabc 53b9 f6bd
000001e0: d967 c5bd ed3a f03d 5ba0 23be 2469 903d
000001f0: 178d 283e 93cd e3bd c261 173d 25f8 753d
00000200: 3835 af3d a6e1 5cbd 974e 0cbe 46c4 de3d
00000210: dd1e f73b 55ce bebc 3948 b03c 30c8 9d3d
00000220: 5b91 9b3d d520 1cbd c98a f2bd 2bc6 0e3e
00000230: 25da 69bd 0555 9fbd e5bc abbc 2e2b 47bd
00000240: e0fc 403d 84a8 4b3d 7d60 6fbd d73b 23be
00000250: f0f1 afbc fe97 fdbd 953e dd3d ca8a eebd
00000260: eb6d 283e 87c3 f0bd 5c01 11be 7922 e6bc
00000270: a020 1dbe 4169 193e cae0 5d3c c5ac d33d
00000280: 10fd 0c3e 528c 283e c82f 88bd fd9a 0fbd
00000290: 73f5 ac3d bd5f 42be 6576 f8bd a193 5abc
000002a0: 1b6b 733c 689c 3f3d 1582 acbd cc12 06be
000002b0: 5729 73bc 03a0 50bd 3e59 1e3e c322 ea3a
000002c0: 3769 91bd b104 ff3b 6662 85bd 10b6 7b3d
000002d0: 0ce9 173e 7956 963d 7a2f 723b b874 b3bd
000002e0: 14af ff3d 9f40 21be 1523 8d3c 291c 5bbd
000002f0: e2b1 c4bc 046b 06bd e3bf 593d e27b 1bbd
00000300: c6a7 c7bd 8deb ec3d ec3b 043d dccc a5bd
00000310: 8ca9 99bd 6d98 21be 4ceb 03be fd78 4f3d
00000320: b738 8bbd 504d 813d 222a 81bd a084 de3c
00000330: b661 903d 63c5 41bd 4f9f 0fbe f5c2 72bd
00000340: 0aba a5bd d874 fbbc f838 36be a228 a23d
00000350: c398 8abd 385c 4b3d bb61 5e3d a8ac b0bb
00000360: 4c48 783d 6060 dc3c c019 473c ac41 ccbd
00000370: 048f 9fbd 9c69 85bd bff7 ba3c 2bf7 0fbe
00000380: 7e1f 68bd 79f5 4a3d 0bfc 1a3e 1bc7 e3bd
00000390: 0407 8c3d dc8a 6e3d 0aed d33c 5d60 abbd
000003a0: 015c 22be 0e99 9ebc 764b cc3d 8adb 1a3e
000003b0: a9dd b9bc bcd2 f0bd 21bd 063e 244a c63c
000003c0: b767 a83c eed4 87bd eaee e6ba f910 e73d
000003d0: 0410 9abd 0f93 9d3d 8fc1 0a3e 7f98 023c
000003e0: a316 21bd af3d 06be 23f2 01bd a0e4 d83c
000003f0: b0b7 553d 093e 86bd 54a2 15be 126d 7d3d
0.14178531 0.035659272 0.05355537 0.008248383 -0.034310125 0.16304447 -0.0701991 -0.146211
0.06294942 0.21082483 0.02483978 -0.04893567 0.11748965 -0.106120735 -0.12824239 -0.080229014
-0.07392348 -0.15312397 -0.06837488 -0.05395808 0.05042785 0.008742493 0.06019076 -0.024709892
-0.031249147 0.06464643 0.044146635 -0.15832137 -0.014106256 -0.060017124 -0.09011808 -0.11178766
0.042340856 0.005235996 -0.039551713 -0.038167972 0.011174102 0.010974255 -0.050574124 -0.017680403
-0.07406851 0.08647637 -0.06216173 -0.059400514 -0.059023697 0.03381792 0.09631567 -0.09455093
-0.0017894044 0.10860701 -0.008113365 -0.062468246 0.10664969 -0.046126015 0.080619976 0.04093702
0.018047808 0.07269193 -0.03333676 0.026565941 0.123431325 0.18428491 0.0046143965 0.03261347
0.077828646 0.030301923 0.029037248 -0.031512767 0.07253975 0.019690754 0.0498333 0.02035462
0.12534212 0.08123329 -0.12261599 -0.078608885 0.0036856704 0.039926786 0.012978575 0.005415195
0.13158485 0.0068842117 0.0037032657 0.111253135 0.06880142 0.070704445 -0.014489805 -0.037252553
-0.048877127 0.18910223 0.07797901 -0.09949788 -0.12823336 -0.028007977 -0.07074049 0.0038704975
0.19593917 0.08301634 -0.1000075 -0.07548416 0.012315956 0.1457408 -0.10671585 -0.021887217
0.053477872 0.14888068 0.011283329 0.04597613 0.05228032 0.04521865 -0.0573135 0.1330015
-0.10381523 -0.111048244 -0.09672253 0.11309712 0.11587515 -0.0915019 -0.024686728 -0.120470665
-0.09638948 0.11729989 -0.1597914 0.07051304 0.16460072 -0.111231945 0.036958463 0.060051102
0.085550725 -0.053926133 -0.13701855 0.1087728 0.007541521 -0.023291746 0.021518813 0.07704198
0.07596084 -0.03811725 -0.118428774 0.13942783 -0.057092804 -0.07779888 -0.020964095 -0.048625164
0.04711616 0.049721256 -0.058441628 -0.15940796 -0.02147767 -0.12382506 0.10802952 -0.11647566
0.1644818 -0.11756044 -0.14160675 -0.02809261 -0.15344477 0.14981557 0.013542363 0.103356875
0.1376841 0.16459778 -0.066497386 -0.035059918 0.08445253 -0.18981834 -0.12131957 -0.013340862
0.014857079 0.04678002 -0.08423249 -0.13093108 -0.014841399 -0.05093385 0.1546373 0.0017863143
-0.07100146 0.0077825417 -0.06512909 0.061452925 0.14834994 0.07340712 0.0036954568 -0.08762497
0.124845654 -0.15747307 0.017228642 -0.053493652 -0.024010602 -0.0328169 0.053161513 -0.03795994
-0.09748797 0.11568365 0.03228371 -0.080957144 -0.075030416 -0.15780802 -0.12882727 0.050652493
-0.06797927 0.06313574 -0.06306864 0.02716285 0.07049887 -0.047307383 -0.14025615 -0.059267957
-0.08092125 -0.030695364 -0.1779517 0.07917906 -0.06767418 0.049648494 0.05429242 -0.005391676
0.060615823 0.026901424 0.012152135 -0.099734634 -0.0779095 -0.06514284 0.022823213 -0.14059131
-0.05667066 0.049550507 0.1513521 -0.11121961 0.068372756 0.058237895 0.025869865 -0.08367989
-0.15855409 -0.019360092 0.099753305 0.1512281 -0.022688704 -0.117589444 0.13158084 0.024205275
0.020557268 -0.0663241 -0.0017618809 0.11282534 -0.07522586 0.07694065 0.13550399 0.007970928
-0.03932823 -0.13109468 -0.03172506 0.026476204 0.05217713 -0.06554801 -0.14612705 0.061871596

action_model._continuous_distribution.mu.bias f4 [3]
00000000: 5b7a ac3b c0a6 e33b 85e6 21bd
0.0052636093 0.0069473684 -0.03952648

action_model._discrete_distribution.branches.0.weight f4 [2, 128]
00000000: 896d 76bc 8540 a9bd ca64 fdbb d400 2dbd
00000010: a09c 61bc 0c50 99bc 6bea 8b3c 21da 94bd
00000020: fd6f f3bc 4a64 98bc 534c bb3c 8259 acba
00000030: 0442 c6bc 0441 a6bd f67a 9b3c 65c3 43bb
00000040: e78a 1fbd 4f07 88bd 2d31 133d e0c4 c3bc
00000050: 1b48 033d 5dd9 2f3d 24b7 733c d560 8dbc
00000060: 18eb 08bc bc38 27bb 6b7f b7bb 6ce8 8abd
00000070: 6923 26bd cec3 f93c 36c7 37bd ae3d d9bc
00000080: a212 2ebd 36fd c63b 3798 87bd 126c f9bc
00000090: 3f52 02bd 5f14 e3bc 78d1 9dbc d9c6 c0bb
000000a0: f3e0 bfbc f7e8 863c 4077 ab3c a677 64bd
000000b0: b803 0fbd 8948 aa3d e38c 26bc f467 a7bb
000000c0: 30cd 26bd dc0b 913c 355c 7fbd a9a7 903d
000000d0: 0451 563c cc42 c13c e6b4 173d f44d 66bd
000000e0: 2ebd 563c 4657 963b 5e98 ba3a c2ab 22bd
000000f0: 4632 983c 4adf efbc 84b4 0f3d 28a3 533c
00000100: 0438 9c3d 4fec bcbc 4557 483c e69c 3bbd
00000110: 1a70 34bb 395f 683d 3d3a 0dbd 2674 41bd
00000120: cc90 4f3c d9a5 f63c 555f e7bc dffb 87bd
00000130: 9ea5 08bd be09 8f3d d970 04bd 3090 4dba
00000140: 5e73 3cbd 89b3 bfbc 5c69 77bc cb93 e9bc
00000150: 555a 643d 2bf9 52bd 34e5 243d 6187 d23c
00000160: 9a8c 9abc da90 db3b 158f 163c 047e bfbc
00000170: 3d54 87bc 8b56 e73c 8953 6ebd f0d3 56bd
00000180: 8b45 ca3a 3341 10bd 98a0 74bd 7125 623d
00000190: 0d01 4e3d 1cb6 753d 4360 843c 6cf4 ffbc
000001a0: b197 f23c c98c 053d 9dee 253b ecc4 78bc
000001b0: 8dfc 003d d0c5 c0bc 59cb 523c 7cf4 2dbd
000001c0: e270 a9bd 2e2b 20bd 1e49 ac3c e629 3d3d
000001d0: 5f30 37bd 1ea1 3bbd e833 f5bc bd96 d4bc
000001e0: 2db7 1abc 39da a1bc 767d 72bd 6d73 ebbc
000001f0: fa12 d13c c7fb 24bd 2096 e13c 8a55 83bc
00000200: 5298 a6ba ee7c 693d fbb2 a53c 99b1 673d
00000210: b026 b53c 83af c03c f321 07bc 53f9 883d
00000220: 58c0 a83c 4a4c 183c a2d2 83bc d36b 803a
00000230: b0b5 583c d9be 7a3d 81a7 85bc 88b1 373c
00000240: 5226 253d a31a 553d aa59 1abd 4e36 3d3c
00000250: cb5e 2cbd 1e5a 33bd 4e27 c5bc 88de a33c
00000260: 5606 4a3b 8bea 863a 1e06 00bc 1ebc 4c3d
00000270: fa08 513d fc50 e0bc 5675 5e3d de7e f43b
00000280: ad5d c53c cc7b 4d3c 25a1 ab3d 7b0b 563c
00000290: ceae 6e3c 07d3 3d3c cd96 a43c 52e6 ac3c
000002a0: 7960 023d 5517 003b fda2 5d3c 149e 4f3d
000002b0: cdd0 403c 13e9 ccbd 8779 9c3b fe1d dd3b
000002c0: d24c 383d 239b 45bc 162a 953d 0949 4abd
000002d0: 44e2 7fbc 57af 60bd 9706 a0bc c9ee 623d
000002e0: dc7e 84bc 6a15 c23a 6cc2 3739 c50a 2b3d
000002f0: c123 2abc d428 203d 48d5 34bd 7c15 c3bc
00000300: 8889 90bd fa24 573b 7bd9 c0bc 9f15 8d3d
00000310: ea4b 953c 09b0 97bd 5206 2d3d 292a 743d
00000320: a448 80ba 0fc5 7dbc 2f61 fd3c bcb8 913d
00000330: 1e0a 003d 28d3 89bd 55f8 163d 5878 41bc
00000340: 9d01 ce3c ee9c ae3c c7af 693c e171 763d
00000350: 51ee 98bd 932f 6b3d 212c f1bc 28c1 22bc
00000360: c719 d9b8 d18e d73c c7c3 9a3c f005 d43c
00000370: 03d7 743a ea1a 43bc 34e4 633d 83b9 f83c
00000380: f704 413c 7de9 8b3c 354a 823d 8801 32bd
00000390: be0b 5fbd e08a 27bd 37a8 9dbc c16c a83c
000003a0: c62b f2bc 3e84 3bbd 7eff 623b d7d2 693c
000003b0: 4e04 b0bc 13e8 393d 1d62 6ebc 8ca6 313d
000003c0: 69a7 9e3d 87bd 493d 943e a2bc 3178 06bd
000003d0: 063b e53c 2fcf 083d c969 483d 6311 4e3c
000003e0: 9144 82bb c305 013d e0fa 483d 7cec 0f3d
000003f0: 5b33 62bb c7a0 3f3d 7434 44bd b1c0 2f3d
-0.015040764 -0.08264259 -0.0077329623 -0.042237118 -0.0137702525 -0.018714927 0.017079553 -0.07268167
-0.029716486 -0.018602509 0.022863543 -0.0013149234 -0.0242014 -0.081178695 0.01897953 -0.0029871103
-0.038950827 -0.06642019 0.03593557 -0.023897588 0.032051187 0.042931903 0.014875207 -0.017258087
-0.008356832 -0.0025515994 -0.005599906 -0.06782612 -0.040561114 0.030488875 -0.044867717 -0.026518669
-0.04249824 0.0060726656 -0.066208296 -0.03044704 -0.031816717 -0.027719675 -0.019264922 -0.0058830795
-0.023422694 0.016468508 0.020930886 -0.05577817 -0.034915656 0.08314616 -0.010165426 -0.0051088277
-0.040723026 0.01770585 -0.062343795 0.07063229 0.013080839 0.023591422 0.037037753 -0.056226686
0.013106627 0.0045880405 0.0014236083 -0.039714582 0.01857866 -0.029281277 0.035084262 0.012917317
0.07627872 -0.0230619 0.012227838 -0.045803927 -0.0027532638 0.056731436 -0.03447937 -0.04722991
0.0126688 0.03010838 -0.0282437 -0.066398375 -0.03336107 0.0698428 -0.032334182 -0.0007841615
-0.04600846 -0.023401039 -0.015100803 -0.028512856 0.05575021 -0.051507156 0.040257648 0.02569932
-0.018865872 0.0067006173 0.009189387 -0.023375519 -0.01651966 0.02823951 -0.058185134 -0.052448213
0.0015432102 -0.03521843 -0.059723467 0.05521149 0.05029397 0.059988126 0.016159182 -0.03124448
0.029613348 0.032604966 0.0025319227 -0.015183669 0.03149085 -0.023531824 0.012865865 -0.042469487
-0.08273484 -0.03910368 0.021030959 0.046182536 -0.044723865 -0.04580795 -0.029931977 -0.025950784
-0.009443087 -0.019757377 -0.05920168 -0.028741563 0.025521744 -0.040279176 0.027537405 -0.016032
-0.001271019 0.057003908 0.020226946 0.056565855 0.022113174 0.02352119 -0.00824784 0.0668818
0.02059953 0.0092955325 -0.016091648 0.0009797759 0.013226911 0.061217163 -0.016315224 0.01121176
0.04031975 0.052027356 -0.037683167 0.011548592 -0.04208259 -0.043787114 -0.024066593 0.020003572
0.003082653 0.0010293288 -0.007813958 0.04998409 0.05103395 -0.027382366 0.05431112 0.007461413
0.02409252 0.0125417225 0.08380345 0.013064261 0.014568044 0.011585957 0.020091439 0.021105919
0.031830285 0.0019545157 0.013527629 0.050687864 0.011768532 -0.10005393 0.0047752294 0.00674796
0.044995137 -0.012060913 0.07283418 -0.049386058 -0.015617911 -0.054854717 -0.019534392 0.055403505
-0.016173773 0.0014807407 0.00017524668 0.041758318 -0.010384501 0.039101437 -0.044148713 -0.023813955
-0.07057482 0.0032828436 -0.023541203 0.068888895 0.018224675 -0.07406623 0.042242356 0.05961052
-0.0009787274 -0.015488877 0.03093013 0.071153134 0.03125965 -0.06729728 0.03685792 -0.011808477
0.025147254 0.021315064 0.0142631 0.060167197 -0.0746733 0.057418417 -0.029439988 -0.009933747
-0.00010352168 0.026313217 0.018892182 0.025881737 0.00093399006 -0.011908272 0.055637553 0.030361896
0.011780969 0.01707911 0.0636181 -0.04345849 -0.054454558 -0.040903926 -0.01924525 0.02055967
-0.029561888 -0.045780413 0.0034637148 0.01427146 -0.021486428 0.04538734 -0.014549759 0.043371722
0.07746775 0.049253013 -0.01980523 -0.032829467 0.027982246 0.03340071 0.04892901 0.0125773875
-0.003975459 0.031499635 0.049067378 0.03513764 -0.0034515474 0.04678419 -0.047901586 0.042908374

action_model._discrete_distribution.branches.0.bias f4 [2]
00000000: 002f 94bc 002f 943c
-0.018088818 0.018088818

exp_avg f4 [128, 50]
00000000: 807c 2437 bfd0 5039 ab68 a9b9 2064 cfb8
00000010: 7df3 b6b9 85cf a1b8 2a12 3439 4afd 68b9
00000020: 28e0 fab8 290f 5cb9 5c8e 93b8 9734 d538
00000030: e29c 3eb9 85fa a5b8 db55 07b9 dcdf 91b9
00000040: 7e1f 9ab7 7576 bfb8 bb31 2b39 0765 8a38
00000050: 7a38 aab9 dc9c c1b8 0afa d338 cb0e 0c39
00000060: 4079 0938 80a7 cbb9 dcb8 22b9 fc12 da38
00000070: d65d 7e39 c482 4739 80a7 cbb9 dcb8 22b9
00000080: fc12 da38 d65d 7e39 c182 4739 8e4a 8039
00000090: 57d0 9837 5eab 883a e944 8cb9 fc7e 92b8
000000a0: 85ed f439 9901 c0b8 6c76 a639 40e3 9835
000000b0: f626 8439 e681 15b7 2629 8c3a 5047 b337
000000c0: 04aa 9836 15db a53a e0b3 9939 7cf1 6439
000000d0: 308a d9b8 e22e d937 4e6b 23b8 7008 5138
000000e0: e62d 3f39 df45 eb38 39a1 8238 e4dd 0139
000000f0: 6807 1038 d1ff 7139 32f9 4c39 bb87 c0b8
00000100: 413c b138 2fa5 aeb8 daf8 0339 713f 5a39
00000110: 8886 5839 7e22 ba39 4890 feb8 1434 96b8
00000120: 0c16 fd39 8863 2439 a3fa 3d39 9d77 12b9
00000130: b1e5 fcb7 1de2 7039 a7e5 c439 69b0 d139
00000140: 9d77 12b9 b1e5 fcb7 1de2 7039 a7e5 c439
00000150: 69b0 d139 50ad e4b5 6679 1b39 7a5d 1a3a
00000160: b0db 36ba 0d62 00b8 0378 0f3a 86ca d5b8
00000170: 66c1 d1b8 b21d b537 dc15 8fb7 dbc0 7037
00000180: cfed 233a e22d 07b9 ac8a fa37 f121 8c3a
00000190: 6c09 9eb9 7170 43b8 388f 3eb9 8426 38b6
000001a0: cc8a 69b9 3638 6137 2013 84b8 3fce a7b9
000001b0: 4217 1cb9 2e0d a8b9 f363 64b9 ffa7 6fb8
000001c0: eb2f 73b9 22e9 8336 0f61 d1b8 ed32 b1b8
000001d0: 2ff3 8bb8 8b39 b5b9 fa60 46b8 1878 70b9
000001e0: cf1a b4b9 31d2 14b8 fc7c 35b9 5011 0538
000001f0: 72db ffb8 3008 80b8 2df9 43b9 58b0 9eb9
00000200: dbd2 2938 2044 5ab9 3008 80b8 2df9 43b9
00000210: 58b0 9eb9 dbd2 2938 2544 5ab9 6cc0 04b9
00000220: 7792 a2b8 36bd bc39 1a6a 0c3a 4f1f 03b8
00000230: d38b 4339 7ace a7b7 7a84 023a 8c7d 1a38
00000240: e03f d0b8 d8d1 f4b7 11a6 bc39 523c 0fb9
00000250: fa51 b1b6 9d83 ab39 37a8 1d39 2f84 cb38
00000260: 71e7 08b9 48a7 2238 b0c1 9e36 5acf 63b8
00000270: 76fa 0a39 50e9 8b38 b651 b3b6 0cd6 9338
00000280: 563f 79b8 b427 c938 d3c2 2939 3150 b1b8
00000290: 674a b837 8849 bab6 db3a f938 f15f efb7
000002a0: b660 a138 d605 a538 10f4 06b8 a26a d037
000002b0: f29e 1c39 c69c af37 2aba 1e37 ccbb c1b6
000002c0: c4b8 0eb8 36aa 2439 d8a4 2838 26f6 9038
000002d0: ccbb c1b6 c4b8 0eb8 36aa 2439 d8a4 2838
000002e0: 25f6 9038 2292 c338 d11a e437 4c3b b839
000002f0: 1058 d0b9 2e96 c5b7 7801 1f39 50eb 91b8
00000300: 5c54 8336 98fe ec36 2a31 c938 d63a 7436
00000310: d380 d239 2672 2337 eef6 8d36 f18e 233a
00000320: 5c62 773a fe20 f539 5cd7 0db9 3088 f0b8
00000330: 83d5 87b8 a70b 8f39 79e4 e339 a414 a839
00000340: df4d 5f38 0c45 b739 5627 e039 0032 073a
00000350: 23a0 9a39 36d7 10b9 b9a6 4939 7485 ae38
00000360: 7aa0 3939 4dcb db39 2ef8 063a f95c 5c3a
00000370: 5287 c138 4c1a 0538 dbd6 5e3a 79b3 6239
00000380: c12e fb39 62f5 8cb9 e6eb f6b6 6b04 523a
00000390: 1057 273a eb5a 7d3a 62f5 8cb9 e6eb f6b6
000003a0: 6b04 523a 1057 273a e95a 7d3a 894f 053a
000003b0: 71b2 2239 1043 a73a f383 dcba eac8 ebb8
000003c0: 76de 273a 953e 34b9 addd c6b9 01fd 9b37
000003d0: 5bbc 003a e4c8 1b38 488e b03a 9f99 1c39
000003e0: 3f6a 2738 17f3 fd3a ab17 2a39 0bef 90b7
000003f0: 3f3a f238 8a6e 0038 09de 2739 7c8f fdb7
9.804149e-06 0.0001991419 -0.00032312176 -9.889179e-05 -0.00034895158 -7.715732e-05 0.00017172904 -0.00022219602
-0.00011962681 -0.00020986483 -7.036023e-05 0.00010166427 -0.00018178255 -7.914476e-05 -0.00012906587 -0.00027823343
-1.8372895e-05 -9.129654e-05 0.00016326357 6.5991706e-05 -0.00032467005 -9.2321745e-05 0.000101078374 0.00013356951
3.277627e-05 -0.00038843974 -0.0001551839 0.00010398586 0.00024258284 0.00019026833 -0.00038843974 -0.0001551839
0.00010398586 0.00024258284 0.00019026829 0.0002446961 1.8216828e-05 0.0010427048 -0.00026754223 -6.985475e-05
0.00046716272 -9.155571e-05 0.00031750218 1.1391021e-06 0.0002520603 -8.911336e-06 0.0010693416 2.137167e-05
4.5497454e-06 0.0012653793 0.0002931645 0.00021833734 -0.00010373106 2.5890247e-05 -3.8962164e-05 4.983734e-05
0.00018232278 0.00011218688 6.228913e-05 0.0001238506 3.4339173e-05 0.0002307885 0.00019547789 -9.180555e-05
8.451241e-05 -8.3277344e-05 0.00012585838 0.00020813734 0.00020649482 0.00035502383 -0.00012138538 -7.162258e-05
0.00048272347 0.00015677337 0.00018117814 -0.00013968204 -3.01477e-05 0.00022972417 0.00037555138 0.00039995022
-0.00013968204 -3.01477e-05 0.00022972417 0.00037555138 0.00039995022 -1.7037764e-06 0.00014827176 0.0005888563
-0.0006975485 -3.0608895e-05 0.00054729 -0.000101943544 -0.0001000192 2.159071e-05 -1.7057107e-05 1.4350017e-05
0.0006253393 -0.00012891696 2.9866897e-05 0.0010691268 -0.00030143128 -4.6596342e-05 -0.00018173165 -2.7440556e-06
-0.00022272317 1.3424133e-05 -6.297813e-05 -0.00032006387 -0.00014885984 -0.00032053277 -0.00021781008 -5.71385e-05
-0.00023192137 3.9312445e-06 -9.983975e-05 -8.4495034e-05 -6.673333e-05 -0.00034565883 -4.7297195e-05 -0.00022932922
-0.0003435225 -3.5481706e-05 -0.00017308065 3.1725795e-05 -0.000122002224 -6.105041e-05 -0.00018689474 -0.00030267495
4.0489114e-05 -0.00020815479 -6.105041e-05 -0.00018689474 -0.00030267495 4.0489114e-05 -0.00020815486 -0.00012660184
-7.752043e-05 0.00035999127 0.00053563865 -3.1261992e-05 0.00018648738 -2.00041e-05 0.0004978847 3.6833386e-05
-9.9301105e-05 -2.9184783e-05 0.00035981883 -0.00013660014 -5.2845544e-06 0.0003271372 0.00015035352 9.7044154e-05
-0.0001305619 3.8779603e-05 4.731315e-06 -5.431413e-05 0.0001325401 6.671494e-05 -5.344128e-06 7.0493756e-05
-5.9425212e-05 9.591822e-05 0.00016189674 -8.4549545e-05 2.1969156e-05 -5.551792e-06 0.00011884208 -2.8535696e-05
7.695092e-05 7.8689e-05 -3.217539e-05 2.4845187e-05 0.00014936531 2.0934629e-05 9.460879e-06 -5.7737107e-06
-3.4027515e-05 0.00015703667 4.0207844e-05 6.912304e-05 -5.7737107e-06 -3.4027515e-05 0.00015703667 4.0207844e-05
6.912303e-05 9.325544e-05 2.7192205e-05 0.00035139394 -0.00039738463 -2.3554163e-05 0.00015163969 -6.957969e-05
3.913925e-06 7.0629867e-06 9.5935844e-05 3.639308e-06 0.00040150303 9.742134e-06 4.230874e-06 0.00062392565
0.0009436959 0.00046754623 -0.00013527035 -0.00011469459 -6.477071e-05 0.00027283767 0.0004346704 0.00032058835
5.3239866e-05 0.00034955924 0.00042753917 0.0005157292 0.0002949248 -0.00013813082 0.00019230963 8.321824e-05
0.00017702757 0.00041922406 0.0005148676 0.0008406188 9.2281625e-05 3.1734162e-05 0.0008500644 0.00021619898
0.00047909285 -0.00026885705 -7.3588335e-06 0.00080115226 0.0006383518 0.0009664732 -0.00026885705 -7.3588335e-06
0.00080115226 0.0006383518 0.0009664731 0.0005085399 0.00015515999 0.0012761075 -0.0016823992 -0.000112430964
0.00064036937 -0.00017189451 -0.00037930664 1.8595254e-05 0.00049108797 3.7141974e-05 0.0013470137 0.00014934548
3.9914852e-05 0.0019374815 0.0001622128 -1.727745e-05 0.000115503084 3.0620526e-05 0.00016009076 -3.0226765e-05

exp_avg_sq f4 [128, 50]
00000000: 9328 2935 b646 1a34 e560 fb34 c70a 5a34
00000010: 86be fd34 e7e9 eb34 1566 f033 fa33 3935
00000020: 621f 1434 b3f0 f934 8c24 3735 63c0 9433
00000030: 1ab2 0835 deae 3034 485b f234 14af 1735
00000040: 50a1 d833 6515 2035 b552 2534 ce8b f034
00000050: db7a 4b35 685f b333 392b e334 d706 3634
00000060: ef56 de34 9bce 1735 9394 1b34 0253 2035
00000070: dcb9 e133 86d0 df34 9bce 1735 3394 1b34
00000080: 0253 2035 dcb9 e133 87d0 df34 d787 4c35
00000090: b08e f832 037e 8335 9e50 3435 de4b 6333
000000a0: b940 2e35 4031 3534 ff8c 8235 9db5 1634
000000b0: 144a 5135 704e cb31 fe86 8335 03ef 5435
000000c0: cef9 4c30 42d3 8935 094b 2e35 d4b6 5034
000000d0: 3009 2835 9b11 0c34 bda1 e234 fdc3 1f35
000000e0: c953 6134 f9cc 3135 e305 ed33 5d86 e334
000000f0: 66e2 0f35 ca2f 8834 bb57 3735 3121 fc33
00000100: 6475 0135 14fc 2035 4dbb 4834 54e5 1935
00000110: 9e1c 7e34 0059 1535 876a 0a35 e3bc 6a34
00000120: 89e0 3435 3a6e 5e34 5939 1735 3210 1835
00000130: 24a0 0c34 6e89 2435 75ea 9334 8861 2235
00000140: 4a10 1835 f29f 0c34 6e89 2435 75ea 9334
00000150: 8961 2235 c8bc 8535 c36d 4533 2a1d 7a35
00000160: a0d5 3e35 caf5 ad33 8e76 4735 e567 7034
00000170: e660 9135 cbf1 4834 97ec 8835 dc6f da31
00000180: a913 8135 b0c4 8735 7748 8730 2263 8035
00000190: 25db 0635 79f4 c633 82ab ad34 7c95 9233
000001a0: 41c4 8534 b073 d834 9b7b fa33 82bf ac34
000001b0: dc0c 0234 ec1c a534 5ea7 0635 5bf5 aa33
000001c0: 7e18 b034 0c8b c133 3178 8534 3ddd 8634
000001d0: 8f04 c333 c589 0035 e2ea 0e34 3e3a d434
000001e0: 96a9 a834 56cc 9733 85c0 0235 a177 dd33
000001f0: 6003 b534 8afe 7134 024d 0134 a6cd e034
00000200: 7b32 5e34 8d5c eb34 83fe 7134 fd4c 0134
00000210: a6cd e034 7b32 5e34 8a5c eb34 ab8f 2a35
00000220: c655 1933 4cf0 1535 7eba ec34 e160 4233
00000230: c0f0 f834 a79a fd33 cf20 3a35 a294 fd33
00000240: 159d 2d35 9929 9631 eac3 1d35 e330 1b35
00000250: 6086 1530 4e91 2435 49e3 3d34 51de 8d33
00000260: 7d4d 8334 2737 9d33 1126 5534 c9b3 9534
00000270: 165e 8133 c236 3434 58a2 4b33 dfce 1634
00000280: a02a ff33 c1fa 8833 1329 8f34 5805 d233
00000290: 5f26 8634 ea94 a534 425c 8533 781c 1034
000002a0: 56ab 5533 a14e 0634 56ed 3834 ebdf 6633
000002b0: 239c 8834 4dd6 b933 9bff 6534 e70c 8034
000002c0: 2a4c ca33 11f1 5534 9053 ce32 2797 0434
000002d0: f40c 8034 054c ca33 11f1 5534 9053 ce32
000002e0: 2897 0434 6676 b534 0e9e 3132 6553 b434
000002f0: 3207 8734 ba22 eb32 7a67 9734 933c 9f33
00000300: 88c3 ce34 7d2e 8b33 0ed4 bb34 9a3b 1b31
00000310: bb08 b834 9b07 b834 2472 8f2f 2010 b634
00000320: a11f 0536 a8b7 1e35 85c0 0836 6cc5 5335
00000330: 98ce 0036 7704 e335 7f2b fd34 3072 1c36
00000340: 0a41 6135 a104 0a36 08e0 2236 aa3a 0935
00000350: bc15 fd35 e6a3 1135 e07a d435 e580 e535
00000360: 9719 1d35 9bdb 2536 c264 2235 3425 0136
00000370: df40 3836 3d51 e434 a22e 0336 5845 e234
00000380: 3693 bd35 d46d 1936 78a9 fd34 88d3 0836
00000390: 6ad2 1935 b5d2 d235 de6d 1936 2da9 fd34
000003a0: 88d3 0836 6ad2 1935 b6d2 d235 9e33 7736
000003b0: 22ac 2b34 6d69 5936 0dcf 2e36 e22a 7934
000003c0: 1e33 1a36 8de7 3335 427f 7636 1199 1635
000003d0: 7308 7d36 4588 df32 5371 5f36 92cf 7036
000003e0: 3db0 6231 1229 6536 a966 2e34 7070 2133
000003f0: fda7 5134 c93c 6f33 f9ee 3034 c3fe 0a34
6.301645e-07 1.4368092e-07 4.6822893e-07 2.0306753e-07 4.7263546e-07 4.3942347e-07 1.11944395e-07 6.8993506e-07
1.3794991e-07 4.6554996e-07 6.8225995e-07 6.926782e-08 5.092312e-07 1.6454894e-07 4.5142428e-07 5.6506656e-07
1.00876264e-07 5.963578e-07 1.5396911e-07 4.4805205e-07 7.580217e-07 8.352691e-08 4.2313494e-07 1.6952559e-07
4.1413975e-07 5.6552534e-07 1.4489551e-07 5.9725437e-07 1.05111866e-07 4.1688708e-07 5.6552534e-07 1.4489414e-07
5.9725437e-07 1.05111866e-07 4.168871e-07 7.6193595e-07 2.8935887e-08 9.796935e-07 6.717254e-07 5.2921557e-08
6.4914235e-07 1.6874856e-07 9.72679e-07 1.4035909e-07 7.7966365e-07 5.916995e-09 9.799548e-07 7.932396e-07
7.456976e-10 1.026878e-06 6.492924e-07 1.9438022e-07 6.2598247e-07 1.3044921e-07 4.221346e-07 5.9517316e-07
2.0985239e-07 6.623591e-07 1.1037243e-07 4.2379807e-07 5.3601104e-07 2.5366745e-07 6.8300477e-07 1.1740702e-07
4.822707e-07 5.9971467e-07 1.8694591e-07 5.733066e-07 2.3666004e-07 5.563634e-07 5.1564024e-07 2.1861665e-07
6.7381967e-07 2.0715461e-07 5.6335335e-07 5.664798e-07 1.3096775e-07 6.129475e-07 2.7551474e-07 6.049163e-07
5.6648116e-07 1.3096704e-07 6.129475e-07 2.7551474e-07 6.0491635e-07 9.964215e-07 4.5967465e-08 9.3174697e-07
7.109138e-07 8.100649e-08 7.4305797e-07 2.2389538e-07 1.0831543e-06 1.8714415e-07 1.0201646e-06 6.357352e-09
9.616971e-07 1.0115527e-06 9.843139e-10 9.565595e-07 5.023779e-07 9.264563e-08 3.234855e-07 6.825846e-08
2.4915974e-07 4.031731e-07 1.1664016e-07 3.2176837e-07 1.2111872e-07 3.0754688e-07 5.016244e-07 7.960872e-08
3.2800375e-07 9.012555e-08 2.486063e-07 2.5120417e-07 9.081224e-08 4.7884197e-07 1.331023e-07 3.9530454e-07
3.1415829e-07 7.068654e-08 4.8708927e-07 1.0312875e-07 3.3716333e-07 2.2537475e-07 1.2042076e-07 4.187288e-07
2.0693726e-07 4.38395e-07 2.2537465e-07 1.204207e-07 4.187288e-07 2.0693726e-07 4.3839492e-07 6.3539e-07
3.57011e-08 5.5856503e-07 4.4094116e-07 4.5257256e-08 4.6368768e-07 1.1809362e-07 6.933814e-07 1.1808267e-07
6.4676107e-07 4.3703037e-09 5.877215e-07 5.781314e-07 5.439684e-10 6.1306207e-07 1.7684683e-07 6.606263e-08
2.4457032e-07 7.3209144e-08 1.985102e-07 2.7884224e-07 6.024145e-08 1.6783727e-07 4.741227e-08 1.4045098e-07
1.1882116e-07 6.3786054e-08 2.666571e-07 9.779859e-08 2.4987364e-07 3.0841994e-07 6.210077e-08 1.3421402e-07
4.9748756e-08 1.2508328e-07 1.7222678e-07 5.37547e-08 2.5445578e-07 8.653715e-08 2.1420276e-07 2.3851246e-07
9.420212e-08 1.992487e-07 2.4019556e-08 1.2348447e-07 2.3851283e-07 9.420186e-08 1.992487e-07 2.4019556e-08
1.2348448e-07 3.3800023e-07 1.03386935e-08 3.358829e-07 2.5150945e-07 2.7373392e-08 2.820123e-07 7.415033e-08
3.8512758e-07 6.481148e-08 3.4985754e-07 2.2589348e-09 3.4279023e-07 3.4278204e-07 2.609265e-10 3.3911874e-07
1.9836955e-06 5.912684e-07 2.037764e-06 7.889091e-07 1.919374e-06 1.6914117e-06 4.715657e-07 2.3312277e-06
8.3913676e-07 2.0566297e-06 2.4270284e-06 5.1121845e-07 1.8856294e-06 5.4255213e-07 1.5830992e-06 1.7099343e-06
5.8524296e-07 2.4714743e-06 6.0496325e-07 1.9244153e-06 2.7455897e-06 4.2527418e-07 1.9547665e-06 4.2146235e-07
1.4124441e-06 2.2862705e-06 4.7248227e-07 2.0388707e-06 5.7303134e-07 1.5707543e-06 2.2862728e-06 4.7248014e-07
2.0388707e-06 5.7303134e-07 1.5707544e-06 3.6835913e-06 1.5988238e-07 3.2396886e-06 2.604854e-06 2.3205533e-07
2.2977542e-06 6.7019647e-07 3.673093e-06 5.6102095e-07 3.7704856e-06 2.6022585e-08 3.3295553e-06 3.5883609e-06
3.2987508e-09 3.4147565e-06 1.624236e-07 3.7587995e-08 1.9525756e-07 5.5701808e-08 1.6478215e-07 1.2944933e-07

exp_avg f4 [128]
00000000: b4d4 64b9 d654 e039 fe52 0bba fbf8 1e39
00000010: 1adf 963a cc7a 9739 76e5 1eb7 1db3 4638
00000020: c89d 2039 f437 92b9 0d2e feb8 333f 74ba
00000030: 205c 25ba fa77 1c3a e411 023a c281 043a
00000040: d2ea b3b8 3001 fb38 ecaf b238 5774 9eb9
00000050: 71a6 4f3a a2ef fa39 c1ec d239 6615 1fb9
00000060: 7764 73b9 daaf 31b9 f891 2839 f46c 6338
00000070: 50dc dd39 dc0b f736 a48a 0738 ff86 5e3a
00000080: 602f 8eba c0f9 7bba e623 393a 4293 64b8
00000090: 907b a9b9 5818 a7b9 091e 5db9 3608 fb38
000000a0: e7f0 a338 3076 1539 25e8 6e3a d236 1539
000000b0: e469 6aba bbb2 9238 f356 1c3a 2bc8 b339
000000c0: ffc0 c139 b892 4739 db0b 9439 3fa0 33b8
000000d0: d60e 54b9 1532 9a39 c979 67ba c5c0 8039
000000e0: 60b5 e3b9 eca6 28b9 67eb 9639 3e03 8139
000000f0: 2582 4038 7c42 aeb8 baf5 1338 355b 69ba
00000100: 94ae 17b9 adaa 89b9 e7a9 08ba 52db 7db8
00000110: 5f55 b538 5684 1eba e0c8 223a e89a 083a
00000120: aea1 2939 f2c2 3c39 4237 69b9 cbcf 2f38
00000130: e5a2 caba 3c6c 2c39 faf6 e3b8 9b50 2fba
00000140: 694b 84b9 a5e1 95b9 68ce 91b9 0c94 8bb8
00000150: 68e1 a038 c958 0d3a 60b4 8ab9 c05f 9cb9
00000160: e581 4439 382c 0639 c621 afb9 c093 493a
00000170: 0a19 f939 f11f 57b9 2a8b 933a 290f d4b9
00000180: ac33 f338 c305 d139 11ab 8438 922e 273a
00000190: 5118 87b9 92d9 b93a 80b4 9534 ac97 aeb9
000001a0: 1aa2 a638 5cae 63ba d6ce 7eb9 e216 00b9
000001b0: 547e d4ba e5df 26ba 141b 7039 b83c a7b9
000001c0: d792 7e39 b2df aab8 6fdd 00ba 4f1e 3e39
000001d0: ae9e 3c3a b259 8db9 6dae 1cb9 8037 1bb6
000001e0: 864a bb39 72b0 c2b9 6a0f 0538 4d3a 05ba
000001f0: f768 e0b8 0258 103a f6fa ad39 9821 093a
-0.00021823013 0.00042787817 -0.0005314796 0.00015160807 0.0011510581 0.00028892455 -9.470959e-06 4.737369e-05
0.00015317567 -0.00027888978 -0.000121202414 -0.0009317279 -0.0006307978 0.00059688056 0.00049617724 0.0005054736
-8.579124e-05 0.00011968834 8.5204694e-05 -0.00030222788 0.0007921225 0.00047862256 0.00040230717 -0.00015171393
-0.00023211712 -0.00016945545 0.00016076106 5.4222488e-05 0.0004231655 7.3625542e-06 3.2315627e-05 0.0008488744
-0.0010847859 -0.0009612106 0.0007062539 -5.449658e-05 -0.00032326253 -0.0003187086 -0.00021087391 0.00011970142
7.817317e-05 0.00014253776 0.0009113572 0.0001423017 -0.00089421705 6.995114e-05 0.0005963884 0.00034290677
0.00036955622 0.00019032776 0.00028237593 -4.2826166e-05 -0.00020223422 0.00029410483 -0.0008830098 0.00024557687
-0.0004343195 -0.00016083912 0.00028785618 0.00024607213 4.5897574e-05 -8.30935e-05 3.5276382e-05 -0.00089018355
-0.00014465518 -0.0002625784 -0.00052133057 -6.052416e-05 8.646654e-05 -0.0006046941 0.0006209742 0.0005211071
0.00016177326 0.000180017 -0.00022241197 4.1916774e-05 -0.0015459923 0.00016443519 -0.000108702065 -0.00066877314
-0.00025233187 -0.00028587613 -0.0002781034 -6.6556124e-05 7.67138e-05 0.0005391953 -0.000264558 -0.00029825978
0.00018740406 0.00012795709 -0.00033403764 0.0007689558 0.00047511637 -0.00020515897 0.0011256684 -0.00040447086
0.000115967676 0.0003986788 6.326114e-05 0.0006377484 -0.00025767324 0.0014179221 2.7884744e-07 -0.0003330087
7.9456906e-05 -0.00086853444 -0.0002430038 -0.00012215556 -0.0016211965 -0.00063657603 0.00022898271 -0.0003189796
0.0002427803 -8.147898e-05 -0.00049158087 0.00018131103 0.0007195276 -0.00026960444 -0.00014942298 -2.3129105e-06
0.00035722944 -0.00037134025 3.1724026e-05 -0.0005082235 -0.000107007036 0.0005506278 0.00033184112 0.0005231141
