Assets/Learning/AIRollABall/results/WithObstacle/AIRollABall/AIRollABall-2033640.onnx (onnx, 101856 bytes, 9 tensors)

network_body._body_endoder.seq_layers.0.weight f4 [128, 50]
00000000: 8e49 603d b0dc ca3d 7ea2 74be 2c8e 7bbe
00000010: 914e debd f6b7 48be 4fad 7bbe bb2f 0bbd
00000020: cfc3 6fbe e96d 64bb b8ef 3a3e 8cb9 783e
00000030: 6cc8 a73d 5048 84bd 49e2 65be 0d9f be3d
00000040: 6701 823c d553 e8bb a11f 9f3d f0b1 0dbe
00000050: 51ab c73d 1c11 053e 033d 0dbc 4835 1d3e
00000060: 9f0b 963e 0f10 87bd c48a fd3d 433d 17be
00000070: 220f 5cbd 5e14 fa3d 2ba0 60be 7431 dd3d
00000080: 97a3 8a3e bd81 a03d 6047 c5bc 0ad3 203d
00000090: bfdf 843d ce0f a6bd bade 54bd be7a 7c3e
000000a0: 889d 9f3d 4a0a 1dbe 5d47 42bd 5d61 eebd
000000b0: 8edb bfbd 8ae3 803e b500 d53d 8aae 0fbe
000000c0: 4ae9 173e 1f03 ef3d 7e9c acbd e021 34be
000000d0: 8680 b73d 41b6 013e a741 98bd 1057 a5bc
000000e0: 0a40 583d 31e7 79bc 6d08 8e3d 4c2c 2fbe
000000f0: 356a f9bd 23c8 b23a 12fb 6d3b df3c 013d
00000100: 6ddf 883d 6b37 113e 152e f93b d57e 00ba
00000110: 1ae9 7b3d 4304 ca3d 0a4e 44bd e7fa 3538
00000120: ec15 b93d d724 133b 3d13 193e 1184 5e3e
00000130: 0e4f c13d e2ba 73bd 8b3a 93be d579 123e
00000140: 7c17 473d 9ad8 87bc a495 8c3e 4f23 4bbd
00000150: abcb 21be 0289 16be aced ddbb 21de 7f3d
00000160: 5537 9d3d 72d5 cebc 8187 0ebe 368c 3c3d
00000170: ec70 a93d 80c0 8bbc 2f1f e53e d23e ba3d
00000180: 101d 713e a3a2 3cbe 6f0e 8d3e ce64 08be
00000190: 28b0 563d 1e10 5fbe ee0f aa3d b38e 363e
000001a0: 165c 443d 2f80 38bd 66e9 87be f633 4e3d
000001b0: 144e ebbd 7625 e73d 12cc a0be beff 3e3e
000001c0: d687 a9bd 5c71 90be f706 cabb fe48 11be
000001d0: b011 1b3d 9fb1 8f3e c8c0 633e 4322 753d
000001e0: 423e 1fbe e2d8 32be 5777 713d 988d 22bd
000001f0: 572d d03d b3c0 743e 23c4 3fbe 753a 8fbd
00000200: dedf 13bd 24b1 09bd e73d d93d 857b 7bbd
00000210: 19e3 e93d f448 603d 64f0 20be e013 8b3e
00000220: 8d57 d33d fb5f 483e 95fb 34be 84ca 43bd
00000230: cae9 c33d cba9 7c3e 0e3e 153b b6c1 83bc
00000240: 7f34 17be 9080 f0bd fd0f 71be acce ff3a
00000250: db24 c4bd 6215 72bd 68ec 2d3d 25a2 3abe
00000260: 6c3c 22be 96e4 913d 5d47 353d bb80 5d3d
00000270: c965 a53d b3e6 223e 61ef 223e ae6b ab3d
00000280: 859d fb3c e6e9 75be daec c2bb 717b 94be
00000290: ff2a 023e 4f54 0b3e 3f71 90bd 9825 0ebe
000002a0: 3c9b 81bd 5aa2 f8bd 22ed a23d 97d0 5b3c
000002b0: fbb9 09be 722a 4b3e c953 513e c69b b1bd
000002c0: 6920 8abd 3408 1e3d c46d 033d 35f5 663e
000002d0: c33d 1cbd a9b0 bcbd 36e5 6c3d 4c1b 41be
000002e0: 81d3 97bd b010 253e e51e e63d 156b 6e3e
000002f0: 386c df3b 9834 d33c a9ea b23c 3d31 5dbe
00000300: 4a60 7c3e 7c99 c7bd f7cb 4cbe 32e2 0a3e
00000310: 4f86 913d bd39 3abe 4c03 163d 2b91 e0bd
00000320: 148d a4bd 3daf 8b3d 74df 353e 8638 523d
00000330: 3581 423d 4920 a3bc 7406 75be 5389 b0bc
00000340: 1493 5bbd 8e82 3abc c56a 173e 44bc 77bd
00000350: e4ac 29be 6ba9 783d a9fa e93d 821d 49ba
00000360: 6f5c 3abd 277e 2abe d919 a6be eb85 aa3c
00000370: 3335 6d3e 331c 3ebd d7a2 1d3e 6b67 9abc
00000380: b19b 81bd fe2f e1bd 2cf7 22be 12c9 1ebe
00000390: b59b 413e 59c0 65be 6995 ebbd a6cb 4e3e
000003a0: 8803 1cbd 5d63 04be 74db 64bc 16ff f3bc
000003b0: b7e8 fe3d 2759 6cbe fd27 ab3d 50e9 5b3c
000003c0: e720 2a3e 176d 21bd 7a15 2e3e 5650 11be
000003d0: eb95 80bd ced2 5b3e 8598 453e 88eb ad3d
000003e0: cb2a c83d 3c09 873c c558 4fbe 5b22 a6bc
000003f0: 3261 14be bbfc b53d 1bb3 bf3a 2107 763d
0.054757647 0.09905374 -0.23890111 -0.24565953 -0.10854829 -0.19601426 -0.2457783 -0.033981066
-0.23414539 -0.003485555 0.18255508 0.2428953 0.08192524 -0.06459105 -0.22449602 0.0930768
0.01586981 -0.0070900717 0.077697046 -0.13837409 0.09749473 0.12994808 -0.008620503 0.15352356
0.2930574 -0.0659486 0.12379983 -0.14769463 -0.05372537 0.12210916 -0.21936099 0.10800448
0.27077934 0.078372456 -0.024081886 0.039263763 0.06487989 -0.08108483 -0.05197022 0.24656197
0.077937186 -0.15335956 -0.04743134 -0.11639664 -0.093680486 0.251736 0.104005255 -0.14031425
0.14835086 0.11670517 -0.08428286 -0.17591047 0.08960061 0.1266718 -0.07434397 -0.020183116
0.052795447 -0.015252874 0.06935201 -0.17106742 -0.121784605 0.0013639968 0.003631298 0.03155219
0.0668324 0.14181297 0.0076043704 -0.0004901712 0.0615016 0.09864094 -0.047925986 4.3387434e-05
0.090373844 0.0022452378 0.14948745 0.21730067 0.094389066 -0.059504397 -0.28755602 0.14304288
0.04860638 -0.016582776 0.27457917 -0.04959422 -0.1580035 -0.14700702 -0.0067727175 0.062467698
0.07676569 -0.025248263 -0.13918878 0.046032153 0.08273491 -0.017059565 0.44750354 0.09094013
0.23546243 -0.18421416 0.27550074 -0.13319704 0.05241409 -0.21783492 0.083038196 0.17827873
0.047939382 -0.04504412 -0.26545256 0.050342523 -0.114895016 0.11286442 -0.31405693 0.18652245
-0.08277862 -0.28211486 -0.006165381 -0.14188 0.037858665 0.28065202 0.22241509 0.059847128
-0.15551093 -0.17465547 0.058951702 -0.039685816 0.10164898 0.23901634 -0.18727164 -0.06993572
-0.03610217 -0.0336162 0.1060751 -0.061397094 0.114202686 0.054757074 -0.15716702 0.271636
0.10319433 0.19567864 -0.17674096 -0.047800556 0.09566076 0.24674146 0.0022772583 -0.01608358
-0.1476612 -0.11743271 -0.23541255 0.0019516549 -0.09577342 -0.059102423 0.042461783 -0.18225916
-0.15843362 0.071236774 0.04425751 0.054077845 0.080760546 0.15908317 0.15911628 0.08370148
0.03071476 -0.24015006 -0.005948645 -0.29000428 0.12711714 0.1360638 -0.0705285 -0.13881528
-0.06328437 -0.12140341 0.07955386 0.013416431 -0.13449852 0.1984041 0.20442118 -0.086722896
-0.06744463 0.03858204 0.032087103 0.22554477 -0.038144838 -0.09213383 0.05783578 -0.18858069
-0.07413388 0.16119647 0.112363614 0.23283036 0.0068183206 0.025781915 0.02184041 -0.21600814
0.24646106 -0.09746072 -0.19999681 0.13562849 0.071056955 -0.18186088 0.036624238 -0.109651886
-0.08034721 0.068205334 0.17761022 0.051323436 0.047486503 -0.019912856 -0.23928243 -0.021549856
-0.05360706 -0.011383666 0.14786823 -0.06048228 -0.16569859 0.060708445 0.11424763 -0.00076719385
-0.045498308 -0.16649686 -0.32441595 0.02081581 0.23164825 -0.04641361 0.1539415 -0.018848142
-0.06328524 -0.10995482 -0.15914601 -0.1550639 0.18907054 -0.22436656 -0.11503107 0.20194873
-0.038089305 -0.12928529 -0.013968337 -0.02978472 0.124467306 -0.23080884 0.083572365 0.013422325
0.16614114 -0.039410677 0.1700038 -0.14190802 -0.062785946 0.21467134 0.19296463 0.0849219
0.09773787 0.016483895 -0.20248707 -0.020280054 -0.14490202 0.08886095 0.0014625521 0.060065392

network_body._body_endoder.seq_layers.0.bias f4 [128]
00000000: b681 d63b 9b6f 893c c286 e43c 07fc 72bc
00000010: c64f d53c d5ac 8a3c 6f0f 433c b240 82bb
00000020: 054e 46bc 47ed 113c b8da 18bc 6447 143d
00000030: d85b 6e3c b78a 883b f2c7 633d 73f0 063c
00000040: 3881 413a 40db 14bb e0cc af3c 7d79 273c
00000050: 7d6f 93bc 35ea 35bc 54ba ec3b 25ab 9a3c
00000060: 7b3d d1bb ecc7 323c 0b09 f4bc 1e69 1b3d
00000070: 1633 d23c 20c9 0dbc 0e9c fb3a fb85 a23c
00000080: 698e 823c dadf 4f3c 0b37 f7bc c842 c83c
00000090: 3eff 0d3d 26b5 7abc 1476 e43b 5d49 5f3c
000000a0: 9abc 53bc 60aa e6bc dacc ca3c 365f 89bc
000000b0: a4be 2c3c b1df 003d c8f7 18bb e9a3 fa3b
000000c0: dd03 50bc 7406 a93c 2413 193c 872e b6bc
000000d0: ecfc 153c 1b52 353c 802a 333b c694 e4ba
000000e0: d3a1 813c 9177 813c 8160 fc3b 2337 033b
000000f0: 6f96 c03c 5997 f93c 0a26 35bc 4789 0fbc
00000100: 290c 0f3b c927 0c3b 05ab dc3b 6fe1 edbb
00000110: 67a4 10bd 78fb 883c 6355 9abb 6c95 abbb
00000120: b0a0 8d3b 26c6 ebb9 6900 60bc dc62 203c
00000130: b1ae e73b 9bb5 22ba 2544 a53c f7fe 883c
00000140: 3e16 283c 62c2 07bd fa55 913b 7fb2 783c
00000150: 23a0 f13c 6614 9a3b 6201 db3c 28b3 00bc
00000160: 0f2a fbbb 14ce efbc 5c7e abbc 9ace 153d
00000170: 8f1b 153a 3510 24bd f8bb 003c 9999 e1ba
00000180: 269f e03c 3318 b5bc f9f0 72bc fd3e 583b
00000190: d8fb bd3c 408c 923c 9e36 8c3c 6511 f33c
000001a0: 6f2b 53bd d5fd 5bbb 34c8 a2bb 1c84 a0bb
000001b0: 5044 bbbb cda9 063d 4c3f f1bc e915 0abd
000001c0: 5980 61bc f859 8dbc bceb 923c e143 a4bc
000001d0: 64ea 4a3c 575c e0bc e842 32bc f842 e43c
000001e0: 6e35 18bd 376f 88bc ca12 853c 877c d63b
000001f0: 3598 b33c c1a5 feba 4cc5 28bd 0888 183d
0.0065462245 0.01677685 0.027896289 -0.014830596 0.026039016 0.016928116 0.011905535 -0.0039749974
-0.012103562 0.008906669 -0.00932949 0.036200896 0.014548264 0.0041669267 0.055610605 0.0082360385
0.0007381621 -0.002271369 0.021459997 0.010221836 -0.017997498 -0.011103203 0.0072243605 0.018880436
-0.006385503 0.010911923 -0.029789468 0.037942044 0.025659125 -0.008653909 0.0019196288 0.019839277
0.015937047 0.012687648 -0.030177614 0.024445906 0.034667246 -0.015301978 0.006972084 0.013628331
-0.012923384 -0.028157413 0.024755884 -0.016769033 0.010543499 0.03146333 -0.0023341049 0.007648934
-0.012696234 0.02063296 0.009342942 -0.022238983 0.00915454 0.011066939 0.0027338564 -0.0017439357
0.015824234 0.015804084 0.007701934 0.0020021878 0.023509232 0.030467676 -0.0110564325 -0.008760757
0.0021827316 0.0021386018 0.0067342543 -0.00725954 -0.035313036 0.016721472 -0.004709886 -0.0052363183
0.004322134 -0.00044970325 -0.013671973 0.009789195 0.0070703854 -0.0006206871 0.020174095 0.01672314
0.010259209 -0.033144362 0.004435298 0.015179276 0.029495304 0.0047021387 0.026734058 -0.007855214
-0.007664926 -0.02927307 -0.020934276 0.036573984 0.00056880055 -0.04005452 0.007857315 -0.0017211913
0.027419638 -0.022106266 -0.01482796 0.0032996528 0.023191378 0.017889142 0.017115887 0.02967138
-0.051555093 -0.0033568044 -0.0049677137 -0.004898561 -0.0057149306 0.03287678 -0.029449128 -0.0337123
-0.013763511 -0.017254815 0.017934673 -0.020051898 0.012384985 -0.027387781 -0.0108802095 0.027863964
-0.03716033 -0.016654594 0.01624431 0.0065456065 0.021923164 -0.0019428061 -0.041203782 0.037239105

network_body._body_endoder.seq_layers.2.weight f4 [128, 128]
00000000: 0660 c03c 2ab8 603d 4c0e 6d3e 5edc 1fbd
00000010: 5217 acbd 9c69 853d a2d8 fa3d 8ffd 38bd
00000020: ebc0 8a3c 1fd2 3e3d a258 903d 7fe3 2ebb
00000030: c3fe 343e ff91 2b3d 3c6d 2fbe 2ee9 18bd
00000040: 68a3 19bb e360 f2bd 0b5a e43d 1b58 893d
00000050: a681 bbbc 4f41 cabd a351 583d 9fce 81bd
00000060: 3d37 46be cdd1 463d 7b6a 18bd dc1b 74bd
00000070: 60a5 eabc f09c 53bd 6ff1 02bd a663 b13d
00000080: 175a 803d dccf 113c 5a66 18bd 8897 b33b
00000090: c13f 563d 9607 e9bc 15f1 46bd 4fd7 033d
000000a0: f8a8 8f3c f005 9b3d f3a5 4cbd 92ca 053e
000000b0: e809 893e e87f 5bbd 9d08 61bb 2ea4 6b3b
000000c0: de47 7dbd 35fa 22ba 28d7 c5bd 8894 46bd
000000d0: f171 02bc 0074 8c3c 9c55 acbd c691 34bd
000000e0: dbb5 243c 4535 a03c 6591 063c 97e7 fbbd
000000f0: a5d7 e5bd 1036 86bd db2a a7bc c59e 55bd
00000100: e00f 4a3e 4a4d d53d 1d46 23bd 2167 763d
00000110: 4add 133b 582e 1a3d 8b22 dabc 536d 47bd
00000120: f978 433e ca18 4f3c 436a dfbc 2623 cb3c
00000130: ba65 89bc 244a 88bc e002 30be 312a 193e
00000140: a109 23be cef1 4e3d dd4d 1b3b 68d0 133e
00000150: 6a62 4bbe c6a6 b7bd 2392 a4bd f2ca 2fbd
00000160: e199 48be 02d0 aebd 0c50 f3b9 2287 a0bd
00000170: fbc8 9abd 0892 0cbd a9c0 8fbd d6ce 40bd
00000180: a2dc fb3d 30a2 153e dbff cabc d238 983d
00000190: be01 8fbd 5942 c03d 1e63 7b3d ed30 4e3d
000001a0: 6dc2 0abe 6223 f03d c37b 5cbd d55e 0a3b
000001b0: 0082 babd 86cf c73d 1e54 11be 12f3 3ebe
000001c0: 3f87 7cbd 2549 1bbe 2130 bb3c 12ba 703d
000001d0: b5a4 033d 92d8 163d 8e1b fabc fe56 283e
000001e0: 1faa 443d a585 28be b195 f3bd cad8 433d
000001f0: 5550 e33d 558c f03c c0e1 a53d ee17 e33d
00000200: a58a eabc 14f3 ea3d 9056 e2bc 594b 793b
00000210: d6e5 94bd 7f43 ecbb 82fb 943c 4306 03bc
00000220: 9d29 36bb 899a 0e3c c2d4 d63c 216e 5ebd
00000230: ad8d cf3d 97ee 1ebe 5cf7 5f3d fb5c 063e
00000240: 9d13 1f3c 9445 043b 2fa4 b3bd f4a8 bd3b
00000250: a46f 94bc 4c2d 29bd b973 b33d f870 f5bd
00000260: 9c2a 113e 4b1a 033e 3291 843d f263 23be
00000270: b73c 96bd 7699 93bc 7c83 b93d 479e d93d
00000280: 6c9e 0dbe 3c03 d83c 2549 a3bd 2cda a1bd
00000290: e7e9 0fbe 6cdb 403e 778a 21bd b4cc 173e
000002a0: 1b1e 403d a318 b23c e876 403b 3220 a83e
000002b0: fdb9 0b3e 4d2f c13d b487 e4bd b4a3 b9bd
000002c0: da49 573e 6e01 a2bd 7fbf c03c d24b f0bd
000002d0: d695 243e 2d51 cfbd 196b 58bd f79b 483e
000002e0: 4305 633d d2b2 aebd b78b c9bb 815c 333c
000002f0: ead7 d6bd 1c07 f7bd e511 093e bebc fb3d
00000300: e1e4 1ebd a130 e73b ba6a 83ba 7a77 a9bb
00000310: 9722 2abd 429f 6e3b c627 a73d 3c42 87bd
00000320: 3e5c 173e 8731 2bbe f28c 66bd 8c1a a4bd
00000330: 57be 85bc 38ac 0b3d 2faf 1fbd d404 a13d
00000340: ba58 a939 51a8 613d 5aab 093e 6772 3cbe
00000350: 98a4 fdbd de2f 223d 8dd6 1c3d 7808 393e
00000360: 1b41 25be 3a3c cdbd c8f4 98bd e559 003c
00000370: 66c9 a53d eaa8 f33c b39c 37bd 8077 08be
00000380: d77f dc3d 11c7 87bd ff1b b83d 7984 7dbc
00000390: 2a5a b03c fc6d 4e3e 6fe2 a8bd e528 9bbd
000003a0: cdd1 793d ca5f 503c 8464 f1b7 3898 3f3d
000003b0: c3ed 6bbd b411 96bd a1c3 1d3e 05cd f8bd
000003c0: 4bd2 b8bc 2655 a93d f52d 8b3d b374 743d
000003d0: f2a8 c1bb 7138 383d 35b4 633d 4d4a e5bd
000003e0: 44aa d03b 06ab 81bd d272 83bd 1060 babd
000003f0: 7c63 6e3d 3c68 d8bd 76b3 0cbe 81b1 003d
0.023483288 0.054863133 0.23149985 -0.039028518 -0.084028855 0.06514284 0.12248351 -0.045163687
0.016937694 0.046587106 0.07048155 -0.0026685891 0.17675309 0.04188728 -0.17131513 -0.037331752
-0.0023443345 -0.11834886 0.11149987 0.06706258 -0.02288897 -0.09875738 0.05281223 -0.06338238
-0.19357009 0.048539925 -0.037210923 -0.05959688 -0.02864331 -0.05166334 -0.03196853 0.086615846
0.06267183 0.008899655 -0.037206985 0.0054807104 0.052306894 -0.028446 -0.048569757 0.032187756
0.017536625 0.07569492 -0.04996295 0.13065556 0.2676537 -0.053588778 -0.003433741 0.0035956013
-0.061836116 -0.00062170933 -0.096601784 -0.048481494 -0.007961736 0.017145157 -0.08414766 -0.044084333
0.010053123 0.01955665 0.008213376 -0.12300032 -0.112227716 -0.0655328 -0.020406177 -0.052153368
0.19732618 0.10415132 -0.039861787 0.060156945 0.0022562318 0.037641853 -0.0266278 -0.048688244
0.19089116 0.0126401875 -0.02727235 0.024797034 -0.01677214 -0.016636916 -0.17188597 0.14957501
-0.15921642 0.05052357 0.0023697533 0.1443497 -0.1986176 -0.089673564 -0.08035686 -0.042918153
-0.1958995 -0.08535768 -0.0004640821 -0.078382745 -0.07557865 -0.034318954 -0.07019169 -0.047072254
0.12297942 0.14612651 -0.024780205 0.074327126 -0.06982754 0.09387655 0.061373822 0.050339628
-0.1355073 0.11725499 -0.053828966 0.0021113653 -0.09106827 0.09756379 -0.14192244 -0.18647411
-0.06165242 -0.15164621 0.022850098 0.0587712 0.0321395 0.03682763 -0.030530717 0.16439435
0.048013803 -0.16457231 -0.11893786 0.047814168 0.110993065 0.02936379 0.08099699 0.110885486
-0.028630564 0.11472145 -0.027629167 0.0038039295 -0.072704 -0.0072101946 0.018186335 -0.007997098
-0.00277958 0.008703836 0.026224498 -0.054304246 0.101344444 -0.15520702 0.05467926 0.13121407
0.009709266 0.0020183073 -0.0877155 0.005787963 -0.01811964 -0.041302964 0.08762307 -0.11984438
0.1417641 0.12802999 0.06473006 -0.15956095 -0.07335799 -0.018017512 0.09058282 0.10625892
-0.13829964 0.02636873 -0.079729356 -0.07902941 -0.1405407 0.18833703 -0.03943869 0.14824182
0.04690371 0.021740263 0.0029367749 0.32837063 0.13645168 0.0943285 -0.11158696 -0.09064427
0.21024266 -0.07910429 0.023528812 -0.117332116 0.16072783 -0.10122905 -0.05283651 0.19590746
0.05542494 -0.08530201 -0.0061506885 0.010947348 -0.10490401 -0.12061903 0.13385732 0.12291859
-0.038792495 0.0070553576 -0.0010026314 -0.0051717134 -0.041536894 0.0036410843 0.08161883 -0.0660443
0.14781281 -0.16718112 -0.05628676 -0.08012876 -0.016326113 0.034099787 -0.038985427 0.07862249
0.00032300298 0.05509216 0.13444272 -0.18403016 -0.123849094 0.03959643 0.03829055 0.18069637
-0.16138117 -0.10021253 -0.07468563 0.0078339325 0.08095054 0.02974363 -0.044827174 -0.13326836
0.10766571 -0.06629766 0.08989715 -0.0154734785 0.021527369 0.20159143 -0.08246314 -0.075761594
0.060991097 0.01271815 -2.8776245e-05 0.046776026 -0.057599794 -0.07327595 0.15406658 -0.12148479
-0.022561213 0.08268194 0.06795875 0.059681606 -0.0059100324 0.0449757 0.05559178 -0.111958124
0.0063679535 -0.06331448 -0.064183846 -0.09100354 0.058200344 -0.10566756 -0.13740334 0.03141928

network_body._body_endoder.seq_layers.2.bias f4 [128]
00000000: a1cd a93c fda1 553b e282 853c 9f41 7fba
00000010: 887a edbb 6704 903b 897a 763b f840 a33c
00000020: 680e 84bb 083d de3c bd0c fe3a 596b 763c
00000030: 1eb2 173c 64f8 8d3c 445a c6bb 05f5 1a3c
00000040: 56ad d23b 7045 03bc 4244 373c af2a 063c
00000050: edb6 603c 4eeb 543c 7483 203c 87b2 343c
00000060: 9dbd 183d 964e 9fbb f865 863b fc86 d83c
00000070: 8b5a b33b c497 d73b 563f 4bbc 7094 3f3a
00000080: 907b 903b 5b82 1cbb 9244 3d3c 30e5 f539
00000090: 5dc6 653c 3278 30bd b7da 653c 9d60 9d3c
000000a0: c4fe c03a 0d94 9f3c 2b63 393c 3c8e b33c
000000b0: 1a77 ea3b 7a8f 863c 4ccd 323c 8a6d 8e3b
000000c0: 073a 2a3c 5c91 36bc f05b 90ba 7f6d bb3b
000000d0: 16e9 39bc ae35 81bb de75 af3c 87db 343c
000000e0: 6688 7a3b beeb 343d 4a37 4dbc b495 e83c
000000f0: 6457 9fba b8d5 48bc 22bb 52bc c1cf ab3c
00000100: 8a96 9b3b cb2e b33c 24e7 6737 1137 d33b
00000110: 51a5 cfba fb4c 763c b8df 803c 1d84 863c
00000120: abf5 5b3c 0429 f23b 9de2 963b 31f9 7c3c
00000130: 6d1d cf3c 48c5 deba b60b 6a3c f38e 143c
00000140: 6fc0 223c bca4 a53c c255 623c 7ea3 b1ba
00000150: 5ca2 4b3c b54f 993c aca2 e13b b1b4 8a3c
00000160: a015 88b6 f680 9c3c d15b 223b 1ed9 3d3c
00000170: 9112 863b f0b8 af3c 1438 fd3b 8714 55bb
00000180: 2e03 fd3c 449a 763c eea8 053d 9ad4 fc3b
00000190: bd64 c33c 29f5 813c 0b11 88bc daf9 023c
000001a0: 743e c03c 60f6 2dbc 6f89 ef3b 097d 4a3c
000001b0: 8169 273c bb12 85bc c14c aa3b 33c3 273c
000001c0: 825c c53b bca8 86ba b370 3e3c 35dd a53c
000001d0: a87d e23c 14be beba e836 3138 5c09 713c
000001e0: 2b18 a43c 50ce 073c 1a9c 223b 9345 dd3c
000001f0: 6dc7 fe3c 27dd 613c a38a e23b a9f4 833c
0.020727934 0.0032597773 0.016297761 -0.00097372563 -0.007247273 0.004395056 0.0037609658 0.01992844
-0.0040300377 0.027128711 0.0019382458 0.015040242 0.009258775 0.017330356 -0.006053241 0.009457831
0.0064293547 -0.008012161 0.0111857075 0.0081888875 0.013715488 0.012995554 0.009796966 0.011028892
0.037290204 -0.004861663 0.004101511 0.026431553 0.00547344 0.006579371 -0.012405237 0.00073081907
0.004409261 -0.002388141 0.011551993 0.000469008 0.014024344 -0.043083377 0.014029196 0.019211108
0.0014724364 0.019479776 0.011315147 0.021918409 0.0071553113 0.016425837 0.010913204 0.004346554
0.010389811 -0.011143055 -0.0011013728 0.00571984 -0.011347076 -0.0039431667 0.021418508 0.0110386675
0.0038228272 0.044170134 -0.012525389 0.028391697 -0.0012156782 -0.012257986 -0.012861999 0.020973088
0.0047481703 0.021872899 1.382249e-05 0.0064457734 -0.0015842115 0.015033002 0.015731677 0.016420418
0.013425271 0.0073901433 0.004604651 0.015440271 0.025282586 -0.001699605 0.014285019 0.009067285
0.009933575 0.020220153 0.013814392 -0.0013552753 0.012428846 0.018714765 0.006885847 0.016931864
-4.0556333e-06 0.019104462 0.0024773965 0.011587409 0.0040915688 0.02145049 0.0077276323 -0.0032513456
0.030885305 0.015051428 0.032631807 0.007715774 0.023851747 0.015863972 -0.01660969 0.00799414
0.02346728 -0.010617822 0.0073100845 0.012358912 0.010218025 -0.016244283 0.005197138 0.01023941
0.0060229907 -0.0010273675 0.011623549 0.020247081 0.027647808 -0.0014552497 4.2251224e-05 0.014711704
0.020031055 0.008288935 0.0024812282 0.027010715 0.031100953 0.013785637 0.0069134994 0.016107874

action_model._continuous_distribution.log_sigma f4 [1, 3]
00000000: a7f2 59bd a4e0 9abd 626b 043e
-0.053209927 -0.07562378 0.12931588

action_model._continuous_distribution.mu.weight f4 [3, 128]
00000000: f526 143b b81c a83d a400 99bb 2c95 66bd
00000010: 3f77 8d3b 74d3 0fbd f146 3dbd a147 ac3d
00000020: 108d 00bc 3bd8 383d 23d6 aebd dca5 1abe
00000030: d0e0 1bbb 141d 4bbd d58e 233b a15c d6bc
00000040: 64d5 9f3d f679 b63c ec9d 143d 6e91 94bc
00000050: b865 03bc baa5 763d d48e 71bd 7db1 65bd
00000060: 24e1 e53c 0aa0 763b 3e32 d33c 2630 083e
00000070: 9921 34bd f2a6 b43d 011d f73c d2b3 dbbd
00000080: ea01 86bd ddc7 9e3c 34a7 893d 156f 99bc
00000090: a919 103c 4ddd a1bc d046 d53d 1bfd 103e
000000a0: b191 52bd 322f 853d acc2 cfbd 3ccc 85bd
000000b0: 9d03 d0bd dca0 f43c e3a9 d9bd 7998 2dbd
000000c0: b087 5dbd 3bf7 f83c 8098 dbbc 94f8 8ebd
000000d0: fef0 d6bc 68ed fa3c 5867 0a3e 5d39 da3d
000000e0: c1fa 29bc 3b55 163d 6b9e 94bc 8df4 1d3c
000000f0: 0983 b93a 2d50 3abd 545f c13c aebe 50bd
00000100: 1450 273b 566f a83d 7137 a4bc 42d8 20bd
00000110: 888e 3fbd 1bad 6f3d c123 b63d fcdc bb3d
00000120: 7a92 ca3c 24a4 61bd 420b 71bd 094d 393d
00000130: e6c6 15be d6b8 f9b9 2c04 ce3d badb eabd
00000140: 44c9 8f3c 1c5e 503c 2c83 e23c cdd5 cf3c
00000150: cfe6 f1bd 4aaf 25bb a7f0 393c 4478 1e3e
00000160: f9e3 0e3d 0b05 cdbd d9dd 9ebd 58d8 97bd
00000170: 9395 d73c 2e94 cc3d ca1d 103d e21c 6d3c
00000180: 62cd 493d cf17 823d 59d8 c1bd 8b03 a9bc
00000190: acd4 f5bd c1df 99bd 6b0e 6d3b f55d 8b3b
000001a0: 1f06 26bd c7c4 863d b6b6 b73d 05d3 e73c
000001b0: 0297 66bd f84e c5bc acd1 c4bb ea84 a5ba
000001c0: 6da5 acbd 4fb0 893c 437c 6fbd 284f 18bd
000001d0: dad6 d4bd 9b68 60bc 57e3 423d ae48 d73b
000001e0: 152d fa3c 9728 0bbd 4ac9 b1bc 5e02 063d
000001f0: c1ea bbbd d340 bebd 2dc1 e5bd 0b8e 223d
00000200: f296 91bd 3767 55bc 5ed6 12be 793c 2cbd
00000210: f9c9 e2bc ab02 8bbd af52 0e3c 24b6 613d
00000220: 8c69 0c3d 58f9 6d3d 2e9e 80bd fbc5 103c
00000230: de1c f23d 90dc f03d b7dd 60bd 5622 2abc
00000240: b782 23bd b51d 1d3d 90cd 85bc 9310 c2bc
00000250: 11e2 da3d f556 b8bd e87e 8bbd d5c6 23bb
00000260: bc81 1d3d 692e 85bd 21f6 4dbd 20f9 81bd
00000270: 7237 4dbd 4e14 893c 0359 5d3b 1a3e 60bd
00000280: 20f7 b03c 7c26 0e3d afa2 37bd 7ded 2f3d
00000290: faa1 19bd 74b8 533c 928a 0fbd 2a7d fcbc
000002a0: 26c3 2c3c 7531 6cbd e04d 213d bd65 6bbd
000002b0: a5ca a03d a84c e2bc bf99 a4bd 8d79 3b3d
000002c0: b501 0e3d 3499 7fbb f97a 04bd 0964 dc3d
000002d0: 14ff c13b 8b31 5d3d 849c efba 989b 95bc
000002e0: 1ccd 44bd 510f 00bd 149d 53bd a46b 1f3d
000002f0: 52cf a4bd c700 713c ac32 563d 90e9 ccbd
00000300: 49f7 183d 8019 df3d e1ed 95bd e7ef 053d
00000310: 53aa a4bc 4187 833d 078c 3cbd c1a7 65bd
00000320: bc53 5dbd 6be7 89bd 7046 963d a3bd 6abd
00000330: 6b5e 093d 6d67 30bd e128 8bbd 2fe7 6c3d
00000340: c99e 923d 28a4 02be 2d7c 883d 60ec b03c
00000350: a2c6 963d 5b46 a0bc a354 97bd 4b30 853d
00000360: 7e8e 14bd 8e38 9e3d 491c 33bd 4cbc 9dbd
00000370: 57cc 8cbd 8014 e33c b240 243b 649a 433d
00000380: 95c7 30bc 81bd 393d 54fb 493c d399 913b
00000390: 300c 4bbd 85ae 7a3d 5232 6d3c 25bb a13d
000003a0: 4e55 b83d 8263 443a aa2c 8d3d c8ac ff3d
000003b0: b537 703d 4ec0 35bd f9ac a53d b1a3 b33d
000003c0: 5623 843b fbb1 2bbc aca1 9dbd c229 00be
000003d0: 2401 653d b614 e7bb 705b 753d adf4 ed3d
000003e0: 731b 943d d3a9 70bd 45e0 e6bb bfca 5abb
000003f0: 8618 7d3d 184b b33d 0724 d3bc a3bd 0cbe
0.0022606228 0.08208603 -0.004669266 -0.056294605 0.0043171938 -0.035113767 -0.046210233 0.084121
-0.007846132 0.04512809 -0.08536937 -0.15102333 -0.0023785122 -0.049588278 0.002495696 -0.026167216
0.07804373 0.022274952 0.03628342 -0.018135753 -0.008019857 0.060216643 -0.058974102 -0.05607747
0.028061457 0.0037632012 0.025780793 0.13299617 -0.043977354 0.08820905 0.030165197 -0.107276574
-0.06543334 0.019382412 0.067213446 -0.018729726 0.00879518 -0.019758845 0.10413897 0.14159052
-0.051408473 0.065031424 -0.101445526 -0.06533095 -0.10156939 0.02986186 -0.106281064 -0.042381737
-0.05408448 0.030391326 -0.026806116 -0.06981006 -0.02623796 0.030630782 0.13515985 0.106554724
-0.010374726 0.036702376 -0.018141946 0.009640825 0.0014153431 -0.045486618 0.023605026 -0.050963096
0.0025529908 0.08224361 -0.020045968 -0.03926874 -0.046766788 0.058514696 0.08893538 0.09173009
0.024728049 -0.055088177 -0.058848627 0.045239482 -0.14626655 -0.00047630694 0.100593895 -0.11467691
0.017552026 0.01271775 0.027650438 0.025370503 -0.11811601 -0.0025281482 0.01134888 0.15475565
0.03488538 -0.100107275 -0.07757158 -0.07414311 0.02631644 0.099892005 0.03518466 0.014472218
0.049268134 0.063521974 -0.09465093 -0.020631572 -0.120034546 -0.07513381 0.0036171924 0.004253144
-0.04053318 0.06580501 0.08970396 0.028298864 -0.056296356 -0.024085507 -0.00600644 -0.0012628112
-0.0842999 0.016807703 -0.058468115 -0.037184864 -0.10392542 -0.013696815 0.04758009 0.0065699434
0.030539075 -0.033974256 -0.021702427 0.0327171 -0.09175635 -0.09289708 -0.11218486 0.039686244
-0.07108869 -0.013025097 -0.14339587 -0.04204986 -0.027684199 -0.06787618 0.0086867055 0.055105343
0.034280345 0.05809912 -0.062801704 0.008836265 0.11821912 0.11760819 -0.054898944 -0.010384163
-0.03991958 0.03835841 -0.016333371 -0.023689544 0.1068765 -0.09000961 -0.06811315 -0.002499034
0.038453802 -0.06502993 -0.050283555 -0.06346345 -0.050101705 0.016733315 0.003377498 -0.054746725
0.021602213 0.03470467 -0.04483288 0.042951096 -0.03750799 0.012922395 -0.03504426 -0.030821402
0.010544574 -0.057664353 0.039380908 -0.057470072 0.078511514 -0.027624443 -0.08037137 0.045770217
0.034669597 -0.0039001228 -0.03234384 0.10761268 0.0059203003 0.054002326 -0.0018280898 -0.01826267
-0.04804717 -0.031264607 -0.051663473 0.038921013 -0.08047356 0.014709658 0.05229442 -0.10005486
0.037345205 0.108935356 -0.073207624 0.03269949 -0.020100748 0.06422282 -0.046031978 -0.056068186
-0.054034933 -0.067335926 0.07337654 -0.057309758 0.03353731 -0.043067385 -0.067949064 0.05783766
0.07159192 -0.12757933 0.0666431 0.021597087 0.07362105 -0.019564798 -0.0738919 0.06503352
-0.036268704 0.07725631 -0.043728147 -0.077019304 -0.06874912 0.027719736 0.0025062975 0.04775466
-0.010789772 0.04534674 0.012327988 0.004443386 -0.04957217 0.06120159 0.014477329 0.07897023
0.090006456 0.00074916345 0.068932846 0.12484127 0.058646876 -0.04437285 0.080896325 0.08771456
0.0040325327 -0.010479446 -0.07696852 -0.1251593 0.05590929 -0.0070520295 0.059901655 0.11618934
0.07231798 -0.058755707 -0.007045778 -0.0033385006 0.061790965 0.08754557 -0.025774015 -0.13744216

action_model._continuous_distribution.mu.bias f4 [3]
00000000: 751c d73a 054d 51bb 1204 9fbb
0.0016411679 -0.0031936776 -0.00485278

action_model._discrete_distribution.branches.0.weight f4 [2, 128]
00000000: 4ccf e03c 9dac aebc 4971 9ebc e04c a23c
00000010: ce7e 063d 1971 9e3c 659c 6a3d a85b 23bd
00000020: d3d7 063d 67fd 12bd cefc 9abc 594c 4d3b
00000030: 4a40 afbc 269b 443b 13b9 aa3c a9f1 52bc
00000040: 37cc 27bd c2aa 023c 7788 453b 00c1 373d
00000050: 31dc a1bc 801f 69ba da63 9ebc 5575 27bb
00000060: 72d0 3dbd 0f93 58bc 854a d03b a835 debc
00000070: 6e62 65bc 9699 11bd b4d5 853c 665e 03bc
00000080: 0fda ca3b b9f5 433c 9e68 0b3c 16a0 4ebc
00000090: 6b2c 9e3c bbd2 d63c 2009 29bc e116 35bc
000000a0: 3305 f63c 40f1 21bc e201 18bc a294 2abd
000000b0: 5204 d3bb 5f97 85bb 6937 dcba 669e 2fbd
000000c0: 891b a1bc af67 86bc 1a56 723d 2ee6 1dbc
000000d0: 22d1 6abc 7eb6 2cbc 33be a3bc 0ae8 85bb
000000e0: 6e3b e23b 19f7 c6bc 3ccd 9c3c 05d6 64bc
000000f0: 3a86 183d 28cb 4e3c 4413 39bb 643a 1bbb
00000100: daa3 1bbd 5d6e 02bd c889 2b3d 94d6 943b
00000110: 005f 2e3b 5ea4 79bd e9c1 18bd fa50 60bc
00000120: 806c 0ebd b5b7 de3c cd04 91bc 97eb 45bc
00000130: 1eb0 c0bc fbd7 f03b 9f33 b0bc 3de6 adbb
00000140: 21c0 adbc 48df b33a 9513 13bd 6a2c cc3c
00000150: c321 27bd 8971 d2bc bd2c d03c cb14 adbc
00000160: 420e e53c 5244 23bc 778a dabc 5df5 e63b
00000170: 8a6a 6b3c f717 aebc 6c6d 85bc ae28 42bc
00000180: 857e bebc 7642 eabc 7def 28bd 307d 4abd
00000190: b5d4 023c bacf 73bc c920 ac3b 2169 73bb
000001a0: eae5 f8bc f2d7 ad3c fb37 0abd d866 88bc
000001b0: 04b4 17b9 c0e2 a13b e24f 9e3c 3b28 bbbc
000001c0: a95a 0a3d 3330 6abc 2533 c23b 4a6e d6bc
000001d0: 7ebb f6bb 7518 273d 65a1 87bc f0dc 31bd
000001e0: 4577 c2bb f921 063d 5aaa a13c 8b2c 62bd
000001f0: d3d5 49bc f8f8 babc 1829 afbb 7b24 8b3c
00000200: 4a9d aabc 68d9 c5bb 666a b1ba a491 03bd
00000210: 2ce4 abbc 0372 a8bc 8cd8 0abd 6239 d43c
00000220: 42cd dcbc 45e6 243d 796a ac3c a334 9dba
00000230: a9f1 23bc 7d1d ed3b 664e babc 1e48 8a3c
00000240: 2d88 333d 9ce1 20ba 7f1e 4b3c 3419 2fbd
00000250: d53e 0e3d 1ed8 853c 4ee6 6e3c c749 11bc
00000260: 562a 453d 652b fd3b 4e33 c13b 4e7f 2b3d
00000270: 0de5 603b 9541 073d a406 b6bc d820 a9bb
00000280: 0697 653c 2042 30bc b76a d2bc cefa 0a3d
00000290: 3bf8 f6bb 2352 4cbc e60a 333c 67ba 603c
000002a0: 7c3e 0fbd 87fa 0cbc 2597 d23b b8c1 733d
000002b0: 5329 d63c 1b1f e4bb 7096 36bc ff8c a83c
000002c0: b59c f8bb 1dc4 803c a0f8 69bd 4480 253c
000002d0: 023b 023c 066c 08bc 73d8 a63b 200e ae3b
000002e0: d4c4 373b 09dc de3c 8f87 5d3b a853 d13c
000002f0: ce25 8fbc 75a5 48bc 6df3 5abc a2dd a4bc
00000300: 9e33 023d 40bf d53c dbc4 fcbc c70e 833b
00000310: 2c94 91bb cbf9 5d3d 47e4 023d d45b 673c
00000320: d1cf de3c 3725 b6bb 9da9 9e3c 39a6 0cbc
00000330: af08 d33c 3538 b2bc f22c a73c 40d0 4bba
00000340: a618 c43b fb23 a6bb 7122 f33c f73c 53bc
00000350: ec57 303c 1243 663c c59e fabc 8078 ec3b
00000360: 9670 10bd 1b93 ac3b f8bc 483c 8e8d 2c3c
00000370: d4ed 0abb 23c7 803c 60f0 7f3c 17d9 16bc
00000380: a509 003b 1409 a43c 7fec da3c 8f79 203d
00000390: 9996 3a3b b3a4 2fbc 7b6c 203b 8214 b4bb
000003a0: 86d1 5d3d df0b 14bc fffd 073c cd19 523c
000003b0: 9c01 ca3c 6d13 663a adbc 80bc 978d 103d
000003c0: 2644 1abd b50f 833c c95a 8cbb 8cbb 2a3d
000003d0: eab9 763b 17bc 45bd aa23 7a3c dee0 da3c
000003e0: aa05 8cba 4455 cfbc 227e 21bc 5bde 9d3d
000003f0: 6d5b 813c 151f a83c 153c d53b 91c5 fabb
0.027442597 -0.021322543 -0.019341128 0.019812047 0.032835774 0.019341039 0.057278056 -0.039882332
0.03292067 -0.035886195 -0.018919375 0.0031326024 -0.02139296 0.0029999702 0.020840203 -0.012874999
-0.04096624 0.007975282 0.0030141154 0.044861794 -0.019758316 -0.00088929385 -0.019334722 -0.0025552113
-0.046341367 -0.013218655 0.0063565397 -0.027125195 -0.014000518 -0.03554686 0.016337253 -0.008018112
0.0061905454 0.01196044 0.008508829 -0.01261141 0.01930829 0.026223531 -0.010317117 -0.011052818
0.030031776 -0.009884179 -0.009277793 -0.041645654 -0.006439724 -0.0040768827 -0.0016801181 -0.04287567
-0.01966645 -0.016406862 0.059164144 -0.009637399 -0.014332088 -0.010541556 -0.019988155 -0.004086499
0.006904057 -0.024287747 0.019140832 -0.013967042 0.037237383 0.012621678 -0.0028240243 -0.0023685927
-0.037998058 -0.031843532 0.041879445 0.0045421813 0.0026606917 -0.06094777 -0.037294302 -0.013691181
-0.034771442 0.027187208 -0.017702485 -0.012080095 -0.02352148 0.0073499656 -0.02150899 -0.0053069876
-0.021209778 0.0013723159 -0.035907347 0.024923522 -0.040803682 -0.025688903 0.025411958 -0.021128079
0.0279609 -0.009965019 -0.026677353 0.0070482926 0.014368663 -0.021251662 -0.016287528 -0.011850519
-0.023253689 -0.028596144 -0.04124402 -0.049435794 0.007985284 -0.014881069 0.0052529317 -0.003714152
-0.030383069 0.021221135 -0.033744793 -0.016650602 -0.00014467543 0.004940361 0.0193252 -0.022846332
0.033777867 -0.014293718 0.005926507 -0.026175637 -0.007529675 0.04079481 -0.016556451 -0.043423593
-0.005934628 0.032747243 0.01973455 -0.05521826 -0.012319046 -0.022823796 -0.005345475 0.016985169
-0.020826954 -0.0060378797 -0.0013535738 -0.032121316 -0.020982824 -0.020562178 -0.03389792 0.025906269
-0.026953343 0.040258665 0.021046864 -0.0011993836 -0.010006347 0.0072361813 -0.022742461 0.016880091
0.04383104 -0.0006137134 0.012397408 -0.042748645 0.03472789 0.016338404 0.014581276 -0.008867688
0.048136078 0.0077261203 0.0058960086 0.041869454 0.0034316212 0.03302153 -0.022219963 -0.005161386
0.014013058 -0.010757953 -0.025685651 0.033930592 -0.0075369156 -0.012470755 0.010927891 0.013716317
-0.0349717 -0.008604652 0.0064267092 0.059510916 0.026142752 -0.006961716 -0.0111442655 0.020575045
-0.0075870403 0.015718514 -0.057121873 0.010101382 0.007948639 -0.008326536 0.0050917207 0.0053117424
0.0028040903 0.02720453 0.0033802723 0.025552586 -0.017474081 -0.012246479 -0.013363701 -0.020125214
0.031787507 0.026092172 -0.030855587 0.0039995643 -0.0044427123 0.0541933 0.031955983 0.014121015
0.027198704 -0.0055586356 0.019367987 -0.008584552 0.025760977 -0.021755317 0.020407174 -0.0007774867
0.0059843836 -0.005070207 0.029679509 -0.012892953 0.01076315 0.014054077 -0.030593285 0.007216513
-0.03526362 0.00526656 0.012252085 0.010531796 -0.0021198886 0.015719956 0.015621275 -0.009207032
0.0019536999 0.02002386 0.026724098 0.039178427 0.002847111 -0.01072042 0.0024478722 -0.005495609
0.054154895 -0.009036033 0.0083003035 0.012823534 0.02465897 0.00087766984 -0.015714968 0.03529128
-0.037662648 0.0159987 -0.0042832834 0.041682765 0.0037647435 -0.04827508 0.015267292 0.026718553
-0.001068284 -0.025309213 -0.009856733 0.077084266 0.015790666 0.020522634 0.0065074065 -0.0076529463

action_model._discrete_distribution.branches.0.bias f4 [2]
00000000: 1d6a 05bd 1c6a 053d
-0.0325719 0.032571897
