Assets/Learning/AIRollABall/results/WithObstacle/AIRollABall/AIRollABall-41078.pt (torch, 583950 bytes, 42 tensors)

network_body._body_endoder.seq_layers.0.weight f4 [128, 50]
-0.016165864 0.021708855 0.14788134 0.033295605 0.018559385 -0.13073069 -0.0536385 -0.32635993
0.17860873 0.022385575 0.2713157 -0.13405444 0.070279025 0.05775559 -0.32204887 0.09120607
0.3537778 0.1338478 0.0376416 -0.10241909 0.1066541 -0.0401659 -0.023034593 -0.3408482
0.33010548 -0.012002891 0.012375455 -0.27914715 -0.16031803 0.15925375 0.0885674 -0.22400498
0.026894568 0.112010606 -0.026666416 -0.060047362 0.05284796 0.17124099 -0.23489955 0.04164527
0.1153694 -0.08573491 0.24913876 -0.15526721 0.24919663 -0.34695435 0.100097395 -0.019085297
-0.36716658 -0.12354254 0.0019890969 -0.31870955 0.23904443 -0.08185247 0.1301669 -0.1266498
0.017914874 -0.020249696 -0.0320642 -0.096408695 0.2334084 -0.0502597 -0.097095095 0.0017978273
-0.14243163 0.13790606 -0.09041293 -0.24197978 0.06268351 -0.08763423 0.14218119 0.40712893
-0.13642421 -0.112669244 -0.10195839 -0.15630943 0.071694344 0.22563082 -0.02523598 -0.09798595
-0.22302978 0.00034318859 -0.1146598 -0.023162771 0.11891053 -0.105068736 -0.12914616 0.13268046
-0.022623021 0.09185813 -0.09092967 -0.17304309 0.02720222 0.028865105 -0.08981057 -0.15328008
-0.07642806 -0.24443302 0.1616227 0.32304093 0.068330675 0.26676294 0.24688244 -0.16444372
0.08047704 -0.10877348 -0.20084904 0.09781942 -0.0010995598 0.026114987 0.001594198 0.058497127
0.2387903 0.013632194 -0.17031403 -0.24932335 -0.0453892 -0.07257593 0.30891973 -0.0703969
-0.044261638 -0.08130745 0.0052715414 -0.18747155 0.20912105 -0.09929355 0.05361838 -0.009709193
-0.19556479 0.1341426 -0.11030373 0.10735531 -0.08476317 0.0056660236 0.25071123 -0.096708566
0.13784294 0.2524113 0.028673671 0.04859355 -0.22422433 0.035862643 -0.050464116 0.21946725
-0.11465407 0.23181239 0.12620957 0.1961412 0.19447945 0.03867221 -0.12347991 0.1223012
-0.020897018 -0.10402431 0.33908144 -0.062227618 -0.13982417 0.11973892 -0.017131988 -0.23009923
-0.3401054 0.03659294 0.060145292 0.09636175 0.059894454 0.16587217 -0.044240493 -0.26857385
0.12736395 0.11984504 -0.1283379 0.1360903 0.22803873 0.11190485 0.10460593 0.14399284
0.062057704 0.43869638 0.027825158 -0.03761962 -0.05958997 0.16947886 0.31921148 0.041010257
0.0038525176 -0.082311474 -0.048946306 -0.28177765 0.031338163 -0.16263711 0.13458592 -0.057353836
-0.19301578 0.053888943 -0.22823633 0.0027557851 0.20466377 -0.0036784029 0.3652028 -0.1187998
0.00564943 -0.30869734 -0.09042619 0.27291906 0.044520635 -0.04885451 -0.12808155 -0.016096279
-0.04157902 -0.08493504 0.12535512 -0.07101273 0.33468905 -0.012772192 -0.07783483 -0.016093139
-0.0674061 0.30442837 0.089955695 -0.09092998 -0.090318926 0.072144866 0.1131367 0.0041171354
-0.027698943 -0.049399897 -0.19523898 -0.080252886 0.22394927 0.25098062 0.10534871 0.12937391
0.07285264 0.15860103 0.24733418 -0.02769501 0.24156477 -0.15278287 0.056808684 0.32795098
0.16716647 0.07609912 0.1444036 0.1105929 -0.048355754 0.0371685 -0.14648078 0.19256064
0.010934958 -0.18557832 0.12861899 0.16291146 0.16535446 0.19419044 -0.06201987 -0.25616387
00000000: 466e 84bc c5d6 b13c 356e 173e f960 083d
00000010: da09 983c 44de 05be 0bb4 5bbd a618 a7be
00000020: 35e5 363e f461 b73c e4e9 8a3e 9145 09be
00000030: 73ee 8f3d 2091 6c3d 97e3 a4be 3fca ba3d
00000040: 5d22 b53e 660f 093e 142e 1a3d 1ac1 d1bd
00000050: 776d da3d 0085 24bd 0bb3 bcbc a883 aebe
00000060: 9603 a93e c6a7 44bc 6cc2 4a3c 60ec 8ebe
00000070: 692a 24be 6a13 233e d362 b53d 9061 65be
00000080: ff51 dc3c d165 e53d 8773 dabc 39f4 75bd
00000090: 1a77 583d cc59 2f3e 8289 70be 3b94 2a3d
000000a0: cb46 ec3d c995 afbd 3b1e 7f3e 5efe 1ebe
000000b0: 672d 7f3e 00a4 b1be ddff cc3d c558 9cbc
000000c0: 42fd bbbe df03 fdbd 825b 023b e62d a3be
000000d0: 10c8 743e 45a2 a7bd 794a 053e 7cb0 01be
000000e0: 37c2 923c b1e2 a5bc c055 03bd ec71 c5bd
000000f0: 9d02 6f3e 1ddd 4dbd cbd9 c6bd 13a5 eb3a
00000100: 99d9 11be 3f37 0d3e 6a2a b9bd 8cc9 77be
00000110: 3660 803d 9379 b3bd f297 113e 3473 d03e
00000120: cab2 0bbe 22bf e6bd 8fcf d0bd 940f 20be
00000130: 7cd4 923d c40b 673e b0bb cebc dcac c8bd
00000140: eb61 64be feed b339 c2d2 eabd dabf bdbc
00000150: 5d87 f33d 472e d7bd e43e 04be 63dd 073e
00000160: ea53 b9bc 1e20 bc3d 5639 babd 3532 31be
00000170: 31d7 de3c 8376 ec3c 9bee b7bd 74f5 1cbe
00000180: 5186 9cbd a64c 7abe 6c80 253e 9f65 a53e
00000190: f4f0 8b3d 2795 883e c0ce 7c3e ef63 28be
000001a0: 25d1 a43d a1c4 debd 5fab 4dbe 8c55 c83d
000001b0: 1b1f 90ba 19ef d53c 69f4 d03a af9a 6f3d
000001c0: 7285 743e 9159 5f3c cd66 2ebe 9f4e 7fbe
000001d0: 07ea 39bd b0a2 94bd ba2a 9e3e 402c 90bd
000001e0: b14b 35bd 8584 a6bd e5bc ac3b 8bf8 3fbe
000001f0: d423 563e 6b5a cbbd f29e 5b3d 4f13 1fbc
00000200: 2342 48be ae5c 093e ece6 e1bd 1add db3d
00000210: 5098 adbd 0daa b93b 395d 803e 240f c6bd
00000220: b326 0d3e 0e3c 813e 0ce5 ea3c 080a 473d
00000230: 109b 65be b5e4 123d 76b3 4ebd 06bc 603e
00000240: c1cf eabd 3a60 6d3e 153d 013e 3dd9 483e
00000250: 9f25 473e c066 1e3d 09e3 fcbd 0d79 fa3d
00000260: 3930 abbc b30a d5bd 159c ad3e 63e2 7ebd
00000270: 112e 0fbe ae39 f53d 6258 8cbc 229f 6bbe
00000280: 4c22 aebe 7be2 153d e95a 763d 4f59 c53d
00000290: e353 753d 65da 293e 8535 35bd 8382 89be
000002a0: b26b 023e 5171 f53d 036b 03be 415b 0b3e
000002b0: fc82 693e 5f2e e53d a23b d63d dc72 133e
000002c0: 3830 7e3d d09c e03e 96f1 e33c 0817 1abd
000002d0: 9d14 74bd de8b 2d3e b06f a33e 5ffa 273d
000002e0: 857a 7c3b eb92 a8bd ec7b 48bd 2945 90be
000002f0: 725c 003d 588a 26be e4d0 093e dbeb 6abd
00000300: eea5 45be a7ba 5c3d c9b6 69be 679a 343b
00000310: 6193 513e 5c11 71bb ddfb ba3e 4f4d f3bd
00000320: db1e b93b 940d 9ebe 5e31 b9bd 0cbc 8b3e
00000330: 455b 363d ab1b 48bd cf27 03be 58dc 83bc
00000340: c34e 2abd 6cf2 adbd 185d 003e 1f6f 91bd
00000350: 5d5c ab3e 7542 51bc de67 9fbd c2d5 83bc
00000360: 360c 8abd 09de 9b3e b13a b83d 7f39 babd
00000370: 21f9 b8bd b0c0 933d 37b4 e73d 09e9 863b
00000380: e5e8 e2bc 8c57 4abd baec 47be a05b a4bd
00000390: f552 653e 8880 803e 11c1 d73d 987a 043e
000003a0: c433 953d 4f68 223e 2c45 7d3e a5e0 e2bc
000003b0: c15c 773e 1d73 1cbe 39b0 683d 31e9 a73e
000003c0: b02d 2b3e dbd9 9b3d 8ade 133e 887e e23d
000003d0: af10 46bd ff3d 183d 0fff 15be 9e2e 453e
000003e0: 8a28 333c 3e08 3ebe b2b4 033e 43d2 263e
000003f0: ae52 293e dcd9 463e 8c08 7ebd e927 83be

network_body._body_endoder.seq_layers.0.bias f4 [128]
0.005502391 0.007054864 -0.0032948349 0.0040222593 -0.00244906 0.0013014772 0.004815322 0.0043314476
-9.048368e-05 -0.002841192 -0.0041298 -0.006057616 0.0035033352 -0.008118928 -0.00077346875 0.003736592
-0.0030021123 -0.0024102991 0.0014771445 -0.005469287 -0.00038445636 0.0034249867 0.0014730059 0.0041625146
-0.00090856076 0.0015512012 0.0014146086 -0.0012138771 -0.001384513 0.0015347087 0.0016754613 0.004636881
-0.0054767705 0.007824847 -6.800117e-05 -0.0026494951 -0.0016686382 -0.0016579909 -0.000972573 -0.006825499
0.0010687006 0.0042248745 0.0032864432 -0.0043625375 0.0015611994 -0.003547221 0.00061963743 -0.0016512467
-0.00069889176 0.0021833126 0.003444485 -0.0026421908 -0.002038707 0.0047856313 0.0033205913 -0.003812422
-0.00085863913 0.0007369973 -0.0012993703 0.0045048734 -0.007000863 0.00025874504 -0.0027476817 0.001969957
0.0027032918 -0.0044878144 -0.0005199242 -0.0009364245 -0.0035157367 0.005923645 -0.0028977245 -0.00014365336
0.004491919 0.007350503 0.000445265 0.008843177 0.0026928952 0.005411315 0.003017938 0.0009546229
0.0016106153 0.0045459596 0.0026803976 0.003376463 0.0007196903 -0.0054938802 -0.0008712238 -0.0016598718
0.0011696046 -0.00040447584 0.0036833151 0.0032922125 0.00011761953 -0.005725873 0.004280639 -0.001458193
0.0008925434 0.0070961784 -0.0026198034 0.0018402394 -0.0004873923 -0.00059460476 0.0007509858 0.00011654778
-0.0008151016 -0.0026216882 0.004121278 -0.0030349474 0.004890679 0.001775247 -0.0032996766 -0.001723759
0.0012398652 0.0001531728 0.004244644 0.0030557793 0.00742009 -0.0034671533 0.0041712965 0.005644297
-0.003583143 0.0024042414 -0.00027376533 -0.0015157434 -0.0044417316 0.0020676968 -0.0020859328 -0.0036047162
00000000: 674d b43b 7d2c e73b 28ee 57bb 28cd 833b
00000010: 6980 20bb 5496 aa3a d9c9 9d3b d1ee 8d3b
00000020: 0ec2 bdb8 4b33 3abb 4653 87bb f77e c6bb
00000030: 3698 653b 4105 05bc 9cc2 4aba 9ce1 743b
00000040: 16bf 44bb 1cf6 1dbb bf9c c13a b437 b3bb
00000050: dc90 c9b9 be75 603b e011 c13a b465 883b
00000060: 7b2c 6eba ad51 cb3a 636a b93a f51a 9fba
00000070: 8c78 b5ba 4728 c93a 279b db3a faf0 973b
00000080: 7b76 b3bb c933 003c da9b 8eb8 27a3 2dbb
00000090: 35b6 daba f150 d9ba 45f4 7eba 6fa8 dfbb
000000a0: a413 8c3a d170 8a3b 5e61 573b 9ef3 8ebb
000000b0: 29a1 cc3a 7e78 68bb 2a6f 223a a56e d8ba
000000c0: d535 37ba e815 0f3b debc 613b 9b28 2dbb
000000d0: d49b 05bb c9d0 9c3b 479e 593b d4d9 79bb
000000e0: 4c16 61ba 0d33 413a a24f aaba 9e9d 933b
000000f0: 7f67 e5bb 2ca8 8739 7312 34bb 651a 013b
00000100: b629 313b 840e 93bb 864b 08ba 627a 75ba
00000110: 4668 66bb 231b c23b c0e7 3dbb a8a1 16b9
00000120: f330 933b 7ddc f03b 7572 e939 f9e2 103c
00000130: 497b 303b 6651 b13b 99c8 453b a93f 7a3a
00000140: 481b d33a 46f6 943b 9ca9 2f3b a647 5d3b
00000150: 99a9 3c3a 0206 b4bb d762 64ba 0e90 d9ba
00000160: 6b4d 993a d40f d4b9 c663 713b 29c2 573b
00000170: 81aa f638 1ba0 bbbb 9a44 8c3b d620 bfba
00000180: 93f9 693a 0f87 e83b 02b1 2bbb 3034 f13a
00000190: b088 ffb9 40df 1bba cedd 443a 1d6b f438
000001a0: 8bac 55ba a1d0 2bbb c90b 873b f8e5 46bb
000001b0: fd41 a03b 68af e83a 633f 58bb c1ef e1ba
000001c0: f982 a23a 039d 2039 a816 8b3b 7843 483b
000001d0: 3a24 f33b 2e39 63bb 5faf 883b ccf3 b83b
000001e0: 2ad3 6abb 7a90 1d3b 2988 8fb9 e9ab c6ba
000001f0: f28b 91bb 3282 073b 25b4 08bb 1a3d 6cbb

network_body._body_endoder.seq_layers.2.weight f4 [128, 128]
-0.15117025 0.0077021304 0.011511804 -0.030899774 -0.12280926 -0.028062915 -0.085962795 0.09304605
-0.1032705 -0.058060665 0.068679824 -0.093544014 -0.063843764 -0.19182403 0.091995224 0.048584715
0.15211731 0.050777514 -0.004984319 0.05687453 -0.13738412 0.084573485 -0.07577302 -0.08936009
-0.026958479 -0.09467471 0.13415536 0.13215053 -0.016875457 0.046736006 -0.07410518 -0.033861876
0.007840164 0.030759534 0.10637308 0.08522866 -0.08947767 -0.023142004 0.0017625319 -0.0703061
0.069122 0.12851295 0.03429609 0.040694725 0.10241597 0.20052455 0.007536319 -0.042893883
0.07061372 -0.06157065 -0.17014192 0.16024382 0.014120374 0.119377606 -0.059302762 -0.08061714
0.19195828 -0.029905768 -0.017325113 0.05446585 0.029212067 -0.03112896 0.035696186 -0.065274134
0.03832745 -0.059209436 0.072090656 -0.06451132 -0.13647965 -0.031604927 0.026696282 -0.15850043
0.13573518 -0.07876016 0.0003778674 -0.10241542 0.096690014 -0.008850475 -0.1590705 -0.09416086
-0.0063237906 0.023585694 0.046487216 0.055256233 0.0018917993 -0.0009905939 -0.01758809 0.16221903
-0.077821106 0.02071317 -0.039559115 -0.04224227 0.0884752 0.032819707 0.16306952 -0.06606875
-0.07656959 -0.13719483 0.18281427 0.07881161 -0.055043794 0.07827468 0.027142663 -0.012787775
0.022215344 0.019954538 -0.024118874 0.14593637 0.027420612 0.03319797 -0.010044702 0.06939892
0.036070835 -0.17105013 -0.038603507 0.11127557 0.013110272 0.08613805 0.002391447 -0.028116154
0.08930911 -0.09519785 0.017246384 -0.104430296 -0.07801706 0.14112654 -0.14974506 -0.01222414
0.008143593 -0.009865128 -0.05776263 -0.03460745 -0.17401448 0.05879297 -0.04835588 -0.06371269
0.03623357 -0.1266021 -0.12497128 -0.013309921 -0.07347213 -0.09871618 0.19203532 0.008413304
-0.0005746565 0.14521782 -0.0017704938 -0.02451606 -0.023806728 -0.038107112 0.10236818 0.12325295
-0.11341864 0.118938036 -0.041625723 0.060311753 0.14572646 0.076412745 0.0097154435 0.17356545
0.009363856 -0.14375255 -0.091718234 -0.050432067 0.07631581 0.025844682 0.10393822 -0.07494445
-0.09148022 -0.18129274 -0.1393292 0.06260691 0.049455002 -0.18377823 0.09317895 -0.046777613
-0.04745776 0.124960184 -0.0028875219 -0.0030009092 -0.16207731 0.020587489 -0.05436853 -0.20330186
0.005011522 -0.0889373 0.08044367 0.014036688 0.090095244 -0.016811041 -0.18122263 0.10393298
-0.13016935 -0.011314723 -0.040288154 0.039653044 0.026188469 -0.16552734 0.041510414 0.052844517
0.034385443 0.111380234 -0.11687556 0.12177108 -0.025045486 -0.08585897 0.0075828573 -0.038051344
-0.116072 -0.041517105 0.0038842743 -0.14333892 0.033098597 -0.20899262 0.25231406 0.05047857
0.1395437 0.0059631527 0.07076643 -0.024374096 -0.124854274 -0.0044028396 0.07055224 -0.02473756
-0.18830279 -0.101335466 0.046748992 -0.09244128 -0.024801904 0.06073172 0.0027986413 -0.0988231
0.052130997 -0.02567091 0.028809568 0.025263933 -0.022239966 0.18246765 -0.10764635 0.117348894
-0.119105846 0.0428798 -0.093711786 -0.101823084 0.100794256 -0.14602707 0.062881656 -0.05021822
0.014909664 -0.047353078 -0.018507073 -0.018018363 -0.03923073 0.14749911 0.05680613 -0.05212499
00000000: 60cc 1abe 2762 fc3b 019c 3c3c 8621 fdbc
00000010: 6c83 fbbd 33e4 e5bc 430d b0bd ed8e be3d
00000020: 7c7f d3bd 05d1 6dbd 02a8 8c3d 0194 bfbd
00000030: 85c0 82bd 856d 44be fe67 bc3d c400 473d
00000040: a4c4 1b3e 15fc 4f3d 8053 a3bb 44f5 683d
00000050: 6cae 0cbe dd34 ad3d e32e 9bbd 6c02 b7bd
00000060: 07d8 dcbc d0e4 c1bd 0660 093e 7852 073e
00000070: 663e 8abc 416e 3f3d 75c4 97bd c0b2 0abd
00000080: 0874 003c 6bfb fb3c 21da d93d 5d8c ae3d
00000090: 1240 b7bd 4d94 bdbc c204 e73a a5fc 8fbd
000000a0: d68f 8d3d e698 033e 0f7a 0c3d 83af 263d
000000b0: 77bf d13d 4f56 4d3e 3af3 f63b 7fb1 2fbd
000000c0: ed9d 903d 8231 7cbd af39 2ebe f516 243e
000000d0: 2459 673c 3f7c f43d 74e7 72bd 991a a5bd
000000e0: b690 443e f1fc f4bc 65ed 8dbc 9517 5f3d
000000f0: 254e ef3c 2902 ffbc 2a36 123d 72ae 85bd
00000100: 3ffd 1c3d 9885 72bd 44a4 933d 831e 84bd
00000110: 52c1 0bbe 2b74 01bd 29b2 da3c f04d 22be
00000120: 2afe 0a3e 024d a1bd 811c c639 2dbf d1bd
00000130: 6a05 c63d 9501 11bc 61e3 22be 69d7 c0bd
00000140: cd37 cfbb c936 c13c 6169 3e3d 5c54 623d
00000150: 40f6 f73a d1d6 81ba e614 90bc bf1c 263e
00000160: ac60 9fbd aaae a93c bd08 22bd 3b06 2dbd
00000170: 7c32 b53d f56d 063d b2fb 263e 0e4f 87bd
00000180: 84d0 9cbd cd7c 0cbe aa33 3b3e fb67 a13d
00000190: 9a75 61bd 7a4e a03d 4a5a de3c d183 51bc
000001a0: f4fc b53c b377 a33c f294 c5bc 5870 153e
000001b0: 31a1 e03c 98fa 073d 8992 24bc 0521 8e3d
000001c0: 03bf 133d c427 2fbe b61e 1ebd 72e4 e33d
000001d0: 77cc 563c 2569 b03d d3b9 1c3b d953 e6bc
000001e0: b2e7 b63d 17f7 c2bd 4a48 8d3c 8ddf d5bd
000001f0: 69c7 9fbd 7a83 103e c556 19be c247 48bc
00000200: b46c 053c 59a1 21bc 8298 6cbd 8bc0 0dbd
00000210: da30 32be e6d0 703d d110 46bd cc7b 82bd
00000220: a769 143d fba3 01be f1f0 ffbd db11 5abc
00000230: 8e78 96bd b52b cabd e8a4 443e f4d7 093c
00000240: 8ba4 16ba fbb3 143e ea0f e8ba e7d5 c8bc
00000250: 5406 c3bc 3416 1cbd 69a6 d13d 0b6c fc3d
00000260: 0848 e8bd c995 f33d bc7f 2abd 7509 773d
00000270: 5139 153e 497e 9c3d 862d 1f3c 24bb 313e
00000280: dc6a 193c de33 13be c5d6 bbbd db91 4ebd
00000290: 774b 9c3d 3ab8 d33c 90dd d43d 7a7c 99bd
000002a0: fb59 bbbd cea4 39be 50ac 0ebe 0d38 803d
000002b0: 5491 4a3d 5c30 3cbe 9bd4 be3d e299 3fbd
000002c0: 1163 42bd 20eb ff3d 943c 3dbb e7aa 44bb
000002d0: 98f7 25be 18a7 a83c 89b1 5ebd 5d2e 50be
000002e0: b237 a43b c224 b6bd a7bf a43d 23fa 653c
000002f0: db83 b83d 4fb7 89bc 6d92 39be d0da d43d
00000300: 1d4b 05be 6361 39bc 3105 25bd 3b6b 223d
00000310: 3389 d63c 0080 29be d306 2a3d 7e73 583d
00000320: c0d7 0c3d 521b e43d 745c efbd 1e63 f93d
00000330: 312c cdbc d4d6 afbd 9e79 f83b badb 1bbd
00000340: 28b7 edbd d70d 2abd 4f8f 7e3b 70c7 12be
00000350: 6592 073d 2902 56be 4f2f 813e 9ec2 4e3d
00000360: 8be4 0e3e 8d66 c33b fded 903d 2fac c7bc
00000370: 99b3 ffbd b245 90bb b17d 903d 6ca6 cabc
00000380: 72d2 40be f888 cfbd df7b 3f3d db51 bdbd
00000390: 5d2d cbbc d3c1 783d 6969 373b c463 cabd
000003a0: 5087 553d cd4b d2bc 0b02 ec3c 4ff6 ce3c
000003b0: 9730 b6bc cdd8 3a3e b175 dcbd 9e54 f03d
000003c0: c4ed f3bd bba2 2f3d f7eb bfbd 9f88 d0bd
000003d0: 386d ce3d 1f88 15be 19c8 803d 9fb1 4dbd
000003e0: aa47 743c 4df5 41bd 259c 97bc 3f9b 93bc
000003f0: 67b0 20bd 020a 173e 8bad 683d 0381 55bd

network_body._body_endoder.seq_layers.2.bias f4 [128]
0.0032037043 0.0013600531 -0.0010202009 -0.00058014627 -0.004339522 0.0036643485 0.00039147813 0.0025358954
-0.0025901673 -0.0021232145 -0.004951564 0.0034817138 0.0014575634 0.0019491432 -0.0025640395 -0.0024753897
0.0028948851 -0.0010626793 -0.0014512264 0.00037049933 0.0032246476 -0.0018152485 0.00013346944 0.0020507695
0.0038862193 -0.0022447158 0.0024551663 -0.0038630369 0.0033297862 0.0010292662 0.0036973718 -0.00064603245
-0.00078136084 0.0012643693 -0.0009805604 -0.002225086 -0.0034889742 5.013103e-05 0.0025266784 -0.0018162343
-0.0018177597 0.0028018157 -0.0016005036 0.002472862 0.0010895449 -0.002671159 -0.001998485 -0.0021775533
-0.0021547107 0.00060236646 -0.0030147508 -0.0021228848 -0.0019757645 -0.0007607116 0.00046903628 0.0012223802
0.0015841823 0.0055705854 -0.0009985982 0.0030935009 0.0009693099 0.0017796557 -0.00022280932 -0.0027963242
0.0056461417 0.0033510902 0.0024346309 0.0056437966 -0.0022190323 -0.001551066 -0.002871369 -0.00055781857
0.007344961 -0.004247403 0.0030654664 -0.0011088023 0.0027447818 -0.0043166494 -0.0025681024 0.0016904352
0.0010405007 0.0027500032 0.0019372292 -0.0026578226 -0.0013898184 0.0020981734 0.0030726835 0.004036909
-0.0034805164 -0.0038871474 -0.0021191775 0.0051785195 -0.0010080413 -0.0022467526 0.0035557912 0.0013624048
-0.0021429656 -0.00097377074 -0.0014697541 -0.00077565416 0.004447424 -0.0024123078 -0.0022651718 0.00056611205
0.0016557323 0.0037427219 -0.0014950256 -0.00025501155 -0.0012386255 -0.0026652908 -0.0011086352 0.0003725841
-0.0022506418 0.00022861513 0.004607645 -0.00043635737 0.0023780342 0.0017844732 0.004634388 -0.0027468244
-0.0021394438 -0.0036237936 -0.0032665988 0.00064425555 0.0060005193 0.0046694227 -0.0012527268 -0.0016677834
00000000: 3df5 513b cf43 b23a 43b8 85ba f514 18ba
00000010: 8d32 8ebb 9125 703b 4e3f cd39 4431 263b
00000020: ccbf 29bb a125 0bbb bb40 a2bb 772d 643b
00000030: b60b bf3a 657a ff3a 7209 28bb 263a 22bb
00000040: 1db8 3d3b 9a49 8bba 1437 beba 943f c239
00000050: 9c54 533b a2ed edba eef3 0b39 3466 063b
00000060: f1af 7e3b 151c 13bb dbe6 203b 012b 7dbb
00000070: 8b38 5a3b 71e8 863a 9b4f 723b 815a 29ba
00000080: 3dd4 4cba 32b9 a53a 2686 80ba c0d2 11bb
00000090: 46a7 64bb c943 5238 a196 253b b60e eeba
000000a0: e541 eeba ab9e 373b fdc7 d1ba bd0f 223b
000000b0: 0fcf 8e3a 9d0e 2fbb 04f9 02bb 48b5 0ebb
000000c0: 0c36 0dbb 21e8 1d3a 2093 45bb 1920 0bbb
000000d0: d47b 01bb 7e6a 47ba fce8 f539 4638 a03a
000000e0: 56a4 cf3a 7589 b63b 65e3 82ba 55bc 4a3b
000000f0: 4919 7e3a 5643 e93a eca1 69b9 8942 37bb
00000100: 4503 b93b f79d 5b3b 548e 1f3b 99ef b83b
00000110: 2f6d 11bb 234d cbba 942d 3cbb 923a 12ba
00000120: 00ae f03b cc2d 8bbb fee5 483b 3b55 91ba
00000130: cce1 333b ae72 8dbb 9c4d 28bb 9891 dd3a
00000140: 6961 883a 6639 343b a0ea fd3a dd2e 2ebb
00000150: 912a b6ba 8281 093b 135f 493b 0c48 843b
00000160: 6019 64bb 83bf 7ebb e6e1 0abb 92b0 a93b
00000170: 4120 84ba 413e 13bb 4708 693b b892 b23a
00000180: ff70 0cbb a644 7fba c4a4 c0ba 4555 4bba
00000190: b2bb 913b cf17 1ebb 4773 14bb 2367 143a
000001a0: 2805 d93a 7448 753b bcf4 c3ba 12b3 85b9
000001b0: 6059 a2ba 29ac 2ebb a04f 91ba 6457 c339
000001c0: 817f 13bb 68b8 6f39 bafb 963b e5c6 e4b9
000001d0: cbd8 1b3b fce4 e93a 10dc 973b 1104 34bb
000001e0: e935 0cbb 2b7d 6dbb 6f14 56bb 42e3 283a
000001f0: 01a0 c43b f501 993b 8932 a4ba 8699 daba

action_model._continuous_distribution.log_sigma f4 [1, 3]
-0.0017392733 0.007760539 0.0017432289
00000000: 54f8 e3ba 1f4c fe3b 0e7d e43a

action_model._continuous_distribution.mu.weight f4 [3, 128]
-0.002695794 0.0136733055 -0.017202135 -0.006809832 -0.0062738056 0.014537237 -0.008144385 0.030451681
-0.018615358 -0.033425014 -0.016075432 -0.0004203711 0.019199748 0.014670498 -0.0071037174 -0.011299646
-0.0009249279 0.0026403994 -0.0069807027 -0.005586579 0.036926117 -0.005585478 -0.0035062158 0.026701855
0.020812003 -0.013955515 0.015583292 -0.006280776 0.021158522 0.026456388 0.00079123065 -0.019090602
-0.0021024644 0.0031162535 -0.025904369 -0.017155895 -0.007950907 -0.005497584 0.023617258 -0.006641804
-0.0019466054 0.040184047 -0.009406195 0.021583708 -0.0058568483 -0.019782733 0.0003519005 -0.039883204
-0.009728891 0.007970185 -0.02041889 7.107148e-06 -0.022710288 -0.010916305 0.010760744 0.01300074
0.0011573423 0.013102513 -0.021218417 0.006379973 0.035192307 0.009134611 -0.01034734 -0.008761754
0.026703302 0.013310059 0.043911353 0.021920735 0.007937857 -0.021552803 -0.016553093 -0.010963832
0.013381946 -0.006725604 -0.0028976086 0.004604209 0.030208623 -0.012234463 -0.021641763 0.017244425
0.023611186 0.012990414 0.0029065828 -0.005718177 -0.034347642 0.011766974 0.020842666 0.034897853
-0.014258464 -0.018310972 -0.024137752 0.014004988 -0.044057813 -0.012123334 0.024371393 0.0052956785
-0.003604873 -0.0058802497 -0.01729199 -0.0005607214 0.037032284 -0.029164929 0.0064093014 -0.00041817874
0.015785508 0.015595785 -0.036953937 -0.009767116 -0.00120219 -0.014127608 -0.016459517 -0.0040029166
-0.015482189 0.0039856797 0.018574793 0.0076723797 0.004051334 0.008363206 0.024527911 -0.023417434
-0.028385794 -0.03820815 -0.056538835 0.016660403 0.021775553 0.015029942 -0.030811708 0.0012315525
-0.0061592287 0.030692598 0.030007357 -0.034449175 0.019273156 -0.0061087976 0.020959573 0.00088438124
-0.002116378 -0.02148447 -0.012025282 0.010384192 0.00045434752 -0.0011702894 -0.0004970908 -0.0015385082
0.016601622 0.026220407 0.03173583 -0.0055919075 -0.004028005 -0.020631548 -0.015231795 0.016224302
0.011618136 -0.029391166 -0.0014646719 0.0076651266 -0.04158605 -0.015033231 0.017740669 -0.043964703
-0.0012107923 0.012041136 0.006564563 0.013382871 0.01965763 0.009476768 0.020652037 -0.016845498
-0.010689597 -0.017462382 -0.022314973 0.01029558 0.021664422 -0.006958526 0.0015834454 0.004933829
0.018779848 -0.016021717 0.02059193 -0.02048362 0.011619451 0.030945266 0.029565735 -0.009361878
-0.021766426 0.014974279 -0.0022498763 0.010724191 -0.01411304 -0.016154366 -0.014911223 0.013878564
0.012340253 -0.0025802006 -0.0052033504 -0.0064248536 -0.008472311 0.007915168 -0.010941017 -0.0034239264
-0.016855804 -0.0062324316 -0.043505415 0.011155138 0.013137905 -0.0018643225 -0.0021275608 0.04064476
0.0014754995 -0.014029893 0.03166897 0.026461449 0.003605993 -0.024353778 0.03950048 0.019491147
-0.008045514 0.009018065 -0.004567 0.0066097453 0.031324353 0.023868348 -0.0011574869 5.0049573e-05
-0.0026581758 -0.0030984348 0.012013596 -0.022484096 0.030275865 0.005084741 0.014591059 -0.005314061
-0.022969406 -0.006005036 0.013538995 -0.011284974 -0.014454099 -0.0068007912 0.0028636984 0.006352502
-0.020590423 0.024708377 0.022063443 -0.010095072 -0.027420398 -0.030159615 0.043963425 0.011099132
0.013279764 0.0019974804 -0.0072346437 0.011804104 -0.009724086 0.0044802423 -0.0035709683 -0.0102018295
00000000: ebab 30bb 0006 603c 7eeb 8cbc 0325 dfbb
00000010: 7f94 cdbb 972d 6e3c 0770 05bc ce75 f93c
00000020: 3c7f 98bc abe8 08bd a0b0 83bc 4165 dcb9
00000030: ca48 9d3c 875c 703c 4dc6 e8bb 2722 39bc
00000040: dc76 72ba 8d0a 2d3b 61be e4bb 9f0f b7bb
00000050: d73f 173d 6306 b7bb 8ac8 65bb d9bd da3c
00000060: ef7d aa3c aca5 64bc 1051 7f3c f8ce cdbb
00000070: a354 ad3c 11bb d83c 976a 4f3a e563 9cbc
00000080: 80c9 09bb 0f3a 4c3b 6635 d4bc 858a 8cbc
00000090: 8544 02bc 1425 b4bb fb78 c13c 7da3 d9bb
000000a0: 3d25 ffba 0798 243d 711c 1abc 51d0 b03c
000000b0: ceea bfbb 660f a2bc 497f b839 925c 23bd
000000c0: ed65 1fbc 6195 023c 8445 a7bc f079 ee36
000000d0: ed0a babc 4dda 32bc d54d 303c 0e01 553c
000000e0: f7b1 973a ecab 563c 3fd2 adbc 180f d13b
000000f0: cf25 103d 56a9 153c e487 29bc 768d 0fbc
00000100: e2c0 da3c 6f12 5a3c 64dc 333d 1d93 b33c
00000110: c90d 023c 818f b0bc 5a9a 87bc a5a1 33bc
00000120: f33f 5b3c 7562 dcbb cee5 3dbb e8de 963b
00000130: 1378 f73c 0f73 48bc 114a b1bc 2e44 8d3c
00000140: 3f6c c13c bfd5 543c 5e7c 3e3b 8c5f bbbb
00000150: 1db0 0cbd 44ca 403c 3dbe aa3c 0df1 0e3d
00000160: 559c 69bc e400 96bc 89bc c5bc 2d75 653c
00000170: f775 34bd f3a0 46bc 84a6 c73c 5f87 ad3b
00000180: bc3f 6cbb 1caf c0bb eea7 8dbc 60fd 12ba
00000190: 2aaf 173d 4aeb eebc 1e05 d23b 003f dbb9
000001a0: 9c50 813c 7785 7f3c 035d 17bd 4106 20bc
000001b0: cd92 9dba 7c77 67bc 1cd6 86bc e62a 83bb
000001c0: 02a9 7dbc 4e9a 823b 2a2a 983c 9668 fb3b
000001d0: 0ec1 843b d405 093c c2ee c83c ebd5 bfbc
000001e0: 5389 e8bc 2680 1cbd 4495 67bd 667b 883c
000001f0: a562 b23c 2540 763c d668 fcbc 0b6c a13a
00000200: 5bd3 c9bb 0b6f fb3c fdd1 f53c 941a 0dbd
00000210: bde2 9d3c 4f2c c8bb 69b3 ab3c d2d5 673a
00000220: eeb2 0abb 3300 b0bc b005 45bc 7522 2a3c
00000230: 7e35 ee39 6564 99ba 334f 02ba c5a7 c9ba
00000240: 2000 883c 2ecc d63c 6efd 013d 523c b7bb
00000250: 5bfd 83bb 7e03 a9bc c78e 79bc d4e8 843c
00000260: ff59 3e3c bec5 f0bc 3cfa bfba be2b fb3b
00000270: 2256 2abd f14d 76bc e154 913c 5514 34bd
00000280: 73b3 9eba 2f48 453c 8c1b d73b d443 5b3c
00000290: 0a09 a13c 7244 1b3c 762e a93c 92ff 89bc
000002a0: 6b23 2fbc 450d 8fbc e4cd b6bc cbae 283c
000002b0: 9679 b13c 5904 e4bb 9c8b cf3a f5ab a13b
000002c0: 32d8 993c fa3f 83bc 68b0 a83c 44cd a7bc
000002d0: 835f 3e3c ed80 fd3c d733 f23c 9062 19bc
000002e0: 814f b2bc ae56 753c a972 13bb 84b4 2f3c
000002f0: 613a 67bc 2956 84bc 344e 74bc eb62 633c
00000300: c62e 4a3c 9518 29bb de80 aabb 9487 d2bb
00000310: 73cf 0abc 9fae 013c f441 33bc f463 60bb
00000320: 2f15 8abc 6d39 ccbb bc32 32bd 0ac4 363c
00000330: 5e40 573c 485c f4ba 8c6e 0bbb 1f7b 263d
00000340: 8c65 c13a a3dd 65bc 52b7 013d aec5 d83c
00000350: 8652 6c3b 9381 c7bc 41cb 213d e6ab 9f3c
00000360: 55d1 03bc 82c0 133c c6a6 95bb 9096 d83b
00000370: f74d 003d 8e87 c33c d1b6 97ba 52ec 5138
00000380: ca34 2ebb 1c0f 4bbb acd4 443c 9130 b8bc
00000390: 1705 f83c e69d a63b 560f 6f3c 9321 aebb
000003a0: 562a bcbc e5c5 c4bb a9d2 5d3c 9de4 38bc
000003b0: e3d0 6cbc 2cd9 debb e3ac 3b3b a628 d03b
000003c0: 3fad a8bc 3969 ca3c 65be b43c cd65 25bc
000003d0: bea0 e0bc 4c11 f7bc fe12 343d 22d9 353c
000003e0: 5e93 593c 29e8 023b 9710 edbb 0066 413c
000003f0: c651 1fbc ffce 923b e806 6abb 9325 27bc

action_model._continuous_distribution.mu.bias f4 [3]
0.0020747827 -0.00069367996 -0.000813097
00000000: 14f9 073b 13d8 35ba 0426 55ba

action_model._discrete_distribution.branches.0.weight f4 [2, 128]
-0.002721383 0.0060392343 0.0019525941 0.004432584 0.0006335299 -0.010211348 0.004549735 -0.008862691
0.011725687 0.0023577618 0.00871132 -0.011065994 -0.004512431 0.0027528978 0.00080543035 0.008807287
-0.028574612 0.002783119 -0.00645702 0.0008296304 -0.004189251 -0.004724358 -0.009107187 0.009096146
0.0018141054 0.009225844 0.0033706785 0.0051360633 5.8426886e-06 -0.0012166079 -0.0065551316 0.002718411
0.00013443976 -0.007372969 0.0077725677 -0.017031271 -0.0009793972 0.008026578 0.00367898 0.0075527304
0.0131107 0.0027640397 -0.00866172 -0.0010759513 -0.0024629682 -0.006828959 0.013108963 0.013807905
-0.011065837 0.01173831 -0.0064772726 0.010109751 0.015655247 -0.0077068247 0.0031924308 1.42102235e-05
-0.0017470734 -0.00055390137 -0.013702221 -0.009647449 0.0023782114 0.0159816 -0.0074371654 -0.0031186705
0.0010814765 -0.021373922 -0.0004256936 -0.008467548 0.031918477 -0.0061613824 0.002185815 -0.0063379356
-0.010465111 0.005908461 0.004514444 -0.0027297363 -0.016275542 -0.006338172 0.00018748852 -0.002558787
0.0025723309 -0.0013208506 0.009482868 -0.0006941875 0.0016344608 0.00042735078 0.0024743977 0.0032398556
-0.00040758547 0.0053173276 -0.011542277 0.0029035767 -0.008204002 0.0044885734 0.0103163365 0.010512764
0.0066477633 0.0026807075 -0.0049656387 -0.007826716 0.0064654713 -0.0075979466 0.0036638281 -0.008004849
0.017949553 0.004822965 -0.0042885663 0.010330195 0.0031797665 0.007103944 -0.0073293997 0.008542543
0.018258333 0.008648318 -0.0015438165 0.010184261 -0.010921664 0.017829463 0.002158091 0.0002054663
0.009455333 0.000771757 0.006933099 -0.0059256842 0.0006947717 -0.00063564326 0.0077200164 -0.0007854382
0.008099575 -0.011362882 -0.008927182 -0.006488017 0.0065219393 -0.0027500663 0.00059676904 0.0110412445
-0.014986872 0.0019608755 0.0025209745 0.010726062 -0.0075367168 -0.0028786468 -0.007536075 0.013515336
0.010931038 0.004950853 0.013525441 -0.017941901 0.004418555 0.0021241207 0.010515704 0.0009271357
0.0052284882 0.0013019553 0.0043215295 -0.0060171564 -0.010538509 0.0028544068 5.2554446e-05 0.0054607308
-0.0049571283 0.0002019984 0.0035961424 0.0054978104 -0.010386434 0.017284239 -0.017391523 0.0133814365
-0.0018183684 -0.012087647 0.0008494546 0.0014443859 -0.0057052155 -0.007995234 -0.0063199224 -0.013271608
-0.0013962459 -0.0029758548 -0.001465808 -0.012716964 0.009110336 0.00045261794 0.008715476 -0.0081123365
0.01867139 0.00053278625 0.0062951427 -0.01840628 -0.010547541 -0.003560279 0.007500025 -0.0062386
0.0044098855 0.00014178673 -0.0014102743 -0.0016637009 -0.0014191585 0.0021942763 -0.010781589 0.0061365063
-0.0019173208 -0.005345839 -0.0019022941 0.0051134084 -0.0007715372 -0.00085069396 0.009645095 -0.0033373453
-0.007082055 -0.007299388 0.0043094284 -0.018790191 0.008978028 -0.015584731 -0.00021152831 0.0077314237
0.0019647202 0.0052059526 -0.016469793 0.004164258 0.011526191 0.011099976 -0.0027148693 0.0019497593
0.0054158717 0.0012310104 -0.005619364 -0.003474919 -0.010214164 -0.021703029 -0.013618655 0.0069662225
-9.612048e-05 0.018492661 0.006317322 0.0037687295 -0.0045446306 -0.0024071524 0.007776422 0.008000434
0.0058957865 0.008598713 -0.0097287055 -0.008462243 0.006314498 -0.016997717 0.0014299854 0.007824896
-0.004687028 -0.0044019152 0.0026663174 -0.01302712 0.0069795894 -0.001609893 0.0122862235 -0.004776469
00000000: 3b59 32bb c5e4 c53b 30ee ff3a 363f 913b
00000010: 7913 263a 7f4d 27bc f215 953b d234 11bc
00000020: 191d 403c ae84 1a3b edb9 0e3c 254e 35bc
00000030: 04dd 93bb f669 343b 8423 533a 704c 103c
00000040: 4e15 eabc fd64 363b 6995 d3bb 8e7b 593a
00000050: fc45 89bb cace 9abb 5036 15bc 0008 153c
00000060: 47c7 ed3a ff27 173c 9ae6 5c3b 6c4c a83b
00000070: 500c c436 9676 9fba 6ecc d6bb 5e27 323b
00000080: 66f8 0c39 f298 f1bb 06b1 fe3b 2a85 8bbc
00000090: 1e5f 80ba e981 033c 0b1b 713b e57c f73b
000000a0: 43ce 563c e424 353b e3e9 0dbc ef06 8dba
000000b0: c069 21bb 76c5 dfbb fac6 563c 8d3a 623c
000000c0: 7c4d 35bc 0a52 403c 4d3f d4bb 5ea3 253c
000000d0: 6f3f 803c 8889 fcbb 1a38 513b 7268 6e37
000000e0: 0efe e4ba b133 11ba 487f 60bc 5510 1ebc
000000f0: c4db 1b3b d8eb 823c 77b3 f3bb 9c62 4cbb
00000100: 54c0 8d3a 5d18 afbc a12f dfb9 78bb 0abc
00000110: f3bc 023d 6ce5 c9bb e43f 0f3b 75ae cfbb
00000120: db75 2bbc c39b c13b e7ed 933b 60e5 32bb
00000130: 4954 85bc 71b0 cfbb 9198 4439 52b1 27bb
00000140: 8d94 283b 6420 adba 085e 1b3c 22fa 35ba
00000150: 673b d63a 0d0e e039 8129 223b c253 543b
00000160: 32b1 d5b9 fa3c ae3b d21b 3dbc ef49 3e3b
00000170: 146a 06bc e214 933b da05 293c ba3d 2c3c
00000180: 7bd5 d93b cfae 2f3b ccb6 a2bb a03b 00bc
00000190: 4edc d33b 32f8 f8bb d61c 703b c526 03bc
000001a0: f10a 933c f609 9e3b 1a87 8cbb fa3f 293c
000001b0: a163 503b 34c8 e83b 762b f0bb 06f6 0b3c
000001c0: 8092 953c adb1 0d3c e359 caba e3db 263c
000001d0: c7f0 32bc 180f 923c c26e 0d3b 7172 5739
000001e0: 8bea 1a3c bc4f 4a3a 0d2f e33b 3e2c c2bb
000001f0: 5721 363a 4ca1 26ba 31f8 fc3b dee5 4dba
00000200: 14b4 043c 622b 3abc 5143 12bc 6e99 d4bb
00000210: feb5 d53b 753a 34bb 7e70 1c3a 56e6 343c
00000220: 7f8b 75bc 0882 003b ef36 253b 5dbc 2f3c
00000230: 90f6 f6bb aea7 3cbb 2ef1 f6bb 6e6f 5d3c
00000240: 1918 333c c43a a23b d099 5d3c e5fa 92bc
00000250: 87c9 903b d534 0b3b 0f4a 2c3c 060b 733a
00000260: bd53 ab3b 5fa6 aa3a 9e9b 8d3b 912b c5bb
00000270: b6a9 2cbc 0011 3b3b e86d 5c38 eeef b23b
00000280: 686f a2bb 88cf 5339 42ad 6b3b fa26 b43b
00000290: dd2b 2abc ad97 8d3c ab78 8ebc d03d 5b3c
000002a0: 5256 eeba 440b 46bc efad 5e3a 8c51 bd3a
000002b0: d1f2 babb 71fe 02bc 5a17 cfbb 2971 59bc
000002c0: 3d02 b7ba 8f06 43bb 5b20 c0ba d05a 50bc
000002d0: 8543 153c 5a4d ed39 5bcb 0e3c 9be9 04bc
000002e0: bef4 983c aeaa 0b3a 7c47 ce3b c4c8 96bc
000002f0: 98cf 2cbc 9253 69bb c5c2 f53b 2b6d ccbb
00000300: cd80 903b 96ac 1439 f4d8 b8ba 8a10 daba
00000310: 0f03 baba d9cd 0f3b 43a5 30bc bf14 c93b
00000320: 9c4e fbba 262c afbb 6656 f9ba 618e a73b
00000330: fc40 4aba 1b01 5fba 7606 1e3c 5db7 5abb
00000340: 9510 e8bb b42f efbb 1b36 8d3b e3ed 99bc
00000350: 9418 133c 1957 7fbc b3cd 5db9 e257 fd3b
00000360: 89c2 003b b296 aa3b a9eb 86bc 5474 883b
00000370: 59d8 3c3c acdc 353c f3eb 31bb 118f ff3a
00000380: a077 b13b db59 a13a a422 b8bb 77bb 63bb
00000390: 4f59 27bc 8dca b1bc c720 5fbc e944 e43b
000003a0: 4a94 c9b8 ec7d 973c 8a01 cf3b cafc 763b
000003b0: 20eb 94bb 51c1 1dbb 5bd1 fe3b 4114 033c
000003c0: 7131 c13b 9ee1 0c3c 2665 1fbc 38a5 0abc
000003d0: d9e9 ce3b cc3e 8bbc 596e bb3a fe33 003c
000003e0: a495 99bb f13d 90bb 62bd 2e3b b46f 55bc
000003f0: 0ab5 e43b 0c03 d3ba 284c 493c ed83 9cbb

action_model._discrete_distribution.branches.0.bias f4 [2]
-0.0046565817 0.0046565817
00000000: 3d96 98bb 3d96 983b

exp_avg f4 [128, 50]
2.1630058e-07 6.0803484e-07 -2.545567e-05 4.2466504e-06 -4.8392885e-06 2.7132344e-06 -4.7477442e-08 -8.653351e-06
-1.4356949e-05 -1.0969544e-05 5.9426384e-06 5.0205817e-06 -1.6369519e-05 -1.5035357e-05 -7.665016e-06 7.346453e-06
-1.2020286e-05 -1.3346062e-05 -2.3091407e-06 -7.5247135e-07 -8.2542865e-06 -3.0867398e-06 -1.2092604e-05 3.8935236e-06
3.967737e-06 -8.284653e-06 -1.5223841e-06 -9.287689e-06 -1.0615531e-06 6.8944037e-06 -8.284653e-06 -1.5223841e-06
-9.287689e-06 -1.0615531e-06 6.894403e-06 1.8763536e-05 -1.4544869e-06 -2.6716946e-06 3.957365e-06 6.282646e-07
5.1539664e-06 1.6740219e-06 3.9194617e-07 -1.4562621e-06 7.3576716e-06 -1.0413934e-06 -9.281707e-07 5.254178e-06
-3.9996794e-07 -7.3287274e-06 -1.3095165e-05 -3.8092053e-06 -1.627966e-05 -3.3668227e-06 -1.2339984e-05 -1.652107e-05
-1.5987989e-06 -1.6498358e-05 -1.959997e-06 -7.9558295e-06 -2.5665418e-06 -1.2467844e-05 -2.15418e-05 5.82569e-09
-7.904282e-06 -1.8142104e-05 -7.5845646e-06 -1.9223676e-06 -8.751844e-06 -1.4062365e-05 -1.0797919e-05 -9.529275e-06
-1.4626852e-05 -1.3669212e-06 -3.178104e-06 -1.2149546e-05 -4.0668124e-06 -1.4854812e-05 -5.377634e-06 -1.1114175e-05
-1.2149546e-05 -4.0668124e-06 -1.4854812e-05 -5.377634e-06 -1.1114177e-05 1.49541465e-05 -5.0610186e-07 -9.397349e-06
4.7751464e-06 3.057618e-06 -2.6010703e-06 1.2378204e-05 -1.0853096e-05 -5.8164837e-06 6.282041e-06 -7.650142e-07
-9.133564e-06 6.219807e-06 -2.4245892e-07 -1.2537855e-05 1.2793734e-05 -4.0860546e-06 1.5255454e-05 -9.160575e-07
4.8304896e-06 1.9484549e-05 1.573207e-06 -7.4351615e-06 9.247761e-06 1.0613512e-05 -4.4732597e-06 1.2778133e-06
2.3920169e-05 2.1104547e-06 3.2951673e-06 8.380288e-06 1.0027403e-05 3.955978e-06 2.8928957e-07 3.738202e-06
-1.6709379e-05 8.762972e-06 3.1530086e-05 5.3812187e-08 7.3933056e-06 -2.07804e-06 7.018639e-06 1.905988e-05
-1.0124684e-06 7.327093e-06 -2.07804e-06 7.018639e-06 1.905988e-05 -1.0124684e-06 7.327093e-06 -1.5648118e-05
1.9538886e-06 -8.576456e-06 1.3764266e-05 -2.5901088e-06 7.766418e-06 1.8439972e-06 8.583712e-06 3.036042e-06
-8.329078e-06 3.7769206e-07 -5.4765237e-06 -1.0493391e-05 1.5696614e-07 -2.073887e-06 2.5877016e-06 -7.238592e-07
-1.5304417e-05 2.604254e-06 -1.822774e-07 1.6142145e-05 -9.070347e-06 -6.1895316e-06 -1.1513359e-05 -6.308633e-06
6.0215307e-06 6.1674095e-06 -4.753355e-06 -1.810556e-05 -5.1441025e-06 1.7739925e-05 -1.2944467e-05 -1.6753133e-05
1.2888452e-06 2.1383721e-07 -1.0415941e-05 2.5875383e-06 -2.7803421e-06 8.4379667e-07 6.660716e-07 -5.126931e-06
-8.859962e-07 -1.2667633e-06 -3.0869937e-06 5.4812103e-06 -5.126931e-06 -8.859962e-07 -1.2667633e-06 -3.0869937e-06
5.481209e-06 -2.4523388e-07 -1.8218188e-06 -4.4696308e-06 1.1697677e-05 2.5900608e-06 7.0202545e-06 5.1480733e-06
1.5289227e-06 -8.69858e-07 -9.498389e-06 -7.761878e-07 -2.552182e-06 -7.90205e-06 -2.8561993e-07 -1.1169025e-05
3.1131613e-06 -6.4601345e-06 5.9102244e-06 -4.2854617e-06 -2.7405229e-06 3.0917524e-06 -1.3685346e-05 -8.5156626e-07
9.684585e-06 6.96481e-07 -2.7547474e-06 -9.005817e-06 2.1902201e-06 7.65171e-06 -2.4832207e-07 3.0104209e-06
7.52618e-06 -7.3361216e-06 -5.1820934e-06 -8.519166e-06 1.769652e-06 -4.8045704e-06 8.134745e-06 -7.706286e-06
-7.655288e-06 3.900544e-06 3.2689256e-06 -4.9542323e-06 -4.453949e-06 -9.857338e-06 3.900544e-06 3.2689256e-06
-4.9542323e-06 -4.453949e-06 -9.857336e-06 -2.8707789e-06 -2.4767614e-06 3.2033815e-05 1.5136696e-06 -1.2020905e-06
-1.076985e-05 -4.138958e-06 -2.2110355e-05 4.919492e-07 6.838303e-06 6.203175e-07 2.7001232e-05 2.402934e-06
6.30711e-08 3.2079613e-05 1.0251729e-05 -2.3109292e-06 3.0181259e-06 2.9125597e-06 8.475545e-06 1.4899203e-05
00000000: 4040 6834 d637 2335 a389 d5b7 737e 8e36
00000010: 2c61 a2b6 0315 3636 00ea 4bb3 dc2d 11b7
00000020: a0de 70b7 d509 38b7 e066 c736 7876 a836
00000030: 4651 89b7 5e40 7cb7 fe98 00b7 8d81 f636
00000040: bcaa 49b7 e6e8 5fb7 bcf6 1ab6 70fd 49b5
00000050: e47b 0ab7 c925 4fb6 57e1 4ab7 1da5 8236
00000060: 9a22 8536 50fe 0ab7 b854 ccb5 52d2 1bb7
00000070: b07a 8eb5 7a56 e736 50fe 0ab7 b854 ccb5
00000080: 52d2 1bb7 b07a 8eb5 7956 e736 6366 9d37
00000090: ca37 c3b5 5d4b 33b6 82c9 8436 04a6 2835
000000a0: 3cf0 ac36 f4ae e035 ac6c d234 c974 c3b5
000000b0: ebe1 f636 01c6 8bb5 6827 79b5 0c4d b036
000000c0: 2dbb d6b4 4ae9 f5b6 4eb3 5bb7 a6a1 7fb6
000000d0: 4e90 88b7 93f1 61b6 d407 4fb7 ba96 8ab7
000000e0: 5096 d6b5 f465 8ab7 7e88 03b6 077a 05b7
000000f0: da3c 2cb6 fb2c 51b7 aab4 b4b7 502b c831
00000100: a29c 04b7 df2f 98b7 ea7e feb6 0602 01b6
00000110: e2d4 12b7 66ed 6bb7 b528 35b7 eddf 1fb7
00000120: da65 75b7 0e77 b7b5 6947 55b6 e7d5 4bb7
00000130: a775 88b6 ef38 79b7 8671 b4b6 0577 3ab7
00000140: e7d5 4bb7 a775 88b6 ef38 79b7 8671 b4b6
00000150: 0777 3ab7 92e3 7a37 0edb 07b5 4ea9 1db7
00000160: 323a a036 7a31 4d36 0c8e 2eb6 fbab 4f37
00000170: b115 36b7 372b c3b6 52ca d236 605b 4db5
00000180: 5c3c 19b7 bcb3 d036 4d2b 82b4 ad59 52b7
00000190: aba4 5637 f11a 89b6 adf1 7f37 fee6 75b5
000001a0: 9715 a236 c072 a337 fb26 d335 8d7b f9b6
000001b0: d526 1b37 b010 3237 0219 96b6 5581 ab35
000001c0: 2ca8 c837 56a1 0d36 8b22 5d36 1099 0c37
000001d0: 5e3b 2837 98bd 8436 a84f 9b34 d2dd 7a36
000001e0: 1e2b 8cb7 ae04 1337 2c3f 0438 201f 6733
000001f0: 0314 f836 7574 0bb6 a681 eb36 c8e2 9f37
00000200: 26e4 87b5 40db f536 7574 0bb6 a681 eb36
00000210: c8e2 9f37 26e4 87b5 40db f536 1444 83b7
00000220: 8d1f 0336 99e3 0fb7 13ed 6637 bbd1 2db6
00000230: 834c 0237 437f f735 c302 1037 cebe 4b36
00000240: 1ebd 0bb7 9ac5 ca34 fbc2 b7b6 c50c 30b7
00000250: 868a 2834 1b2d 0bb6 60a8 2d36 3a4f 42b5
00000260: fc61 80b7 bec4 2e36 08b8 43b4 fe68 8737
00000270: d82c 18b7 acaf cfb6 8029 41b7 bfae d3b6
00000280: 8e0c ca36 a5f1 ce36 027f 9fb6 65e1 97b7
00000290: 819b acb6 33d0 9437 102c 59b7 1489 8cb7
000002a0: 62fc ac35 209b 6534 20c0 2eb7 92a5 2d36
000002b0: ea95 3ab6 4481 6235 18cc 3235 0008 acb6
000002c0: 32d5 6db5 a805 aab5 262a 4fb6 3deb b736
000002d0: 0008 acb6 32d5 6db5 a805 aab5 262a 4fb6
000002e0: 3aeb b736 b0a8 83b4 3885 f4b5 d6f9 95b6
000002f0: 2441 4437 e8d0 2d36 878f eb36 9dbd ac36
00000300: 6235 cd35 3080 69b5 455b 1fb7 385b 50b5
00000310: 2746 2bb6 0c93 04b7 4e57 99b4 9962 3bb7
00000320: b4eb 5036 22c4 d8b6 7150 c636 d6cb 8fb6
00000330: d3e9 37b6 e77b 4f36 1d9a 65b7 3097 64b5
00000340: fa7a 2237 cff5 3a35 33de 38b6 b117 17b7
00000350: b2fb 1236 d85f 0037 2051 85b4 a306 4a36
00000360: 6589 fc36 ce28 f6b6 d8e1 adb6 8aed 0eb7
00000370: c884 ed35 f236 a1b6 777a 0837 3f4a 01b7
00000380: 366f 00b7 6be1 8236 b75f 5b36 883c a6b6
00000390: 2173 95b6 f260 25b7 6be1 8236 b75f 5b36
000003a0: 883c a6b6 2173 95b6 f060 25b7 9ba7 40b6
000003b0: 7036 26b6 0c5c 0638 4b29 cb35 8457 a1b5
000003c0: 27b0 34b7 61e1 8ab6 a079 b9b7 7e0e 0435
000003d0: 9374 e536 e583 2635 b480 e237 1742 2136
000003e0: b471 8733 398d 0638 d7fe 2b37 7615 1bb6
000003f0: 028b 4a36 6575 4336 3032 0e37 97f7 7937

exp_avg_sq f4 [128, 50]
9.033687e-11 3.4337543e-11 1.5604297e-10 6.7661658e-12 4.633297e-11 6.698472e-11 4.2592138e-11 8.195282e-11
2.872301e-11 6.173234e-11 6.0694005e-11 2.2422456e-11 1.08974586e-10 2.6991156e-11 6.994147e-11 6.607207e-11
4.1348137e-11 9.4420506e-11 1.10305255e-11 4.1636097e-11 7.346766e-11 3.3797e-11 1.0087098e-10 1.2471052e-11
7.6827586e-11 9.600689e-11 1.3439924e-11 1.0894484e-10 1.5609531e-11 4.8152524e-11 9.600689e-11 1.3439924e-11
1.0894484e-10 1.5609531e-11 4.815252e-11 1.3688226e-10 4.9449806e-12 8.340977e-11 7.557394e-11 2.0337265e-11
1.1450234e-10 4.046155e-11 1.216324e-10 3.1283094e-11 1.0340914e-10 3.1550324e-13 9.027268e-11 1.1256113e-10
5.726322e-14 9.0103085e-11 3.358804e-11 9.272074e-12 5.648359e-11 6.2042333e-12 2.2713088e-11 3.7676966e-11
1.1407811e-11 5.2482154e-11 8.335339e-12 2.5562621e-11 3.2536793e-11 2.1331725e-11 4.6226616e-11 9.970272e-12
1.921835e-11 3.8796317e-11 1.3056663e-11 3.0156058e-11 1.8882711e-11 3.5711926e-11 3.5173496e-11 2.946344e-11
3.1625383e-11 4.0024815e-12 1.4546647e-11 2.9379405e-11 1.834085e-11 4.840877e-11 6.2245994e-12 2.0865653e-11
2.9379405e-11 1.834085e-11 4.840877e-11 6.2245994e-12 2.0865656e-11 5.6040693e-11 6.099315e-13 5.5752944e-11
3.129003e-11 5.7799833e-12 3.2979182e-11 1.6878257e-11 7.369756e-11 1.4152939e-11 3.3679646e-11 1.3275603e-13
6.3468494e-11 4.403969e-11 2.6946678e-14 3.544412e-11 1.04590586e-10 3.535619e-11 1.4267874e-10 1.7923883e-11
6.6852045e-11 9.559207e-11 3.0681978e-11 6.6832984e-11 2.3505793e-11 6.492619e-11 4.1028236e-11 4.230774e-11
1.8742949e-10 1.445557e-11 5.0215193e-11 8.636467e-11 4.780568e-11 6.075351e-11 4.0191257e-11 7.135715e-11
4.6359656e-11 5.3236394e-11 1.6625905e-10 1.6871431e-11 5.8133817e-11 7.163206e-11 4.6985787e-11 1.4022745e-10
2.1375042e-11 7.5088755e-11 7.163206e-11 4.6985787e-11 1.4022745e-10 2.1375042e-11 7.508876e-11 1.05056075e-10
3.2400328e-12 1.5340457e-10 1.1408206e-10 1.8820789e-11 1.06221185e-10 3.717258e-11 1.3161106e-10 5.123332e-11
8.418056e-11 2.0644528e-13 1.4528741e-10 9.005172e-11 4.0074145e-14 1.6858666e-10 7.3648976e-11 4.1436046e-11
8.642421e-11 8.778573e-12 3.1853922e-11 8.195944e-11 3.9936228e-11 7.262922e-11 1.13340205e-11 2.9395892e-11
3.5928104e-11 4.1130488e-11 5.212263e-11 3.8722234e-11 6.4447656e-11 5.21884e-11 4.4656775e-11 6.5256696e-11
2.717569e-11 4.8280817e-11 4.941596e-11 3.2910372e-11 8.1955914e-11 1.31371684e-11 6.1091715e-11 4.706901e-11
1.8238844e-11 1.0019595e-10 8.5098074e-12 3.3546655e-11 4.706901e-11 1.8238844e-11 1.0019595e-10 8.5098074e-12
3.3546648e-11 1.462959e-10 3.82971e-12 9.709871e-11 9.6980264e-11 1.704062e-11 1.15802486e-10 2.6833617e-11
1.7880578e-10 3.0013103e-11 1.2302359e-10 2.3023478e-13 1.289881e-10 1.1961819e-10 4.2875358e-14 1.18978e-10
1.7545035e-10 5.313006e-11 1.8382869e-10 3.4204067e-11 7.77026e-11 1.556098e-10 5.895878e-11 2.0783297e-10
2.3433817e-11 9.753226e-11 1.4979101e-10 3.2030833e-11 2.779094e-10 4.1905177e-11 1.1650281e-10 1.5513199e-10
5.0740447e-11 1.9788933e-10 3.6409865e-11 1.0475204e-10 1.2670578e-10 6.3273414e-11 1.8820237e-10 2.871839e-11
1.0831399e-10 1.1577876e-10 4.6902444e-11 2.5542962e-10 2.5416476e-11 1.0424609e-10 1.1577876e-10 4.6902444e-11
2.5542962e-10 2.5416476e-11 1.04246084e-10 1.5537943e-10 9.99251e-12 1.650061e-10 1.0598939e-10 3.0548692e-11
1.6957429e-10 7.644866e-11 2.3161166e-10 4.7796832e-11 1.6567374e-10 5.667216e-13 2.0308089e-10 1.6002583e-10
1.366499e-13 1.7555243e-10 7.221271e-11 3.79965e-11 7.751719e-11 9.847922e-12 3.9569584e-11 8.7509874e-11
00000000: 23a7 c62e a304 172e 3192 2b2f 3410 ee2c
00000010: 49c6 4b2e 0c4d 932e 7c52 3b2e 5637 b42e
00000020: 78a6 fc2d 38c0 872e b077 852e e23a c52d
00000030: 3da3 ef2e ae6a ed2d 8ccd 992e 454b 912e
00000040: ddd9 352e 05a2 cf2e 120d 422d 141e 372e
00000050: 9e8e a12e 0aa4 142e 50d1 dd2e a064 5b2d
00000060: 16f2 a82e 131f d32e 0970 6c2d 7e92 ef2e
00000070: 8a4d 892d ecc6 532e 131f d32e 0970 6c2d
00000080: 7e92 ef2e 8a4d 892d ebc6 532e ee80 162f
00000090: 6dfc ad2c 876b b72e 5930 a62e 73e3 b22d
000000a0: 16cb fb2e a8f3 312e 7abc 052f a295 092e
000000b0: 2c66 e32e cf9c b12a 0083 c62e 4886 f72e
000000c0: 00f2 8029 8723 c62e c5b8 132e b61d 232d
000000d0: de6a 782e c44a da2c 54c9 c72d 7eb4 252e
000000e0: 37b0 482d a7d1 662e 08a3 122d e8d9 e02d
000000f0: 2c19 0f2e c6a2 bb2d 8b4e 4b2e 1d66 2f2d
00000100: e00b a92d c5a0 2a2e fcb1 652d b4a0 042e
00000110: 1618 a62d 0e10 1d2e d6b1 1a2e e294 012e
00000120: 0417 0b2e 26d3 8c2c 46e8 7f2d 4536 012e
00000130: ec53 a12d 6ee7 542e 3502 db2c 4689 b72d
00000140: 4536 012e ec53 a12d 6ee7 542e 3502 db2c
00000150: 4889 b72d 3678 762e 32ae 2b2b 3c34 752e
00000160: 719d 092e 765d cb2c 420b 112e 7576 942d
00000170: 0a10 a22e 2cfb 782d e91f 142e 5278 152a
00000180: 9691 8b2e 48b0 412e cfb6 f228 88e2 1b2e
00000190: 44ff e52e 887f 1b2e 7fe0 1c2f ffa8 9d2d
000001a0: 5b02 932e 8d35 d22e d6f0 062e a0f7 922e
000001b0: 57c2 ce2d 32c6 8e2e b071 342e 4812 3a2e
000001c0: b614 4e2f 1a4e 7e2d 48d9 5c2e fdea bd2e
000001d0: 6940 522e 3099 852e 55c3 302e 81ea 9c2e
000001e0: 55e4 4b2e da22 6a2e c3cd 362f 1667 942d
000001f0: dcac 7f2e 4485 9d2e 4ba5 4e2e 852e 1a2f
00000200: 5104 bc2d 361f a52e 4485 9d2e 4ba5 4e2e
00000210: 852e 1a2f 5104 bc2d 371f a52e 5005 e72e
00000220: 3eff 632c 8cab 282f 7ede fa2e a68c a52d
00000230: 3695 e92e 9b7c 232e 38b5 102f 9753 612e
00000240: 711d b92e cd6f 682a c5be 1f2f 9d06 c62e
00000250: 587a 3429 ed5c 392f b0f4 a12e d73c 362e
00000260: 810c be2e 2e6f 1a2d 5418 0c2e 103b b42e
00000270: 32a4 2f2e 9eb6 9f2e e463 472d d548 012e
00000280: 7303 1e2e d0e4 342e dd3c 652e 5c4d 2a2e
00000290: ceb8 8d2e ea86 652e 0f67 442e 4180 8f2e
000002a0: 370a ef2d 5e57 542e 6d55 592e c9bd 102e
000002b0: 1439 b42e 8c1c 672d 9457 862e fe02 4f2e
000002c0: 3a6e a02d 4e55 dc2e c4b4 152d 2d8a 132e
000002d0: fe02 4f2e 3a6e a02d 4e55 dc2e c4b4 152d
000002e0: 2b8a 132e a3da 202f f6be 862c b785 d52e
000002f0: 0943 d52e 11e4 952d 01a7 fe2e ef07 ec2d
00000300: 5a99 442f c0ff 032e 1044 072f 549c 812a
00000310: ecd2 0d2f 8785 032f ec17 4129 54d1 022f
00000320: e2e8 402f 21ab 692e 2d1f 4a2f 5b6e 162e
00000330: adde aa2e 4418 2b2f d8a6 812e c883 642f
00000340: 4420 ce2d c879 d62e 6cb2 242f 83df 0c2e
00000350: 45c8 982f 094d 382e a018 002f c691 2a2f
00000360: aa28 5f2e e594 592f dd21 202e 285a e62e
00000370: 8250 0b2f c423 8b2e 42ee 4e2f 119c fc2d
00000380: 5b2f ee2e a699 fe2e 7547 4e2e 866c 8c2f
00000390: d190 df2d 553d e52e a699 fe2e 7547 4e2e
000003a0: 866c 8c2f d190 df2d 543d e52e 6cd7 2a2f
000003b0: 44ca 2f2d 176d 352f b912 e92e c55a 062e
000003c0: eb72 3a2f c51c a82e e3a8 7e2f 7336 522e
000003d0: 0329 362f 9884 1f2b 304a 5f2f 44f3 2f2f
000003e0: a7da 192a 9e05 412f 24cc 9e2e 411c 272e
000003f0: 4c76 aa2e 193f 2d2d 6407 2e2e ae6f c02e

exp_avg f4 [128]
-2.0414962e-05 -3.6555066e-05 2.2934004e-05 -1.06220805e-05 -1.8482801e-06 1.3973369e-05 -1.2498527e-05 -1.3939102e-05
3.1421452e-05 3.810222e-05 2.4400306e-05 4.4271303e-05 -1.4164063e-05 1.5365107e-05 4.8713246e-06 6.1836295e-06
1.8645542e-05 1.0546068e-05 7.1810723e-07 1.7865268e-05 -7.860605e-06 -2.0205882e-05 -1.7247354e-05 -2.713634e-05
8.382215e-06 -1.9022616e-05 -2.6608266e-05 2.1397367e-05 3.7010155e-05 3.0034458e-05 7.2658167e-06 -2.5973208e-05
1.4852083e-05 -3.3544424e-05 2.2164518e-06 2.115392e-05 2.6772337e-05 -4.3123464e-06 -4.0821806e-07 2.098085e-05
-3.3340766e-05 2.4150977e-06 -4.7616217e-05 4.9728365e-06 -1.2061391e-06 4.371067e-06 -3.319737e-05 6.490698e-06
1.4614157e-05 -2.4982512e-05 -1.2006413e-05 8.452816e-06 2.910869e-05 -2.0576554e-05 -1.0392362e-05 2.3343919e-06
-7.8957955e-06 2.2578206e-06 -5.295661e-06 -2.4854868e-05 1.0821651e-05 6.812994e-06 4.0012637e-05 -1.1028821e-05
-4.8265538e-05 6.9831776e-06 -1.1199179e-06 9.1414564e-05 -7.4890922e-06 -1.4864495e-06 7.871863e-06 9.076926e-07
-1.6943915e-05 1.1534382e-06 -1.8857329e-05 -1.1524293e-05 -6.1857763e-06 -1.7521566e-05 -3.0071289e-05 -6.886698e-06
-2.31067e-05 -2.0329371e-05 5.7717216e-08 -3.000268e-05 9.6657686e-08 2.2645712e-05 3.8921673e-05 2.4977708e-05
1.8268697e-06 -1.0867764e-05 -1.3772694e-05 3.5064888e-06 1.2091355e-06 9.048727e-06 3.6266945e-06 -3.283359e-06
-2.024976e-05 -1.2238135e-05 1.3502858e-05 -2.5956862e-05 -3.5406706e-06 2.352679e-05 -2.8293238e-05 -1.0581733e-05
-1.4007961e-05 2.5206999e-05 -3.7797177e-05 1.8661003e-05 -1.4991972e-05 -1.9304005e-05 1.2354216e-05 -1.3080851e-06
8.312528e-07 -1.2291997e-05 -3.416493e-05 -5.635952e-05 -7.35908e-06 2.086764e-05 -2.744375e-05 -7.6985336e-05
1.7158149e-05 -1.6273765e-05 4.0509396e-05 1.34427755e-05 1.8615274e-05 -2.4760418e-05 -2.85876e-07 9.88083e-06
00000000: cc40 abb7 b452 19b8 6662 c037 7d35 32b7
00000010: 6c12 f8b5 2a6f 6a37 c4b0 51b7 fddb 69b7
00000020: 87ca 0338 f2cf 1f38 42af cc37 f3af 3938
00000030: 30a2 6db7 51e4 8037 5c74 a336 f97c cf36
00000040: ff68 9c37 04ef 3037 f4c3 4035 5fdd 9537
00000050: 0be1 03b7 cd7f a9b7 69ae 90b7 d9a2 e3b7
00000060: 57a1 0c37 c292 9fb7 d134 dfb7 7f7e b337
00000070: 5a3b 1b38 82f2 fb37 e4cc f336 0ae1 d9b7
00000080: 362d 7937 0db2 0cb8 5abe 1436 b373 b137
00000090: 2895 e037 c6b2 90b6 1029 dbb4 0800 b037
000000a0: 60d7 0bb8 1013 2236 86b7 47b8 57dc a636
000000b0: a0e2 a1b5 2eab 9236 683d 0bb8 acca d936
000000c0: 542f 7537 8991 d1b7 276f 49b7 91d0 0d37
000000d0: 702e f437 d09b acb7 db5a 2eb7 8ca8 1c36
000000e0: 2f78 04b7 1085 1736 62b1 b1b6 6c7f d0b7
000000f0: a38e 3537 2c9b e436 3ed3 2738 6d08 39b7
00000100: ba70 4ab8 0a51 ea36 1650 96b5 d2b5 bf38
00000110: d04a fbb6 0482 c7b5 6511 0437 29a8 7335
00000120: c822 8eb7 d6cf 9a35 ce2f 9eb7 7658 41b7
00000130: 6a8f cfb6 47fb 92b7 9a41 fcb7 4914 e7b6
00000140: 43d5 c1b7 fe88 aab7 c0e4 7733 44ae fbb7
00000150: 2092 cf33 4cf7 bd37 d43f 2338 3887 d137
00000160: c432 f535 b154 36b7 4511 67b7 0551 6b36
00000170: 9449 a235 fdcf 1737 2362 7336 ae57 5cb6
00000180: 07de a9b7 6452 4db7 558a 6237 f0bd d9b7
00000190: 429c 6db6 665b c537 4457 edb7 3288 31b7
000001a0: bc03 6bb7 9e73 d337 6988 1eb8 338a 9c37
000001b0: 0886 7bb7 09ef a1b7 f444 4f37 7691 afb5
000001c0: 4223 5f35 ba39 4eb7 504c 0fb8 9363 6cb8
000001d0: 04ee f6b6 ea0c af37 0137 e6b7 3073 a1b8
000001e0: d8ee 8f37 a583 88b7 a2e8 2938 4888 6137
000001f0: ff27 9c37 98b4 cfb7 807a 99b4 d7c5 2537
