Assets/Learning/AIRollABall/results/WithObstacle/AIRollABall/AIRollABall-48456.onnx (onnx, 101856 bytes, 9 tensors)

network_body._body_endoder.seq_layers.0.weight f4 [128, 50]
0	0xbe3e6c87	-0.18596087
1	0x3e92c561	0.28666213
2	0xbc1f1f0e	-0.009711994
3	0x3e163117	0.14667164
4	0x3e8242e5	0.2544166
5	0xbc7df0f0	-0.0154993385
6	0xbe094a65	-0.13407286
7	0xbc24dcf2	-0.010062443
8	0x3cf4e10b	0.029892465
9	0x3d9f5208	0.07779318
10	0x3d107b99	0.035274122
11	0xbc9870a6	-0.018608402
12	0xbe74177d	-0.23837085
13	0xbbaf103a	-0.0053425105
14	0xbe904362	-0.2817641
15	0xbd92c8f1	-0.07167233
16	0xbdaf6bf4	-0.08565512
17	0xbdadc058	-0.08483952
18	0xbdeb50ae	-0.11489998
19	0x3cf68036	0.030090433
20	0xbd995325	-0.07486562
21	0x3c389797	0.011266611
22	0x3dddc001	0.108276375
23	0x3e1f03a3	0.15528731
24	0x3e7a41fa	0.2443923
25	0xbddd0c7c	-0.10793397
26	0x3e1d0fc4	0.15338045
27	0x3e63ac26	0.22233638
28	0xbd34cea3	-0.044142377
29	0xbdc7392a	-0.097277
30	0xbd77edae	-0.060529403
31	0x3d4c8578	0.049931973
32	0xbda17bcf	-0.07884943
33	0x3d850d4a	0.06496675
34	0x3db7ea4b	0.08980235
35	0xbd137776	-0.0360026
36	0xbc733c91	-0.014845983
37	0x3e8cbf85	0.27489868
38	0xbe000124	-0.12500435
39	0xbd3d422f	-0.046205696
40	0x3c74ea1f	0.014948397
41	0xbdaad09c	-0.0834057
42	0xbd1623be	-0.03665518
43	0x3de4712e	0.111544
44	0x3d42a663	0.04752196
45	0xbe21aa06	-0.15787515
46	0x3ea215d5	0.31657282
47	0xbda4a6f4	-0.08039656
48	0xbb40f5bf	-0.002944335
49	0xbdebc61e	-0.11512397
50	0xbc155888	-0.009115346
51	0x3d1971f9	0.03746221
52	0x3e4a94b9	0.19783296
53	0x3e8fa14e	0.28052753
54	0x3de7d181	0.113192566
55	0xbe0a4010	-0.13501
56	0xbdcfa411	-0.10138715
57	0xbd16151e	-0.036641233
58	0xbd898740	-0.0671525
59	0xbcd4d8ed	-0.025982345
60	0xbc6670d6	-0.014064988
61	0xbdbd8262	-0.09253384
62	0x3d3ae282	0.04562617
63	0x3db52958	0.08845776
64	0x3e812c7a	0.25229245
65	0xbd45c219	-0.04828081
66	0xbe1a9820	-0.15097094
67	0xbe60d2a2	-0.2195535
68	0xbe0c4a7b	-0.13700287
69	0xbdf9ba27	-0.12193709
70	0xbd08369e	-0.033255212
71	0x3c4e4eb1	0.012592004
72	0xbe108294	-0.14112312
73	0xbd977ec6	-0.07397227
74	0xbe8e0898	-0.27740932
75	0x3df24a17	0.11830538
76	0xbdf747ed	-0.12074266
77	0x3da78c71	0.08181084
78	0xbe48589c	-0.19565052
79	0x3e4766c2	0.19472793
80	0x3dd4d670	0.10392463
81	0xbde94316	-0.11389749
82	0xbe1f1af8	-0.15537632
83	0xbdb2eda0	-0.087367296
84	0xbcc2a7b0	-0.0237616
85	0xbda5fbd7	-0.08104675
86	0x3e2ff77f	0.17184256
87	0x3d3e26b6	0.046423636
88	0xbe0bf218	-0.1366657
89	0xbcb297fd	-0.02180099
90	0x3e61f58a	0.22066322
91	0xbdbd62a1	-0.092473276
92	0x3e288d62	0.16460183
93	0x3da4bc9a	0.080437854
94	0xbba6ce63	-0.005090521
95	0x3d501e57	0.050810184
96	0xbdca6595	-0.098826565
97	0x3dab71cc	0.083713144
98	0x3e097aa1	0.13425685
99	0xba154e36	-0.0005695553
100	0x3cc728d9	0.02431147
101	0xbc366d30	-0.011134431
102	0xbd29b90e	-0.041436248
103	0xbe1af285	-0.15131576
104	0xbea03ef6	-0.31298035
105	0xbd8758c2	-0.06608726
106	0xbe8b8d62	-0.27256304
107	0xbd169e3c	-0.036771998
108	0xbdbeb8e7	-0.09312611
109	0xbcae4e5d	-0.0212776
110	0xbe69e8b8	-0.22842681
111	0x3d4f154d	0.050557423
112	0x3ddc33ab	0.107520424
113	0xbd463d16	-0.0483981
114	0x3cbbfaf9	0.022946822
115	0x3dbc6ae0	0.09200072
116	0x3d47b575	0.048757035
117	0x3e85ebdd	0.26156512
118	0xbc1b53de	-0.009480445
119	0x3e486260	0.19568777
120	0xbdc63bfa	-0.09679408
121	0x3cddd0a7	0.027077032
122	0x3de42383	0.11139586
123	0x3c868573	0.016421055
124	0x3daf7746	0.085676715
125	0xbdf44153	-0.11926522
126	0x3d9ee2ee	0.07758127
127	0x3d111e75	0.035429437
128	0x3e17a8f2	0.14810541
129	0x3dbc7c40	0.09203386
130	0x3d91d0f5	0.071199335
131	0xbdc06854	-0.09394899
132	0x3ce6e1c5	0.028183827
133	0x3d2a846d	0.041630197
134	0x3c48c1d0	0.01225324
135	0xbe9150de	-0.2838201
136	0x3d91f2d0	0.07126391
137	0x3e8cece3	0.2752448
138	0x3e01802f	0.12646554
139	0x3e80a9fd	0.2512969
140	0x3d6d1b11	0.05788714
141	0x3e131f1b	0.14367335
142	0x3d0a0e32	0.033704944
143	0xbc2efd92	-0.010680573
144	0x3cea6c65	0.02861614
145	0x3ddda61a	0.10822697
146	0x3d95353c	0.07285544
147	0x3ce57de9	0.02801414
148	0x3cc819e0	0.0244264
149	0xbe11e9ac	-0.14249295
150	0x3d748493	0.059696745
151	0xbe33d995	-0.1756347
152	0x3b60b4df	0.0034287495
153	0x3dbfa984	0.093585044
154	0xbce3acd8	-0.02779238
155	0xbd62f6e1	-0.055411223
156	0x3de67ab4	0.112538725
157	0xbe3316ba	-0.17489138
158	0x3d172977	0.03690478
159	0xbdb9d04d	-0.09072933
160	0xbda86374	-0.08222094
161	0x3df9d373	0.12198534
162	0xbe6f8a27	-0.23392545
163	0xbe38ec9d	-0.18059011
164	0xbe8bfe07	-0.27342245
165	0xbe62b8e4	-0.22140843
166	0xbe6ff384	-0.23432738
167	0xbe3522e9	-0.17689098
168	0x3c878869	0.016544538
169	0xbecfa56a	-0.40555888
170	0xbe622379	-0.22083844
171	0xbd0e6aed	-0.03476994
172	0xbdc7123c	-0.09720275
173	0xbdff60b4	-0.124696165
174	0x3b4778cf	0.0030436998
175	0xbdd26606	-0.10273366
176	0xbdc13821	-0.09434534
177	0x3e97cdcd	0.296492
178	0xbda2cc4c	-0.07949123
179	0x3e41fc53	0.1894391
180	0xbe82795b	-0.25483212
181	0x3bf43841	0.007452995
182	0x3e7165df	0.23574017
183	0xbd00cb14	-0.03144367
184	0x3e568497	0.20949017
185	0xbec9bdcc	-0.39402616
186	0x3d40674c	0.04697351
187	0x3da3feb4	0.08007565
188	0x3d89912e	0.06717144
189	0x3cd50625	0.026003907
190	0xbc023fd6	-0.00794979
191	0xbe7ad181	-0.24493982
192	0xbe0078a7	-0.12546025
193	0xbe105992	-0.14096668
194	0x3e4ba955	0.19888814
195	0xbdf4fa60	-0.11961818
196	0x3ba53982	0.005042256
197	0xb8d220e6	-0.00010019708
198	0x3e32897a	0.17435256
199	0x3e104286	0.14087877
200	0xbe2e7a98	-0.17038953
201	0xbdb5c8ec	-0.088762134
202	0xbc874e83	-0.01651693
203	0xbdb4fca1	-0.08837248
204	0x3d64398d	0.055718947
205	0xbda96045	-0.08270315
206	0x3d9f9a58	0.077931106
207	0x3c708037	0.014679006
208	0xbde4b69e	-0.11167644
209	0x3baf61af	0.005352221
210	0x3e9d344b	0.3070396
211	0xbcda7e2f	-0.026671497
212	0x3d17acf6	0.037030183
213	0xbd8721ee	-0.065982684
214	0x3eb5002e	0.353517
215	0x3e320b4e	0.17387125
216	0xbebd79ca	-0.3700698
217	0xbe16fb82	-0.1474438
218	0x3e530b36	0.20609745
219	0xbd8f5704	-0.06999019
220	0xbdf43719	-0.119245715
221	0xba7b3a49	-0.00095835753
222	0x3e1fbeca	0.15600124
223	0x3dab8e2e	0.08376728
224	0x3c9edd6d	0.019392693
225	0x3e1f8f63	0.15582041
226	0x3e15f003	0.14642338
227	0xbdba51c6	-0.09097628
228	0xbda2ab9e	-0.0794289
229	0xbd51ad65	-0.051190753
230	0xbdf9add3	-0.121913575
231	0x3e7ff18d	0.24994488
232	0xbd066914	-0.032815054
233	0x3e3e322c	0.18573827
234	0xbe14901a	-0.14508095
235	0x3e67272f	0.22573541
236	0xbd83e22e	-0.06439625
237	0xba9b1c92	-0.0011834076
238	0x3ddc54e8	0.10758382
239	0xbd8f2874	-0.06990138
240	0xbde01f3f	-0.1094346
241	0xbe6909a8	-0.2275759
242	0x3e8578b2	0.26068646
243	0x3e411961	0.18857338
244	0x3dc8558a	0.0978194
245	0x3c1925c4	0.009347383
246	0xbe570fe7	-0.2100216
247	0x3cb1c675	0.021701077
248	0xbe941ae0	-0.28926754
249	0xbd7a66a2	-0.061133035
250	0x3d42ff84	0.04760696
251	0x3e06aa07	0.13150798
252	0xbe2f6d70	-0.17131591
253	0xbe7f6fd7	-0.24945007
254	0xbe8160fb	-0.25269303
255	0x3e1ab526	0.15108165

network_body._body_endoder.seq_layers.0.bias f4 [128]
0	0xbabeb3f6	-0.0014549482
1	0x3b04d54b	0.0020268734
2	0xbb2844ec	-0.0025675846
3	0xb9c8bbeb	-0.00038286982
4	0x3b89ab80	0.0042013526
5	0x3b520fac	0.0032052798
6	0x3b58d80c	0.0033087758
7	0x3b3b5640	0.0028585345
8	0xbb9d43e9	-0.0047993553
9	0xb9e90c12	-0.00044450216
10	0x3b377a9d	0.0027996667
11	0x3b26e8cb	0.0025468345
12	0xbac38513	-0.0014916979
13	0xbb423d94	-0.0029638754
14	0xb98e639a	-0.0002715856
15	0xba45c159	-0.00075437647
16	0x3ab19d6c	0.0013550944
17	0xbadcedc9	-0.0016855533
18	0xbbf17f11	-0.007369884
19	0x3af1ca7b	0.0018447185
20	0x3b0fa2aa	0.0021917024
21	0x3a9b7c9b	0.0011862697
22	0xb9d99729	-0.00041502088
23	0x3b5c1708	0.0033583064
24	0xbb2e79f3	-0.002662298
25	0x3b01a479	0.0019781871
26	0xbb3ab8b9	-0.002849145
27	0xbb263300	-0.0025359988
28	0xbad1b6cb	-0.0015999911
29	0x3b43857b	0.00298342
30	0x3b71971e	0.0036863755
31	0xbba46e4b	-0.0050180308
32	0x3ad4d1b3	0.0016236812
33	0xbb91d361	-0.004450247
34	0x3afe6b89	0.001941071
35	0xba88041f	-0.0010377205
36	0xbb7c6652	-0.0038513136
37	0x3a758193	0.00093653164
38	0x3b39a640	0.0028327852
39	0x3b9842c1	0.0046466296
40	0xbb0d2ca1	-0.0021541493
41	0xbabb0b39	-0.0014270312
42	0x3bce0ee8	0.006288398
43	0x398343ec	0.00025036873
44	0x3a740814	0.0009309065
45	0xb892a570	-6.992638e-05
46	0x3ae9aaec	0.0017827428
47	0xbad9f862	-0.001662981
48	0x3b07971f	0.002068944
49	0x3c0d21c8	0.008614011
50	0x3b0af8a3	0.0021205328
51	0x3c113641	0.008863033
52	0x3a6f7766	0.0009134918
53	0x3919c09c	0.0001466297
54	0x3ae905d5	0.0017778227
55	0xbac23a3a	-0.0014818378
56	0xbae7f2be	-0.0017696244
57	0xb91d4f7f	-0.00015002301
58	0x3af36393	0.0018569104
59	0x3a3b9d7c	0.0007156951
60	0x391be72e	0.00014868073
61	0x38c9bd16	9.619647e-05
62	0xb9816721	-0.00024681634
63	0xbafe6aba	-0.0019410469
64	0xbb4c3106	-0.003115715
65	0xbb46bd3e	-0.00303252
66	0x3abc05c4	0.001434498
67	0x3b6acb7c	0.0035826853
68	0xbb4ea400	-0.0031530857
69	0x3b8517dc	0.004061682
70	0xbb85995e	-0.0040771207
71	0xbab86980	-0.0014069527
72	0x399957e2	0.00029247912
73	0xbb5b8c63	-0.0033500425
74	0x39aca568	0.00032929634
75	0xbab77144	-0.0013995548
76	0xb9620334	-0.00021554233
77	0xbb782331	-0.0037862773
78	0xb8136a00	-3.514625e-05
79	0x3b8518c2	0.0040617893
80	0xb9f6ff6a	-0.00047111075
81	0x3a49a181	0.00076916075
82	0x3b336697	0.002737438
83	0x3bd44443	0.006477864
84	0x3acaa5b7	0.0015460764
85	0xb958c914	-0.00020674273
86	0xbb9144a3	-0.004433231
87	0x3b6ca76c	0.0036110533
88	0xbb1d73df	-0.0024025363
89	0x3b147214	0.0022651004
90	0x3b592dc1	0.0033138844
91	0x3b0099ed	0.0019622997
92	0xba8a67cd	-0.00105595
93	0x3b01a074	0.0019779475
94	0x3a6b3df1	0.00089737686
95	0x3b240242	0.002502576
96	0x3b537df2	0.0032271114
97	0xba46c0f6	-0.0007581854
98	0xbb964360	-0.0045856684
99	0xbafc5e99	-0.0019254267
100	0x3b164142	0.002292708
101	0x390a0dc3	0.00013165832
102	0x3b1f12de	0.002427272
103	0xba974313	-0.0011540375
104	0xbab8f8de	-0.0014112254
105	0x3b2de064	0.0026531452
106	0xbb504848	-0.0031781364
107	0x3bf86613	0.0075805276
108	0xba722143	-0.0009236524
109	0x3b14169b	0.0022596482
110	0xba20c505	-0.0006132874
111	0x38b6ee58	8.722831e-05
112	0xbae3f442	-0.001739152
113	0x3bb3db99	0.0054888246
114	0x39c7b4bb	0.00038090892
115	0x389f0cae	7.5840726e-05
116	0xba51a0ac	-0.0007996659
117	0x3b81f71c	0.0039662253
118	0xbb097cbd	-0.002097889
119	0x3b8d3914	0.0043097828
120	0x3b857138	0.0040723346
121	0xbac00b4d	-0.0014651805
122	0xba05c7a7	-0.0005103298
123	0x39f5a18c	0.00046850403
124	0xba8e4a49	-0.0010855879
125	0xb80b04d0	-3.3144664e-05
126	0x3b4a82d7	0.003090074
127	0xbb3bc7cd	-0.0028653026

network_body._body_endoder.seq_layers.2.weight f4 [128, 128]
0	0xbceb92ab	-0.02875646
1	0x3cfa99a8	0.030590847
2	0xbcd477fa	-0.025936116
3	0xbd46b38d	-0.048511077
4	0xbdf5d759	-0.12003965
5	0x3e1280ca	0.14306942
6	0x3da174ec	0.07883629
7	0x3e8559c7	0.26045057
8	0x3d0e4548	0.03473404
9	0x3c8fad57	0.01753871
10	0x3d888236	0.06665461
11	0xbd185bf2	-0.03719706
12	0x3cae671c	0.0212894
13	0x3d5557c6	0.05208566
14	0x3e0f3e49	0.13988604
15	0x3d653fb3	0.05596895
16	0x3ce0ddf3	0.027449584
17	0xbd4c07ae	-0.04981201
18	0xbdd8e268	-0.105900586
19	0xbdc78034	-0.0974125
20	0xbcf2c503	-0.029634958
21	0x3dcfbc43	0.1014333
22	0xbe06d7c0	-0.1316824
23	0xbd3fde95	-0.04684313
24	0xbe013a31	-0.12619855
25	0xbcb4239d	-0.021989638
26	0x3d1cb3f8	0.03825757
27	0x3b8cf5b2	0.00430175
28	0x3cfc131e	0.030770835
29	0x3d583406	0.05278399
30	0x3d8c35a1	0.068461664
31	0x3d4c40af	0.049866375
32	0x3e09483f	0.13406466
33	0xbc92cd7a	-0.017920244
34	0x3d4de091	0.05026299
35	0x3e1f5e48	0.15563309
36	0xbd7558ee	-0.059899263
37	0xbe008324	-0.12550026
38	0x3d72e788	0.059302837
39	0xbdb026c9	-0.08601148
40	0xbd8c0cd7	-0.068383865
41	0xbd25f354	-0.04051526
42	0x3c5e416f	0.013565405
43	0xbdc8e42b	-0.098091446
44	0x3d656901	0.056008343
45	0xbcde7bec	-0.0271587
46	0x3cddfde9	0.027098613
47	0xbd6eaa17	-0.05826768
48	0xbcb847e9	-0.022495227
49	0xbd863930	-0.065538764
50	0xbe557aab	-0.20847575
51	0xbdf2f6b5	-0.11863462
52	0x3e1e2a20	0.15445757
53	0xbcf1971f	-0.029491005
54	0xbdffc201	-0.12488175
55	0xbd9c808f	-0.07641708
56	0xbd262693	-0.04056413
57	0xbd8cc6e4	-0.06873873
58	0x3ddfbb60	0.10924411
59	0x3d0991b0	0.033586204
60	0x3bea6e42	0.007154257
61	0xbe0dbf3d	-0.13842483
62	0xbbeed5bd	-0.007288663
63	0xbd12a271	-0.035799447
64	0x3d428aef	0.04749578
65	0x3e1ae167	0.15125047
66	0xbe183371	-0.14863373
67	0x3d8c336e	0.06845747
68	0xbe33c5ff	-0.17555998
69	0x3c93970a	0.018016357
70	0x3c62aa3e	0.013834534
71	0xbd90cece	-0.07070695
72	0x3c68b812	0.014204042
73	0x3e14c895	0.14529641
74	0x3b6af029	0.0035848713
75	0x3b9633b0	0.0045837983
76	0x3d55319f	0.052049275
77	0xbd657432	-0.056019016
78	0x3dfdad89	0.12386615
79	0x3e2d4994	0.16922599
80	0xbe168c43	-0.14701943
81	0xbd45b478	-0.04826781
82	0x3c6b92ac	0.014378231
83	0xbe50e842	-0.204011
84	0xbd9149f4	-0.070941836
85	0x3ddea0ec	0.10870537
86	0xbdd7f385	-0.105444945
87	0x3d58fae3	0.05297364
88	0xbd1776bd	-0.036978472
89	0xbc963ba0	-0.018338978
90	0x3bb9f937	0.0056754607
91	0x3da59bbd	0.08086345
92	0xbce0736b	-0.027398786
93	0x3d0f3f72	0.034972616
94	0x3dd7a1a3	0.10528877
95	0x3d8787c2	0.066176906
96	0xbb4794a8	-0.0030453596
97	0xbd86cc5a	-0.06581946
98	0xbdde9d8b	-0.10869893
99	0x3ddd70de	0.10812543
100	0x3da8a5a8	0.082347214
101	0xbd9542ef	-0.07288157
102	0xbe1023d8	-0.14076173
103	0x3e1cdc7d	0.15318485
104	0x3d221091	0.03956658
105	0x3ca54914	0.020176448
106	0x3d94498c	0.072405905
107	0x3dc8bd09	0.098016806
108	0xbe0157d8	-0.12631166
109	0xbd7bc3b5	-0.061465938
110	0xbd334512	-0.043767042
111	0xbd8d9325	-0.06912831
112	0xbd397bac	-0.04528396
113	0xbd6c7682	-0.057730205
114	0xbd1e939a	-0.038714983
115	0xbd4c3e11	-0.04986388
116	0xbdc6d512	-0.09708609
117	0xbd4a3494	-0.04936655
118	0x3d81e23d	0.0634198
119	0x3dce180d	0.10063181
120	0xbdf333e3	-0.11875131
121	0x3ba45527	0.0050150338
122	0x3dde231c	0.1084654
123	0xbd978676	-0.07398693
124	0xbd828ee7	-0.06374913
125	0x3d7db1c4	0.06193711
126	0x3d6532e0	0.05595672
127	0xbd92b80d	-0.07164011
128	0x3bcb4997	0.006203841
129	0xbe0fd349	-0.14045443
130	0x3d4600ac	0.048340484
131	0x3e03b89a	0.12863389
132	0xbbb2a46b	-0.005451729
133	0x3c6aa062	0.014320465
134	0xbd0cdeba	-0.034392096
135	0x3dbaef7e	0.09127711
136	0xbe162267	-0.14661561
137	0xbde313f4	-0.1108779
138	0x3cd64277	0.02615474
139	0x3d9372b9	0.07199616
140	0x3d0190ea	0.03163234
141	0x3e34aa5a	0.17643109
142	0x3c638246	0.01388604
143	0x3bcffe6f	0.0063474695
144	0x3e213c72	0.15745714
145	0x3d9558cd	0.07292328
146	0xbd737e9b	-0.059446912
147	0x3b9c4171	0.0047685434
148	0x3e15d102	0.14630511
149	0xbc812a45	-0.015767226
150	0xbd1780c6	-0.036988042
151	0xbd31d06c	-0.043411657
152	0x3d3ed8f5	0.046593625
153	0xbd2c1b21	-0.04201806
154	0xbdf628f0	-0.12019527
155	0x3ce0e688	0.027453676
156	0x3cf3f533	0.029780006
157	0xbb098e5d	-0.0020989396
158	0x3d68bb37	0.056819167
159	0xbdf20cf0	-0.11818874
160	0xbe4bd3ce	-0.19905016
161	0xbd9cf96d	-0.07664762
162	0x3e344b1b	0.17606775
163	0x3e44749a	0.19185105
164	0xbd4f1b73	-0.050563287
165	0xbe263a4b	-0.16233175
166	0xbd48bfa4	-0.049010888
167	0xbd5ac7dc	-0.053413257
168	0x3d7c1b88	0.061549693
169	0x3cc4e362	0.024034206
170	0x3dc6dcb1	0.09710062
171	0x3dc1e69f	0.094678156
172	0xbde6f25e	-0.112766966
173	0xbd78e5ad	-0.06076591
174	0x3e0fde62	0.14049676
175	0xbc8a5b34	-0.016889192
176	0xbcb2ff28	-0.021850184
177	0x3cb760b9	0.022384988
178	0x3dc08ef9	0.0940227
179	0xbd72d4d9	-0.05928502
180	0xbe2397d4	-0.15975887
181	0xbd4112fa	-0.047137238
182	0xbe0e5ec8	-0.13903344
183	0x3db9298f	0.0904113
184	0xbd7372f7	-0.05943581
185	0xbe0e002a	-0.1386725
186	0xbb3f89b5	-0.0029226367
187	0xbd494d4e	-0.04914599
188	0x3d2ab125	0.041672844
189	0x3d99e952	0.075152054
190	0x3d27276d	0.040809084
191	0x3dff15fc	0.12455365
192	0x3c603945	0.013685529
193	0x3d03d332	0.032183833
194	0x3d3b6b65	0.045756716
195	0x3d112f52	0.03544552
196	0xbe7c2eb9	-0.24627198
197	0xbe18fa45	-0.1493922
198	0x3dcb431a	0.09924908
199	0xbe001a09	-0.12509932
200	0x3d4ded36	0.05027505
201	0x3b10d542	0.0022099768
202	0xbe096ab0	-0.13419604
203	0x3e3e407f	0.18579291
204	0x3d9f61e8	0.07782346
205	0x3d99d541	0.07511378
206	0xbdb2d9df	-0.08732962
207	0xbd03588f	-0.032066878
208	0x3d932449	0.07184655
209	0xbc84d0d4	-0.016212858
210	0x3d8c0e6b	0.068386875
211	0xbd2fd4e4	-0.042927638
212	0x3cb0aabf	0.021565793
213	0xbdb53662	-0.08848263
214	0xbd2de03a	-0.042450167
215	0x3d6e8465	0.05823173
216	0x3e877d59	0.2646282
217	0xbc726d2e	-0.014796538
218	0x3dc9c5a3	0.09852149
219	0x3ddc5087	0.10757547
220	0xbb6d5440	-0.0036213547
221	0xbdf26a92	-0.11836733
222	0xbde120f2	-0.10992612
223	0x3d2de37c	0.042453274
224	0x3dde68ed	0.10859857
225	0xbcdb3b76	-0.026761752
226	0x3c578dd4	0.013156373
227	0xbdccf9a1	-0.100085504
228	0xbd8a4f0a	-0.06753357
229	0x3d6466aa	0.05576197
230	0x3e146dbf	0.1449499
231	0xbddda468	-0.10822374
232	0x3c95b63d	0.018275375
233	0x3ca9dd8c	0.020735525
234	0xbd96e909	-0.07368667
235	0x3dbc8cda	0.09206553
236	0xbd8832b1	-0.066502936
237	0xbd3c34a2	-0.045948632
238	0xbc58fa8c	-0.013243329
239	0x3dc3f8a7	0.09568911
240	0xbbd1707b	-0.0063915825
241	0x3e324b9d	0.17411657
242	0xbdd1a60f	-0.10236751
243	0xbd08da31	-0.03341121
244	0xbd7bd4a3	-0.061482083
245	0xbd2f330d	-0.042773295
246	0xbd734bdd	-0.05939852
247	0xbcd4cdc2	-0.02597702
248	0xbca62a22	-0.020283762
249	0x3d2a8db4	0.041639045
250	0x3d9bcbb4	0.07607213
251	0x3c4a0615	0.012330552
252	0x3cf2177b	0.029552212
253	0xbe0feb82	-0.14054683
254	0x3da6697f	0.081255905
255	0x3d5efe2f	0.054441627

network_body._body_endoder.seq_layers.2.bias f4 [128]
0	0xb9a69639	-0.00031773912
1	0x39b8495f	0.0003514988
2	0x3a2587dc	0.0006314495
3	0x399a2798	0.0002940267
4	0x3aa6fe8c	0.0012740656
5	0xbacb35c8	-0.0015503699
6	0xb99d0097	-0.00029945813
7	0xb96da529	-0.00022663608
8	0xbaf0f48e	-0.001838343
9	0xba2ecaf4	-0.00066678156
10	0x39ab64e2	0.00032690825
11	0xbb0b7b6e	-0.0021283287
12	0x3b0242e4	0.0019876296
13	0x3a93d555	0.0011278788
14	0xbb48330e	-0.003054801
15	0xbb899f11	-0.0041998704
16	0x38c212fc	9.254177e-05
17	0xbb801bc6	-0.003909561
18	0x3a8abbdb	0.001058455
19	0xb95164da	-0.00019969363
20	0x3b154b27	0.002278039
21	0x3b904dd3	0.0044038086
22	0xba607cb4	-0.0008563504
23	0xb7e15230	-2.6860362e-05
24	0xb90b63cd	-0.00013293252
25	0xbb1b4c72	-0.0023696688
26	0x391df844	0.00015065173
27	0xbaf43cbc	-0.0018633823
28	0xb8fde3ba	-0.000121063975
29	0xb9be934a	-0.00036349363
30	0x38d647e4	0.00010217706
31	0x3a140cc4	0.0005647654
32	0xb9952a25	-0.00028450895
33	0x3b208f64	0.002449953
34	0x39c099e4	0.0003673575
35	0x3b234102	0.0024910574
36	0xbb650a71	-0.003494885
37	0x3a8f7e74	0.001094772
38	0x3a4b28ee	0.00077499344
39	0x39802a86	0.00024445745
40	0xba10beeb	-0.0005521613
41	0xba4180eb	-0.0007381576
42	0xbacf7203	-0.0015826825
43	0xba701e00	-0.0009159744
44	0x3afd95fd	0.0019347068
45	0x3b4479c0	0.0029979795
46	0xbac905f4	-0.0015336857
47	0xbaeda2da	-0.0018130199
48	0xbb382119	-0.00280959
49	0x3b1ee250	0.002424378
50	0xb9587b5b	-0.00020645319
51	0xbad5b8d9	-0.0016305699
52	0x3b03a440	0.0020086914
53	0xbaa5ec44	-0.0012658914
54	0xbaf6a711	-0.00188181
55	0xba272f16	-0.0006377561
56	0x3bbb574a	0.005717193
57	0x3954221a	0.000202306
58	0x3994856b	0.00028328164
59	0x3b57228c	0.0032826988
60	0xba10a578	-0.0005517821
61	0xb95a0fe6	-0.00020796023
62	0xbb1f6a39	-0.0024324788
63	0xb93273ee	-0.0001701859
64	0x38f9ff46	0.000119207936
65	0xba643371	-0.0008705175
66	0xba80f2ac	-0.0009837947
67	0xb977858a	-0.00023605503
68	0xbb10b4a0	-0.0022080317
69	0xbaa72865	-0.0012753127
70	0xb9c8ba26	-0.00038285664
71	0xb9fa38f0	-0.00047726138
72	0x392b2037	0.00016319832
73	0x3ab9e83c	0.0014183591
74	0xba86da86	-0.0010288514
75	0xbad2badf	-0.001607742
76	0x3a3a57c0	0.00071084127
77	0xbac6c2a3	-0.0015164207
78	0x3b1ae424	0.0023634518
79	0xbaddeb6e	-0.0016931125
80	0xbb0f81b9	-0.002189739
81	0xb966bc51	-0.00022004663
82	0x3ae3ce29	0.0017380166
83	0xbb40ec23	-0.0029437623
84	0xbacd1305	-0.0015645927
85	0x38dee6e6	0.00010628793
86	0xbb941677	-0.0045192796
87	0x3ac65865	0.0015132545
88	0x3aeb7fd4	0.0017967173
89	0xb9c5e787	-0.0003774727
90	0x3abe67ee	0.0014526823
91	0x3a8db02c	0.001080995
92	0xbb448014	-0.0029983567
93	0x3a2a3c56	0.0006493976
94	0x3950d2f5	0.00019915013
95	0xba48b4d3	-0.00076563394
96	0xb88f866b	-6.843809e-05
97	0x38d5425b	0.00010168991
98	0xbac1dd38	-0.001479066
99	0x3966e147	0.00022018432
100	0xb9d94226	-0.0004143875
101	0xba848ff1	-0.0010113699
102	0xbafd1164	-0.0019307551
103	0x3b594a6a	0.0033155927
104	0xbb1a27cf	-0.0023522263
105	0x3aa4ac78	0.0012563607
106	0xba435a2f	-0.0007452098
107	0xb9d21e8f	-0.0004007709
108	0x3a8cad8a	0.0010732871
109	0xbab371ae	-0.0013690495
110	0xbac363c7	-0.0014907055
111	0xba3da6b5	-0.0007234619
112	0xba852bd0	-0.0010160152
113	0xba2628c9	-0.0006338475
114	0xbacdc07e	-0.0015697626
115	0xbacc24ef	-0.0015574972
116	0x3ab50414	0.001381042
117	0xbbaf4c60	-0.005349681
118	0x3b46df9a	0.003034568
119	0xbb2098b3	-0.0024505078
120	0xba0c7934	-0.0005358637
121	0x3ad66683	0.0016357455
122	0xba56b30c	-0.0008190132
123	0xbb14d4bb	-0.0022709805
124	0xba9c4bd4	-0.0011924454
125	0xba9f3f0a	-0.0012149524
126	0xba2cb320	-0.0006587971
127	0x3b4975a6	0.003074029

action_model._continuous_distribution.log_sigma f4 [1, 3]
0	0xbb03ff57	-0.0020141208
1	0x3b5be3be	0.0033552493
2	0x3b10aa7a	0.0022074268

action_model._continuous_distribution.mu.weight f4 [3, 128]
0	0x3d14ee81	0.036360268
1	0xbba4a022	-0.005023972
2	0x3b88114e	0.0041524535
3	0xbc8300b0	-0.015991539
4	0x3bc73ed6	0.0060804887
5	0x3b48d412	0.0030643982
6	0xba417652	-0.0007379997
7	0xba5b037a	-0.0008354705
8	0x3c876597	0.016527934
9	0x3cf6f677	0.03014682
10	0xbc9fc5fc	-0.019503586
11	0x3ce80f95	0.028327743
12	0xbc91c1eb	-0.017792663
13	0xbd1f9966	-0.03896465
14	0x3a55665e	0.0008140559
15	0xb97cded6	-0.00024115606
16	0x3bba5cd2	0.0056873346
17	0x3c0b66fa	0.008508438
18	0xbc826b0f	-0.01592019
19	0xbc5eada0	-0.0135912
20	0xbc568c29	-0.01309494
21	0x3c44a166	0.012001371
22	0xbc95ad35	-0.018271068
23	0x3bfb3f5a	0.007667464
24	0x3d154520	0.036442876
25	0xba710c32	-0.00091952377
26	0xbc55b446	-0.013043469
27	0x3c86bc54	0.016447224
28	0xbc0d47c6	-0.008623069
29	0xbc947c18	-0.018125579
30	0x3c4280ff	0.011871575
31	0x3d36d2e6	0.044634722
32	0x3bcba628	0.0062148757
33	0xbbe981d7	-0.007126074
34	0x3ba342c5	0.004982325
35	0xbba665a2	-0.0050780335
36	0x39687c8a	0.00022171639
37	0x3c05ac13	0.0081587015
38	0xbc44ba8e	-0.012007369
39	0xbc9376ec	-0.018001042
40	0x3c4ccb1a	0.012499595
41	0x3c6750c1	0.014118374
42	0x3c9ababc	0.01888787
43	0x3ce962c4	0.028489478
44	0xbcb1c939	-0.021702396
45	0x3b4ef3ed	0.0031578497
46	0xbc07c48c	-0.0082866065
47	0x3c5d2422	0.013497384
48	0xbc0538d0	-0.008131221
49	0xbc27f422	-0.010251077
50	0xbc03b458	-0.008038603
51	0xba8464a4	-0.0010100794
52	0x3d3814cf	0.04494172
53	0x3c8fe350	0.017564446
54	0xbb72199b	-0.0036941532
55	0x3aab1ec7	0.0013055437
56	0x3be63406	0.0070252446
57	0x3bc37f20	0.005966082
58	0xbc9bc178	-0.019013152
59	0x3ae2c50e	0.0017301159
60	0x3c94232f	0.018083183
61	0xbc4d182e	-0.012517972
62	0xba6e58d0	-0.00090922136
63	0x3cac7723	0.021052903
64	0x3d152dba	0.03642056
65	0xbaaadc19	-0.0013035565
66	0x3c183b89	0.009291538
67	0xbca54ac2	-0.020177249
68	0xbcffcd6d	-0.031225884
69	0xbb813dba	-0.003944126
70	0xbd0b6e8c	-0.034040973
71	0x3c329290	0.010899201
72	0x3d239060	0.03993261
73	0x3b32318a	0.0027190172
74	0x3af59896	0.0018737491
75	0x3aa416aa	0.0012518961
76	0x3acaedc9	0.0015482242
77	0x3c10274e	0.0087984335
78	0x3c0fa14f	0.008766486
79	0xbc24acb8	-0.010050945
80	0x3cbfd007	0.023414625
81	0xbcd4a07a	-0.025955427
82	0xbcbbfd48	-0.022947922
83	0xbc1c74e1	-0.0095493505
84	0x3c69bb84	0.014265899
85	0xbc426fa4	-0.0118674375
86	0x3c2c08fa	0.010500187
87	0xbd0d9b4b	-0.034571927
88	0x3be04980	0.0068446994
89	0xbc66befd	-0.014083621
90	0xbc2c762e	-0.010526223
91	0x3ccc9745	0.024974475
92	0xbbb47961	-0.0055076336
93	0xbc5ab9e3	-0.013349983
94	0x3cf3c9dd	0.029759342
95	0x3cac8043	0.021057254
96	0xbcbcb470	-0.023035258
97	0xbbc1cd2d	-0.0059143514
98	0x3c396f5a	0.011318052
99	0x3c93d7c6	0.018047225
100	0x3d0d1551	0.034444157
101	0xbcb4017f	-0.02197337
102	0x3cc4509a	0.023964215
103	0xbc6b470d	-0.014360202
104	0x3bfbbe4a	0.0076825963
105	0x3b6f3154	0.0036497908
106	0x3bf52b8e	0.0074819988
107	0x3bbb0110	0.005706914
108	0x3b48563d	0.003056898
109	0xbc151181	-0.009098412
110	0xbbc48bb2	-0.0059980983
111	0xb91c437d	-0.0001490246
112	0xbce225a0	-0.027605832
113	0xbc287e0e	-0.01028396
114	0xbbaf9059	-0.0053577838
115	0xbb51d83e	-0.003201976
116	0xbc89c5ea	-0.016818006
117	0x3ba14409	0.0049214405
118	0xba1178cc	-0.0005549311
119	0x3aaf1f6f	0.0013360808
120	0xbcc2b7ed	-0.023769343
121	0x3d1291aa	0.035783447
122	0x3c350b00	0.011049986
123	0x3c99adae	0.018759575
124	0x3cd0157f	0.025400875
125	0x3bf7f54e	0.0075670844
126	0x3d05420b	0.032533687
127	0x3c9037cf	0.017604737
128	0x3ce4c0fa	0.02792405
129	0xbc9ce7bb	-0.019153466
130	0x3cccee8d	0.025016094
131	0x3c71f367	0.014767504
132	0xbc8c8ec4	-0.01715792
133	0xbc2b86f7	-0.01046919
134	0xbca1ddf1	-0.01975915
135	0x3cc6199d	0.024182135
136	0x3ae2692b	0.0017273774
137	0xbb64acd6	-0.0034893057
138	0x3bf15205	0.007364514
139	0x3c7e24cb	0.015511702
140	0xbc51c1ce	-0.012802554
141	0x3c5e8853	0.013582307
142	0x3c867ae4	0.01641602
143	0xbbf81b02	-0.007571579
144	0x3bc8152f	0.006106041
145	0x3b290917	0.0025792771
146	0xbc5daf5f	-0.013530581
147	0x3becf7d4	0.007231692
148	0xbcbc9f25	-0.023025105
149	0xbcf3269b	-0.029681494
150	0x3abc4d4e	0.00143663
151	0xbc63521e	-0.013874559
152	0xbc9920f4	-0.018692471
153	0x3b841e6b	0.0040319464
154	0x3c22aa09	0.009928235
155	0x3b809458	0.003923934
156	0x3bc2dae8	0.005946506
157	0x3be927ee	0.0071153557
158	0xbb9a6236	-0.0047114147
159	0xbc03f288	-0.008053429
160	0xbc81fe93	-0.01586846
161	0xbb31a336	-0.0027105338
162	0xbce43422	-0.02785689
163	0xbc637557	-0.0138829565
164	0xbbfd4ecc	-0.0077303406
165	0xbbfd47ed	-0.0077295215
166	0x3c28beb9	0.010299378
167	0xbcdeb82f	-0.027187435
168	0x3d2a97df	0.04164874
169	0x3bc0d377	0.0058845836
170	0xbce043bd	-0.02737605
171	0x3b12713e	0.002234533
172	0xbc5c9719	-0.013463759
173	0xbc3405d3	-0.010987717
174	0x3c738aaa	0.014864603
175	0xbbc76044	-0.006084474
176	0xbb847ef3	-0.004043454
177	0xbb20d3ce	-0.0024540308
178	0x3c4b7310	0.01241757
179	0xbd1f3e81	-0.038877968
180	0xbbf23930	-0.007392071
181	0xbbba0746	-0.0056771366
182	0xbad193d0	-0.0015989486
183	0xbcde49ce	-0.027134802
184	0xbc9a715e	-0.018852886
185	0xbcbb523c	-0.02286636
186	0x3b7e753a	0.0038827197
187	0x3bc90b3d	0.006135373
188	0x3b5a42cd	0.0033303977
189	0xbd19f623	-0.03758825
190	0xba0b3d39	-0.0005311552
191	0x3c020995	0.007936855
192	0x3c8fc77a	0.017551173
193	0xbcbce2e5	-0.02305741
194	0x3c3fbdc8	0.011702962
195	0xbcc3b779	-0.023891198
196	0x3c1262f6	0.008934727
197	0xba4e36b8	-0.000786643
198	0xbcb39457	-0.02192132
199	0xbc82d06a	-0.01596852
200	0xbd2959ee	-0.04134553
201	0xbaf88345	-0.001896002
202	0x3c9a59d9	0.01884167
203	0x3bd88c53	0.006608525
204	0x3baded04	0.0053077955
205	0x3b9df76e	0.0048207557
206	0x3cac874e	0.021060612
207	0x3ca5270a	0.020160217
208	0xbc1d30b3	-0.00959413
209	0x3c2a3353	0.010388213
210	0x3c0236d7	0.007947645
211	0xbc4179c9	-0.011808821
212	0x3c22004e	0.009887768
213	0xbd2915ec	-0.041280672
214	0x3c7175d4	0.014737565
215	0xb9003186	-0.0001222548
216	0x3bc0ef6d	0.005887917
217	0x3b9d43ef	0.004799358
218	0xbc943b43	-0.018094664
219	0x3cb2c92e	0.021824446
220	0x3c13e565	0.00902686
221	0x39a46734	0.0003135741
222	0xbbd781dd	-0.00657676
223	0x3cb84da2	0.022497956
224	0x3c18b064	0.009319399
225	0xbc9e2589	-0.019305008
226	0x3b975cbc	0.004619209
227	0xbc3098ac	-0.010778587
228	0xbc18e04d	-0.009330821
229	0x3b8077ef	0.003920547
230	0x3ba515d1	0.005038001
231	0xbce2232a	-0.027604658
232	0x3cb51750	0.022105843
233	0xbbcc9b2d	-0.0062440843
234	0xbc1f9fe4	-0.009742711
235	0xbc8b3b42	-0.01699603
236	0xbd64fe51	-0.055906598
237	0xbcdbf3e9	-0.026849704
238	0x3cf4710c	0.029839061
239	0xbccf2550	-0.025286347
240	0x3b17da1c	0.0023170775
241	0x3c614364	0.013748977
242	0x3bc75f2c	0.0060843434
243	0x3c10ea5e	0.00884494
244	0xbd234da1	-0.039868955
245	0xbba384ea	-0.00499021
246	0xbb0195c3	-0.0019773103
247	0xbc3ae7fe	-0.01140785
248	0xbcb97298	-0.02263765
249	0x3c4ed4a1	0.012623937
250	0x3c9ff37f	0.019525288
251	0xb92d2a9c	-0.00016514439
252	0xbcc298fd	-0.023754591
253	0xbb0d8c2b	-0.002159844
254	0xbc43f5bc	-0.011960443
255	0xbc4fd5cb	-0.01268525

action_model._continuous_distribution.mu.bias f4 [3]
0	0xba12cef7	-0.0005600298
1	0x3a0eb7b8	0.00054442463
2	0xbaf650ea	-0.0018792425

action_model._discrete_distribution.branches.0.weight f4 [2, 128]
0	0xbc8ca0a7	-0.017166449
1	0x3c37b450	0.011212423
2	0x3b12385d	0.0022311427
3	0xbca055dc	-0.019572191
4	0x3c22a4f2	0.009927021
5	0xbba1a0e8	-0.0049325116
6	0xb915cb65	-0.00014285518
7	0x3bef2636	0.0072982563
8	0x3b8adcb8	0.0042377375
9	0xbcb066e3	-0.021533435
10	0xbbb9259b	-0.005650235
11	0x3c56634f	0.0130852
12	0x3c00f6b3	0.007871318
13	0x3b841a54	0.004031459
14	0xbc0e2ca4	-0.008677635
15	0xbb8fbb4b	-0.0043863407
16	0xbbea7a92	-0.007155725
17	0xbc3ac05d	-0.011398402
18	0x3c87911c	0.016548686
19	0x3c5e32a2	0.0135618765
20	0x3c67d8d1	0.014150814
21	0x3bee3f2f	0.0072707157
22	0x3bcaa67a	0.0061843963
23	0x3b545bc8	0.0032403339
24	0x3bb2d4de	0.0054575047
25	0xbbb7dc75	-0.0056109973
26	0xbc327099	-0.010891103
27	0xbb432af7	-0.0029780248
28	0x3aa68716	0.0012705054
29	0x3c601e60	0.013679117
30	0x3c702aa1	0.014658601
31	0xbae0a9c7	-0.0017140441
32	0xbbbb2578	-0.0057112537
33	0x3b48f4bf	0.0030663458
34	0x3bcbf7e1	0.006224618
35	0xbc8a9a80	-0.016919374
36	0xbc554d17	-0.013018868
37	0xbb6cd46a	-0.003613735
38	0x3b1002e8	0.0021974389
39	0x3c07936c	0.008274894
40	0xba06013c	-0.0005111878
41	0x3b8ca72e	0.0042923903
42	0x3c2c6dd4	0.010524232
43	0xbb6f52f2	-0.0036517945
44	0xbb4cf407	-0.0031273381
45	0x3c357935	0.011076261
46	0xbb8c78ae	-0.004286847
47	0xba8f6b45	-0.0010942003
48	0xbb1df012	-0.0024099392
49	0x3c30a45b	0.010781373
50	0xbc75b5f2	-0.014996992
51	0xbb593a94	-0.0033146488
52	0x3c1c022a	0.009522
53	0xbb923b9f	-0.004462674
54	0x3b9ccd26	0.004785198
55	0x3aaf2583	0.001336262
56	0xbb81e895	-0.0039644935
57	0x3b6bf2d9	0.0036002903
58	0xbbc133bc	-0.00589606
59	0x3bfd8768	0.007737089
60	0x3c75c5ea	0.0150008
61	0x3ba2c33d	0.004967122
62	0xbc14f310	-0.009091154
63	0xbc2006a2	-0.009767206
64	0xba13f1e2	-0.00056436483
65	0xbb781aed	-0.0037857846
66	0x3c1c2ea8	0.009532608
67	0xbc730b1d	-0.014834193
68	0x3b16b656	0.0022996864
69	0x3c394c5c	0.011309709
70	0x3c6a4dfb	0.014300819
71	0x3babb4db	0.0052400655
72	0xbc78083a	-0.01513868
73	0xbc50577f	-0.012716173
74	0x3c0219de	0.0079407375
75	0xbba78dd0	-0.005113341
76	0xbaea427c	-0.0017872597
77	0x3be53fee	0.0069961464
78	0x3c2e5c13	0.010642069
79	0xba928898	-0.0011179624
80	0xbc770099	-0.015075826
81	0x3bc92a17	0.0061390507
82	0x3bafdbbd	0.005366771
83	0x3bba096c	0.0056773927
84	0x3b1a8409	0.0023577234
85	0x3c9b702e	0.01897439
86	0xbc2c77c8	-0.010526605
87	0x3a657944	0.0008753727
88	0xb980e895	-0.0002458735
89	0xbb941e6f	-0.0045202295
90	0x38ea83fe	0.00011182575
91	0xbc119dae	-0.008887691
92	0xbb118d35	-0.002220941
93	0xbc9b8922	-0.018986288
94	0xbc06deda	-0.008231843
95	0xbb48adda	-0.0030621202
96	0x3bf0b5db	0.0073458976
97	0x3baf19f4	0.00534367
98	0xbc36c0c8	-0.011154361
99	0x3b47db97	0.0030495876
100	0xbc2449fe	-0.010027407
101	0x3c015ce7	0.007895685
102	0xbc5511c9	-0.013004729
103	0x3cb08fb1	0.021552892
104	0xbae60622	-0.0017549435
105	0x3c65cd24	0.01402596
106	0x3b994862	0.004677818
107	0x3a851a1e	0.0010154878
108	0xbc101e5f	-0.0087963035
109	0x3b16dc54	0.002301951
110	0xbc075d6e	-0.0082620215
111	0xbbc7dfe7	-0.0060996893
112	0x3bf39f5f	0.00743477
113	0x3b2e6cac	0.0026615066
114	0xbc0fb179	-0.00877034
115	0xbc88b970	-0.016689986
116	0xbcbe8033	-0.02325449
117	0xbc45abfd	-0.012064931
118	0x3c90573c	0.017619722
119	0x3b363698	0.0027803537
120	0xbb860bd1	-0.004090764
121	0xbc314210	-0.010818973
122	0x36bb75a0	5.5867276e-06
123	0xbc42d196	-0.0118907895
124	0x3b86d647	0.0041148993
125	0xbc8151bd	-0.015786046
126	0xbbafaa6c	-0.005360892
127	0x3c3dbedc	0.011581149
128	0x3c47e46a	0.012200454
129	0xbc854bb0	-0.016271442
130	0x3b29425a	0.0025826902
131	0xbbbeb9d1	-0.005820491
132	0xbbe12baa	-0.0068716602
133	0xbc1c8156	-0.00955232
134	0x3c7016f6	0.014653912
135	0x3c9d4fdf	0.019203125
136	0xbc0c6688	-0.008569367
137	0x3b120fa6	0.002228716
138	0x3b0382a4	0.0020066882
139	0x3bc4b2c0	0.006002754
140	0x3c06e496	0.00823321
141	0x3c9d2f49	0.019187586
142	0x3b86de0d	0.004115826
143	0x3c3de0da	0.011589253
144	0xbb9797b6	-0.0046262396
145	0x3be37e3d	0.006942539
146	0x3c76e7cf	0.015069916
147	0x3b83515c	0.0040075015
148	0x3c164e11	0.009173886
149	0xbc882e63	-0.016623681
150	0x3c1c0b28	0.009524144
151	0x3b2197f6	0.0024657226
152	0x3bc2e2ef	0.0059474627
153	0xbb5683b5	-0.0032732312
154	0xbc656160	-0.014000267
155	0x3c093955	0.008375485
156	0x3bd2cf0b	0.006433373
157	0xba90115e	-0.0010991504
158	0xbc233974	-0.009962428
159	0x3c0a37a5	0.008436118
160	0x3c09599a	0.008383179
161	0x3c65b942	0.01402122
162	0xbb6e64e5	-0.0036376056
163	0x3c56160f	0.013066783
164	0x3c0a4bf0	0.0084409565
165	0x3b9b69bd	0.0047428296
166	0xbb436ded	-0.002982016
167	0xbc967dbc	-0.018370502
168	0xba7578ac	-0.000936399
169	0xbbcf4624	-0.0063255
170	0xbb32539d	-0.0027210482
171	0xbb1f3eb7	-0.0024298856
172	0xbb01ef35	-0.0019826416
173	0x3c71bd76	0.014754644
174	0x3abecc53	0.0014556743
175	0x3ab2c3f7	0.0013638724
176	0x398fbe9d	0.00027417103
177	0xbc1d894c	-0.009615254
178	0x3c0be603	0.008538726
179	0x3b9d243e	0.00479558
180	0x3bfec937	0.0077754515
181	0x3bd54913	0.0065089553
182	0x3c09ec73	0.00841819
183	0x3b0c7e8a	0.0021437728
184	0x3b8544f3	0.0040670573
185	0x3c3baa04	0.011454109
186	0x3cd432c5	0.025903115
187	0x3b3b1583	0.0028546758
188	0xbae36e11	-0.0017351528
189	0xbc16b6bd	-0.009198842
190	0x3c0544ae	0.00813405
191	0xba207423	-0.00061208213
192	0x395e950e	0.00021227097
193	0x3a104d16	0.0005504651
194	0x3b72f2ce	0.0037070992
195	0x3bfcf804	0.0077199955
196	0xbb967b8a	-0.0045923637
197	0xbcc3aff5	-0.023887614
198	0x3a509389	0.0007956555
199	0xbc1bb7bf	-0.009504258
200	0x3bf80660	0.0075691193
201	0xbb4caa43	-0.0031229414
202	0xbc10dbc3	-0.008841458
203	0x3be64f66	0.007028508
204	0xbb4b3436	-0.0031006462
205	0x393a9eb7	0.00017797468
206	0x3ab0ea9b	0.0013497652
207	0x3bd3378f	0.006445832
208	0xbb3224de	-0.002718262
209	0xbb906ae7	-0.004407275
210	0x3b6a8042	0.0035782014
211	0x3c4a4ba7	0.0123471385
212	0x3c1dfaee	0.009642346
213	0xbabc55d4	-0.001436884
214	0x3b73711f	0.0037146283
215	0xbb3963f9	-0.0028288348
216	0xbc842611	-0.016131433
217	0x3b4e212e	0.0031452882
218	0xbbd9a701	-0.006642223
219	0x3bd8e852	0.0066194916
220	0x3c2739d6	0.01020666
221	0x3a5f8278	0.0008526216
222	0xbc82a33b	-0.015946975
223	0x3c8898b4	0.016674377
224	0xbcad59a5	-0.02116091
225	0x3c328999	0.010897064
226	0x3c641bbc	0.013922628
227	0x3b1c2883	0.0023827858
228	0xbc672337	-0.014107517
229	0xba06dc86	-0.0005144555
230	0x3c03b689	0.008039125
231	0xbc2abf85	-0.010421638
232	0xbbd7200c	-0.0065650996
233	0xbc7bf193	-0.01537742
234	0x3c068e82	0.008212687
235	0x3baa4195	0.0051958063
236	0x3c0bfc15	0.008543988
237	0xbad67b8b	-0.0016363723
238	0x3c144c60	0.009051412
239	0x3c2d40a5	0.0105744945
240	0x3bc83ed6	0.0061110063
241	0x3b903533	0.004400873
242	0x3ba65476	0.0050759865
243	0xbb6d79ce	-0.0036235931
244	0x3cb9fe81	0.022704365
245	0x3c10eacb	0.0088450415
246	0xbc1d81cb	-0.009613465
247	0x3bbffd8c	0.0058590826
248	0x3c26570a	0.010152588
249	0x3c2a91c5	0.010410731
250	0xbc44dfe0	-0.012016267
251	0x3cac2dd3	0.021017944
252	0xbb77892e	-0.0037770974
253	0xbaf829c3	-0.0018933344
254	0x3b804604	0.0039145965
255	0xbba87ab7	-0.005141582

action_model._discrete_distribution.branches.0.bias f4 [2]
0	0x3a35d39f	0.0006936136
1	0xba35d3a4	-0.0006936139
