Assets/Learning/AIRollABall/results/WithObstacle/AIRollABall/AIRollABall-19728.pt (torch, 196819 bytes, 14 tensors)

network_body._body_endoder.seq_layers.0.weight f4 [128, 50]
0.059181552 -0.039846946 -0.09873582 -0.35202888 0.051125664 -0.2279017 -0.1995837 0.19805954
0.23456764 0.08711163 -0.29210103 -0.050427042 0.21247813 -0.16196997 0.012913872 0.1388856
0.116967246 -0.06172125 -0.1247742 -0.080944404 0.26836687 0.12599151 -0.09467611 -0.10311781
-0.049951922 0.088988245 0.09548053 -0.11384421 -0.05885449 0.09124362 0.10146865 0.01416416
-0.070042595 0.09053479 -0.11818254 0.095037736 -0.21766688 0.010117471 0.056547493 0.14056979
-0.08171455 -0.046770833 0.105461985 0.026175382 -0.059658155 -0.15815398 0.078537874 -0.012321876
-0.30144763 0.22606333 -0.07952467 -0.06098303 -0.09941355 0.061496276 0.16315022 0.17029244
0.04422149 -0.07352679 -0.00956166 -0.071914345 0.12929183 -0.11095956 -0.056522354 0.12393935
-0.015133017 0.16712943 -0.15715142 0.14158817 -0.03278763 0.018360682 -0.077588536 -0.05727196
0.07439124 0.016353823 -0.21542697 0.027924754 0.12101599 -0.0049420553 -0.19084011 0.10354144
0.1022731 -0.07769941 0.33580017 -0.1447636 -0.34211215 -0.28577933 -0.22614677 -0.027395232
-0.15136707 -0.023046395 0.06419959 -0.16249345 -0.074714884 0.12753515 0.14988486 0.05323195
0.10744281 0.050381735 0.035676394 -0.06840496 -0.06765041 -0.053978812 0.09047787 -0.017835239
0.17354015 -0.020520471 -0.1823178 -0.19474682 0.1543956 -0.17741859 0.016160646 0.0527581
-0.12963402 0.20625769 -0.20710757 0.030110028 -0.15480745 -0.17635874 -0.18076472 -0.018366719
0.02105621 0.29540238 0.073559076 0.2292235 -0.057637937 -0.093023375 0.025164658 -0.22474957
-0.3732446 0.012711057 0.09118542 -0.0122576505 0.032111567 -0.23283844 0.10990725 0.038047038
-0.11443628 0.06959296 0.17547189 0.05122532 -0.18811712 -0.06450038 -0.01786877 -0.032269936
0.10670484 0.19787253 -0.17537753 0.32417065 0.24493448 -0.015872419 -0.053532157 0.20843287
-0.1671075 -0.06217752 0.047737863 -0.073062085 -0.23382731 -0.192504 -0.09606835 0.1042541
-0.47237226 0.12567374 0.07714423 -0.116600476 0.09049008 0.060114156 0.07965055 0.04671218
0.030689478 0.16831954 -0.109064266 0.075620525 -0.09510076 -0.014224255 0.09598994 -0.15156376
-0.07325955 0.025476584 0.088143505 -0.12159022 -0.042411175 -0.058282305 0.072308324 0.1325973
-0.28883046 0.12317222 0.1588617 -0.14267924 -0.01782417 0.096911415 0.06049358 0.019976808
0.051373463 -0.18143858 -0.07647598 -0.039349873 -0.24483003 0.0202429 0.022565523 -0.09583882
-0.17094044 -0.07577429 0.1839862 -0.0111152325 -0.05843471 -0.12277286 0.07097747 -0.11312632
0.048389483 -0.03070286 -0.1457692 -0.022697289 0.25006834 0.092581704 0.12656158 -0.10107046
-0.21421045 -0.005157415 0.13449866 -0.13395444 -0.040775325 0.08638687 -0.0073390543 0.23656766
-0.006025998 0.13813679 0.0708205 0.19649427 0.055089653 -0.09986087 -0.1382068 0.34295094
-0.0023215115 0.022605393 0.13492563 -0.22229142 -0.06197273 -0.037717845 0.10809842 0.16594252
0.06391878 -0.036069047 0.07796337 0.040085293 0.15132776 -0.15878025 -0.2707529 0.23848289
0.23282216 0.16497026 -0.20374604 -0.13833232 -0.14255123 -0.17238982 -0.054835115 0.17003047
00000000: 5b68 723d 8d36 23bd 0136 cabd 213d b4be
00000010: 2569 513d 105f 69be ab5f 4cbe 1fd0 4a3e
00000020: 8032 703e 9567 b23d 448e 95be 968c 4ebd
00000030: de93 593e 75db 25be b494 533c 0738 0e3e
00000040: 868c ef3d 6ccf 7cbd 9e89 ffbd 2ec6 a5bd
00000050: 6267 893e eb03 013e 8ce5 c1bd 6e2f d3bd
00000060: 639a 4cbd 783f b63d 4c8b c33d 2727 e9bd
00000070: 6811 71bd efdd ba3d ccce cf3d cb10 683c
00000080: 7e72 8fbd 4e6a b93d b009 f2bd 25a3 c23d
00000090: 11e4 5ebe c0c3 253c 589e 673d 87f1 0f3e
000000a0: f559 a7bd c692 3fbd 74fc d73d c16d d63c
000000b0: 1c5c 74bd 1ef3 21be 77d8 a03d b2e1 49bc
000000c0: 5857 9abe 257d 673e d5dd a2bd 57c9 79bd
000000d0: 5599 cbbd 85e3 7b3d da10 273e 2461 2e3e
000000e0: 9821 353d 3795 96bd 82a8 1cbc d447 93bd
000000f0: 1465 043e c43e e3bd fc83 67bd ead3 fd3d
00000100: 79f0 77bc fa23 2b3e 4dec 20be 7dfc 103e
00000110: 524c 06bd 2469 963c bde6 9ebd 0196 6abd
00000120: 6f5a 983d 74f8 853c e398 5cbe 74c2 e43c
00000130: 3bd7 f73d f7f0 a1bb 976b 43be 890d d43d
00000140: 8f74 d13d de20 9fbd 00ee ab3e e93c 14be
00000150: 5329 afbe ab51 92be 0593 67be f76b e0bc
00000160: f8ff 1abe cbcb bcbc 137b 833d af64 26be
00000170: 1e04 99bd 9398 023e 6b7b 193e bf09 5a3d
00000180: fa0a dc3d 145d 4e3d 6921 123d e617 8cbd
00000190: 4c8c 8abd e318 5dbd 764c b93d 351b 92bc
000001a0: 82b4 313e 8c1a a8bc 84b1 3abe b66b 47be
000001b0: e119 1e3e 38ad 35be 5563 843c e118 583d
000001c0: c8be 04be 3735 533e 0214 54be 4ea9 f63c
000001d0: d885 1ebe 6397 34be 631a 39be cd75 96bc
000001e0: 137e ac3c fb3e 973e 24a6 963d 91b9 6a3e
000001f0: c215 6cbd 0a83 bebd 1d26 ce3c c024 66be
00000200: eb19 bfbe 0a42 503c 6cbf ba3d 50d4 48bc
00000210: 6b87 033d 336d 6ebe 0d17 e13d 36d7 1b3d
00000220: 925d eabd c186 8e3d e7ae 333e a4d1 513d
00000230: c6a1 40be c618 84bd 8761 92bc 7b2d 04bd
00000240: 1188 da3d 199f 4a3e 2b96 33be b2f9 a53e
00000250: 1bd0 7a3e e006 82bc 8944 5bbd 6d6f 553e
00000260: 3a1e 2bbe dbad 7ebd c788 433d 93a1 95bd
00000270: 6d70 6fbe c51f 45be 7cbf c4bd 2c83 d53d
00000280: c7da f1be 9eb0 003e cbfd 9d3d 3bcc eebd
00000290: dd52 b93d 433a 763d d41f a33d 4555 3f3d
000002a0: 8068 fb3c f55b 2c3e 165d dfbd efde 9a3d
000002b0: 30c4 c2bd da0c 69bc 6096 c43d 8833 1bbe
000002c0: 1a09 96bd 45b4 d03c 9584 b43d 4b04 f9bd
000002d0: 57b7 2dbd 6db9 6ebd 6316 943d 96c7 073e
000002e0: 96e1 93be b841 fc3d a4ac 223e 821a 12be
000002f0: fe03 92bc 7e79 c63d 1ec8 773d 67a6 a33c
00000300: fb6c 523d 09cb 39be 709f 9cbd 552d 21bd
00000310: b9b4 7abe 70d4 a53c 55db b83c 2547 c4bd
00000320: 030b 2fbe 8d2f 9bbd e166 3c3e aa1c 36bc
00000330: 3c59 6fbd 5670 fbbd a35c 913d c6ae e7bd
00000340: 0d34 463d 9084 fbbc 8544 15be aaef b9bc
00000350: f508 803e 7a9b bd3d 5c99 013e 08fe cebd
00000360: fc59 5bbe 88ff a8bb 04ba 093e 5a2b 09be
00000370: 0704 27bd 99eb b03d 737c f0bb cb3e 723e
00000380: bc75 c5bb bb73 0d3e 570a 913d cb35 493e
00000390: b0a5 613d db83 ccbd 1586 0dbe 4497 af3e
000003a0: 8024 18bb f22e b93c f229 0a3e 5da0 63be
000003b0: 1ed7 7dbd 077e 1abd b462 dd3d d6ec 293e
000003c0: d9e7 823d 23bd 13bd 42ab 9f3d 7a30 243d
000003d0: aaf5 1a3e 4a97 22be 20a0 8abe dc34 743e
000003e0: ef68 6e3e f7ed 283e cda2 50be fda6 0dbe
000003f0: f3f8 11be f586 30be c99a 60bd 781c 2e3e

network_body._body_endoder.seq_layers.0.bias f4 [128]
0.0 0.0 0.0 0.0 0.0 0.0 0.0 0.0
0.0 0.0 0.0 0.0 0.0 0.0 0.0 0.0
0.0 0.0 0.0 0.0 0.0 0.0 0.0 0.0
0.0 0.0 0.0 0.0 0.0 0.0 0.0 0.0
0.0 0.0 0.0 0.0 0.0 0.0 0.0 0.0
0.0 0.0 0.0 0.0 0.0 0.0 0.0 0.0
0.0 0.0 0.0 0.0 0.0 0.0 0.0 0.0
0.0 0.0 0.0 0.0 0.0 0.0 0.0 0.0
0.0 0.0 0.0 0.0 0.0 0.0 0.0 0.0
0.0 0.0 0.0 0.0 0.0 0.0 0.0 0.0
0.0 0.0 0.0 0.0 0.0 0.0 0.0 0.0
0.0 0.0 0.0 0.0 0.0 0.0 0.0 0.0
0.0 0.0 0.0 0.0 0.0 0.0 0.0 0.0
0.0 0.0 0.0 0.0 0.0 0.0 0.0 0.0
0.0 0.0 0.0 0.0 0.0 0.0 0.0 0.0
0.0 0.0 0.0 0.0 0.0 0.0 0.0 0.0
00000000: 0000 0000 0000 0000 0000 0000 0000 0000
00000010: 0000 0000 0000 0000 0000 0000 0000 0000
00000020: 0000 0000 0000 0000 0000 0000 0000 0000
00000030: 0000 0000 0000 0000 0000 0000 0000 0000
00000040: 0000 0000 0000 0000 0000 0000 0000 0000
00000050: 0000 0000 0000 0000 0000 0000 0000 0000
00000060: 0000 0000 0000 0000 0000 0000 0000 0000
00000070: 0000 0000 0000 0000 0000 0000 0000 0000
00000080: 0000 0000 0000 0000 0000 0000 0000 0000
00000090: 0000 0000 0000 0000 0000 0000 0000 0000
000000a0: 0000 0000 0000 0000 0000 0000 0000 0000
000000b0: 0000 0000 0000 0000 0000 0000 0000 0000
000000c0: 0000 0000 0000 0000 0000 0000 0000 0000
000000d0: 0000 0000 0000 0000 0000 0000 0000 0000
000000e0: 0000 0000 0000 0000 0000 0000 0000 0000
000000f0: 0000 0000 0000 0000 0000 0000 0000 0000
00000100: 0000 0000 0000 0000 0000 0000 0000 0000
00000110: 0000 0000 0000 0000 0000 0000 0000 0000
00000120: 0000 0000 0000 0000 0000 0000 0000 0000
00000130: 0000 0000 0000 0000 0000 0000 0000 0000
00000140: 0000 0000 0000 0000 0000 0000 0000 0000
00000150: 0000 0000 0000 0000 0000 0000 0000 0000
00000160: 0000 0000 0000 0000 0000 0000 0000 0000
00000170: 0000 0000 0000 0000 0000 0000 0000 0000
00000180: 0000 0000 0000 0000 0000 0000 0000 0000
00000190: 0000 0000 0000 0000 0000 0000 0000 0000
000001a0: 0000 0000 0000 0000 0000 0000 0000 0000
000001b0: 0000 0000 0000 0000 0000 0000 0000 0000
000001c0: 0000 0000 0000 0000 0000 0000 0000 0000
000001d0: 0000 0000 0000 0000 0000 0000 0000 0000
000001e0: 0000 0000 0000 0000 0000 0000 0000 0000
000001f0: 0000 0000 0000 0000 0000 0000 0000 0000

network_body._body_endoder.seq_layers.2.weight f4 [128, 128]
0.011218621 -0.059499357 -0.067471 0.03740385 -0.0047697756 0.16304205 -0.11069091 0.040208552
0.069917575 -0.014114576 -0.052548 0.051276825 0.16206278 -0.0069755735 0.06460595 0.11841129
-0.05792991 0.017676918 0.01848408 0.026564542 -0.047217336 0.16483817 0.059999954 0.027813092
-0.014169103 0.027359549 0.11399599 0.018572906 0.17679511 0.04948872 -0.10013947 0.040267922
0.15377852 -0.0480366 -0.025139032 0.119874805 -0.041124687 0.069370694 0.17084394 -0.078426704
0.027832985 -0.11511711 0.05752392 0.078691535 0.1346571 0.05604366 -0.11332377 0.09386987
0.03044268 -0.09205937 0.03385134 0.040589314 0.0048196036 -0.10591158 -0.114327915 -0.06734564
-0.012896185 0.05307149 0.078053504 0.13169907 -0.0026564305 0.061184395 -0.03800602 -0.0019031215
-0.06853157 0.09750365 0.10075075 0.06675918 -0.0014439872 -0.052980006 0.036411233 0.02257467
-0.16810769 -0.12859441 -0.15506661 0.16527456 0.1114874 -0.007131723 -0.032748964 -0.054825187
0.17791371 0.1026099 0.038380172 0.0496299 -0.013758026 0.021487292 0.0049596373 -0.0006071339
-0.12624304 0.057737272 0.007439645 -0.0019240031 0.014041873 0.025331257 -0.046048008 -0.12070956
-0.08770332 -0.05804811 0.07762643 0.06588939 -0.008216942 -0.023469213 0.0210657 -0.08480642
0.008301223 -0.049024854 0.057705726 0.1196039 0.04227115 -0.022654291 0.05188652 -0.11424506
-0.05009935 0.03733806 0.014291971 0.07405833 -0.0048213103 -0.07153123 -0.00012877476 -0.10242069
-0.00507826 0.12922223 0.016578522 -0.0058377096 0.0060490803 0.010030873 0.04684597 0.07132901
0.019097954 0.076479666 0.032910828 -0.04165409 -0.023356063 -0.04130187 0.030316738 -0.037593786
0.15004435 -0.040337615 0.031729456 -0.050586563 -0.050927125 0.09360316 -0.03312037 0.07672146
-0.09863514 -0.07895465 -0.05677938 -0.016729658 -0.08463675 -0.00464985 0.09835897 0.20820525
-0.0030393659 -0.028479423 0.0016192193 -0.17059076 0.093759455 -0.124652155 -0.09347846 -0.08190211
-0.089656025 0.10022555 -0.11219123 0.20488897 0.026676884 0.096965104 -0.00874948 -0.09212735
0.03959623 0.12909862 0.021001745 -0.16209255 0.019487128 -0.058235914 0.096960574 -0.08314963
-0.07911935 -0.023348384 0.012451942 -0.08238951 -0.071750455 0.18648444 -0.013948213 0.22621499
-0.030538118 0.023473447 -0.0119918855 -0.07349378 -0.01707074 0.023262264 0.045307294 0.13190717
0.03879066 -0.0069446275 0.02397238 -0.07860581 -0.032161333 -0.13586947 -0.06075162 -0.011953471
0.0111695165 -0.033260684 0.07088516 -0.058188707 -0.03344204 0.15901789 -0.027893016 -0.111982584
0.08046289 -0.055724308 -0.21410231 0.09623456 -0.019413823 -0.055042125 0.102434255 0.009010659
-0.0770817 -0.0038500016 -0.05761246 -0.050500832 0.07666254 -0.0051846956 -0.041841716 0.07940149
-0.028273262 0.088551395 0.07955508 0.029889496 0.014651675 0.078106664 0.0527453 -0.15171483
-0.031538256 0.067541085 -0.13472804 -0.014561786 -0.112364136 0.02973877 0.10094109 0.0035643438
0.08403495 -0.058788504 -0.0024431304 0.021616904 -0.02840466 0.05891357 -0.0018684787 -0.09776302
-0.043885823 -0.0649001 0.084513985 0.11064407 -0.1365463 -0.1885435 -0.16348802 0.06557729
00000000: 4fce 373c 99b5 73bd 3c2e 8abd c834 193d
00000010: c74b 9cbb 7ff4 263e eab1 e2bd b9b1 243d
00000020: f230 8f3d d340 67bc 923c 57bd a607 523d
00000030: c9f3 253e 5a93 e4bb 2050 843d 9e81 f23d
00000040: ea47 6dbd 2fcf 903c ed6b 973c e29d d93c
00000050: f766 41bd 56cb 283e 83c2 753d 48d8 e33c
00000060: 8625 68bc 2221 e03c bb76 e93d 3526 983c
00000070: c709 353e afb4 4a3d ec15 cdbd faef 243d
00000080: 1e78 1d3e 07c2 44bd 5ff0 cdbc ec80 f53d
00000090: 5c72 28bd 3912 8e3d b7f1 2e3e 2e9e a0bd
000000a0: 0002 e43c 85c2 ebbd 349e 6b3d 0729 a13d
000000b0: 8de3 093e 098e 653d 4b16 e8bd d93e c03d
000000c0: ed62 f93c 9f89 bcbd b4a7 0a3d fb40 263d
000000d0: c4ed 9d3b 2ce8 d8bd c124 eabd 83ec 89bd
000000e0: 854a 53bc 7e61 593d 84da 9f3d 1fdc 063e
000000f0: 8217 2ebb 7d9c 7a3d 33ac 1bbd 2972 f9ba
00000100: 485a 8cbd feaf c73d 6956 ce3d 09b9 883d
00000110: 2c44 bdba 9001 59bd f223 153d 84ee b83c
00000120: 6c24 2cbe 41ae 03be c8c9 1ebe bc3d 293e
00000130: 8253 e43d 3bb1 e9bb c723 06bd 6090 60bd
00000140: 032f 363e 2425 d23d 8734 1d3d b948 4b3d
00000150: 5869 61bc 1e06 b03c 7484 a23b 1128 1fba
00000160: db45 01be eb7d 6c3d 44c8 f33b d52e fcba
00000170: e20f 663c 7f83 cf3c d69c 3cbd 9336 f7bd
00000180: cc9d b3bd dbc3 6dbd 9bfa 9e3d 04f1 863d
00000190: 5aa0 06bc 8242 c0bc fa91 ac3c fdae adbd
000001a0: da01 083c 49ce 48bd d75c 6c3d e4f2 f43d
000001b0: 8324 2d3d 7e95 b9bc f686 543d 50f9 e9bd
000001c0: fa34 4dbd cbef 183d df28 6a3c e5ab 973d
000001d0: 15fc 9dbb f77e 92bd b607 07b9 f0c1 d1bd
000001e0: 8867 a6bb d552 043e aecf 873c 424a bfbb
000001f0: 5d37 c63b 8858 243c 8fe1 3f3d f214 923d
00000200: 5073 9c3c 5fa1 9c3d 81cd 063d 7b9d 2abd
00000210: 3755 bfbc 262c 29bd cf5a f83c f1fb 19bd
00000220: 3aa5 193e 0e39 25bd bff6 013d db33 4fbd
00000230: f698 50bd 03b3 bf3d 3aa9 07bd 2420 9d3d
00000240: 3801 cabd fab2 a1bd 7f91 68bd a30c 89bc
00000250: 0856 adbd c55d 98bb 6d70 c93d c233 553e
00000260: 1930 47bb ae4d e9bc fc3b d43a 58af 2ebe
00000270: f504 c03d a149 ffbd a371 bfbd 4bbc a7bd
00000280: 949d b7bd 0e43 cd3d 84c4 e5bd 6ace 513e
00000290: 7b89 da3c a495 c63d fb59 0fbc 44ad bcbd
000002a0: a82f 223d 6e32 043e da0b ac3c 97fb 25be
000002b0: 78a3 9f3c c888 6ebd 4493 c63d 5a4a aabd
000002c0: 5309 a2bd 1c45 bfbc 3b03 4c3c d5bb a8bd
000002d0: e7f1 92bd c7f5 3e3e 0c87 64bc e7a4 673e
000002e0: 132b fabc 634b c03c 9d79 44bc e883 96bd
000002f0: f0d7 8bbc 8190 be3c 2494 393d ac12 073e
00000300: f5e2 1e3d c28f e3bb ba61 c43c 15fc a0bd
00000310: 9abb 03bd 5e21 0bbe b1d6 78bd 7ed8 43bc
00000320: 5900 373c 5b3c 08bd 3d2c 913d 4857 6ebd
00000330: 85fa 08bd 96d5 223e e57f e4bc 2057 e5bd
00000340: bac9 a43d 2c3f 64bd a33d 5bbe a016 c53d
00000350: bd09 9fbc da73 61bd 0dc9 d13d 71a1 133c
00000360: 03dd 9dbd 4f50 7cbb 0bfb 6bbd f6d9 4ebd
00000370: 4001 9d3d 61e4 a9bb 3862 2bbd 409d a23d
00000380: 549d e7bc 6f5a b53d c6ed a23d d1da f43c
00000390: 940d 703c 63f6 9f3d 750b 583d 225b 1bbe
000003a0: 422e 01bd fb52 8a3d 26f6 09be 8f94 6ebc
000003b0: 2b1f e6bd b99e f33c 34ba ce3d c497 693b
000003c0: 841a ac3d 37cc 70bd ed1c 20bb ef15 b13c
000003d0: e4b0 e8bc 5b4f 713d bee7 f4ba fa37 c8bd
000003e0: 9fc1 33bd 58ea 84bd ab15 ad3d 5c99 e23d
000003f0: cbd2 0bbe 8c11 41be 6769 27be 634d 863d

network_body._body_endoder.seq_layers.2.bias f4 [128]
0.0 0.0 0.0 0.0 0.0 0.0 0.0 0.0
0.0 0.0 0.0 0.0 0.0 0.0 0.0 0.0
0.0 0.0 0.0 0.0 0.0 0.0 0.0 0.0
0.0 0.0 0.0 0.0 0.0 0.0 0.0 0.0
0.0 0.0 0.0 0.0 0.0 0.0 0.0 0.0
0.0 0.0 0.0 0.0 0.0 0.0 0.0 0.0
0.0 0.0 0.0 0.0 0.0 0.0 0.0 0.0
0.0 0.0 0.0 0.0 0.0 0.0 0.0 0.0
0.0 0.0 0.0 0.0 0.0 0.0 0.0 0.0
0.0 0.0 0.0 0.0 0.0 0.0 0.0 0.0
0.0 0.0 0.0 0.0 0.0 0.0 0.0 0.0
0.0 0.0 0.0 0.0 0.0 0.0 0.0 0.0
0.0 0.0 0.0 0.0 0.0 0.0 0.0 0.0
0.0 0.0 0.0 0.0 0.0 0.0 0.0 0.0
0.0 0.0 0.0 0.0 0.0 0.0 0.0 0.0
0.0 0.0 0.0 0.0 0.0 0.0 0.0 0.0
00000000: 0000 0000 0000 0000 0000 0000 0000 0000
00000010: 0000 0000 0000 0000 0000 0000 0000 0000
00000020: 0000 0000 0000 0000 0000 0000 0000 0000
00000030: 0000 0000 0000 0000 0000 0000 0000 0000
00000040: 0000 0000 0000 0000 0000 0000 0000 0000
00000050: 0000 0000 0000 0000 0000 0000 0000 0000
00000060: 0000 0000 0000 0000 0000 0000 0000 0000
00000070: 0000 0000 0000 0000 0000 0000 0000 0000
00000080: 0000 0000 0000 0000 0000 0000 0000 0000
00000090: 0000 0000 0000 0000 0000 0000 0000 0000
000000a0: 0000 0000 0000 0000 0000 0000 0000 0000
000000b0: 0000 0000 0000 0000 0000 0000 0000 0000
000000c0: 0000 0000 0000 0000 0000 0000 0000 0000
000000d0: 0000 0000 0000 0000 0000 0000 0000 0000
000000e0: 0000 0000 0000 0000 0000 0000 0000 0000
000000f0: 0000 0000 0000 0000 0000 0000 0000 0000
00000100: 0000 0000 0000 0000 0000 0000 0000 0000
00000110: 0000 0000 0000 0000 0000 0000 0000 0000
00000120: 0000 0000 0000 0000 0000 0000 0000 0000
00000130: 0000 0000 0000 0000 0000 0000 0000 0000
00000140: 0000 0000 0000 0000 0000 0000 0000 0000
00000150: 0000 0000 0000 0000 0000 0000 0000 0000
00000160: 0000 0000 0000 0000 0000 0000 0000 0000
00000170: 0000 0000 0000 0000 0000 0000 0000 0000
00000180: 0000 0000 0000 0000 0000 0000 0000 0000
00000190: 0000 0000 0000 0000 0000 0000 0000 0000
000001a0: 0000 0000 0000 0000 0000 0000 0000 0000
000001b0: 0000 0000 0000 0000 0000 0000 0000 0000
000001c0: 0000 0000 0000 0000 0000 0000 0000 0000
000001d0: 0000 0000 0000 0000 0000 0000 0000 0000
000001e0: 0000 0000 0000 0000 0000 0000 0000 0000
000001f0: 0000 0000 0000 0000 0000 0000 0000 0000

action_model._continuous_distribution.log_sigma f4 [1, 3]
0.0 0.0 0.0
00000000: 0000 0000 0000 0000 0000 0000

action_model._continuous_distribution.mu.weight f4 [3, 128]
-0.020617986 0.021617157 0.0010518061 0.007655593 -0.010523384 -0.015171805 0.0023405247 -0.013446748
0.016330972 0.020341132 0.014790179 -0.018110571 0.005078074 -0.008083438 -0.025016678 -0.010909818
-0.003985311 -0.0074326866 -0.03198176 0.0026206574 -0.0011804366 0.0069346908 0.00756785 -0.0067647495
0.007994148 0.0020704528 -0.0011929144 0.008810545 0.018118588 -0.00016089289 -0.03305256 0.00040312318
0.050717898 -0.01631849 -0.02270569 -0.0077503226 -0.0032383713 0.019497205 0.009529638 -0.0029015725
0.008379946 0.00084351 -3.3218992e-05 -0.01886068 -0.023077479 0.00706077 0.012447057 -0.03721301
-0.014389086 0.031257838 0.04367194 -0.003971208 -0.010094029 0.027536018 -0.009031373 -0.010531473
0.0057889386 -0.026789967 0.006675441 -0.0032346768 -0.0021360193 -0.010197569 -0.0075045354 -0.0044506905
0.0020068975 -0.0030630445 -0.008747204 0.03846564 -0.006420532 0.023813583 -0.0316523 -0.0022674217
0.00019542294 0.019606156 0.011929808 0.0029953206 -0.002750738 -0.044419836 -0.03536886 0.0071421056
-0.01815437 -0.04463796 -0.012476712 0.023772 0.0048222947 -0.014446445 -0.025461366 -0.0031593107
0.009784765 -0.0030227022 -0.02332324 0.007025063 0.0027185653 0.011451425 -0.018261211 0.010176408
-0.014864631 0.012807277 -0.00067411567 0.034385495 -0.045583826 0.017637404 0.001302018 -0.0065545775
0.0034460041 -0.020347532 0.006032546 -0.0027725731 0.02012158 -0.0101201525 -0.0131033035 -0.011595162
0.0321141 -0.010734729 -0.0028658686 0.026923612 0.015923187 -0.009479797 0.004865171 0.00059318397
-0.006681032 -0.017040351 0.0040964168 0.01727007 -0.0054457025 -0.014643102 -0.013123964 0.017811535
-0.011906915 0.00046746322 0.018920878 0.008085357 0.0065786303 0.01107076 0.015657691 -0.019949304
0.0030244628 -0.007840167 0.0050832136 -0.0038707834 0.01698817 0.00040478352 0.009851252 -0.016275851
-0.012860978 -0.019082997 0.006423456 -0.0024648437 -0.00105353 0.012344743 0.015981628 0.033282816
0.015792867 0.00079167023 -0.007294871 0.0037459196 -0.030859971 0.0014210026 -0.0032070433 -0.010804627
-0.015669275 0.016243823 -0.024381297 0.0123618245 0.0014379286 -0.0037383125 0.006148726 0.014996856
0.0069247484 -0.01929041 0.020086467 -0.02631892 0.0023280766 -0.005588429 0.0056793145 -0.0010522526
-0.011329169 -0.003949879 0.0051256907 0.014696242 -0.0023575423 -0.0051918537 0.02097021 -0.008784426
-0.021742363 0.0066621453 -0.004157962 -0.004327726 0.023451405 -0.018678853 -0.009194969 0.0071989144
-0.016425379 0.009807105 0.008466322 0.014982364 0.016453248 0.0028352458 0.016077556 0.005476854
-0.005676481 5.626469e-05 -0.019554736 0.020873362 -0.005308624 -0.01729223 0.016365131 0.014144612
-0.01540456 0.012150658 -0.010393509 0.010449652 -0.011202517 -0.036103792 -0.006658648 -0.026905606
0.003316853 -0.0033759184 -0.011811479 0.009956076 -0.004978281 -0.026743067 0.012745479 -0.00080815674
-0.019147316 -0.002770458 -0.037985064 0.015841471 -0.0035791576 0.0042603062 0.025995582 0.014064247
0.016642623 -0.006047565 -0.040345024 0.001131739 -0.01845914 0.016447714 -0.008875591 -0.0012014945
0.012353524 -0.015658073 -0.02509715 -0.00051676977 -0.0014571877 -0.006782181 -0.0022772285 -0.010847311
0.011233564 -0.019226035 0.030304173 -0.018588789 -0.0034764304 0.004136772 0.021447847 0.013963083
00000000: 0de7 a8bc 7716 b13c c2dc 893a c5db fa3b
00000010: 466a 2cbc 2a93 78bc 7d63 193b c04f 5cbc
00000020: 88c8 853c 72a2 a63c 8252 723c 9f5c 94bc
00000030: f965 a63b 6570 04bc c7ef ccbc 18bf 32bc
00000040: 3697 82bb e58d f3bb 4eff 02bd 56bf 2b3b
00000050: e1b8 9aba 673c e33b bafb f73b d5aa ddbb
00000060: e3f9 023c 6fb0 073b 915b 9cba 1b5a 103c
00000070: 6f6d 943c 5bb5 28b9 1f62 07bd 475a d339
00000080: 92bd 4f3d 5bae 85bc 4801 babc 6bf6 fdbb
00000090: db3a 54bb 9ab8 9f3c 3322 1c3c 4f28 3ebb
000000a0: 0b4c 093c ff1e 5d3a 9f54 0bb8 b681 9abc
000000b0: fb0c bdbc 085e e73b beee 4b3c ab6c 18bd
000000c0: 33c0 6bbc 3808 003d 59e1 323d e820 82bb
000000d0: 6d61 25bc 3793 e13c 53f8 13bc 338c 2cbc
000000e0: 23b1 bd3b a276 dbbc a8bd da3b dffc 53bb
000000f0: 75fc 0bbb b413 27bc 9be8 f5bb 19d7 91bb
00000100: 2786 033b 5cbd 48bb 6f50 0fbc 268e 1d3d
00000110: 5363 d2bb b414 c33c d8a5 01bd 0699 14bb
00000120: 72ea 4c39 179d a03c 3e75 433c 244d 443b
00000130: ba45 34bb 93f1 35bd f0de 10bd 5308 ea3b
00000140: 79b8 94bc 4bd6 36bd 206b 4cbc 7fbd c23c
00000150: 5704 9e3b c8b0 6cbc 5b94 d0bc 700c 4fbb
00000160: 4750 203c 8718 46bb 6110 bfbc 8032 e63b
00000170: f529 323b c29e 3b3c 8998 95bc f3ba 263c
00000180: c88a 73bc 9dd5 513c 23b7 30ba ced7 0c3d
00000190: 1bb6 3abd 517c 903c 79a8 aa3a c8c7 d6bb
000001a0: 5bd6 613b deaf a6bc aaac c53b 0fb4 35bb
000001b0: 03d6 a43c ffce 25bc 3daf 56bc a2f9 3dbc
000001c0: 138a 033d b7e0 2fbc 4cd1 3bbb e88e dc3c
000001d0: 5871 823c 2751 1bbc 036c 9f3b e77f 1b3a
000001e0: 8fec dabb 3598 8bbc 3c3b 863b f679 8d3c
000001f0: dd71 b2bb 9fe9 6fbc e505 57bc 7fe9 913c
00000200: 3915 43bc da15 f539 f5ff 9a3c 7278 043c
00000210: 8d91 d73b 2262 353c 8f44 803c b96c a3bc
00000220: 1136 463b 0b74 00bc 1691 a63b f8ac 7dbb
00000230: c62a 8b3c 2039 d439 2567 213c ef54 85bc
00000240: dab6 52bc f253 9cbc db7b d23b 3789 21bb
00000250: 9a16 8aba 9b41 4a3c e7eb 823c 9053 083d
00000260: 0b60 813c 1788 4f3a d009 efbb 1a7e 753b
00000270: 0dce fcbc ef40 ba3a 422d 52bb e405 31bc
00000280: da5c 80bc c411 853c 49bb c7bc 4089 4a3c
00000290: e178 bc3a 7afe 74bb 417b c93b 60b5 753c
000002a0: 00e9 e23b ec06 9ebc 608c a43c c79a d7bc
000002b0: a592 183b 241f b7bb 8b19 ba3b bdeb 89ba
000002c0: fb9d 39bc fd6d 81bb 69f5 a73b 82c8 703c
000002d0: ff80 1abb 6d20 aabb b8c9 ab3c 8eec 0fbc
000002e0: 0a1d b2bc 204e da3b 833f 88bb 99cf 8dbb
000002f0: 291d c03c 6504 99bc 7fa6 16bc dfe4 eb3b
00000300: 848e 86bc fbad 203c 54b6 0a3c 9778 753c
00000310: f6c8 863c 88cf 393b 14b5 833c 2e77 b33b
00000320: c601 babb c0fd 6b38 4131 a0bc 9dfe aa3c
00000330: f7f3 adbb 6fa8 8dbc 2b10 863c cdbe 673c
00000340: 6863 7cbc 8e13 473c 8949 2abc 0435 2b3c
00000350: c38a 37bc 92e1 13bd ca30 dabb 2569 dcbc
00000360: 8f5f 593b 833e 5dbb ef84 41bc cf1e 233c
00000370: d920 a3bb 4714 dbbc 6ad2 503c 7bda 53ba
00000380: d5da 9cbc 9390 35bb 3a96 1bbd f9c5 813c
00000390: 4d90 6abb 0a9a 8b3b b0f4 d43c ba6d 663c
000003a0: 1c56 883c a72a c6bb d340 25bd dc56 943a
000003b0: 9f37 97bc 5bbd 863c ed6a 11bc 777b 9dba
000003c0: 6f66 4a3c 5c45 80bc 8a98 cdbc d577 07ba
000003d0: 1bff beba 0f3d debb 8e3d 15bb ebb8 31bc
000003e0: fb0c 383c eb7f 9dbc 7540 f83c 8447 98bc
000003f0: d3d4 63bb c28d 873b 65b3 af3c 6ac5 643c

action_model._continuous_distribution.mu.bias f4 [3]
0.0 0.0 0.0
00000000: 0000 0000 0000 0000 0000 0000

action_model._discrete_distribution.branches.0.weight f4 [2, 128]
-0.003046141 0.020242745 -0.00041152668 0.006546744 0.0035569982 -0.0016242784 0.012043284 0.009896419
0.0016087795 0.0018941358 -0.0038131736 0.0008297182 -0.007977915 -0.0025176376 -0.0024139856 -0.02033587
0.005621183 0.0028225956 -0.0015810302 0.006929123 -0.004798295 0.0007804771 -0.009093727 0.0077899965
-0.007514627 -0.0048533916 0.0012180967 0.0037407733 -0.014509479 0.011465486 -0.0071185525 -0.008819795
-0.0067405785 0.0067576803 -0.016382497 -0.01593058 -0.027195776 -0.000108950764 -0.007043266 0.0036861673
0.0019149855 -0.0014788362 -0.0040046885 -0.013367853 0.004102023 -0.011068656 -0.00036796366 -0.008949737
0.014355013 0.00083696685 -0.002385 -0.0023761508 -0.010475411 -0.00113265 -0.00019348254 0.014774297
-0.0035415539 -0.0073070936 0.0029995746 0.009917705 0.0009034034 -0.0014085805 -0.0055362587 -0.01659513
0.0019325245 -0.0030250417 -0.013979867 -0.004401042 -0.003914205 -0.0062071243 -0.0037081975 -0.0012679718
-0.004177452 0.012974163 -0.005319435 -0.011674718 -0.0033310615 -0.003938981 -0.00022570351 -0.00056205515
0.006174776 -0.007661459 0.0042199115 -0.0018391842 -0.028378678 -0.010445366 0.007865789 0.0005777721
-0.015290926 -0.0071903155 -0.006536203 -0.0034161352 -0.01720358 0.0123576885 0.012792686 0.0039966274
0.004967201 0.00061720697 -0.0030056152 0.0005243972 -0.0030351526 -0.00038388392 -0.0154930875 0.007101632
-0.0069599138 -0.012403113 -0.004111409 0.017837465 -0.014439761 0.015777377 -0.007900075 0.00029314376
-0.005543573 0.0045945765 -0.014812929 0.020162381 0.007538446 -0.014465026 -0.0011759064 0.0048707323
-0.0034925526 -0.013281149 -0.0033842535 0.00822454 -0.0067072213 0.0034561534 -0.004103157 0.0066371555
0.014854436 -0.00079577835 -0.009072214 -0.0020019512 0.0065191537 -0.010562546 -0.009542396 -0.007389547
-0.004685681 0.0025063679 -0.004721533 -0.0011984075 0.0014077988 0.007062439 -0.0021612116 -0.020251047
0.012973121 0.0044316133 -0.010051028 0.0047491645 0.0034829776 0.00089792506 0.0011318027 -0.00085647515
0.007189081 -0.014987967 -0.010804236 0.000790741 -0.020516505 0.0109187225 -0.0016320212 0.006849751
-0.0080811195 0.0011033253 -0.006844174 -0.006535254 0.014094599 0.013289908 -0.00022332289 -0.0013263136
0.01799476 0.0026016515 0.009535926 0.006721597 0.015511689 0.0047422065 -0.0066197882 -0.0023665498
0.0039515505 0.022041423 -0.0017320657 -0.011245295 -0.002811105 -0.002636854 -0.0056687794 0.007133571
-0.0069083995 -0.0120527735 0.017009249 0.0022103928 0.003281162 0.002679617 0.0067648063 -1.8979457e-05
0.0007363741 0.0072862045 0.0046549155 -0.008971061 -0.0025514804 0.020685844 0.009949195 -0.008423659
0.004473807 -0.0008410044 -7.346193e-05 0.011140299 -0.024141084 0.022853 0.005437015 -0.0004881268
-0.0040835305 -0.009184403 0.0051762206 0.0064394064 -0.005259508 -0.007379332 0.011455624 -0.011550859
0.0049173203 0.013481918 0.0029509987 -0.0012257787 -0.0019623684 0.016801184 -0.0059071095 0.010818232
-0.007551969 0.008172079 -0.007313495 -0.013499545 -0.002586443 0.008313387 -0.006441167 -0.011918936
-0.013250574 0.0021466243 -0.00722294 0.0124178445 0.012540095 -0.009345769 -0.018799704 -0.0039863763
0.0026812684 0.003449548 -0.010330708 -0.011622819 0.013269975 -0.003109695 0.007638614 -0.010730494
-0.0029308766 -0.0051705167 -0.0071647763 -0.0052146893 -0.005975071 0.01346487 0.004434291 0.0020393399
00000000: c4a1 47bb 1dd4 a53c 2dc2 d7b9 1286 d63b
00000010: 871c 693b bde5 d4ba 3251 453c 9724 223c
00000020: afdd d23a a744 f83a 70e6 79bb 7281 593a
00000030: cdb5 02bc f3fe 24bb f533 1ebb 6997 a6bc
00000040: e731 b83b 4cfb 383b 923a cfba b20d e33b
00000050: 043b 9dbb ee98 4c3a dbfd 14bc 3a43 ff3b
00000060: 433d f6bb 3309 9fbb 8ba8 9f3a c327 753b
00000070: 2ab9 6dbc bcd9 3b3c bf42 e9bb e780 10bc
00000080: 12e0 dcbb 886f dd3b 9634 86bc d980 82bc
00000090: adc9 debc 7f7c e4b8 33cb e6bb a093 713b
000000a0: 4000 fb3a 82d5 c1ba c339 83bb d704 5bbc
000000b0: 436a 863b 4f59 35bc 3feb c0b9 eba1 12bc
000000c0: 4a31 6b3c e567 5b3a a94d 1cbb 32b9 1bbb
000000d0: 0fa1 2bbc 6d75 94ba 93e1 4ab9 e50f 723c
000000e0: 6a19 68bb 5870 efbb 8394 443b df7d 223c
000000f0: 60d2 6c3a 1ea0 b8ba 8169 b5bb 83f2 87bc
00000100: c34c fd3a c73f 46bb d00b 65bc 9e36 90bb
00000110: bb42 80bb 2265 cbbb 3b05 73bb 1332 a6ba
00000120: 02e3 88bb 9591 543c a84e aebb 5147 3fbc
00000130: f04d 5abb 9112 81bb d3aa 6cb9 e256 13ba
00000140: c655 ca3b fa0c fbbb 2f47 8a3b c810 f1ba
00000150: 677a e8bc 0a23 2bbc 83df 003c a175 173a
00000160: cb86 7abc bd9c ebbb a52d d6bb 3de1 5fbb
00000170: 86ee 8cbc e777 4a3c 6a98 513c 24f6 823b
00000180: e7c3 a23b 0fcc 213a dbf9 44bb b377 093a
00000190: 69e9 46bb 0744 c9b9 b8d6 7dbc cfb4 e83b
000001a0: fd0f e4bb 6d36 4bbc 00b9 86bb e01f 923c
000001b0: bf94 6cbc 8f3f 813c 516f 01bc 17b1 9939
000001c0: dca6 b5bb 1a8e 963b edb1 72bc 942b a53c
000001d0: 1205 f73b b7fe 6cbc df20 9aba aa9a 9f3b
000001e0: 4fe3 64bb 2d99 59bc 5aca 5dbb 39c0 063c
000001f0: 40c8 dbbb a280 623b c773 86bb 7f7c d93b
00000200: 0560 733c c89b 50ba a0a3 14bc 2b33 03bb
00000210: a09e d53b 870e 2dbc b657 1cbc 0324 f2bb
00000220: 578a 99bb e041 243b 17b7 9abb e213 9dba
00000230: e485 b83a 086c e73b 1da3 0dbb 86e5 a5bc
00000240: 378d 543c 1137 913b 11ad 24bc e19e 9b3b
00000250: ab42 643b bb62 6b3a ff58 943a 1385 60ba
00000260: 6292 eb3b 1790 75bc 4004 31bc bb49 4f3a
00000270: 3b12 a8bc 71e4 323c 8be9 d5ba e073 e03b
00000280: ac66 04bc 749d 903a 1845 e0bb af25 d6bb
00000290: 08ed 663c eabd 593c c82b 6ab9 b3d7 adba
000002a0: bf69 933c 7880 2a3b 933c 1c3c d840 dc3b
000002b0: bd24 7e3c 8364 9b3b cfea d8bb 1e18 1bbb
000002c0: 027c 813b 3790 b43c 7b06 e3ba 303e 38bc
000002d0: 843a 38bb 12cf 2cbb 2bc1 b9bb bbc0 e93b
000002e0: db5f e2bb ff78 45bc fb56 8b3c 3ddc 103b
000002f0: c308 573b 839c 2f3b 4fab dd3b 1336 9fb7
00000300: 3b09 413a 1dc1 ee3b 4388 983b 5bfb 12bc
00000310: bd36 27bb 5c75 a93c f301 233c 6303 0abc
00000320: 0399 923b da76 5cba 930f 9ab8 cd85 363c
00000330: 86c3 c5bc 3736 bb3c fd28 b23b 45eb ffb9
00000340: 23cf 85bb 2e7a 16bc 499d a93b a801 d33b
00000350: f357 acbb 53ce f1bb 5fb0 3b3c d03f 3dbc
00000360: 7921 a13b 43e3 5c3c 8b65 413b 4faa a0ba
00000370: 149b 00bb a3a2 893c 6d90 c1bb f43e 313c
00000380: 8276 f7bb 2fe4 053c 0ba6 efbb 322d 5dbc
00000390: 5081 29bb df34 083c 6d10 d3bb a447 43bc
000003a0: ef18 59bc 61ae 0c3b 6aae ecbb 3774 4b3c
000003b0: f874 4d3c ff1e 19bc d601 9abc 26a0 82bb
000003c0: 38b8 2f3b d011 623b 2142 29bc a36d 3ebc
000003d0: 4f6a 593c 06cc 4bbb 574d fa3b f4ce 2fbc
000003e0: f313 40bb 706d a9bb 80c6 eabb fcdf aabb
000003f0: 87ca c3bb c29b 5c3c 874d 913b 72a6 053b

action_model._discrete_distribution.branches.0.bias f4 [2]
0.0 0.0
00000000: 0000 0000 0000 0000

network_body._body_endoder.seq_layers.0.weight f4 [128, 50]
0.04066574 -0.029045286 -0.06514323 0.054441534 0.23490871 0.057841666 0.45524 -0.11691047
-0.04035698 -0.31954816 -0.08732376 -0.07146355 -0.147597 -0.06438535 0.031842303 0.11693929
-0.10330113 0.025299262 0.17047346 0.0045715985 -0.05490554 -0.014980278 0.30460903 -0.035062436
0.13251111 0.21512169 0.00057772215 -0.06783103 0.1116438 0.24071576 0.16197485 0.1705864
-0.01998526 0.23947124 0.17577307 -0.361023 0.024356423 0.128414 -0.24064192 -0.36270034
0.07512362 0.27135235 0.040038012 -0.20025802 -0.05995817 0.0634539 -0.08968718 -0.19956708
-0.072533615 -0.0014890385 -0.0069716326 0.034454916 0.17500955 0.08041018 0.15384763 -0.14816955
0.16760683 -0.023909356 -0.117708586 0.024326961 -0.10465997 -0.11927557 0.025559075 0.022192813
0.12452596 -0.07401659 -0.028162206 -0.15409571 0.08226154 -0.13387637 0.03968231 -0.06960951
0.11948792 -0.26946974 0.2464058 0.18893772 0.26053557 -0.15213792 -0.06118654 -0.020088864
-0.29824787 0.16647236 0.024390636 0.18921562 0.103460655 0.13795424 -0.1905682 0.06836381
-0.04167268 0.036995046 -0.042260863 -0.26443464 0.118109405 -0.0070951874 -0.06673563 -0.012189266
0.14038244 -0.027591228 -0.104285754 0.11347258 -0.05594642 0.21535936 0.1396943 0.37547904
0.1126569 0.003899675 -0.05721922 0.00986531 0.27022558 0.072754264 -0.0036011876 -0.042749472
0.070099376 0.16051303 0.1340358 0.18930979 0.15040979 -0.056957357 0.029561965 -0.23815982
-0.41092688 -0.042316444 -0.20057215 -0.035177115 0.15273416 -0.1161127 -0.047404986 0.20238727
-0.07472277 -0.1649155 0.022870654 0.06525886 0.009773703 -0.06740529 -0.23622441 -0.075568415
0.10192301 -0.25700685 -0.06250368 0.081064224 0.0017738774 -0.084406205 0.15261337 -0.043706637
-0.031866524 0.032944363 0.052542653 0.16888645 0.04847743 0.11158274 -0.14603709 -0.20604509
0.05043538 -0.24155602 0.53741354 -0.11550852 0.082081124 -0.13028595 0.17660695 -0.016714763
0.15820622 -0.20697339 0.200674 0.09595747 -0.04811302 0.10291017 0.091463976 -0.09339554
-0.044692226 0.13511063 -0.13862748 -0.0964305 0.033643734 0.07764431 -0.22490972 0.07817794
0.26540223 0.07825129 -0.09476311 0.09379779 0.03628486 0.10938883 -0.12104786 0.041149836
0.2592941 0.31215656 -0.038537003 -0.1401335 -0.102263935 0.090839885 0.13292529 -0.08433551
-0.09078683 0.07666266 -0.23098095 -0.16190206 0.050314758 -0.122243814 -0.042435784 -0.12649664
-0.08765701 -0.4033265 0.10702919 0.2729091 -0.061239183 -0.2570775 -0.10241198 -0.10460697
0.120266594 0.16191009 0.23336975 0.1063313 -0.16988608 -0.07440799 -0.07651646 -0.24520135
0.02048548 0.22266431 -0.10824882 -0.042113967 -0.020331323 0.07116935 0.08407411 -0.1627953
0.17482837 0.18607892 0.010234314 0.04247241 0.16137858 0.096440226 0.18624924 -0.26156577
0.22365206 -0.14066577 0.24644472 0.32940486 -0.052454125 -0.04821512 0.02000776 0.042515013
0.03829499 0.05284981 -0.10642934 -0.06161326 0.14596327 0.29841292 0.018031668 -0.08129626
0.21386316 -0.21402073 0.05800061 0.24282694 -0.04821022 0.09318827 0.14975393 0.06857535
00000000: 1e91 263d 61f0 edbc d069 85bd 16fe 5e3d
00000010: e98b 703e 62eb 6c3d 3815 e93e c26e efbd
00000020: 5c4d 25bd d19b a3be cdd6 b2bd 7b5b 92bd
00000030: ab23 17be 77dc 83bd 136d 023d de7d ef3d
00000040: 8b8f d3bd 6640 cf3c 9890 2e3e 59cd 953b
00000050: a2e4 60bd d76f 75bc b7f5 9b3e a19d 0fbd
00000060: feb0 073e dc48 5c3e 4772 173a ffea 8abd
00000070: 81a5 e43d 317e 763e bcdc 253e 34ae 2e3e
00000080: 21b8 a3bc f337 753e dbfd 333e 02d8 b8be
00000090: 1f87 c73c f67e 033e d66a 76be dcb3 b9be
000000a0: 6ada 993d b2ee 8a3e e6fe 233d 7010 4dbe
000000b0: b396 75bd 1ef4 813d eaad b7bd 505b 4cbe
000000c0: 818c 94bd d72b c3ba 4b72 e4bb 9920 0d3d
000000d0: b435 333e 18ae a43d 3c8a 1d3e c2b9 17be
000000e0: 20a1 2b3e 8edd c3bc 3311 f1bd 5649 c73c
000000f0: f757 d6bd c046 f4bd 4461 d13c b4cd b53c
00000100: 7707 ff3d 0396 97bd 6db4 e6bc 44cb 1dbe
00000110: bd78 a83d e316 09be eb89 223d 6e8f 8ebd
00000120: 15b6 f43d f0f7 89be cd51 7c3e e478 413e
00000130: eb64 853e 0bca 1bbe bd9e 7abd 6791 a4bc
00000140: f2b3 98be bb77 2a3e dfce c73c bdc1 413e
00000150: 2ee3 d33d e043 0d3e 4f24 43be 5302 8c3d
00000160: f9b0 2abd 1e88 173d ba19 2dbd fa63 87be
00000170: 58e3 f13d bf7e e8bb b1ac 88bd 7db5 47bc
00000180: 6ac0 0f3e 0007 e2bc c593 d5bd 5064 e83d
00000190: 1328 65bd 2a87 5c3e 060c 0f3e ca3e c03e
000001a0: a9b8 e63d b191 7f3b b35e 6abd 1ca2 213c
000001b0: 025b 8a3e 3000 953d e701 6cbb 121a 2fbd
000001c0: 4390 8f3d 875d 243e ae40 093e 6dda 413e
000001d0: 0605 1a3e 1e4c 69bd ef2b f23c 2be0 73be
000001e0: 0265 d2be 0254 2dbd c962 4dbe e115 10bd
000001f0: 5866 1c3e 7fcc edbd bb2b 42bd 9c3e 4f3e
00000200: 4008 99bd 9cdf 28be 3d5b bb3c 70a6 853d
00000210: e221 203c c90b 8abd d0e4 71be 9dc3 9abd
00000220: 03bd d03d 6796 83be ee01 80bd 0005 a63d
00000230: 7381 e83a 29dd acbd ae46 1c3e bb05 33bd
00000240: 7986 02bd abf0 063d f736 573d 92f0 2c3e
00000250: 4590 463d 7e85 e43d bf8a 15be 7cfd 52be
00000260: 5495 4e3d 765a 77be ef93 093f bb8f ecbd
00000270: 261a a83d ae69 05be 74d8 343e 66ed 88bc
00000280: d000 223e d5f0 53be 7c7d 4d3e 5a85 c43d
00000290: 2812 45bd 91c2 d23d 7751 bb3d 2946 bfbd
000002a0: 320f 37bd 715a 0a3e 5df4 0dbe 5b7d c5bd
000002b0: 03ce 093d fb03 9f3d bc4e 66be c11b a03d
000002c0: cde2 873e 3642 a03d 2913 c2bd 0e19 c03d
000002d0: 6f9f 143d 4007 e03d f1e7 f7bd bb8c 283d
000002e0: 32c2 843e fcd2 9f3e fad8 1dbd 287f 0fbe
000002f0: c16f d1bd 430a ba3d 911d 083e 19b8 acbd
00000300: 72ee b9bd 5001 9d3d 4586 6cbe a7c9 25be
00000310: d916 4e3d f75a fabd 25d1 2dbd 5688 01be
00000320: 8585 b3bd d080 cebe 1f32 db3d beba 8b3e
00000330: f0d5 7abd a99f 83be 5fbd d1bd 2e3c d6bd
00000340: 554e f63d c2cb 253e 7bf8 6e3e 3ac4 d93d
00000350: 9ef6 2dbe 3763 98bd a9b4 9cbd 1016 7bbe
00000360: 2ad1 a73c 1d02 643e 8fb1 ddbd b27f 2cbd
00000370: e08d a6bc 3cc1 913d 0c2f ac3d d0b3 26be
00000380: 3506 333e 798b 3e3e d3ad 273c 8df7 2d3d
00000390: 6d40 253e 7482 c53d 1fb8 3e3e f3eb 85be
000003a0: 0c05 653e b00a 10be 015c 7c3e c1a7 a83e
000003b0: 23da 56bd 387d 45bd 50e7 a33c 3924 2e3d
000003c0: 35db 1c3d 0b79 583d a0f7 d9bd 305e 7cbd
000003d0: 6577 153e 94c9 983e 26b7 933c a77e a6bd
000003e0: f2fe 5a3e 4028 5bbe 0c92 6d3d a0a7 783e
000003f0: 1478 45bd 7ed9 be3d 1859 193e 3c71 8c3d

network_body._body_endoder.seq_layers.0.bias f4 [128]
0.0 0.0 0.0 0.0 0.0 0.0 0.0 0.0
0.0 0.0 0.0 0.0 0.0 0.0 0.0 0.0
0.0 0.0 0.0 0.0 0.0 0.0 0.0 0.0
0.0 0.0 0.0 0.0 0.0 0.0 0.0 0.0
0.0 0.0 0.0 0.0 0.0 0.0 0.0 0.0
0.0 0.0 0.0 0.0 0.0 0.0 0.0 0.0
0.0 0.0 0.0 0.0 0.0 0.0 0.0 0.0
0.0 0.0 0.0 0.0 0.0 0.0 0.0 0.0
0.0 0.0 0.0 0.0 0.0 0.0 0.0 0.0
0.0 0.0 0.0 0.0 0.0 0.0 0.0 0.0
0.0 0.0 0.0 0.0 0.0 0.0 0.0 0.0
0.0 0.0 0.0 0.0 0.0 0.0 0.0 0.0
0.0 0.0 0.0 0.0 0.0 0.0 0.0 0.0
0.0 0.0 0.0 0.0 0.0 0.0 0.0 0.0
0.0 0.0 0.0 0.0 0.0 0.0 0.0 0.0
0.0 0.0 0.0 0.0 0.0 0.0 0.0 0.0
00000000: 0000 0000 0000 0000 0000 0000 0000 0000
00000010: 0000 0000 0000 0000 0000 0000 0000 0000
00000020: 0000 0000 0000 0000 0000 0000 0000 0000
00000030: 0000 0000 0000 0000 0000 0000 0000 0000
00000040: 0000 0000 0000 0000 0000 0000 0000 0000
00000050: 0000 0000 0000 0000 0000 0000 0000 0000
00000060: 0000 0000 0000 0000 0000 0000 0000 0000
00000070: 0000 0000 0000 0000 0000 0000 0000 0000
00000080: 0000 0000 0000 0000 0000 0000 0000 0000
00000090: 0000 0000 0000 0000 0000 0000 0000 0000
000000a0: 0000 0000 0000 0000 0000 0000 0000 0000
000000b0: 0000 0000 0000 0000 0000 0000 0000 0000
000000c0: 0000 0000 0000 0000 0000 0000 0000 0000
000000d0: 0000 0000 0000 0000 0000 0000 0000 0000
000000e0: 0000 0000 0000 0000 0000 0000 0000 0000
000000f0: 0000 0000 0000 0000 0000 0000 0000 0000
00000100: 0000 0000 0000 0000 0000 0000 0000 0000
00000110: 0000 0000 0000 0000 0000 0000 0000 0000
00000120: 0000 0000 0000 0000 0000 0000 0000 0000
00000130: 0000 0000 0000 0000 0000 0000 0000 0000
00000140: 0000 0000 0000 0000 0000 0000 0000 0000
00000150: 0000 0000 0000 0000 0000 0000 0000 0000
00000160: 0000 0000 0000 0000 0000 0000 0000 0000
00000170: 0000 0000 0000 0000 0000 0000 0000 0000
00000180: 0000 0000 0000 0000 0000 0000 0000 0000
00000190: 0000 0000 0000 0000 0000 0000 0000 0000
000001a0: 0000 0000 0000 0000 0000 0000 0000 0000
000001b0: 0000 0000 0000 0000 0000 0000 0000 0000
000001c0: 0000 0000 0000 0000 0000 0000 0000 0000
000001d0: 0000 0000 0000 0000 0000 0000 0000 0000
000001e0: 0000 0000 0000 0000 0000 0000 0000 0000
000001f0: 0000 0000 0000 0000 0000 0000 0000 0000

network_body._body_endoder.seq_layers.2.weight f4 [128, 128]
0.16439174 -0.052625597 -0.098423205 0.06344196 -0.040416334 -0.034605186 0.026770633 0.043074932
-0.051593635 0.11130477 -0.048092328 0.20132138 -0.023213381 0.033326905 0.022931227 -0.053878587
0.055964783 -0.16550222 0.1495126 -0.016709864 -0.17403106 -0.08684909 -0.037513077 0.14294752
0.057228617 0.023775987 -0.014957477 0.14395227 -0.005260052 -0.050729696 -0.046020597 0.04165484
0.018527862 0.037495106 0.09534408 -0.10694571 -0.08937999 0.13223019 -0.2005645 0.02467367
-0.09599784 -0.05049992 -0.003495107 0.0484019 0.05371158 0.13911776 -0.011678414 -0.05020901
0.036746103 -0.054666676 -0.079622254 -0.0765879 -0.058209613 0.039300293 0.20081009 0.14653492
0.22704391 0.042656805 0.09365032 -0.0024328344 -0.028863903 -0.05792771 0.10296094 -0.033897743
-0.1385768 0.047865186 -0.010395153 0.07633718 0.09472321 0.057316594 -0.051919617 -0.10540603
0.12189553 -0.09881673 0.117268525 -0.059008475 0.14375952 0.21107024 -0.121428184 0.023666132
0.081307516 0.042123463 0.08017291 0.107293986 -0.055437155 0.0793866 -0.12936565 0.06773997
-0.17656903 0.05162136 -0.05906847 -0.046437297 0.011453015 -0.09838181 -0.010338145 0.063913316
-0.059005555 0.18335295 -0.08431659 -0.032173593 -0.07828743 0.069451086 -0.028921865 0.016819602
-0.04918867 0.0051577003 0.12371995 0.034643054 -0.053801253 0.23147184 0.077378996 0.11416914
0.10325373 0.10168875 0.040458422 -0.22437026 -0.03279955 0.15096977 0.12225921 -0.039155774
-0.025059907 0.020075483 0.02152049 0.031911653 -0.02166882 -0.037925005 -0.12521255 0.024934143
-0.09261844 -0.061684288 0.056387946 0.102422215 0.03468951 -0.0137938345 -0.01198878 -0.002182742
-0.026668658 0.0473467 0.0574464 -0.005522635 -0.05674626 0.026208712 -0.0636679 0.05624195
0.10774537 -0.03319816 -0.062347975 -0.07325623 0.046049304 0.020549292 0.12990437 0.07964085
-0.0707955 0.044641335 -0.0019939658 -0.20988794 -0.11255186 0.10637939 -0.031742055 0.06408289
0.039671943 0.09253937 -0.035124455 -0.029510317 0.02222759 0.0144919325 -0.0029191119 0.0645214
-0.103136234 -0.09451819 0.09123168 -0.07272218 -0.16960111 0.069185 0.021621559 -0.078026414
0.1961109 0.024163833 0.15665081 -0.078652136 0.18083262 -0.13256887 -0.043328278 -0.13119787
-0.21893549 0.03822313 0.034583222 -0.08566952 -0.10768241 0.12957282 -0.0051271464 0.048511654
-0.0005452732 -0.0033591287 0.057962168 -0.08344982 -0.09132772 -0.08327336 -0.04187644 0.07163881
-0.07134837 0.25222588 0.07718511 0.027391545 0.052707456 0.07151372 -0.14610264 0.0497959
-0.083689 -0.026254348 0.07900336 -0.05447577 -0.04633274 -0.13802712 0.037724487 0.043142397
-0.0062445593 0.023312332 0.10171176 -0.019884706 0.03204176 0.021719653 0.048430122 -0.07985505
-0.054686774 0.055015773 0.029296285 -0.0048435903 0.086654246 0.13758901 -0.19290785 0.017827764
0.13801806 0.043587934 0.015510162 0.11759181 -0.061424363 -0.06776533 -0.17711475 0.15063415
-0.10559063 -0.1309125 0.01135253 -0.0032064384 -0.066440366 0.028277516 0.027053524 0.06620598
0.08524879 0.10334567 -0.10914199 0.033118177 0.02260621 -0.010057358 -0.0617825 -0.15102808
00000000: 4f56 283e f08d 57bd 1b92 c9bd dced 813d
00000010: 998b 25bd 2bbe 0dbd 164e db3c 576f 303d
00000020: d953 53bd c1f3 e33d 76fc 44bd 3127 4e3e
00000030: fd29 bebc cb81 083d 45da bb3c cbaf 5cbd
00000040: 543b 653d 6a79 29be d519 193e 20e3 88bc
00000050: 3335 32be f0dd b1bd 50a7 19bd d660 123e
00000060: 8e68 6a3d dcc5 c23c 3510 75bc 3968 133e
00000070: 845c acbb f1c9 4fbd 1880 3cbd 449e 2a3d
00000080: bec7 973c 7894 193d c243 c33d 5a06 dbbd
00000090: db0c b7bd 5a67 073e c860 4dbe 7020 ca3c
000000a0: 849a c4bd 01d9 4ebd 2a0e 65bb 1241 463d
000000b0: ac00 5c3d e374 0e3e d256 3fbc f6a7 4dbd
000000c0: 1583 163d 2aea 5fbd fe10 a3bd 1eda 9cbd
000000d0: 346d 6ebd 58f9 203d 29a1 4d3e 400d 163e
000000e0: 337e 683e e7b8 2e3d bdcb bf3d 3070 1fbb
000000f0: fe73 ecbc 9b45 6dbd 2fdd d23d 5cd8 0abd
00000100: 14e7 0dbe 490e 443d 6f50 2abc ab56 9c3d
00000110: 3efe c13d cec4 6a3d aaa9 54bd 1edf d7bd
00000120: 5da4 f93d 6d60 cabd 7b2a f03d dfb2 71bd
00000130: b235 133e cc22 583e 57af f8bd 7adf c13c
00000140: 8e84 a63d a789 2c3d b231 a43d f3bc db3d
00000150: 1212 63bd 7195 a23d 6e78 04be 41bb 8a3d
00000160: 83ce 34be eb70 533d c8f1 71bd 0935 3ebd
00000170: 6da5 3b3c 677c c9bd 5361 29bc fce4 823d
00000180: cfaf 71bd e0c0 3b3e 2dae acbd 75c8 03bd
00000190: 2955 a0bd 5f3c 8e3d 8ced ecbc 43c9 893c
000001a0: 0f7a 49bd ed01 a93b e360 fd3d e0e5 0d3d
000001b0: b45e 5cbd f406 6d3e e178 9e3d 83d1 e93d
000001c0: b176 d33d 3142 d03d bbb7 253d 51c1 65be
000001d0: d258 06bd d297 1a3e 0963 fa3d ce61 20bd
000001e0: 6f4a cdbc 5775 a43c bd4b b03c cbb5 023d
000001f0: cf82 b1bc 4057 1bbd b837 00be b042 cc3c
00000200: bdae bdbd aaa8 7cbd 0cf7 663d bdc2 d13d
00000210: 9616 0e3d 89ff 61bc 976c 44bc 560c 0fbb
00000220: 3b78 dabc 9dee 413d eb4c 6b3d 38f7 b4bb
00000230: c46e 68bd a7b3 d63c 5164 82bd f55d 663d
00000240: 9ba9 dc3d cbfa 07bd 9760 7fbd 5d07 96bd
00000250: 329e 3c3d fd56 a83c a705 053e be1a a33d
00000260: 3bfd 90bd d5d9 363d 32ad 02bb ddec 56be
00000270: 9781 e6bd 70dd d93d f503 02bd e43d 833d
00000280: 0c7f 223d 4885 bd3d a9de 0fbd 9fbf f1bc
00000290: a316 b63c 926f 6d3c 924e 3fbb cc23 843d
000002a0: 1739 d3bd c192 c1bd add7 ba3d 5eef 94bd
000002b0: eaab 2dbe deb0 8d3d b21f b13c 50cc 9fbd
000002c0: 4cd1 483e 3bf3 c53c 1269 203e 5f14 a1bd
000002d0: 302c 393e 22c0 07be fe78 31bd bc58 06be
000002e0: a030 60be db8f 1c3d 23a7 0d3d 8073 afbd
000002f0: 9888 dcbd bdae 043e 9f01 a8bb 28b4 463d
00000300: aaf0 0eba d424 5cbb bd69 6d3d bde7 aabd
00000310: 070a bbbd 398b aabd a186 2bbd 5eb7 923d
00000320: 181f 92bd c023 813e 3a13 9e3d 3c64 e03c
00000330: c6e3 573d c975 923d ee9b 15be c9f6 4b3d
00000340: 2365 abbd 5c13 d7bc 83cc a13d fc21 5fbd
00000350: 66c7 3dbd fb56 0dbe fe84 1a3d 15b6 303d
00000360: 299f ccbb 81f9 be3c 414e d03d 40e5 a2bc
00000370: 383e 033d 6aed b13c aa5e 463d 0b8b a3bd
00000380: 3dff 5fbd 3858 613d c3fe ef3c fbb6 9ebb
00000390: c877 b13d 22e4 0c3e a389 45be 880b 923c
000003a0: 9b54 0d3e 4389 323d 561e 7e3c fad3 f03d
000003b0: 1d98 7bbd 8dc8 8abd 925d 35be d73f 1a3e
000003c0: e63f d8bd ed0d 06be f6ff 393c 1c23 52bb
000003d0: e311 88bd 40a6 e73c 5a9f dd3c 0097 873d
000003e0: eb96 ae3d e5a6 d33d d685 dfbd eda6 073d
000003f0: a930 b93c 9ec7 24bc a60f 7dbd 1ba7 1abe

network_body._body_endoder.seq_layers.2.bias f4 [128]
0.0 0.0 0.0 0.0 0.0 0.0 0.0 0.0
0.0 0.0 0.0 0.0 0.0 0.0 0.0 0.0
0.0 0.0 0.0 0.0 0.0 0.0 0.0 0.0
0.0 0.0 0.0 0.0 0.0 0.0 0.0 0.0
0.0 0.0 0.0 0.0 0.0 0.0 0.0 0.0
0.0 0.0 0.0 0.0 0.0 0.0 0.0 0.0
0.0 0.0 0.0 0.0 0.0 0.0 0.0 0.0
0.0 0.0 0.0 0.0 0.0 0.0 0.0 0.0
0.0 0.0 0.0 0.0 0.0 0.0 0.0 0.0
0.0 0.0 0.0 0.0 0.0 0.0 0.0 0.0
0.0 0.0 0.0 0.0 0.0 0.0 0.0 0.0
0.0 0.0 0.0 0.0 0.0 0.0 0.0 0.0
0.0 0.0 0.0 0.0 0.0 0.0 0.0 0.0
0.0 0.0 0.0 0.0 0.0 0.0 0.0 0.0
0.0 0.0 0.0 0.0 0.0 0.0 0.0 0.0
0.0 0.0 0.0 0.0 0.0 0.0 0.0 0.0
00000000: 0000 0000 0000 0000 0000 0000 0000 0000
00000010: 0000 0000 0000 0000 0000 0000 0000 0000
00000020: 0000 0000 0000 0000 0000 0000 0000 0000
00000030: 0000 0000 0000 0000 0000 0000 0000 0000
00000040: 0000 0000 0000 0000 0000 0000 0000 0000
00000050: 0000 0000 0000 0000 0000 0000 0000 0000
00000060: 0000 0000 0000 0000 0000 0000 0000 0000
00000070: 0000 0000 0000 0000 0000 0000 0000 0000
00000080: 0000 0000 0000 0000 0000 0000 0000 0000
00000090: 0000 0000 0000 0000 0000 0000 0000 0000
000000a0: 0000 0000 0000 0000 0000 0000 0000 0000
000000b0: 0000 0000 0000 0000 0000 0000 0000 0000
000000c0: 0000 0000 0000 0000 0000 0000 0000 0000
000000d0: 0000 0000 0000 0000 0000 0000 0000 0000
000000e0: 0000 0000 0000 0000 0000 0000 0000 0000
000000f0: 0000 0000 0000 0000 0000 0000 0000 0000
00000100: 0000 0000 0000 0000 0000 0000 0000 0000
00000110: 0000 0000 0000 0000 0000 0000 0000 0000
00000120: 0000 0000 0000 0000 0000 0000 0000 0000
00000130: 0000 0000 0000 0000 0000 0000 0000 0000
00000140: 0000 0000 0000 0000 0000 0000 0000 0000
00000150: 0000 0000 0000 0000 0000 0000 0000 0000
00000160: 0000 0000 0000 0000 0000 0000 0000 0000
00000170: 0000 0000 0000 0000 0000 0000 0000 0000
00000180: 0000 0000 0000 0000 0000 0000 0000 0000
00000190: 0000 0000 0000 0000 0000 0000 0000 0000
000001a0: 0000 0000 0000 0000 0000 0000 0000 0000
000001b0: 0000 0000 0000 0000 0000 0000 0000 0000
000001c0: 0000 0000 0000 0000 0000 0000 0000 0000
000001d0: 0000 0000 0000 0000 0000 0000 0000 0000
000001e0: 0000 0000 0000 0000 0000 0000 0000 0000
000001f0: 0000 0000 0000 0000 0000 0000 0000 0000

value_heads.value_heads.extrinsic.weight f4 [1, 128]
0.054270238 0.013060376 0.20751223 -0.21315649 -0.032966956 0.07709733 0.20600265 -0.20136823
-0.012957692 -0.10121743 -0.16418657 0.02272214 0.19185597 0.11230281 -0.0040659904 -0.14867103
0.17693457 0.21151987 -0.010000214 -0.08107406 -0.09106777 0.09740615 0.07547638 0.076339185
0.061059862 0.09576109 -0.058782965 -0.15016438 -0.041048914 0.072782636 -0.008448809 0.21167383
-0.18086822 -0.020404264 0.12511829 0.064531624 -0.19720078 -0.19840202 0.04868722 -0.15550071
0.09133795 -0.19925515 0.11911473 0.087169975 0.03822589 0.037466258 -0.21499261 -0.066688806
0.046013534 0.15480965 -0.071281865 0.14589593 -0.16391626 -0.029641509 -0.005499512 0.117150605
-0.16901311 0.08904353 -0.058579132 0.09921399 0.17204425 0.14705124 0.026997656 0.053862184
-0.15482178 -0.1302124 0.00078469515 -0.07880117 0.20407152 0.18119329 0.16550827 -0.15257028
-0.17853373 0.11443454 0.15166041 -0.08947526 0.10512295 0.1517686 0.043158352 -0.18354633
0.16570374 0.013798147 0.17976433 0.19696355 -0.050079674 -0.13671562 0.0155552775 -0.20882954
0.14948848 0.049012125 -0.17060679 0.12882757 0.030785128 -0.11075901 -0.18878317 -0.068666965
0.006893426 0.08772665 -0.036953986 -0.091313444 -0.06823762 0.14542022 0.08084464 -0.13869697
-0.008141175 -0.024682045 -0.14652184 0.16205901 -0.004115209 0.077806264 -0.056885347 0.09608489
0.18756819 0.018048823 -0.15191069 -0.19558813 -0.12937167 0.04383865 0.20186803 -0.06074895
0.05964929 -0.044214144 -0.11539582 0.13778701 0.02446279 0.1441791 -0.045640647 -0.15930438
00000000: 784a 5e3d 30fb 553c 167e 543e b245 5abe
00000010: 5c08 07bd 34e5 9d3d 5cf2 523e 7933 4ebe
00000020: 804c 54bc 154b cfbd 8620 28be c823 ba3c
00000030: e475 443e 04ff e53d 003c 85bb 383d 18be
00000040: 562e 353e aa98 583e f0d7 23bc 280a a6bd
00000050: bd81 babd e07c c73d 5c93 9a3d b857 9c3d
00000060: e819 7a3d 641e c43d 68c6 70bd b1c4 19be
00000070: e822 28bd 100f 953d e06c 0abc 06c1 583e
00000080: 8535 39be d826 a7bc 021f 003e 2829 843d
00000090: 00ef 49be e629 4bbe 406c 473d 943b 1fbe
000000a0: 640f bb3d 8b09 4cbe 6cf2 f33d 2c86 b23d
000000b0: c092 1c3d 3876 193d 0627 5cbe 2494 88bd
000000c0: b078 3c3d 6c86 1e3e 3afc 91bd be65 153e
000000d0: aad9 27be c0d2 f2bc 4035 b4bb a8ec ef3d
000000e0: c611 2dbe 745c b63d acf0 6fbd b430 cb3d
000000f0: 5e2c 303e 9a94 163e 302a dd3c 989e 5c3d
00000100: 9a89 1ebe 6656 05be 00b4 4d3a 8262 a1bd
00000110: 20f8 503e bc8a 393e 007b 293e 623b 1cbe
00000120: 8cd1 36be a85c ea3d de4c 1b3e ce3e b7bd
00000130: b44a d73d 3a69 1b3e d0c6 303d 92f3 3bbe
00000140: 3eae 293e a011 623c 2414 383e d0b0 493e
00000150: 5820 4dbd 2eff 0bbe 90db 7e3c 69d7 55be
00000160: 8213 193e f0c0 483d 8cb3 2ebe 60eb 033e
00000170: 1831 fc3c 9fd5 e2bd 6050 41be 44a1 8cbd
00000180: 40e2 e13b 08aa b33d 105d 17bd 8b02 bbbd
00000190: 2ac0 8bbd 0ae9 143e e091 a53d 9406 0ebe
000001a0: 9062 05bc 0032 cabc d209 16be ccf2 253e
000001b0: e0d8 86bb e458 9f3d 9c00 69bd 28c8 c43d
000001c0: e011 403e 20db 933c 7a8e 1bbe 4148 48be
000001d0: 027a 04be 2890 333d 7eb6 4e3e e4d3 78bd
000001e0: d052 743d e419 35bd a554 ecbd 0a18 0d3e
000001f0: 3066 c83c b0a3 133e b0f1 3abd b020 23be
