Assets/Learning/AIRollABall/results/WithObstacle/AIRollABall/AIRollABall-8999960.pt (torch, 584088 bytes, 42 tensors)

network_body._body_endoder.seq_layers.0.weight f4 [128, 50]
000000 4d c9 a0 3e cc 90 53 3d 5e 78 f4 bd f5 ba b7 3d
       0.3140358 0.05165176 -0.11937021 0.08971206
000010 56 b7 e3 3d a1 68 bc bd 33 49 35 bd a9 15 02 3e
       0.11118953 -0.09199644 -0.04425926 0.12703575
000020 d9 f0 6e 3c de f8 dc bd 40 0a b7 3d e4 0d a1 be
       0.01458379 -0.10789655 0.08937502 -0.3145591
000030 2e 1d ac bd 3a 2f 6d 3e 94 2e 12 be 34 f2 55 3e
       -0.08404003 0.23162547 -0.1427558 0.20893174
000040 1c e0 fb bd c9 d1 b9 39 e4 4f ca bd 1f a5 27 bd
       -0.12298605 0.00035442252 -0.09878519 -0.040928956
000050 34 d3 bd 3e ea d5 7b be 7a 51 11 be 46 e7 49 bd
       0.37075198 -0.2459332 -0.14191237 -0.049292825
000060 fb 09 6a 3e 9e 4c 40 3d 59 b2 c1 3c 58 96 c2 3c
       0.2285537 0.046948068 0.023644613 0.02375333
000070 28 73 6c bd b7 02 cd 38 12 9f c5 bd bf e4 c4 3d
       -0.05772701 9.7756674e-05 -0.09649481 0.09613942
000080 70 9b d0 3b be ff 01 be 86 8d 2b bc 39 bc d7 3d
       0.006366186 -0.12695214 -0.010470754 0.105339475
000090 6d 26 7b 3d f6 dd 19 3e 78 7e 80 3d df 8f 9a 3e
       0.061315943 0.15026078 0.06274122 0.3018789
0000a0 1c 7e 32 3c 00 4b 26 be 3b 8d 0b be aa 54 3e 3e
       0.010894325 -0.16239548 -0.13628094 0.18586984
0000b0 d4 df 8d 3d 70 63 12 be 85 3f 79 be 17 b4 fc 3b
       0.069274575 -0.14295745 -0.24340637 0.007711898
0000c0 3a 71 7b bd 02 de d7 bd c3 7a 93 bd 28 c8 d7 bd
       -0.06138728 -0.105403915 -0.07201149 -0.10536224
0000d0 bc 36 6d ba 6f 6e 11 be a5 72 c1 3c 3b 1e f7 bb
       -0.00090489886 -0.14202283 0.023614237 -0.0075414455
0000e0 7b 3e 0a 3e 88 db 19 3e ac 2e 5c bd f6 b3 8e bd
       0.13500397 0.15025151 -0.053755447 -0.069679186
0000f0 af ea f4 bd 5f 4e 83 3e 4c cc 0e 3e 22 b9 3f be
       -0.11958825 0.2564573 0.1394512 -0.18722966
000100 c7 f9 ad 3d 92 2f 44 be 0d 3b 85 bc ae ef e5 bd
       0.08494907 -0.19158772 -0.01626351 -0.11227356
000110 db 2a 40 3e 7c d1 74 bd 1b 18 53 be b7 4e 61 3d
       0.18766348 -0.059770092 -0.20614664 0.05500671
000120 10 6f 8b bd 83 be 9f bd 3d 4f 21 3c aa 71 69 3c
       -0.06808293 -0.07800009 0.009845552 0.014248291
000130 ca 08 c5 3b 85 2d 07 be 8e a6 00 be c4 8b 73 3e
       0.0060130106 -0.13200958 -0.12563536 0.23783785
000140 60 dc 39 bd f7 66 80 bd cc 20 90 3d 46 f6 39 3e
       -0.04537618 -0.06269639 0.070375055 0.18160352
000150 f7 f0 cf 3d 17 cd 9b be 5a c4 bd bc da aa 3c 3d
       0.10153382 -0.3042991 -0.023164917 0.046061374
000160 a9 d8 c9 bd b7 dc 0e bd e1 46 3f be f8 70 81 bd
       -0.09855778 -0.03487846 -0.18679382 -0.06320375
000170 e2 49 e1 bc e9 4e 9b bd c8 b6 ad 3c c7 c1 7f bd
       -0.02750105 -0.0758341 0.021205321 -0.06244066
000180 89 1b a5 be 83 b5 8b bd c0 08 0d bd 99 08 26 3e
       -0.3224757 -0.0682173 -0.034432173 0.16214217
000190 69 1e bb 3c 5d e9 bb bd 81 51 07 3d 10 fe 1d bd
       0.02284165 -0.0917537 0.033036713 -0.03857237
0001a0 1b 5d 96 3d 4e 84 1f be 43 07 f2 3c 30 8a 27 be
       0.07341977 -0.15577814 0.029544478 -0.16361308
0001b0 86 94 f7 bd 7e 47 fa 3d c2 6a 9f bd 14 ba 44 be
       -0.120888755 0.12220667 -0.07784034 -0.19211608
0001c0 61 31 70 3d 31 82 74 3d 2e a7 fb 3c 1f 4e 26 be
       0.05864084 0.059694473 0.030719366 -0.16240738
0001d0 5e 24 20 bd 59 09 06 3e 7e e5 29 3d 2c 4c ac 3e
       -0.039097182 0.13089503 0.041478626 0.33651865
0001e0 14 de 9f bc 4b 6e d0 bd 1d 74 8f 3e 77 46 78 3d
       -0.019515075 -0.10177287 0.28018275 0.060614076
0001f0 12 7e 8c 3d c2 6c 7c be a1 03 16 be 64 cd 9f 3d
       0.068599835 -0.24650863 -0.14649822 0.07802847
000200 00 0c 00 3e fc 90 0e 3e f5 f3 11 be 32 b3 5b 3e
       0.12504578 0.13922495 -0.14253218 0.21455076
000210 6a 8e 9f be fd 9c 1b bd 03 53 20 3e 73 90 e5 3e
       -0.3116334 -0.037991513 0.15656666 0.44836769
000220 dc f1 cb 3d 7f b8 f3 b9 35 3f dc 3d 58 da 4a bd
       0.099582404 -0.00046486032 0.10754243 -0.049524635
000230 16 09 3d be 0c 12 f9 3d 77 73 e1 bd 13 c9 13 3e
       -0.18460497 0.12161645 -0.11008351 0.14432172
000240 7d 10 3e be 22 ce 85 bd 9a 85 8d bd 8b db 88 bd
       -0.18560977 -0.06533457 -0.06910248 -0.066824995
000250 0c 95 c3 3d 9e 56 1c bd c7 fe f8 bd e1 34 1e bd
       0.09549913 -0.038168542 -0.1215797 -0.038624648
000260 69 39 dc bc 95 50 b5 3d bc 75 ac 3d ee 4d 8f 3d
       -0.026882844 0.088532604 0.084208935 0.06997286
000270 aa 45 ea bb 31 f5 05 be f1 b4 13 bd 25 e3 5f be
       -0.007149418 -0.13081814 -0.03606123 -0.21863993
000280 4a 49 eb bd 92 8e fc 3d 45 38 91 3d d5 91 af bd
       -0.11488588 0.12331881 0.07090811 -0.08572737
000290 3f b9 5d 3e bb e6 80 bb 5e df 05 be a0 db 9f bd
       0.21652697 -0.003933755 -0.13073489 -0.07805562
0002a0 9a 85 9d 3e af f6 10 3e 92 34 07 3c c2 23 7e bd
       0.30765992 0.14156602 0.00825228 -0.06204582
0002b0 f4 80 aa bd 2e 89 1d 3d 6f 54 bc 3e 5b 21 4a 3d
       -0.08325377 0.038460903 0.36783168 0.049348217
0002c0 dd a9 63 3e 40 69 ca 3c 91 b9 85 be b1 19 5b be
       0.22232766 0.02470839 -0.26118138 -0.21396519
0002d0 0b b4 c5 bd 3b b3 0d 3e 05 b3 6b bd f8 db fc bb
       -0.09653481 0.13837902 -0.057543773 -0.007716652
0002e0 e8 78 1e be 08 dc 93 be bc d3 79 be 4f 44 14 3e
       -0.1547581 -0.28878808 -0.24397177 0.14479183
0002f0 f6 04 a3 3c aa 20 4d 3e 27 92 6f be 1d 53 6d 3c
       0.019899826 0.20031992 -0.23395596 0.014485148
000300 2e 01 11 bc f5 cf ba bd 50 1a ee 3d 7e 98 4e bd
       -0.008850379 -0.09121696 0.116261125 -0.050438397
000310 b4 ce 33 3d d9 b7 86 bd 23 d3 ee bd 9e d4 35 3e
       0.0438983 -0.06578035 -0.11661365 0.17756888
000320 62 a4 e2 bc 2e 29 b5 3d fa 69 15 be d6 28 d3 3d
       -0.027666274 0.08845745 -0.14591208 0.10310523
000330 f5 8e b8 3d 56 db c4 3d 1e aa 9e ba a8 cd 46 bd
       0.09011642 0.096121475 -0.0012105142 -0.048535973
000340 fd 59 51 3e 85 88 88 bc 86 1d 45 3b 7d a1 04 be
       0.20444484 -0.01666666 0.0030077412 -0.12952228
000350 6b b2 da 3d c5 3c 13 3e 7a 01 ce 3d 44 63 95 bd
       0.10678562 0.1437865 0.100588754 -0.07294324
000360 4b 2f 3d 3e 12 92 da 3d 61 06 57 bc b7 ed 82 3e
       0.18475072 0.10672392 -0.013124079 0.25571987
000370 e0 35 b6 3e 2b 4a 93 3d 44 e0 a1 3d a5 58 ad bb
       0.35587978 0.07191881 0.079041034 -0.0052901083
000380 65 e5 76 bc f5 86 52 be 5a 9e 97 3c 0d cb d5 bd
       -0.01506934 -0.20559295 0.018508125 -0.104391195
000390 3a f9 1b bd fb d5 94 3d 8b 8d b4 3d 71 4e 33 be
       -0.038079478 0.07267376 0.0881606 -0.17510392
0003a0 94 20 3a 3c 7f d7 8d 3d fe 99 b7 bd d6 71 44 be
       0.011360306 0.06925868 -0.089649186 -0.1918405
0003b0 7d a4 91 3e 30 5e 9d bb fe da 15 be cd 4f 54 be
       0.28445807 -0.004802488 -0.1463432 -0.20733567
0003c0 67 75 e1 3d 94 3a 92 be 11 39 3e bd 32 b1 c2 3e
       0.11008721 -0.28560317 -0.04644114 0.38025814
0003d0 5d a6 98 3e c2 47 a1 3d cd 52 19 be 5a 4f b8 3d
       0.29814425 0.07875015 -0.14972992 0.0899951
0003e0 97 5e b8 bc 1c 8e 27 3e 3a 3b 24 be 5c dd 4b be
       -0.022506041 0.16362804 -0.16038218 -0.1990866
0003f0 27 bd 81 3b b7 24 99 bd 61 9f 74 bb 13 91 5c bc
       0.0039593163 -0.07477706 -0.0037326443 -0.013462323

network_body._body_endoder.seq_layers.0.bias f4 [128]
000000 81 8c 97 3c 88 fb e9 3c 4b a3 84 bb b9 82 51 3c
       0.018499615 0.028562322 -0.0040477864 0.012787514
000010 a9 6a 3b 3d c0 7e 0c bb f6 51 1a 3c b9 52 60 3d
       0.045756016 -0.0021437854 0.009418955 0.05476639
000020 cb 57 bf bb cc 2e 78 3b 22 51 43 bd c4 26 e6 3a
       -0.005839323 0.003786969 -0.047684796 0.001755916
000030 b5 0a f2 3c b3 55 a5 3c e8 69 4c bc 98 08 f9 3c
       0.029546121 0.020182466 -0.012476422 0.030399606
000040 d9 06 1f bc 2e f2 4d bc a0 64 7a bc 3f 4d ec 3c
       -0.009706222 -0.012569947 -0.01528278 0.028845428
000050 6d 1e ad 3c 3c fb a0 3c 80 62 7c 3d 12 16 08 bc
       0.021132672 0.019651048 0.061617374 -0.008306043
000060 15 db 9c bc 7b b0 5e bc 90 88 52 3d 4f fa 11 bb
       -0.019147435 -0.013591881 0.051399767 -0.002227444
000070 6a 3d b2 3c 2f ff 97 bc 03 5e 5a 3d a2 ea 72 3d
       0.0217578 -0.018554298 0.053312313 0.059305795
000080 48 f3 df 3c 00 14 fb 3c 6b 6c 54 3c ed 62 05 3c
       0.027337685 0.030649185 0.012965302 0.0081412615
000090 88 47 e9 bc 3a 8d af 3a 60 ad eb 3c 22 11 25 3d
       -0.028476492 0.0013393529 0.028769195 0.040299542
0000a0 d0 bd 0b 3c df b7 94 bc 5c 62 91 3c f6 b5 ad bc
       0.008529142 -0.018154083 0.017747097 -0.02120493
0000b0 82 92 f4 3c 2d 80 68 bb 6c a6 4b 3d fa 2b e9 3c
       0.029855017 -0.003547679 0.04971926 0.028463352
0000c0 34 6e ae 3c 62 7a 9d 3c fb d3 5e bd f0 4b ec bc
       0.021292783 0.019223396 -0.05440138 -0.028844804
0000d0 0c 27 b3 3c 67 70 86 3b 56 fc 0a 3d 2d e3 f2 ba
       0.021869205 0.004102755 0.033932053 -0.0018530838
0000e0 62 9d 80 bc f9 25 23 bc 9d 97 19 3d d9 ba 15 3d
       -0.015700046 -0.009957784 0.037498105 0.036555145
0000f0 28 0a 37 3c e5 80 7e 3c a1 3d d6 bc 7f c3 d7 3c
       0.011171855 0.015533661 -0.026152434 0.026338337
000100 bb 9a 3f bc 5f ce 63 bc 3a a9 1e 3c c4 57 08 3c
       -0.011694605 -0.013904183 0.009683901 0.008321706
000110 6e 91 6c bc ba 91 ce 3c bc f4 b6 3c 5d 4e f7 3c
       -0.01443897 0.025215972 0.022333495 0.030188734
000120 ed 74 f9 3b bb 64 42 3b 6f f6 03 bc bf 35 13 3c
       0.0076128156 0.002966209 -0.00805436 0.008984982
000130 50 08 4e 3d c5 2d 1b 3d 2d 8c 21 3c 27 14 88 b9
       0.050300896 0.037885446 0.009860081 -0.00025954956
000140 09 3c 8d bc 65 5b ab 3a 23 1e f3 3c be c8 a9 bc
       -0.017240541 0.0013073502 0.029677456 -0.020725604
000150 03 e2 eb 3c d1 69 de 3c d1 5d 80 3c 26 e7 46 3c
       0.028794294 0.027150067 0.015669735 0.012140071
000160 1d 45 85 3c d6 ee 59 3a a4 02 df 39 f5 ad 26 bb
       0.016268307 0.00083134824 0.00042535842 -0.0025433276
000170 91 7c bf 3c 73 65 c4 ba 79 5b 90 3d a0 0d 71 bc
       0.023374828 -0.0014983848 0.07048697 -0.014712721
000180 12 77 61 bb 81 29 ff 3c e8 46 40 bc 32 a3 d9 3b
       -0.0034403247 0.03114772 -0.011735655 0.006641769
000190 ad 62 96 bc 49 d2 3e 3d 3a 48 b2 bc e6 4e 01 bd
       -0.0183576 0.046587262 -0.021762956 -0.031569384
0001a0 1b 40 93 bb 04 35 35 3c b4 9e 66 bc a8 8b 36 bd
       -0.004493726 0.011060003 -0.014075924 -0.04456678
0001b0 e9 88 9a 3c 5c 04 c7 3c fa 31 20 bb 4c 17 ab 3c
       0.018864112 0.02429407 -0.002444385 0.020885132
0001c0 f1 63 85 bc f7 c7 cd bb 0b 4e 9f bc a4 24 b8 bb
       -0.016283007 -0.006279941 -0.019446393 -0.0056196023
0001d0 fb cd c9 3c 1d 59 4a 3d ee 9c 3e 3d 27 5c a7 3c
       0.024634352 0.04940139 0.04653638 0.020429684
0001e0 d4 ec ef 3c 9b d1 d7 bb 75 0e 19 bc 70 73 23 3c
       0.029287733 -0.006586266 -0.009341826 0.009976253
0001f0 12 f3 2a 3d 9b 7a 57 3d ef 23 05 bd 50 4e 55 3c
       0.041735716 0.05260716 -0.032504972 0.013019159

network_body._body_endoder.seq_layers.2.weight f4 [128, 128]
000000 28 6a 9e 3c f4 e3 30 3e cf eb a6 bd 92 b8 31 bd
       0.019337729 0.17274457 -0.08150446 -0.04338891
000010 7b 18 31 3e d8 78 0b 3d fb b4 0e 3e 42 ba 2a 3d
       0.17294495 0.034050792 0.13936226 0.041681536
000020 7b 3e 67 bd 58 d2 b3 bb e2 54 1b bd 94 09 10 be
       -0.05645607 -0.0054877214 -0.037922747 -0.14066154
000030 e3 67 3a 3c 95 66 42 3e e9 9f 35 3d 8e 24 c7 bc
       0.011377308 0.18984444 0.044341955 -0.024309423
000040 2c 75 d3 bd d0 99 03 3e 0c 33 fb 3b 2b 27 64 bd
       -0.10325083 0.12851644 0.0076659974 -0.055701416
000050 96 3f 01 3e fd 71 2f 3e f6 c9 be 3c 8a 86 cf bd
       0.12621912 0.17133327 0.023289662 -0.10133083
000060 81 a7 d1 3a 0a f3 4d bc cf 40 13 3a a4 41 0a 3e
       0.0015995355 -0.012570152 0.0005617262 0.13501602
000070 94 2c 43 3d 3d fe 28 3e 39 29 07 3e d1 c0 e8 3c
       0.047649935 0.16503234 0.13199319 0.028412255
000080 5f 69 ec bd ba b3 07 bc c9 98 9a 3d 63 a4 85 3d
       -0.115435354 -0.008282596 0.07548673 0.06525495
000090 30 ce a4 bd a5 21 12 be f9 93 fb 3b e1 bd 2b bd
       -0.0804714 -0.14270647 0.007677552 -0.04192913
0000a0 c5 34 5f bc e1 59 0d be 1a d6 0a 3e 2a 75 1a bd
       -0.013623421 -0.13803817 0.13558236 -0.037709393
0000b0 76 cb 1b bd c3 b6 db bd cd 80 df 3d 6f 1f 0f 3d
       -0.038035832 -0.107282184 0.10913239 0.034942087
0000c0 54 61 a7 3d 80 3d d2 3d d8 0a 5d 3b 81 93 99 bd
       0.08172861 0.102656364 0.0033728387 -0.07498837
0000d0 fa 68 4f 3d 3e 89 d3 3b d4 7a 03 3d aa 09 65 3d
       0.050637223 0.0064555695 0.03209956 0.05591742
0000e0 25 01 8c bd f3 2b 64 bb 7c 35 96 3e 7c 34 0c be
       -0.06836156 -0.0034816235 0.2933768 -0.13691896
0000f0 8f 11 fd bc 2a 51 38 be 2e 25 f6 3c c8 52 dc bd
       -0.030892162 -0.17999712 0.030047026 -0.10757977
000100 73 38 87 3c c8 b6 1a 3d c7 3a 39 be 64 06 e6 bd
       0.01650641 0.03777197 -0.18088828 -0.11231688
000110 32 13 06 bd 77 aa a4 3b 27 04 87 3d 36 f1 60 bd
       -0.03273315 0.005025204 0.06592589 -0.054917537
000120 ae 81 a6 3d a1 bd 2a 3d bd 75 b0 bd ed b8 69 bb
       0.08130203 0.04168475 -0.08616207 -0.0035663203
000130 b6 38 1f be b5 47 6d 3d 9f ca 9c 3c 88 e9 70 b9
       -0.15548977 0.057929713 0.019139586 -0.00022975181
000140 53 71 aa 3d ae 09 19 3d e7 38 21 be cc 24 29 bd
       0.08322396 0.037362747 -0.15744363 -0.041294858
000150 55 c8 9a 3d 6c e5 08 bd 46 6e f6 bb 4c 1a 87 be
       0.075577416 -0.03342192 -0.00752047 -0.2638725
000160 ca 8e b3 3d ad dc 17 bc 60 7f 20 3d 01 83 13 3e
       0.08767469 -0.009268922 0.039183974 0.14405443
000170 65 ce f8 3c 85 a9 92 bb 41 6d 86 3d 6d f4 0d be
       0.030371854 -0.0044757747 0.06563807 -0.13862772
000180 95 52 a0 3d ae fd cb 3d 8b 7e 2e 3d 02 5e 72 bb
       0.07828251 0.09960495 0.04260115 -0.0036982303
000190 32 a8 06 be c3 a1 29 3e 7f 68 59 bc 39 6e 78 3d
       -0.13150099 0.16565613 -0.013269543 0.06065199
0001a0 20 4a 3b bc b3 2b 30 bd 7b 30 3b 3d e1 9c 08 3e
       -0.011431247 -0.043010425 0.04570053 0.13341095
0001b0 79 da 5d be 44 6c 13 be 1b 02 8a bc c0 fb 63 39
       -0.21665372 -0.14396769 -0.016846707 0.00021742191
0001c0 aa bc fb 3c 73 84 f9 bd 23 3a 89 bd 2c d5 a4 bd
       0.03072961 -0.12183466 -0.06700542 -0.08048472
0001d0 4f 1b 02 3e 08 af 68 bd 21 94 99 bd cc ec 80 bd
       0.1270573 -0.056807548 -0.074989565 -0.062951654
0001e0 66 a0 2e 3d 7c 05 55 bd f8 92 c2 bc 71 9d cc bc
       0.042633437 -0.052007183 -0.02375172 -0.024977418
0001f0 61 f1 4c 3d eb 1c 5f 3e 83 fb 85 bd c6 0c 6f 3e
       0.050034884 0.21788375 -0.06542113 0.23344716
000200 34 88 31 3e 06 0f 19 3d 82 36 a7 3d 38 97 1b bd
       0.17337114 0.037367843 0.081646934 -0.03798601
000210 20 c1 63 3d ee a2 3f 3d 95 b0 d8 3d 2d 42 80 bd
       0.0556041 0.04678624 0.10580555 -0.06262622
000220 d9 d0 41 3d 7d 84 e2 3c 1f 79 21 be 51 a7 1e be
       0.047318313 0.027651066 -0.1576886 -0.15493514
000230 2b 33 1f 3d ce e7 ec 3c 89 8c 1f bd 7d 76 80 3c
       0.038867157 0.028919127 -0.038952384 0.0156815
000240 d1 6d ff bd 70 22 99 3d 3d 94 ff bc d2 b8 2c 3e
       -0.12472118 0.074772716 -0.031198615 0.16867378
000250 83 01 98 3c f4 25 03 3e 3d e2 2d 3c f2 5f 30 be
       0.018555408 0.12807447 0.010613021 -0.172241
000260 e2 ef 9e bd 01 7a 54 3c 0a 39 7e 3d ba 09 4b 3d
       -0.07760598 0.012968541 0.062066115 0.049569823
000270 46 c1 c8 3d b5 aa 49 3d 70 b7 97 3e aa dc 00 3c
       0.09802489 0.049235065 0.2963214 0.00786511
000280 25 22 78 bc bd 73 1c 3e b6 62 31 3e ff 22 69 bc
       -0.015144859 0.15278526 0.17322811 -0.014229535
000290 4b f3 b0 3d 56 71 9b bd 3a b9 4b 3e a5 a0 84 3e
       0.086401545 -0.075899765 0.19894877 0.25903812
0002a0 9a 92 91 bd 84 64 24 3e bc cd b1 3c 26 7d 4c 3c
       -0.0710804 0.16053969 0.021704547 0.01248101
0002b0 e2 7a cf bb 93 6e 1b 3d 65 36 34 3e f2 f1 07 3e
       -0.0063317874 0.03794725 0.17598875 0.13275889
0002c0 7a 97 77 3c 48 c4 5d 3c f9 3f bf bd 3f 6e 8b 3c
       0.015111798 0.013535567 -0.09338374 0.017020343
0002d0 45 0f dc bd 23 d9 00 be 5f d1 f5 bc 70 49 88 3e
       -0.107451 -0.12582831 -0.030007062 0.26618528
0002e0 f6 b8 9f 3d 6a 48 b6 3d 3d 8e 6f 3c cb 9f 34 3d
       0.077989504 0.08900531 0.014621315 0.044097703
0002f0 a7 10 36 bd 54 14 62 3d 15 35 c1 3d a6 ed ce bc
       -0.044449475 0.055195168 0.09433953 -0.025259804
000300 d3 85 02 3e 0f c1 f4 3d 16 f6 8e bd 2a 45 b2 bc
       0.12746362 0.119508855 -0.06980531 -0.021761496
000310 52 e7 65 bd 79 a1 3f 3d 85 06 74 3c 3c 0a 5f 3e
       -0.056128807 0.04678485 0.0148941325 0.21781248
000320 f7 5e 31 3e 0d 48 35 be 7c f6 af 3d 0f 7a c2 3d
       0.17321382 -0.17703266 0.08591935 0.09495937
000330 4f 80 de bc 7a 6d 16 be 13 df 97 bd 6e 6d 80 be
       -0.027160792 -0.146902 -0.07415595 -0.25083488
000340 13 bc 98 bd cb 70 3c bd bf 6c 73 3d 0b d4 02 bd
       -0.07457747 -0.046006005 0.05942988 -0.0319405
000350 02 ce a6 bd b2 70 0d bd 59 a7 c5 3c d1 3c c6 3d
       -0.081447616 -0.034531303 0.02412765 0.096795686
000360 81 d9 12 3e 21 ac 85 bd 0e a2 17 3c 2e b9 f5 b9
       0.14340784 -0.065269716 0.009254945 -0.0004686801
000370 45 96 36 bb 63 b3 99 3d 1c 3d d7 bc 1b 34 e9 bc
       -0.0027860564 0.075049184 -0.026274256 -0.028467229
000380 4e 87 70 3b 9c 61 70 3d d3 a6 85 be cc c2 0d 3c
       0.0036701742 0.058686838 -0.2610384 0.0086524
000390 86 f1 55 bd f8 c5 6c be 6d 1f ae 3c 83 51 c1 bc
       -0.052232288 -0.23122394 0.02125522 -0.023598438
0003a0 85 31 8e 3d ab 51 af bd 6d 38 08 be 57 2b d8 bd
       0.06943039 -0.08560499 -0.13302775 -0.105551414
0003b0 0a 0d 82 bd 91 3e 2c 3d bf 22 b8 bb 59 21 63 3d
       -0.06350143 0.042051855 -0.0056193764 0.055451725
0003c0 f3 83 5e 3c 69 95 ef bd 56 94 a0 bd b1 ea 35 3d
       0.013581264 -0.116984196 -0.07840793 0.044413272
0003d0 da f5 3b 3d e6 ef 15 3d e5 8a 0f 3c e9 56 ff 3d
       0.04588876 0.036605738 0.008761142 0.12467749
0003e0 32 77 c3 3b 3c a1 3a bd 38 4d 2b 3c 88 ea 56 be
       0.005965137 -0.04556392 0.010455422 -0.20987904
0003f0 41 f5 32 3d ae 1b c5 3b 5e bf 8b 3d cd 9e 0b be
       0.043690924 0.0060152626 0.0682361 -0.13634796

network_body._body_endoder.seq_layers.2.bias f4 [128]
000000 ce 0a de 3c 4c c0 2f bc 1a 51 52 3c a8 74 ad 3c
       0.027104761 -0.0107269995 0.012836719 0.02117379
000010 97 52 9c bc 83 44 24 3d 9b f9 bc 3c a4 70 00 3d
       -0.01908235 0.0401044 0.02306824 0.031357422
000020 a9 54 37 3a 3b 4d 2f 3d 84 9d 77 3c f0 9f f0 3c
       0.00069935113 0.042798262 0.015113238 0.02937314
000030 7b 19 17 3d 14 71 da 3c 4a 72 83 3c 6b f6 af 3c
       0.036889534 0.026665248 0.016045708 0.021479806
000040 b4 8e 75 3c 63 3b dc 3c 4e 36 0f bb 49 ca af 3c
       0.014987636 0.026883787 -0.0021852436 0.021458762
000050 94 06 d5 3c e3 0e 2d 3c 3c 52 02 3d 39 6c 07 3d
       0.026004113 0.010562631 0.031816706 0.033062194
000060 54 3e d5 3c 5e 00 80 3c 4c a6 f9 3c 24 92 16 3d
       0.026030697 0.015625175 0.030474804 0.036760464
000070 5f 7e 1c 3c 3c c7 9c 3c f1 f8 e2 3c fc c2 08 3d
       0.009551614 0.019137971 0.027706595 0.033389077
000080 c0 ad 05 3d d2 d8 f7 3c 41 e9 a0 3c 70 8e eb 3c
       0.032636404 0.030254755 0.019642474 0.028754443
000090 b5 29 b2 3c fd 2a 01 3d e5 b2 c6 3b 00 b3 07 3d
       0.021748403 0.031535137 0.0060638064 0.033129692
0000a0 c8 e8 07 3d fa f0 cf 3c f4 3e ad 3b ae c9 89 3c
       0.033180982 0.025383461 0.0052870456 0.016819801
0000b0 85 e7 a7 3c 43 bd 16 bc 16 21 36 3d 59 71 e4 3c
       0.02049614 -0.009200397 0.044465147 0.02788608
0000c0 23 83 e3 3c 11 0b eb 3c e6 53 40 3d 62 48 8d bc
       0.027772492 0.0286918 0.04695501 -0.017246429
0000d0 4b 57 08 3d cf 64 18 3c df ab d7 bb 10 69 2d 3d
       0.033286374 0.009301378 -0.006581768 0.042336524
0000e0 9f 13 07 3d 8d b4 63 3c 5f a0 14 bd 67 15 44 3d
       0.032977697 0.013898027 -0.036285754 0.047871973
0000f0 12 61 17 3c 81 c5 df 3c a7 76 84 3a 7e 04 5a bc
       0.009239452 0.027315857 0.0010106162 -0.013306735
000100 92 77 bf 3c ac 41 26 3c 93 5d a5 3c 37 9c fa 3b
       0.023372445 0.010147493 0.020186221 0.007648017
000110 de 24 d3 3c a4 3b 07 3d 5c bb e2 3b 51 57 a8 3c
       0.025774416 0.033015862 0.0069193076 0.020549448
000120 87 92 ce 3c 01 13 08 3c 90 da 43 3c 28 fd f5 3c
       0.025216354 0.008305312 0.011953965 0.03002794
000130 de 28 3d 3c 60 cf a6 bb 47 b7 1d 3d 48 1e ce 3c
       0.011545388 -0.005090639 0.038504865 0.025160924
000140 2c 25 44 3c ca e7 4a b9 aa be 8f 3b d1 25 d4 3c
       0.011971753 -0.0001935057 0.0043867426 0.025896939
000150 97 61 6a 3c f8 4b 79 3c 76 6f ea bc 87 3c a8 bc
       0.014305494 0.015215866 -0.028617602 -0.020536674
000160 17 f7 21 3d 63 ac ea 3c 5d c9 c4 3c cf c3 66 3c
       0.039542284 0.028646654 0.024021799 0.01408477
000170 0e f2 ea 3c 5b 25 f4 3c 37 27 c3 3c 76 46 3f 3d
       0.028679874 0.029802969 0.02382241 0.046698056
000180 d4 5f 16 3d 3c a9 51 bc b5 6c 36 3d c5 b2 75 3c
       0.036712483 -0.012796696 0.044537265 0.014996235
000190 e6 3d e1 3c bb 88 28 3b e8 31 3f 3a c2 d6 90 3b
       0.027495336 0.0025716263 0.00072935084 0.0044201324
0001a0 ce 5d 64 3c 45 09 7d 3c 52 79 cb 3c df 93 16 3d
       0.01393838 0.015444105 0.024838123 0.036762115
0001b0 c4 26 a1 bb 8d a4 dd 3c aa 6e b2 3c 92 2d 4b 3d
       -0.0049179513 0.027056003 0.021781284 0.049604006
0001c0 ac 12 38 3c 03 69 75 3c 6e 3a 65 3b a6 6f e3 3c
       0.0112349205 0.01497865 0.0034977454 0.027763199
0001d0 cf 17 dd 3c 0a c0 f3 3c 07 61 28 3c d4 ef 81 3b
       0.026988892 0.029754657 0.010277039 0.0039653573
0001e0 25 54 92 3b 26 3c 27 3d b2 27 d5 3c 1e f6 14 3d
       0.004465597 0.040828846 0.026019905 0.03636753
0001f0 44 3a a2 3c 94 10 82 3c 7e fd 69 3c 0c d8 15 3d
       0.019803174 0.015877046 0.014281629 0.03658299

action_model._continuous_distribution.log_sigma f4 [1, 3]
000000 18 e2 04 be 8f 3e 16 be ab c0 02 3e
       -0.12976873 -0.14672302 0.1276881

action_model._continuous_distribution.mu.weight f4 [3, 128]
000000 07 45 10 3e 9d d9 09 3d a4 fe 50 3d 30 f0 06 3c
       0.14088832 0.033654798 0.051024094 0.008235976
000010 38 b6 0f bd 10 cc 24 3e 03 61 8b bd c6 a9 14 be
       -0.035085887 0.16093469 -0.06805613 -0.14517888
000020 4d 6b 7d 3d 45 b2 56 3e 27 b1 cd 3c 5f 43 44 bd
       0.061869908 0.20966442 0.025108887 -0.047915813
000030 56 91 ed 3d 4f b8 d9 bd d1 bd ff bd 66 e2 a2 bd
       0.11599986 -0.10630857 -0.124873765 -0.07953338
000040 ac 2f 96 bd 49 44 1c be 0e 95 8b bd 90 89 5e bd
       -0.073333114 -0.15260424 -0.06815539 -0.05433041
000050 51 1f 54 3d 7f 70 04 3c b5 2a 7c 3d b9 3d cd bc
       0.05178768 0.008083462 0.061564166 -0.025053846
000060 5d 20 f8 bc 13 4f 7f 3d 0d 6c 33 3d 9a ca 21 be
       -0.03028887 0.06233127 0.043804217 -0.15799943
000070 39 a1 89 bc cf 18 70 bd 1f a1 b7 bd d1 34 e2 bd
       -0.01680051 -0.05861741 -0.08966278 -0.1104523
000080 93 a7 2f 3d f4 98 da 3b 8d bf 25 bd d9 00 1a bd
       0.04288442 0.0066710655 -0.04046588 -0.037598465
000090 f9 6c 3f 3c 5d 3e 30 3c 6b ea 4d bd 86 c7 88 bc
       0.011683696 0.010757056 -0.050272387 -0.016696703
0000a0 77 4c 96 bd 3c e0 b1 3d 58 8a 7e bd 2d ec 71 bd
       -0.07338803 0.086853474 -0.062143654 -0.059063125
0000b0 46 d6 6c bd 55 10 08 3d 81 70 c4 3d 57 eb be bd
       -0.057821535 0.0332187 0.09591771 -0.09322231
0000c0 df 54 00 bb 02 f9 db 3d 98 b7 fa bb fe dd 7b bd
       -0.0019581837 0.10740854 -0.0076512806 -0.061491005
0000d0 cd 0f db 3d 62 21 37 bd 18 6b a4 3d 82 2a 22 3d
       0.10696373 -0.04470957 0.08028239 0.03959132
0000e0 b9 0b a4 3c 89 25 8f 3d 30 02 0e bd 89 47 d7 3c
       0.020025121 0.06989581 -0.034670055 0.026279228
0000f0 cc 06 f9 3d 9b e7 3b 3e 46 98 9c 3b 66 61 02 3d
       0.121594995 0.18350069 0.0047788946 0.031831168
000100 56 3e a2 3d 65 21 f9 3c 42 7f ec 3c 63 af 03 bd
       0.07922046 0.030411432 0.028869275 -0.032149684
000110 bd f9 94 3d cd 44 9f 3c 4a b1 49 3d 2a f8 a5 3c
       0.07274196 0.019441986 0.04924134 0.020259935
000120 af 9b f8 3d 39 34 a5 3d 49 9c fb bd 06 59 a0 bd
       0.12139069 0.08066601 -0.122856684 -0.0782948
000130 01 9e 79 3b 6e 88 20 3d c7 b1 49 3c c0 13 bf 3b
       0.0038088562 0.03919261 0.012310452 0.005831212
000140 88 05 06 3e 7c 02 af 3b 38 ee 41 3b 2b 3b e3 3d
       0.13088048 0.0053408723 0.0029591452 0.1109527
000150 43 c2 8d 3d 08 b6 8e 3d 4c 4e 64 bc 64 fb 10 bd
       0.06921818 0.069683135 -0.013934683 -0.035395995
000160 af 1b 42 bd ae f8 3f 3e 2a d4 9e 3d a3 11 cb bd
       -0.047389682 0.18747208 0.07755311 -0.09915473
000170 00 88 00 be 99 49 db bc 4f b3 8e bd bb 5f 4e 3b
       -0.1255188 -0.026768493 -0.06967794 0.0031490165
000180 37 5d 47 3e af 1a a6 3d 2f 16 cc bd 40 10 97 bd
       0.19469152 0.08110558 -0.09965169 -0.07376146
000190 28 66 6c 3c 83 24 15 3e 0b e9 d5 bd 3c 3a bc bc
       0.014428653 0.1456471 -0.1044484 -0.022976987
0001a0 ce 67 59 3d 21 b8 18 3e c9 f0 47 3c aa 7f 3c 3d
       0.05307751 0.1491399 0.012203404 0.046020187
0001b0 9b 40 55 3d 23 5f 36 3d 8f bd 67 bd af 09 07 3e
       0.052063566 0.044524323 -0.05657726 0.13187288
0001c0 73 30 d5 bd f7 92 e2 bd eb 72 c9 bd 37 8f e8 3d
       -0.104096316 -0.110631876 -0.09836372 0.11355441
0001d0 71 7d ea 3d 35 63 ba bd 5f 30 c3 bc a6 cb f3 bd
       0.11449707 -0.091009535 -0.023826776 -0.11904077
0001e0 19 66 c7 bd d0 8f ee 3d 7f 63 23 be 8e cd 90 3d
       -0.097362705 0.11648524 -0.15955923 0.070704564
0001f0 c7 1c 28 3e 14 e6 e2 bd db 17 20 3d 36 cc 76 3d
       0.16417228 -0.1107904 0.03908525 0.060253344
000200 8f c7 ae 3d 36 b7 58 bd d5 55 0b be 9a ca de 3d
       0.085341565 -0.0529091 -0.13606961 0.10878487
000210 59 45 d2 3b a5 a0 bc bc 2f 83 b2 3c 7b 56 9e 3d
       0.0064169583 -0.02302582 0.021791069 0.077313386
000220 cd 5d 9c 3d c0 e9 1c bd d0 43 f0 bd f6 68 0f 3e
       0.076350786 -0.03830886 -0.11731684 0.14004883
000230 44 f8 65 bd 6d 9f 9e bd cb 1c ac bc 69 8c 46 bd
       -0.056144968 -0.07745252 -0.021009823 -0.04847375
000240 a9 1e 43 3d a6 b8 4a 3d f2 9b 6d bd 2e 07 22 be
       0.04763666 0.0494925 -0.05801005 -0.15823051
000250 23 9f ac bc 26 e0 f9 bd 7f 74 da 3d e8 6c eb bd
       -0.021071976 -0.12200956 0.10666751 -0.114953816
000260 ee 99 25 3e 15 07 f0 bd 58 b5 0f be 3d d8 ea bc
       0.16172001 -0.11720101 -0.14034021 -0.028667564
000270 f4 03 1c be ef 7b 17 3e 46 bb 60 3c f0 ab d4 3d
       -0.15235883 0.1479337 0.0137165245 0.10384357
000280 eb 61 0c 3e 30 23 28 3e dc ce 86 bd 24 03 0c bd
       0.13709228 0.16419673 -0.06582424 -0.034182683
000290 66 00 ac 3d d3 7e 40 be 10 5c f6 bd f0 38 58 bc
       0.083985135 -0.1879838 -0.12029278 -0.013197169
0002a0 59 41 75 3c ce 3b 40 3d 0d 87 ab bd cc 54 06 be
       0.014969193 0.046932034 -0.08375368 -0.13118285
0002b0 fb 33 6d bc 42 9a 4f bd c3 90 1d 3e f7 04 13 3b
       -0.014477725 -0.05068422 0.15387253 0.002243338
0002c0 f0 b5 90 bd 78 50 fc 3b f4 7b 83 bd d3 5c 76 3d
       -0.07065952 0.0077000223 -0.064201266 0.060147118
0002d0 3c f9 16 3e 53 22 95 3d 15 64 50 3b 5b 32 b2 bd
       0.14743513 0.072819375 0.0031797935 -0.08701011
0002e0 0f f0 fd 3d 20 d4 1f be dc 24 86 3c f1 b5 54 bd
       0.12399303 -0.15608263 0.016374998 -0.051931325
0002f0 9f 09 c2 bc 9d 40 05 bd 71 fe 56 3d d2 66 1c bd
       -0.023686228 -0.032532323 0.052488748 -0.038183995
000300 fd 17 c7 bd 29 c4 eb 3d ca 5e 04 3d 71 86 a5 bd
       -0.09721372 0.11512024 0.03231696 -0.08082283
000310 a1 0e 97 bd 91 0f 1f be 5d 95 02 be ce d5 4f 3d
       -0.07375837 -0.15533282 -0.1275229 0.05074101
000320 b7 8d 8a bd 5e 62 81 3d 67 b6 7e bd 13 70 de 3c
       -0.06765311 0.0631759 -0.06218567 0.02715305
000330 52 65 8d 3d 2d f5 40 bd e2 93 0e be 30 23 70 bd
       0.06904091 -0.047108818 -0.139236 -0.058627307
000340 83 eb a4 bd ad 0a 02 bd bb f0 35 be d5 2b a3 3d
       -0.08052733 -0.031748462 -0.17767613 0.07967345
000350 ef 08 89 bd ef 50 4a 3d 8a e0 53 3d 81 4a c4 bb
       -0.06691157 0.04939359 0.05172781 -0.005990327
000360 93 35 7b 3d 1c 26 db 3c dd 86 4b 3c e7 f2 cb bd
       0.06133039 0.02675157 0.012422291 -0.09958439
000370 cf 28 9f bd 19 9c 84 bd 3d fb bb 3c 33 a1 0e be
       -0.077714555 -0.06475086 0.022946948 -0.1392868
000380 ed b1 68 bd 26 41 47 3d 38 d2 1a 3e 77 ac e3 bd
       -0.05681031 0.048646115 0.15119255 -0.111168794
000390 17 39 8d 3d 80 68 69 3d a9 4d d5 3c b6 85 a9 bd
       0.06895655 0.056984425 0.026038008 -0.082774565
0003a0 79 28 21 be a0 d7 99 bc ad d0 cc 3d a7 89 1a 3e
       -0.15738095 -0.018779576 0.10000739 0.15091573
0003b0 e9 59 ba bc ed e9 ed bd f5 22 06 3e 59 d5 c6 3c
       -0.02274795 -0.116168834 0.13099273 0.024271654
0003c0 52 f0 a5 3c 73 7d 88 bd 05 05 55 ba 48 70 e5 3d
       0.020256195 -0.066645525 -0.0008126053 0.112030566
0003d0 06 4b 98 bd 93 40 9c 3d 32 f8 09 3e c4 b3 f5 3b
       -0.074361846 0.07629504 0.13473585 0.0074982364
0003e0 58 41 1f bd c6 12 05 be d5 fb 00 bd 54 27 db 3c
       -0.038880676 -0.12995443 -0.031490166 0.026752152
0003f0 6b a8 52 3d 6c 0c 87 bd 49 c9 14 be 5f 7b 7f 3d
       0.051430147 -0.06594166 -0.14529909 0.062373515

action_model._continuous_distribution.mu.bias f4 [3]
000000 47 65 bb 3b cc 04 e7 3b 66 55 21 bd
       0.0057188603 0.0070501324 -0.039388083

action_model._discrete_distribution.branches.0.weight f4 [2, 128]
000000 21 0d 5b bc d9 a5 a5 bd 2a b6 fc bb 79 ca 29 bd
       -0.013369829 -0.080882736 -0.0077121453 -0.04145286
000010 6c b7 55 bc 92 af 88 bc 8f 9d 8c 3c 97 28 94 bd
       -0.013044219 -0.016685281 0.017164974 -0.072343044
000020 ed 4a e7 bc c8 43 92 bc 18 a1 ad 3c b0 52 cc b9
       -0.02823397 -0.017854586 0.02119498 -0.0003897152
000030 f5 55 c6 bc 1e 5f a6 bd 97 06 9d 3c 60 b9 3b bb
       -0.02421091 -0.08123611 0.019168181 -0.0028644428
000040 40 bb 1c bd 33 00 86 bd 9e ca 11 3d 4c 2a c4 bc
       -0.038264513 -0.06543007 0.03559362 -0.02394595
000050 3e e9 04 3d b3 93 2b 3d 97 af 57 3c 4c c6 8c bc
       0.032449 0.041888904 0.0131644225 -0.017184399
000060 16 7c 06 bc d5 2d fb ba 29 60 96 bb 3d 5c 89 bd
       -0.008208295 -0.0019163439 -0.0045891 -0.06707046
000070 d3 81 26 bd 04 69 00 3d a6 de 34 bd fb c0 d6 bc
       -0.040651154 0.03135015 -0.044157647 -0.026215067
000080 66 db 27 bd bb bb d9 3b 23 93 85 bd 1f c2 f7 bc
       -0.04098072 0.0066446937 -0.06522205 -0.030243931
000090 0d 50 03 bd 63 de e2 bc 9b ea 99 bc 14 06 a1 bb
       -0.032058764 -0.027693933 -0.018788626 -0.0049140546
0000a0 12 e2 bb bc 0c 7e 8f 3c 85 f7 ad 3c a3 90 68 bd
       -0.022934947 0.017516159 0.02123619 -0.05677856
0000b0 b0 1f 0f bd f8 69 a9 3d 3a 57 07 bc af 87 96 bb
       -0.03494233 0.08272165 -0.0082605425 -0.0045938115
0000c0 0b 5d 27 bd 65 b7 9d 3c b6 12 7f bd e4 b3 8f 3d
       -0.040860217 0.019252488 -0.062273704 0.07016733
0000d0 d8 fa 69 3c c1 78 bf 3c a0 d7 16 3d e0 b1 67 bd
       0.014280997 0.02337301 0.03682673 -0.05656612
0000e0 1f ca 61 3c 54 8c c4 3b a9 5e 34 3b d3 93 21 bd
       0.0137811 0.0059981737 0.0027522242 -0.039447617
0000f0 de 76 9c 3c 75 e9 e8 bc 5e 0f 0f 3d 33 ac 46 3c
       0.019099649 -0.028431633 0.034926765 0.012126016
000100 e6 42 9d 3d d7 48 bc bc 07 86 59 3c 78 45 39 bd
       0.076787755 -0.022983951 0.0132765835 -0.045232266
000110 d9 18 1e bb 16 df 66 3d 71 25 0a bd a8 91 3c bd
       -0.0024123697 0.056365095 -0.033727113 -0.046037346
000120 d5 c9 59 3c 79 56 00 3d 1e d7 e7 bc 8a c1 85 bd
       0.013292749 0.031332467 -0.028300818 -0.06531055
000130 ed 4d 06 bd f3 fa 8e 3d e0 33 02 bd 4d 27 c6 b9
       -0.03278916 0.069814585 -0.031787753 -0.00037794784
000140 82 2c 37 bd da 9c bd bc dc 1c 82 bc 60 36 e5 bc
       -0.04472018 -0.023146082 -0.015882902 -0.02798003
000150 fd a3 67 3d 9a c3 50 bd 7d 6a 25 3d 8f a7 cf 3c
       0.056552876 -0.05096779 0.04038476 0.025348453
000160 d5 23 98 bc ab 57 02 3c ef cc 29 3c 1f fa ca bc
       -0.018571774 0.007955472 0.010363801 -0.02477747
000170 51 23 87 bc d6 e2 de 3c 8a 5b 6c bd 9f 9a 57 bd
       -0.016496332 0.027207773 -0.057704486 -0.052637693
000180 c3 00 4d 3b 4f e1 0b bd fe 3e 6e bd 42 eb 5c 3d
       0.0031280972 -0.034150418 -0.058165543 0.053935297
000190 d3 ef 50 3d 56 3a 7d 3d 67 6b 87 3c d8 cf 07 bd
       0.051009964 0.06182321 0.016530706 -0.0331572
0001a0 fd 92 ef 3c 30 0f 08 3d d0 27 58 3b c4 dd 68 bc
       0.029244894 0.03321761 0.0032982714 -0.014213029
0001b0 0e 0b 02 3d 71 87 bc bc b1 a7 5e 3c 3a 61 28 bd
       0.031748824 -0.023013802 0.013589785 -0.041108347
0001c0 ac 89 a8 bd 24 0d 21 bd 68 f0 ac 3c 51 d4 41 3d
       -0.08229384 -0.039319173 0.021110728 0.04732162
0001d0 1d 28 32 bd 49 8d 35 bd 96 ec e7 bc 6f 6f d4 bc
       -0.043495286 -0.044324193 -0.028311055 -0.025932042
0001e0 85 9a 27 bc c6 d4 a2 bc ae 38 72 bd 1e 07 e0 bc
       -0.010229711 -0.019876849 -0.059136085 -0.027347144
0001f0 e3 25 db 3c cb 1b 28 bd 71 50 db 3c d7 c6 7a bc
       0.026751464 -0.04104213 0.026771756 -0.015306196
000200 e4 cd 40 bb 74 47 62 3d 72 87 a5 3c 3e 7b 64 3d
       -0.0029419595 0.055243924 0.020206187 0.055781595
000210 1f 34 af 3c 09 0f b0 3c 18 88 08 bc c9 47 88 3d
       0.021387158 0.021491544 -0.0083332285 0.06654317
000220 48 9b 9c 3c 46 0b 0c 3c c1 4e 6c bc ed df 64 38
       0.019117013 0.00854761 -0.014423073 5.4567983e-05
000230 77 dd 58 3c 1f fb 7a 3d 21 33 87 bc 02 af 35 3c
       0.013236395 0.061274644 -0.016503872 0.011089088
000240 ab 56 22 3d 63 0c 51 3d 1d f3 18 bd f4 00 3e 3c
       0.039633434 0.051037204 -0.037341226 0.011596907
000250 ef ff 2d bd 75 14 2f bd 7f 23 b7 bc ff 43 a3 3c
       -0.042480405 -0.04274412 -0.022355793 0.019929884
000260 46 4a 40 3b 14 9c ce 39 a6 95 10 bc e0 a3 49 3d
       0.0029341145 0.0003940767 -0.0088247415 0.04922855
000270 65 67 51 3d 29 5f e7 bc c7 8c 5b 3d cd 8b ea 3b
       0.051123995 -0.028243618 0.053601053 0.007157779
000280 2c ef b8 3c 7f 1c 44 3c 11 9c a9 3d 66 b7 52 3c
       0.022574984 0.011969685 0.082817204 0.012861108
000290 ea a5 72 3c 2c 67 3d 3c f0 af a0 3c 23 f6 a4 3c
       0.014810065 0.011560243 0.019615144 0.020136898
0002a0 fe 60 00 3d 37 b7 6d 3a 56 a2 58 3c 10 b7 53 3d
       0.0313425 0.00090681337 0.013222298 0.051688254
0002b0 aa 40 41 3c 82 0a cc bd 89 1c 3c 3b bd 3d cc 3b
       0.011795202 -0.09962942 0.0028703532 0.0062329457
0002c0 ad dc 38 3d 18 f2 5e bc 45 05 95 3d aa 61 48 bd
       0.045132328 -0.013607524 0.07276396 -0.048921265
0002d0 0b c6 89 bc 59 ca 5f bd dc 4b 9e bc b5 52 64 3d
       -0.016818067 -0.054636333 -0.019323282 0.055742938
0002e0 5f 05 8a bc 87 17 94 38 9e 2c 97 ba d6 f2 29 3d
       -0.016848264 7.061572e-05 -0.0011533683 0.041491352
0002f0 ed ac 32 bc da ad 1c 3d 22 30 34 bd f6 99 bc bc
       -0.0109054865 0.038251735 -0.043991216 -0.023022633
000300 69 94 91 bd da 09 52 3b c6 70 c9 bc f5 e9 8b 3d
       -0.07108385 0.003204933 -0.024589907 0.06831733
000310 e6 80 92 3c 0f f0 96 bd 86 f1 29 3d ab 47 6f 3d
       0.01788373 -0.07370006 0.0414901 0.058417957
000320 f1 10 d2 ba 9b e9 88 bc 04 d9 fd 3c 65 7e 8f 3d
       -0.0016026777 -0.016712954 0.03098727 0.0700653
000330 d9 64 fb 3c 5d c4 89 bd 5c bb 14 3d 24 20 48 bc
       0.030687736 -0.067269064 0.036311492 -0.012214694
000340 c4 73 c3 3c 3f 86 ac 3c 16 80 76 3c 31 43 74 3d
       0.023858912 0.021060107 0.0150451865 0.05963439
000350 17 93 9a bd 02 fa 68 3d cd 36 f2 bc 6b 01 1d bc
       -0.075475864 0.05687905 -0.029567147 -0.009582858
000360 36 78 d0 b9 21 47 cd 3c c8 24 91 3c 0b 82 df 3c
       -0.00039762416 0.025058331 0.017717734 0.027283689
000370 00 ba 6e 3a 63 33 32 bc 35 ec 61 3d 12 47 fa 3c
       0.00091066957 -0.010876509 0.055156905 0.030551467
000380 74 0d 27 3c b8 29 83 3c ee 32 7e 3d 59 c7 2c bd
       0.010196079 0.016011104 0.06206029 -0.0421823
000390 84 fa 61 bd 1a 0f 2f bd 57 b3 a0 bc e8 17 b8 3c
       -0.05517055 -0.04273901 -0.019616766 0.022472337
0003a0 12 27 ef bc a7 06 3e bd 44 c6 30 3b b1 eb 59 3c
       -0.029193435 -0.046393063 0.0026973644 0.013300822
0003b0 76 21 b2 bc f7 c8 37 3d 77 3e 7a bc 4a 13 2c 3d
       -0.021744471 0.04486939 -0.015273682 0.042010583
0003c0 33 c0 9d 3d 7e 9f 4a 3d de e5 a2 bc 9c 22 0b bd
       0.07702675 0.04946851 -0.019885 -0.033968553
0003d0 7d 2a db 3c 5b bb 02 3d 02 c6 41 3d cd c2 4d 3c
       0.026753658 0.031916957 0.047307976 0.012558651
0003e0 b9 fb 50 bb 06 83 01 3d 18 b6 48 3d 61 36 0a 3d
       -0.003188832 0.031619094 0.049001783 0.033743266
0003f0 5b 65 99 bb cb c0 42 3d 95 11 41 bd bf c7 2c 3d
       -0.004681272 0.047547143 -0.04713591 0.04218268

action_model._discrete_distribution.branches.0.bias f4 [2]
000000 a8 d6 8d bc a8 d6 8d 3c
       -0.01731427 0.01731427

exp_avg f4 [128, 50]
000000 0b c0 54 b7 55 57 64 b9 1f 05 1e b9 5a 8f a6 38
       -1.2680898e-05 -0.00021776308 -0.00015069962 7.942198e-05
000010 ed 9e d4 b8 04 7e 89 b9 2e 98 91 b8 8a 3a dc 38
       -0.0001013855 -0.00026224565 -6.9424845e-05 0.00010501321
000020 33 ac dc b8 c2 70 e9 b8 ee 63 31 38 43 50 99 b8
       -0.00010522492 -0.000111313086 4.2293155e-05 -7.3105584e-05
000030 1b 9f 44 b9 0c ae d6 b8 d5 f4 66 b9 bc 91 a9 b9
       -0.00018751288 -0.00010236734 -0.00022025716 -0.00032342772
000040 4c 86 9f 37 78 cc ae b8 b1 16 cf 37 ad a9 db b8
       1.9016814e-05 -8.335052e-05 2.468689e-05 -0.00010474338
000050 e4 3d a4 38 91 a1 e9 37 32 fe 91 b9 9c a5 0c b9
       7.8316574e-05 2.7851e-05 -0.00027845945 -0.00013413135
000060 3b 55 b3 b9 04 3a 2b b8 bb 71 de b8 ee 74 1d b9
       -0.00034205042 -4.082361e-05 -0.00010606969 -0.00015016246
000070 24 cf d8 b6 c7 4b d1 b8 9b 39 2b b8 ef 71 de b8
       -6.461416e-06 -9.980011e-05 -4.0823226e-05 -0.00010607007
000080 ee 74 1d b9 24 cf d8 b6 cc 4b d1 b8 80 ec 0b 39
       -0.00015016246 -6.461416e-06 -9.980015e-05 0.00013344176
000090 ec 68 aa b7 22 a9 b1 b9 f7 cb 86 39 d6 cb 9b b7
       -2.0314437e-05 -0.00033886085 0.00025710437 -1.8572358e-05
0000a0 1a 63 51 39 e5 36 af b8 e9 3e 48 39 9b 47 03 39
       0.00019968711 -8.354875e-05 0.00019096922 0.00012519809
0000b0 b6 fd 14 39 36 c6 97 b5 eb 6e a8 b9 45 bb 6c 38
       0.00014208895 -1.1308064e-06 -0.00032126097 5.6441193e-05
0000c0 4a c6 05 b7 d2 15 5f b9 06 d5 51 b9 3d 88 90 b9
       -7.9735855e-06 -0.00021275066 -0.0002001115 -0.00027567326
0000d0 dc a6 5c b9 40 ae 41 b5 64 05 86 b9 77 7c cb b9
       -0.00021042995 -7.215167e-07 -0.00025562488 -0.0003881191
0000e0 e6 f6 1c b9 e0 71 a4 36 1d 87 32 b9 ff 8b b0 b9
       -0.00014969296 4.9008377e-06 -0.00017025736 -0.0003367364
0000f0 bd 6e 2f b9 1e ab 2b b9 12 33 70 b9 64 52 32 b9
       -0.00016730554 -0.00016371577 -0.00022907209 -0.00017006096
000100 50 c4 a3 b9 06 bf a6 b9 9a 81 0c b9 bb 29 30 b9
       -0.00031236047 -0.0003180431 -0.00013399721 -0.00016800214
000110 92 cc e5 b8 75 a6 ba b9 ac e1 91 36 fe e1 9a b7
       -0.00010957675 -0.00035600705 4.3476084e-06 -1.8463466e-05
000120 a8 24 20 ba e3 af a4 b8 4a 84 e8 b9 81 d9 73 b9
       -0.0006108978 -7.852891e-05 -0.0004434905 -0.00023255312
000130 4b 43 98 b8 ec 9f b8 b9 07 5f 63 b8 b7 e9 a0 b9
       -7.260459e-05 -0.00035214366 -5.420952e-05 -0.0003069171
000140 6b d9 73 b9 77 43 98 b8 ec 9f b8 b9 07 5f 63 b8
       -0.0002325528 -7.260491e-05 -0.00035214366 -5.420952e-05
000150 b7 e9 a0 b9 7d d4 51 3a c7 1e 07 b8 c1 e8 30 b9
       -0.0003069171 0.00080043805 -3.221517e-05 -0.00016871376
000160 07 ee ac 39 f6 4b d3 37 9e 6a a8 39 24 f8 80 37
       0.0003298374 2.5188532e-05 0.00032122893 1.5374339e-05
000170 96 e7 ac 39 0e 56 81 39 a3 e2 4d 3a 74 ca 57 b7
       0.0003297894 0.00024668913 0.0007853901 -1.2862136e-05
000180 3a 14 12 b9 43 61 57 3a 2c 57 b4 b7 64 97 ad b8
       -0.0001393118 0.0008216092 -2.1498265e-05 -8.2774815e-05
000190 f5 51 2f b8 a0 ab a8 37 00 8a ca b8 8f 43 1a 38
       -4.179958e-05 2.010708e-05 -9.657815e-05 3.677938e-05
0001a0 cc b2 86 b7 77 22 cc b8 37 85 15 39 c6 47 14 b9
       -1.6057304e-05 -9.7338976e-05 0.00014259374 -0.00014141118
0001b0 4c fa b5 36 69 50 df 37 cc 98 7a 38 1a c2 db b8
       5.4233587e-06 2.6621115e-05 5.9746948e-05 -0.00010478888
0001c0 d2 4f 46 b8 be d9 83 37 22 57 77 b8 c0 55 ba 36
       -4.7281217e-05 1.5717811e-05 -5.8970538e-05 5.5532146e-06
0001d0 d0 ce 34 b8 16 58 2a b9 66 b4 bb 38 84 c4 60 b8
       -4.3107953e-05 -0.00016245278 8.950457e-05 -5.358878e-05
0001e0 e9 a9 5f b8 64 c8 a0 b8 4c 98 1d 38 e0 0a e9 36
       -5.3325584e-05 -7.66672e-05 3.7573554e-05 6.945207e-06
0001f0 71 fb 4c b8 f8 02 07 b8 df 7e 94 37 72 42 ca b7
       -4.8871563e-05 -3.2189273e-05 1.7702054e-05 -2.4111217e-05
000200 fa d0 15 b8 78 22 2b b8 e2 02 07 b8 b3 7e 94 37
       -3.5718993e-05 -4.080168e-05 -3.2189193e-05 1.7701974e-05
000210 72 42 ca b7 fa d0 15 b8 75 22 2b b8 4d f4 1e ba
       -2.4111217e-05 -3.5718993e-05 -4.0801668e-05 -0.00060636253
000220 69 fa e5 b7 fa 63 4b 38 28 fc 32 39 af 2b fa b8
       -2.7415534e-05 4.8492082e-05 0.00017069338 -0.00011929066
000230 68 17 a0 b7 d0 65 f2 36 3f 68 5e b8 d1 15 b6 b8
       -1.9084386e-05 7.2240146e-06 -5.302601e-05 -8.6825e-05
000240 60 6c 18 ba 27 f4 43 b6 e4 e3 68 38 6c 98 37 ba
       -0.0005814489 -2.919938e-06 5.552535e-05 -0.00070036086
000250 a0 50 78 37 be 6b 60 39 97 78 1c b9 f6 4c 78 b9
       1.4800724e-05 0.00021402442 -0.00014922243 -0.00023679793
000260 44 bf b5 b8 ff 9d d7 b7 2c 36 47 b9 12 f2 96 b9
       -8.6663786e-05 -2.570357e-05 -0.000189983 -0.00028790586
000270 b7 87 c3 b8 56 e3 42 b8 ed b9 cb b8 48 cf 42 b9
       -9.3236034e-05 -4.6464927e-05 -9.714426e-05 -0.000185785
000280 e4 b4 00 b9 0c 05 8a b6 2b e9 87 b9 02 a9 14 b9
       -0.00012274418 -4.113308e-06 -0.0002592293 -0.0001417734
000290 ec 8b 97 b9 de f9 92 b9 bd 87 a0 b8 3b b7 eb b8
       -0.00028905214 -0.00028033456 -7.654678e-05 -0.000112398026
0002a0 d1 6f f2 b7 94 38 2a b9 82 dc a6 b7 94 ae a7 b7
       -2.8900717e-05 -0.0001623354 -1.9891424e-05 -1.9989246e-05
0002b0 30 74 ac b9 df d5 06 b9 39 c4 c7 b9 82 bd f4 b8
       -0.00032892963 -0.00012858909 -0.00038102435 -0.00011670125
0002c0 b7 3a 1a b9 8a 9a 7f b9 e9 64 51 b7 34 1b 54 b9
       -0.00014708457 -0.00024376265 -1.2480866e-05 -0.0002022803
0002d0 62 bd f4 b8 c7 3a 1a b9 8a 9a 7f b9 e9 64 51 b7
       -0.00011670102 -0.00014708481 -0.00024376265 -1.2480866e-05
0002e0 34 1b 54 b9 43 13 f0 39 a8 ca bb b7 fb 9c b5 b9
       -0.0002022803 0.00045790718 -2.2386506e-05 -0.0003463997
0002f0 48 09 b8 38 b0 57 59 b5 a9 5f 50 39 37 71 40 b7
       8.7755325e-05 -8.09664e-07 0.00019872062 -1.1470452e-05
000300 0d 7b 32 39 08 6d 06 39 4c 31 ef 39 fa a2 cf b6
       0.00017021243 0.00012819853 0.0004562236 -6.1880537e-06
000310 bc 4a af b9 d9 a3 f1 39 bb 87 33 b7 28 8b 8a b9
       -0.00033434283 0.00046089178 -1.0700834e-05 -0.0002642509
000320 10 3b 47 37 ac 2f cb b9 d4 17 e1 b8 f8 ba 1a 37
       1.1875076e-05 -0.00038754696 -0.000107332744 9.222647e-06
000330 3d 47 6a b9 22 ef ab b9 ee 4e 77 b9 49 b5 b6 39
       -0.00022342517 -0.0003279383 -0.00023585159 0.00034848813
000340 95 9a 9f b9 02 02 aa b9 e9 e5 7d b8 a5 86 1c b9
       -0.00030442016 -0.00032426423 -6.053402e-05 -0.00014927478
000350 94 8a 05 b9 80 ad 55 b9 d1 cd 8b b9 b9 2e a4 b9
       -0.00012735493 -0.00020377897 -0.0002666549 -0.0003131533
000360 aa 37 91 37 b3 64 63 b9 00 37 96 35 87 90 6b b9
       1.7311268e-05 -0.0002168592 1.1191878e-06 -0.00022465187
000370 39 5a 6d 39 33 22 68 38 bb 4a 25 ba 1b 97 17 b9
       0.00022635692 5.534496e-05 -0.0006305386 -0.00014456773
000380 a8 2c 0a ba fd da 09 b8 01 32 5f b9 d8 49 a0 b9
       -0.00052709365 -3.2867294e-05 -0.00021285565 -0.00030572596
000390 bd 7e c1 37 46 d3 35 b9 79 da 09 b8 21 32 5f b9
       2.306641e-05 -0.0001734021 -3.2866814e-05 -0.00021285612
0003a0 d8 49 a0 b9 bd 7e c1 37 48 d3 35 b9 e1 c6 9a 3a
       -0.00030572596 2.306641e-05 -0.00017340214 0.0011808538
0003b0 c0 fe ac b5 05 85 16 ba 22 21 b0 39 c1 4b 28 39
       -1.2889141e-06 -0.00057418674 0.00033594022 0.00016049949
0003c0 63 5f c6 39 d5 c4 02 b9 84 17 03 3a 5c 18 a5 39
       0.00037836572 -0.00012471092 0.00050007575 0.00031489402
0003d0 2b de 98 3a 51 a0 d7 b6 aa 6d 0d ba 50 db 92 3a
       0.0011662891 -6.4261626e-06 -0.00053950644 0.0011204276
0003e0 ed 31 29 b8 1e 01 1d ba 7f e6 5b 38 57 f4 46 38
       -4.0339237e-05 -0.0005989241 5.2428335e-05 4.7434438e-05
0003f0 d0 90 1e 39 08 c2 a0 b8 1d 06 c5 37 b4 fe 02 39
       0.00015122001 -7.665536e-05 2.3487077e-05 0.0001249265
