Assets/Learning/AIRollABall/results/WithObstacle/AIRollABall/AIRollABall-9499952.pt (torch, 584088 bytes, 42 tensors)

network_body._body_endoder.seq_layers.0.weight f4 [128, 50]
000000 c5 fa a0 3e 5c fa 54 3d 0f e0 f5 bd 51 ef b9 3d
       0.31441322 0.051996574 -0.120056264 0.09078849
000010 59 41 e5 3d 27 fa ba bd a2 85 31 bd 77 46 02 3e
       0.11194105 -0.09129744 -0.043340333 0.12722193
000020 7f cc 5d 3c 73 80 dd bd 34 0e b7 3d dd 18 a1 be
       0.013537525 -0.10815515 0.08938256 -0.31464282
000030 4d fb ab bd fe e7 6d 3e 09 46 11 be 55 eb 56 3e
       -0.08397541 0.23233029 -0.14186873 0.2098821
000040 c1 1f fa bd 4d d7 9e 3a 4f 80 d0 bd b3 a2 2b bd
       -0.12213088 0.0012118608 -0.10180723 -0.04190321
000050 52 be bd 3e b9 03 7c be 60 db 0f be 40 18 4d bd
       0.37059265 -0.24610795 -0.14048529 -0.050071955
000060 12 fc 6a 3e 82 a0 43 3d 54 68 c2 3c 72 78 c1 3c
       0.2294772 0.047760494 0.023731388 0.023617003
000070 b3 b3 6d bd de de ac 38 27 f5 c3 bd 3b 12 c5 3d
       -0.058032703 8.2431114e-05 -0.095682435 0.09622618
000080 c5 23 cc 3b e5 4f 02 be d6 cd 2b bc cd a2 d6 3d
       0.00622985 -0.1272579 -0.010486087 0.104802705
000090 ce 0e 7c 3d cb 89 1a 3e c1 ad 7a 3d b9 ab 9a 3e
       0.061537556 0.15091626 0.06120086 0.3020914
0000a0 e7 c2 3d 3c 82 e6 25 be 78 01 0b be 64 82 3d 3e
       0.011582113 -0.16201213 -0.13574779 0.18506771
0000b0 51 da 8d 3d 4f 20 13 be 7a 38 79 be 9d 3d 01 3c
       0.06926406 -0.14367794 -0.2433795 0.007888225
0000c0 68 9f 7d bd 48 81 d7 bd 1a 8c 93 bd a4 89 d6 bd
       -0.0619196 -0.10522705 -0.072044566 -0.104754716
0000d0 c9 dc 0c bb ca 6c 10 be 25 96 c3 3c 23 13 f2 bb
       -0.0021493903 -0.14104 0.023875305 -0.007387535
0000e0 a2 77 0b 3e 42 18 19 3e f8 32 5f bd 5c 26 8f bd
       0.13619855 0.1495066 -0.054491967 -0.06989738
0000f0 dd b2 f4 bd 6c f9 82 3e 48 bc 0e 3e 8e 00 40 be
       -0.11948178 0.2558092 0.13939011 -0.18750212
000100 6e de ad 3d aa d8 43 be 5d 92 83 bc 5a f9 e4 bd
       0.08489691 -0.1912562 -0.016061002 -0.111803725
000110 b1 d4 3d 3e 65 ef 78 bd ce 3a 54 be 4d 5c 5c 3d
       0.18538167 -0.06077518 -0.20725557 0.053798962
000120 41 99 88 bd 28 2c a0 bd 8c f7 29 3c c4 2f 6d 3c
       -0.06669856 -0.07820922 0.010373961 0.01447672
000130 bc 36 c2 3b 59 90 07 be 9f 12 01 be 23 19 73 3e
       0.005926935 -0.13238658 -0.1260476 0.23740058
000140 e4 ec 38 bd 1c 94 80 bd 1a 5b 8f 3d 35 8a 39 3e
       -0.04514779 -0.062782496 0.06999798 0.18119128
000150 b7 0b cf 3d e6 63 9c be 35 98 bd bc 13 e5 3f 3d
       0.10109656 -0.30544966 -0.023143867 0.04684932
000160 be 35 ca bd 1e 2d 11 bd c4 03 3e be f0 ac 82 bd
       -0.09873532 -0.035443418 -0.18556124 -0.063806415
000170 4e a6 e3 bc 13 8b 99 bd 3f 57 a8 3c 38 13 80 bd
       -0.027789261 -0.074972294 0.020549415 -0.06253666
000180 8e 0a a5 be 53 eb 8b bd ec 9a 0e bd 65 02 26 3e
       -0.32234615 -0.06831994 -0.034815714 0.16211851
000190 14 53 bb 3c 85 1e bd bd 0c 8a 0a 3d 16 f1 20 bd
       0.022866763 -0.09234337 0.033823058 -0.039292417
0001a0 ec ef 95 3d 6e d8 1f be 2c d5 ea 3c 07 c7 26 be
       0.07321152 -0.15609905 0.028666101 -0.1628686
0001b0 ef 71 f7 bd 06 75 f9 3d a7 1f 9f bd 93 fe 44 be
       -0.12082278 0.121805236 -0.07769709 -0.19237737
0001c0 4c 62 6f 3d cd 1f 76 3d b7 b4 fc 3c 68 2b 27 be
       0.058443353 0.06008892 0.03084789 -0.16325152
0001d0 bb 9d 19 bd 26 56 06 3e c4 08 28 3d ed 25 ac 3e
       -0.03750394 0.131188 0.041023985 0.33622685
0001e0 29 9e 95 bc 2f ad cf bd ae d9 8e 3e d8 00 79 3d
       -0.018263893 -0.10140454 0.2790045 0.06079182
0001f0 48 71 8b 3d cf bc 7c be 61 57 14 be 05 61 9f 3d
       0.06808716 -0.246814 -0.14486457 0.07782177
000200 9e 58 ff 3d ad 60 0e 3e 02 44 12 be 72 5f 5d 3e
       0.12468074 0.13904066 -0.14283755 0.21618441
000210 85 a9 9f be d1 1b 1d bd b4 22 20 3e 99 39 e6 3e
       -0.3118402 -0.038356606 0.15638238 0.4496582
000220 d1 77 cd 3d 51 6c e2 39 b9 5e d7 3d fc 6a 4c bd
       0.10032619 0.0004318678 0.10516114 -0.049906716
000230 61 0b 3d be 82 1a fb 3d 3c d0 dc bd 4c 43 12 3e
       -0.18461372 0.12260915 -0.10781905 0.14283484
000240 ec 29 3d be 6f 74 82 bd c6 01 8c bd 26 0e 88 bd
       -0.18473023 -0.06369864 -0.06836276 -0.066433236
000250 e5 e5 c2 3d 11 5e 1b bd e2 ac f8 bd b5 fe 1b bd
       0.09516505 -0.037931506 -0.1214235 -0.038084704
000260 af bc e6 bc 74 19 b8 3d 0d d2 ac 3d 07 bd 8f 3d
       -0.028166143 0.0898923 0.084385015 0.07018476
000270 41 27 d1 bb 07 59 06 be 79 85 16 bd f7 14 60 be
       -0.0063828533 -0.13119899 -0.036748383 -0.21882997
000280 2f 55 ea bd 59 84 fb 3d 55 ad 90 3d aa 8a af bd
       -0.11442029 0.12281103 0.070643105 -0.0857137
000290 63 b1 5d 3e 44 02 69 bb 7d 8e 05 be 35 b1 9f bd
       0.21649699 -0.003555433 -0.13042636 -0.077974714
0002a0 d9 7c 9c 3e 6a da 0f 3e 41 04 f8 3b c6 7e 80 bd
       0.30564 0.14048162 0.0075688665 -0.0627418
0002b0 16 eb a8 bd cb 39 1d 3d b3 9b bc 3e 4c 4c 4c 3d
       -0.08247964 0.038385194 0.3683754 0.04987745
0002c0 a7 4d 63 3e 2c cc c3 3c 02 84 85 be b5 a7 5b be
       0.22197591 0.023901068 -0.26077276 -0.21450694
0002d0 92 9e c4 bd 05 57 0d 3e a0 01 6f bd 95 78 ef bb
       -0.096005574 0.13802727 -0.05835116 -0.0073080757
0002e0 ec 06 1f be 06 89 94 be 1f 7b 7a be 12 f7 14 3e
       -0.15529984 -0.2901079 -0.2446103 0.14547375
0002f0 1f f5 a2 3c 9a b9 4c 3e 17 e1 6d be 79 2f 68 3c
       0.019892273 0.19992676 -0.23230396 0.014171475
000300 cf 37 1f bc 0d fe b7 bd 35 bf ec 3d 24 c8 4b bd
       -0.009717896 -0.08984003 0.11559907 -0.049751416
000310 81 b9 34 3d 18 79 85 bd ae 1a ef bd fe 97 35 3e
       0.044122223 -0.065172374 -0.116750106 0.17733762
000320 bb 51 e1 bc dc 07 b7 3d 4e e2 16 be f8 2e d6 3d
       -0.027504792 0.08937046 -0.14734766 0.10458177
000330 b3 50 ba 3d 21 7b c6 3d 38 26 a3 b8 05 91 47 bd
       0.090974234 0.09691454 -7.7795645e-05 -0.048722286
000340 03 23 50 3e 0c b8 8a bc 08 e6 3f 3b 41 7a 05 be
       0.20325856 -0.016933464 0.0029281396 -0.13034917
000350 c5 5d db 3d b7 bd 13 3e 28 28 d0 3d d3 19 92 bd
       0.107112445 0.14427839 0.10163909 -0.07133832
000360 b4 16 3d 3e 36 a6 da 3d 68 c6 7f bc 4d 65 82 3e
       0.18465692 0.106762335 -0.015611269 0.2546791
000370 46 d4 b5 3e 62 5c 92 3d 70 16 a5 3d f4 c2 c1 bb
       0.35513514 0.07146527 0.0806092 -0.005913133
000380 34 0b 60 bc cd a9 51 be c0 77 91 3c 03 21 d6 bd
       -0.013674546 -0.2047493 0.017757297 -0.10455515
000390 cb 54 1d bd c6 7f 94 3d f3 47 b6 3d 3f 13 34 be
       -0.038410943 0.07250933 0.08900442 -0.17585467
0003a0 31 71 37 3c b8 29 8d 3d 32 f0 b7 bd 45 e1 45 be
       0.0111964205 0.06892723 -0.089813605 -0.19324215
0003b0 08 43 91 3e 5c 2d 91 bb 55 17 16 be 5c 9a 54 be
       0.28371453 -0.004430456 -0.14657338 -0.20762008
0003c0 4b e9 e2 3d a9 23 92 be 14 16 41 bd de dc c2 3e
       0.11079653 -0.28542832 -0.047140196 0.38059133
0003d0 40 49 98 3e 2a 44 9e 3d a8 85 19 be a3 1b b9 3d
       0.29743385 0.07727845 -0.14992392 0.090384744
0003e0 00 cc ba bc 86 56 27 3e 6a 40 24 be 75 36 4b be
       -0.022802353 0.163416 -0.16040197 -0.19844992
0003f0 db ca 53 3b 91 e1 97 bd 42 21 57 bb 33 6b 50 bc
       0.0032316956 -0.0741607 -0.003282622 -0.012720871

network_body._body_endoder.seq_layers.0.bias f4 [128]
000000 a0 fa 99 3c d1 bc e7 3c 86 1c 84 bb 52 f7 4f 3c
       0.018796265 0.028288277 -0.0040317206 0.012693243
000010 85 c8 3b 3d b5 35 0a bb 96 d2 24 3c c6 69 60 3d
       0.045845527 -0.002108914 0.010059973 0.054788373
000020 fd 0f c9 bb 3b 0d 8a 3b 26 34 45 bd d8 b3 0a 3b
       -0.006135939 0.004213003 -0.048145436 0.0021164324
000030 9c fe f3 3c 76 ed a2 3c ef b3 45 bc e5 85 f7 3c
       0.029784493 0.01988862 -0.012066825 0.030215213
000040 f6 27 21 bc 7e d6 4a bc 2f 84 75 bc ed 10 ea 3c
       -0.009836188 -0.0123802405 -0.014985128 0.028572524
000050 70 c3 aa 3c 54 c1 a3 3c 38 5f 7c 3d 7c 88 03 bc
       0.020845145 0.019989647 0.061614245 -0.008028146
000060 3d 36 99 bc 69 1d 5a bc b2 89 50 3d f1 11 0a bb
       -0.01870262 -0.013312676 0.050912566 -0.0021067823
000070 2a fe b3 3c 08 4d 99 bc 2c cd 59 3d ce 52 73 3d
       0.02197178 -0.01871349 0.053174183 0.05940514
000080 65 1a e0 3c 22 b8 ff 3c 6a 6d 52 3c 8f 74 fd 3b
       0.027356336 0.031215731 0.012843469 0.007734842
000090 2d 46 e6 bc fd cd 8c 3a 37 11 f2 3c bf d0 26 3d
       -0.028109634 0.0010742542 0.029549224 0.04072642
0000a0 e9 a5 06 3c dd cb 95 bc ad 54 92 3c 16 fc ac bc
       0.008218267 -0.018285686 0.017862642 -0.021116298
0000b0 b1 14 f2 3c f8 6e 49 bb 5e 9f 4b 3d 60 5f e9 3c
       0.029550882 -0.0030736309 0.04971253 0.028487861
0000c0 1b 6e af 3c 1d b9 a1 3c 9f 07 61 bd eb 1c e7 bc
       0.021414807 0.01974159 -0.05493891 -0.028212031
0000d0 72 0b b3 3c 63 98 83 3b e8 7a 0b 3d c8 bd ef ba
       0.021856043 0.0040159686 0.03405276 -0.0018290812
0000e0 60 f8 7a bc ce 94 1f bc 95 ee 1b 3d 8c c0 13 3d
       -0.015318006 -0.009740068 0.038069326 0.0360723
0000f0 09 01 31 3c 96 67 81 3c 31 d1 d1 bc f0 ed d7 3c
       0.010803469 0.015796464 -0.025612446 0.026358575
000100 d6 28 46 bc 93 5f 61 bc 67 c5 2d 3c cb 8b 14 3c
       -0.012094697 -0.013755697 0.010606146 0.009066532
000110 fe cf 74 bc d0 12 d2 3c 8e 7a b4 3c 5e e0 f8 3c
       -0.014942167 0.025643736 0.022031095 0.030380424
000120 68 1d 07 3c 54 a0 46 3b af 07 01 bc 64 aa 1e 3c
       0.008246757 0.0030307965 -0.007875367 0.009684179
000130 8f c8 4d 3d 9a f3 1c 3d 8d 52 20 3c de 55 a9 b8
       0.050240096 0.038318254 0.009785307 -8.074542e-05
000140 62 c8 8e bc 09 81 02 3b 58 08 f6 3c e8 e2 a8 bc
       -0.017429534 0.0019913337 0.030033275 -0.02061601
000150 52 f5 ed 3c 25 e5 e0 3c 67 48 80 3c cf 73 47 3c
       0.029047642 0.027453015 0.015659524 0.012173607
000160 dd b7 86 3c d6 cd 7c 3a 12 78 28 3a 42 34 11 bb
       0.016445095 0.0009643709 0.0006426583 -0.0022156392
000170 56 06 c1 3c 5c de c7 ba 56 2c 90 3d 7b 21 6b bc
       0.023562592 -0.0015248763 0.070397064 -0.014351244
000180 c9 3a 69 bb ba 24 ff 3c 54 34 44 bc 5c b2 d3 3b
       -0.0035588017 0.031145442 -0.011975367 0.006460471
000190 09 b0 94 bc e2 af 3f 3d 59 aa b0 bc 07 fb ff bc
       -0.018150346 0.046798594 -0.021565603 -0.031247629
0001a0 a3 b1 83 bb ef 37 30 3c 35 e5 65 bc f0 78 36 bd
       -0.0040189787 0.010755523 -0.014031698 -0.04454893
0001b0 1f 1c 9e 3c 18 ae cc 3c 2b ab 29 bb c9 12 ab 3c
       0.019300519 0.024985358 -0.0025889378 0.02088298
0001c0 e0 de 82 bc 51 54 cc bb 08 20 9c bc ce 26 a9 bb
       -0.015975416 -0.0062356372 -0.019058242 -0.0051620966
0001d0 23 e4 ca 3c 3b dc 4c 3d 4d b2 3f 3d 21 65 ab 3c
       0.024766987 0.050014716 0.0468009 0.020922245
0001e0 bf 87 f1 3c 1a 90 d2 bb 44 fb 10 bc 4a f3 27 3c
       0.029483674 -0.0064258697 -0.008848969 0.010250876
0001f0 25 e3 2c 3d 42 46 58 3d f3 e3 04 bd 05 81 57 3c
       0.04220881 0.052801378 -0.03244395 0.013153319

network_body._body_endoder.seq_layers.2.weight f4 [128, 128]
000000 73 54 a3 3c a8 4e 31 3e 07 63 a6 bd ec c1 30 bd
       0.01993773 0.17315161 -0.08124357 -0.04315369
000010 eb 58 31 3e 47 ee 0a 3d dd 73 0f 3e de 8e 24 3d
       0.17319076 0.033918645 0.14009042 0.04017531
000020 9a af 69 bd f9 39 a7 bb 96 97 19 bd 32 d3 10 be
       -0.057052232 -0.0051033464 -0.03749808 -0.14143065
000030 a7 b1 3f 3c 98 be 42 3e 73 f6 35 3d 0e 26 c1 bc
       0.01170007 0.19018018 0.044424485 -0.023577716
000040 05 ce d6 bd a3 db 03 3e 60 b2 fe 3b da 71 5d bd
       -0.10488514 0.12876754 0.007772729 -0.054063655
000050 f8 93 00 3e 4a 59 30 3e 6e 4e cb 3c 3f 0e d1 bd
       0.12556446 0.17221561 0.024817672 -0.10207795
000060 2c a9 3c 3a 44 6d 4f bc cf db 96 b9 66 a2 0a 3e
       0.00071968394 -0.012660328 -0.00028774 0.13538513
000070 10 b2 41 3d 86 31 29 3e 7d c6 07 3e da 2f e4 3c
       0.047288954 0.16522798 0.13259311 0.027854849
000080 3a ad eb bd f0 4a 16 bc 6d 39 99 3d 61 72 85 3d
       -0.1150765 -0.00917314 0.07481656 0.06515957
000090 eb fb a0 bd bd 67 13 be ff 4a 11 3c dd 4d 2a bd
       -0.078605495 -0.14395042 0.008867978 -0.041578162
0000a0 08 da 62 bc 1c 05 0d be 50 93 0b 3e 2e 08 1e bd
       -0.013845928 -0.1377148 0.13630414 -0.03858202
0000b0 46 5c 17 bd 22 e6 dd bd 0b f3 dd 3d a1 a2 0c 3d
       -0.036953233 -0.1083491 0.108373724 0.034334783
0000c0 16 bc a7 3d 6e 0a d4 3d 5c ca 31 3b dd 3b 99 bd
       0.081901714 0.10353552 0.0027128672 -0.07482121
0000d0 6e 9b 4e 3d e4 25 d1 3b ba 4c 04 3d b9 3d 6b 3d
       0.050441198 0.0063826907 0.032299735 0.05743191
0000e0 47 76 8d bd 22 00 5f bb ea 0a 96 3e f0 6c 0d be
       -0.06907325 -0.0034027179 0.29305202 -0.13811088
0000f0 61 86 04 bd 9a 87 38 be c5 f9 f0 3c 30 a7 da bd
       -0.032354716 -0.18020478 0.029415974 -0.1067642
000100 20 aa 8c 3c 56 06 1b 3d 5d f0 3a be 17 5a e5 bd
       0.017170966 0.03784784 -0.18255754 -0.11198824
000110 cf 3a 08 bd 52 47 a5 3b 40 9e 86 3d 7d da 66 bd
       -0.03325921 0.0050439024 0.065731525 -0.05636071
000120 0b e7 a6 3d 34 b6 2b 3d ac b8 ae bd 05 a6 1d bb
       0.08149537 0.04192181 -0.08531317 -0.0024055254
000130 cb 59 20 be a8 4e 69 3d 90 0b a9 3c 22 3a 69 ba
       -0.15659253 0.056959778 0.020635396 -0.0008896907
000140 8b 85 ae 3d a2 03 15 3d e1 da 20 be f2 12 29 bd
       0.08521565 0.036380418 -0.15708496 -0.041277833
000150 34 9d 97 3d 89 e6 0b bd e5 cb 06 bc 68 bb 86 be
       0.07403031 -0.034155402 -0.008227323 -0.26314855
000160 5b 94 b6 3d 98 6a 0c bc db 91 1f 3d cd fc 14 3e
       0.08915015 -0.008570336 0.038957458 0.14549561
000170 6d 40 f5 3c 38 c5 83 bb a3 1c 87 3d 15 1c 0f be
       0.029937947 -0.004021313 0.06597259 -0.13975556
000180 6d b2 a0 3d 4f fa cb 3d 14 b9 24 3d 9d 91 8a bb
       0.07846532 0.09959852 0.040215567 -0.0042287842
000190 3a 55 06 be 2d f5 29 3e 9f a1 52 bc ba 2a 78 3d
       -0.13118449 0.16597433 -0.012855916 0.060587622
0001a0 48 35 27 bc 2c e4 27 bd f5 80 3d 3d f7 c5 09 3e
       -0.010205574 -0.040989086 0.04626556 0.13454424
0001b0 b0 4f 5e be 02 f5 13 be f1 52 84 bc 33 f5 87 3a
       -0.21710086 -0.14448932 -0.01615283 0.0010372758
0001c0 13 6f f7 3c 27 08 f8 bd 1e 2f 8d bd 91 71 a5 bd
       0.030204332 -0.1211093 -0.068937525 -0.08078302
0001d0 24 3c 03 3e 6b 59 6d bd 30 26 9a bd 5a eb 78 bd
       0.1281591 -0.057946604 -0.07526815 -0.060771324
0001e0 01 f7 34 3d 02 0d 55 bd 0d 60 c2 bc 92 a2 c7 bc
       0.044180874 -0.05201436 -0.023727441 -0.024369512
0001f0 62 11 4f 3d 05 04 60 3e 04 28 86 bd d8 26 70 3e
       0.050553687 0.21876533 -0.06550601 0.23452318
000200 53 5b 32 3e 85 eb 14 3d 0f 12 a3 3d 65 ee 18 bd
       0.1741765 0.03635742 0.07962429 -0.037336726
000210 fb b8 66 3d 39 1f 3d 3d 21 ee d7 3d 90 80 83 bd
       0.056328755 0.046172354 0.10543466 -0.06421006
000220 df cc 4a 3d 43 3a e4 3c 94 6f 21 be c1 4f 1d be
       0.049511787 0.027859813 -0.1576522 -0.15362455
000230 e4 47 1f 3d ff 5a f4 3c 4a 8d 27 bd 2f 0d 77 3c
       0.03888692 0.029828547 -0.040906228 0.015078827
000240 15 de 01 be e0 0b 9b 3d 54 34 fa bc f6 5d 2c 3e
       -0.12682374 0.07570624 -0.03054253 0.16832718
000250 b8 b2 a4 3c 7a 2c 04 3e d7 9a 30 3c 0b 5a 30 be
       0.020104751 0.12907591 0.010779104 -0.17221849
000260 28 12 9e bd fc 09 4e 3c 5e 20 7d 3d a3 ba 4c 3d
       -0.07718307 0.012575623 0.061798446 0.04998268
000270 1d 8d ca 3d fb 0e 4e 3d b5 ca 97 3e 82 45 1d 3c
       0.098901965 0.050307255 0.2964684 0.0095990915
000280 97 8d 63 bc d6 c9 1c 3e ec c3 31 3e 03 5f 6d bc
       -0.013888738 0.1531137 0.17359895 -0.014487985
000290 a4 3c b4 3d 09 e4 9c bd e4 c1 4b 3e 30 ed 85 3e
       0.08800629 -0.07660682 0.19898182 0.26157522
0002a0 3f 62 92 bd ae 2e 24 3e 03 49 bb 3c b3 6c 42 3c
       -0.07147645 0.16033432 0.022861963 0.011866736
0002b0 2c a5 d6 bb 01 73 1e 3d 3a dd 36 3e cc ad 08 3e
       -0.0065504517 0.038683895 0.17857829 0.13347548
0002c0 a4 e3 64 3c 75 ba 66 3c 0b 96 c2 bd 31 c8 7f 3c
       0.013970289 0.014082541 -0.09501275 0.015611694
0002d0 6c 3a dd bd 8c 1c ff bd b7 f3 f5 bc 21 83 88 3e
       -0.10802159 -0.12456617 -0.030023439 0.26662543
0002e0 71 39 a2 3d 6f 1d b5 3d c7 c8 7a 3c 4a 14 33 3d
       0.07921112 0.08843505 0.015306658 0.04372052
0002f0 87 d7 36 bd 97 52 67 3d 4c 3c bf 3d f2 0a c3 bc
       -0.044639137 0.05647525 0.093376726 -0.02380893
000300 39 c8 01 3e b7 21 f2 3d 2d 8d 8f bd 5f 92 b2 bc
       0.12674035 0.11822837 -0.07009349 -0.02179831
000310 15 25 67 bd 22 06 43 3d 06 1c 7e 3c ea f0 5f 3e
       -0.05643185 0.04761327 0.015509611 0.21869245
000320 6f 20 33 3e f6 7d 33 be de 0e b3 3d 64 fd c4 3d
       0.17492841 -0.17528519 0.0874307 0.09618643
000330 87 90 f0 bc 74 18 17 be 2a 87 97 bd 8b 80 80 be
       -0.029365791 -0.14755422 -0.073988274 -0.2509807
000340 3f b0 96 bd ce 3b 40 bd de e6 7c 3d 25 68 02 bd
       -0.07357835 -0.046932034 0.06174361 -0.0318376
000350 12 d4 ac bd 14 d6 0a bd dc 36 c3 3c 24 a4 c7 3d
       -0.08438887 -0.033895567 0.02382987 0.09748104
000360 0a ab 13 3e ea a1 83 bd e1 dc 27 3c a6 d4 e9 b9
       0.14420715 -0.06427367 0.010245533 -0.0004459966
000370 08 23 86 bb f6 20 98 3d b0 76 d3 bc 88 58 e7 bc
       -0.0040935315 0.07428162 -0.02581343 -0.028240457
000380 ae 19 52 3b 79 58 6f 3d f7 d7 86 be a3 51 1f 3c
       0.0032058763 0.058433983 -0.26336643 0.009724054
000390 3c bf 57 bd 21 97 6c be f8 3c ac 3c b5 bf c2 bc
       -0.05267261 -0.23104526 0.021025166 -0.023773054
0003a0 64 0c 8e 3d f5 93 ad bd 82 ba 06 be ce fc d4 bd
       0.06935957 -0.08475486 -0.13157085 -0.10399781
0003b0 ad 5a 83 bd 41 c6 26 3d a9 cb cb bb 35 3b 66 3d
       -0.064137794 0.040716413 -0.0062193465 0.056208808
0003c0 b4 1a 48 3c 0e e9 f0 bd 09 2f a5 bd ef 6e 35 3d
       0.012213398 -0.11763202 -0.08065612 0.044295248
0003d0 10 5e 41 3d 8f d7 11 3d 7d 05 1e 3c e0 61 fe 3d
       0.047208846 0.035605963 0.009644863 0.12421012
0003e0 aa e7 00 3c 69 71 3b bd e2 10 24 3c 88 50 56 be
       0.007867733 -0.045762453 0.010013791 -0.20929158
0003f0 3a 3e 34 3d ce 77 e8 3b 98 08 8d 3d 7e ab 0b be
       0.044004656 0.00709436 0.06886405 -0.13639638

network_body._body_endoder.seq_layers.2.bias f4 [128]
000000 38 66 df 3c ba d3 26 bc 8f b6 52 3c 65 2c af 3c
       0.027270421 -0.0101823155 0.012860908 0.021383474
000010 49 a6 9b bc 35 6c 25 3d 76 f7 c1 3c 04 f1 02 3d
       -0.01900019 0.040386397 0.023677569 0.03196813
000020 85 c3 64 3a b1 72 2f 3d ea e1 79 3c 6a 99 f2 3c
       0.00087266444 0.042833988 0.015251616 0.02961417
000030 61 d4 16 3d ce 6c dc 3c 99 b7 88 3c b7 c3 b1 3c
       0.036823634 0.02690735 0.016689109 0.02169977
000040 72 27 7c 3c 0f aa e0 3c 1b 8e 0b bb c0 55 b1 3c
       0.015390264 0.02742484 -0.0021294418 0.021647334
000050 15 96 d3 3c d8 bd 32 3c 2d da 01 3d 8a 03 08 3d
       0.0258284 0.01090952 0.03170221 0.0332065
000060 d2 80 da 3c 15 2f 80 3c 01 12 fa 3c a1 d8 17 3d
       0.026672754 0.01564745 0.030526163 0.037071828
000070 c9 d3 1b 3c d6 3a a2 3c ad e1 e6 3c 32 22 0b 3d
       0.009510943 0.019803446 0.028183782 0.033968158
000080 c5 44 07 3d 97 2f fa 3c 8e bc a2 3c ba 06 ee 3c
       0.033024568 0.03054027 0.0198653 0.029055942
000090 43 94 b5 3c 5d 62 02 3d 7b 4e cf 3b 21 48 09 3d
       0.022165423 0.031832088 0.0063264943 0.033516053
0000a0 08 33 0a 3d 5e 7d cf 3c 04 c1 ac 3b 9b 2e 89 3c
       0.033740073 0.025328334 0.0052720327 0.016745856
0000b0 0a 5f ad 3c 5b 84 1f bc 23 46 37 3d 24 83 e7 3c
       0.021163482 -0.009736146 0.044744622 0.028260775
0000c0 f6 64 e3 3c 40 0a eb 3c f8 2d 42 3d e6 a0 8a bc
       0.027758103 0.028691411 0.04740712 -0.016922425
0000d0 5d f9 08 3d 4c c6 1b 3c 58 2c e9 bb e7 dd 2d 3d
       0.033440936 0.009507727 -0.007115882 0.04244795
0000e0 79 22 08 3d f0 88 68 3c 8b c6 15 bd fd 0d 45 3d
       0.033236 0.014192805 -0.0365663 0.048109043
0000f0 45 0a 15 3c 65 2c df 3c 17 b8 46 3a d9 42 62 bc
       0.009096687 0.027242849 0.0007580532 -0.013809883
000100 4c de ba 3c 65 54 2b 3c 13 1d a5 3c 58 1f 00 3c
       0.022811078 0.010457133 0.020155465 0.007819973
000110 2c 62 d3 3c 1d b5 07 3d dc 55 e6 3b 17 8a ad 3c
       0.025803648 0.033131707 0.007029278 0.02118401
000120 a5 49 d0 3c a3 f4 05 3c 3d d0 47 3c 47 24 fb 3c
       0.025425741 0.008176002 0.012195644 0.030656947
000130 a1 da 47 3c 3f 4d bd bb 7c a9 1e 3d 88 00 cf 3c
       0.012198121 -0.0057770307 0.03873585 0.025268808
000140 6a 03 43 3c 7a 49 08 ba 47 b7 89 3b 07 32 d5 3c
       0.011902669 -0.0005198937 0.0042027566 0.026024831
000150 5b a9 65 3c 40 3d 80 3c eb 25 e8 bc 95 02 a5 bc
       0.014017428 0.015654206 -0.028338393 -0.020142833
000160 7e 82 23 3d c0 23 ed 3c ea 96 c5 3c a4 2c 6a 3c
       0.03991937 0.028947711 0.024119813 0.01429287
000170 9c 34 ef 3c b5 88 f3 3c fe 33 c9 3c 6b 44 40 3d
       0.02919989 0.029728273 0.024560925 0.04694025
000180 41 ce 15 3d 21 49 4f bc 20 8c 38 3d 9c d5 78 3c
       0.036573652 -0.012651713 0.04505551 0.015187647
000190 28 0d de 3c 84 55 0e 3b 76 66 b2 3a 56 e6 91 3b
       0.027105883 0.0021718452 0.0013610858 0.004452507
0001a0 1f ad 65 3c 00 46 78 3c df c2 cc 3c 4b 2d 17 3d
       0.014018326 0.015153408 0.024995266 0.03690843
0001b0 5c 49 a7 bb 32 9c de 3c 79 b8 b5 3c 2c 56 4c 3d
       -0.0051051807 0.02717409 0.02218269 0.049886867
0001c0 3a 0f 3c 3c 56 fe 78 3c 9b a9 58 3b 30 16 e2 3c
       0.01147824 0.015197357 0.0033060077 0.02759847
0001d0 77 49 de 3c df 41 f9 3c 54 44 30 3c c2 38 94 3b
       0.02713464 0.030426918 0.010758478 0.0045233676
0001e0 aa 38 94 3b ae a3 27 3d 82 04 d8 3c 05 3a 15 3d
       0.0045233564 0.04092758 0.026369337 0.036432285
0001f0 a1 e9 a0 3c 69 71 83 3c ad 65 66 3c ca 2d 16 3d
       0.019642653 0.01604529 0.014062327 0.03666476

action_model._continuous_distribution.log_sigma f4 [1, 3]
000000 87 38 07 be 96 79 19 be 56 08 03 3e
       -0.13205157 -0.14987788 0.12796149

action_model._continuous_distribution.mu.weight f4 [3, 128]
000000 6e 36 11 3e 08 bc 0f 3d 59 e1 59 3d 0c a7 0b 3c
       0.1418092 0.03509143 0.053193424 0.008523714
000010 d1 a4 0e bd f2 70 26 3e 2c 7d 8e bd ae 66 15 be
       -0.03482515 0.16254023 -0.069574684 -0.1458995
000020 60 86 81 3d e4 86 57 3e 81 57 ce 3c c9 84 46 bd
       0.06324458 0.2104755 0.02518821 -0.048466478
000030 15 e2 ef 3d 11 a9 d9 bd 67 6f 02 be c5 c5 a3 bd
       0.117130436 -0.1062795 -0.12737809 -0.07996706
000040 e5 81 96 bd d0 a2 1c be 94 33 8c bd ea 97 5d bd
       -0.07348994 -0.15296483 -0.06845775 -0.054099955
000050 3c 3c 50 3d c8 8e 0c 3c f6 e3 77 3d 33 76 c9 bc
       0.050838694 0.008578964 0.060520135 -0.024592495
000060 22 20 fa bc ef a5 83 3d 30 25 34 3d f0 f1 21 be
       -0.0305329 0.06428134 0.043980777 -0.15814948
000070 b0 a3 73 bc bf c7 73 bd a5 38 b8 bd a1 12 e4 bd
       -0.014870569 -0.059516665 -0.08995179 -0.11136366
000080 2b f4 2d 3d f4 b4 c5 3b 7f f8 22 bd 17 86 1b bd
       0.042469185 0.006033534 -0.039787766 -0.037969675
000090 cf 65 39 3c 01 af 34 3c be d9 4d bd dc e9 8e bc
       0.011315777 0.011028052 -0.050256483 -0.017445497
0000a0 dd 4d 97 bd 0d c8 b1 3d 7b 76 7e bd f1 a0 73 bd
       -0.07387898 0.08680735 -0.06212471 -0.059479658
0000b0 a7 78 70 bd ae 1d 0a 3d 28 3d c5 3d a8 89 c0 bd
       -0.058708813 0.03371971 0.09630805 -0.09401256
0000c0 dc 4e c9 ba 53 31 de 3d 60 4f 05 bc fb 8a 7f bd
       -0.0015358585 0.108492516 -0.0081366 -0.0623884
0000d0 4b 5a db 3d b6 42 3a bd 31 ba a4 3d 3b df 26 3d
       0.107105814 -0.045473777 0.08043326 0.040740233
0000e0 34 47 98 3c 3f c1 93 3d 21 53 09 bd d1 9c d9 3c
       0.01858864 0.07214593 -0.033526544 0.026564034
0000f0 0c 0f fc 3d 82 99 3c 3e 18 42 95 3b 08 7a 04 3d
       0.123075575 0.18417934 0.004554998 0.03234294
000100 0c 4a a0 3d 8a d7 fb 3c 60 a0 ef 3c be 2e 02 bd
       0.07826623 0.030742425 0.029251277 -0.031782858
000110 66 93 94 3d 4f 02 a6 3c 23 10 4b 3d 1e 26 a6 3c
       0.072546765 0.020264773 0.049575936 0.020281848
000120 77 05 ff 3d bf 6e a6 3d c6 2b fb bd 66 e1 a0 bd
       0.12452214 0.08126592 -0.122642085 -0.07855491
000130 0d 28 83 3b d7 14 23 3d aa 55 54 3c 9b 16 b8 3b
       0.004002577 0.039814796 0.012959877 0.005617929
000140 03 5e 06 3e a9 ca d3 3b 60 2f 62 3b da ac e3 3d
       0.131218 0.006463368 0.00345131 0.11116953
000150 a8 76 8d 3d 34 2d 90 3d 40 6e 6a bc 30 96 16 bd
       0.069073975 0.07039872 -0.014308512 -0.036764324
000160 ca 63 46 bd 9e 70 41 3e 78 fd 9f 3d a4 a9 cb bd
       -0.04843501 0.18890616 0.07812017 -0.09944466
000170 17 e1 02 be 93 cf e1 bc f2 a9 90 bd 19 97 7d 3b
       -0.12781177 -0.0275648 -0.070636645 0.0038694798
000180 6e 2f 48 3e e9 db a8 3d 4a 8e cc bd 35 68 99 bd
       0.19549343 0.082450695 -0.09988077 -0.07490579
000190 c0 72 57 3c e1 38 15 3e 33 7e d9 bd 05 70 b4 bc
       0.013149917 0.14572479 -0.10619774 -0.022026071
0001a0 29 c7 5c 3d 47 ad 18 3e 10 5a 3e 3c 25 73 3d 3d
       0.05390087 0.1490985 0.011618152 0.04625239
0001b0 9e e2 58 3d 1d e5 38 3d 00 cc 69 bd 95 da 07 3e
       0.052950494 0.045140374 -0.057079315 0.13266976
0001c0 fa 34 d4 bd a7 57 e3 bd 44 f0 c5 bd 72 f2 e7 3d
       -0.10361667 -0.11100703 -0.09664968 0.1132554
0001d0 18 98 ec 3d 64 05 bb bd 64 dd c6 bc ba 28 f6 bd
       0.11552447 -0.091318876 -0.02427549 -0.12019487
0001e0 9b b2 c5 bd fe 29 f0 3d a1 83 23 be 37 2b 90 3d
       -0.09653207 0.117267594 -0.15968181 0.070394926
0001f0 a0 c0 28 3e 9c 9d e3 bd 26 c1 19 3d 62 ff 75 3d
       0.1647973 -0.11114046 0.037537716 0.060058005
000200 26 c6 af 3d b4 55 5a bd 2b e1 0b be d8 bf de 3d
       0.08582716 -0.05330439 -0.13660114 0.10876435
000210 7e c5 f3 3b bd fe bd bc 50 df b0 3c 1f 2a 9e 3d
       0.0074393144 -0.023192758 0.021590859 0.07722878
000220 60 72 9b 3d 01 83 1b bd ed ac f1 bd e6 06 0f 3e
       0.07590175 -0.037966732 -0.11800561 0.13967475
000230 b9 db 67 bd 51 73 9e bd cb 6b a9 bc e3 c9 46 bd
       -0.05660603 -0.077368386 -0.020681283 -0.048532378
000240 ec 21 42 3d c9 10 4c 3d 46 0e 70 bd ce c1 22 be
       0.04739563 0.049820695 -0.058607362 -0.15894243
000250 73 09 af bc dc e1 fd bd e8 15 dc 3d b3 a5 ec bd
       -0.02136681 -0.12396595 0.10746366 -0.11555042
000260 6a e8 27 3e a3 7f f0 bd 10 bc 10 be 03 5a e1 bc
       0.16397253 -0.11743095 -0.1413424 -0.027508741
000270 ca b1 1c be 43 82 19 3e 21 fc 65 3c 58 93 d4 3d
       -0.15302196 0.14991097 0.014037163 0.10379666
000280 ca 48 0d 3e 12 b4 28 3e f5 fc 86 bd 56 73 0d bd
       0.13797298 0.16474941 -0.065912165 -0.03453382
000290 f7 ce ad 3d 1a ab 41 be 4e ce f7 bd 19 20 53 bc
       0.08486741 -0.18912926 -0.12099896 -0.012886071
0002a0 8a 9e 77 3c d4 03 41 3d 68 77 ac bd bb 91 05 be
       0.015113482 0.04712279 -0.084212124 -0.13043873
0002b0 71 98 6e bc 70 31 53 bd 8f 6b 1e 3e ae 46 0a 3b
       -0.014562712 -0.05156082 0.15470718 0.0021099257
0002c0 30 0c 90 bd 96 21 04 3c cd a7 84 bd ee a9 78 3d
       -0.070335746 0.008064648 -0.06477318 0.060708933
0002d0 b7 04 18 3e 05 32 95 3d fb 72 49 3b a7 26 b2 bd
       0.14845549 0.07284931 0.00307387 -0.086987786
0002e0 30 c5 ff 3d e4 17 21 be b7 c5 8a 3c 11 c1 57 bd
       0.124887824 -0.1573177 0.01693998 -0.052674357
0002f0 a0 e5 c1 bc 50 53 06 bd a9 db 57 3d d1 45 1d bd
       -0.023669064 -0.032794297 0.05269972 -0.03839666
000300 a5 e3 c7 bd e7 66 ed 3d 0c fe 04 3d c6 7e a5 bd
       -0.097602166 0.11591893 0.03246884 -0.08080821
000310 7b 21 99 bd 4f 21 21 be 42 92 03 be d6 8d 51 3d
       -0.07477089 -0.15735362 -0.12848762 0.051160656
000320 7e fc 8a bd 36 ba 81 3d 86 c5 80 bd 4b 47 e1 3c
       -0.0678644 0.06334345 -0.062876746 0.027499815
000330 2b bd 90 3d 97 91 42 bd 67 48 0f be 7a 37 72 bd
       0.07067331 -0.047502127 -0.13992463 -0.059134938
000340 c6 42 a5 bd 06 3d fa bc 3d fe 35 be cc 10 a3 3d
       -0.08069377 -0.030546676 -0.17772765 0.07962188
000350 e8 c7 8b bd 07 fd 4c 3d 44 f3 5a 3d cf 13 ba bb
       -0.068252385 0.050045993 0.053454652 -0.005678631
000360 ec b8 78 3d 4d 55 de 3c 5b 67 4b 3c d9 5f cb bd
       0.06072323 0.027140284 0.012414779 -0.09930391
000370 ed 6c 9f bd 1f 74 84 bd 56 8c bd 3c e2 7f 0f be
       -0.07784448 -0.06467461 0.023138206 -0.14013627
000380 d8 8f 66 bd 41 62 4a 3d cc 25 1b 3e ea 2a e3 bd
       -0.056289524 0.04941011 0.15151137 -0.110921696
000390 9e fb 8b 3d 24 bd 6d 3d cd 04 d1 3c 81 23 ab bd
       0.068351015 0.058041707 0.025514985 -0.08356381
0003a0 e4 6e 22 be 63 08 9f bc ae ea cc 3d 34 b4 1a 3e
       -0.15862614 -0.019413179 0.10005699 0.15107805
0003b0 a0 9f bd bc bd 9b ef bd d7 ce 06 3e e0 24 c8 3c
       -0.023147404 -0.116996266 0.1316484 0.024431646
0003c0 21 15 ab 3c fb f2 86 bd f6 e1 e5 ba 27 d0 e6 3d
       0.020884098 -0.065893136 -0.0017538655 0.11270171
0003d0 38 8e 98 bd 71 22 9e 3d 26 b5 0a 3e 64 eb 08 3c
       -0.07449001 0.07721413 0.13545665 0.008356903
0003e0 92 ce 1e bd 25 88 05 be de 6a 00 bd 53 56 dc 3c
       -0.03877122 -0.13040216 -0.031351916 0.026896631
0003f0 27 a1 54 3d 2d dc 84 bd d5 ba 15 be 92 c6 7e 3d
       0.0519115 -0.06487308 -0.14622052 0.06220109

action_model._continuous_distribution.mu.bias f4 [3]
000000 ea 4c b2 3b b7 4f ed 3b 6a b0 22 bd
       0.005441298 0.0072421688 -0.039719023

action_model._discrete_distribution.branches.0.weight f4 [2, 128]
000000 16 31 71 bc ab b5 a8 bd 84 c5 eb bb 26 b7 2b bd
       -0.014721176 -0.082377754 -0.0071951766 -0.04192271
000010 ed ad 60 bc 13 73 98 bc bd ae 8a 3c c3 ba 94 bd
       -0.013713342 -0.01860956 0.016929025 -0.072621845
000020 b2 28 ef bc 41 88 98 bc 81 b7 b9 3c 37 db b8 ba
       -0.02919421 -0.018619658 0.02267051 -0.0014103417
000030 81 88 c6 bc d3 49 a6 bd 14 b0 9a 3c cb f7 44 bb
       -0.024235012 -0.081195496 0.018882789 -0.0030054923
000040 cf b3 1f bd 0a dc 87 bd a7 46 14 3d f6 47 c5 bc
       -0.03898984 -0.06633766 0.03620019 -0.024082165
000050 7a 00 03 3d 9b 8d 2f 3d 54 6f 76 3c f0 c5 8e bc
       0.031982876 0.042859655 0.015041191 -0.017428368
000060 14 94 09 bc 90 fc 10 bb 75 c3 b3 bb 30 3f 8a bd
       -0.008397121 -0.0022123195 -0.005485947 -0.06750333
000070 56 15 25 bd 16 98 f5 3c b5 71 38 bd 35 09 db bc
       -0.04030355 0.029979747 -0.045030314 -0.026737789
000080 3e 6d 2e bd f8 4d c4 3b ad 4e 87 bd 3e dc fc bc
       -0.04258465 0.00599074 -0.06606803 -0.030866738
000090 e8 74 03 bd 2a 56 e1 bc 58 f8 9b bc 12 fb bd bb
       -0.032093912 -0.027506907 -0.019039318 -0.005797752
0000a0 68 51 bf bc d9 d7 87 3c 1d c8 b0 3c da 97 64 bd
       -0.023354247 0.016582416 0.021579796 -0.05580888
0000b0 68 c4 0e bd c9 f9 a9 3d ee 84 29 bc 37 6f ac bb
       -0.034855276 0.08299596 -0.010346634 -0.0052622813
0000c0 85 e3 26 bd 70 b1 91 3c 8d 15 80 bd b8 84 8f 3d
       -0.040744323 0.017784804 -0.062541105 0.07007736
0000d0 c8 93 54 3c 63 19 bf 3c 99 1c 19 3d f9 e2 66 bd
       0.012974687 0.023327535 0.03738079 -0.0563688
0000e0 82 3f 52 3c 31 3b 9f 3b 68 bf e7 3a 83 76 23 bd
       0.012832524 0.004859351 0.0017680945 -0.039907943
0000f0 fe b6 96 3c 98 6a eb bc eb f8 0e 3d c5 7a 56 3c
       0.018397804 -0.028737351 0.034905355 0.013090794
000100 f3 7a 9c 3d 1d 7b bc bc a5 bf 44 3c ba 1a 39 bd
       0.07640638 -0.023007924 0.012008582 -0.045191504
000110 d9 03 28 bb 3c 21 6b 3d 02 06 0c bd 46 92 41 bd
       -0.002563706 0.05740474 -0.034185417 -0.047258638
000120 c2 2b 51 3c 0d a6 f6 3c d4 9f e8 bc d0 c3 87 bd
       0.01276678 0.030108476 -0.028396524 -0.06629145
000130 af bd 07 bd 1a bf 8e 3d c8 a3 03 bd 76 94 20 ba
       -0.03313988 0.069700435 -0.032138616 -0.0006125638
000140 8c 08 3b bd 04 dc ba bc 74 5d 72 bc 89 86 ea bc
       -0.045662448 -0.02280999 -0.014792789 -0.028628604
000150 7c b8 66 3d d7 d0 53 bd 15 29 24 3d 1f 03 d6 3c
       0.05632828 -0.051712837 0.04007824 0.026124535
000160 8e 9e 99 bc 39 ad d2 3b 22 53 18 3c 7a fd c0 bc
       -0.018752363 0.006429341 0.009297164 -0.023558367
000170 88 51 85 bc f7 e9 e3 3c da 29 6e bd 95 df 55 bd
       -0.016274229 0.027821524 -0.05814538 -0.052215178
000180 d4 82 d6 3a 82 ce 10 bd 87 4f 75 bd 73 a2 61 3d
       0.0016365894 -0.03535319 -0.059890296 0.055086564
000190 d6 1c 4d 3d 1a 11 75 3d 02 24 81 3c 34 a9 00 bd
       0.05007633 0.059830762 0.01576424 -0.031411365
0001a0 a2 ff f6 3c 59 8c 06 3d 34 d8 27 3b 4b cb 7d bc
       0.030151192 0.03284869 0.0025611045 -0.015490363
0001b0 ae f0 00 3d e0 55 bb bc 32 98 4c 3c 5e 0e 2d bd
       0.03147953 -0.022868097 0.012487458 -0.04225003
0001c0 50 ca a8 bd e0 c2 20 bd 2f 91 a8 3c 5a 49 3c 3d
       -0.08241713 -0.039248347 0.020577041 0.04596839
0001d0 3c bb 36 bd c6 0c 3d bd 65 51 f4 bc 7f ba d3 bc
       -0.044612154 -0.04615476 -0.029823968 -0.025845764
0001e0 b7 25 24 bc c4 c5 a1 bc 8c 35 72 bd a5 59 ec bc
       -0.010018758 -0.019747622 -0.059133098 -0.02885134
0001f0 9c b6 d2 3c 34 c1 25 bd 95 05 e2 3c 56 20 83 bc
       0.02572184 -0.040467456 0.027590552 -0.01600663
000200 18 7c d0 ba 16 67 68 3d 41 4b a1 3c eb 67 66 3d
       -0.0015906123 0.056738935 0.019689204 0.056251448
000210 61 af b4 3c 89 d2 bf 3c 92 aa 04 bc f5 d9 88 3d
       0.022056283 0.02341582 -0.008097308 0.06682197
000220 0d 79 a4 3c 45 94 18 3c d1 3d 82 bc 84 ed 8c 3a
       0.020077253 0.009312694 -0.015898617 0.0010751938
000230 a3 42 59 3c 73 d0 7a 3d 9f dc 84 bc a7 fe 37 3c
       0.013260516 0.06123395 -0.016218482 0.011230147
000240 3a 4f 25 3d 1f c4 54 3d 25 6f 1b bd 44 3c 40 3c
       0.04035876 0.05194485 -0.037947793 0.011733118
000250 2a 17 2c bd 5d 0e 33 bd 66 83 c6 bc a3 43 a5 3c
       -0.04201428 -0.04371487 -0.024232578 0.020173853
000260 2a aa 4c 3b 9a e4 34 3a 03 e4 01 bc b0 69 4b 3d
       0.0031229355 0.00069005194 -0.007927897 0.04966134
000270 e8 fa 4f 3d 44 25 dc bc d6 1f 5f 3d e1 ac fb 3b
       0.050776392 -0.026873238 0.05447372 0.007680521
000280 e1 12 c6 3c 64 d3 4e 3c 9b 57 ab 3d a2 eb 5c 3c
       0.024178924 0.012623642 0.08366319 0.013483914
000290 78 39 73 3c a9 56 3a 3c ad bd a2 3c 5d 33 ac 3c
       0.014845245 0.0113732 0.019865835 0.021020586
0002a0 b2 18 02 3d 98 3f f1 3a 24 01 53 3c 48 be 4f 3d
       0.031761833 0.0018405793 0.01287869 0.050718576
0002b0 8a d3 3f 3c 53 9a cc bd aa 69 a2 3b 43 25 e2 3b
       0.01170815 -0.099903725 0.004956444 0.0069014146
0002c0 27 63 38 3d 3c e6 46 bc 84 91 95 3d 36 03 48 bd
       0.045016434 -0.012139853 0.073031455 -0.048831187
0002d0 0a 25 7e bc a4 9a 5f bd f1 d5 a2 bc ce 83 63 3d
       -0.0155117605 -0.054590836 -0.019877406 0.05554562
0002e0 0a 40 82 bc db 85 9e 3a d8 75 31 b9 86 d5 2b 3d
       -0.015899677 0.0012094335 -0.00016923936 0.04195168
0002f0 22 2d 27 bc 7a ee 1d 3d af 19 34 bd 4e 81 c4 bc
       -0.010203632 0.038557507 -0.043969806 -0.023987439
000300 76 cc 90 bd f5 9b 53 3b 99 0d bf bc 94 d4 8b 3d
       -0.07070248 0.0032289003 -0.023321914 0.068276554
000310 58 be 93 3c 10 11 99 bd 17 d2 2b 3d 49 48 74 3d
       0.018035099 -0.074739575 0.041948404 0.05963925
000320 4a 20 8d ba 66 c5 7d bc af a1 fe 3c ad 80 91 3d
       -0.0010767069 -0.015488958 0.031082956 0.07104621
000330 59 44 fe 3c 84 88 89 bd 44 2b 16 3d 10 48 44 bc
       0.03103845 -0.067154914 0.036662355 -0.011980072
000340 d4 2b cb 3c 69 c5 a9 3c df a3 64 3c 52 eb 76 3d
       0.024801172 0.020724015 0.013955086 0.060283013
000350 63 1d 9a bd 3f 07 6c 3d e7 b3 ef bc 9e b8 29 bc
       -0.07525136 0.057624098 -0.029260589 -0.010358958
000360 2e 97 63 b9 b3 c7 d9 3c ad e1 99 3c 66 85 d5 3c
       -0.00021704726 0.026584482 0.018784368 0.026064586
000370 31 80 34 3a b8 41 3c bc 85 ba 63 3d 06 d1 f6 3c
       0.0006885557 -0.011490278 0.0555978 0.030128967
000380 48 7d 3f 3c 12 04 8d 3c be a1 82 3d 8a 7e 31 bd
       0.011687584 0.017213855 0.06378506 -0.043333568
000390 87 27 5e bd de e5 26 bd f6 6b 9a bc a9 ca a9 3c
       -0.054236915 -0.040746562 -0.018850308 0.020726519
0003a0 b7 93 f6 bc cf 83 3c bd e5 15 61 3b 36 d9 6e 3c
       -0.030099733 -0.04602414 0.0034345326 0.014578154
0003b0 a5 ec af bc 26 30 37 3d f6 2e 68 bc 6e c0 30 3d
       -0.021475146 0.044723652 -0.014171353 0.043152265
0003c0 d7 00 9e 3d 3a 55 4a 3d a5 86 9e bc a5 97 05 bd
       0.07715004 0.049397685 -0.019351313 -0.032615323
0003d0 bd 50 e4 3c d6 3a 0a 3d 6f f8 47 3d d9 58 4c 3c
       0.02787053 0.033747517 0.04882091 0.012472355
0003e0 15 cf 5e bb 8a fb 00 3d f6 b2 48 3d a3 5f 10 3d
       -0.0033997942 0.031489886 0.048998795 0.035247456
0003f0 67 50 6f bb 34 66 40 3d 30 6c 44 bd 24 a6 2f 3d
       -0.003651643 0.04697247 -0.04795474 0.042883053

action_model._discrete_distribution.branches.0.bias f4 [2]
000000 bc b0 93 bc bc b0 93 3c
       -0.01802861 0.01802861

exp_avg f4 [128, 50]
000000 bc 6f 3a b9 d8 38 5d b9 e8 cb ce b9 14 32 0b 39
       -0.00017779967 -0.00021097378 -0.00039443304 0.00013274729
000010 ce 83 88 b9 30 e0 5f b9 25 9d f6 b8 e3 5d 94 b9
       -0.00026038144 -0.00021350454 -0.000117594645 -0.0002829871
000020 0c 1f 38 b8 be d4 83 b9 dc 14 bf b9 50 c6 59 b7
       -4.3897933e-05 -0.00025144772 -0.000364459 -1.2980381e-05
000030 aa 72 67 37 29 1e 61 b9 17 c5 97 b9 c4 79 8f b9
       1.379537e-05 -0.00021468908 -0.00028947808 -0.00027365808
000040 58 38 19 38 f3 8f b8 b9 92 aa d3 b8 20 c7 aa b9
       3.6530517e-05 -0.00035202465 -0.00010093035 -0.00032573286
000050 74 75 69 b9 ee c3 46 38 f2 1e 90 b9 4b 03 28 b9
       -0.00022264366 4.7389352e-05 -0.00027488876 -0.00016022955
000060 68 fa a4 b9 ce 09 7c b9 1c 88 0c b9 3d 49 a5 b9
       -0.00031467085 -0.00024036245 -0.00013402145 -0.0003152582
000070 02 a9 27 38 02 15 94 b9 ce 09 7c b9 1c 88 0c b9
       3.9973304e-05 -0.00028244412 -0.00024036245 -0.00013402145
000080 3d 49 a5 b9 02 a9 27 38 02 15 94 b9 63 f7 51 ba
       -0.0003152582 3.9973304e-05 -0.00028244412 -0.0008009581
000090 8a 6d 37 b9 9e 4e 26 3a 18 3f 3f 39 cb 81 28 38
       -0.00017493046 0.00063441123 0.00018238684 4.01752e-05
0000a0 9f 8b 82 39 84 57 1c b9 86 8d 2b 3a c0 e9 3a 39
       0.00024899558 -0.00014909921 0.0006544221 0.00017825421
0000b0 98 2c 69 ba 65 78 37 b8 9a fe 36 3a a9 36 14 ba
       -0.00088948896 -4.3742726e-05 0.00069806876 -0.0005653897
0000c0 6b 19 77 b7 5e 17 ef 39 c6 d2 a0 39 ae 72 9c b8
       -1.4728265e-05 0.00045603042 0.00030674617 -7.4600204e-05
0000d0 bc 04 bc b7 8a df 93 38 3c ed f4 b7 6a df 42 39
       -2.2413551e-05 7.0511436e-05 -2.9197538e-05 0.0001858451
0000e0 7a 63 4e 37 8c 49 10 38 92 0a 01 b7 48 40 90 38
       1.2301718e-05 3.440077e-05 -7.69146e-06 6.8784284e-05
0000f0 c0 4e b4 35 cf 94 b4 39 92 95 cd 38 c2 13 fa b8
       1.3433964e-06 0.00034443146 9.8030214e-05 -0.00011924609
000100 6f f8 18 38 0e d0 3f b8 4c b9 27 39 91 4f 36 38
       3.6470996e-05 -4.5731715e-05 0.0001599539 4.3466283e-05
000110 a8 4c 2a 38 c8 b4 40 39 53 ad bd 38 b0 15 3e 39
       4.060255e-05 0.00018377893 9.0445064e-05 0.00018127891
000120 9c 25 cd b6 4f 54 8c 37 b8 9d 97 38 60 bf e9 36
       -6.1138544e-06 1.672856e-05 7.2296185e-05 6.96622e-06
000130 62 17 a9 38 bf c0 98 38 76 06 c8 38 a9 80 36 39
       8.062903e-05 7.2838266e-05 9.5379466e-05 0.00017404802
000140 60 bf e9 36 62 17 a9 38 bf c0 98 38 76 06 c8 38
       6.96622e-06 8.062903e-05 7.2838266e-05 9.5379466e-05
000150 a8 80 36 39 3a 12 de ba a3 79 19 b9 b0 69 31 3a
       0.00017404801 -0.0016942688 -0.0001463653 0.0006767763
000160 bc e9 a5 39 7e 6b 30 38 02 4e 54 38 96 f8 7d b8
       0.00031645398 4.206178e-05 5.061739e-05 -6.0551414e-05
000170 1b d7 75 39 1f 16 94 b8 44 42 e6 ba ce c5 99 b7
       0.00023445154 -7.06131e-05 -0.0017567356 -1.8331131e-05
000180 85 25 42 3a 5c 95 c7 ba 1d 50 17 b7 ff 25 a5 39
       0.00074061035 -0.0015227008 -9.018954e-06 0.00031499562
000190 83 ca 88 b8 1c 4c 95 37 a8 4e 17 39 0b 8c bb 38
       -6.522706e-05 1.7797625e-05 0.00014429784 8.94294e-05
0001a0 54 76 41 39 f7 41 3b 39 86 f0 16 b8 92 bf 1b 39
       0.00018449995 0.00017858284 -3.598679e-05 0.00014853317
0001b0 5f eb ba b7 08 2a 0c 39 2a 53 ba b7 95 69 a8 b8
       -2.2282531e-05 0.00013367098 -2.2211654e-05 -8.0305304e-05
0001c0 e9 5f c1 39 31 5c 0c b8 d8 02 25 39 14 4c 34 39
       0.00036883287 -3.346446e-05 0.00015736686 0.00017194479
0001d0 53 39 fe 38 82 fc 24 b9 cc f3 b2 38 3c 99 8b 38
       0.00012122341 -0.00015734325 8.533112e-05 6.6565786e-05
0001e0 06 03 e8 38 de b6 bd 38 ca 45 a2 38 d0 90 36 b8
       0.00011063185 9.046284e-05 7.737761e-05 -4.352705e-05
0001f0 ac 9a dd 38 58 d5 50 39 92 e1 a3 38 24 27 82 b7
       0.00010566911 0.00019915903 7.8144614e-05 -1.5515434e-05
000200 68 7a ce b7 4c cf 95 38 58 d5 50 39 92 e1 a3 38
       -2.4614113e-05 7.143486e-05 0.00019915903 7.8144614e-05
000210 24 27 82 b7 68 7a ce b7 48 cf 95 38 2c c7 90 3a
       -1.5515434e-05 -2.4614113e-05 7.143483e-05 0.0011045686
000220 10 0d 8d b4 35 35 75 38 48 91 b0 b9 7b 09 07 38
       -2.62728e-07 5.8462105e-05 -0.0003367758 3.2195338e-05
000230 22 06 7a 39 dd f2 4f 38 73 f6 00 39 e9 a8 9e 38
       0.00023844143 4.957883e-05 0.00012298841 7.565489e-05
000240 da dc 91 3a ef 5f c5 b6 4d 44 43 38 02 b7 55 3a
       0.0011128441 -5.8822257e-06 4.6555233e-05 0.00081525755
000250 9b a4 26 37 d9 de 6d 39 11 f1 82 39 62 8f 96 b8
       9.932696e-06 0.00022685099 0.0002497514 -7.1792645e-05
000260 23 1a 0e 38 de b9 af 37 90 e2 d6 37 5e 07 f7 38
       3.387978e-05 2.0948177e-05 2.561629e-05 0.0001177925
000270 52 cd aa 38 e8 bf 25 37 cc 34 19 37 42 52 7e 38
       8.1444756e-05 9.879448e-06 9.131803e-06 6.0634928e-05
000280 fb c7 12 38 03 dc 35 39 c4 aa c6 38 a4 92 f5 b7
       3.499536e-05 0.00017343466 9.473183e-05 -2.927456e-05
000290 fc 4f b1 38 fa 51 b3 36 a4 c2 0c 39 c9 89 20 38
       8.454916e-05 5.344159e-06 0.0001342395 3.8275295e-05
0002a0 aa 59 2c 38 30 d0 2d 39 6e 70 70 38 18 46 18 39
       4.10915e-05 0.00016576122 5.7325167e-05 0.00014521962
0002b0 93 07 06 38 94 2e ef 37 6f 6b b3 38 eb de 2f 38
       3.1955144e-05 2.851271e-05 8.555396e-05 4.193086e-05
0002c0 50 4a 23 b6 9a 47 22 39 2e 45 52 38 9b da 1d 39
       -2.4332148e-06 0.00015476198 5.013233e-05 0.00015054124
0002d0 eb de 2f 38 50 4a 23 b6 9a 47 22 39 2e 45 52 38
       4.193086e-05 -2.4332148e-06 0.00015476198 5.013233e-05
0002e0 9a da 1d 39 96 2c 84 ba 3a be 61 b8 4c a1 83 39
       0.00015054122 -0.0010084088 -5.3821343e-05 0.00025106443
0002f0 fe f4 23 39 b0 f3 75 b7 ea 5b 81 38 28 77 99 b8
       0.00015636158 -1.4659876e-05 6.16832e-05 -7.317803e-05
000300 9a 18 81 39 74 f2 ec b8 b6 9e 8b ba 34 1f 0d b7
       0.00024623127 -0.00011298517 -0.0010652158 -8.41152e-06
000310 b6 dd 8e 39 bd 64 71 ba 4e c7 56 b6 3e 0d 39 39
       0.00027249538 -0.00092084316 -3.2004496e-06 0.00017647908
000320 8a 69 5f b9 1e d7 99 b9 ac 31 20 ba 80 a5 6f b8
       -0.00021306254 -0.0002934271 -0.00061109173 -5.7136174e-05
000330 89 56 2f ba ea 7f f7 b9 d0 d7 09 b9 41 4b 0c ba
       -0.0006688615 -0.00047206815 -0.00013145735 -0.000535179
000340 e0 db dd b8 f0 5d 14 ba d3 6b e2 b9 1c 20 36 39
       -0.00010579056 -0.000565975 -0.00043186414 0.00017368834
000350 c8 cb 16 ba 76 e2 64 b9 6d 91 23 ba bf 08 11 ba
       -0.00057524117 -0.00021828138 -0.00062396267 -0.00055326143
000360 99 b5 ce b8 21 a8 ac b9 36 12 8c b9 e0 34 1d ba
       -9.856671e-05 -0.00032931662 -0.0002671645 -0.00059969537
000370 63 22 ce b9 b5 e8 7d 38 af 22 4f ba 0c 65 b1 b7
       -0.00039317002 6.0536626e-05 -0.00079015916 -2.1147098e-05
000380 2e 4a 12 ba 52 80 17 ba 63 da 2d b9 62 cd fa b9
       -0.00055805116 -0.0005779314 -0.00016579921 -0.00047836738
000390 94 2e 15 38 36 8c fd b9 52 80 17 ba 63 da 2d b9
       3.5567748e-05 -0.00048360386 -0.0005779314 -0.00016579921
0003a0 62 cd fa b9 94 2e 15 38 36 8c fd b9 4a 59 55 bb
       -0.00047836738 3.5567748e-05 -0.00048360386 -0.003255444
0003b0 bd 18 b6 b9 c6 1b 94 3a db 3d 12 3a e9 5f ae 37
       -0.00034732177 0.0011299781 0.0005578675 2.0787078e-05
0003c0 c0 c9 f4 37 e6 8f ac b9 1a 63 55 3a 00 b7 f4 37
       2.9181014e-05 -0.0003291361 0.00081400725 2.9172283e-05
0003d0 7c c7 61 bb a5 16 8c b8 2f 92 a5 3a b0 e5 29 bb
       -0.0034451177 -6.679938e-05 0.0012632067 -0.0025924258
0003e0 c0 cf eb b7 69 d0 da 39 ba aa a0 b8 11 97 28 38
       -2.8110924e-05 0.00041735478 -7.661195e-05 4.0195013e-05
0003f0 08 64 17 b7 e2 38 cb b8 4c fc c3 b8 08 cb ae b8
       -9.023592e-06 -9.6903896e-05 -9.3453185e-05 -8.334784e-05
