Assets/Learning/SmartRollABall/results/test001/SmartRollABall/SmartRollABall-80920.onnx (onnx, 96736 bytes, 9 tensors)

network_body._body_endoder.seq_layers.0.weight f4 [128, 40]
-0.0108807655 0.05238686 -0.06820943 -0.030854974 -0.06393422 -0.04382825 0.16157259 -0.006374111
0.1433463 -0.081601806 0.15457325 0.00142929 0.023346983 0.26505056 -0.072519034 0.093715556
-0.012547978 -0.27317342 0.025800547 -0.29955122 -0.1434477 0.26613674 0.14466861 0.06544021
-0.04949006 -0.0034683985 0.0058292956 0.050911456 0.07597711 0.026738947 -0.061097845 0.010479969
-0.0153749855 -0.04859858 -0.26868114 -0.056858305 0.19500989 -0.09070417 -0.05716252 0.04068645
-0.360074 0.2256559 -0.12620586 0.11823452 -0.107345045 -0.16535316 -0.0016593597 0.063030474
-0.07183929 0.037486672 -0.09402436 0.20524049 0.2402204 -0.2295201 0.08420985 -0.047060844
0.14461735 -0.106553875 0.11744934 0.08925645 0.3464987 0.031501573 -0.13175818 -0.0007172318
0.07999638 -0.06793145 0.15388425 0.19860554 -0.16840568 0.19650942 0.12539624 0.13608411
0.036592223 -0.2629089 -0.06913047 -0.087131225 -0.12860894 -0.03817721 -0.028138364 0.23537135
-0.18542781 0.26131132 0.08077389 0.21835095 0.16985972 -0.015120761 0.030512838 0.28611168
0.031650536 0.3164456 -0.24062075 -0.02311466 0.15362062 0.0038149508 -0.17882465 -0.319553
-0.036186352 0.01885355 -0.15454666 -0.19085062 -0.00357357 0.023967525 0.090090245 0.03418917
-0.024527801 -0.16798209 0.31814745 0.16558735 0.023441385 0.026590435 -0.18434086 -0.11986779
-0.25214112 -0.0878989 -0.038120136 0.102413654 -0.1551788 0.08766719 -0.011697234 -0.088163316
0.11465834 0.13975447 0.01598057 0.004259605 -0.016995637 -0.15153474 0.16479895 0.1991591
-0.12708755 0.0997741 -0.11127836 0.044359423 -0.029686972 -0.16297567 0.073198095 -0.007747466
-0.2000064 -0.00198634 0.3778343 0.1096459 0.12355822 0.015296898 -0.055372134 -0.2852126
-0.19033545 -0.30291563 -0.11573808 0.024150116 -0.10374483 0.012171108 -0.11627953 0.06965871
-0.15242758 -0.14133225 0.02237287 -0.089771315 0.13088419 0.1843004 -0.12099071 -0.034370746
0.14169958 0.13089412 0.17552358 0.052147582 0.17071974 -0.20934401 0.1239653 0.1561219
0.14881496 -0.17062303 0.1856632 -0.029023373 0.19483098 -0.18242896 0.025332574 0.30998075
0.1863404 -0.11707646 0.0032449188 -0.035536975 -0.28366423 -0.19790292 -0.14267486 -0.17763524
-0.08685572 -0.29836878 0.0753756 0.0030377295 -0.038345236 -0.058405757 0.0038043994 0.08256355
0.04835731 -0.082836196 0.18699394 0.057630945 -0.16149782 0.11408978 0.06684796 -0.14001985
0.056549523 -0.08708882 -0.045371767 -0.24290594 0.04198747 0.044309065 -0.078376755 0.023507275
-0.11192842 0.002447619 -0.033643343 -0.11146828 -0.37260824 0.08961441 -0.010911801 -0.3429949
0.27596176 -0.067357615 -0.13202228 0.28004566 -0.07567902 -0.058698878 -0.09135259 0.0821463
-0.0013959097 -0.23175351 0.068521746 0.20383549 0.08747717 0.24232852 0.21355319 0.041343704
0.108653106 0.045402974 0.1353711 0.16185282 -0.07925647 0.0028915259 0.033749033 0.03288965
0.12295359 -0.09219357 -0.0684956 -0.022633897 -0.04494498 -0.058137245 -0.05899718 0.0010106206
-0.014139726 -0.34652287 0.057422012 -0.07516157 -0.045855902 0.017046664 0.16684975 0.033629864
00000000: 3d45 32bc 9b93 563d 63b1 8bbd 92c3 fcbc
00000010: f2ef 82bd 4085 33bd 4973 253e ebdd d0bb
00000020: 5fc9 123e d91e a7bd 7348 1e3e 0457 bb3a
00000030: 2c42 bf3c b5b4 873e dc84 94bd f1ed bf3d
00000040: 0996 4dbc 63dd 8bbe ab5b d33c c75e 99be
00000050: f4e3 12be 1343 883e 0224 143e 8405 863d
00000060: 17b6 4abd 124e 63bb ad03 bf3b 8888 503d
00000070: e399 9b3d a30b db3c bc41 7abd 2db4 2b3c
00000080: 5de7 7bbc 4e0f 47bd 9390 89be 41e4 68bd
00000090: acb0 473e 1cc3 b9bd 3f23 6abd d6a6 263d
000000a0: 9f5b b8be 5712 673e 1c3c 01be f124 f23d
000000b0: b8d7 dbbd 5752 29be df7e d9ba 1f16 813d
000000c0: 7a20 93bd a08b 193d d88f c0bd 902a 523e
000000d0: 56fc 753e 5107 6bbe 3776 ac3d dfc2 40bd
000000e0: 9216 143e eb38 dabd 4889 f03d 16cc b63d
000000f0: 4768 b13e cb07 013d 9eeb 06be 9c04 3cba
00000100: 24d5 a33d a51f 8bbd d593 1d3e 405f 4b3e
00000110: 8a72 2cbe c439 493e df67 003e a259 0b3e
00000120: bae1 153d ff9b 86be 4794 8dbd db71 b2bd
00000130: 10b2 03be b55f 1cbd 6d82 e6bc 3005 713e
00000140: cae0 3dbe 99ca 853e c86c a53d 6497 5f3e
00000150: b5ef 2d3e 11bd 77bc 0ff6 f93c 3b7d 923e
00000160: fea3 013d 2805 a23e 4965 76be f55a bdbc
00000170: b94e 1d3e 4104 7a3b cf1d 37be 739c a3be
00000180: 2438 14bd c372 9a3c 7b41 1ebe 586e 43be
00000190: 8e32 6abb 8b57 c43c 3c81 b83d f109 0c3d
000001a0: 87ee c8bc 7f03 2cbe 39e4 a23e bb8f 293e
000001b0: 2608 c03c 2fd4 d93c dac3 3cbe 3e7d f5bd
000001c0: a418 81be 5704 b4bd dc23 1cbd 40be d13d
000001d0: 31e7 1ebe db8a b33d c1a5 3fbc f88e b4bd
000001e0: fed1 ea3d cc1b 0f3e afe9 823c 2894 8b3b
000001f0: 6f3a 8bbc ec2b 1bbe 0ec1 283e 5df0 4b3e
00000200: 3d23 02be 5d56 cc3d e9e5 e3bd 3ab2 353d
00000210: 1832 f3bc 18e3 26be e2e8 953d 75de fdbb
00000220: 7ace 4cbe 412d 02bb 7f73 c13e 088e e03d
00000230: 180c fd3d d79f 7a3c e4cd 62bd 6307 92be
00000240: 4ce7 42be c217 9bbe 1608 edbd 77d6 c53c
00000250: 2b78 d4bd 5469 473c f623 eebd 3aa9 8e3d
00000260: fa15 1cbe 67b9 10be 4f47 b73c 06da b7bd
00000270: 8106 063e 3eb9 3c3e fac9 f7bd 57c8 0cbd
00000280: b219 113e 1c09 063e 74bc 333e b498 553d
00000290: 28d1 2e3e 475e 56be 85e1 fd3d 6bde 1f3e
000002a0: f362 183e ceb7 2ebe 7e1e 3e3e 6dc2 edbc
000002b0: c681 473e a8ce 3abe 4286 cf3c ccb5 9e3e
000002c0: 05d0 3e3e c8c5 efbd b4a8 543b 388f 11bd
000002d0: 703c 91be 10a7 4abe 5c19 12be 03e6 35be
000002e0: 69e1 b1bd cbc3 98be 865e 9a3d a514 473b
000002f0: e50f 1dbd e03a 6fbd 3b53 793b 1417 a93d
00000300: 5112 463d 06a6 a9bd 577b 3f3e 6d0e 6c3d
00000310: af5f 25be e7a7 e93d 95e7 883d 5d61 0fbe
00000320: 79a0 673d a05b b2bd bfd7 39bd 56bc 78be
00000330: 0efb 2b3d 6c7d 353d fe83 a0bd 5492 c03c
00000340: ba3a e5bd 3c68 203b 9acd 09bd 7b49 e4bd
00000350: 82c6 bebe c387 b73d 69c7 32bc 079d afbe
00000360: dc4a 8d3e caf2 89bd d930 07be 2562 8f3e
00000370: 9afd 9abd 3c6e 70bd 1117 bbbd 523c a83d
00000380: f5f6 b6ba cb50 6dbe 2155 8c3d 40ba 503e
00000390: 3b27 b33d f824 783e b0ad 5a3e 0458 293d
000003a0: 8585 de3d 78f8 393d b99e 0a3e bfbc 253e
000003b0: 3751 a2bd c17f 3d3b 6d3c 0a3d 4cb7 063d
000003c0: 17cf fb3d fccf bcbd 6c47 8cbd b96a b9bc
000003d0: 3a18 38bd 5221 6ebd 07a7 71bd cd76 843a
000003e0: 4faa 67bc 726b b1be 5833 6b3d 4fee 99bd
000003f0: 66d3 3bbd 72a5 8b3c a9da 2a3e 78bf 093d

network_body._body_endoder.seq_layers.0.bias f4 [128]
0.0037819033 0.0007852268 0.0028577126 -0.002033502 -0.006957234 0.0010074982 0.011415957 0.0044070845
0.00309749 -0.00401289 -0.0012325578 -0.003041619 -1.5616417e-05 0.001606122 -0.0024936125 0.0037794414
-0.001602224 0.008445856 0.0041214116 -0.005527538 -0.0021584476 -0.005739662 0.00045238488 -0.00319209
-0.0028359878 -0.0063481396 -0.0045438563 0.0010101231 9.819603e-06 -0.007501838 0.0015186204 -0.0032522925
-0.00069545495 -0.0034735159 -0.0029271636 -0.0003764299 0.003803833 0.0034747669 -0.0061880583 -0.0034442106
0.0013056359 0.002754926 -0.0025792576 -0.0008330315 0.0017605143 -0.0037678576 -0.0015612338 0.0046529686
-0.00333242 -0.0034171175 0.0037507904 -0.0074039265 -0.012434591 0.0025974407 0.003250233 0.0021900795
0.0032453968 -0.0027045724 0.0039790184 0.0018565954 0.00042439296 -0.0074771577 -0.00308143 -0.001326241
-0.0041579055 -0.00026004482 0.0011094231 0.00582797 0.0025610328 0.0009188056 0.010948577 -0.0015556903
0.0050633596 0.0033538223 -0.00067914225 -0.0045884172 0.0024065487 0.0021743681 -0.001418004 -0.005100748
0.001757147 -0.0023967167 0.00067702984 -0.0039789546 -0.00047417416 0.0055509177 -0.0015999887 0.0020292522
0.0073677786 0.00060147117 0.003629954 -0.0046209437 -0.0008054887 -0.004004152 -0.007998827 -0.0014145332
0.0022985202 -0.0015228924 -0.0031748374 -0.005638375 -0.0012552035 0.0013744798 -0.0015542656 0.0021627722
0.0003486834 -0.004364444 -0.0025757034 -0.0008094795 0.002696863 0.0065064635 0.00019598474 0.002647129
-0.0032264744 0.003578924 -0.003079497 -0.0010132244 -0.0014328792 -0.0050144717 -0.0017369145 -0.0027446938
-0.0021869026 0.0010463194 0.0012848449 0.0033887762 0.009812623 -0.0030773082 -0.002308694 0.003679545
00000000: cfd9 773b aed7 4d3a 7648 3b3b 8144 05bb
00000010: 82f9 e3bb 080e 843a fe09 3b3c 4e69 903b
00000020: 42ff 4a3b 907e 83bb c78d a1ba e655 47bb
00000030: 0000 83b7 8384 d23a e06b 23bb 81b0 773b
00000040: b701 d2ba 7d60 0a3c e80c 873b 5920 b5bb
00000050: be74 0dbb c613 bcbb 122e ed39 6232 51bb
00000060: fbdb 39bb 0e04 d0bb a1e4 94bb 1b66 843a
00000070: e0be 2437 fad1 f5bb 720c c73a 6a24 55bb
00000080: 314f 36ba eda3 63bb a8d5 3fbb 915b c5b9
00000090: ba49 793b eab8 633b 32c5 cabb 44b8 61bb
000000a0: df21 ab3a fd8b 343b c308 29bb cc5f 5aba
000000b0: 0fc1 e63a 29ee 76bb 50a2 ccba ee77 983b
000000c0: bb64 5abb b8f1 5fbb d2cf 753b a39c f2bb
000000d0: 74ba 4bbc d339 2a3b dc01 553b 7087 0f3b
000000e0: b9b0 543b 323f 31bb 6d62 823b 0159 f33a
000000f0: 0f81 de39 f202 f5bb d1f1 49bb 43d5 adba
00000100: 0a3f 88bb a056 88b9 106a 913a 8ef8 be3b
00000110: 00d7 273b 00dc 703a a961 333c 4ee8 cbba
00000120: 8aea a53b cdcb 5b3b 7708 32ba 6f5a 96bb
00000130: 30b7 1d3b d87f 0e3b 52dc b9ba 2d24 a7bb
00000140: 1250 e63a 3c12 1dbb b47a 313a e461 82bb
00000150: 949a f8b9 79e4 b53b b6b6 d1ba 34fd 043b
00000160: 686d f13b 0cac 1d3a 86e4 6d3b 496b 97bb
00000170: 6e27 53ba 4335 83bb 830d 03bc dc67 b9ba
00000180: c5a2 163b ca9b c7ba ef10 50bb 1ec2 b8bb
00000190: a485 a4ba e427 b43a 80b8 cbba 4cbd 0d3b
000001a0: 7ecf b639 9c03 8fbb 22cd 28bb 4033 54ba
000001b0: dabd 303b 2c34 d53b 4181 4d39 747b 2d3b
000001c0: 4273 53bb 628c 6a3b 63d1 49bb 2bce 84ba
000001d0: 73cf bbba 7050 a4bb 2ea9 e3ba 52e0 33bb
000001e0: 2352 0fbb a724 893a 3e68 a83a 3b16 5e3b
000001f0: 20c5 203c aaac 49bb 754d 17bb 8524 713b

network_body._body_endoder.seq_layers.2.weight f4 [128, 128]
-0.13655902 0.04886555 -0.019038098 0.04252908 -0.035988048 -0.0954982 0.22141361 0.01098711
-0.032137197 -0.012217943 -0.053335384 -0.11241969 0.12043365 0.0671398 -0.13789287 0.2247714
0.015486879 -0.019015966 -0.11180418 -0.012277192 0.048750877 0.017625038 0.006702111 -0.031932924
0.034692686 -0.13614671 -0.12601799 0.073041484 -0.11827867 0.02925693 0.007948745 -0.09464126
-0.016582593 -0.16661483 -0.044157922 -0.015929488 -0.052547485 -0.1069311 -0.04391805 -0.18394421
0.12686537 -0.022473006 -0.077417895 -0.069451965 0.06027027 0.0808755 0.06900812 0.091546886
-0.022095913 0.010820555 -0.08486323 0.028565262 0.18112625 0.08032699 0.008603045 0.055702742
-0.121132225 -0.12011373 -0.033497788 0.06226726 -0.0074003832 0.108487785 0.20951296 -0.07843466
0.013910436 -0.11414716 -0.1192892 0.12605138 0.014723943 -0.09601441 -0.07157276 -0.083551206
-0.023095105 0.008048504 -0.104755476 0.1340367 -0.035336655 -0.048911408 0.050639126 -0.07289658
0.112767875 0.038504954 0.10894005 0.18022214 -0.074249245 -0.05313093 0.19425227 -0.055642385
0.08869839 0.019783275 -0.18349466 -0.059824284 -0.21669294 0.10375576 0.018631773 -0.020209897
-0.015783336 -0.012546511 0.134395 -0.035500944 -0.048392937 0.024050584 -0.08888937 -0.05391944
-0.043221537 0.08647624 -0.10534898 0.067379504 0.03275719 -0.021743655 -0.0070838174 -0.13898699
0.014707042 0.056793552 0.10685019 0.111410104 -0.1253497 -0.101387806 0.12137139 -0.04659485
0.01239457 -0.18349543 -0.047955215 -0.23394716 0.04039303 0.08573922 -0.20858979 -0.069898
-0.019869037 -0.07237887 -0.017161166 0.026625037 -0.07450743 0.0820681 0.03908214 -0.03173213
-0.11840562 -0.05823915 0.09910546 -0.030667908 -0.16801222 0.18187405 -0.10112733 -0.017715897
0.04924307 -0.19010821 0.040719323 0.017552445 0.01469143 -0.097758435 -0.028626427 0.054638844
0.014163441 -0.0048113065 -0.045099255 0.111343324 -0.08113497 0.0454323 -0.019561298 0.091654845
0.038871344 0.056993265 0.07858781 -0.039039224 -0.07197895 0.036830664 0.0065141334 -0.078463554
-0.19384807 0.008127703 0.084559515 0.24039774 -0.18803337 -0.10110494 0.0076673315 -0.179512
0.10045417 -0.026373364 0.08543087 -0.01073664 -0.09213448 -0.023404106 -0.0091341045 0.07564303
0.023347387 0.09301604 -0.047073107 0.13562085 0.0051246053 -0.016575864 0.019398296 -0.007861644
0.044108275 -0.11954622 -0.030394023 -0.046835627 0.09472662 0.08576613 -0.032694478 0.013866773
-0.14973646 -0.047951084 0.0061492077 0.016567497 0.08096228 -0.06456315 0.02154692 0.0028567878
0.09649156 0.06539545 0.01059515 -0.089737274 -0.027275398 0.033918273 0.07779147 -0.010682483
-0.07139922 0.059105348 0.14710528 0.0655111 0.081378765 -0.022780458 -0.055022098 0.055574443
-0.18116286 0.028773569 0.1137818 -0.004698231 0.030076833 0.037223134 0.074914485 -0.11867625
-0.1614478 0.14586213 -0.119529754 0.009135229 0.049011093 -0.027615422 -0.021898383 0.056950454
0.12843795 0.14548364 0.0056159277 -0.15321088 -0.1294076 0.14622714 -0.13233656 -0.074541844
0.11870706 -0.0006008327 -0.013277375 0.053743474 0.114989705 -0.017570073 -0.005846925 -0.016191632
00000000: 21d6 0bbe 3e27 483d c9f5 9bbc f932 2e3d
00000010: 3468 13bd 8f94 c3bd 40ba 623e 4803 343c
00000020: 4ba2 03bd c42d 48bc 3476 5abd 4b3c e6bd
00000030: eba5 f63d 9780 893d ca33 0dbe 792a 663e
00000040: aebc 7d3c 5fc7 9bbc 97f9 e4bd 4726 49bc
00000050: 00af 473d 6262 903c 629d db3b 19cc 02bd
00000060: eb19 0e3d 0b6a 0bbe dc0a 01be c696 953d
00000070: 163c f2bd 3bac ef3c 743b 023c 47d3 c1bd
00000080: 38d8 87bc 149d 2abe f0de 34bd 8f7e 82bc
00000090: 083c 57bd b1fe dabd 6ae3 33bd df5b 3cbe
000000a0: ffe8 013e 4f19 b8bc 468d 9ebd d53c 8ebd
000000b0: f5dd 763d 0ea2 a53d 2154 8d3d ef7c bb3d
000000c0: 7d02 b5bc b248 313c c6cc adbd b201 ea3c
000000d0: 2979 393e 7a82 a43d c9f3 0c3c 8f28 643d
000000e0: 2c14 f8bd 30fe f5bd fa34 09bd f40b 7f3d
000000f0: ea7e f2bb d82e de3d 918a 563e 5aa2 a0bd
00000100: 99e8 633c fcc5 e9bd e54d f4bd 9d13 013e
00000110: b13c 713c 34a3 c4bd bd94 92bd e51c abbd
00000120: f231 bdbc dfdd 033c 0a8a d6bd eb40 093e
00000130: 2bbd 10bd 5457 48bd f96a 4f3d cd4a 95bd
00000140: d8f2 e63d 5fb7 1d3d f61b df3d 278c 383e
00000150: fd0f 98bd d19f 59bd 11ea 463e 45e9 63bd
00000160: 80a7 b53d 8910 a23c 06e6 3bbe 4f0a 75bd
00000170: c1e4 5dbe e67d d43d a9a1 983c 3a8f a5bc
00000180: 0e4c 81bc e28f 4dbc d89e 093e 7069 11bd
00000190: ac37 46bd bb05 c53c a10b b6bd a1da 5cbd
000001a0: 1109 31bd 741a b13d 35c1 d7bd 44fe 893d
000001b0: 672c 063d c01f b2bc 5e1f e8bb 9b52 0ebe
000001c0: cef5 703c 5ba0 683d 46d4 da3d fb2a e43d
000001d0: ac5b 00be 69a4 cfbd 9091 f83d 3eda 3ebd
000001e0: 9812 4b3c 3ae6 3bbe b06c 44bd d88f 6fbe
000001f0: 2973 253d 0b98 af3d 9098 55be af26 8fbd
00000200: 64c4 a2bc 5f3b 94bd 9395 8cbc c01c da3c
00000210: 5a97 98bd 5213 a83d 9814 203d 8df9 01bd
00000220: a57e f2bd 2d8c 6ebd cef7 ca3d 443b fbbc
00000230: 650b 2cbe 313d 3a3e d81b cfbd ee20 91bc
00000240: 1ab3 493d baab 42be 4ec9 263d 25ca 8f3c
00000250: 53b4 703c 9335 c8bd f881 eabc fbcc 5f3d
00000260: c70d 683c 2aa8 9dbb ffb9 38bd f807 e43d
00000270: 172a a6bd 3817 3a3d 043f a0bc 89b5 bb3d
00000280: 8f37 1f3d c571 693d a5f2 a03d 98e7 1fbd
00000290: b369 93bd c0db 163d 8374 d53b 80b1 a0bd
000002a0: 1c80 46be 0f2a 053c 8a2d ad3d d32a 763e
000002b0: d28b 40be 1b10 cfbd 3d3e fb3b fed1 37be
000002c0: eaba cd3d f40c d8bc 61f6 ae3d bbe8 2fbc
000002d0: 01b1 bcbd f8b9 bfbc 36a7 15bc bcea 9a3d
000002e0: 0543 bf3c 327f be3d bbcf 40bd 31e0 0a3e
000002f0: 4eec a73b 1bca 87bc 2de9 9e3c 20ce 00bc
00000300: e1aa 343d a6d4 f4bd e3fc f8bc b7d6 3fbd
00000310: 0800 c23d 27a6 af3d a5ea 05bd 7631 633c
00000320: 8454 19be 5b68 44bd 4b7f c93b 8fb8 873c
00000330: 8dcf a53d af39 84bd 2b83 b03c f238 3b3b
00000340: 5e9d c53d 0dee 853d 4897 2d3c 2dc8 b7bd
00000350: a870 dfbc e3ed 0a3d 2251 9f3d 9505 2fbc
00000360: c139 92bd 7318 723d c4a2 163e af2a 863d
00000370: e9a9 a63d 159e babc da5e 61bd 07a2 633d
00000380: c282 39be 8cb6 eb3c 6f06 e93d 9ef3 99bb
00000390: b163 f63c 4977 183d c46c 993d 890c f3bd
000003a0: 9252 25be e25c 153e 04cc f4bd edab 153c
000003b0: dbbf 483d bd39 e2bc 3d64 b3bc e144 693d
000003c0: 3d85 033e aaf9 143e d105 b83b 50e3 1cbe
000003d0: 6d83 04be 91bc 153e 3c83 07be 65a9 98bd
000003e0: b01c f33d 3381 1dba 5989 59bc 1e22 5c3d
000003f0: b97f eb3d 1def 8fbc 9097 bfbb 50a4 84bc

network_body._body_endoder.seq_layers.2.bias f4 [128]
0.0011446468 -0.004373451 -0.00071027316 -0.003411751 -0.0039155963 0.0044534025 -0.002794462 0.0061727106
-0.004717941 0.0070116646 0.00476662 0.00430881 0.0007521765 -0.003677054 -0.004790676 0.002140049
-0.0064635896 -0.0033757112 0.007504539 -0.0010776744 0.005960366 0.00045898766 -0.0014131722 0.0035936616
-0.00439553 0.002503421 -0.0036074866 -0.0048744767 0.002188389 -0.0023497527 -0.0041958694 -0.0013711075
-0.005457698 -0.0035239747 -0.003559506 0.004471475 0.004409157 0.0046622274 -0.005497346 -0.0036198145
-0.00032737406 -0.0018326953 0.00088148913 0.0026799855 -0.0020533388 0.006779507 -0.0001921157 -0.0021905622
-0.004377586 -0.002905911 -0.004573997 -0.0025253384 -0.00025548888 0.0033567832 -0.004417339 0.0016450717
-0.0045027006 0.0041830004 -0.00624963 -0.0037768523 -0.004707202 0.0036064168 -0.0020724274 -0.0032489193
-0.0057017696 -0.003948788 -0.005134 0.0039887573 -0.00599105 -0.0002281278 -6.153602e-05 0.0018237332
0.0026253304 0.0040677465 0.0014168931 0.005435624 0.0030220319 0.0045163683 0.0030877169 0.004700619
0.0004307789 -0.0038119175 -0.0041432604 -0.005173427 -0.0018523999 0.0027184743 -0.002650909 -0.000884532
0.0029707728 0.0026340403 -0.004206422 0.0054809637 -0.0018533806 -0.0010393817 -0.004715715 0.0056772325
0.0028481677 -0.005097292 0.0035792743 0.0042919144 0.0028084095 -0.0014409529 -0.003548643 -0.005336018
-0.0031529856 0.0052095572 -0.0014078284 0.0017232182 0.0023387775 -0.001656364 -0.0032517624 -0.000886207
0.0020094777 0.0019795545 -0.0016005281 0.0016038254 -0.0015805926 -0.0036440338 0.009075292 0.004524861
-0.0037368906 -0.0018855996 -0.0004830825 0.004943502 0.006555252 -0.0022907653 0.0007420019 -0.0045657135
00000000: f907 963a 2b4f 8fbb a031 3aba af97 5fbb
00000010: 674e 80bb d9ed 913b 4b23 37bb 7344 ca3b
00000020: f598 9abb 1bc2 e53b 4f31 9c3b eb30 8d3b
00000030: b62d 453a bbfa 70bb 1afb 9cbb 1040 0c3b
00000040: 85cc d3bb 093b 5dbb a3e8 f53b c140 8dba
00000050: 2d4f c33b 48a4 f039 313a b9ba a383 6b3b
00000060: 6108 90bb 6f10 243b 956b 6cbb 13ba 9fbb
00000070: 136b 0f3b 4ffe 19bb 817d 89bb bcb6 b3ba
00000080: 7dd6 b2bb 7cf2 66bb 9a46 69bb 7385 923b
00000090: b17a 903b 99c5 983b 1523 b4bb 693a 6dbb
000000a0: 67a3 abb9 0d37 f0ba bc13 673a b2a2 2f3b
000000b0: 4f91 06bb a026 de3b aa72 49b9 898f 0fbb
000000c0: da71 8fbb 1971 3ebb 78e1 95bb 2680 25bb
000000d0: 23f3 85b9 7afd 5b3b 53bf 90bb 729f d73a
000000e0: 648b 93bb 8d11 893b b2c9 ccbb 1185 77bb
000000f0: df3e 9abb a259 6c3b 90d1 07bb d2eb 54bb
00000100: e9d5 babb d664 81bb 1d3b a8bb 1fb4 823b
00000110: 9250 c4bb 9735 6fb9 e60c 81b8 550a ef3a
00000120: bc0d 2c3b bb4a 853b 0bb7 b93a 521d b23b
00000130: 480d 463b 0bfe 933b 4b5b 4a3b a607 9a3b
00000140: 2ada e139 5dd1 79bb 30c4 87bb da85 a9bb
00000150: 3acc f2ba 6e28 323b dfba 2dbb f0df 67ba
00000160: 4cb1 423b dd9f 2c3b 06d6 89bb a899 b33b
00000170: 22ed f2ba dd3b 88ba 4986 9abb 1408 ba3b
00000180: 53a8 3a3b 2f07 a7bb 4292 6a3b 30a3 8c3b
00000190: 4b0d 383b 5bde bcba 5a90 68bb c3d9 aebb
000001a0: 52a2 4ebb efb4 aa3b e286 b8ba 9cdd e13a
000001b0: 2d46 193b 5a1a d9ba 851b 55bb 5850 68ba
000001c0: 71b1 033b 6abb 013b d0c8 d1ba 7337 d23a
000001d0: e32b cfba bed0 6ebb 89b0 143c 4945 943b
000001e0: 9fe6 74bb 3926 f7ba 3c46 fdb9 1afd a13b
000001f0: 70cd d63b aa20 16bb e882 423a fb9b 95bb

action_model._continuous_distribution.log_sigma f4 [1, 3]
0.0030460884 -0.0030191983 0.0019766907
00000000: e2a0 473b bedd 45bb 5e8b 013b

action_model._continuous_distribution.mu.weight f4 [3, 128]
0.01867655 -0.0037378792 0.02962814 -0.009028366 -0.0050454605 -0.013960109 -0.0064150873 0.023857256
-0.04574012 0.008174486 0.018997755 0.026790144 -0.010364685 -0.025290987 -0.020029081 -0.029844085
-0.044708792 0.009528744 0.0116859125 -0.012701916 0.017642172 0.02482323 -0.0033180378 0.01984894
-0.0017176599 -0.02132262 0.014908316 -0.0022851648 0.009426053 0.013262138 0.006565232 -0.043352593
0.016414044 -0.021564214 -0.0016750146 0.036636006 -0.008381815 0.043537475 -0.008328149 0.0068149604
-0.011697885 -6.774169e-05 0.0017430992 0.011406307 -0.041490633 0.020896446 -0.0023511976 -0.007485752
0.020318056 -0.015223295 -0.015908051 -0.0061732084 0.024100035 0.0061473954 -0.029504303 -0.01563754
-0.00060310465 0.027929213 0.0064693857 0.004122669 -0.010641946 0.007084683 0.021828255 -0.016859114
-0.0025054577 -0.0057858806 -0.01321474 -0.006639744 0.0050043077 -0.019785466 -0.0061857863 0.020662881
0.01946479 -0.0020206594 -0.018329384 0.025475407 0.038722917 0.032818805 0.01398049 0.0017891936
-0.0189717 -0.0045573623 0.02115329 0.010448791 0.024562329 0.0028469395 -0.018482791 0.0043790797
-0.014920288 -0.0022251992 0.01448321 -0.009454234 0.014156762 0.027194982 0.00054958893 0.035010304
-0.0269152 0.0019029907 -0.002181372 0.005269451 -0.006357501 0.013335489 -0.016292198 -0.00324505
-0.00011169139 0.013649304 -0.025943344 -0.039148755 0.00698659 -0.019811733 -0.0032220264 -0.045846354
0.025365042 -0.02372104 0.023051267 -0.022216987 0.012819424 -0.011277378 0.0010237633 -0.011454193
0.000530035 0.009365994 0.0054613156 0.015589879 0.004748535 -0.008378594 0.022330968 0.014071833
0.0006137211 -0.015771655 -0.005999505 -0.014888753 -0.01173954 0.030215956 0.0018972608 0.011911513
-0.022454634 0.0031084383 0.026611725 0.0027825632 0.015503627 -0.02703869 -0.012512867 0.022051398
-0.012895064 0.00053360796 0.023125902 0.00014900469 0.01213558 -0.008868144 -0.011679228 0.025413597
0.0017809055 0.01537053 -0.038530044 -0.0070038536 0.014607077 0.0075985137 -0.03235789 0.0037715514
-0.013834957 -0.030772038 -0.0054018456 0.05231584 0.021294447 0.023193747 -0.023946155 -0.012950533
-0.00160873 -0.0034121007 0.0074242232 0.008357753 0.011265082 0.02053287 0.0013987389 -0.0064703687
-8.3511695e-05 -0.003120936 -0.007525038 0.002628126 -0.0066073346 0.0037246495 -0.019856907 0.01766087
-0.011071015 0.00600253 -0.016275814 -0.023522262 -0.018621823 0.03293533 0.00034985945 -0.0073051527
-0.020327892 -0.02790582 -0.022146773 0.022537693 -0.010199166 0.001571773 0.0029483093 0.0017096995
0.020093223 0.014074036 0.018796455 0.022018299 0.025903936 0.004134618 -0.0005005484 0.014920063
0.012438174 -0.022537244 -0.034311656 -0.027699308 -0.017718568 0.008582984 0.0035312942 -0.005272105
0.026236847 0.00052792695 -0.055731546 0.018158285 -0.02881996 -0.025390934 -0.011375602 0.010483526
0.01651329 -0.010684038 -0.002332625 0.00012827599 0.00064090197 -0.018138386 -0.0025448524 0.000103468934
0.0075184656 0.025078606 -0.0009989876 0.025989607 0.009138835 -0.010446817 -0.006566895 -0.0002397919
0.0039057815 0.023318613 -0.0090307295 0.016451055 -0.014043562 0.0018588279 -0.0009960791 0.02321782
-0.024613392 -0.014595306 0.00021131124 0.031730067 0.013744581 -0.019257504 -0.010851054 -0.041532196
00000000: 90ff 983c 35f7 74bb b7b6 f23c b6eb 13bc
00000010: 6454 a5bb f1b8 64bc a735 d2bb 4b70 c33c
00000020: fe59 3bbd 48ee 053c 2ea1 9b3c 0177 db3c
00000030: a4d0 29bc 0b2f cfbc 0714 a4bc 957b f4bc
00000040: 9120 37bd 731e 1c3c 4576 3f3c b21b 50bc
00000050: 5186 903c 165a cb3c 7073 59bb 3f9a a23c
00000060: 1a23 e1ba c6ac aebc 0242 743c b4c2 15bb
00000070: bb6f 1a3c 7049 593c 2821 d73b 7d92 31bd
00000080: bf76 863c 6fa7 b0bc 2a8c dbba a30f 163d
00000090: e153 09bc 5a54 323d ca72 08bc 0850 df3b
000000a0: 7ca8 3fbc 8b10 8eb8 b478 e43a 85e1 3a3c
000000b0: 15f2 29bd 062f ab3c 8d16 1abb 0a4b f5bb
000000c0: 0d72 a63c 216b 79bc 9a51 82bc a048 cabb
000000d0: 706d c53c 1770 c93b 02b3 f1bc 4c1a 80bc
000000e0: ab19 1eba cecb e43c 24fd d33b 7417 873b
000000f0: 8f5b 2ebc a126 e83b 2bd1 b23c 201c 8abc
00000100: 9b32 24bb 7c97 bdbb a382 58bc 3692 d9bb
00000110: 2dfb a33b 2115 a2bc 23b2 cabb 3445 a93c
00000120: a074 9f3c 0a6d 04bb 8127 96bc cdb1 d03c
00000130: ec9b 1e3d 036d 063d 6d0e 653c 6083 ea3a
00000140: 8a6a 9bbc ed55 95bb aa49 ad3c 6831 2b3c
00000150: f036 c93c b893 3a3b 3969 97bc 627e 8f3b
00000160: 3974 74bc a6d4 11bb fc4a 6d3c eee5 1abc
00000170: c3f1 673c 03c8 de3c 4a12 103a f766 0f3d
00000180: 447d dcbc c66d f93a 59f5 0ebb 5cab ac3b
00000190: 9552 d0bb 187d 5a3c 3777 85bc e8aa 54bb
000001a0: dc3b eab8 55a1 5f3c 2387 d4bc 725a 20bd
000001b0: c4ef e43b 374c a2bc a228 53bb 63c9 3bbd
000001c0: 59ca cf3c a052 c2bc 03d6 bc3c 6600 b6bc
000001d0: 9008 523c c0c4 38bc cc2f 863a 5eaa 3bbc
000001e0: 0cf2 0a3a d373 193c d6f4 b23b b16c 7f3c
000001f0: 9999 9b3b 5f46 09bc 6fef b63c 8c8d 663c
00000200: 20e2 203a 8f33 81bc 7f97 c4bb f5ef 73bc
00000210: 3357 40bc 7487 f73c 82ad f83a 8228 433c
00000220: c8f2 b7bc f1b6 4b3b d500 da3c aa5b 363b
00000230: ed02 7e3c 3e80 ddbc c502 4dbc 22a5 b43c
00000240: d245 53bc d3e1 0b3a 8872 bd3c 243e 1c39
00000250: 50d4 463c b14b 11bc 3c5a 3fbc 2d30 d03c
00000260: 466d e93a add4 7b3c aed1 1dbd 9580 e5bb
00000270: 8652 6f3c f4fc f83b b589 04bd 222c 773b
00000280: 04ac 62bc a415 fcbc f701 b1bb 2249 563d
00000290: b171 ae3c d000 be3c ba2a c4bc 792e 54bc
000002a0: 05dc d2ba 8d9d 5fbb e646 f33b f5ee 083c
000002b0: 2e91 383c 8d34 a83c e455 b73a 6305 d4bb
000002c0: 0023 afb8 9e88 4cbb 9894 f6bb a33c 2c3b
000002d0: 5782 d8bb 4019 743b f4aa a2bc 87ad 903c
000002e0: 3463 35bc dfb0 c43b db54 85bc c2b1 c0bc
000002f0: cb8c 98bc 32e7 063d 576d b739 1060 efbb
00000300: ae86 a6bc bf9a e4bc 266d b5bc f8a0 b83c
00000310: 671a 27bc f303 ce3a 6c38 413b ff17 e03a
00000320: 8b9a a43c c996 663c 06fb 993c b85f b43c
00000330: 7e34 d43c b17b 873b 3c37 03ba 4873 743c
00000340: 7cc9 4b3c 07a0 b8bc 618a 0cbd a9e9 e2bc
00000350: 8826 91bc a59f 0c3c 496d 673b 9fc1 acbb
00000360: a8ee d63c 9464 0a3a c346 64bd afc0 943c
00000370: d617 ecbc a600 d0bc bc60 3abc 18c3 2b3c
00000380: e146 873c 1a0c 2fbc f4de 18bb d381 0639
00000390: 3402 283a f496 94bc 8ac7 26bb 76fd d838
000003a0: 765d f63b a671 cd3c 76f0 82ba 28e8 d43c
000003b0: 0dbb 153c 2029 2bbc 1c2f d7bb a670 7bb9
000003c0: 24f8 7f3b ad06 bf3c a0f5 13bc 5dc4 863c
000003d0: f816 66bc eaa3 f33a de8e 82ba 4c33 be3c
000003e0: 06a2 c9bc 2621 6fbc 6e93 5d39 63f7 013d
000003f0: f330 613c eac1 9dbc 9fc8 31bc aa1d 2abd

action_model._continuous_distribution.mu.bias f4 [3]
0.0015871794 0.0052436385 -2.7330181e-05
00000000: e708 d03a d4d2 ab3b 1e43 e5b7

action_model._discrete_distribution.branches.0.weight f4 [2, 128]
-0.0007220903 0.0033925995 -0.013950016 -0.002635179 0.004876203 0.0031418542 0.006258001 -0.006441964
0.004412008 -0.00090111536 -0.019296773 -0.008937095 0.0054036546 0.0023351547 0.010950131 -0.005477328
-0.008424233 0.006448135 0.014859839 -0.0124454545 0.015777133 0.0021785009 -0.029385779 0.007947155
0.016046373 0.014379695 -0.00791277 0.009038725 -0.0056708693 0.008113661 -0.015627138 0.010116315
0.014942008 -0.006768673 0.013511424 0.0010402764 -0.008879654 0.004077417 0.0039592474 0.0040810565
-0.00925475 0.005077331 0.0008571382 -0.01185161 0.0070954054 0.009465312 0.02619139 0.008647979
0.011082508 0.0039402964 -0.017003732 0.009171328 -0.016641546 0.01664537 0.006195627 0.0123505
-0.01444618 0.006521741 0.000115505914 -0.015649475 -0.004400003 -0.015489987 -0.0071420413 0.007834461
-0.0051379963 0.005815466 0.012883087 0.013575093 0.0020163634 -0.011558732 0.016170062 -0.013037968
-0.0057374984 -0.012631039 0.013052986 -0.00029634073 -0.010038498 -0.020267116 0.0038782146 -0.00046166423
0.01269922 -0.004587447 -0.00022277379 0.011484344 -0.019670082 0.010711439 -0.0051268106 -0.006884421
0.0010191968 0.0038584028 -0.004773581 -0.015616593 0.0036209556 0.01897761 0.0018566243 0.011643668
0.0023601186 0.01161007 0.0054857843 -0.0014739851 0.0013233996 0.0027636588 0.0067045214 -0.014816523
0.0062394002 -0.01191586 0.00880152 0.005218583 -0.007978697 -0.01991403 -0.0035589205 -0.008074701
-0.008629801 -0.0131911645 -0.016040094 -0.00801122 -0.0035177777 -0.0029709265 0.0053213597 0.0013965626
0.009559281 -0.0055260244 -0.023344528 -0.0048905453 -0.0019190158 -0.0018989808 0.0012234751 0.0038050525
-0.0104777375 0.0063948603 -0.004172706 0.018468104 0.0035190268 -0.014993827 0.00179678 0.004496125
0.012283803 -0.0013711038 0.00027343186 -0.0036215954 -0.0026353395 0.00071333756 -0.007888669 -0.01893451
-0.018392654 -0.0041114492 0.0075463955 0.017761739 -0.00060906104 0.0086717745 0.0078478325 0.022779696
-0.0057945987 0.009405064 0.008231831 0.0006176234 0.014485991 -0.01063708 0.010972061 -0.008262627
-0.0042181057 -0.0044535776 0.0025131442 0.002508625 -0.002377757 -0.0023813664 -0.007884865 -0.019680878
-0.013784268 -0.00397983 -0.004116668 0.01050128 -0.01645579 -0.0061519793 0.00016790416 -0.0024378009
-0.016560208 0.0059096618 0.003591724 -0.0066968817 0.0062748017 0.014645965 0.0059310663 0.005287242
0.010199403 -0.0011420841 -0.029400298 -0.002798846 -0.0143682845 0.002308267 0.00921576 0.0037769661
0.0067742066 -0.0057412353 -0.016581014 0.014880403 0.0020886068 -0.0040164613 0.010962767 -0.0010372289
-0.017595068 0.01041752 0.004488665 -0.012671078 0.021614674 0.00060860754 -0.0042317905 -0.008221052
-0.009594516 0.017618176 0.0040975693 0.004699174 0.008932466 -0.016227111 0.014359067 -0.022078678
0.0024573393 0.0034359118 -0.0311014 -0.0057526333 0.024407355 0.0007515467 -0.017417341 -0.012908719
-0.004314773 0.00014661637 -0.005937587 0.009768063 0.017517 0.009080173 0.004051493 -0.010227385
-0.010786242 0.021108072 0.005769118 -0.0014670633 0.005375605 0.018953219 -0.014512826 -0.0033437486
0.014226793 -0.017645659 0.014538318 0.01220754 0.020244619 0.0035796114 0.01298206 0.008635528
0.019232374 0.011402822 -0.0027897877 -0.009492974 -0.0068117715 -0.0025845307 -0.001003587 -0.010804282
00000000: a94a 3dba 6056 5e3b 9c8e 64bc f8b2 2cbb
00000010: 8ec8 9f3b 91e7 4d3b eb0f cd3b 1c17 d3bb
00000020: 9b92 903b d438 6cba 4414 9ebc e56c 12bc
00000030: 2411 b13b 6509 193b 2e68 333c 287b b3bb
00000040: cb05 0abc e04a d33b af76 733c 05e8 4bbc
00000050: 0c3f 813c 2ec5 0e3b 72ba f0bc c934 023c
00000060: af73 833c d098 6b3c 90a4 01bc 2917 143c
00000070: b3d2 b9bb 29ef 043c 7c04 80bc e7be 253c
00000080: 53cf 743c bfcb ddbb 055f 5d3c e259 883a
00000090: f87b 11bc da9b 853b 93bc 813b 62ba 853b
000000a0: 3ca1 17bc bd5f a63b 92b1 603a 412d 42bc
000000b0: 9380 e83b 6514 1b3c 538f d63c 41b0 0d3c
000000c0: 6893 353c 9a1d 813b 694b 8bbc 5643 163c
000000d0: da53 88bc df5b 883c b004 cb3b c059 4a3c
000000e0: acaf 6cbc 54b4 d53b c43b f238 5433 80bc
000000f0: e62d 90bb b7c9 7dbc c907 eabb 1c5c 003c
00000100: a35c a8bb aa8f be3b 9513 533c 116a 5e3c
00000110: f724 043b d660 3dbc 1477 843c 349d 55bc
00000120: a001 bcbb 6bf2 4ebc 31dc 553c 2e5e 9bb9
00000130: 8378 24bc 3907 a6bc a529 7e3b 860b f2b9
00000140: 6410 503c 4b52 96bb 6298 69b9 d428 3c3c
00000150: 2723 a1bc 087f 2f3c cefe a7bb b696 e1bb
00000160: 9296 853a 42dd 7c3b b36b 9cbb bddc 7fbc
00000170: 8e4d 6d3b ef76 9b3c f959 f33a 15c5 3e3c
00000180: 38ac 1a3b 2a38 3e3c 18c2 b33b bc32 c1ba
00000190: ec75 ad3a 801e 353b 9ab1 db3b 00c1 72bc
000001a0: e273 cc3b bd3a 43bc 4034 103c a600 ab3b
000001b0: 15b9 02bc bf22 a3bc c73c 69bb c04b 04bc
000001c0: 0264 0dbc c11f 58bc 8466 83bc 7e41 03bc
000001d0: 848a 66bb e0b3 42bb cd5e ae3b dd0c b73a
000001e0: 889e 1c3c a713 b5bb 063d bfbc de40 a0bb
000001f0: 7c87 fbba 39e7 f8ba 035d a03a 305e 793b
00000200: d1aa 2bbc fa8b d13b 32bb 88bb 6c4a 973c
00000210: 799f 663b aba8 75bc ef81 eb3a 3b54 933b
00000220: 0142 493c 9cb6 b3ba 675b 8f39 4a58 6dbb
00000230: a9b5 2cbb 46ff 3a3a 7a3f 01bc 8c1c 9bbc
00000240: 31ac 96bc 56b9 86bb c147 f73b 1181 913c
00000250: 65a9 1fba 0f14 0e3c 3294 003c 7c9c ba3c
00000260: 9ee0 bdbb b317 1a3c cdde 063c 01e8 213a
00000270: a656 6d3c 2647 2ebc 29c4 333c f85f 07bc
00000280: 0938 8abb 51ef 91bb 90b3 243b be67 243b
00000290: 25d4 1bbb b310 1cbb 852f 01bc cb39 a1bc
000002a0: 69d7 61bc 3c69 82bb 1de5 86bb 900d 2c3c
000002b0: 4bce 86bc 8b96 c9bb 6e0f 3039 83c3 1fbb
000002c0: 46a9 87bc d6a5 c13b 2163 6b3b 8471 dbbb
000002d0: da9c cd3b a1f5 6f3c 6459 c23b 9a40 ad3b
000002e0: 661b 273c fcb1 95ba e5d8 f0bc d86c 37bb
000002f0: f468 6bbc 4b46 173b b3fd 163c fa86 773b
00000300: 2afa dd3b f920 bcbb e8d4 87bc efcc 733c
00000310: 02e1 083b 859c 83bb 2d9d 333c a0f3 87ba
00000320: 8823 90bc 3fae 2a3c a715 933b 5a9a 4fbc
00000330: 4211 b13c f68a 1f3a d5aa 8abb 97b1 06bc
00000340: 5132 1dbc fe53 903c e744 863b 87fb 993b
00000350: 7a59 123c b8ee 84bc 4b42 6b3c 58de b4bc
00000360: 500b 213b 092d 613b 5dc8 febc 9680 bcbb
00000370: eff1 c73c 7203 453a d0ae 8ebc 177f 53bc
00000380: f062 8dbb 08bd 1939 1790 c2bb 3a0a 203c
00000390: d07f 8f3c 02c5 143c 63c2 843b c390 27bc
000003a0: c7b8 30bc d6ea ac3c df0a bd3b 7a4a c0ba
000003b0: d825 b03b c843 9b3c 34c7 6dbc cb22 5bbb
000003c0: 7f17 693c a18d 90bc 2032 6e3c 2202 483c
000003d0: 0bd8 a53c ea97 6a3b b5b2 543c 087c 0d3c
000003e0: 368d 9d3c e7d2 3a3c dfd4 36bb 6b88 1bbc
000003f0: 4835 dfbb 3b61 29bb cb8a 83ba 7104 31bc

action_model._discrete_distribution.branches.0.bias f4 [2]
-0.004216051 0.0042160517
00000000: cd26 8abb ce26 8a3b
