Assets/Learning/SmartRollABall/results/test001/SmartRollABall/SmartRollABall-0.pt (torch, 186555 bytes, 14 tensors)

network_body._body_endoder.seq_layers.0.weight f4 [128, 40]
00000000: 1c25 fe3d 9a2c e3bd ffaf c5bd 7ade 4f3e
00000010: 5c18 06bd fc30 ba3d 01ab 693c e336 313e
00000020: 0933 7b3e 2e46 61be 7d5a 4dbe 595d e7be
00000030: 5171 10be 75ff f2bd dae7 83bd eb22 c03d
00000040: f63d a5bd 8546 883d 33f1 be3d 7f7c 1b3c
00000050: 2108 4abd 8655 403e db04 283e c7fe ef3d
00000060: e5f2 9d3d ea91 6bbd 0396 123e 504d b13d
00000070: 4850 35bd cfab fa3d 7f21 06be 2d43 74bd
00000080: faf8 8c3e aac7 603e 9adc a8bb 179e 103d
00000090: 32c8 633e 9c6c 1ebe 0215 493e 8785 dbbc
000000a0: 0dde a03c 9d6e a43b 34d3 0bbe 9425 79be
000000b0: d470 5b3d bfa8 a8bd b76d 2b3d 48f3 553e
000000c0: a25e 8d3e aeb5 3cbe 6c75 57bd 1970 39be
000000d0: 8f3f 28be 3d1a 22be d7a6 86bd 92fc ce3d
000000e0: 3f29 603e 0b9a e03b 99f2 40be ed50 1d3e
000000f0: 655a 01bc 61a9 fcbd 3189 8abd 5274 ecbd
00000100: 9221 9a3d f70c 843e 5aea 6a3d ac1f c0bc
00000110: bfaf b53c 1a84 30be 9f01 45bd 6d71 7c3e
00000120: 9c9e 0cbe d32f b2bd 8d63 04be 6095 f8bd
00000130: ae48 46be ab97 183d 4c88 593e f152 203c
00000140: 5959 a3bb caa3 9c3e 5393 193e 14cb 48bc
00000150: 2a30 ad3d 08cc 903e 859b c1bb 49f4 2d3d
00000160: 2d85 e7bc 94f1 573d 9bcc d7bc a19e 153e
00000170: d2eb dc3d 1eef 5e3d 9eef 1ebe 48d9 9abd
00000180: 604c 00bd e2e9 18be 5f5c 7dbd 1aff 863e
00000190: 0380 a43d 3bc3 c1be 93be 37be 9917 3a3d
000001a0: 4496 a3be e91f 75be 993d d33c f2ad a53d
000001b0: a95a c6bd 71d0 9abc 539e a33c ab77 bd3c
000001c0: a5c8 a33d ca51 85bd 057a ba3d 458e 9b3e
000001d0: 1b55 173d 1bf4 1bbe 556d c7bc 56a4 d83d
000001e0: 9ece bebd 0bd1 dfbd 7753 793e a263 06bd
000001f0: d9df 6f3e 965c b5bd dd36 b1bd 98ae 58bd
00000200: d5bf d6bd ea89 00be 3326 e23d 0122 5fbc
00000210: 19c8 42bd 3bee 6cbd bf7c efbc 4886 833c
00000220: 9742 01be d7c9 9bbc 168e dfbd 15ad 85be
00000230: df6a 09be cb99 d5bd 3509 5dbd 5c94 91be
00000240: e147 ec3d 0e58 01be 3817 503d faf4 90bd
00000250: df70 26be b4d9 3b3d a805 7c3d 1473 0ebd
00000260: 8489 6b3e bdbb 41be 602f 4e3e 662a 8abc
00000270: 8e12 9ebd b8eb 92be e074 66be 4472 103e
00000280: e4f7 843e 0432 ac3e f2d8 203e 9b64 10be
00000290: f07b 5b3e 2576 7c3d b595 97be 9071 9bbe
000002a0: 1cef 2bbd 8376 e63d 542a 64be fa44 4bba
000002b0: 90c3 853e 1926 0c3d e211 f13a a60b 373c
000002c0: 4ff1 fa3c db87 903e 13f2 a23d 6da0 153e
000002d0: e2f0 8e3e cd74 093d ee42 013e 6d4d 2cbe
000002e0: c862 acbe ee03 8dbd 9a59 ec3d bf0f 803e
000002f0: 1b68 33be 803f a03d 7b18 173e d571 d53d
00000300: bfef e93d e88b 053d 2210 adbe e983 7cbd
00000310: 0934 6dbe d795 c53d 2b5b af3c 2774 aabd
00000320: 1f25 23bc 76f5 51be f01b 12be 0b92 53bd
00000330: 83cf 8e3d 3ad8 ab3d 4136 93be f8ef 06be
00000340: e578 1dbd 8553 163c 3b31 cf3d 476d 133e
00000350: 361b 3d3d b398 d23d c9cf 46be 49fb 43bd
00000360: 978a fa3d 6feb a03d 537f 72be 5c66 113d
00000370: 0253 cdbd 1359 b2ba 0b06 973d 2f35 88bd
00000380: 6bf7 15be 86a5 4e3d 9b0d 89bb f1d4 8f3d
00000390: 08ed 293e c19a 15be acd9 acbd c6c2 7abb
000003a0: 2b60 0b3e b094 2f3e 0603 aabd d314 a4bd
000003b0: f6c1 b5bc c494 873d 10d0 093e c2e6 103d
000003c0: 5d0b b6bd 8eae f03c 752e 313e 3e53 c3be
000003d0: fc06 3b3e 7364 5eba 492d 663e 0f8e 1e3d
000003e0: e645 87bd 320f dc3d bf5c 0d3c f650 b4bd
000003f0: 2e56 d23d 30a5 96bc 27f8 e83c d849 913d
0.12409422 -0.110924914 -0.09652709 0.20299712 -0.032738075 0.09091374 0.014261962 0.17306094
0.24531187 -0.21999428 -0.2005405 -0.45188406 -0.14105727 -0.11865131 -0.064407066 0.0938166
-0.08068459 0.066540755 0.09323349 0.009490131 -0.04932416 0.18782625 0.16408102 0.11718517
0.07712344 -0.0575122 0.14315037 0.08657324 -0.044266015 0.12239801 -0.13098715 -0.059634376
0.27533704 0.21951166 -0.005153251 0.035307016 0.22244337 -0.15471119 0.1963692 -0.02679707
0.019637132 0.005018069 -0.13654786 -0.24330741 0.0535744 -0.08235311 0.04185268 0.20893586
0.27611262 -0.1842868 -0.052602217 -0.18109168 -0.16430496 -0.15830322 -0.06574791 0.10106768
0.21890734 0.006854301 -0.18842544 0.15362902 -0.007895087 -0.12336994 -0.067644484 -0.11545624
0.07525934 0.2579114 0.0573524 -0.023452602 0.022178529 -0.17237893 -0.04809725 0.24652644
-0.1373238 -0.08700528 -0.129286 -0.12137866 -0.19363663 0.037254017 0.212434 0.0097854
-0.0049850163 0.3059371 0.14997606 -0.012255449 0.08456452 0.28280663 -0.005908432 0.042469297
-0.028261745 0.05272062 -0.02634268 0.14611293 0.10787167 0.05442726 -0.15521094 -0.07560974
-0.031322837 -0.14932969 -0.06185567 0.26366502 0.08032229 -0.37844262 -0.17943792 0.04543266
-0.3195058 -0.23937954 0.025786208 0.08089818 -0.09685261 -0.01889822 0.019972956 0.023128351
0.07997254 -0.06509741 0.09105305 0.3038198 0.036946397 -0.15229838 -0.024344126 0.105782196
-0.09316753 -0.10928544 0.24348246 -0.03280986 0.23425235 -0.0885555 -0.086530425 -0.05290088
-0.10485808 -0.1255261 0.11042442 -0.013618947 -0.04755411 -0.05784438 -0.029234288 0.016055241
-0.12623058 -0.019017143 -0.109157726 -0.26108614 -0.13419674 -0.10429724 -0.05396386 -0.28433502
0.11537147 -0.12631246 0.050803393 -0.070779756 -0.16253994 0.045861915 0.06152883 -0.034777716
0.23001677 -0.18919273 0.2013526 -0.01686592 -0.07718383 -0.28695464 -0.22505522 0.14106089
0.25970376 0.3363191 0.15707758 -0.14100878 0.21433997 0.06163611 -0.29606405 -0.3036008
-0.04197608 0.11253073 -0.22281772 -0.0007754114 0.26125765 0.03421602 0.001839217 0.011172211
0.030632643 0.2822865 0.07956328 0.14611979 0.27918154 0.033558656 0.12623188 -0.1682641
-0.33669114 -0.06885515 0.11540528 0.25012013 -0.17520182 0.07824612 0.14755432 0.10422102
0.11422681 0.032604128 -0.3380137 -0.061649237 -0.23164381 0.0964772 0.021405777 -0.083229356
-0.009957581 -0.20503792 -0.1426847 -0.05165295 0.069731735 0.08390851 -0.2875233 -0.13177478
-0.038445372 0.009175186 0.10116812 0.14397155 0.04616853 0.10283031 -0.19415201 -0.047847066
0.12233465 0.078574054 -0.23681383 0.035498008 -0.10025598 -0.0013606868 0.073741995 -0.06650769
-0.14645164 0.050450824 -0.00418253 0.07023037 0.16594326 -0.14609815 -0.08439955 -0.0038263067
0.13610904 0.17146564 -0.08301358 -0.080117844 -0.022187214 0.06620172 0.13458276 0.035376318
-0.08888886 0.02938011 0.17302878 -0.38149446 0.18264383 -0.0008483596 0.22478212 0.038709696
-0.06605129 0.10745086 0.008628069 -0.088045046 0.10270344 -0.018389314 0.02843864 0.07094163

network_body._body_endoder.seq_layers.0.bias f4 [128]
00000000: 0000 0000 0000 0000 0000 0000 0000 0000
00000010: 0000 0000 0000 0000 0000 0000 0000 0000
00000020: 0000 0000 0000 0000 0000 0000 0000 0000
00000030: 0000 0000 0000 0000 0000 0000 0000 0000
00000040: 0000 0000 0000 0000 0000 0000 0000 0000
00000050: 0000 0000 0000 0000 0000 0000 0000 0000
00000060: 0000 0000 0000 0000 0000 0000 0000 0000
00000070: 0000 0000 0000 0000 0000 0000 0000 0000
00000080: 0000 0000 0000 0000 0000 0000 0000 0000
00000090: 0000 0000 0000 0000 0000 0000 0000 0000
000000a0: 0000 0000 0000 0000 0000 0000 0000 0000
000000b0: 0000 0000 0000 0000 0000 0000 0000 0000
000000c0: 0000 0000 0000 0000 0000 0000 0000 0000
000000d0: 0000 0000 0000 0000 0000 0000 0000 0000
000000e0: 0000 0000 0000 0000 0000 0000 0000 0000
000000f0: 0000 0000 0000 0000 0000 0000 0000 0000
00000100: 0000 0000 0000 0000 0000 0000 0000 0000
00000110: 0000 0000 0000 0000 0000 0000 0000 0000
00000120: 0000 0000 0000 0000 0000 0000 0000 0000
00000130: 0000 0000 0000 0000 0000 0000 0000 0000
00000140: 0000 0000 0000 0000 0000 0000 0000 0000
00000150: 0000 0000 0000 0000 0000 0000 0000 0000
00000160: 0000 0000 0000 0000 0000 0000 0000 0000
00000170: 0000 0000 0000 0000 0000 0000 0000 0000
00000180: 0000 0000 0000 0000 0000 0000 0000 0000
00000190: 0000 0000 0000 0000 0000 0000 0000 0000
000001a0: 0000 0000 0000 0000 0000 0000 0000 0000
000001b0: 0000 0000 0000 0000 0000 0000 0000 0000
000001c0: 0000 0000 0000 0000 0000 0000 0000 0000
000001d0: 0000 0000 0000 0000 0000 0000 0000 0000
000001e0: 0000 0000 0000 0000 0000 0000 0000 0000
000001f0: 0000 0000 0000 0000 0000 0000 0000 0000
0.0 0.0 0.0 0.0 0.0 0.0 0.0 0.0
0.0 0.0 0.0 0.0 0.0 0.0 0.0 0.0
0.0 0.0 0.0 0.0 0.0 0.0 0.0 0.0
0.0 0.0 0.0 0.0 0.0 0.0 0.0 0.0
0.0 0.0 0.0 0.0 0.0 0.0 0.0 0.0
0.0 0.0 0.0 0.0 0.0 0.0 0.0 0.0
0.0 0.0 0.0 0.0 0.0 0.0 0.0 0.0
0.0 0.0 0.0 0.0 0.0 0.0 0.0 0.0
0.0 0.0 0.0 0.0 0.0 0.0 0.0 0.0
0.0 0.0 0.0 0.0 0.0 0.0 0.0 0.0
0.0 0.0 0.0 0.0 0.0 0.0 0.0 0.0
0.0 0.0 0.0 0.0 0.0 0.0 0.0 0.0
0.0 0.0 0.0 0.0 0.0 0.0 0.0 0.0
0.0 0.0 0.0 0.0 0.0 0.0 0.0 0.0
0.0 0.0 0.0 0.0 0.0 0.0 0.0 0.0
0.0 0.0 0.0 0.0 0.0 0.0 0.0 0.0

network_body._body_endoder.seq_layers.2.weight f4 [128, 128]
00000000: d8d8 9d3d 4289 f63c 59f0 febc e716 a1bd
00000010: 0e33 ca3d bbfb a8bc 1a8b 67bc 5d05 de3d
00000020: 52fc a4bd f463 92bd ab4f 283c 2b2c acbd
00000030: 471e 493d 9c96 82bd 612d 1ebb 2088 f53a
00000040: 8d16 983d 877a 853c d978 713e b61b 903b
00000050: a00a 523d 96d4 2abe 3e64 4dbd aa27 bc3c
00000060: 13a5 04bd 4f28 ff3c 2b1f 9fbd bf77 6dbd
00000070: f89f 06be d281 f03d 8ba8 2fbd ed89 28be
00000080: 7cfa 473d bdb1 4b3c e0d4 883d bd23 be3c
00000090: 6fd1 13bd b98a b3bc d0ac 303e 705a afbc
000000a0: 978c 943d 855c ee3b 1302 7c3b 753c 37bd
000000b0: 23aa 29bd b5b4 26bd d136 9ebd 5158 ca3d
000000c0: 0bb7 3d3d 841f efbd c8d2 e93d 1293 683d
000000d0: 2910 d3bd 60e9 ff3d 6d68 9fbd f1be fb3c
000000e0: c401 a53d e69a 51bb df89 85bd fef4 40bc
000000f0: e18c f4bb 429a 21bc 0b00 8cbd f97c 453d
00000100: 41a5 babc f1aa 97bd 7c5a 7f3d 56ff 843d
00000110: 1b61 1ebd ecd6 173e 6a40 89bd 501c d03c
00000120: 6834 d63d fa67 48bd d41d 8bbd ce96 d2bc
00000130: 1e21 f33c b238 9dbd eb15 793d c1a1 00bc
00000140: 53b0 0c3e bbe8 b2bd 8d02 d5bd e09b 9abd
00000150: 0c59 b73d 76fd 6dbb 3b3a c13d 0f80 52be
00000160: 6d23 04bd f2e4 dbbd 5cad f8bd 9039 ed3d
00000170: fa0b 143e 79f4 0cbb 1621 e7bd f2de fbbd
00000180: e1a5 1bbd d801 1b3d 4068 31bd 099b 073e
00000190: 8939 323c 8585 f13c 7f6c c8bc b44e 463c
000001a0: 052e 5bbc ba1e e43c 21dc c6bd 62c0 0ebd
000001b0: 30f3 813c 165a 273e fbe1 85bd c6af 1a3e
000001c0: a4fa 73bc 7d2f 18bd 8227 d5bc 8835 bebd
000001d0: b10d 1d3d dcf2 43be b00c 5cbd 4c0e d93d
000001e0: 77aa e53b 94d9 debb b6f2 fb3b 1ae1 4a3d
000001f0: 0c1a 26bd 64bd 663d b341 33bb a9dc 203e
00000200: d42d 8d3c c1a3 b63c 02b0 57bd 423d 8c3d
00000210: 0446 54bd d099 9d3d 3fe2 45bc 1296 91bb
00000220: ff66 23bc 04a3 a3bc e55f 16be 88c7 fbbb
00000230: 64f1 c33c 83ab e4bc 5e98 d13d 5684 4ebd
00000240: 1e6a 26be a174 283c 9b7b 0abd dbb2 d63d
00000250: a70f aebd c106 c63c 4822 b5bd 2775 353d
00000260: 9571 bf3b 59a5 e43d a312 aebd a477 0b3e
00000270: 1f6a cfbd bafc fe3d 345c 203e 3b03 cb3b
00000280: 2bc8 4ebd 8d2b 2a3e 254d 57bd d919 3cbc
00000290: a21e b23d 1664 17be 020c d7bd 7a66 bc3d
000002a0: b925 863c 5f74 a4bd 4825 043d d634 8f3b
000002b0: 63ff f83c 56e3 693d 57ba 623d a3ee 723d
000002c0: bd6e 383c e6f0 e1bb 26f6 573c f7bd febd
000002d0: 641f acbb 936f 20be a547 49bc f3ee ce3c
000002e0: 73b7 42bd a437 c9bd 62bd bbbb 4f00 01bd
000002f0: 444f ab3d 73ac 6c3d 0b0b 5d3e 9e07 113e
00000300: 2d34 df3c fdc3 963d fe21 293c b05d 3dbe
00000310: 1b0d 453d 2adb e53c 1dff b23d 824b 66bc
00000320: 164b b73d 2992 38be 1cc2 e53d 28c5 093e
00000330: 3f86 18be 7919 dd3c a936 0f3d 2731 acbd
00000340: bb08 fbbc 2c38 01bd 50cc 1fbd 8827 063e
00000350: 9223 103d 233f a53c 08c0 87bd 3f7c 2f3c
00000360: c3a0 a9bd 0628 1a3e 95a2 7f3c 3339 2bbd
00000370: 9db3 da3c bf52 713d 90f0 553d a30e 66bd
00000380: f53e a8bd 211b c3bb 030c 2d3c c9ba 9abc
00000390: ef4d 52bd b7fc 103e bfdd 9e3d 13ee df3d
000003a0: c968 40be c768 29bd c7ce 0e3d 7ba1 b1bc
000003b0: 8962 c83d 9a9a 22bd bfc7 a7bd eedb a73d
000003c0: ceb3 8d3d b83c 21bd 5fdc 253d 454b 1b3c
000003d0: 2e66 573c 8952 803d e9d8 c5bd cf3a bfbd
000003e0: 277e dbbd f2e7 8d3c cf56 f9bc 5483 ad3d
000003f0: 2c74 413d cf8d 9fbd 383f 463d 938a de3d
0.07707375 0.030094747 -0.031120466 -0.078656964 0.09873019 -0.020627847 -0.0141322855 0.10840867
-0.08055939 -0.07147971 0.010272901 -0.08406862 0.04910114 -0.06376383 -0.0024135935 0.0018732585
0.07426176 0.016293777 0.23581256 0.0043978347 0.051279664 -0.16682658 -0.050144427 0.022968132
-0.03238399 0.03114715 -0.07769617 -0.057975527 -0.1314696 0.11743511 -0.042885344 -0.16458865
0.048822865 0.012432513 0.06681228 0.0232104 -0.036088403 -0.021916734 0.17253423 -0.021405429
0.07253378 0.007274213 0.0038453385 -0.04473539 -0.04142202 -0.04069968 -0.07725299 0.09880126
0.04631714 -0.11675933 0.114171565 0.056780882 -0.10305817 0.124956846 -0.077835895 0.030730696
0.080569774 -0.0031983196 -0.065204374 -0.011777161 -0.007463083 -0.009863438 -0.06835946 0.048214886
-0.022783877 -0.07405651 0.062342152 0.06494014 -0.038666826 0.1482808 -0.06701739 0.025404125
0.104592144 -0.048927285 -0.06792799 -0.025706675 0.029678877 -0.076768294 0.06081192 -0.007851065
0.13739137 -0.08735796 -0.10400877 -0.07549262 0.08952531 -0.0036314405 0.09434935 -0.20556663
-0.032260347 -0.10737027 -0.12142441 0.11583245 0.14457694 -0.0021508022 -0.112856075 -0.12298383
-0.03799999 0.037843555 -0.04331231 0.13242735 0.010877975 0.029482612 -0.024465797 0.012103725
-0.013377671 0.027846683 -0.09709955 -0.03485144 0.015863031 0.16342959 -0.06537243 0.15106115
-0.0148913 -0.037154663 -0.026019815 -0.09287554 0.038343135 -0.19135612 -0.053723037 0.1059843
0.0070088464 -0.0068008397 0.0076888455 0.04953108 -0.040552184 0.05633296 -0.0027352392 0.15709175
0.017233767 0.02229488 -0.05265809 0.068476215 -0.051824585 0.07695353 -0.012077867 -0.0044429386
-0.009973287 -0.019975193 -0.14685018 -0.007683698 0.023918815 -0.027913814 0.1023414 -0.050419174
-0.16251418 0.010281713 -0.033809286 0.10483333 -0.08499079 0.024173142 -0.08844429 0.04430118
0.0058423975 0.1116435 -0.084996484 0.13619858 -0.10127663 0.124505475 0.15660173 0.0061954535
-0.050483864 0.16618176 -0.052563805 -0.011480772 0.08697249 -0.14784274 -0.10500337 0.09199233
0.01637541 -0.080300085 0.032262117 0.004370312 0.030395215 0.05710157 0.05535349 0.059309613
0.011256871 -0.0068951724 0.013181245 -0.12438577 -0.0052527655 -0.15667562 -0.012285148 0.025260424
-0.047538232 -0.09825066 -0.0057293633 -0.031494435 0.08364728 0.057781648 0.21586244 0.14163062
0.027246559 0.073616005 0.010323046 -0.1849277 0.0481082 0.028058607 0.08740065 -0.014056088
0.089498684 -0.18024506 0.11218664 0.13454115 -0.14894961 0.026989685 0.034964237 -0.084078126
-0.030643811 -0.03154771 -0.039013207 0.13101017 0.035190172 0.020171707 -0.06628424 0.010710775
-0.08282616 0.1505433 0.015602727 -0.041802596 0.026696974 0.058916803 0.05223137 -0.056166302
-0.08215133 -0.0059541618 0.010561946 -0.018887894 -0.051343855 0.14158903 0.077571385 0.10934081
-0.18789972 -0.04135969 0.034865167 -0.021683445 0.09784419 -0.03969822 -0.081923954 0.08196245
0.06919061 -0.039364547 0.040493365 0.009478395 0.01314692 0.06265742 -0.09660513 -0.09337389
-0.10717421 0.017322514 -0.030436901 0.084723145 0.04722993 -0.0779072 0.048400134 0.10866275

network_body._body_endoder.seq_layers.2.bias f4 [128]
00000000: 0000 0000 0000 0000 0000 0000 0000 0000
00000010: 0000 0000 0000 0000 0000 0000 0000 0000
00000020: 0000 0000 0000 0000 0000 0000 0000 0000
00000030: 0000 0000 0000 0000 0000 0000 0000 0000
00000040: 0000 0000 0000 0000 0000 0000 0000 0000
00000050: 0000 0000 0000 0000 0000 0000 0000 0000
00000060: 0000 0000 0000 0000 0000 0000 0000 0000
00000070: 0000 0000 0000 0000 0000 0000 0000 0000
00000080: 0000 0000 0000 0000 0000 0000 0000 0000
00000090: 0000 0000 0000 0000 0000 0000 0000 0000
000000a0: 0000 0000 0000 0000 0000 0000 0000 0000
000000b0: 0000 0000 0000 0000 0000 0000 0000 0000
000000c0: 0000 0000 0000 0000 0000 0000 0000 0000
000000d0: 0000 0000 0000 0000 0000 0000 0000 0000
000000e0: 0000 0000 0000 0000 0000 0000 0000 0000
000000f0: 0000 0000 0000 0000 0000 0000 0000 0000
00000100: 0000 0000 0000 0000 0000 0000 0000 0000
00000110: 0000 0000 0000 0000 0000 0000 0000 0000
00000120: 0000 0000 0000 0000 0000 0000 0000 0000
00000130: 0000 0000 0000 0000 0000 0000 0000 0000
00000140: 0000 0000 0000 0000 0000 0000 0000 0000
00000150: 0000 0000 0000 0000 0000 0000 0000 0000
00000160: 0000 0000 0000 0000 0000 0000 0000 0000
00000170: 0000 0000 0000 0000 0000 0000 0000 0000
00000180: 0000 0000 0000 0000 0000 0000 0000 0000
00000190: 0000 0000 0000 0000 0000 0000 0000 0000
000001a0: 0000 0000 0000 0000 0000 0000 0000 0000
000001b0: 0000 0000 0000 0000 0000 0000 0000 0000
000001c0: 0000 0000 0000 0000 0000 0000 0000 0000
000001d0: 0000 0000 0000 0000 0000 0000 0000 0000
000001e0: 0000 0000 0000 0000 0000 0000 0000 0000
000001f0: 0000 0000 0000 0000 0000 0000 0000 0000
0.0 0.0 0.0 0.0 0.0 0.0 0.0 0.0
0.0 0.0 0.0 0.0 0.0 0.0 0.0 0.0
0.0 0.0 0.0 0.0 0.0 0.0 0.0 0.0
0.0 0.0 0.0 0.0 0.0 0.0 0.0 0.0
0.0 0.0 0.0 0.0 0.0 0.0 0.0 0.0
0.0 0.0 0.0 0.0 0.0 0.0 0.0 0.0
0.0 0.0 0.0 0.0 0.0 0.0 0.0 0.0
0.0 0.0 0.0 0.0 0.0 0.0 0.0 0.0
0.0 0.0 0.0 0.0 0.0 0.0 0.0 0.0
0.0 0.0 0.0 0.0 0.0 0.0 0.0 0.0
0.0 0.0 0.0 0.0 0.0 0.0 0.0 0.0
0.0 0.0 0.0 0.0 0.0 0.0 0.0 0.0
0.0 0.0 0.0 0.0 0.0 0.0 0.0 0.0
0.0 0.0 0.0 0.0 0.0 0.0 0.0 0.0
0.0 0.0 0.0 0.0 0.0 0.0 0.0 0.0
0.0 0.0 0.0 0.0 0.0 0.0 0.0 0.0

action_model._continuous_distribution.log_sigma f4 [1, 3]
00000000: 0000 0000 0000 0000 0000 0000
0.0 0.0 0.0

action_model._continuous_distribution.mu.weight f4 [3, 128]
00000000: d295 24bc 93be b23c a149 063d b24d 5a3d
00000010: ae23 b5bb 7840 d7bc 1296 953b 2bbc 59bb
00000020: 7e0f 85bc ea74 f0bb 5212 feba ce7a 88bb
00000030: 5dbb ce3c 5b44 aa3a bba0 c2bc ff41 2a3c
00000040: a01c f23c 778a 003c 2878 723c bf10 ebbc
00000050: 3470 283c 82d2 603c 049f c53b 02eb 72ba
00000060: ff38 003d 571b f13a bfb0 0dbc 45b5 27bc
00000070: c9f1 c5bb f867 9bbc 930d c5bb 735e 203a
00000080: 57cb 2bbc d7d8 24bc 74a3 25bc 3dd0 55bd
00000090: 888d 573c a813 80bc bb91 223b 6e12 273d
000000a0: ed9e d53c 1bf7 8ebc fe00 98bb 605c ae3a
000000b0: 494d 0ebc 7e48 46bc 831c 7d3c da33 24bd
000000c0: 5e98 a13b e24e e3bc 31ca 8dbb 1b60 083b
000000d0: 50bb e0bc 84e1 b9bb 9d68 90bc d33c 2c3b
000000e0: 6f7a e53c e616 c3bb f556 71bb db7e 43bb
000000f0: b939 15bd a871 38bd b111 893c a0e3 a03c
00000100: 5b84 3d3c 0a13 18ba 7350 8f3b cce1 91bc
00000110: cb87 543b 7f82 2f3c 106f 5abb 7c75 8e3c
00000120: 5f7e 753b 20f1 223c 512e a8bc 8ee0 a0bb
00000130: 02e3 0d3c d134 453c 6bd9 273c 3f1d c03a
00000140: ffdb 1bbc b7cd 1fbc e7ac 23bc 461b 04bd
00000150: 887e f23b aba6 3bbb 1713 1b3d 93eb 3e3a
00000160: 3cee 373c fd6d 7e3c 2a9c fc3b 6bbb 4dbc
00000170: b3c1 933c 4b53 3a3b 8fb6 abbc 0d6c acbc
00000180: 4f6d bebc 5144 38bc ee3f b2ba 61e3 c43c
00000190: b98a 223c 7e8b 05ba fb3c 363c b840 a43c
000001a0: 90d1 31bc 9b55 32bc 773d a7ba b80e 5ebb
000001b0: fb6c 96bc af91 9bba 1dda 483c 75fa 253c
000001c0: 9ba1 4ebb b294 523c 9728 7cbc b55f 0f3c
000001d0: d901 8aba 52dd 36bc ebc8 9abb a301 37bc
000001e0: 23a2 33bc f2a1 79bb 1b35 f1bc 9c72 2a3c
000001f0: fb78 ff3a d6d4 463b e170 bc3c 5b68 fe3c
00000200: cbb2 493b ab5b be3b 3d33 843c 8546 95bc
00000210: fb43 fabc 1a0b 183c bb19 b23c 436f d03a
00000220: f41b c83b eaed cebc 20f2 c63c ca1f 84bb
00000230: 8720 b8bc 8416 97bb 9756 75bb a2a0 713c
00000240: 126a 83bc ee6d 46bc bbac 69bc 2467 20bc
00000250: 4e53 103c 242e 84bc 0a05 0c3d 00eb 59bc
00000260: b1c9 0bbc 7224 71bc 4341 55bb 82cb b9bb
00000270: 2b8d adbc 4548 ac3b 0d12 6ab8 2a12 ce3b
00000280: 951a 74bc 7305 893c cd19 143c f40f c43b
00000290: 80e7 6e3c 848d b43c c3f4 c9bc 60d0 67bb
000002a0: 9365 103a 56e3 30bc 4bd1 ba3c 5523 f03c
000002b0: 6881 fb3b ad5e e2bc 4dd7 aabb 0fff 4e3c
000002c0: a301 62ba ab49 463d 7a1c a83c 6c6f c03b
000002d0: 6857 69b9 eb4e fabb 4702 2ebc 8b2d babc
000002e0: c7a1 26bb 4885 b53c cca2 9bbb 50a6 843c
000002f0: 55f2 b3ba 817f c63b eb07 1bbc ea8f 6fbb
00000300: 5ef9 993b b0f8 7c3b 23a7 a43b 0cce 02bc
00000310: 52db 93bc 1fc9 43bc 90be da3b 0b7d 9a3c
00000320: bfda 85bb ab50 83bc 9f42 0dbb 5ae2 f53b
00000330: 5233 8bbc 8335 763c ebd1 ebba ca86 ddbb
00000340: d68c be3c ef6d 7dbc 66cc b5bc afb0 b4b9
00000350: 7ad3 613b c376 31bc 1936 883c e547 8f3c
00000360: dd0e 90bc c2a2 7abc 4440 2cbc 973a f13b
00000370: a99b bf3b 1a80 e0bb 7cb9 bfbb 1c27 3e3c
00000380: 9f37 6cbc 9792 8c3c c7bd c43a 5350 a5bc
00000390: e848 0b3d 9376 c83b a134 163b 8bad 093d
000003a0: 7f88 e53b 7b77 3a3c 16e4 9cbc 5800 a4ba
000003b0: 91fb 493c d701 443c d2ab 553b 61f7 02bc
000003c0: 75d0 c1ba 383a ae3c c04f 693b 98ef 6c3c
000003d0: 7563 93bc 3ef7 85bc 60ae d1bc 6b84 a6bc
000003e0: 2854 703b d788 8f3c 9a9f c93c 0702 d6bc
000003f0: 9719 523c 570d a9bb 234a 8ebc 3c5f 9e3b
-0.010045486 0.021819388 0.03278506 0.053296752 -0.005527935 -0.026275858 0.004565009 -0.003322373
-0.016242739 -0.007338156 -0.0019384122 -0.00416503 0.025235826 0.0012990342 -0.023758283 0.010391711
0.029554665 0.007845513 0.014799155 -0.028694509 0.010280658 0.013722064 0.006030919 -0.0009266586
0.031304356 0.0018394989 -0.008648097 -0.010236089 -0.006040786 -0.018970475 -0.006013581 0.00061175897
-0.010485492 -0.010061464 -0.010109771 -0.052200545 0.013156302 -0.015634373 0.00248061 0.04078906
0.026076758 -0.017451813 -0.00463879 0.0013302676 -0.008685418 -0.012102244 0.015448692 -0.040088512
0.0049314937 -0.027747575 -0.0043270816 0.0020809236 -0.027433068 -0.0056726355 -0.017628008 0.0026281371
0.028012482 -0.0059536574 -0.0036825512 -0.002983025 -0.036432 -0.045030266 0.016732069 0.01963979
0.0115672005 -0.0005801177 0.004373604 -0.017807864 0.0032429572 0.010712265 -0.0033330359 0.017390005
0.0037459356 0.009945184 -0.020529898 -0.0049095815 0.00866008 0.012036518 0.010244708 0.0014657154
-0.0095129 -0.009753636 -0.009989954 -0.032252572 0.0074003376 -0.0028633277 0.037860002 0.0007283028
0.011226233 0.015529153 0.007709046 -0.012556891 0.018036699 0.0028430994 -0.020961074 -0.021047616
-0.023245482 -0.011246757 -0.0013599375 0.024034204 0.009920769 -0.00050943333 0.011122937 0.020050392
-0.010853186 -0.010884668 -0.0012759407 -0.0033883285 -0.018362513 -0.0011868979 0.0122590335 0.010130514
-0.003152943 0.012852835 -0.015390537 0.008750846 -0.0010529115 -0.011161165 -0.0047236583 -0.011169824
-0.010963949 -0.0038090912 -0.029444268 0.010403302 0.0019491011 0.0030339262 0.023003044 0.03105562
0.0030776735 0.0058092675 0.016137714 -0.018222103 -0.030549994 0.009279991 0.021740785 0.0015902299
0.006106848 -0.02525993 0.024285376 -0.00403211 -0.022476448 -0.0046108384 -0.0037435645 0.0147477705
-0.01604179 -0.01211117 -0.014262374 -0.009790216 0.008808924 -0.016135283 0.034184493 -0.013300657
-0.008531974 -0.014718162 -0.003254012 -0.005670012 -0.021185478 0.0052576386 -5.580676e-05 0.0062887864
-0.014898916 0.016726231 0.0090393545 0.005983347 0.014581561 0.022040136 -0.024652844 -0.0035372004
0.00055083 -0.010796389 0.022804877 0.029313723 0.0076753385 -0.027633036 -0.005213654 0.012634053
-0.000862146 0.0484101 0.020521391 0.0058726575 -0.00022253173 -0.0076388023 -0.01062066 -0.022726795
-0.0025426017 0.02215828 -0.0047496315 0.016192585 -0.0013728837 0.00605768 -0.009462337 -0.0036554285
0.0046989163 0.0038600378 0.005024807 -0.007983696 -0.018048916 -0.0119498065 0.006675549 0.018858453
-0.0040849145 -0.016029676 -0.0021554602 0.00750379 -0.016992245 0.015027407 -0.0017991638 -0.006760453
0.023260515 -0.015468105 -0.022192191 -0.00034463915 0.0034458325 -0.010831538 0.016627358 0.017490337
-0.017585212 -0.015297594 -0.010513369 0.007361721 0.0058474136 -0.0068512084 -0.005850969 0.011606004
-0.014417558 0.017159743 0.0015010171 -0.020179903 0.034005076 0.006117651 0.0022919553 0.03361277
0.007004797 0.011381025 -0.019151729 -0.001251231 0.0123280445 0.011963329 0.0032603634 -0.00799355
-0.0014786856 0.021267995 0.0035600513 0.0144614205 -0.01799176 -0.016353246 -0.025595844 -0.020326814
0.0036671255 0.017521305 0.024612237 -0.026124014 0.012823484 -0.005159061 -0.017369336 0.00483313

action_model._continuous_distribution.mu.bias f4 [3]
00000000: 0000 0000 0000 0000 0000 0000
0.0 0.0 0.0

action_model._discrete_distribution.branches.0.weight f4 [2, 128]
00000000: aded 4f3c f056 0abc b19a a83c dabc 6fbb
00000010: fdc1 193b c61a 35bc 90ea d23a 9082 583c
00000020: 78b7 7bbb 15ef 3abc 7b07 84bb 7962 82bc
00000030: aa11 fc3b d7b3 b5bb da13 663b 1d14 5dbb
00000040: f537 f6bb 7b9a 8a3a 98ad 7abc 6582 9f3b
00000050: d9a6 44bc 53b3 cdbb 2523 da3a 5349 3d3c
00000060: dbea 933c 927c d43b 6cea 0cbb 4310 5eba
00000070: ef33 183c 777b 9abb 6716 5abb 3a3e 50bc
00000080: 87e9 503c 1629 86bb 08a1 e3bb a1b0 0a3c
00000090: 30db 4b3c 35b0 fcbb 435c f63b 972f 523b
000000a0: c7fd 8a3c 3fc6 943c 5a90 07bb f088 d43a
000000b0: e084 4dbc c316 193c ab70 3a3c 93b4 413a
000000c0: 039d 1f3c 1b5b 2d3b 0674 3bbb 07fb 91bb
000000d0: 2d28 73bc d592 d637 6e9f a8bb 3a9c f73b
000000e0: 97af 253c d349 783c 0a17 b739 205e 2ebc
000000f0: ac0f 4abb c3d4 d4bb 62ae d339 00fb febb
00000100: 67f0 9e3b 781c 91bb 007c 4dbc 3bb4 153c
00000110: 425c 573a 4220 0e3c dae1 a5bc b5fe a93b
00000120: e0f2 d0bb 5afa 4d3a e426 2b3c d37a a13b
00000130: 77df 1a3c b395 1fbc 9ec0 2a3b 4b84 5ebb
00000140: 6b22 a93b 4de3 6d39 a03e 6f3b 9205 f839
00000150: 1fec 8abb 1789 323b a7af 1f3b 8655 c63b
00000160: 0f08 d13b 7420 33bb 723d b93b 4a84 b93b
00000170: 4809 a9ba 2f6e eeba cbce b8bb 053d 813c
00000180: d774 883b eb7f 073c 0f07 1b3b 1374 da3b
00000190: 81fb 8abc 2f2b 0dbb 90ec 5b3b 0715 8b3b
000001a0: 8374 113c 24c3 aebb dbb1 f53a fb28 3a3b
000001b0: 5d0d 95ba 39ff 933b ea97 ec3b 2dd2 8539
000001c0: 5a1d ca3a da04 f63a ea62 5fbc 3065 ddbb
000001d0: 6f0a 4e38 9696 1c3b 2fbb 973c 0507 c43b
000001e0: dad1 1d3c 373a 03bc 8b8d 90bb 1be7 88bb
000001f0: 749d c03a 0925 b93b f5b9 81bc 52da 61bb
00000200: d88f eabb 71de b03c 9d5f e9bb 925e 5aba
00000210: 441a 4cbc 6345 873c e3f4 11bc 012b 1c3c
00000220: 77c7 f73b e398 3b3c c7f6 c6bc adec c13b
00000230: 1090 aaba 015c 9abb f376 1c3b 7f80 6d3c
00000240: 8814 b2bb fb0c 11bc 73ef e8bb 17f4 5e3b
00000250: 250a 49bc a809 dd3a eb1c 123c 8566 f6bb
00000260: 633a 963c 985b c43b ceb9 b3bb 3d3d 7a3b
00000270: 9fd4 3f3c ebfb 4dbb aba7 19bb 785c e1bb
00000280: e235 873b 8f3a a83a 2e74 a4bc 47d7 89bc
00000290: 021d 59b9 c44c af39 1a48 443c 4abb 68bb
000002a0: 9535 fe3b 1563 363c de19 15bc 7c56 c73b
000002b0: bd21 9e3b 917f 8aba 1ab8 34bc d3ee c3bb
000002c0: b21c dbba 27c9 1abb 67a8 a2bc e3d7 d73b
000002d0: da17 0e3c 4209 ef3b d9ff b83a 0214 ddba
000002e0: d8f9 c938 de8b c5bb 43b6 40bc 52b9 073c
000002f0: 562a 80ba 7bdd 833b fd57 5b3c ec70 193b
00000300: efc4 19bc e7bb 12bc 486b 3b3c 7d96 d03b
00000310: 7375 3f3c 7a31 523c 8f08 b739 b377 353b
00000320: c6c2 303b 91d2 1ebc 5827 233a 2ba0 4c3c
00000330: 850e 15bb 27be a53b ace9 24bb af60 563c
00000340: 1429 893b 5d0b ebbb b2c5 45bb 62dc 64bb
00000350: 27ce 913b 9fbf 553b c335 3abc 1b8e 633b
00000360: d795 98bc 6ace fe3b 4d04 b0bb d13f 92ba
00000370: edb9 3fba d5f8 713c 8bb7 8bbc 8fc8 cc38
00000380: 4de7 793c 6b0e c1bb 6e8a ab3b c578 3cbc
00000390: 48f8 5e3c a046 d23b dfe8 aa3b 1d2c 5fbc
000003a0: 9f10 2cbc 39d3 0e3b f6b1 c8bb e734 723b
000003b0: 984f b5bb 67d6 29bc ea5c dc3b eb17 143c
000003c0: 1bd0 183c 1b2c 07bc 8b21 8f3a f95b 2bbb
000003d0: 3afd d43b 545c 08bb 3025 9b3b 6f1f 113a
000003e0: 468d 343c 80eb 8f3b e56b a2bb 5316 d7bb
000003f0: a21f 823b 3f37 9bb9 1aa0 6c3a b6f3 3fb7
0.012690944 -0.008443579 0.020581575 -0.003658107 0.0023461573 -0.011053747 0.0016091634 0.013214722
-0.0038408916 -0.011409541 -0.004029212 -0.015916096 0.0076925354 -0.00554512 0.0035107047 -0.0033733912
-0.007513995 0.0010574603 -0.015300177 0.004867839 -0.01200267 -0.0062774806 0.0016642554 0.011553126
0.018056324 0.0064845765 -0.002150203 -0.0008471051 0.009289726 -0.004714425 -0.0033277513 -0.0127101485
0.01275099 -0.0040942533 -0.0069466867 0.008464963 0.012442395 -0.007711435 0.0075183227 0.0032071823
0.016966714 0.018160937 -0.0020685405 0.0016215127 -0.012543887 0.009343806 0.011379401 0.00073892734
0.009742024 0.0026452008 -0.002860309 -0.0044549736 -0.014841122 2.5579162e-05 -0.0051459586 0.0075564655
0.010112665 0.01515432 0.00034921645 -0.010642558 -0.0030832095 -0.0064950897 0.00040374981 -0.0077813864
0.0048504355 -0.0044284426 -0.012541771 0.009137209 0.00082153466 0.008674683 -0.020249296 0.005187834
-0.006376609 0.00078574347 0.010446284 0.004927972 0.009452692 -0.009740281 0.002605475 -0.0033953364
0.0051615736 0.00022686757 0.0036505833 0.00047306396 -0.0042395736 0.0027242356 0.0024366172 0.0060526757
0.0063791345 -0.0027332576 0.005653077 0.005661522 -0.0012896443 -0.0018190796 -0.005639886 0.015776167
0.004164319 0.008270244 0.002365533 0.006666669 -0.01696563 -0.0021540632 0.003355775 0.00424445
0.008877876 -0.005333321 0.0018745022 0.0028405774 -0.001137178 0.004516509 0.007220258 0.0002552433
0.0015420124 0.0018769756 -0.013634423 -0.0067564473 4.9123944e-05 0.0023893467 0.018521873 0.005982282
0.009632552 -0.008009485 -0.0044114045 -0.0041779405 0.0014695362 0.005650167 -0.015835742 -0.0034462404
-0.007158261 0.021590443 -0.0071219937 -0.0008330132 -0.012457434 0.016512578 -0.008908483 0.009531737
0.00756162 0.011450025 -0.024287594 0.0059181065 -0.0013012905 -0.0047106748 0.002387461 0.014495968
-0.0054345764 -0.008853192 -0.0071086227 0.003402 -0.012270485 0.001686384 0.008918027 -0.0075195455
0.018338388 0.005992364 -0.005484796 0.0038183474 0.011708408 -0.0031430672 -0.0023445885 -0.006877478
0.0041262964 0.0012834835 -0.02007493 -0.016826285 -0.00020705539 0.00033435796 0.011980081 -0.0035512024
0.0077578523 0.011132021 -0.0091004055 0.006083308 0.0048257993 -0.0010566582 -0.011030221 -0.005979398
-0.0016716926 -0.0023618431 -0.019855691 0.006587015 0.008672679 0.007294805 0.0014114334 -0.0016866925
9.630964e-05 -0.0060286364 -0.011762205 0.00828393 -0.0009778242 0.0040242053 0.013387677 0.0023413254
-0.0093853315 -0.008955932 0.011439152 0.006365596 0.011685717 0.012829179 0.00034910857 0.0027689754
0.0026971563 -0.009693758 0.0006223819 0.012489359 -0.002274425 0.0050580683 -0.0025163693 0.013084575
0.004185805 -0.0071729855 -0.003017765 -0.0034921397 0.004449624 0.0032615436 -0.011365357 0.0034722153
-0.018626137 0.0077760713 -0.0053716064 -0.0011157935 -0.0007313777 0.014768799 -0.017055294 9.764835e-05
0.0152529 -0.0058916113 0.005235008 -0.011503403 0.013609 0.0064171106 0.0052157487 -0.013621357
-0.01050201 0.002179338 -0.00612473 0.0036957802 -0.00553317 -0.010366059 0.0067249434 0.009038906
0.00932696 -0.008250262 0.0010920031 -0.002614735 0.0064999135 -0.0020806985 0.0047346577 0.0005535995
0.01102001 0.0043920875 -0.0049567097 -0.0065639406 0.003971056 -0.00029605065 0.00090265425 -1.14412305e-05

action_model._discrete_distribution.branches.0.bias f4 [2]
00000000: 0000 0000 0000 0000
0.0 0.0

network_body._body_endoder.seq_layers.0.weight f4 [128, 40]
00000000: 424f 343d f5c8 ea3c b0a5 61bd 3a45 d7bd
00000010: 7317 cd3b 6ba9 89bd 574c a23e 2389 713d
00000020: 9cc4 193c 804d 663b 9a67 4b3d bf1b d33d
00000030: 28a9 8a3e 267a 2fbe 90a7 d4bd 106b 2e3e
00000040: 633a 9a3e 6d3b 1cbe d1c2 c53d 60f2 b63d
00000050: 81d0 86bc 18ae ee3d dd85 cb3b b395 293e
00000060: 1c4a 44be ae13 b1bd 4a92 b13e 090b c03d
00000070: 3f87 67bd ee65 edbd bcc6 f43e 3b5f 88bd
00000080: 1fc4 4b3c 39a9 bb3d a1ca cfbd 86b4 433d
00000090: 613f 8d3e ebc0 93bd 9023 423e 37b6 963d
000000a0: ea86 bd3d e4cb 08be 0b68 eabd 62eb e6bd
000000b0: 3c86 31be cfb1 1fbe b951 063d 0040 753d
000000c0: 626c 9e3e 2bbc e03d 0ab5 6e3c 8bc3 3dbe
000000d0: 0f94 263e a821 10be 774e 003e 813b 90be
000000e0: 29c9 b9bd 6df1 48bd 33ba 0d3e addc 553c
000000f0: 0876 0dbe 75cc ebbe e483 5a3d 2fcf 6ebd
00000100: 7e90 103e c444 6d3d 1136 5f3d 9f68 9bbd
00000110: bc4e b43e df66 e13d c85c 3cbe cefa 06be
00000120: 01fe 32be 1985 223e 660d 31be 4e6e 58be
00000130: 72e1 b2bd 22e1 0f3e 90db 513e 7984 183d
00000140: 4f90 d5be 154a d8bb 63b5 e7bb 8433 743e
00000150: a814 61be 7795 493e 3319 633d 78c6 473d
00000160: a0ec 53be fba4 ddbd 3ed5 8fbd 6f97 033e
00000170: afc8 b83d 1435 e9bd 65dd c6bd 9293 7f3d
00000180: 6daa e6bd 489d 703e 636b aebc fcca a7bd
00000190: 27a2 05be ef7a 6ebe b261 b63d 9aab 9fbc
000001a0: 92fd 943e 4d64 8b3d 217d 5c3c 6c78 c23d
000001b0: 3cdd b0bb a018 88bc 9374 b1bd fde7 263e
000001c0: 3e43 e2bc d721 313b 6443 613d 0fc3 af3e
000001d0: 53b0 acbd 07f0 6cbe b459 8e3d 3282 dd3c
000001e0: 019d 8d3e 525e 17be abc3 acbe 4ad3 3e3d
000001f0: 124d 6a3e a1a9 fcbc bec0 4f3e 2559 663d
00000200: 1359 893d 2180 aabc dd8b 34be 49f8 07be
00000210: ffc6 13be 550e b43e 253a 58bd 1cae 433e
00000220: 2209 a13d 49bc f73d 2b10 43be 4097 8d3d
00000230: 49e3 3f3d a35b ffbc 95a9 783d 8e01 20be
00000240: 0161 783d f997 e3bc ade6 34be b536 563d
00000250: 7f97 0c3e 7b81 b13d 1345 81ba d59a 1b3d
00000260: 8096 433e 0322 4dbc 5ac5 44bd a988 0ebe
00000270: 8050 5abe 9430 3cbe 4be5 60bd c9e2 50be
00000280: 5bf8 f3bd df13 38bd ac84 f0bd a103 bebd
00000290: fb98 d2bc a8d8 78be a125 c43e 03b9 8d3e
000002a0: ab36 843c a167 8e3b d2ce 603e 1220 ab3e
000002b0: 6a15 563d 0629 6d3e 811d 2b3d b494 e0be
000002c0: 9d26 84be 75b2 6bbc c158 79bd fc5d 04be
000002d0: 0c22 cd3c 6609 8a3d 31cb adbe df10 e2bd
000002e0: 0cbc cebd d9bc a9be a400 733d 306b a1bd
000002f0: 9f9a 39be f0a6 a13c 31a1 9fbd 4d3c a63d
00000300: ab67 d63d ceb3 e53d ddc5 76bc 9bc6 da3d
00000310: 9e00 89bd fb8f 79be 8242 06be ff4f 253e
00000320: e05d a83d 7884 e5bb a570 e33d a923 363e
00000330: 16ee 4f3e 2c8d 06be 3307 963e b8d8 a43d
00000340: 78ea 1abd 08d3 ccbd 899f c9bd 194e 9b3b
00000350: 8522 94be c7d2 7ebd 616b cbbd 49f0 4abd
00000360: 432d 89be 3fda 733c 9fcd 253e 294e cbbd
00000370: f162 0d3e 9ec3 a93e 2ba8 12bc 8e28 07be
00000380: 7269 8a3c 6071 a03e 5848 c83d 6a25 783e
00000390: 6ec2 053e 57a8 283e df46 89bd 6224 04be
000003a0: 3aea b33d 095e 1ebe 283f ef3d da09 4fbd
000003b0: 0592 61bd dc3a 123e ef44 f7bd e5a4 d7bc
000003c0: 3212 8e3d 7707 c83c 1a0a dbbd 32f6 09be
000003d0: 855c 4d3d 6d17 d73a 9949 fcbe ca48 b93d
000003e0: 64b6 c63e 9444 603d a1f7 bbbd bd89 61be
000003f0: 44cd 65be 5d0e 703e d1a7 423d 435b b73d
0.0440209 0.028660277 -0.055089653 -0.10511251 0.006258899 -0.06721767 0.31698868 0.058968674
0.009385254 0.0035141408 0.04965935 0.103080265 0.2708218 -0.1713644 -0.103835225 0.17033029
0.3012267 -0.15257044 0.09656299 0.08932948 -0.016456844 0.116542995 0.006211026 0.16561012
-0.19168895 -0.08646332 0.34681922 0.09377105 -0.056525465 -0.11591707 0.47807872 -0.06658789
0.012436896 0.09163136 -0.1014607 0.047779582 0.27587417 -0.072145306 0.18958879 0.073589735
0.092542484 -0.13359028 -0.11445626 -0.112753645 -0.17336363 -0.15595172 0.03279278 0.05987549
0.30942065 0.1097339 0.01456953 -0.18531625 0.16267417 -0.14075339 0.12529932 -0.28170398
-0.090715714 -0.049058367 0.1384056 0.0130531015 -0.13814557 -0.46054426 0.053348437 -0.058303054
0.1411762 0.057926908 0.05449492 -0.07588314 0.3521632 0.11005949 -0.18394768 -0.13181612
-0.17479707 0.15871085 -0.17290267 -0.21135828 -0.087344065 0.14050725 0.20493913 0.03723571
-0.4171166 -0.006600628 -0.0070711835 0.23847777 -0.21980536 0.19685923 0.055443954 0.04877326
-0.20695734 -0.10822483 -0.070230946 0.12850736 0.09022652 -0.11387077 -0.097101964 0.062396593
-0.11262975 0.23497498 -0.02129144 -0.08193013 -0.13050137 -0.23289083 0.08905353 -0.019491006
0.2909971 0.0680624 0.013457567 0.09495625 -0.005397467 -0.016613305 -0.08664813 0.16299434
-0.027619954 0.0027028227 0.05499591 0.34328505 -0.08432069 -0.23138438 0.06950703 0.027039621
0.27658847 -0.14782074 -0.33743033 0.04658822 0.22880962 -0.030842604 0.20288369 0.05623736
0.06706443 -0.02081305 -0.17631479 -0.13278307 -0.1443138 0.35167184 -0.052789826 0.19109386
0.0786307 0.120964594 -0.19049136 0.06913614 0.046847615 -0.031171625 0.0607086 -0.15625593
0.060639385 -0.027782427 -0.17666121 0.052298266 0.13729666 0.086672746 -0.0009862505 0.037989456
0.1910038 -0.012520316 -0.04803977 -0.13919319 -0.21319771 -0.18377906 -0.05490617 -0.20399012
-0.119126044 -0.044940826 -0.11744055 -0.09278036 -0.025707712 -0.24301398 0.3830996 0.27680215
0.016139349 0.0043458496 0.21953896 0.33422905 0.052266516 0.2316018 0.041776184 -0.4386345
-0.2581071 -0.014385809 -0.060875658 -0.12926477 0.025040649 0.06740074 -0.33944085 -0.11038374
-0.10094461 -0.33151892 0.059326783 -0.078817725 -0.1812539 0.019732922 -0.07794417 0.0811697
0.10468992 0.11215936 -0.015061823 0.10682412 -0.06689571 -0.2437133 -0.13111308 0.16143797
0.0822103 -0.007004317 0.111054696 0.17787041 0.20305666 -0.1313979 0.29302368 0.08049148
-0.037821263 -0.100011885 -0.09844882 0.0047395346 -0.28932586 -0.06221273 -0.0993259 -0.04954556
-0.26792344 0.014883577 0.1619172 -0.09927017 0.13807274 0.33157057 -0.008951227 -0.13199064
0.016895983 0.31336498 0.097794235 0.24233022 0.1306245 0.16470467 -0.06702971 -0.12904504
0.087849095 -0.15465559 0.11681968 -0.050546505 -0.055070896 0.14280266 -0.12073695 -0.026323745
0.06937064 0.024417622 -0.10695286 -0.13472822 0.05013706 0.001641018 -0.492749 0.090470865
0.38811028 0.0547529 -0.09178091 -0.22025199 -0.22441584 0.23442979 0.047523323 0.08952954

network_body._body_endoder.seq_layers.0.bias f4 [128]
00000000: 0000 0000 0000 0000 0000 0000 0000 0000
00000010: 0000 0000 0000 0000 0000 0000 0000 0000
00000020: 0000 0000 0000 0000 0000 0000 0000 0000
00000030: 0000 0000 0000 0000 0000 0000 0000 0000
00000040: 0000 0000 0000 0000 0000 0000 0000 0000
00000050: 0000 0000 0000 0000 0000 0000 0000 0000
00000060: 0000 0000 0000 0000 0000 0000 0000 0000
00000070: 0000 0000 0000 0000 0000 0000 0000 0000
00000080: 0000 0000 0000 0000 0000 0000 0000 0000
00000090: 0000 0000 0000 0000 0000 0000 0000 0000
000000a0: 0000 0000 0000 0000 0000 0000 0000 0000
000000b0: 0000 0000 0000 0000 0000 0000 0000 0000
000000c0: 0000 0000 0000 0000 0000 0000 0000 0000
000000d0: 0000 0000 0000 0000 0000 0000 0000 0000
000000e0: 0000 0000 0000 0000 0000 0000 0000 0000
000000f0: 0000 0000 0000 0000 0000 0000 0000 0000
00000100: 0000 0000 0000 0000 0000 0000 0000 0000
00000110: 0000 0000 0000 0000 0000 0000 0000 0000
00000120: 0000 0000 0000 0000 0000 0000 0000 0000
00000130: 0000 0000 0000 0000 0000 0000 0000 0000
00000140: 0000 0000 0000 0000 0000 0000 0000 0000
00000150: 0000 0000 0000 0000 0000 0000 0000 0000
00000160: 0000 0000 0000 0000 0000 0000 0000 0000
00000170: 0000 0000 0000 0000 0000 0000 0000 0000
00000180: 0000 0000 0000 0000 0000 0000 0000 0000
00000190: 0000 0000 0000 0000 0000 0000 0000 0000
000001a0: 0000 0000 0000 0000 0000 0000 0000 0000
000001b0: 0000 0000 0000 0000 0000 0000 0000 0000
000001c0: 0000 0000 0000 0000 0000 0000 0000 0000
000001d0: 0000 0000 0000 0000 0000 0000 0000 0000
000001e0: 0000 0000 0000 0000 0000 0000 0000 0000
000001f0: 0000 0000 0000 0000 0000 0000 0000 0000
0.0 0.0 0.0 0.0 0.0 0.0 0.0 0.0
0.0 0.0 0.0 0.0 0.0 0.0 0.0 0.0
0.0 0.0 0.0 0.0 0.0 0.0 0.0 0.0
0.0 0.0 0.0 0.0 0.0 0.0 0.0 0.0
0.0 0.0 0.0 0.0 0.0 0.0 0.0 0.0
0.0 0.0 0.0 0.0 0.0 0.0 0.0 0.0
0.0 0.0 0.0 0.0 0.0 0.0 0.0 0.0
0.0 0.0 0.0 0.0 0.0 0.0 0.0 0.0
0.0 0.0 0.0 0.0 0.0 0.0 0.0 0.0
0.0 0.0 0.0 0.0 0.0 0.0 0.0 0.0
0.0 0.0 0.0 0.0 0.0 0.0 0.0 0.0
0.0 0.0 0.0 0.0 0.0 0.0 0.0 0.0
0.0 0.0 0.0 0.0 0.0 0.0 0.0 0.0
0.0 0.0 0.0 0.0 0.0 0.0 0.0 0.0
0.0 0.0 0.0 0.0 0.0 0.0 0.0 0.0
0.0 0.0 0.0 0.0 0.0 0.0 0.0 0.0

network_body._body_endoder.seq_layers.2.weight f4 [128, 128]
00000000: 1e80 b0bd e46f 163e 3d31 8b3c 99e7 443e
00000010: 5805 17be dba9 223d 71b6 073e d9f6 fd3d
00000020: 60ad d7bd d0ff 16be 6e3f ba3d 6132 a53d
00000030: 2a3f ecbd 8490 2c3d 897b 8fbc fd10 833d
00000040: 861c 52bc d9d2 e8bb bc16 78bd 156f 16be
00000050: 4f96 c8bd 1b31 a0bd ab4e e73d 04d8 95bd
00000060: 7f9e da3d 405f 5b3d 7524 633c b8e7 31be
00000070: 6362 f73d c313 4d3b 87ce 80be 1035 32be
00000080: e2e4 0d3e 789e a43d 2d59 78bc 7468 09bd
00000090: df94 86be 1b00 d1bc c7a6 d8bd d464 18bd
000000a0: 553b 0dbd 4e37 bbbd 994a c1bd e723 0a3e
000000b0: cde3 2ebe bb7d 4a3d 6b66 febc 89d6 39bd
000000c0: 6875 1bbd c0f7 55be 2482 e3bc f3bf 993d
000000d0: 2ca5 823d d8e9 97bd 7d69 903b 6b3a b5bd
000000e0: 7381 ebbc 806b 033d 9a52 4ebd 342c 023c
000000f0: 84b7 713c ab0a 393d b1d2 ebbd 8946 ce3c
00000100: 7fd8 70bd 69b7 a73c 5938 223b 708e 0abd
00000110: 91d8 58bd 7c34 23bd 5f9f 243d bf39 323d
00000120: 2c17 0ebd adee 8f3d 8a8b a63d ab51 a2bd
00000130: 7e94 1b3d ac0c 243e 255e 91bd 4648 863d
00000140: ccce 97bc c222 583d 11a2 aabd 4905 223c
00000150: f087 6bbc 970b a6bd fdca b63d 7839 c9bc
00000160: a784 ec39 7c37 4abd b497 2cbe 5f6e 3abd
00000170: b99c 243e 25cb 9d3d 3291 fd3b 8316 c93d
00000180: 58f5 f3bc 294a 093e 5573 523b 782e 99bc
00000190: 5e11 10be f211 e2b9 bcd1 27bc 8bea f1bc
000001a0: e294 b0bd d595 3ebe 6e0a 1dbe 48fe 923b
000001b0: f1ed 0abe 84bf dd3c 7981 01be 2b4f e03d
000001c0: 35ed b63b 4424 473a 3859 e6bd 2e52 143d
000001d0: 418d b23d 0148 f63d 06fe 95bc 04c7 343e
000001e0: 7e55 0e3e b7b8 ba3d aab7 203d cd40 27be
000001f0: 414f 04be 3ce0 d63d b538 e0bd 70bd 8b3d
00000200: 2efa 39bd c7bc b9bd 4a8c 933c 4148 4fbe
00000210: 9364 9dbc 5e7c 2abe 5c67 213d ec3c cfbc
00000220: 144d a43c 00df 3e3d f579 97bd f934 763d
00000230: c163 923a e05d 003e f0e9 36bd 65aa f1bd
00000240: dca8 e2bd 7117 b93d 84e0 e7bb 8d9f 4b3d
00000250: 705a 0fbe 9371 9abd 0a27 dbbc 3b3f 5cbc
00000260: 1c3d bdbd 88a8 d63c 890b 273d ce83 7d3c
00000270: cec2 0fbe 2fa8 523d 0148 bdbc 7ef7 f1bc
00000280: 3d8b 44bd d875 a3bd 06b9 60bd 3d42 3abc
00000290: 7346 993d 7252 973d 97db 9f3d 2d8d 2a3e
000002a0: d312 96bc 3bc2 46bd d519 4abe 0b7b 413d
000002b0: 57ea 09be f86e 293e dc22 b6bd 01aa 813c
000002c0: 7d8a 0fbe 961f 433d db53 05bd 1089 b5bd
000002d0: 6d68 f33d e071 f13d c021 bf3d 9230 633a
000002e0: 6c77 c03d 826d 6ebd b4e0 ee3b 36e8 a03d
000002f0: b91c 42bb 9936 0e3d 05e0 ae3d 3892 b3bd
00000300: 6255 27bd 27e0 5e3d 976a 973d 1942 5dbd
00000310: f482 babd 3d83 c2bd 006f 343d 17bb 12be
00000320: bd75 9bbc 4e0c 833d 0e77 bbbc 628d 223c
00000330: daf4 5abe fcbe 0c3e 85bb 8d3d 0a89 aa3d
00000340: cbbf 0dbd ef61 733d 350b 56bc 61bd 973d
00000350: e2b1 053e c321 1b3e b235 debd a04e 2cbc
00000360: 2808 333e 698c 8f3d 3cd2 d9bd 6ded 01be
00000370: 5e48 0d3e 3af3 17bd ebd7 05be 074e fdbd
00000380: 3856 84bd bd61 143c 1d57 09be 5f07 cdbd
00000390: c42d adbd 9835 9d3d f940 ea3d 3c29 ad3d
000003a0: b5a6 d5bd 12da 6fbc b1ef a2bd e7e1 efbc
000003b0: d93d 4a3c a604 8cbb 261f cebc 344b 05bd
000003c0: 8a5a 213d 0d1f 4c3e 608a acbd 970a 463d
000003d0: 5d3b 1a3d a493 4cbe 79a8 8abd a5c8 8fbc
000003e0: a53a 033e a913 943d 70cc 223d 184c 1a3e
000003f0: 3598 ea3c 1eec 8ebd 2d96 6f3d ba09 1f3d
-0.086181864 0.1469112 0.016991252 0.19228972 -0.14748132 0.039712768 0.1325319 0.12400598
-0.105311155 -0.14746022 0.090941295 0.0806625 -0.11535485 0.04213001 -0.01751496 0.06399725
-0.012824183 -0.007105213 -0.060568556 -0.14690812 -0.09794294 -0.07821866 0.112943016 -0.07316592
0.10674762 0.053557634 0.0138636725 -0.1737355 0.12079313 0.0031292296 -0.25157568 -0.17403054
0.13856843 0.08038038 -0.01515798 -0.03354688 -0.26285455 -0.025512746 -0.10578685 -0.037205532
-0.03448041 -0.09141408 -0.094380565 0.13490258 -0.17079087 0.049436312 -0.031054696 -0.045370612
-0.037953764 -0.2089529 -0.027772017 0.075073145 0.0637916 -0.07417649 0.0044071064 -0.08849033
-0.02874825 0.032084942 -0.050371744 0.007945109 0.014753226 0.04517619 -0.115147956 0.025180118
-0.058800217 0.020473199 0.0024752824 -0.033827245 -0.05294091 -0.039844975 0.04019105 0.043512102
-0.034690067 0.07027946 0.08132084 -0.07925733 0.03798341 0.16020459 -0.07098035 0.06556754
-0.018531226 0.052767523 -0.08331693 0.009888955 -0.014375672 -0.08107679 0.08925436 -0.024563536
0.0004511226 -0.04936932 -0.16854745 -0.045515414 0.1607541 0.07704762 0.007738256 0.09818747
-0.029780075 0.13407196 0.00321122 -0.018698916 -0.14069125 -0.0004311945 -0.010242876 -0.029530784
-0.08622147 -0.18611844 -0.1533601 0.004485879 -0.1356733 0.02706886 -0.12647046 0.109526
0.0055824765 0.00075966516 -0.11247486 0.036211185 0.08718348 0.120254524 -0.018309604 0.17654043
0.138998 0.09117263 0.039237656 -0.16333313 -0.12920858 0.10491988 -0.10948316 0.06823242
-0.045404606 -0.090692095 0.018011231 -0.20242406 -0.019212997 -0.16649005 0.03940521 -0.025297605
0.020056285 0.046599388 -0.07396308 0.060109112 0.0011168645 0.1253581 -0.044656694 -0.11800078
-0.110673636 0.09037674 -0.007076325 0.049712706 -0.13999343 -0.07541194 -0.026752014 -0.01344281
-0.09240171 0.026203409 0.040782485 0.015473319 -0.14039156 0.051429924 -0.023105623 -0.029536959
-0.04798435 -0.07981461 -0.054863952 -0.0113683315 0.0748414 0.07388772 0.07805555 0.16655417
-0.018319523 -0.048525076 -0.19736417 0.047236484 -0.134683 0.16546237 -0.08893368 0.015828134
-0.14017673 0.047637545 -0.032550674 -0.08864033 0.11885152 0.11789298 0.09332609 0.00086666003
0.09397778 -0.058209904 0.0072899703 0.07856791 -0.002961917 0.034720037 0.08538822 -0.087681234
-0.04085291 0.054412987 0.07393377 -0.054018114 -0.091070086 -0.09497688 0.04405117 -0.14329182
-0.01897704 0.06398831 -0.022883918 0.009921404 -0.21382466 0.1374473 0.06920532 0.083269194
-0.034606736 0.05941957 -0.013064195 0.07409168 0.13056138 0.15149598 -0.10850085 -0.010516793
0.1748358 0.07009203 -0.10635802 -0.12688227 0.13797137 -0.037097193 -0.13070647 -0.12368398
-0.064617574 0.009056506 -0.13412137 -0.100111715 -0.08455995 0.07676238 0.11438174 0.084551305
-0.104321875 -0.014639394 -0.07955874 -0.029282523 0.012343847 -0.004273015 -0.025161337 -0.032542422
0.039392985 0.1993372 -0.084248304 0.048349943 0.03765427 -0.19978195 -0.06770415 -0.01755173
0.1281534 0.072303124 0.039745748 0.1506809 0.028637031 -0.069786295 0.05849283 0.038827635

network_body._body_endoder.seq_layers.2.bias f4 [128]
00000000: 0000 0000 0000 0000 0000 0000 0000 0000
00000010: 0000 0000 0000 0000 0000 0000 0000 0000
00000020: 0000 0000 0000 0000 0000 0000 0000 0000
00000030: 0000 0000 0000 0000 0000 0000 0000 0000
00000040: 0000 0000 0000 0000 0000 0000 0000 0000
00000050: 0000 0000 0000 0000 0000 0000 0000 0000
00000060: 0000 0000 0000 0000 0000 0000 0000 0000
00000070: 0000 0000 0000 0000 0000 0000 0000 0000
00000080: 0000 0000 0000 0000 0000 0000 0000 0000
00000090: 0000 0000 0000 0000 0000 0000 0000 0000
000000a0: 0000 0000 0000 0000 0000 0000 0000 0000
000000b0: 0000 0000 0000 0000 0000 0000 0000 0000
000000c0: 0000 0000 0000 0000 0000 0000 0000 0000
000000d0: 0000 0000 0000 0000 0000 0000 0000 0000
000000e0: 0000 0000 0000 0000 0000 0000 0000 0000
000000f0: 0000 0000 0000 0000 0000 0000 0000 0000
00000100: 0000 0000 0000 0000 0000 0000 0000 0000
00000110: 0000 0000 0000 0000 0000 0000 0000 0000
00000120: 0000 0000 0000 0000 0000 0000 0000 0000
00000130: 0000 0000 0000 0000 0000 0000 0000 0000
00000140: 0000 0000 0000 0000 0000 0000 0000 0000
00000150: 0000 0000 0000 0000 0000 0000 0000 0000
00000160: 0000 0000 0000 0000 0000 0000 0000 0000
00000170: 0000 0000 0000 0000 0000 0000 0000 0000
00000180: 0000 0000 0000 0000 0000 0000 0000 0000
00000190: 0000 0000 0000 0000 0000 0000 0000 0000
000001a0: 0000 0000 0000 0000 0000 0000 0000 0000
000001b0: 0000 0000 0000 0000 0000 0000 0000 0000
000001c0: 0000 0000 0000 0000 0000 0000 0000 0000
000001d0: 0000 0000 0000 0000 0000 0000 0000 0000
000001e0: 0000 0000 0000 0000 0000 0000 0000 0000
000001f0: 0000 0000 0000 0000 0000 0000 0000 0000
0.0 0.0 0.0 0.0 0.0 0.0 0.0 0.0
0.0 0.0 0.0 0.0 0.0 0.0 0.0 0.0
0.0 0.0 0.0 0.0 0.0 0.0 0.0 0.0
0.0 0.0 0.0 0.0 0.0 0.0 0.0 0.0
0.0 0.0 0.0 0.0 0.0 0.0 0.0 0.0
0.0 0.0 0.0 0.0 0.0 0.0 0.0 0.0
0.0 0.0 0.0 0.0 0.0 0.0 0.0 0.0
0.0 0.0 0.0 0.0 0.0 0.0 0.0 0.0
0.0 0.0 0.0 0.0 0.0 0.0 0.0 0.0
0.0 0.0 0.0 0.0 0.0 0.0 0.0 0.0
0.0 0.0 0.0 0.0 0.0 0.0 0.0 0.0
0.0 0.0 0.0 0.0 0.0 0.0 0.0 0.0
0.0 0.0 0.0 0.0 0.0 0.0 0.0 0.0
0.0 0.0 0.0 0.0 0.0 0.0 0.0 0.0
0.0 0.0 0.0 0.0 0.0 0.0 0.0 0.0
0.0 0.0 0.0 0.0 0.0 0.0 0.0 0.0

value_heads.value_heads.extrinsic.weight f4 [1, 128]
00000000: 5251 513e 0023 71bc 2022 ed3d cc82 903d
00000010: 4ec3 ecbd 0867 ec3d cec7 9cbd 52a9 bbbd
00000020: b8ae 153d 5612 533e 707a 33be b022 05be
00000030: 8082 51be 20ee f3bc 8926 d3bd 5e0d 033e
00000040: 9216 233e c492 f13d cab1 19be f09c 373d
00000050: f06b 8abc 804b 4bbb d18b 40be 392b 45be
00000060: d022 eebc bcfc 53bd 786e 903c c00d 9c3d
00000070: b465 c13d 7305 56be 1696 103e 2671 2abe
00000080: 287e 2a3d 76f3 5b3e 6004 763c a233 163e
00000090: 60e4 ad3c 2800 54be 28b8 483d bc03 d13d
000000a0: 408e 593e eced e73d 3c6a 8f3d 4068 99bb
000000b0: ee98 4e3e ab9d d5bd f2e6 1e3e 0c98 c7bd
000000c0: 68ee 1b3e 50a0 c43d c8ca 3bbe 52ad 98bd
000000d0: 08fe c7bd 64e8 f03d 0aa1 a1bd 690b 1fbe
000000e0: 9003 123d 9cfa 183e f85d 853c dca2 1ebe
000000f0: 58db a93c 28dc 8a3c 4048 313c 4caa 383e
00000100: 1b02 2cbe ac2c a03d b005 3a3d 6047 b83c
00000110: 0199 28be 88a7 e33d b6ed 573e 44ec e03d
00000120: 006f 603b 6a41 babd 5002 50be 143f 083e
00000130: 58c0 2e3d ea20 3a3e ea59 043e 7ce1 a53d
00000140: 84f1 01bd 1c30 cabd 4a89 1abe 88e5 b43d
00000150: e0b5 ce3b d8db 603d c8a5 99bc c253 12be
00000160: 8caa 053d fc0b 5a3e 2669 3fbe 80de f2ba
00000170: 8c20 d23d 7ce3 02be f0bb 833d f0be f93d
00000180: 58d8 3f3d 606c bcbd b0c4 153c f8b8 0bbd
00000190: df4d 28be 70cb 0bbd 98db 223d 9e69 17be
000001a0: c86d 303e cc93 a23d 2ca9 4bbe f834 de3c
000001b0: 40cd af3c fdcd e0bd 3c42 35be 5cf6 4ebe
000001c0: 2872 973d e463 be3d 0038 8f39 40c9 29bb
000001d0: 0cee b83d f896 5dbd 4896 abbc 0a7f 3bbe
000001e0: f829 4e3e 887a c83d 80e9 a93d 5b0c 33be
000001f0: 6217 323e a849 4a3d 981d 4f3e e435 873d
0.20441177 -0.014717817 0.115787745 0.070561975 -0.11560689 0.11543089 -0.07655297 -0.09163155
0.036543578 0.20612463 -0.17527175 -0.13001513 -0.20459938 -0.029776633 -0.103100844 0.12798068
0.15926579 0.117955714 -0.15009227 0.0448274 -0.016897172 -0.0031020343 -0.18803336 -0.1925477
-0.029069334 -0.0517547 0.0176308 0.0761981 0.094432265 -0.20900516 0.14119753 -0.16644725
0.04162422 0.21479592 0.0150156915 0.14668134 0.021227062 -0.20703185 0.04900375 0.102057904
0.2124567 0.11324677 0.070026845 -0.004681617 0.20175526 -0.104304634 0.15517786 -0.097457975
0.15227664 0.0960089 -0.18339074 -0.07454933 -0.097652495 0.11763075 -0.07892044 -0.15531696
0.03564793 0.1493935 0.01628016 -0.15491813 0.020734474 0.016950682 0.010820448 0.18033713
-0.16797678 0.078210205 0.04541558 0.022494972 -0.16464616 0.111159384 0.21086773 0.10982564
0.0034245849 -0.09094508 -0.20313382 0.13305312 0.042663902 0.18176618 0.12924924 0.08099648
-0.031724468 -0.098724574 -0.15091434 0.08832842 0.0063083023 0.05489716 -0.018755808 -0.14289764
0.03263335 0.21293634 -0.18692455 -0.0018529445 0.10260114 -0.12782091 0.064323306 0.121946216
0.04683718 -0.092003584 0.009141132 -0.034111947 -0.16435955 -0.03412956 0.039760202 -0.14786384
0.17229378 0.07938346 -0.19888753 0.027124867 0.021460176 -0.10976789 -0.17701048 -0.20211166
0.073948205 0.092963964 0.0002731681 -0.0025907308 0.09029779 -0.054099053 -0.020945683 -0.1831018
0.20133197 0.09788996 0.0829649 -0.17485182 0.17391732 0.04938665 0.20226133 0.06602076
